data/chkbox_models/chkbox_rnd10_3_bestVal.pt (torch_old, 35085 bytes, 25 tensors)

layer1.0.weight f4 [4, 1, 3, 3]
00000000: c08c 6ebe 8b02 afbe 7d72 80be ee7e ac3d
00000010: 5db5 773e e7d2 5abc 6e32 643e d76e 7dbe
00000020: f0a5 f1bb d0e8 28be 222f 0d3d bb61 4f3e
00000030: 057d 8fbe 286a c3bd d2c2 13be cde4 02be
00000040: 3fc5 92be a1ba 02bd 6045 aebd 89da 08be
00000050: fae1 bd3e a17e 0ebe 907c 603e 47d2 743e
00000060: ac5a 153e 8be2 583e c291 063e 8e3f 8e3e
00000070: 0ec7 25be 9dbf 07bc f859 243e 98f2 563d
00000080: 8570 153d 0998 d53e 572f 2a3e 0967 12bd
-0.2329588 -0.34181628 -0.25087348 0.084226474 0.24190278 -0.013355947 0.22284862 -0.24749313
-0.0073745176 -0.16495061 0.034468777 0.20252125 -0.2802507 -0.09541732 -0.14429787 -0.12782593
-0.28666112 -0.031916264 -0.08509326 -0.13364615 0.3708647 -0.13915493 0.21922517 0.2390834
0.1458537 0.2118017 0.1314154 0.27782863 -0.16189215 -0.00828543 0.16049945 0.05247745
0.03648426 0.41717556 0.16619621 -0.035742793

layer1.0.bias f4 [4]
00000000: 6b35 89be be6c 5abe 0fb8 92be 7fb5 0bbe
-0.26798567 -0.21330544 -0.2865605 -0.13643454

layer1.1.weight f4 [4]
00000000: 51b9 753f 8d24 893f c206 803f 88a7 803f
0.95985895 1.071428 1.0002062 1.0051126

layer1.1.bias f4 [4]
00000000: c46a 773d 1227 4a3d fdaf 9e3d 6c4e 7a3b
0.060404554 0.049353667 0.07748411 0.0038193716

layer1.1.running_mean f4 [4]
00000000: 2966 46bf 3f4c 87bf 0e97 1d3f 389f 353f
-0.77499634 -1.0570143 0.61558616 0.70946074

layer1.1.running_var f4 [4]
00000000: 5540 c03e a70b 4f3f 48d7 6c3f 702c 533f
0.3754908 0.80877155 0.92515993 0.8248968

layer2.0.weight f4 [8, 4, 3, 3]
00000000: aa20 a4ba 6730 9e3d 7ff4 b33d 2a1f a93d
00000010: 2b51 243d 0dee cfbd 6543 3d3d c55b ebbd
00000020: b6bc 26be c2d6 e3bd 32a5 8c3b 1d9a 9a3d
00000030: af14 193e 6926 b03d 0c12 6fbd deb4 fa3c
00000040: 60b9 fc3c f4f5 0e3e ebe8 61bd 8c7b 963d
00000050: 24a1 d2bd 5a11 293e a81b 5dbd 63d7 8a3d
00000060: cf8e 1a3d 76f6 e5bc 4f5e 313d 2cc3 f6bd
00000070: 2383 57bd 030e 51be ac9d b53d 7ff5 ca3d
00000080: b098 edbd 96be 9bbc 87db eb3d 9145 00be
00000090: ce79 b6bd ff02 60be 8f90 ce3c f5bb 74bd
000000a0: e92c 24be bd19 cebd 01e1 c8bd 0bd1 fa3d
000000b0: 12c7 9f3d 349f a33d dae4 53bd c827 94bd
000000c0: a18b 60bd 05fb 843d 88e1 6e3d a0e4 433d
000000d0: 7522 bc3d 4986 263e 7b8f febc bb40 9a3d
000000e0: a4ea 4bbd 3b3b b83d 2f7d 53bd 9b72 c73d
000000f0: c673 05be b6fc 17be 0fb7 60bd 8646 503d
00000100: f925 0e3d a954 f23d 1ae1 0bbd 9ce0 f83d
00000110: acb8 9b3d 9664 f93a 668b 4dbc 1db7 10be
00000120: b948 04bb dd35 3bbe 0c1d 51be b52c 2e3d
00000130: 9683 e73d 6839 a6bd b4d1 34bd e133 1f3c
00000140: 26e4 0bbe 1677 82bd 8e45 b3bd 47a3 36bd
00000150: 6d31 193e b128 1cbe 38fe 30bd 539b 39bd
00000160: c169 153e 3b97 6dbd ee2f ccbd 9123 133e
00000170: b488 66bd b3dd 003e 27b9 26bd 35db 4c3d
00000180: 3c6c 723d 1c16 953d 6629 f5bd 43f4 9bbc
00000190: 4dec 123e 3d8d d8bd d9b4 85bd 1b37 5bbd
000001a0: a481 eabd aa6d aebd 053b d2bd ea41 3a3e
000001b0: 60b9 993c 5512 99bd e727 87bd 2909 4f3d
000001c0: 27ff 033d 004d 31be 209e c3bb 1304 c9bc
000001d0: 6ef8 23bd 91b8 213e bc34 083e f382 19be
000001e0: 68db 9e3d ebd8 0abc e269 b13b 4f4b de3c
000001f0: fd4b 013d 8486 15be fc8b eabd d8c3 a63d
00000200: 3426 f63d 877b d3bd ca58 c8bd 0a14 fd3d
00000210: 71f3 9b3d fab1 04bd c825 ed3d 45b1 2f3c
00000220: 0517 58bd 726f fb3c 14fe d0bb 0ab7 a7bd
00000230: 376f f93d c1c8 b6bc 916b 2c3c efe1 d7bd
00000240: 25be f4bd 13d7 7ebd 5a60 013e ed0b 2fbe
00000250: 3ecb 103e 0436 d4bd 91c5 5f3d cb91 493d
00000260: b97d e5bd cba7 b1bd e23e 55be eed1 d93d
00000270: 2842 38be 09ff 063d 24d6 1cbd 7796 c43d
00000280: 57f7 5d3c 64cd 47be afd9 f6bc a1ab c73d
00000290: 579a 4ebd a97b d23d 3220 53bd 5d11 893d
000002a0: b39d 32bb 0125 043e 37b7 e8bc b5c3 7f3d
000002b0: 68eb 7d3d b761 b4bd 2d40 063e 3fda 63bd
000002c0: 7956 afbd 39df 0bbd ad5c 023d 0f67 9f3d
000002d0: 86d3 313d b964 17be c103 13bb 9fa7 09be
000002e0: 1992 2e3d 34ad cbbc 2cd1 d43d e393 0f3c
000002f0: d98a 003e 38ba c0bd c8a8 efbc 509e d6bd
00000300: ba3b 0cbd fd97 193e c687 15be 6a9d c13d
00000310: b604 53be 79cc e4bd c81a ff3d 5287 05be
00000320: f78e 2c3d 3485 c43d 42e9 4ebd e8ee 46bd
00000330: 5dbb 043e 7cd1 06be 5824 1fbe 1427 b1bc
00000340: 64a0 f23d de87 783b 6bca febd 4950 6f3d
00000350: 5f80 81bd 0e07 0bbe 2d74 883c 57fa e43c
00000360: cdfe e9bd 16a2 31be 5212 98bd 5f3d 76bd
00000370: fd4c 4cbe 6bc4 063d 1dde 493d 240d 803b
00000380: 5dc9 b43c e9f4 e1bd f060 34bb 9c5c 3cbc
00000390: 01ec 29be 95c9 0e3c 5b0f a1bd 9d32 733c
000003a0: 9e1b 6ebb dc1f b8bc 7bde 493c e8cd 613c
000003b0: 2b2a 28be 58a7 05be bb13 c33d 7f51 643c
000003c0: 26c0 163e d15f 253e 7a06 803d 0191 ac3c
000003d0: 65ac 023d dd32 bbbd de62 80bc 5ac7 a83d
000003e0: 726f f3bd d48e 1ebe c432 173e 1109 84bd
000003f0: 25c6 98bd 3a71 a83d 4586 593d 51a4 a83a
-0.0012521942 0.07724076 0.08786868 0.08257897 0.04011647 -0.101528265 0.04620685 -0.11492113
-0.16282925 -0.11124946 0.0042921538 0.07548926 0.14949296 0.08601076 -0.05836682 0.030603822
0.030850112 0.13961011 -0.05515377 0.073477834 -0.102846414 0.16510525 -0.053981453 0.06779363
0.03773385 -0.028071623 0.04330283 -0.12048945 -0.052615296 -0.20415501 0.08867964 0.09910106
-0.116013885 -0.019011777 0.11516481 -0.12526537 -0.08909951 -0.21876143 0.025215415 -0.059749562
-0.16032757 -0.10063503 -0.09808541 0.12246903 0.078016415 0.0798935 -0.05173192 -0.0723415
-0.05482066 0.06493191 0.058320552 0.047825456 0.0918626 0.16262163 -0.031074276 0.075318776
-0.049784318 0.08995672 -0.051633056 0.09738656 -0.13032445 -0.14842495 -0.05486208 0.050848506
0.034704182 0.11832554 -0.03415022 0.12152216 0.07603583 0.0019027169 -0.012545442 -0.14132352
-0.0020184948 -0.18282266 -0.20421237 0.042523105 0.11304395 -0.08116418 -0.0441453 0.009716959
-0.1366125 -0.0637037 -0.08753501 -0.044589307 0.1496026 -0.15249898 -0.043211192 -0.045314144
0.14591123 -0.058005553 -0.09970079 0.14369036 -0.056282714 0.12584572 -0.04070392 0.05001374
0.05918525 0.07279608 -0.11970787 -0.019037372 0.14347954 -0.10573814 -0.065286346 -0.05351935
-0.11450508 -0.085170105 -0.10265163 0.18189207 0.018765152 -0.074742 -0.06599408 0.050545845
0.032225754 -0.1731453 -0.0059697777 -0.024538076 -0.040031843 0.15793063 0.13301367 -0.1499136
0.07756692 -0.008474569 0.0054142335 0.02713552 0.03156661 -0.14602095 -0.11452481 0.08142823
0.120190054 -0.10326295 -0.0978256 0.12357338 0.07614792 -0.032396294 0.11579472 0.010723417
-0.052756328 0.03069279 -0.0063779447 -0.08189209 0.12179416 -0.022312524 0.010523693 -0.1054114
-0.1195033 -0.06221683 0.12634411 -0.17094393 0.1414003 -0.10361865 0.054631773 0.049211305
-0.1120562 -0.08674582 -0.20824769 0.10635744 -0.17993987 0.032958064 -0.038290158 0.095990114
0.01354774 -0.19511944 -0.030133097 0.097495325 -0.05044016 0.102774926 -0.051544376 0.06692765
-0.002725464 0.12904741 -0.028407676 0.0624425 0.06199208 -0.088077 0.13110419 -0.055628058
-0.08561415 -0.03414843 0.031826664 0.07783329 0.043414615 -0.14784516 -0.0022432657 -0.13442849
0.0426198 -0.024862863 0.10391459 0.008763286 0.12552966 -0.094105184 -0.029255286 -0.104794145
-0.034236647 0.14999385 -0.14602575 0.094538525 -0.20607266 -0.111718126 0.1245628 -0.13039902
0.04212853 0.09595719 -0.05051542 -0.048567683 0.12962098 -0.1316585 -0.15541208 -0.02162508
0.11846998 0.003792278 -0.12440952 0.058426175 -0.06323313 -0.1357691 0.01665696 0.027951403
-0.114255525 -0.17346987 -0.07425369 -0.06011712 -0.19951244 0.032902163 0.04928409 0.0039078165
0.022068674 -0.11033041 -0.00275236 -0.011496689 -0.16593935 0.008715053 -0.07864257 0.01484361
-0.003633238 -0.02247613 0.01232111 0.013782002 -0.16422336 -0.13052118 0.09525248 0.013935446
0.14721736 0.16149832 0.06251235 0.021065237 0.03190269 -0.09140561 -0.015672144 0.08241148
-0.11886491 -0.15484172 0.1476546 -0.06447042 -0.07459668 0.08224721 0.053106565 0.0012866353

layer2.0.bias f4 [8]
00000000: 6a2a 853d 3c5a f6bd 4f1a 0b3d 430b d33b
00000010: 7945 d63d 8ea8 d5bd d5e4 963d f06b c8bd
0.065022305 -0.120289296 0.033960637 0.0064405515 0.104624696 -0.1043254 0.07367865 -0.097862124

layer2.1.weight f4 [8]
00000000: ff3b 833f 72fd 7d3f b896 7a3f a39d 843f
00000010: d05b 803f 3377 7e3f 378a 7e3f e3e9 733f
1.0252684 0.9921485 0.9788623 1.0360607 1.0028019 0.99400634 0.9942965 0.9527876

layer2.1.bias f4 [8]
00000000: 3e62 423d 4402 53bd 12b8 abbc 9ef8 693d
00000010: 3ffb 8e3d c7b4 3dbd f2af 5abd 7b97 e8bc
0.047456972 -0.051515833 -0.020961795 0.057121865 0.06981515 -0.04631498 -0.05339045 -0.028392544

layer2.1.running_mean f4 [8]
00000000: dea8 0d3e a407 64be 6c73 b1be bb6b eebc
00000010: 291c 39bd 29b6 f2be cda8 b5be c308 fbbc
0.13833949 -0.2226854 -0.34658372 -0.029104104 -0.04519287 -0.47404602 -0.35480347 -0.030643826

layer2.1.running_var f4 [8]
00000000: aced d53d 45b3 1e3e b23d cf3d 8306 0d3e
00000010: 1566 5a3e 0225 b63d 353c 3f3e 9c00 023f
0.10445723 0.15498073 0.10119189 0.13772015 0.21328004 0.088937774 0.18675311 0.5078218

layer3.0.weight f4 [16, 8, 3, 3]
00000000: b700 013c 0d5f f43d 43ea 6dbd 9522 a8bc
00000010: 1186 1bbc b834 3abd 1f90 34bd ec6b a33d
00000020: 289d 223d 64ef 253c 3252 62bd 4b40 db3c
00000030: 0f2c c9bd a55f 0cbe c406 b7bd ace3 03be
00000040: 993c 59bd eab4 b6bb bbcf 373d 057d 96bd
00000050: 22f9 023c 34ee a83d 52ef 15bc c07c d73d
00000060: 3569 9e3d c2de 813d b7f3 32bc 5ead cb3d
00000070: da15 b03c 2c13 07be fd2f 3bbc 091e abbd
00000080: e0c5 f1bd 0175 74bd 80f8 053d 307a f6bd
00000090: 3597 b8bb ec06 94bb 7baa 3d3c 60bc 26bd
000000a0: 0d23 9bbd 75ab 60bd d8dd ddbd be3b 82bd
000000b0: 2a78 383d c0be 4ebd 47c6 193d b0d1 f63c
000000c0: 36fd 2bbd 1b9c 8e3c 1510 5b3d 58b4 6abc
000000d0: 6e90 c9bc c843 973c f30f b2bd d877 75bd
000000e0: 2821 523d 077d de3b 6dab d3bb 70f3 c93d
000000f0: 20ae 06be da56 343d a357 893d 9ab5 883c
00000100: 49c4 043d 0cef 8d3d 3efc 04bd 8524 96bd
00000110: 8624 24bc 744b 293c 3c05 883d 5e90 9abd
00000120: 2cf4 bd3d 1a44 04bd a9c2 193e 786c e83c
00000130: bf58 d8bc e01a 013e 59c1 c63c 7917 cc3c
00000140: 9813 813d de7c 67bd dedd 88bd 1dd1 0db9
00000150: 6d6c c33d 806d a6bc d852 ecbc fb61 06bd
00000160: 2672 4e3d 9f31 bdbd dee8 59bd d920 cb3d
00000170: e049 f0bd ebeb 39bd 589d b23d 9592 08bd
00000180: 65d0 3abd 8330 b03d 8e10 a0bd f4c6 d2bd
00000190: 682b 4c3c 0ac5 b13c 2f2c bb3c 376f 71bd
000001a0: 0817 11be f2b2 86bd 5862 5e3c 235b 26bd
000001b0: d53e a0bb e666 1dbc 7da5 6f3d d199 d6bc
000001c0: 9ff5 22be adf5 08bd 4d64 df3c c9dc a7bc
000001d0: 8c2c 343d 0200 743d 9128 07be 8a91 e2bd
000001e0: 95e4 9bbb 3bae f0bd d172 d43d d3e7 743d
000001f0: bc22 00bc 0323 f0bc 6fc9 84bd 6523 273d
00000200: 1ba0 7dbd ed01 743d a667 833d 1373 e63d
00000210: 7b98 273d fd64 76bd 9f02 ebbd 137f 17be
00000220: 5067 bd3c 0091 78bd 9648 12be e042 e2bd
00000230: 0013 98bd 0124 88bd d833 6fbd 8076 abbc
00000240: 5521 55bd 8a7d bcbd c643 1b3d a58f b93d
00000250: f315 dd3d 722d 23bd 3913 13bc 52a8 063d
00000260: a99e 2a3d 16b6 02bd 508f e53d f5aa 9fbb
00000270: a4a7 2cbe 3f9a ff3c 6ff0 d6bd 4e84 3bbd
00000280: bfa6 9b3c 7040 eabd b2a5 1f3e c006 293d
00000290: 451f 38bd 9b7a 46bd 08bd 8b3d cc04 0e3c
000002a0: ce6c 17bd 70d2 953b 7299 ec39 2f5a 82bb
000002b0: bc1b 2cbe cb57 c53d ff7b 26bd 588b c1bc
000002c0: 81af d9bb c6d5 a53d 67a6 d43c 2809 7fbc
000002d0: c005 073c 7cbc ba3d 18d6 00bd c1fc febd
000002e0: 5a51 f83c 24f2 63bd 1d61 03be fddc d9bd
000002f0: e765 edbd 0d89 a8bd 3ad7 a83c 40c9 163d
00000300: 1a75 27bd 3ef9 e93d e517 f83c e57a 1b3d
00000310: b34f 8b3d 2ec5 cabd 8b47 8e3d 48f5 0dbc
00000320: 3d0f b3ba e93e 463d 14b2 103c 6998 e13d
00000330: a232 36bd 6910 023c 2eaa f6bd d161 adbd
00000340: 66eb acbd 5bde 9bbd 08c7 b2bb acea aa3d
00000350: 5c28 9dbd 8dbb b03d 3b70 d33d 73e8 cbbd
00000360: f652 2dbd 000d c73d 0531 cbbd 7e9c b23c
00000370: f1b4 90bc b2dd c1bc 89b2 a6bd 909a e93d
00000380: 6b7f e4bc a1d5 a2bd 724f 17be 195f 99bd
00000390: 6e0e a73d 5e25 953d b226 9fbd 9c08 36bd
000003a0: bb89 a6bd f4b7 743d 3df9 ad3d b78b b93d
000003b0: 8ea0 013e 800b f8bc a92b bd3d 8069 023e
000003c0: 2027 de3d b296 ea3c 592a ff3d 261e a5bc
000003d0: c833 e73c 8b2f d9bd 64a7 5f3d 60ba fcbb
000003e0: a10a 63bd e4fb 0a3b af2a 8d3d 118a 34be
000003f0: 5d6e 98bc 821c d9bd 36ab ba3c 72e1 7b3b
0.007873706 0.11932192 -0.058084738 -0.020524302 -0.009492413 -0.045460433 -0.044082757 0.07979569
0.039700657 0.010127876 -0.05525417 0.026764056 -0.09822857 -0.1370836 -0.08936837 -0.12879819
-0.053036306 -0.005575766 0.04487584 -0.07348064 0.007993968 0.08248559 -0.009151297 0.10521841
0.077349104 0.06341316 -0.010922364 0.099451765 0.021494795 -0.13190907 -0.0114250155 -0.08355338
-0.1180532 -0.059681896 0.03270769 -0.12035024 -0.0056332597 -0.0045174267 0.01157629 -0.040706992
-0.07575045 -0.054851014 -0.10833329 -0.06359051 0.045036472 -0.050474882 0.037542608 0.030129284
-0.041989528 0.017408421 0.053482134 -0.014325224 -0.024605002 0.018464938 -0.08694448 -0.059928745
0.05130115 0.0067898068 -0.0064596445 0.09860885 -0.13152361 0.04402814 0.067061685 0.016688157
0.032413755 0.0693036 -0.03246712 -0.07331184 -0.0100184735 0.010332931 0.066416234 -0.07547067
0.09275088 -0.03229151 0.15015663 0.028372034 -0.026409505 0.12607908 0.024262117 0.024913536
0.06302565 -0.056515567 -0.06682943 -0.00013524709 0.09542165 -0.020315886 -0.028848097 -0.032808285
0.05040183 -0.0923798 -0.053200595 0.099183746 -0.117328405 -0.045391005 0.08721417 -0.033342917
-0.045608897 0.08603003 -0.078156576 -0.102918535 0.012461521 0.0217004 0.022848217 -0.058943953
-0.14168942 -0.065771 0.013573252 -0.04061426 -0.0048903027 -0.009607052 0.05850743 -0.026196392
-0.1591401 -0.03343742 0.027269507 -0.02049102 0.043987796 0.05957032 -0.13199069 -0.110629156
-0.0047574737 -0.11751982 0.10373462 0.059791397 -0.007820781 -0.02931357 -0.06483733 0.04080524
-0.061920267 0.05957215 0.06416254 0.112524174 0.0409169 -0.060154904 -0.11475109 -0.14794569
0.023120552 -0.060685158 -0.14285502 -0.11047912 -0.07425499 -0.06647492 -0.05839905 -0.020930529
-0.05203374 -0.09203632 0.03790643 0.09060601 0.10795202 -0.039838262 -0.008976751 0.032875367
0.041655216 -0.031911932 0.11208975 -0.0048726746 -0.16860825 0.03120148 -0.10495078 -0.045780472
0.01900041 -0.11438072 0.15590551 0.041266203 -0.044951696 -0.04845677 0.06823164 0.008668136
-0.036969 0.0045722052 0.00045127753 -0.003978036 -0.16807455 0.09635886 -0.040645596 -0.023626015
-0.006643236 0.08097415 0.025958253 -0.015566148 0.008241117 0.09117982 -0.031454176 -0.12450553
0.030312229 -0.055650845 -0.12830015 -0.10637853 -0.11591702 -0.08229265 0.02061044 0.03681302
-0.04088316 0.11424492 0.030284831 0.037959 0.06802311 -0.0990089 0.069472395 -0.008664437
-0.0013661158 0.04839984 0.00883152 0.11015398 -0.04448188 0.007938483 -0.12044178 -0.084659226
-0.08443336 -0.0761077 -0.0054558553 0.08345541 -0.076737136 0.086295225 0.10324141 -0.099564455
-0.042315446 0.097192764 -0.09921459 0.021803137 -0.017664405 -0.023665283 -0.08139522 0.114064336
-0.027892789 -0.07950903 -0.147764 -0.074888416 0.08157049 0.07282518 -0.077710524 -0.044441804
-0.08131739 0.059745744 0.08494804 0.090598516 0.12658903 -0.030278921 0.09236843 0.12735558
0.10847306 0.02863631 0.12459249 -0.020155977 0.028222933 -0.10604771 0.054602996 -0.0077126473
-0.05543006 0.0021207267 0.06892907 -0.17630793 -0.018607313 -0.106011406 0.022786718 0.0038433936

layer3.0.bias f4 [16]
00000000: 659f 433d 72a4 993d b2ab 81bd 7ff1 e63d
00000010: 5fe4 8e3d da4c 92bd ae66 57bb 6e28 4dbc
00000020: a391 b33c 3c88 c13c a88a d43d 14ac b0bc
00000030: 3125 dd3d 2f3d e7bd 1be2 32bd 9701 863d
0.047759432 0.075020686 -0.063315764 0.112765305 0.06977152 -0.071435645 -0.0032867598 -0.012521846
0.021920031 0.023624532 0.10378009 -0.021566428 0.10798109 -0.11290967 -0.043672662 0.06543272

layer3.1.weight f4 [16]
00000000: 4526 843f ac59 7c3f c449 7d3f 3127 7c3f
00000010: 8773 7b3f be74 813f 5e62 7e3f f2a4 763f
00000020: 8fdd 7a3f 566d 813f b0a7 7b3f 363b 793f
00000030: fbd3 7a3f 0ff1 7e3f cb7b 813f 066f 723f
1.0324179 0.9857433 0.9894068 0.984973 0.98223156 1.0113752 0.99368846 0.96345437
0.9799432 1.0111492 0.98302746 0.97355974 0.97979707 0.99586576 1.0115904 0.9470066

layer3.1.bias f4 [16]
00000000: fee2 27be 92fc f0bd 54c0 0bbe 0db4 34be
00000010: 85df c3bd 69c8 f3bd 3258 f9bd 52f0 34be
00000020: df45 13be d592 6ebe b57e 32be 0573 32be
00000030: 01b0 35be 9a7d c2bd 7e32 24be 9cd0 0abe
-0.16395184 -0.11766924 -0.13647586 -0.17646809 -0.09564117 -0.119034596 -0.12175025 -0.176698
-0.14382122 -0.232982 -0.17431147 -0.17426689 -0.17742921 -0.09496613 -0.16034886 -0.1355614

layer3.1.running_mean f4 [16]
00000000: fea3 c4be 512f 00bf c6ec a6be 3275 683d
00000010: 4c29 d1be 0291 18be 6860 e9be 8d96 dfbe
00000020: 6efe a2be ee19 febe b0e6 b9be acaf 953d
00000030: 89df 2e3e 9fc3 61be f6da 0dbf ba54 e83d
-0.38406366 -0.500722 -0.3260252 0.05675239 -0.4085182 -0.14899066 -0.45581365 -0.4366955
-0.3183474 -0.49629158 -0.36308813 0.073088974 0.1707746 -0.2204728 -0.5541223 0.11344285

layer3.1.running_var f4 [16]
00000000: 799e 773e 34c4 0d3f 2c97 8d3e 67a2 433e
00000010: 22dc 873e d53c 473e 0d6f 743e ee4b 6c3e
00000020: 3825 bc3d d542 b23d 0680 e23d b3fc 6f3e
00000030: 5897 7f3e ba6c 6e3e 9560 da3e f8d5 7c3e
0.24181546 0.5537751 0.27654397 0.1910492 0.26535136 0.194568 0.23870488 0.2307584
0.091867864 0.087041534 0.11059575 0.23436241 0.24960077 0.23283663 0.4265181 0.24690998

layer4.0.weight f4 [32, 16, 3, 3]
00000000: 4c44 f23c 52b2 4abd c3b1 ba3d 745c b2bc
00000010: 2188 773c bb33 563d 43ca bd3d b19c be3c
00000020: 8e53 cd3d e934 5b3c f122 c2bc b2b2 c73c
00000030: 26ff d0bd 3a7b 343d f136 f1bb 06c6 263d
00000040: 18a1 2c3d fc37 893d a0bc 35bd 89b5 13bc
00000050: 3feb 7c3c e4a3 0bbd 085a 65bd 745a 153c
00000060: f33c 1fbd 54db de3b 9560 9dbc baaf babb
00000070: 36bd 81bd f373 203d 5029 b93d 0f34 8cbd
00000080: 421c 04bd 4d25 f33d 0e75 42bc 4ac7 a9bb
00000090: 253e efbc f66b 58bd 30ad 503c bf7b d63c
000000a0: 5aa5 02bd 510c 84bc a560 d53d d316 ad3d
000000b0: 4550 6d3d 9813 183d cdb4 283d c416 d7bc
000000c0: fab1 8dbd cf62 f23a eec3 5d3c e30d 6e3d
000000d0: 880c ae3c e191 4cbd 7e62 983d 6608 243d
000000e0: 017e 633d dc6a 99bd 7958 74bd 8ed1 823d
000000f0: 2b57 02bd e861 5f3d a002 ac3d fe52 6dbd
00000100: c3d3 2b3c ba3e 9aba b6bb 283d 8e40 473d
00000110: ffdb eabc ca4f 44bd 4263 32bd 085d 003d
00000120: 7f07 78bd 3f5d 5bbd 8e1c b3bb 39bd a53d
00000130: 8db9 103b 7eee 17bd 8641 913d c8e1 143d
00000140: a00b d63c cc17 4cbc abab dd3c f8ae bcbd
00000150: d344 1a3d c008 30bd 00cd cfbd 0ab4 cfbc
00000160: b0fa 8e3b 185b b1bd 6836 5dbc 7a8c 6abd
00000170: dad2 b3bd 0ff9 2f3d 8cf9 9abd 45d2 3cbd
00000180: c998 cabc 459e 823c bebc b8bd b942 c13c
00000190: 4d7a 86bd 436a 35bd f0fa 28bd c790 373c
000001a0: f5ea b2bc 7a8b 4c3b 0e70 893d 30f3 aebd
000001b0: 1bc5 10bc 0a00 ba3b 8d93 f7bc 9023 85bd
000001c0: c6cb debc 61de 02bc 6e28 2bbd 3416 633d
000001d0: ac5f 66bd c783 52bd c146 f73c df37 883d
000001e0: 6a6c e8bb c54b 2b3d ab34 d03c 6c75 11bc
000001f0: 3836 a23c 9340 29bd ffc0 5cbd d11a f83b
00000200: 8e81 6fbd e22c 723c 2d92 0e3c 04f2 b03d
00000210: 5946 ca3d ec82 093d 2566 063d 0496 923c
00000220: b20d 093d deea 833d 6f11 1abd cb49 0b3d
00000230: cdd6 ee3c 9cc7 63bd 66e2 f73b bebd be3c
00000240: fa7a c03c 1553 d1ba 8a1c 6e3d a5a9 b83c
00000250: c58c d5bc 8188 9ebc e378 8fbb fe30 d0bd
00000260: 6b22 18bd 7aa8 223d 0390 043d cf35 25bb
00000270: 1059 3fbc 5d45 033d e010 b03c ef6a aabc
00000280: 68a6 93bd 7b20 e9bb b792 33bb b99a a33c
00000290: 74a6 f93c 530a 973d b7e6 84ba fefd 00bd
000002a0: da08 293d 5fb5 b0bd c89f 91bd 9460 0d3d
000002b0: b568 c33c a8f4 48bd a8b1 833c 16c3 87bd
000002c0: 234a 1cbd a868 993c c54d 823c c27b 983c
000002d0: 7138 443c 1dc8 b23c d646 bb3c cd6a 19bd
000002e0: 9e5c 09bd a39d 1b3d b284 16bd d2f0 0abe
000002f0: 6e9a 8cbd 00b4 343d 5dd4 873d b86f c9bc
00000300: 638e 84bc 6428 6ebc 1d04 debc 3edd 3abc
00000310: fc6a 84bd 51e2 283d 1371 323d 3a06 923d
00000320: 889b 5d3d c2c5 d6ba 528a 3b3c d27c 2f3c
00000330: f7ff 3bbd 31dd aebd 6d93 8bbd cdd9 663d
00000340: 7a12 353c ad77 843d 3c4d 83bd 7b69 e8bb
00000350: 14b0 c83c d355 2f3d 1e2e 393d 7342 193d
00000360: 2476 a0bd f004 b6bd 4f09 cbbd 6191 0ebc
00000370: 8808 56bc 8acb 493d 5318 3b3d a1dc 1e3d
00000380: a18f 9a3c 0233 e7bc 2a5e 6ebd 4c57 10bd
00000390: bc62 df3c 09c5 5d3d 2301 a4bc 3459 61bc
000003a0: d2ee 3d3d bbd5 57bd 58e1 d8bb f9c9 8dbd
000003b0: 1810 2c3d 9ede 9dbc 218a 7c3d 3867 b63d
000003c0: c2bc cdbb 77c8 ec3d 26ae c0ba debf 64bd
000003d0: 285c b23c 8526 c5bd 2d32 1fbd 79fd 143b
000003e0: a7f7 d23c 0d1a c0bc 2aa4 dc3c 9dce 723d
000003f0: b532 023b a5c1 aa3d e53d 9f3d f1b3 c43c
0.029573582 -0.049486466 0.091159366 -0.0217726 0.015108139 0.052295428 0.09267094 0.023268076
0.100257024 0.013379314 -0.023698302 0.0243772 -0.10204916 0.04406283 -0.007361286 0.040716194
0.04214582 0.06700131 -0.04436934 -0.009015449 0.015436946 -0.034091845 -0.055994064 0.009115804
-0.038876485 0.0068010483 -0.019211093 -0.005697218 -0.06334917 0.039173078 0.09041083 -0.06845867
-0.03225351 0.11872349 -0.011868728 -0.005181228 -0.029204438 -0.052837335 0.012736604 0.026182054
-0.031895973 -0.016119154 0.10418824 0.08451619 0.05793788 0.03712806 0.04118805 -0.026255973
-0.06918712 0.0018492582 0.013535483 0.058118712 0.02124621 -0.04994381 0.07440661 0.040047072
0.05554009 -0.07491085 -0.059654687 0.06387626 -0.03182141 0.05453673 0.08398938 -0.057940476
0.0104875 -0.0011767962 0.04119464 0.04864555 -0.028669355 -0.047927655 -0.04355169 0.03133872
-0.060554024 -0.053555723 -0.0054660505 0.08092732 0.0022083253 -0.03709268 0.07092576 0.036348134
0.02612859 -0.0124568455 0.027059397 -0.0921306 0.037663292 -0.042977095 -0.101465225 -0.025354404
0.0043633804 -0.08659953 -0.013501741 -0.057262875 -0.08780451 0.04296213 -0.075671285 -0.046098966
-0.024731057 0.01594461 -0.09020375 0.023591386 -0.06566296 -0.044290792 -0.041254938 0.011203951
-0.021840552 0.0031211064 0.06710826 -0.08542478 -0.008836056 0.005676274 -0.030221725 -0.06500924
-0.027196776 -0.00798759 -0.041786604 0.055441096 -0.056243584 -0.051395204 0.030185105 0.066512816
-0.007093002 0.041820306 0.025415739 -0.008878093 0.019801244 -0.04132135 -0.053894993 0.007571556
-0.058473162 0.014781209 0.008701843 0.08639911 0.09876699 0.033572122 0.032812256 0.017893799
0.033460326 0.06441282 -0.037614282 0.03400592 0.02915516 -0.055610284 0.0075648306 0.023283836
0.02349614 -0.0015970195 0.058132686 0.02254183 -0.0260681 -0.0193522 -0.0043784245 -0.101655945
-0.0371422 0.039711453 0.032363903 -0.0025209074 -0.011678949 0.03204857 0.021492422 -0.020802943
-0.07209474 -0.0071144677 -0.0027400681 0.019971238 0.030474879 0.07375016 -0.0010139559 -0.031492226
0.041268207 -0.08628344 -0.07110554 0.034515932 0.02385364 -0.049061447 0.016075924 -0.066290066
-0.03815664 0.018726662 0.015906224 0.0186137 0.011976347 0.021823937 0.022860926 -0.03745537
-0.033535592 0.03799213 -0.03674764 -0.13568428 -0.068653926 0.044116974 0.06632302 -0.024589404
-0.016181177 -0.014535997 -0.02710157 -0.011405287 -0.06465718 0.041231457 0.043564867 0.07130094
0.054103404 -0.0016385841 0.011446552 0.010710912 -0.045898404 -0.08538283 -0.068152286 0.056360055
0.011051768 0.06468139 -0.06411216 -0.0070926524 0.024498023 0.042806458 0.045209996 0.037416887
-0.078350335 -0.088876605 -0.09913885 -0.008701653 -0.013063557 0.049266376 0.045677494 0.038784627
0.018867316 -0.028222565 -0.05819527 -0.035239503 0.02726876 0.054142985 -0.020020073 -0.013754178
0.046370335 -0.052694064 -0.00661866 -0.06923289 0.042007536 -0.019271191 0.061655167 0.08906406
-0.006278605 0.11561673 -0.0014700338 -0.05584704 0.02177246 -0.09626488 -0.03886621 0.002273409
0.025752855 -0.023449922 0.026933748 0.059279073 0.001986665 0.08337716 0.07775477 0.024011584

layer4.0.bias f4 [32]
00000000: 6941 04bd 2074 5fbc 8173 283d e28b fc3b
00000010: 05f8 92bd 699b a8bd 07dc 5ebb fa5f 963c
00000020: 7adb 753c ecff 01bd 674f 193d 5e29 a73d
00000030: efc2 c93c 6c2f 89bd 2147 3abd 107f 9c3d
00000040: 7e98 443c 3ba8 76bd 3e60 5dbd 3bdd 5b3d
00000050: 7ffa 373d 197c 633d 509f 053c f1b8 56bd
00000060: 6a6a e2bc 9598 97bd f9e8 74bd a347 833d
00000070: 2229 193c d2b3 88bd 7813 25bd 809d 9cbb
-0.032288942 -0.013638526 0.041125778 0.007707105 -0.07176212 -0.08232767 -0.0034005658 0.018356312
0.015005941 -0.031738207 0.03742924 0.08162187 0.024629084 -0.06698498 -0.04547799 0.07641423
0.011999248 -0.06021903 -0.05404686 0.05367778 0.044916626 0.05553827 0.008155659 -0.052422468
-0.027638633 -0.074021496 -0.059792493 0.06410148 0.009348186 -0.06674923 -0.04030177 -0.0047795177

layer4.1.weight f4 [32]
00000000: bee0 843f 12c8 8b3f f5f5 893f d4bd 863f
00000010: b200 893f a943 8e3f 1419 873f 05a3 853f
00000020: e25e 843f 3ec4 893f 254f 833f dcdd 873f
00000030: 4861 8a3f e0a0 913f 3f94 873f 644f 893f
00000040: ebff 8f3f cd88 853f d113 923f 9d25 843f
00000050: b4bf 8b3f e63b 893f c9cc 893f 4ec0 823f
00000060: 50ca 8d3f e367 8c3f 25a9 863f 5254 8f3f
00000070: 335e 823f e8d9 883f eaf8 893f ea31 8b3f
1.0381086 1.0920432 1.0778185 1.0526681 1.0703337 1.1114398 1.0554528 1.0440375
1.0341456 1.0763013 1.0258528 1.0614581 1.0810938 1.137722 1.0592116 1.0727353
1.1249975 1.0432373 1.1412297 1.0323979 1.0917878 1.0721405 1.076562 1.0214937
1.1077366 1.0969204 1.0520369 1.1197608 1.0184997 1.06915 1.0779088 1.0874608

layer4.1.bias f4 [32]
00000000: 5333 f43c a6f6 7f3d 4b0b 5e3d 4d61 603d
00000010: 1e3f bc3b 6426 c13b 1e3d 3e3d 19e8 0b3d
00000020: dc5d 233d 3597 233d c6c5 e33c 3d5b 543d
00000030: 88c2 4d3d 4939 bf3c acd0 903d 5782 a53d
00000040: bff0 393d f9d0 fe3c ece4 053d 1efd 163d
00000050: 1793 753d 3aba 393d 5898 6c3d 45fc 913b
00000060: c510 173d 2821 203c 9700 323d 8e5d 0b3d
00000070: 9d56 bb3c 843c 0c3d f772 4f3d 87b9 8b3b
0.02980963 0.06249108 0.05420999 0.054780293 0.005744829 0.005894469 0.046445005 0.034156892
0.039884433 0.039939124 0.027804267 0.051844824 0.050234348 0.023342745 0.07071051 0.08081501
0.04539561 0.031105505 0.03268902 0.036862485 0.05995473 0.045343615 0.057762474 0.0044551217
0.036881227 0.00977353 0.043457594 0.034024768 0.022868449 0.0342374 0.05064675 0.00426406

layer4.1.running_mean f4 [32]
00000000: fe83 08bc d6b7 95be b764 58bd fe1b 4ebe
00000010: aef2 8fbf ef33 abbf 8ab4 39be 0244 8d3e
00000020: 5beb 563d 5690 b3bc fce6 193d c196 cfbb
00000030: 6824 c33e b0da afbf 31a7 38be 9024 f43e
00000040: ddb3 82bf 309e 983e 8d24 9dbf 410a 8abe
00000050: 5aa2 e83e 54ce 2cbe 643c fc3e a804 11bf
00000060: b1d2 25bf 2865 b8bf 36fd f4be 2769 81bf
00000070: 705c 4b3e e114 4c3e 513a c23e 3fa7 083f
-0.008332251 -0.29241818 -0.052830424 -0.20127866 -1.1245935 -1.3375224 -0.18135276 0.27590948
0.052470546 -0.02191941 0.0375738 -0.00633511 0.38113713 -1.3738613 -0.18032528 0.47684145
-1.021114 0.29808187 -1.227678 -0.26960948 0.45436364 -0.16875583 0.49264824 -0.5664773
-0.64774615 -1.440587 -0.47849435 -1.0110215 0.19859481 0.1992984 0.37935117 0.533802

layer4.1.running_var f4 [32]
00000000: 9092 f73e 49c1 083f a096 0f3f 337c 053f
00000010: 903e 783f d236 8d3f 4cb9 f63e 6609 063f
00000020: 9c1f ec3e ca92 e13e e617 d63e 3096 083f
00000030: e960 233f 4734 8b3f 495c 093f b176 3b3f
00000040: 64e8 683f 2d6d f93e f8bd 6d3f e41e cd3e
00000050: c36a 533f 164c 1e3f d2ab 3c3f 0795 103f
00000060: 4822 303f 55ba 873f 868d 043f 3666 8b3f
00000070: c7a0 bb3e 2b0b ea3e 591b 653f b77f 153f
0.48354006 0.5341993 0.5608921 0.5214264 0.9697046 1.1032355 0.48188245 0.5235809
0.46117866 0.44057304 0.41815108 0.5335417 0.6381975 1.0875329 0.5365644 0.73227984
0.909796 0.48716107 0.92867994 0.4006263 0.8258478 0.6183485 0.73699677 0.564774
0.6880231 1.0603739 0.5177845 1.0890567 0.366461 0.45711645 0.89494854 0.58398

fc.weight f4 [1, 1152]
00000000: 2a52 e43c a4c8 a6bc e26b 2abc 7b30 1e3c
00000010: 5624 25ba c40e 16bb b596 693c aa13 13bd
00000020: ec9b f9bc ff30 a1bc 6fe6 17bd 23f4 77bc
00000030: 65ef 09bd fa55 3bbd 046d f5bc f8e0 10bc
00000040: 99c5 753c 4eb1 123c 1690 a5bc 5c01 64bd
00000050: 4cc7 0cbd b80e 5a3c 9780 f43c f379 783c
00000060: 135d e6bb 3324 0dbd 6c0d 21bd 25c9 5e3a
00000070: ca56 85bb 3c83 e2bc 6880 033c 7b6f a8bc
00000080: ca98 abbb 771e 4d3c 579f 5d3a 6071 a33b
00000090: b37f 3f3c 89fe 283c 0524 b63a f75e 2c3d
000000a0: 2395 123c 86ea 3cbc df06 2bbc 371e d7bb
000000b0: 76fd a83c 14cc ea3c f122 10bc 895d 88bb
000000c0: 54cb 5c3c b224 ea3c 2f7c 023e ca36 f03d
000000d0: c7e4 f03b d14e 1a3c 9f6c 6e3b e2ef a73b
000000e0: c59d 313c 950e a0bc aa7b 02bd 7d75 82ba
000000f0: f65f 383a 726d c7bc 5bd9 fabc 4d01 3bbd
00000100: 649f d8bc 4268 b6bc 47a8 1a3a c05b 9ebc
00000110: e38c 27bd 51dc 06bd f632 d5bc 0a67 8e3c
00000120: 2dfe c9bc 9ebc 083c 6c73 c2bc f086 af3a
00000130: 0369 0a3d 90ec 3f3c 177f bdbb d970 06bc
00000140: 3360 15bd 831f 1fbc 289c 39bc 0bbd 8bbc
00000150: aa13 00bd 6676 80bd 2f5f 40bd 8ec9 aebc
00000160: cc6f 503c c9b0 bcbc 515b 42bc 8858 a9bd
00000170: 56d4 a9bd 5bd9 a8bc bd97 903c 9603 1ebd
00000180: 0103 7abc 7d66 91bd 9285 9cbd 8c58 1d3c
00000190: b0af 433d 59bc 93bb 478c 38bb 5f77 a43b
000001a0: 18cf 7cbc 1488 853b f463 e63c 3ea9 a6bc
000001b0: 93c5 5abc 20f0 49bc ebf6 54bb cbe5 04bd
000001c0: 0c11 59bb 611c 87bc a455 20bc 2c2f 15bc
000001d0: abf4 8cbc 9592 54bd e4cd 72bd 753d 9bbc
000001e0: 90c1 d8bc c3b4 14bb 709f dabc ea3a 94bd
000001f0: bd1e 76bd c469 933c c29b ac3a d4ba e9bc
00000200: 2dd5 46bd c581 70bd 1744 2bbd 99d4 a43c
00000210: 599d 87bc 52fb 40bb b9b1 0ebd 42e2 86bd
00000220: 44a3 c5bc b1c1 a5bc ceee d8bc 6ac7 90bc
00000230: f15b 093c 5b08 9cbc 5e1b 47bd 1c6d 71bc
00000240: 82e5 1cbd db20 2a3b 94d7 00bc 2b2d 433c
00000250: 844a ffbb bc48 32bc d42d 07bc 2019 993d
00000260: 7982 bf3c dab5 a13c b390 2a3d 8a46 183d
00000270: ee0e 113c 6681 9d3d d741 b83c cb56 e63c
00000280: 6e25 033d 47c1 1b3c 8f88 a73c 3862 6a3d
00000290: 7c62 883d 91be 8a3d 006a 503d fce1 1f3d
000002a0: a86b af3c 1364 5f3d ff0c 413d 9621 cc3d
000002b0: 6b1f 853d 1903 5c3d 4452 b1bc 12aa 063d
000002c0: ad0d 8b3c 6ebe 173d c00e 303b 2151 8f3c
000002d0: 0765 123d 695b 343d 9b8b b33c 5bab 8a3d
000002e0: d6a1 a13d 720e 72bc 8613 193d 2c35 5b3d
000002f0: 8675 c83d d0f5 a53d 357a a83d 9a67 e13c
00000300: 9b92 093d 0f6d de3d faa5 973d 1cd0 943d
00000310: cac3 9c3d bd22 153d a68e 5a3d 1ccf 953d
00000320: f863 863d e93b 733d 858d 093d 69db 933b
00000330: ea39 653c bf13 8e3d dcdb 863d 4f5a 813d
00000340: c053 c53c c9b3 053d 7d5a 68bc 62b2 1ebc
00000350: 4cb4 8bbc eae3 3e3b e43f 02bd e512 babb
00000360: bc1c 613c ba1b 313b f6fb 75bc 9cf3 08bd
00000370: 5a4c f2bb da49 0dbc d08c 45bd ebab 84bd
00000380: a4cc 66bd 7376 45bd 63ed 94bb 3abb e3bb
00000390: 6fa6 d2bc 3104 33bd dc75 6dbd 1675 01bd
000003a0: 64ce 123c 20b3 cdbc 7a9c 913b a4e2 b13c
000003b0: 12ae 2c3c c356 a4bc c535 49bc 9ba8 fabc
000003c0: a4fa 9d3c 89ae 6f3c 7eb6 01bc 1261 22bd
000003d0: 9a2b 19bd 4cb3 33bd 93f9 b6bc 1bef eebb
000003e0: 8d68 23bb 8330 67bd cc4f 59bc a028 3abc
000003f0: 705e babc 07d4 2ebc cd45 643c 052e 1abc
0.02787121 -0.020359345 -0.010401698 0.009655113 -0.0006299665 -0.0022896985 0.014257123 -0.035907425
-0.030469857 -0.019676683 -0.037084993 -0.01513389 -0.03367557 -0.04573629 -0.02995921 -0.008842699
0.015000724 0.008953406 -0.020210307 -0.05566536 -0.03436975 0.013309173 0.029846473 0.015165794
-0.0070301383 -0.03445835 -0.03931944 0.0008498601 -0.004069184 -0.027650468 0.00802622 -0.02056097
-0.0052367197 0.01251947 0.00084542244 0.0049878806 0.011688161 0.010314592 0.0013896233 0.042082753
0.00894669 -0.011530524 -0.01043865 -0.006564881 0.020628672 0.028661765 -0.008797393 -0.004161541
0.013476212 0.02858195 0.12742685 0.117292 0.007351491 0.009418205 0.0036380661 0.005125032
0.010840838 -0.019538203 -0.031856216 -0.0009953227 0.0007033342 -0.02434418 -0.030621221 -0.045655537
-0.02644319 -0.02226651 0.0005899709 -0.01933086 -0.040905844 -0.032924954 -0.026025277 0.017383117
-0.024657333 0.008345751 -0.023736678 0.0013391655 0.033791553 0.011714116 -0.0057829726 -0.008205616
-0.036468696 -0.009712103 -0.011328734 -0.017057916 -0.031268753 -0.06272583 -0.046965774 -0.021336343
0.012721967 -0.023033516 -0.011862592 -0.08268839 -0.08292453 -0.020611456 0.01765048 -0.03857764
-0.015259505 -0.07099626 -0.07642664 0.009603631 0.04777497 -0.004508537 -0.0028159784 0.005019113
-0.015430234 0.0040750597 0.028123833 -0.020344373 -0.013352769 -0.012325317 -0.0032495807 -0.03244571
-0.0033121733 -0.016493024 -0.009786043 -0.009105485 -0.01720651 -0.051897604 -0.059278384 -0.018950203
-0.026459485 -0.002269075 -0.026687354 -0.072377995 -0.060087908 0.017994769 0.0013168978 -0.02853147
-0.048543144 -0.058717508 -0.041812982 0.020120906 -0.016554521 -0.0029446674 -0.03483746 -0.06586124
-0.024125703 -0.02023396 -0.026481058 -0.017673213 0.008383737 -0.019046953 -0.048610084 -0.014735486
-0.038304813 0.0025959525 -0.007863898 0.011912624 -0.0077908654 -0.010881599 -0.008250672 0.07475495
0.023377644 0.019740034 0.041641902 0.037176646 0.008853657 0.076906964 0.022492332 0.028117558
0.032018118 0.00950653 0.020450858 0.057222575 0.066594094 0.06774629 0.05088234 0.039033875
0.02141364 0.054538798 0.047131535 0.099673435 0.06500133 0.05371389 -0.021645673 0.032877035
0.016974295 0.037046842 0.002686426 0.01749474 0.03574088 0.044032488 0.021917155 0.06770965
0.07892196 -0.014773952 0.037372135 0.053517506 0.09788041 0.08103526 0.08226434 0.027515221
0.03358708 0.10860645 0.074047044 0.07266256 0.07654531 0.036410082 0.053358696 0.073148936
0.06562036 0.059383307 0.03358223 0.0045122397 0.013990859 0.0693736 0.065849036 0.06316053
0.024087787 0.03264216 -0.01418173 -0.009686084 -0.017053746 0.0029127547 -0.031799212 -0.005678522
0.013739761 0.0027024583 -0.015013685 -0.03343545 -0.0073943557 -0.008623565 -0.048229992 -0.06478103
-0.056347504 -0.048208665 -0.0045449003 -0.0069498094 -0.025714127 -0.04370517 -0.057973728 -0.031605802
0.00896034 -0.025109828 0.0044437023 0.021714516 0.0105395485 -0.020060902 -0.012280886 -0.030597975
0.019284554 0.014629015 -0.007917045 -0.039643355 -0.037395097 -0.043872163 -0.022335803 -0.007291687
-0.0024934143 -0.05644275 -0.013263654 -0.011362225 -0.02275011 -0.010670668 0.013932657 -0.009410386
