data/chkbox_models/chkbox_rnd8_2_bestVal.pt (torch_old, 236310 bytes, 31 tensors)

layer1.0.weight f4 [4, 1, 3, 3]
00000000: 22db 4abb 25c2 413e b889 953e fdb3 ccbc
00000010: 661a 93be 64dc 4cbe b116 a8be 16a9 25be
00000020: 7a63 e9bd 57de 0f3e 4745 d93c ef83 f0bd
00000030: 839a a03d 7e32 de3c a29a 51bd 0edd 553d
00000040: 5fa3 413c 1094 8d3e 2530 31be ec12 19bd
00000050: 2719 a8be 2b68 0a3e bfa8 eb3d d8b8 503c
00000060: 2c8a 5fbe ee10 a4be bcff 303d fc0e ad3e
00000070: 3937 8bbe 208d 573d e8f4 903e cda3 9e3e
00000080: f691 9dbd 62d6 093e 5c96 83be 3473 973e
-0.0030953367 0.18921717 0.29206634 -0.024988169 -0.28731078 -0.20005947 -0.32829812 -0.16177782
-0.11395927 0.1404966 0.026522292 -0.11743914 0.07841971 0.027123686 -0.05117286 0.052212767
0.011818736 0.27652025 -0.17303522 -0.03737156 -0.3283169 0.135163 0.11506795 0.012739383
-0.21830052 -0.32044166 0.043212637 0.33800495 -0.2719057 0.05262482 0.2831185 0.30984345
-0.076938555 0.13460687 -0.25700653 0.2958008

layer1.0.bias f4 [4]
00000000: 9756 6a3e a5e4 87be 898e 943d 2046 79be
0.22884594 -0.2654163 0.07253749 -0.24343157

layer1.1.weight f4 [4]
00000000: c92a 7e3f 4970 7c3f 741b 813f 881b 823f
0.99284035 0.98608834 1.0086503 1.0164652

layer1.1.bias f4 [4]
00000000: 7f5a 583c 16c1 1fbd 297c 003c c933 cdbc
0.01320517 -0.0390025 0.007842102 -0.025049107

layer1.1.running_mean f4 [4]
00000000: 974a adbe 5462 013e 53e4 1abf ff91 f03e
-0.3384597 0.12635165 -0.60504645 0.46986386

layer1.1.running_var f4 [4]
00000000: 4d00 023f fe1b 483e 7f2c 0f3f 3b88 263f
0.5078171 0.19541928 0.5592727 0.6505162

layer2.0.weight f4 [8, 4, 3, 3]
00000000: 28db 1fbe 69c6 a73d 67e9 7c3d 155a efbc
00000010: 5e30 b23d 136e 10be a177 16be 35de afbb
00000020: fd9a f6bc 9c85 3a3d 13d5 63bd 50c6 133e
00000030: 3c4c 883d e549 2f3e d166 abbd 20b4 a9bb
00000040: 2cc2 18bd 11ba 71bd d61d 793d efe5 fe3c
00000050: 2b5b 1cbe 5e65 27bd 7f84 f73d ff7d e5bd
00000060: 2067 37bd 646d e8bd 3110 b5bd fceb 103e
00000070: ea94 d63a 94b1 a03d accf a83c 4a5f 203e
00000080: 11f3 d83d 170d e53c 94da cd3d bd07 9dbd
00000090: 577b 013c ee2a 3c3c 24f5 17be 0646 263e
000000a0: 95c8 ce3b e8ff 1c3e cf82 0c3e c4aa 123e
000000b0: ea51 0cbe 9650 363c f507 8f3d e6d8 e7bd
000000c0: 9355 dbbd 148f 43bd 5a36 8f3d 3f65 37bd
000000d0: 7660 77bd df89 dfbd a4af d5bd 6383 e53c
000000e0: cfcb 8ebd 422f 5d3d d73a f03c 6413 213c
000000f0: a88b 443d 10f7 263d 267b 8bbd 14ed 4d3d
00000100: bd8b 8c3d 7fee 00be 00cf ffbd 8463 94bd
00000110: 8633 03bd 14ad 9bbd ddfe 903d 8f3c d9bd
00000120: 2ccc 25be 3289 c2bc 43d3 0abd 5bc1 7b3d
00000130: f283 a8bd 1aae 11be dbea fdbd 2624 11bc
00000140: 00fb 663d 7552 ef3c f854 e3bd dc7e 093e
00000150: 545a 123e 2fc4 23be d97d 0d3e d0e8 fa3d
00000160: e882 3abc 5d3c 1dbe 5322 063e 1d2b b1bc
00000170: 99f2 7c3d 6550 0cbe 091d 7c3d 5787 3fbc
00000180: 80b1 0cbd 4d4d 00be 66d8 98bd b6c6 1a3e
00000190: 7aa0 c8bd 5283 92bd 1538 d03d c698 fd3d
000001a0: 2d19 08be 39d6 663d 4372 bfbc a807 d4bd
000001b0: 1f4e 1fbe eb41 61bd f029 a23d fcb8 d63d
000001c0: 4407 083e ab82 a03d da0b 7bbd fbef 223e
000001d0: 27bc b93d 04ac 8ebd f321 b63d 4c95 e6bd
000001e0: 3220 8b3c ed4f 953d 338c 2fba 1dfb ddbd
000001f0: 6ae0 ecbd 0ba5 1dbe f127 15be d392 5bbe
00000200: 7f2e 2abe f727 21bc dd5b 5c3d 3226 0a3d
00000210: 9e3a d1bd adb5 23be 8c1c df3d 9595 fc3d
00000220: 2781 2abd 24c7 193e 7e75 f0bd dc60 6f3c
00000230: 0f8c d5bd bd74 a03d c499 29bd 4476 42bd
00000240: 2486 5b3d be1a ff3d f55a 3d3d bc71 ab3d
00000250: a507 dfbc 646b c73d 57a8 993d 20c4 ea3d
00000260: 44d9 663d 0ffb e43d 84f7 813d a7ea 29be
00000270: 4c67 dfbd 60a2 083e 5cd8 8cbd d0d7 ca3c
00000280: d55e dabd 5e29 bc3d 9a7b 99bc 1c20 5bbd
00000290: 8e08 c13d 7dd8 113e 7d9e 3b3d 6758 223e
000002a0: c44c 113e d098 ad3d 635c 413c b9b8 843c
000002b0: b973 08bd 09fd 0ebd bfea 0abe 595c 293d
000002c0: 130c 1cbe b828 ba3d ed49 1b3e f43c 8d3d
000002d0: 0bd6 8d3d 68d9 c3bc d9bf 463d 1479 653d
000002e0: 56fb b73d 1c41 873d 4d54 043e ae9a 05bd
000002f0: 86c9 22be 5c75 363d 2181 a13d 4c3a d7bd
00000300: 92ff 233e f083 393b 896f ba3d 18f5 00be
00000310: 8177 153e 18b6 473e 2106 aabd 9e16 6dbd
00000320: 4a9f c8bd 3b2a dc3c a919 0a3d e0f3 123e
00000330: 6c99 f3bd 1320 21bc 26cd 7bbd 5700 633d
00000340: e3fd dbbd 4319 9a3b dfc0 473d f324 403d
00000350: 02b6 213e 9737 e33c 59aa 243e ff51 c6bc
00000360: 1f19 b73d f415 bcbd de79 443c a58a 1abe
00000370: c386 11be 94d3 663d 85d8 41be 274f bbbd
00000380: 7385 f8bc ee38 e63d 8daa 14bd f94b 0bbe
00000390: 433a da3d bae0 72bd 45df 963c cf15 d4bd
000003a0: 6610 bc3d e0ae 73bc 389d 8d3d edda 553b
000003b0: 6813 a53d f0b4 66bd 1c84 05be 89f6 bdbd
000003c0: d9d9 23be e93d e93d 298d 98bd ad39 04be
000003d0: 47d2 e73d c4fe 2dbc 4320 c53c d0b9 2c3e
000003e0: 4bb6 713c b61f a53d fef5 d5bd a625 d8bd
000003f0: c8c8 0e3e f85c 1ebe a719 ae3c 48f8 61bc
-0.15610945 0.081921406 0.061746027 -0.02921776 0.087006316 -0.1410449 -0.14694072 -0.0053670653
-0.030103201 0.045537576 -0.055623125 0.14431119 0.066551656 0.17118032 -0.0836922 -0.0051789433
-0.03729455 -0.059015337 0.06081947 0.0311155 -0.15269153 -0.040868156 0.120858185 -0.112056725
-0.044776082 -0.113489896 -0.08840979 0.14152521 0.0016371284 0.0784637 0.020606838 0.1566135
0.10593236 0.027960343 0.10051456 -0.076674916 0.007902942 0.011484845 -0.14839607 0.1623765
0.0063105323 0.15331995 0.13721775 0.14322954 -0.13703123 0.011127612 0.069839396 -0.11320667
-0.10709681 -0.04774387 0.069927886 -0.04477429 -0.060394727 -0.10914969 -0.104338914 0.028016752
-0.06972467 0.054000147 0.029324932 0.009831283 0.04798475 0.04076296 -0.06810598 0.050274923
0.068625905 -0.12590979 -0.12490654 -0.072455436 -0.03203156 -0.076013714 0.07079861 -0.10607254
-0.16191167 -0.02374706 -0.03389288 0.061463695 -0.082282916 -0.1422657 -0.12398311 -0.008858716
0.056391716 0.029214123 -0.11100191 0.134273 0.1429227 -0.15992807 0.13817538 0.12251437
-0.01138375 -0.15355058 0.13099031 -0.021627003 0.061754797 -0.13702543 0.061551128 -0.011689982
-0.034348965 -0.12529488 -0.0746315 0.15114865 -0.097962335 -0.071539536 0.10166947 0.12382655
-0.13290854 0.056356642 -0.023369914 -0.10353023 -0.15557145 -0.054994505 0.07918155 0.10484502
0.13284022 0.07837423 -0.0612906 0.15911858 0.0906909 -0.06966403 0.08893194 -0.11258945
0.016983125 0.07290635 -0.00066966115 -0.10838912 -0.11566241 -0.1539499 -0.14566018 -0.21442728
-0.166193 -0.0098361885 0.053798545 0.033727832 -0.102162585 -0.15987273 0.10894117 0.12333218
-0.041627076 0.15017372 -0.1174116 0.014610495 -0.10427105 0.07834766 -0.041406408 -0.04747607
0.053594723 0.124562725 0.04622932 0.083713025 -0.027225325 0.0973728 0.075028114 0.11463189
0.056359544 0.11180698 0.06346038 -0.16593419 -0.10908374 0.13343191 -0.06877205 0.02476111
-0.10662619 0.09187578 -0.018735696 -0.05349742 0.0942546 0.1424274 0.045805443 0.15854035
0.1418944 0.08476412 0.011801812 0.016201364 -0.033313487 -0.034909282 -0.13566111 0.041347835
-0.15238981 0.09089798 0.15164919 0.068963915 0.06925591 -0.023907378 0.048522804 0.056023672
0.089834854 0.066042155 0.12922783 -0.032618217 -0.15897188 0.044545516 0.078859575 -0.10509166
0.16015461 0.00283074 0.09103305 -0.12593496 0.14596368 0.19503057 -0.0830195 -0.057882898
-0.09796007 0.026875606 0.033715878 0.14350843 -0.11894497 -0.009834307 -0.06147494 0.055420246
-0.107417844 0.0047027185 0.04876792 0.046910238 0.15792087 0.027736468 0.16080607 -0.02420902
0.08940338 -0.09183875 0.011991946 -0.15091951 -0.14211564 0.05635412 -0.18930252 -0.091459565
-0.030337071 0.11241327 -0.036295462 -0.136032 0.10655644 -0.059296347 0.01841701 -0.10355722
0.09182815 -0.014873236 0.06914753 0.003263171 0.08060342 -0.0563249 -0.13038677 -0.092755385
-0.16001071 0.113887616 -0.07448799 -0.12912627 0.11319404 -0.010619823 0.024063235 0.16867757
0.014752935 0.08062689 -0.1044731 -0.10554056 0.1394378 -0.15465152 0.021252466 -0.013792105

layer2.0.bias f4 [8]
00000000: deb1 cd3d 3f24 403d 30a4 e0bd 6cd3 20be
00000010: 0459 c1bd 0671 a1bd 06eb a8bd 10b8 1dbe
0.10043691 0.046909567 -0.10968816 -0.15705651 -0.094408065 -0.07882886 -0.08247952 -0.15402246

layer2.1.weight f4 [8]
00000000: b877 823f f236 7c3f c905 803f dbcf 803f
00000010: 6323 7e3f f46f 823f 14f9 783f 7b7b 7d3f
1.0192785 0.9852134 1.0001765 1.0063432 0.99272746 1.0190415 0.97255063 0.9901654

layer2.1.bias f4 [8]
00000000: 772d 543c fc6c 0e3c a23c 2937 10f3 b23c
00000010: 1868 6bbc 5532 61bb 14a6 e6bb ec70 cd3a
0.012950293 0.008692976 1.0087302e-05 0.021844417 -0.01436808 -0.0034362276 -0.007038841 0.0015673912

layer2.1.running_mean f4 [8]
00000000: a8a4 263e a3a7 c9bd 80ee 96be 9ba0 c7be
00000010: d6b4 c53e 2351 8b3e 5732 c4be e558 79be
0.16273749 -0.09846427 -0.29478836 -0.3898972 0.3861453 0.2721034 -0.38319656 -0.24350317

layer2.1.running_var f4 [8]
00000000: 7a33 ed3e 40d8 9d3e 660b 1f3e dfcc 053e
00000010: 2dd6 843e fbc5 b53e dcc8 173e 3e39 8d3e
0.46328336 0.30829048 0.15531692 0.13066433 0.25944653 0.3550261 0.14822716 0.27582735

layer3.0.weight f4 [16, 8, 3, 3]
00000000: 54e4 8cbd c5c7 4bbd 16b2 dabd 6e8f 06bd
00000010: abc0 f33c ef98 3b3d e941 5f3c 837f a03c
00000020: cea1 89bd 8fe9 9c3d 3af5 a1b9 122c 2cbd
00000030: 15fc 90bd a076 acbd c0f4 d33d c5fd 7dbd
00000040: 3e9f a33c 8553 6c3d a039 573d a8b6 c33d
00000050: b9f0 4d3d 9058 563d eba1 9e3d 387e 1b3d
00000060: 3c9d 913d 752f f53d a763 a83d c70d d6bc
00000070: 450d f43c 7cb2 5f3d 3e47 4b3d da09 c13a
00000080: 90c5 6cbd 4c45 c1bd dc15 97bc 4e3a e2bc
00000090: e92d 08bd 7e6f 4d3d eca8 143d a7c7 6d3d
000000a0: 9c28 72bd 7b63 e3bd c147 13bd 6231 943d
000000b0: 5ea6 f03d eaee c33d 7180 b83d 159b 12bd
000000c0: 69e2 853d 107e a73c 10a0 c83d ab11 89bd
000000d0: cf99 c13d 0291 ba3d 5045 353c 5b17 69bb
000000e0: 51d8 a93c 1737 4abc ba64 8c3d f5f5 9ebd
000000f0: 4312 74bc ed17 af3d 3ca0 88bc 9686 c93d
00000100: e438 ab3b 4ba4 023d 24fe 9dbc 50c0 903d
00000110: db6d b3bd 1e87 993d d77f bf3d 9b8b cbbb
00000120: 749d f2bc 57bf 83bd 0f28 5cbd d27a 583d
00000130: cea6 cc3c 10de 9c3d afcd c43d b49c f3bc
00000140: 2cd7 42bd 4e8b 9e3c 7723 d43d 4032 2b3c
00000150: 1a13 b73d 2995 bebd 3f0d 823a 2af9 e6bc
00000160: c3c3 bc3d 1805 b5bd 0d44 2ebd 5d75 1539
00000170: f1ad 643d 8df9 2cbc 8eb1 8bbd 65dc ad3d
00000180: 4330 f73d e901 cc3d 0df8 ff3d 1413 8dbd
00000190: bceb 9cbd 2a94 943c 060e 81bd 0c21 853d
000001a0: 52f4 2f3d 7f78 9d3c 84dd 14bd 890e 973b
000001b0: f10c c63b fa8a adbd 2f9f 98bc f8dd 133d
000001c0: f65d 8cbd 9cb5 d1bd 4e33 20bd 85e4 a3bd
000001d0: f74e 833d f284 b5bd ca60 10bd fdc7 cfbd
000001e0: c5ff f33c 76fe ec3c d6f6 123d cda5 84bd
000001f0: 941b d7bd d436 edbd 2fff 8c3a 2832 b63d
00000200: 00b5 903d c01d 353d 26ec 31bd 1854 1fbd
00000210: 3522 e13d 9cad 14bd 7c34 aabd 31da 6b3d
00000220: ede8 b53c 5be5 b8bd 8681 e13d a413 4c3d
00000230: 3e31 27bc 9dd8 cebd 732e 663d 4157 88bd
00000240: cae5 613c b43f 753b 5eec 28bd 5356 7abd
00000250: 645b a33d 9585 803b 6729 c23c 427d b4bc
00000260: 824e 8c3d 5056 8cbd 0254 6c3d bdaa d8b8
00000270: 9d44 89bd cfc0 093d fdec ccbd 0608 72bd
00000280: 1ef9 9f3c b414 9dbd 944d 24bd 1bf9 88bd
00000290: ed3c 5e3d 7f16 133d 6f4c 7bbd d0fa 233d
000002a0: e7ca a9bc 0157 50bd 2eab 9e3d 3a58 38bc
000002b0: 477b f1bd 1e3a 2d3d 9059 a23c 4ccd 183d
000002c0: a7b0 1a3d 84eb 753a ddc8 febc e44e e9bc
000002d0: 5014 0b3d 5d61 4f3d 3090 553d 941b 0abd
000002e0: 37a1 613d e8bd d4bd be1d 733d f7b8 953d
000002f0: a094 8fbd 4ee4 0dbd bcd8 a23d e27a 683d
00000300: 1102 223d abe4 bf3c 79d4 5d3d f92f 933d
00000310: 420e aa3d 48ab b03d 15b5 f1bc cf63 92bd
00000320: 90f0 afbd ce25 bc3d 79e5 bfbd 066b c03d
00000330: 949d 87bd 9d39 8e3c 3955 c63d 150c 91bd
00000340: 012a d6bd f824 c53d a985 ba3d 9d6b 90bd
00000350: 28e0 c93a 80a0 d93d 4f9f 5a3c 40a3 123b
00000360: 089f 713d e2f7 a9bd 40ef 8d3c 1f11 d5bd
00000370: 3b72 c73d b9f6 d93d e964 e03b 3b2f b9bc
00000380: 2bfe 523d a6b4 a2bc f4d5 bebb 9f6e adbd
00000390: b49d 9bbd 3977 bdbd 9ea6 efbd 31fe 2abd
000003a0: 2dc6 00bd 0a48 943d 9818 983d 9864 88bd
000003b0: b9e4 ac3d 1a4c 25bd bc39 da3d 78fb d7bd
000003c0: 9259 3abb a7ce 06bd 1498 87bd b78a 91bd
000003d0: b2f8 88bd 502a a8bc 2349 b6bd 35e5 093d
000003e0: a544 9fbc b454 993d 466c a93d b772 adbd
000003f0: 0807 d93d 4b74 d63d c93a ec3c 3604 823c
-0.06879488 -0.049751062 -0.106784984 -0.03285163 0.029754957 0.045800146 0.013626554 0.019592052
-0.06720315 0.07661735 -0.0003089102 -0.042034216 -0.07079331 -0.084210634 0.10349417 -0.06200959
0.019973394 0.057696838 0.05254519 0.09556323 0.0502784 0.052330554 0.07745727 0.03796217
0.07110068 0.11971942 0.08222132 -0.026129616 0.029791484 0.054613575 0.04962849 0.0014727667
-0.057805598 -0.094370455 -0.01844304 -0.027615692 -0.03324691 0.050155155 0.03629391 0.05805173
-0.05912076 -0.11102959 -0.0359571 0.072359815 0.11750482 0.095670536 0.09008873 -0.03579243
0.06537325 0.020445853 0.097961545 -0.06692823 0.09453165 0.09109689 0.011063889 -0.00355669
0.02073303 -0.012342236 0.068551496 -0.07761756 -0.014896932 0.08549485 -0.016677968 0.09840123
0.0052252878 0.031894963 -0.019286223 0.07067931 -0.08761188 0.07496475 0.093505554 -0.0062117106
-0.029616095 -0.064329796 -0.05374914 0.052851506 0.024981882 0.076595426 0.096095435 -0.029737808
-0.047568485 0.019353535 0.10358327 0.010448992 0.0893919 -0.09305794 0.000992216 -0.028194983
0.09217026 -0.08838862 -0.042545367 0.00014253469 0.055829946 -0.010557544 -0.06820975 0.084893025
0.12069752 0.09961302 0.12498484 -0.068884045 -0.0766215 0.018137056 -0.06301503 0.06500444
0.04295761 0.019222496 -0.036344066 0.004609887 0.006044023 -0.08473773 -0.018630592 0.036100358
-0.06853859 -0.10239717 -0.039111428 -0.08002571 0.06411546 -0.08863248 -0.035248555 -0.101455666
0.029785046 0.02892993 0.035879932 -0.064769365 -0.10503307 -0.11582723 0.0010757203 0.08896285
0.07065773 0.044217825 -0.0434381 -0.038898557 0.109928526 -0.03629838 -0.08310792 0.05758113
0.022205794 -0.09028121 0.11011033 0.04982342 -0.010204611 -0.100999095 0.05619664 -0.06657267
0.013787696 0.0037422003 -0.041241042 -0.06111748 0.07976416 0.003922174 0.023701383 -0.022032384
0.06850912 -0.068524 0.057697304 -0.00010331485 -0.0670254 0.033631142 -0.100061394 -0.059089683
0.019527968 -0.076699644 -0.040113047 -0.06688138 0.054257322 0.035910126 -0.06135219 0.040034115
-0.020726634 -0.050864223 0.07747494 -0.011251504 -0.117910914 0.042291753 0.019818097 0.03730516
0.037766125 0.0009381103 -0.031101638 -0.02848 0.03395492 0.050629962 0.05213946 -0.033717707
0.055085387 -0.10387784 0.059354536 0.0731067 -0.0701077 -0.034641556 0.07951495 0.056757815
0.039552752 0.023424467 0.054157708 0.071868844 0.08303501 0.08626419 -0.029505292 -0.07147943
-0.085908055 0.09186898 -0.0936994 0.09395413 -0.066218525 0.017361457 0.09684224 -0.070823826
-0.1045723 0.09626192 0.09107525 -0.070517756 0.0015401887 0.10626316 0.013343646 0.0022375137
0.058989555 -0.08299233 0.017325997 -0.10403656 0.097385846 0.10642762 0.006847967 -0.022605529
0.051511925 -0.01986153 -0.005823845 -0.08468365 -0.07598439 -0.092512555 -0.117017016 -0.041746322
-0.031438995 0.07240303 0.07426566 -0.06659812 0.08442063 -0.04035578 0.10655543 -0.10546011
-0.0028434736 -0.032911923 -0.066208035 -0.07106536 -0.0668806 -0.020527989 -0.089006685 0.033665854
-0.019441912 0.07486859 0.08272605 -0.08469146 0.10597044 0.104714 0.028836625 0.015871149

layer3.0.bias f4 [16]
00000000: 0524 b7bd 0d96 12bd 924c 1abd a215 a5bd
00000010: ee83 9bbd 6594 59bd 6855 d5bd c99d 583d
00000020: a5b7 b9bd a94a d4bc c357 5e3d 31d4 a03d
00000030: 0055 11bd 8eae 903d 77bc d3bd 31ae 613c
-0.08942417 -0.03578763 -0.03767068 -0.08060767 -0.07593523 -0.053120036 -0.104166806 0.05288485
-0.090682305 -0.025914507 0.054282915 0.07852972 -0.035481453 0.07064544 -0.10338681 0.013774441

layer3.1.weight f4 [16]
00000000: c2ba 813f c0f2 803f 4ea9 813f 0826 813f
00000010: 0d3e 7f3f 160d 803f 8b4d 7c3f ca31 7a3f
00000020: de0e 823f c379 7e3f 6c41 813f cd1c 7f3f
00000030: 007d 7c3f 7c6c 7e3f f46a 813f efe8 7f3f
1.0135119 1.0074081 1.0129793 1.0089731 0.99704057 1.0003994 0.9855582 0.9773222
1.0160787 0.99404544 1.009809 0.9965332 0.98628235 0.99384284 1.0110765 0.99964803

layer3.1.bias f4 [16]
00000000: e907 89ba 2168 d1bc 1e78 63bc 45d8 a13b
00000010: bc45 e4bc 3624 10bd fc89 05bd e316 e1bc
00000020: bf3c 03bd 5970 59bc 18f5 ff3b bc08 92bc
00000030: e35b c2bb 514d dabc 6157 d8bb 7e89 4dbb
-0.0010454628 -0.025562348 -0.013883619 0.0049391114 -0.027865283 -0.035190783 -0.032602295 -0.027476734
-0.032040354 -0.013271415 0.0078112 -0.01782643 -0.005931364 -0.026648195 -0.0066022133 -0.003136247

layer3.1.running_mean f4 [16]
00000000: 5716 ba3e 3652 d5bd 3268 bd3d 536b 2e3e
00000010: 9afc 013f faa8 823e efa1 343e 24ca ae3e
00000020: 5c8b 113e ec5d 23be daa3 d43b ac1a 62be
00000030: 2293 8ab9 8302 5f3c 8b32 0cbf 93a3 393e
0.3634517 -0.10416071 0.09248389 0.17033128 0.50776064 0.25519544 0.17639898 0.34138596
0.14213318 -0.15953797 0.006489259 -0.22080487 -0.00026431034 0.013611439 -0.5476462 0.18128805

layer3.1.running_var f4 [16]
00000000: 9901 ce3e fc7c c53d 73bb 7e3e 3803 c43e
00000010: 0f07 b43e db9b d13d 3d6e e93d e173 d83d
00000020: 49b8 3d3e dfa3 d83d 077e d93e 09af 413e
00000030: bc3c 263e 2654 493d 9490 113e 96cd 233e
0.40235594 0.096429795 0.24876194 0.38283706 0.35161635 0.10234805 0.113979794 0.10568977
0.1852733 0.10578131 0.42478964 0.18914427 0.16234106 0.049152516 0.14215308 0.15996394

layer4.0.weight f4 [64, 16, 3, 3]
00000000: faec b53d ea2c a33d 71d4 443d 5d5e 403d
00000010: 9448 91bd b998 ccbc 045f 623d aad6 123d
00000020: 7766 a2bd ab6d 58bd 2f0a f2bc a3d7 bc3b
00000030: f23d 913d 1ec8 da3b 4ddb b6bc af18 893d
00000040: f034 36bd 1f3e 99bd 49a8 1dbc 9800 223d
00000050: 4cf6 0cbd 4a0a 3e3b 8b96 2abd 0dc2 0bbc
00000060: 04d5 82bc b1ce 24bd 24ef 24bd a975 2f3d
00000070: 8644 893d 8c81 c73d bf0f 87bd 3769 143d
00000080: 7c7a 75bd 2beb 14ba db6c 153c 633c 2c3d
00000090: 2618 a13d 8f07 13bd 78a9 62bd cc61 7bbd
000000a0: 535a 68bd 5b45 95bc e81c 97bd 398c 893d
000000b0: 1de6 a9bb afcd 41bc 0840 873d e58d 783d
000000c0: 0686 e7bc 6bc8 393d 893f 3b3d 9a4c 003d
000000d0: 2e9b 1d3c a207 7bbd 0bc0 3d3c 623f 993d
000000e0: f354 5abd 1cb5 a13c 46c3 32bd f5d6 0dbc
000000f0: 12c3 86bd 8097 863c 4dec 99bd 1049 b5bc
00000100: 0730 18bd 25ee 7fbd d9b6 603d 7cd8 873d
00000110: c349 483c 530d 4d3d 4adc 943d 1ed4 3a3d
00000120: 76c1 0a39 0151 063d 4363 a13c 0cd0 863d
00000130: 1719 713d 9111 85bd e9c8 47bc be18 1b3c
00000140: b5d2 acbd d97e e3bb 60f8 8c3d aed8 62bd
00000150: ed78 a03d 51c9 6c3d d327 9e3c 4f15 aabd
00000160: fb67 40bd ea13 1b3d de2d 0fbd 7a55 9c3d
00000170: 87e8 8fbd 833a 4e3d 2a1a 80bd e2dd 24bd
00000180: fa96 a83d 706f 9e3d d2a1 39bd c7e8 2f3d
00000190: 1bc8 51bc 6cfb a03c 370a 4d3d 06de adbd
000001a0: e465 9bbd a5e9 643d b625 6abd e445 8d3b
000001b0: cfb4 b13d 79f7 ddbc 47fb 85bb 1912 5f3d
000001c0: ee9b e93b 7a38 153d ed4b 593d a3ab 223d
000001d0: d2ea c43b e681 6c3c 7685 ccbc 46a8 ad3c
000001e0: d303 6b3c 8d5c 5c3d b9eb 9abd a93c e1bc
000001f0: 69a7 89bd 651e 8fbb 23c4 18bc d98d 923c
00000200: ef2b 413c d81a a1bc 253a d2bc bd1c 903d
00000210: af99 a6bd 404a 91bd 180e 7b3d 0a83 373d
00000220: 3a9a 4bbd 1083 793d dddf 90bc 2696 8dbd
00000230: 7609 87bd 2c5c 89bc d7b5 6fbd 3aec 48bc
00000240: fb88 d13c 6b8a cdb9 2a38 5dbc 4af4 5d3d
00000250: 1f85 b73c 8429 b4bc 7f23 3e3c 55b9 d2bc
00000260: 2c65 3d3b 50b9 38bd 5324 0fbd 247d 4b3d
00000270: 73cf 1dbd 6d85 4abc 93a0 95bb 8b27 1bbd
00000280: 8282 0fbd 7327 b4bd edef 5f3d 6b8c 38bd
00000290: 0010 3cbd 9994 043d 2a5e 7dbd dcfb 093d
000002a0: 7a54 acbd 5653 12bd 8b41 b73c 10c4 dc3d
000002b0: 771f 693c 01a5 28bd 68e4 74bc 8ec9 673b
000002c0: 7fa4 813d 8c3b e33c f25c 23bc 0a71 483c
000002d0: 51c7 16bd 0391 963d c083 41bd 26e3 e8bc
000002e0: 5556 473d f038 8f3d dfe1 75bd ab16 43bd
000002f0: ca44 89bd 0b50 bc3c f7aa 32bc d57c 24bb
00000300: f90f 74bd 055b b93c a236 e33d 5411 583d
00000310: ff07 933d 1e5a 6e3d 31da 793d d573 1c3d
00000320: ab7d 143c 906c 0bbd 983c d5bc 5961 17bd
00000330: 38b1 bc3c f980 0abd 4d0f 8f3d 8a00 33bd
00000340: 8a7e 5c3d 544d 14bd 4450 f13c 59d7 e93c
00000350: 8aa1 6c3c b13f 1dbd fc53 79bd cf85 7a3d
00000360: ac60 cdbc ee56 6b3d f2e4 51bd 85be a6bc
00000370: 0685 6fbd 1af2 88bd f843 4b3c 2593 a43d
00000380: 32d7 47bd 4678 ef3b 866a 113d fd47 633d
00000390: 5457 1f3d 5b40 9d3d 6255 6b3d 0df7 8ebd
000003a0: fdb5 643c 9eb8 da3b 56a2 6dbd bd31 543d
000003b0: 91b0 38bd f654 0a3d f1ca 5abd 1b69 66bd
000003c0: 31ea 97bd 59cf 9bbd 9734 143d ab18 85bc
000003d0: 0811 43bc b0d4 66bd b356 6e3b 0066 fcbc
000003e0: 4eee 6e3c 0412 473c c2b4 073d c1af 63bd
000003f0: bd92 bdbc 8e16 c0bc 170b 96bd 690e 56bd
0.0888309 0.07967551 0.048054162 0.04696499 -0.07093921 -0.024975168 0.055266395 0.03584925
-0.079297 -0.052838963 -0.029545872 0.0057630106 0.07091893 0.006676688 -0.022321368 0.06694161
-0.04448408 -0.07482552 -0.009622642 0.039551347 -0.034414575 0.0028997832 -0.041647475 -0.008530152
-0.015970714 -0.04023618 -0.040267125 0.04283682 0.06702523 0.09741506 -0.065948 0.036233153
-0.059931263 -0.0005680795 0.009120191 0.042049777 0.07865934 -0.03589588 -0.0553374 -0.061372563
-0.056726765 -0.018221548 -0.0737856 0.067161985 -0.0051849023 -0.011828824 0.0660401 0.060682196
-0.02826215 0.04535715 0.04571489 0.031323053 0.009619517 -0.061286576 0.011581431 0.074827924
-0.05330367 0.01973968 -0.04364326 -0.008657207 -0.065801755 0.016429663 -0.07515774 -0.022129565
-0.037155177 -0.06248297 0.054861877 0.06633088 0.012224617 0.050061535 0.07268579 0.045612447
0.00013232775 0.032792095 0.019700652 0.065826505 0.05886182 -0.06497491 -0.012193897 0.009466348
-0.08438627 -0.0069426117 0.06883311 -0.055382423 0.07835565 0.057809178 0.019306099 -0.083048455
-0.046974164 0.03786079 -0.03495585 0.07633491 -0.07026773 0.05034877 -0.062549904 -0.040250666
0.082319215 0.07736099 -0.04532034 0.042946603 -0.0128040565 0.019651137 0.05005857 -0.08489613
-0.075877935 0.055886883 -0.05716487 0.00431131 0.086770646 -0.027095543 -0.0040887925 0.05446062
0.007129184 0.036430813 0.053050924 0.039714467 0.006009438 0.014435267 -0.024965983 0.021198403
0.0143441735 0.0537992 -0.07564492 -0.027494745 -0.06721384 -0.004367637 -0.009324106 0.017889904
0.01179026 -0.01966612 -0.025662491 0.070367314 -0.081347816 -0.0709424 0.061292738 0.044802703
-0.04970763 0.060916007 -0.017684871 -0.06913404 -0.065936014 -0.016767584 -0.058523025 -0.012263352
0.025578013 -0.00039203776 -0.01350216 0.05418805 0.022402344 -0.021992452 0.011605143 -0.025723139
0.0028899414 -0.045098603 -0.03494675 0.04967989 -0.038527917 -0.012360913 -0.004566261 -0.037879508
-0.03503657 -0.08796587 0.05467217 -0.045055788 -0.045913696 0.032368276 -0.06185738 0.033687457
-0.0841455 -0.035724007 0.02237012 0.107795835 0.014228693 -0.041172985 -0.014947034 0.0035367939
0.06330203 0.027738355 -0.00997089 0.012233982 -0.036811177 0.073518775 -0.047244787 -0.028428625
0.048666317 0.06993282 -0.06002986 -0.04762904 -0.067025736 0.022987386 -0.010905019 -0.002509882
-0.059585545 0.02262641 0.11094405 0.0527509 0.071792595 0.05819141 0.0609991 0.038196404
0.009063165 -0.03403908 -0.02602987 -0.036958072 0.023033723 -0.033814404 0.0698534 -0.043701686
0.053831615 -0.03620656 0.029457219 0.028545069 0.014442811 -0.03839082 -0.06087111 0.061162766
-0.02507051 0.05745595 -0.05124373 -0.020354519 -0.05847647 -0.06686802 0.012406342 0.08035878
-0.04878921 0.007308039 0.03550198 0.055488575 0.038901642 0.076782905 0.057454474 -0.06980715
0.013959405 0.00667484 -0.058016144 0.051805247 -0.04509026 0.03377243 -0.053416196 -0.05625258
-0.07417715 -0.07607908 0.036182966 -0.016247114 -0.011905916 -0.05635518 0.0036367595 -0.030810356
0.014583183 0.012150291 0.03313137 -0.055587534 -0.02314126 -0.023448255 -0.07326334 -0.052259836

layer4.0.bias f4 [64]
00000000: 1fc5 14bd eec2 93bd 07f7 f8bc 17f4 c4bc
00000010: 9884 48bd c970 91bd fa01 6b3d 19ab ba39
00000020: 1adc e6bc 9798 4c3b 32b0 843c c8a1 9cbc
00000030: de08 3bbc 78e3 983d 232a 51bd 5d6b 233d
00000040: 7421 45bd 5b20 d33a c9cf 833d 7690 923d
00000050: 11e5 ef3c 79a0 043b 3d45 613d f9fe 1f3d
00000060: 7246 a3bd 0ef0 9b3d 27b7 53bd 2235 293c
00000070: dccf 59bd 6dde 823c 0157 9a3d 5927 ff3c
00000080: 62eb 9ebd 5b0e 903d 04f1 8f3c c174 4ebc
00000090: 588c 11bd e496 bb3c b014 9f3d ea16 f83c
000000a0: 4602 53bd b7bf 37bd 4582 57bc a5ef a8bd
000000b0: 8f3e 013d b0c8 61bd 5ff0 a23d fe72 29bd
000000c0: 4487 753d b97b a73d 07a3 8dbd 74ca 69bd
000000d0: 990d 783d c9c5 683c 2c97 11bd a6a9 dbbc
000000e0: 0e8c 64bb 1a09 0fbd a170 a53d b4f5 6c3c
000000f0: 6934 3c3d 6126 feba c903 db3a 545a 00bd
-0.0363208 -0.07214914 -0.03039123 -0.024042172 -0.048954576 -0.0710159 0.057374932 0.00035604162
-0.028181124 0.003121888 0.016197298 -0.019120112 -0.011415688 0.07465261 -0.051065575 0.03989731
-0.048127607 0.0016107665 0.06436116 0.0715646 0.029284032 0.002023725 0.05499767 0.03906152
-0.07972421 0.07614146 -0.05168834 0.010327609 -0.053176746 0.015975202 0.07536126 0.031146692
-0.077597395 0.07033988 0.01757098 -0.0126010785 -0.035534233 0.022899099 0.07767618 0.030284364
-0.05151584 -0.044860568 -0.013153617 -0.082488336 0.0315538 -0.05512303 0.079560034 -0.04136943
0.059943452 0.08177895 -0.069158606 -0.05707784 0.060559843 0.014207312 -0.03554456 -0.026814293
-0.0034873518 -0.03492079 0.08078123 0.014462877 0.04594842 -0.00193901 0.0016709502 -0.031336144

layer4.1.weight f4 [64]
00000000: f2a3 7e3f 296d 7e3f 1303 813f bd11 803f
00000010: 5b66 833f 076a 783f 0860 803f 622a 7c3f
00000020: 1f28 7e3f 96d0 773f 2081 803f 79d2 803f
00000030: b8cf 7d3f 8cb7 813f d075 803f 4812 803f
00000040: f260 7d3f 1c82 833f 16d8 7a3f bda3 833f
00000050: 8a7c 803f a011 7f3f 07a3 823f 2528 783f
00000060: e0e6 823f 883e 803f 5abd 803f 0f1a 843f
00000070: 22b2 7d3f a1b3 7e3f 43ec 783f 51be 803f
00000080: 330c 7e3f f899 803f 3f05 803f d550 803f
00000090: c9c3 773f c237 803f 2e63 7d3f e4f2 7c3f
000000a0: c95b 803f fd12 803f 4175 7b3f 6fd6 7f3f
000000b0: 2966 813f 9c01 7f3f b4a5 803f f7a9 803f
000000c0: ad30 803f 9917 823f 6cdb 833f 8381 803f
000000d0: e8a0 803f ac00 803f af24 813f df4e 7a3f
000000e0: 279b 7b3f 7163 7e3f b104 813f 7d67 7d3f
000000f0: 8748 7d3f cc76 803f d4d6 7f3f c665 813f
0.9946891 0.99385315 1.0079063 1.0005413 1.0265611 0.97036785 1.0029306 0.9850217
0.9927997 0.9680265 1.0039406 1.0064231 0.9914508 1.0134139 1.0035954 1.0005579
0.9897605 1.0274081 0.9798597 1.0284344 1.0038006 0.9963627 1.0206002 0.96936256
1.0226707 1.0019083 1.0057786 1.0320452 0.99099934 0.9949284 0.97235507 1.005808
0.99237365 1.0046988 1.0001601 1.0024668 0.9678312 1.0017016 0.9897946 0.9880812
1.0028011 1.0005795 0.9822579 0.99936575 1.0109302 0.9961183 1.0050569 1.0051869
1.0014855 1.0163451 1.0301337 1.0039524 1.0049105 1.0000205 1.008932 0.977766
0.9828362 0.99370486 1.0079557 0.98986036 0.9893879 1.0036254 0.99937177 1.0109184

layer4.1.bias f4 [64]
00000000: 5c30 4ebc 4cb3 fdbc 4039 70bc 203e 86bc
00000010: b0a7 31bc 1549 1fbd 0df4 41bc d8e7 fabc
00000020: ffa4 00bd 0f37 23bd fe91 f1bc 2e5b 89bc
00000030: 34df f8bc a6bb 08bc 2097 6dbc 6c61 20bc
00000040: 9a8f f9bc 0e8b dabc e2d3 2fbd b323 11ba
00000050: f6c4 2abd 2e3f 343c 7c77 06bc 730d 4abd
00000060: 6533 00bd 9985 99bc ec58 cfbc 9820 6cbd
00000070: f51d 13bd 67f2 75bc 02e3 12bd 2161 e1bc
00000080: db83 3cbd 729b 2cbb acc2 bcbb 3804 a0bc
00000090: 76c3 07bd 9eb9 5bbc 765a 12bd 3be2 bebc
000000a0: 9d44 85bc ef6d 33bd 0f05 58bb 1bf8 5abc
000000b0: 7baf 3abc e40b 2bbd cfcf 18bc bd22 eebc
000000c0: fa40 1ebc b4a4 65bc 17a6 8abb 2253 6fbd
000000d0: ca8e d6bc 20f6 cabc b0ae 25bc 3613 2dbd
000000e0: f518 04bd 6d10 03bd 6332 e7bc cb49 34bc
000000f0: a299 ebbc e8b7 06bd c819 bebc c395 1fbb
-0.012584772 -0.030969284 -0.014662087 -0.016387045 -0.0108432025 -0.038888056 -0.011837971 -0.03062813
-0.031407353 -0.03984743 -0.02948856 -0.01676711 -0.030379869 -0.00834552 -0.014501363 -0.009788852
-0.030463982 -0.026677635 -0.042926677 -0.00055366306 -0.041691743 0.011001391 -0.008207198 -0.049329232
-0.031299014 -0.018740462 -0.025310956 -0.05764827 -0.03591724 -0.0150114065 -0.035861023 -0.027512135
-0.046024185 -0.002633777 -0.0057605114 -0.019533262 -0.03314539 -0.013410954 -0.0357308 -0.023301234
-0.016268069 -0.043806013 -0.0032962 -0.013364817 -0.011394377 -0.041759387 -0.009326889 -0.029069299
-0.009659046 -0.014016319 -0.0042312252 -0.05842889 -0.026191134 -0.024775565 -0.0101124495 -0.04225465
-0.032250363 -0.031998087 -0.028222268 -0.011003922 -0.028759781 -0.03289023 -0.023205653 -0.002435074

layer4.1.running_mean f4 [64]
00000000: 4fb0 4e3d ac15 76bc d02e 28bf 16e5 4839
00000010: 8e84 cfbe cd06 4dbe a087 40be 4ce2 713f
00000020: be52 653e 148f ebbe 3691 503d 8c23 73be
00000030: 3428 19bd 6914 85bf 560c 813c b45f c33c
00000040: bf81 433f 0e7b 03bf 4c9a cdbd a0b5 6bbe
00000050: daa6 fd3d af65 b7be b721 03bf ab0e c6be
00000060: 2ae5 6a3e 5f3d ef3d 8204 503d d85f 03bf
00000070: 1456 70be 25c5 5abf ac2f 333f ff32 623e
00000080: b6b4 36bf 1cd4 46bd 158f 2bbf 2f0d 56bd
00000090: 104b 143f 5791 153e 7714 4b3e 16fe f13e
000000a0: 1cc4 c93e 6aac 573f a6c8 13be d24c bcbe
000000b0: 9953 b2be 6061 383f 1331 6dbd 0e26 a2bb
000000c0: 25d8 d1bd 78fe 0dbf 1f2a d8be f4f0 c43e
000000d0: 07ce 82bd a562 243e 8d0e 823e 62d6 88be
000000e0: c8a7 493f e0e4 2fbd cb13 953d 1680 863e
000000f0: 214a a23f 571d b23e 3b97 d23d 9552 71bf
0.05046111 -0.015019815 -0.6569643 0.00019158827 -0.4053082 -0.20022126 -0.18801737 0.94485927
0.22394845 -0.46007597 0.050919734 -0.23744029 -0.037391856 -1.0396854 0.015752953 0.023849346
0.7636985 -0.5135964 -0.100391954 -0.23018503 0.1238534 -0.35819766 -0.5122332 -0.38683066
0.22938982 0.116816275 0.05078555 -0.5131812 -0.23470336 -0.8545707 0.69994617 0.22089766
-0.71369493 -0.048542127 -0.670152 -0.052258667 0.57927036 0.14606224 0.19832025 0.47264165
0.39407432 0.8424746 -0.1443201 -0.3677736 -0.34829405 0.7202358 -0.05790813 -0.004948384
-0.102463044 -0.55466413 -0.42219636 0.38465083 -0.06386953 0.16053255 0.25401726 -0.2672606
0.7877164 -0.04294288 0.07279166 0.26269597 1.2678872 0.3478801 0.10282751 -0.94266635

layer4.1.running_var f4 [64]
00000000: 2ec5 b43e 1c84 c03e 0caa 103f 1d4e 263f
00000010: 6c1e 163f 5166 7e3e 71f2 d13e 777b fc3f
00000020: 0cc0 313f aefe c83e 1169 f13e 3adf 873e
00000030: f183 a53e 599f f13f 42fe c73e 98b5 003f
00000040: b41e 963f b1bf ad3e 755a 4d3f 8098 133f
00000050: 0f7d a03e ef37 ca3e 16d5 013f 2cf0 823e
00000060: 3119 143f d34c c83e eee1 e23e b6b1 a63e
00000070: 14f3 153f be03 8b3f d294 663f 4076 a63e
00000080: 9d12 103f af97 df3e 456b 363f 7b63 043f
00000090: f681 0b3f 97db 093f c07a bf3e 48d2 2a3f
000000a0: abfa 933f 1236 a83f 4485 813e c311 713e
000000b0: 8dda 253f 0619 003f 7f93 0c3f 2ce1 f83e
000000c0: 90bf f33e cc70 3f3f 742b 123f fb75 193f
000000d0: 8b15 ef3e d90f af3e a179 283f 276a 113f
000000e0: 40ce a53f 1f1f c13e 304b e43e 52e6 653f
000000f0: 61e0 713f e903 123f 4b00 dc3e a92b a33f
0.35306686 0.3760079 0.5650947 0.6496294 0.5864017 0.24843718 0.4100528 1.9725178
0.69433665 0.39256805 0.47150472 0.26537496 0.32327226 1.8876754 0.3906117 0.5027709
1.172812 0.3393531 0.8021615 0.5765457 0.31345412 0.394958 0.5071577 0.25573862
0.5785094 0.39121112 0.44312996 0.32557458 0.5857403 1.0860517 0.9007083 0.32512093
0.562784 0.43670413 0.7125743 0.51714295 0.5449518 0.5385069 0.37398338 0.66727114
1.1560873 1.3141501 0.25296986 0.23541932 0.6478661 0.5003818 0.5491256 0.48609293
0.47607088 0.7478149 0.57097554 0.5994565 0.46696123 0.34191778 0.6581059 0.568026
1.2953568 0.37719056 0.44588614 0.89804566 0.94483 0.57037216 0.42968974 1.2747699

layer5.0.weight f4 [64, 64, 3, 3]
00000000: c036 103c 9f4f a5bc a125 113c dfbd ff3a
00000010: dc13 a2bc 7960 d13c cc94 22bd 7579 03bd
00000020: 20e6 1a3d d850 fc3b f8a3 74bc c536 c03c
00000030: 1d99 323a 99f0 e63c 1674 673c ae9a 4cbc
00000040: 4845 89bc 875f be3b 3888 febb 6eae dc3c
00000050: 9f57 7fbc 76d7 053d 4a55 d2bb 7561 d13c
00000060: dd1c debc a0d1 0f3d 8a1b c03b 6eee a8bc
00000070: 59e0 233d ab09 63bc 50dc 03bd f9e5 a6bc
00000080: 29c8 0f3d 30ce 16bd 47da 743b d440 19bc
00000090: 2458 f23c 50fc 5abd 5bae 18bd 3446 a9bb
000000a0: 4be1 5fbd 4575 bcbb 6930 aabc 9123 f03b
000000b0: 21ac 48bc 3bde 79bc 4732 cbbc 78e7 053c
000000c0: 282d 88bc 0657 b43c d1b8 85bb e1c8 063d
000000d0: 98ad f23c 88b8 0fbd ed95 97ba 50e9 37bd
000000e0: c629 953c b9be 6ebd 6295 be3a 45dd 213a
000000f0: 02ea b2bb 4123 c7bc 7630 42bc a664 1d3d
00000100: 279f fc3c fb66 0abd cc85 073d b96f 6c3c
00000110: a83a 0ebd 628f de3b 2fb9 bf3c acf6 f8bc
00000120: 4b11 05bd 03f2 7c3c 8475 063c 925e dfbc
00000130: 8c6a 5abc 0e4a efbc 0710 1ebd 2872 99bc
00000140: 0046 373b 2e01 efbc 5c41 30bd 4a24 15bd
00000150: 0108 f0bb 1a91 493d 99fc d3bc 79f8 1c3d
00000160: 7c11 1d3c 0c1a bcbc 4ca2 eb3c c725 f9bc
00000170: ebbc 12bd 3d2b e5bc d17e e7bb 22bd b83c
00000180: e94d 433d 9d62 e83c db6b 06bb 744f bbbc
00000190: b431 11bd 5e48 7339 db4b 3abc c997 c43c
000001a0: 5c41 f03c 7cb1 bdbc 11c4 9dba 2a97 80bc
000001b0: a7cf 6abc 32b1 063d a6bb 93bc ff28 e73c
000001c0: 2741 74bc b1d5 473c 2118 bd3c 5c00 293d
000001d0: 4550 b43c c278 f0bc 8701 3b3d a306 413d
000001e0: a517 003d 55c5 763c 98bd 0f3d 4749 b43a
000001f0: 71f4 1c3c 04bb 01bd c539 033d a7f2 b53c
00000200: 8122 cf3c 407e 5c3c 4866 ad3b d16d 04bd
00000210: 6151 df3c dedd b3bc 45fa 733c bc22 913c
00000220: 9390 4fbb 0f62 b7bc a95b e43b 22f4 ab3c
00000230: fbb4 94bc f8f4 d8bb 170a f03c f222 e03c
00000240: 9877 273d 43d9 4f3c 57ca af3c 0e3b 603c
00000250: bfd6 5b3b 24c8 1f3d 1f9d babc ae02 963c
00000260: 4a26 ec3c b2b4 6bbc 1d6b b43c 4e6c 43bb
00000270: 4e4b e63b 7bc5 123d 8576 b03c 1f10 50bd
00000280: 062a 343d 48c9 b53c 4e1b f53b 3275 243d
00000290: 02d6 94bc 4bca 1bbd bc1e 3f3c 888a c2bc
000002a0: 1c9b 86bc 2325 42bc bd51 45ba 86f1 833c
000002b0: b957 2e3d 082c 033d 60cf 1c3d 5f60 3dbc
000002c0: 4077 2cbd 73f0 083c 67c9 9abc 6994 563c
000002d0: 1606 8a3c 496b 04bd be0b 643c 1c4b bd3c
000002e0: c0a0 d13c c2d5 b93c 0751 783c 05ac 953b
000002f0: f81c 51bb 8e8d 50ba 9d95 e73b 68d7 7f3c
00000300: e0ea 293c c7bf 0b3d 9e1d 9f3c 9237 14bb
00000310: 24b0 013c f360 763c b9ae 2b3d e349 fa3a
00000320: a562 ff3c 6eb3 e3bb baf5 d83b 9f77 56bd
00000330: 0464 2d3c f843 c9bc c8a2 bd3c 0861 78bb
00000340: d62f 7bbc b915 293d 91cb 4a3b f982 2f3d
00000350: 7cc8 85bc cfa9 a13c df9f 273d 8fc9 473d
00000360: 6755 0d3c 0032 65bc 6390 18bd b3f2 1ebd
00000370: 83e6 25bd ef8b 0dbc 707c ebbb ba14 1dbd
00000380: 8322 88bc 860e 333d 5f31 8f3c 1241 9a3c
00000390: ea8e 93bc 0e8a 283d e294 70bb 6a63 b63c
000003a0: d61b e83c 0081 26bc d7ab 173d 2cf3 13bc
000003b0: 1228 24bd 5c7e 14bd 2a7f e9bb adc4 da3c
000003c0: 2fd8 d8bc 178a fbbc 122e cc3c bdd5 293d
000003d0: 2647 543b 4f9c 653c d01d 843c 7cef 15bc
000003e0: 68e3 74bc 1d3e 00bd 57cf 943c c095 473d
000003f0: b3d9 a7bc bce9 fd3c a242 8dbb b42f 7abc
0.008802116 -0.020179568 0.008859069 0.0019511542 -0.01978486 0.025558697 -0.039692685 -0.032098252
0.03781712 0.007700067 -0.014931671 0.023463616 0.0006812977 0.028190898 0.014126798 -0.01248805
-0.016756669 0.0058097276 -0.0077677034 0.026938643 -0.015584855 0.032676183 -0.0064188587 0.025559166
-0.027113372 0.035112023 0.005862658 -0.020621505 0.040008876 -0.0138572855 -0.03219253 -0.020373331
0.035102997 -0.03681773 0.0037361549 -0.009353835 0.029583044 -0.05346328 -0.037275653 -0.0051658396
-0.054658215 -0.0057512843 -0.020775037 0.0073284586 -0.01224807 -0.015250738 -0.024804248 0.008172862
-0.016623095 0.022014152 -0.0040808697 0.032906417 0.029623792 -0.035088092 -0.0011565067 -0.04490024
0.018208396 -0.058287356 0.0014540369 0.00061746343 -0.005460025 -0.024308803 -0.011852374 0.038426064
0.030837609 -0.033789616 0.033086583 0.014430934 -0.034723908 0.006791995 0.023403732 -0.03039106
-0.032487195 0.015438559 0.008206729 -0.027266774 -0.013331067 -0.029210117 -0.038589504 -0.018731192
0.0027965307 -0.029175367 -0.04303108 -0.03641156 -0.007325173 0.049210645 -0.025877284 0.0383229
0.009586688 -0.022961639 0.028763913 -0.030413521 -0.035824697 -0.02797472 -0.0070646782 0.022551123
0.047681723 0.028367335 -0.0020511064 -0.022865035 -0.03544779 0.00023201245 -0.011370624 0.023998158
0.02932804 -0.02315592 -0.0012036582 -0.01569708 -0.014331735 0.03288383 -0.018033814 0.02821779
-0.014908112 0.012196944 0.023082795 0.04126011 0.022010932 -0.029354457 0.045655753 0.04712547
0.03127255 0.015061696 0.03509292 0.0013754749 0.009579764 -0.031672493 0.032037515 0.022210432
0.025285007 0.013457835 0.005291734 -0.03233129 0.027260484 -0.02195638 0.014891212 0.017716758
-0.0031671866 -0.022385625 0.0069689346 0.020990435 -0.018152704 -0.0066209994 0.029301686 0.027360413
0.040885538 0.012686077 0.021458788 0.013685955 0.0033544747 0.03900923 -0.02278 0.018311825
0.028826851 -0.014386343 0.022023732 -0.0029819193 0.00702802 0.035832863 0.02154089 -0.050796624
0.04398539 0.022190705 0.0074800616 0.04015083 -0.018168453 -0.03803472 0.0116650425 -0.023747697
-0.016431384 -0.011849674 -0.00075271336 0.016106378 0.042564128 0.032024413 0.038283706 -0.011558621
-0.042105913 0.008358109 -0.018894864 0.013096907 0.016848605 -0.032328878 0.013918815 0.023107104
0.025589347 0.022684935 0.015156037 0.0045676255 -0.0031908136 -0.00079556636 0.007067396 0.015615322
0.01037094 0.03411844 0.019423302 -0.002261613 0.00791553 0.015037763 0.041914675 0.0019095506
0.031174967 -0.00694888 0.0066210898 -0.052360173 0.010582928 -0.024568543 0.02314891 -0.0037899632
-0.015331229 0.041280482 0.003094409 0.042849515 -0.01633095 0.019734291 0.04092395 0.048776206
0.008626319 -0.013988972 -0.037247073 -0.038805675 -0.040503036 -0.00863932 -0.007186465 -0.038349845
-0.016618019 0.043715023 0.017479597 0.018829856 -0.018012483 0.041147284 -0.0036709835 0.022264201
0.028333586 -0.010162592 0.037029114 -0.009030145 -0.040077277 -0.03625332 -0.007125755 0.02670511
-0.026470272 -0.030705495 0.024924312 0.041463602 0.003239104 0.014014318 0.016127497 -0.009151336
-0.014946796 -0.031309236 0.018165274 0.048726797 -0.02048955 0.030995242 -0.0043109218 -0.015270162

layer5.0.bias f4 [64]
00000000: 95c2 c1bc 0c0d 943c 3477 c53c 1253 993b
00000010: 9f14 6bbc 8c91 e7bb 96fc 243d 7782 a43b
00000020: fa6f e6bc ed69 c23c 6803 48bb ca23 2cbc
00000030: f7cc 14bc 3960 0ebc 3ffe 59bc b354 b1bc
00000040: 039a aabc 9856 8abc 775b 0cbd 4cfa a7bc
00000050: 5094 063d 3d64 b53c a385 e9bb 97ee df3c
00000060: b82c 77bc 7f9e fb3c 36ad 533c a69b 16bd
00000070: 1685 043d 5f9c d2bc 9020 99bc a09d 84bc
00000080: 0abe 0d3d 2462 963c 7551 af3c 64d6 e23b
00000090: 39bf fc3b 7db3 17bd 650f 043c fe38 993c
000000a0: 9ca4 d93c 45bc e3bc 646f f8bc 3edb 193d
000000b0: e6cb 9dbc 2842 85bc ab2a 8f3c d586 06bd
000000c0: 7c42 89b9 0e4e aabc fe12 403b 7f23 2ab8
000000d0: 7ccb 3ebb bb91 da3c 7af9 223d 8f54 0b3d
000000e0: 52e8 4dbb da61 b83c 43e3 1fbc 82dd 0f3d
000000f0: dbe1 c53c ce0e 1fbd 9935 25bd de7a a839
-0.023652354 0.018072627 0.024104692 0.004679092 -0.014348178 -0.007066911 0.040279947 0.0050204354
-0.028129566 0.02373215 -0.0030519608 -0.01050658 -0.009082071 -0.008689933 -0.013305246 -0.021646833
-0.020825392 -0.016886994 -0.034266915 -0.020505093 0.032856286 0.022142524 -0.0071265264 0.027335448
-0.015086345 0.030715225 0.012919715 -0.03676953 0.032353483 -0.02570933 -0.018692285 -0.016188443
0.034605063 0.018357344 0.021401146 0.00692253 0.007713225 -0.037036408 0.008060311 0.018703934
0.02656775 -0.027799735 -0.030326553 0.0375626 -0.019262265 -0.016266897 0.0174764 -0.03284343
-0.0002618021 -0.020789173 0.0029308195 -4.0564217e-05 -0.0029112985 0.026680818 0.0397887 0.03401619
-0.0031418991 0.022507597 -0.009758773 0.035123356 0.024155548 -0.03883248 -0.040334318 0.00032135

layer5.1.weight f4 [64]
00000000: 09d4 833f 77fa 843f 47ea 813f 9fc3 833f
00000010: 1e4d 833f 5011 833f 68a8 823f edea 853f
00000020: c1b4 833f b1db 823f 0216 833f 234d 833f
00000030: b7ea 813f 98b0 823f 8094 833f f80f 833f
00000040: de16 833f 7ed1 823f 2be8 853f 20bd 823f
00000050: 5224 873f aa40 843f 87da 833f 55ed 813f
00000060: 6f33 833f d6be 823f f849 823f edd6 823f
00000070: de70 853f 0086 863f 9eb8 833f b6d1 843f
00000080: 8fb2 863f efe0 823f 3670 843f 1446 833f
00000090: 42e8 823f e889 833f 4403 873f d4a4 833f
000000a0: e7f3 833f f878 833f 47cc 823f 3e7a 863f
000000b0: 0b11 833f 05da 833f de9a 833f 289b 833f
000000c0: 3627 843f cb2d 833f a279 823f 4416 833f
000000d0: 9e3b 843f 75eb 833f 4e49 823f afc8 823f
000000e0: f429 833f 779b 843f facb 833f 5538 873f
000000f0: a423 833f 710d 833f 5744 843f 606c 813f
1.0299083 1.0388936 1.0149621 1.0294074 1.0257909 1.0239658 1.0207644 1.0462319
1.0289537 1.0223294 1.0241091 1.0257915 1.0149754 1.0210142 1.0279694 1.0239248
1.0241354 1.0220182 1.0461477 1.0213966 1.0557959 1.0332234 1.0301064 1.0150553
1.0250071 1.0214489 1.0178823 1.022184 1.0425069 1.0509644 1.0290716 1.0376499
1.0523242 1.0224894 1.0346744 1.0255761 1.022713 1.0276461 1.0547872 1.0284677
1.0308808 1.0271292 1.021859 1.0506055 1.0239576 1.0300909 1.0281637 1.0281725
1.0324466 1.024835 1.0193369 1.024117 1.0330694 1.0306231 1.0178621 1.0217494
1.0247178 1.0359944 1.0296624 1.0564066 1.0245252 1.0238477 1.0333356 1.0111198

layer5.1.bias f4 [64]
00000000: 8cb4 183c 6f03 c23b bce4 4d3c da68 793b
00000010: b400 983a aa78 00bc ba82 233c 27b6 af3b
00000020: 126d 04bc cf79 4c3c c11b 1a3c 489d b53b
00000030: f15b 073c 15b8 303c 3efa 9cba 59cc ecba
00000040: afdc 313c 5150 1c3c 98b5 cab9 e146 93bb
00000050: 0254 453c a055 243b d272 3cbb 2d37 b03a
00000060: 61b3 faba d135 093c 6ccd 063c 684b 973b
00000070: d796 4a3b 1f20 cf3b cb95 1d3c 92e0 dabb
00000080: 49c6 c93c 2d59 2c3c 6809 2439 d533 f93b
00000090: 4321 5e3c 8310 b7ba ada0 143d c306 293c
000000a0: 6085 633c 9422 4c3c dc36 1d3b cd0a fb3b
000000b0: a8ef 3a3c f54c 3f3c 011e 433b 1a5b dd3a
000000c0: 56f2 883b e37d 54ba 9779 46ba 9114 593c
000000d0: baed cd3b 06aa 6bba 28a5 fdbb 7cbf 35bb
000000e0: 3220 3eba 1b3a 633a 5e15 72ba 7669 083c
000000f0: b8cc 98ba 56ec 963b 84ec c63b 61cb 2aba
0.0093203895 0.0059208195 0.012566742 0.0038056881 0.0011596889 -0.007841269 0.009979898 0.0053622904
-0.008082645 0.012480213 0.009406031 0.005542431 0.008261667 0.010786076 -0.0011976433 -0.0018066271
0.010855838 0.009540633 -0.0003866374 -0.0044945334 0.012043955 0.002507545 -0.0028754962 0.0013444178
-0.0019126945 0.008374647 0.008227687 0.0046171434 0.0030912661 0.006320968 0.009618233 -0.006679603
0.024630683 0.010519308 0.00015643763 0.007605056 0.013557735 -0.0013966713 0.036286045 0.0103165535
0.01388678 0.012459416 0.0023988998 0.0076611997 0.011409678 0.011676063 0.0029772522 0.0016888112
0.0041792793 -0.0008105917 -0.0007571219 0.013249532 0.0062844427 -0.0008989874 -0.0077406354 -0.0027732542
-0.0007252722 0.0008668021 -0.00092347513 0.008325925 -0.0011657691 0.00460581 0.0060706753 -0.0006515291

layer5.1.running_mean f4 [64]
00000000: b8f7 b23e 647f 153d 1bc7 0ebe 4b0f 473e
00000010: 6aa6 d03f 2868 5bbe a496 abbe d85d 3d3e
00000020: 6a8c a43f e2f1 a3bf 38ed 49bd 2914 a63e
00000030: 077a b6bf 0bd3 81bf ed7f ef3e 3bbb da3d
00000040: 1d49 afbf 1887 2f3f 2ec4 843e 2cbb 08be
00000050: f78d 183f 9dbe da3d f7f3 d73d 7656 4c3e
00000060: 51db e43f e9ed 72be 05b6 30bf 15a5 a53e
00000070: 9561 a43e 385b 643f 4463 6d3f 2b1e d83f
00000080: dd6f 773e 869d 89be 50ed d33d bc15 123f
00000090: 46f4 6bbe 3060 833f 9b32 ee3e 8f3e dc3e
000000a0: b333 9f3f d1a2 793e f766 aa3e 4a89 153f
000000b0: 26fc e7be 3b50 2c3f f8d1 aa3f ecda fc3d
000000c0: 299d cb3e 0859 21be 4004 033e 6117 a7bf
000000d0: cd20 fabe b93e 353e be8b 96bd 9a0d 813f
000000e0: f6ff a23d b5cd 8a3f 3685 ab3f e932 953e
000000f0: f757 22be 1f20 653d 4469 573f b825 5abe
0.3495462 0.036498442 -0.1394314 0.19439428 1.6300786 -0.21426451 -0.33513367 0.1849283
1.2855351 -1.2808192 -0.049298495 0.32437256 -1.425599 -1.014253 0.46777287 0.10680243
-1.3694187 0.6856551 0.25930923 -0.1335265 0.5959162 0.10680888 0.105445795 0.19954857
1.787943 -0.23723568 -0.6902774 0.3235251 0.321057 0.8920169 0.9272959 1.6884207
0.24163766 -0.26877993 0.10347998 0.57064414 -0.23042402 1.0263729 0.46522984 0.43016478
1.2437652 0.24378516 0.3328168 0.5841261 -0.45309561 0.6730992 1.3345327 0.123464435
0.3976834 -0.15756619 0.1279459 -1.305401 -0.4885315 0.17699708 -0.073508725 1.0082276
0.07958977 1.0844027 1.3400028 0.29140404 -0.15853868 0.055938836 0.84145 -0.21303451

layer5.1.running_var f4 [64]
00000000: 3bc3 263f a24e 673f 66a5 093f 1100 c13e
00000010: 87c8 853f f887 7e3f 7986 4f3f 4fea 643f
00000020: fa77 8f3f 8ee0 8e3f 3a98 f93e d8c2 ee3e
00000030: bffb 9a3f 07a9 753f 81d2 523f 9ab4 523f
00000040: 3ee0 9e3f 2194 7a3f c26f 253f 1c57 7d3f
00000050: f4c9 603f 7cf1 4b3f d541 293f f55d 3f3f
00000060: 4228 a23f c9bb 303f 05cf 3c3f ece9 003f
00000070: ea54 543f 37ae 8c3f f1c4 6e3f 92d2 b93f
00000080: 48b8 833f c0ea 613f 77c2 4a3f c638 ed3e
00000090: 20b6 333f 66c9 703f b921 323f b8ba 893f
000000a0: 0f6f 463f 6169 cc3e 266a 183f 8de6 353f
000000b0: 4d8f 5d3f a41d 643f 33dc 6e3f 1751 263f
000000c0: 26ce 553f da9e 713f 64e1 773f bff5 943f
000000d0: 2729 a23f abcc 4f3f 9a8b 733f 04fe 903f
000000e0: deef 253f c719 803f e1bb 9a3f 7f46 1c3f
000000f0: f467 8f3f 3c08 133f 31b0 493f 6385 613f
0.6514165 0.9035436 0.53768003 0.37695363 1.0451821 0.9942622 0.81064564 0.89420027
1.1208489 1.1162279 0.48748952 0.4663303 1.2108077 0.9596104 0.82352453 0.82306826
1.2412183 0.97882277 0.64623654 0.98961043 0.87808156 0.7966535 0.66116077 0.7475274
1.2668536 0.6903654 0.73753387 0.50356936 0.8294207 1.0990666 0.9326926 1.4517386
1.0290613 0.88248825 0.7920298 0.46332377 0.70199776 0.9405731 0.69582707 1.0760107
0.7751321 0.39924148 0.5953697 0.7105492 0.86546785 0.8910773 0.9330475 0.64967483
0.8351768 0.94383013 0.96828294 1.1637496 1.2668809 0.81171674 0.9513489 1.132752
0.64819133 1.0007867 1.2088586 0.6104507 1.1203599 0.5743444 0.7878447 0.88094157
