data/chkbox_models/chkbox_rnd7_4_bestVal.pt (torch_old, 236310 bytes, 31 tensors)

layer1.0.weight f4 [4, 1, 3, 3]
000000 a2 55 a9 3d 99 74 92 be 5e a2 94 bd 48 17 af 3d
       0.08268286 -0.28604582 -0.072575316 0.085493624
000010 35 03 1c be ed 3c c0 bd 8b 88 6d 3e a8 0e 55 be
       -0.15235598 -0.09386621 0.23196618 -0.20806372
000020 65 b4 1f be 10 a4 99 be 61 90 8b be 5c 64 13 be
       -0.15596159 -0.30007982 -0.2725859 -0.14393753
000030 fc c2 9d 3e 29 6a 10 be f8 5a 45 3e fe 19 43 3e
       0.30812824 -0.14102997 0.19272983 0.19052884
000040 be 50 00 be 2b 63 9b 3e 6a d8 a8 3d 84 66 31 3e
       -0.125308 0.30349097 0.08244403 0.17324263
000050 25 d3 91 3e 7d e3 0d 3e 5d e3 88 be 3d c4 92 3e
       0.28481403 0.13856311 -0.26735964 0.28665343
000060 b0 c8 54 3e 35 6f 4d be dd ff 20 3d 09 24 b3 bd
       0.20779681 -0.20061953 0.03930651 -0.087471075
000070 70 fd 82 be e3 cc 93 bc 7a 5b 89 3e af 48 1a 3d
       -0.25583982 -0.018042034 0.26827604 0.037666973
000080 ba 06 50 3d b6 24 d8 bd ed 8f b0 3e 7d 1b 43 3e
       0.050787665 -0.10553877 0.34484807 0.19053455

layer1.0.bias f4 [4]
000000 0a cf 5d be 51 9f d5 3c 8b 4f 11 be 14 49 8e 3d
       -0.2166101 0.026076945 -0.141905 0.06947532

layer1.1.weight f4 [4]
000000 52 fc 7d 3f d3 42 80 3f 69 2b 7f 3f 63 b0 80 3f
       0.99213135 1.0020393 0.99675614 1.0053829

layer1.1.bias f4 [4]
000000 92 7b aa bb a4 64 c0 3b e2 dc b9 bb 3a 68 57 bc
       -0.005202719 0.0058713723 -0.0056720832 -0.013147408

layer1.1.running_mean f4 [4]
000000 e0 93 10 bf c6 e8 03 3d 83 c5 9d 3e 2a 03 a8 3e
       -0.5647564 0.032204412 0.30814752 0.32814914

layer1.1.running_var f4 [4]
000000 a1 30 ba 3e b2 45 f3 3d 7c 84 00 3f cf 62 71 3e
       0.36365226 0.11878528 0.50202155 0.23572849

layer2.0.weight f4 [8, 4, 3, 3]
000000 99 4f e8 3d 61 30 57 bd 54 26 76 3d d1 b5 00 be
       0.11343307 -0.052536372 0.060095146 -0.12569357
000010 08 95 1d 3e cc 58 f6 bd 6e bf 06 3a 21 87 01 bc
       0.15388882 -0.120286554 0.00051402196 -0.007905752
000020 d1 9e 20 be d5 4a d5 bd b3 31 1d 3d 70 1e fa bd
       -0.15685584 -0.10414664 0.038377475 -0.12212837
000030 8b 4a 65 3d bb cd a4 3d dc b6 0f bd 69 5a 06 3e
       0.055979293 0.080470525 -0.035086498 0.13120426
000040 5f 7e 86 3d 2f 4f 00 3e 37 41 06 3c 54 a8 be 3d
       0.06567072 0.12530206 0.008194259 0.0930945
000050 b1 cb c8 3d ad 91 87 3b d3 3d 98 3d 52 9d 84 bc
       0.09804476 0.004137239 0.07433667 -0.016188297
000060 cd f4 e9 3c c8 62 8a bd 4b 04 bd bd f3 53 16 3d
       0.028559113 -0.06757122 -0.092293344 0.036701154
000070 c0 57 c1 3c 6c 36 2a 3e 42 79 f7 3d 34 68 b6 3d
       0.023601413 0.16622323 0.12083675 0.08906594
000080 a8 4d 0e 3e 66 51 ff 3d 6d a4 4e 3c 6f a2 a4 bd
       0.13896811 0.124666974 0.012612444 -0.08038794
000090 f9 97 a3 3d 10 4e 14 be bd 03 09 be c6 dc 4c 3c
       0.07987971 -0.14482903 -0.13380332 0.012503808
0000a0 16 6a ff bd 76 64 cc bd 01 3c 0d 3e b7 e1 00 3e
       -0.12471406 -0.09980099 0.13792421 0.12586103
0000b0 0e 43 12 3d ef a7 8c bc f3 54 d5 bd ac 69 f2 3d
       0.03570848 -0.01716992 -0.104165934 0.118365616
0000c0 fc f0 19 be 8e 71 b8 3d 6e 4a cb bd 8f 90 15 3e
       -0.15033334 0.09006034 -0.09926306 0.14605926
0000d0 40 0b 4f 3b 8f a0 34 3d 14 35 1b 3d 8b 22 a4 3b
       0.00315924 0.044098433 0.037892416 0.0050090007
0000e0 ef 45 85 bc c3 69 3d be 9a 30 6f bb 42 0d 93 bd
       -0.016268698 -0.18497376 -0.0036497475 -0.07180263
0000f0 29 14 7b bb fa 2c 31 be 26 ee 83 3d cb b8 87 bd
       -0.0038311577 -0.17302313 0.064419076 -0.06627043
000100 01 38 0b 3e ca 99 25 bd 2e 08 26 be 48 31 b8 bd
       0.13595583 -0.040429868 -0.16214058 -0.08993775
000110 02 2f 2f 3d c4 ec 83 bd cf da 31 bd 5b b6 27 be
       0.04276944 -0.06441644 -0.043421563 -0.16378157
000120 da 0b f3 3d c5 ec 64 bd 1e b1 c2 bd 4e ab eb 3d
       0.11867495 -0.055889864 -0.09506439 0.11507283
000130 37 c0 b8 bd ee 25 a5 3d 6b 0e ce 3d 00 fc 02 be
       -0.09021037 0.08063875 0.10061344 -0.12791443
000140 af b1 3e bd 8b 2e 9c 3c 2e ed e3 3d 7e 62 e5 bc
       -0.04655617 0.019065162 0.11129223 -0.028001066
000150 54 b7 e9 3c 9c ed e1 3d d4 bf f9 bd dd e0 c0 bd
       0.0285298 0.110316485 -0.121947914 -0.09417889
000160 ec 9e 28 be fa e0 fa bd 49 62 90 3d 27 51 f3 3d
       -0.16466874 -0.12249942 0.070499964 0.11880713
000170 58 b7 71 3d 59 80 01 3e ba e7 06 3e ec 58 26 3e
       0.05901274 0.12646617 0.13174334 0.16244859
000180 2b fd 34 3d f3 60 d3 3d 6e 95 f4 3d 03 1a 19 be
       0.044186752 0.10321226 0.11942564 -0.14951329
000190 50 c9 96 bd 6e 2b 65 3c a4 58 80 bd 08 10 15 be
       -0.07362616 0.013987405 -0.06266907 -0.14556897
0001a0 99 aa ad 3d 7a ee b4 bd 13 5d 7e bd 78 8b 00 3e
       0.084798045 -0.08834548 -0.06210048 0.12553203
0001b0 cf cc bc 39 ae 4c a8 3d f5 b3 90 bd 6e be b3 3c
       0.0003601075 0.082177505 -0.07065574 0.02194139
0001c0 83 7c ec bc 28 83 25 3d f2 a6 bd 3d 8e 24 f0 3c
       -0.028867966 0.040408283 0.09260358 0.029314306
0001d0 39 50 61 bd 68 4f df bc cf b4 df 3c 0d 08 1a 3e
       -0.055008147 -0.027259544 0.027307896 0.15042134
0001e0 0a d9 83 bd 33 1a 95 bd 73 8a 10 be 48 87 6f bd
       -0.06437881 -0.07280388 -0.14115314 -0.058478624
0001f0 48 6d 58 3d 62 f5 45 39 57 86 2b be 77 63 3e 3d
       0.052838594 0.00018878796 -0.16750465 0.046481576
000200 72 b7 b8 3d e5 97 a0 bd d3 e5 d1 3d 6e e8 8a bd
       0.090193644 -0.078414716 0.102489136 -0.06782614
000210 b5 91 a6 bd 71 0f ff 3c 49 ab 2e be ec b7 c9 bd
       -0.0813326 0.031135293 -0.17057528 -0.098495334
000220 1b a8 32 bd 5e 12 a2 3c 17 a1 d3 bc 7f 81 db bd
       -0.04361735 0.019784149 -0.02583365 -0.10718059
000230 e4 f8 f2 3d c6 15 bf 3c 59 06 ca bd bd bd 1d be
       0.11863878 0.023325812 -0.09864492 -0.1540441
000240 ec 20 86 bd a9 cb e4 bc 62 9c 2a ba a5 e2 04 3e
       -0.06549248 -0.027929144 -0.0006508288 0.12977083
000250 ba 20 ef bd 56 02 1f be 9f 62 14 be a6 5e b8 bc
       -0.11676164 -0.15528235 -0.14490746 -0.02250607
000260 d5 18 2b 3d 12 0f 50 3d 51 bf a4 3c 82 dd b1 bd
       0.04177173 0.050795622 0.020110758 -0.086848274
000270 61 8d 0e be 9c 49 55 3c b5 e6 1a 3e 0a 86 fa bc
       -0.1392112 0.013018038 0.1512707 -0.030581493
000280 fe 84 0d 3e c2 56 0e 3e 60 d3 38 bd a4 d6 08 3e
       0.13820264 0.13900283 -0.045123458 0.13363129
000290 5f 19 c0 bd ac 10 1c bd fc c2 5d bd ee eb e0 bd
       -0.09379839 -0.038101837 -0.05414103 -0.109825
0002a0 94 ba c0 3d 80 fa 3d bd 78 6a 39 bd a3 0a 29 3e
       0.09410587 -0.046381474 -0.045267552 0.16507964
0002b0 da f9 8a bd 52 c1 6d bd 76 a3 ae 3d 2d ce 01 3e
       -0.06785937 -0.058045693 0.085272714 0.12676306
0002c0 68 60 fc bd f7 6d 85 bb 1f 62 de bd 18 04 2d 3e
       -0.123230755 -0.0040719467 -0.10858559 0.16896093
0002d0 3e b0 e2 bd c8 15 1b 3e 85 3a 40 bc 61 43 ae bc
       -0.11068772 0.15145028 -0.011732702 -0.021272363
0002e0 25 7f eb bd 0b 81 92 3d ac 87 bb 3c 1c 4d 24 3d
       -0.1149886 0.07153519 0.022891842 0.0401126
0002f0 25 df ec bd 09 2f d8 bd 1f 05 00 3e 72 5a 04 3e
       -0.11565999 -0.10555846 0.12501954 0.12925127
000300 14 31 29 bc 7c d7 6c 3d 5d 64 2e 3d b0 49 23 be
       -0.010326643 0.05782269 0.042576183 -0.15946078
000310 73 a4 b6 3d 10 2a 2d be e0 7a b0 bd 0f a1 85 3b
       0.08918085 -0.16910577 -0.086171865 0.0040780376
000320 19 42 0f be 33 da ac 3c 2f 60 46 bd c5 14 16 be
       -0.13990058 0.02110014 -0.04843157 -0.1465636
000330 98 ca 99 3d c0 48 07 3e 6e c9 20 3c 28 3b 18 3e
       0.07509345 0.13211346 0.00981365 0.14866316
000340 18 a1 6d 3c ee a2 19 3e e1 6d 6c bb 3a d6 16 be
       0.01450374 0.15003559 -0.0036076235 -0.14730158
000350 57 54 9f bd 2b 47 33 3e 6d 13 0b be 88 ed f8 bd
       -0.077797584 0.17507617 -0.13581629 -0.121546805
000360 dc 23 1b 3e 82 98 34 be f3 c2 e8 bd 6f 42 04 be
       0.15150398 -0.17636302 -0.113653086 -0.12915967
000370 a1 3a a7 3d 76 86 1d 3e 71 16 87 bb 0b 49 0f be
       0.081654795 0.15383324 -0.0041225483 -0.13992707
000380 57 7b ac 3c d3 90 2d 3e d4 b7 36 bd 83 e0 66 bd
       0.021054907 0.16949777 -0.044608906 -0.056366455
000390 63 9f ba 3d 93 1d de bc 83 3c c0 3d 5e d4 36 3e
       0.09112432 -0.027113711 0.09386542 0.17854449
0003a0 a5 54 13 3e 8c 25 a7 bd 67 4f b9 bd 84 2e 58 bd
       0.14387758 -0.081614584 -0.09048348 -0.052778736
0003b0 8a e6 97 3d 2c 97 2e be 7d e7 ca 3d 16 6c d0 3d
       0.07417019 -0.17049855 0.09907434 0.10176866
0003c0 c1 35 da 3d a2 cf e2 bd 52 11 74 3c 09 2f 06 be
       0.10654784 -0.11074759 0.014896708 -0.1310388
0003d0 49 e4 17 be 71 e8 af bd 00 62 b3 bd a1 42 5b bd
       -0.14833178 -0.085892566 -0.087589264 -0.05353034
0003e0 5e 8b a2 3d e2 f5 1e 3e c6 13 05 3e 95 d2 ec 3d
       0.079367384 0.15523484 0.12995824 0.11563603
0003f0 e8 2d 2b 3e 32 44 33 3d eb 00 02 3e 51 b5 2c bd
       0.1671673 0.043766208 0.12695663 -0.042165104

layer2.0.bias f4 [8]
000000 5b 89 22 3e 0f 9b 17 be 05 b8 c5 3d d4 97 b9 bd
       0.1587271 -0.14805244 0.096542396 -0.09062162
000010 b8 b2 f4 3d 0c ba c7 3d 4e 10 03 3e 4c c2 23 be
       0.119481504 0.097522825 0.12799188 -0.15992087

layer2.1.weight f4 [8]
000000 51 62 7f 3f 09 04 80 3f 6a d5 80 3f 53 db 80 3f
       0.99759394 1.0001231 1.0065129 1.0066932
000010 44 ae 82 3f bd fb 7f 3f d5 1b 80 3f cb aa 7a 3f
       1.0209432 0.999935 1.0008494 0.9791686

layer2.1.bias f4 [8]
000000 7d a7 ce 3b 9c 5f d0 3c 8b 5e 28 3c cf b3 ca 3c
       0.0063065873 0.025436215 0.010276447 0.024743943
000010 c2 94 d3 3b 22 d0 44 3c cf f3 d8 bb 8c 93 46 bc
       0.0064569423 0.012012513 -0.006620861 -0.012120139

layer2.1.running_mean f4 [8]
000000 72 e8 e9 3e 26 4e f9 be aa 59 82 3e 50 00 ad be
       0.45685154 -0.48692435 0.25459033 -0.337893
000010 97 e9 38 3d 9c 11 db 3b 76 73 32 3e 82 76 60 3d
       0.045144644 0.006685449 0.17426857 0.054800518

layer2.1.running_var f4 [8]
000000 45 16 bc 3e 4a 31 b6 3e 9e 74 b2 3e 26 57 a1 3e
       0.3673574 0.3558448 0.34854597 0.315118
000010 76 df ff 3d 96 88 06 3e 09 2f 81 3e a1 3d 95 3d
       0.12493794 0.13138041 0.25231197 0.072871454

layer3.0.weight f4 [16, 8, 3, 3]
000000 b9 e0 9d bd 5f 80 ac 3d b9 bc 01 bd 0b 47 b6 bd
       -0.07708878 0.08422922 -0.03167412 -0.08900269
000010 15 59 a4 3d 2d d8 6e bd ff 97 99 3d 49 e0 28 bd
       0.080248035 -0.05831163 0.07499694 -0.04122952
000020 de 4d 87 3d a3 ff bb bd 7e 37 aa bd 59 95 fe bd
       0.06606649 -0.09179618 -0.083113655 -0.124308296
000030 c3 e7 b0 3d 46 03 52 bb b9 0f b4 bd 22 ef 31 bd
       0.08637955 -0.0032045408 -0.08792061 -0.043440945
000040 1d 4b b5 b9 15 db 05 3c e2 8d 80 bd 39 ac ba bd
       -0.00034578974 0.008169909 -0.06277062 -0.0911488
000050 ad d4 af bc e7 4d 2d 3d 06 73 a8 bd 46 9c 1c 3c
       -0.021463716 0.04231062 -0.08225064 0.009558743
000060 8d c0 db 3d f1 2e 3a 3d 89 b8 5b 3d 14 fe dc 3c
       0.107300855 0.045454923 0.053642783 0.026976623
000070 9b 0e bf bd d3 42 2d 3d 66 76 c3 3d fb 04 66 3d
       -0.09328958 0.042300057 0.09544067 0.056157093
000080 9f a8 96 3d 96 2b 63 bc 32 86 9f 3d ef 90 94 bd
       0.07356381 -0.013865372 0.077892676 -0.072542064
000090 80 42 e6 3d 53 d7 3f 3d ec 78 d0 3d 07 fb d0 3d
       0.112431526 0.04683621 0.10179314 0.1020413
0000a0 e8 3d 3b bd 85 d4 5a bd 5e 12 59 3d 35 08 17 bd
       -0.045713335 -0.05342533 0.052996032 -0.03687306
0000b0 00 b4 a8 bd c9 9e 09 be 83 b0 cc bc 96 55 83 3d
       -0.08237457 -0.13439478 -0.024986511 0.064128086
0000c0 53 41 04 be 48 f8 9b bd d6 e1 9e bd c7 5e bf 3c
       -0.12915544 -0.07615715 -0.077579185 0.023360623
0000d0 f2 df eb bd dd 2c ff bd af f6 d8 bd 06 d9 56 3d
       -0.115173236 -0.12459729 -0.10593926 0.052453063
0000e0 7b f2 3a 3d f5 f7 29 bd 81 78 d0 3d 3f cf 47 bd
       0.045641404 -0.041496236 0.10179234 -0.04878163
0000f0 e5 cf 2d bd cb 12 8e 3d 7b 74 b6 bd 32 a1 d4 bd
       -0.04243459 0.06937178 -0.08908936 -0.10382308
000100 b1 80 b0 bd 98 95 e1 bd 54 48 b0 3d db 19 0b bd
       -0.08618296 -0.11014861 0.086075455 -0.033960205
000110 d1 f8 c1 3d 2f aa 78 bd 01 23 98 3d f1 3e 93 bd
       0.09471286 -0.060709175 0.074285515 -0.071897395
000120 6d 21 85 bc 33 40 ae bd eb ef bb 3d 2d 69 6c 3b
       -0.01625129 -0.08508339 0.0917662 0.0036073432
000130 c0 51 e1 bd e3 f8 46 3d c6 e3 a4 3d 67 16 59 3d
       -0.11001921 0.0485772 0.08051257 0.05299988
000140 62 45 be 3d 72 54 0d 3d 0b fb 65 3d 0a 79 ed bd
       0.092905775 0.03450436 0.056147616 -0.11595352
000150 09 18 98 bd c6 79 9d 3d c0 77 a6 3d 69 ba 56 bd
       -0.07426459 0.07689242 0.08128309 -0.05242387
000160 4e 1b 22 3d eb 8c 30 bd c4 66 8a 3d 63 90 e4 3d
       0.03957682 -0.04310314 0.06757882 0.11160352
000170 45 0d a8 3b fe 4c e6 bd 6d 35 2a 3d c0 b8 44 3d
       0.005128535 -0.11245154 0.041554857 0.048027754
000180 61 6e 93 3c 0b 48 8e 3d 1a d6 e1 3d 7b 93 f8 bb
       0.017996969 0.06947335 0.11027165 -0.0075859404
000190 41 3b 14 3a aa 54 c2 bd 44 49 aa 3d eb 18 9f bd
       0.00056545815 -0.09488805 0.083147556 -0.077684246
0001a0 55 38 c0 bd 8b 07 59 3d e5 d7 68 3d 0f ef 2e bd
       -0.093857445 0.05298571 0.056846518 -0.042708453
0001b0 e9 a8 32 bd 77 e2 5a 3d 80 f8 64 bc c4 f3 9d 3c
       -0.043618117 0.05343863 -0.013975263 0.019281276
0001c0 1b c8 0d 3d 68 38 a7 bc ce 07 30 3d 40 d0 5f 3c
       0.034614664 -0.020412639 0.042976193 0.0136604905
0001d0 47 99 a3 3d c4 e4 50 bc b3 9c 1a bd 79 48 a9 3d
       0.0798822 -0.0127498545 -0.037747096 0.08265776
0001e0 a8 cf 85 3d 18 5d 90 3d 13 66 ec bc 9c 62 ab 3d
       0.06533748 0.07049006 -0.028857267 0.083684176
0001f0 eb 61 9e bd b2 8c 3f bd e3 2a 44 bd b4 56 d8 3d
       -0.0773352 -0.046765037 -0.047892462 0.10563412
000200 f5 e2 c3 3d 06 47 5b bb c9 f2 bc bd 91 74 21 bc
       0.09564773 -0.0033459081 -0.09225995 -0.009854452
000210 8e 08 81 3d 50 00 ac 3d ae a5 0b bd f4 59 75 bd
       0.0630046 0.08398497 -0.03409355 -0.05990024
000220 21 91 30 3d 57 05 5a 3c 23 79 7a bd b2 1b c2 3d
       0.043107156 0.013306937 -0.06115068 0.09477939
000230 aa 4e ca 3b a6 f5 8b bd d3 57 a8 bd 9f 27 93 3c
       0.0061739283 -0.06833963 -0.08219876 0.017963229
000240 16 68 fc 3c 65 d0 d0 3d 59 50 9f 3c 33 79 b0 3c
       0.03081135 0.10195998 0.019447492 0.021542167
000250 75 4e c1 bd b9 fc 12 bd 88 db 1c 3b c0 6e 79 bd
       -0.094387926 -0.035885546 0.0023934562 -0.060896635
000260 be 76 3d bb 9d 41 eb bc bb 81 e4 3a b0 f6 9e 3d
       -0.0028909887 -0.02871781 0.0017433682 0.07761896
000270 24 bd af bb 11 ea 0c bd ff 5f 89 3d d3 61 a0 3d
       -0.0053631235 -0.03440291 0.06707763 0.078311585
000280 50 b6 43 3b f1 3e b7 bd a5 2d ae 3d 72 a9 28 bd
       0.0029863305 -0.08947552 0.085048 -0.04117722
000290 e7 8e 2b 39 5d c9 bf 3d b1 d9 d5 bb 12 7b 5f 3c
       0.00016361066 0.09364579 -0.006526195 0.013640182
0002a0 48 6a 18 bd db 12 c2 3c 54 38 ea bd 55 55 22 3d
       -0.037210733 0.023690632 -0.11436525 0.03963216
0002b0 fc 67 16 3d b2 e4 b3 bc e5 42 2f 3d 86 81 5a bd
       0.03672026 -0.021959636 0.042788405 -0.05334618
0002c0 d4 85 c5 bc 8c 30 f0 3d 57 47 da 3d a0 20 ea 3d
       -0.024111666 0.117280096 0.10658138 0.11432004
0002d0 1a 75 cd 3c 9e 3f 28 3d dd 7b 45 3b 6c 9f 4d 3d
       0.025080252 0.041076295 0.0030133643 0.050200865
0002e0 55 5f f9 bd a2 3e 45 bd a3 a4 ac bd 8d 9e 1e 3c
       -0.12176386 -0.048155434 -0.084298395 0.009681356
0002f0 77 de c9 3d f8 46 a5 bc 88 c6 04 3e fe 89 33 bd
       0.09856885 -0.020175442 0.12966359 -0.04383277
000300 8d 1d 39 3d 99 91 ed 3d 0b f0 fb 3d 81 65 a0 3d
       0.045194197 0.11600036 0.12301644 0.0783186
000310 d8 a0 a2 3b 60 c1 5f bd 51 a6 8e 3d 5b b5 ad 3c
       0.0049630217 -0.054627776 0.06965316 0.021204641
000320 a5 69 00 3d a1 61 ae bc 13 6f 5f bc 44 94 00 bd
       0.03135075 -0.021286787 -0.013637322 -0.031391397
000330 af a2 3d bc cd 35 b7 bd e5 c7 fd 3d d0 34 f3 3b
       -0.011574431 -0.089458086 0.123916425 0.007422067
000340 96 24 bf bd b5 a8 fb 3c 47 69 03 3d b5 dc c3 bd
       -0.0933315 0.030720094 0.032082822 -0.09563581
000350 d8 77 ae 3d 08 fb 94 3c 65 e3 9a 3c d3 88 b6 3d
       0.08518952 0.018186107 0.018907258 0.08912816
000360 36 fa 8a bd c1 41 bf bd 95 8b 40 bd 86 2d 40 bd
       -0.06786005 -0.093387134 -0.047008116 -0.046918415
000370 0d 19 33 3d 89 96 8c bd 27 66 7c 3c b0 f2 bc bd
       0.043725062 -0.0686465 0.015405214 -0.092259765
000380 ef 83 af bd 04 40 7f bd 15 87 c6 3c fb 16 c1 3d
       -0.08570086 -0.06231691 0.024234334 0.09428211
000390 bd df db bd 1f 41 c2 3d 85 08 d2 bd f7 d0 54 bd
       -0.10736034 0.09485077 -0.10255531 -0.051957097
0003a0 ab 60 6b 3b b7 5d da bd f5 57 30 bc 51 23 7a 3d
       0.0035915773 -0.10662406 -0.010763158 0.061068837
0003b0 46 12 ac 3d 9e ac 56 3d d4 9f b5 bd 87 80 b0 bd
       0.08401923 0.052410714 -0.088683754 -0.08618265
0003c0 52 93 74 3d 98 ed a5 bd 2f 28 b9 3d bc 8b 02 3d
       0.059710808 -0.08101958 0.090408675 0.031871542
0003d0 68 c4 1b 3d 04 a8 8a bd 8d 4f 93 bc 02 1e 0a bd
       0.038029104 -0.06770328 -0.017982269 -0.033720024
0003e0 19 b0 bb bd b1 1e 4a bb 60 68 f3 3c 3f cc ac bd
       -0.09164447 -0.0030841047 0.029712856 -0.08437394
0003f0 92 20 c3 bd f9 27 a5 bd 4d dd ba 3d 7f e2 19 3d
       -0.09527697 -0.08064265 0.09124241 0.03756952

layer3.0.bias f4 [16]
000000 33 07 00 3d 81 af e3 3c 77 68 a0 3d 6a f6 87 bc
       0.031256866 0.027793648 0.07832425 -0.016596992
000010 81 91 f7 3a a3 ba c5 bd 6e ae 12 3c f6 5a aa bd
       0.0018887968 -0.09654739 0.00895272 -0.08318131
000020 2c 28 59 3c f1 a3 65 3d f5 bf 75 3b c7 8a e6 3d
       0.013254207 0.05606455 0.0037498449 0.112569384
000030 bb b7 d8 bd 38 fe e1 bc 40 a4 95 bc bf 29 14 3d
       -0.10581919 -0.027587041 -0.018266797 0.036172625

layer3.1.weight f4 [16]
000000 4d 96 80 3f 11 96 7c 3f 96 39 81 3f c1 49 80 3f
       1.0045868 0.98666483 1.0095699 1.0022508
000010 3a cf 80 3f bd b9 7d 3f 3d 7e 80 3f ae db 81 3f
       1.006324 0.9911154 1.0038525 1.0145166
000020 48 7b 7d 3f 5e 6e 80 3f 4e 2f 80 3f 74 a6 81 3f
       0.9901624 1.0033681 1.0014436 1.0128922
000030 55 3a 7b 3f fa 74 7d 3f 5c 3b 83 3f d1 03 80 3f
       0.9813588 0.9900662 1.025249 1.0001165

layer3.1.bias f4 [16]
000000 64 60 d4 bb ea 17 04 3b 95 ae 2d bb ab 1b b1 3b
       -0.006481217 0.0020155855 -0.0026501764 0.0054049096
000010 71 b9 d1 bb 6b e4 60 bc be 8c e8 bb 8e 5c 74 3b
       -0.00640028 -0.013726334 -0.007096856 0.0037286612
000020 99 db 92 bc 4f cf 58 38 7d ad 6b bc 3f ce 46 bc
       -0.017926978 5.1691484e-05 -0.014384625 -0.012134134
000030 a4 48 5c bc 2e 32 35 bc df 75 5a bb a5 ed 83 bc
       -0.013445053 -0.011059327 -0.0033334417 -0.016104529

layer3.1.running_mean f4 [16]
000000 25 d1 54 be d5 f7 84 3e d8 31 c7 3e d6 10 89 bd
       -0.20782907 0.2597033 0.38905215 -0.06692664
000010 ae 02 dd be 7a 9e 50 bd b9 1e f0 be 76 23 a9 bd
       -0.43166107 -0.050932385 -0.4689844 -0.08258717
000020 e0 3d b6 bd 99 f7 0a be 91 37 76 be 17 d4 4b be
       -0.088985205 -0.13571014 -0.24044634 -0.19905125
000030 e8 dd e8 bd 6b cc c5 bd b5 74 26 be 6a f0 37 be
       -0.1137045 -0.0965813 -0.16255458 -0.17962804

layer3.1.running_var f4 [16]
000000 e2 1a 87 3d a2 f7 66 3e 06 44 bd 3d 76 c0 eb 3d
       0.06596924 0.22555402 0.0924149 0.115113184
000010 77 a3 da 3d a6 a6 b3 3d 55 6f a4 3d db 0d 56 3e
       0.1067571 0.0877202 0.080290474 0.20903723
000020 2c 22 55 3d a5 53 32 3e aa 70 8e 3e 82 58 d7 3d
       0.052034542 0.1741472 0.2782033 0.105149284
000030 74 9a 25 3e 31 24 8b 3d 0e 66 29 3e bd de 86 3e
       0.161722 0.06794012 0.16542837 0.2634181

layer4.0.weight f4 [64, 16, 3, 3]
000000 11 80 e1 bc ca 66 42 3d 0c 3d 89 bd 64 6d 32 bd
       -0.027526887 0.04746131 -0.06701097 -0.043561354
000010 0e 37 84 bd 92 55 7b bd a7 67 9a bc 08 65 b6 bc
       -0.06455813 -0.061360903 -0.018848253 -0.022264972
000020 b5 95 fd bc 80 80 07 3d 4e 07 91 3d b2 0a 22 bc
       -0.030955175 0.03308153 0.070814714 -0.009890245
000030 11 03 4b bd 54 7b 74 3c 04 5f 9e bd f3 8b 5a 3d
       -0.04956347 0.014921982 -0.077329665 0.053356122
000040 cf 86 d4 bb 78 f1 35 3d 1f 9d 22 bd 2a 54 b1 3c
       -0.006485797 0.044419736 -0.039700624 0.021646578
000050 29 70 0d bd ef 60 8c bd 09 84 35 bd fe 40 94 3d
       -0.034530792 -0.06854426 -0.04431537 0.07238959
000060 2c f9 32 bd 4c 31 34 3d 89 a3 38 3d 13 c0 2d bd
       -0.04369466 0.043992326 0.045077834 -0.042419504
000070 b6 d2 b5 bc 04 0b 4a bd 2a b7 11 3d 05 22 18 3d
       -0.022195201 -0.04932691 0.03557507 0.03714182
000080 b5 ee 1f 3d 3a cd 58 bd 30 89 2b bd 89 89 78 3d
       0.03904601 -0.052930094 -0.04187888 0.06067804
000090 ef 11 9d 3d 88 7b 08 bd 1d d1 81 3d cc 43 af bb
       0.07669436 -0.033320934 0.06338713 -0.005348658
0000a0 d4 7d 08 3c 65 0d 0f 3d 4d e0 0d bd d3 5f f7 bc
       0.008330781 0.034924883 -0.034637738 -0.03019706
0000b0 03 38 42 3d 21 be ee bb 15 be 7a 3d 9c c6 63 bd
       0.0474167 -0.0072858487 0.061216433 -0.05560933
0000c0 38 13 08 bc a7 ed fd bb c1 39 cd bc ba a6 93 3c
       -0.008305363 -0.0077492776 -0.025051953 0.018023837
0000d0 00 21 8d 3b e8 75 c0 3c 5e 1f 97 bc bd 13 8b 3d
       0.0043069124 0.023493722 -0.018447574 0.06790874
0000e0 38 d2 de bc c4 76 31 bc 92 21 ae 3d 24 71 a3 3d
       -0.02719985 -0.010831539 0.08502497 0.07980564
0000f0 d0 73 18 bd eb b2 9c 3d c6 30 0e bc 94 a6 ae 3b
       -0.037219822 0.076513134 -0.008678621 0.0053299163
000100 8b 0c 3a 3d ff 1f a6 bc d1 1f f1 bc 6d 8f 2b bd
       0.04542212 -0.020278929 -0.029434117 -0.04188483
000110 a6 91 94 bc cd 2d 37 3d e8 38 bb 3c be ef d2 3c
       -0.018135857 0.044721413 0.022854283 0.025749084
000120 26 c1 ab 3d 1f 91 e9 bb 6a dd 26 3d b9 3a db bb
       0.083864495 -0.0071278955 0.0407385 -0.00669035
000130 d1 fd 5a 3d f4 f9 a1 3c 21 dc c4 3c 24 3c af bc
       0.053464714 0.019772507 0.024030747 -0.021390982
000140 2a 17 e0 3a 55 7c a7 3c 33 a3 63 bd c3 49 fe bc
       0.0017096747 0.020445028 -0.05557556 -0.031041032
000150 89 a4 5b bd 6c 5d 80 3d 40 a8 9c bd 58 cc 50 bd
       -0.05362371 0.06267819 -0.07649279 -0.050976127
000160 66 88 55 3c 9e 54 02 3d 38 86 8b bd d9 12 39 bc
       0.013033008 0.03181898 -0.068127096 -0.011295998
000170 63 a2 7a bb c4 ec 39 3c d9 88 66 bd dc c0 63 bd
       -0.0038243763 0.011347953 -0.05628285 -0.055603847
000180 ae ec 83 3c 04 5e 50 bb 0e f3 8b bb dd c2 5c bd
       0.016104069 -0.003179432 -0.0042709177 -0.053896774
000190 c7 2c 18 3d bc eb 03 bd cb 7a 9b bc 39 5a 16 3d
       0.037152078 -0.032207236 -0.01897945 0.036707137
0001a0 b1 a7 f9 3c 4a db 5c bd 95 c9 d5 bc 8a c9 19 3d
       0.03047547 -0.053920068 -0.026097098 0.03754572
0001b0 75 9e 44 3d b4 64 27 3d 71 9b 50 bc 2f 6b 81 3d
       0.04800268 0.040867522 -0.012732373 0.06319272
0001c0 f0 c3 e0 3c 56 a4 5c bc 85 58 8b bd 29 47 66 b9
       0.02743718 -0.013466915 -0.06803993 -0.00021961019
0001d0 9d fa 11 bd ca cd 9c bc 09 ed 1f bd b5 7a 9f bd
       -0.035639394 -0.019141097 -0.039044414 -0.077870764
0001e0 66 d3 6f 3c 36 2e 6b 3d db 6e 57 3d eb 8b 6d bc
       0.014637804 0.057417117 0.052595954 -0.014498691
0001f0 28 ff 31 bd 7f 1c 65 bc 01 0e 3d 3d 58 e9 9c 3d
       -0.043456227 -0.013983845 0.046155933 0.07661694
000200 e9 a7 8f 3d 8d c7 8a 3d bb d2 1d 3b 34 8a c2 3c
       0.07014448 0.067763425 0.0024081904 0.023747541
000210 9f 59 87 3d 93 4d 65 bd 04 5a 17 3d d9 0e ec bb
       0.06608891 -0.055982184 0.03695108 -0.0072039184
000220 4f 4c 06 bd 4d 30 1f bd e1 89 d4 bc 39 c3 17 bd
       -0.032787617 -0.038864423 -0.025944652 -0.037051413
000230 bc 05 0c 3b 57 80 96 3d 35 3e 41 bd 19 bc f9 3c
       0.0021365723 0.07348698 -0.047178466 0.0304852
000240 67 ae 05 3c 50 20 7f 3d 65 02 8c 3d 48 50 6a bd
       0.008159257 0.062286675 0.06836394 -0.05720547
000250 f5 26 98 bd 15 88 8a bd eb 5a 31 3d 9c 13 a1 bd
       -0.074293055 -0.06764237 0.043299597 -0.07865068
000260 75 b3 84 3b 9c cb a4 3d c0 f1 ac bc 86 f6 8d 3d
       0.0040497133 0.08046648 -0.02111137 0.06931786
000270 8f ba da 3c 3e ab 88 bd 28 5b dd bc 73 05 d7 3c
       0.026700286 -0.06673287 -0.027021006 0.026247716
000280 07 63 0c 3d ec 22 22 3d d3 43 b3 bb 5a a5 b0 3c
       0.034274127 0.039584085 -0.0054707318 0.02156322
000290 f2 bc 07 3d 63 bc 83 3d a0 e9 a6 bd c6 ec 03 3d
       0.033139177 0.06432416 -0.08150029 0.032208227
0002a0 b5 82 7c bd bb d7 3a bd 15 4c e7 bc 00 6c 0f bd
       -0.06164809 -0.045615893 -0.02823452 -0.035015106
0002b0 48 aa 5d bd 87 81 7f bd e0 b8 72 3d 38 01 74 3d
       -0.05411747 -0.062379386 0.05925834 0.059571475
0002c0 45 1d 7a bd 10 a6 ac bd 13 1f be bc 86 86 92 3d
       -0.06106307 -0.084301114 -0.023208177 0.071545646
0002d0 22 46 1f bd d8 9f 99 3c 60 17 a8 3c 15 5d b1 bc
       -0.038885243 0.018752977 0.020518959 -0.02165083
0002e0 b8 b8 98 bd 8c 86 0f bd d6 42 f4 bb de 4b 6b 3a
       -0.07457107 -0.035040423 -0.0074542565 0.00089758437
0002f0 27 ff a5 3d e0 ef 0f bd 8f b0 30 bd ae 2a 4a 3d
       0.08105307 -0.035140872 -0.04313713 0.04935711
000300 2b b8 fa 3b e0 f4 48 3d fd be 8b 3d e4 ad e2 3b
       0.007651349 0.049061656 0.068235375 0.006917702
000310 63 1f 59 3c 2e 3d e5 3b 8a 6f 23 3d 7c 55 86 bd
       0.013252112 0.0069958186 0.039901294 -0.065592736
000320 59 c3 67 bc f0 84 92 bd 5a 1c a9 3d 71 8b 18 3d
       -0.014145696 -0.07154262 0.08257361 0.037242357
000330 35 64 97 bd 0f ac 37 3c 2d 7e 8d bb 70 b2 dd 3c
       -0.0739216 0.011210456 -0.00431802 0.027062625
000340 1c bc 57 3d 9d ff b8 3c d7 52 ad bd 94 22 ef bc
       0.05266963 0.022582823 -0.08463066 -0.029191293
000350 c2 1f f2 bc 2a 3e 3b bd 01 46 98 bd e6 62 6a bc
       -0.029556159 -0.04571358 -0.07435227 -0.014305806
000360 bf 35 a5 3d 10 ea 34 bd 08 76 7c 3d f4 04 c3 bc
       0.08066892 -0.044168532 0.061636 -0.023806073
000370 32 af 9c bd ef 3a 71 3d 22 4a ed bc 9e 1a 9c bd
       -0.07650603 0.058894094 -0.028966013 -0.07622264
000380 3a f9 26 3c 44 83 69 bd bc 78 e1 3b 02 a4 89 bd
       0.010191256 -0.05700995 0.0068808477 -0.06720735
000390 c1 5e 80 bd 29 8b 0f bd aa fb a9 3a 3d fa 66 3d
       -0.06268073 -0.035044823 0.0012968678 0.05639099
0003a0 3f 64 9d 3d 9c 39 88 bd a8 0e 43 3d 9b e3 75 3d
       0.07685136 -0.06651613 0.0476214 0.060031515
0003b0 76 61 10 3c b3 b8 9b 3d 31 f8 b7 3c 64 cc 81 3d
       0.008812299 0.07603588 0.022457214 0.063378125
0003c0 fc b7 8c 3b c7 fc 7e 3d af a5 37 3d 30 a8 09 3c
       0.0042943936 0.062252786 0.044835743 0.008401915
0003d0 46 48 58 bd f9 26 53 bd 0f 53 98 bd 99 23 94 bd
       -0.0528033 -0.05155084 -0.07437717 -0.07233352
0003e0 29 01 81 3d cf 5d 30 bc 78 5e 23 3d f1 32 8c bb
       0.062990494 -0.010764553 0.039885014 -0.0042785336
0003f0 c3 33 e4 bc 66 17 d7 3a d2 76 0d 3d c9 e2 e1 bc
       -0.027856713 0.0016410172 0.034537144 -0.02757396

layer4.0.bias f4 [64]
000000 4d 31 92 bd dd 3b 3a bc d2 2a 2d 3c 19 1e 95 3d
       -0.0713831 -0.011366812 0.010569291 0.07281131
000010 21 80 6e bc 6e 18 96 3d 2e ae 7e bd 26 af 5b bd
       -0.0145569155 0.07328878 -0.06217783 -0.05363383
000020 55 b2 9e bd 61 86 98 bd e1 60 db 3c fd 14 c7 bc
       -0.07748858 -0.07447506 0.026779594 -0.024302
000030 b4 da a1 3d 8d 18 06 3d 0a 35 a5 3d 18 7e c9 3c
       0.079030424 0.032738257 0.08066757 0.024596259
000040 2f aa f3 bb 0a 9c 42 3d fe b7 8f 3d 6d 68 38 bd
       -0.007436059 0.04751209 0.070175156 -0.045021463
000050 f9 1b 2f 3d 34 3e 98 bd a5 9b 38 ba 87 85 f9 bc
       0.042751286 -0.07433739 -0.0007042236 -0.030459179
000060 81 71 76 3d 12 a4 a0 3d e1 76 a1 3c e4 47 dc bc
       0.06016684 0.07843794 0.019710006 -0.026889749
000070 d8 82 ba 3c 10 ce 85 bc 1c 1a 83 bd 54 d7 a1 bd
       0.02276747 -0.01633361 -0.06401464 -0.07902399
000080 ef c8 35 bd f8 96 9a 3c d7 9a 29 bd ea 37 75 3d
       -0.04438108 0.018870816 -0.041407432 0.059867777
000090 d0 8b 21 bd 7d ad e6 bc 8b 8e 20 3d 3e 35 62 3d
       -0.039439976 -0.028158898 0.03919844 0.055226557
0000a0 33 13 ee bc 91 e3 80 3c 84 53 f3 bc 3a ff 84 3d
       -0.02906189 0.015733512 -0.02970291 0.06493993
0000b0 95 22 93 3d df 71 99 bc bb 8b 78 3d 42 3c 26 bd
       0.071843304 -0.018731056 0.060680132 -0.04058481
0000c0 f1 c6 35 bd 27 70 90 3d 08 67 98 bd 35 80 9b bd
       -0.04437918 0.07052641 -0.07441527 -0.07592813
0000d0 e8 55 a2 3d 29 a4 81 3d a5 0f 76 3d a8 a5 a9 3d
       0.079265416 0.06330139 0.060073514 0.082835495
0000e0 0a de 34 3c 7c 69 aa bd 53 00 8a bd 05 cd 8c bb
       0.011039266 -0.08320901 -0.06738343 -0.004296901
0000f0 96 8e 06 bc 80 48 e7 3c 7c 29 12 3d 61 66 79 bc
       -0.008212706 0.028232813 0.035684094 -0.015222163

layer4.1.weight f4 [64]
000000 f6 91 81 3f 64 f9 7b 3f fd 0b 7f 3f 83 56 80 3f
       1.0122669 0.98427415 0.9962767 1.0026401
000010 0d 63 7f 3f 76 ce 7f 3f e7 df 7b 3f 89 2a 80 3f
       0.99760514 0.9992441 0.9838852 1.0012981
000020 5f 1c 81 3f 2c ff 80 3f 4d a2 80 3f 70 61 7e 3f
       1.0086783 1.0077872 1.004953 0.9936743
000030 97 38 7d 3f f6 d6 80 3f d9 de 7f 3f cd af 80 3f
       0.98914474 1.0065601 0.99949414 1.005365
000040 0b 28 7e 3f 20 7a 7d 3f 01 86 7e 3f 7a 1e 80 3f
       0.9927985 0.9901447 0.99423224 1.0009301
000050 a6 aa 7e 3f df fa 81 3f e6 8a 7e 3f 0b d7 7d 3f
       0.9947914 1.0154685 0.9943069 0.99156255
000060 8e 44 81 3f cb 96 80 3f b6 78 82 3f df 5d 7d 3f
       1.0099046 1.0046018 1.0193088 0.9897136
000070 43 5c 80 3f 7a e9 80 3f b0 47 7f 3f d9 3f 80 3f
       1.0028156 1.0071251 0.9971876 1.0019485
000080 02 0d 7c 3f 0c d2 7e 3f b5 99 7e 3f 05 41 7f 3f
       0.9845735 0.99539256 0.9945329 0.99708587
000090 9f 57 81 3f 82 b9 7d 3f d3 2f 7f 3f e8 8a 81 3f
       1.0104865 0.9911119 0.9968235 1.0120516
0000a0 80 96 7f 3f 00 95 7e 3f a2 5d 81 3f 94 68 7e 3f
       0.9983902 0.99446106 1.01067 0.99378324
0000b0 61 07 7f 3f 1a c1 7c 3f 6b 46 80 3f 86 c1 7e 3f
       0.99620634 0.9873215 1.002149 0.99514043
0000c0 33 43 7e 3f 26 63 80 3f 6f 76 7f 3f a3 75 80 3f
       0.9932129 1.0030258 0.9979009 1.00359
0000d0 f8 9b 7e 3f 17 d6 7f 3f ee 82 7f 3f 25 50 80 3f
       0.9945674 0.9993605 0.9980916 1.0024458
0000e0 3d c7 80 3f d5 d9 7e 3f 67 8c 7e 3f fa 99 7e 3f
       1.0060803 0.99551135 0.99432987 0.994537
0000f0 90 08 82 3f db 75 7e 3f ee 3f 80 3f f3 0f 80 3f
       1.0158863 0.99398583 1.001951 1.0004867

layer4.1.bias f4 [64]
000000 d5 66 c8 3b 09 01 2e bc 1d 66 2c bb da b1 9b bb
       0.006115774 -0.010620364 -0.0026305981 -0.004751426
000010 8e 85 c0 ba df 28 c9 39 9b c9 6d bc 11 d9 53 3b
       -0.001468824 0.0003836816 -0.0145133985 0.0032325427
000020 f9 5a b4 3b 71 ee 57 bc b7 49 51 bb 85 a9 48 3b
       0.005504009 -0.013179407 -0.0031934807 0.003061862
000030 88 66 50 bc 15 9c 08 bb 8e fe 03 bc 95 76 dc 3b
       -0.012719758 -0.0020844985 -0.008056296 0.0067280033
000040 cb ce be ba 4b c6 80 bc 0d cb ce bb b4 09 ae 3b
       -0.0014557479 -0.015719553 -0.0063108266 0.0053112153
000050 79 c4 cc bb d3 4e 0b 3c ce b1 c2 bb 8f 15 1d bc
       -0.0062490073 0.00850268 -0.005941606 -0.0095876595
000060 16 8c b5 bb 39 f9 a4 bb b5 d0 84 bb 3d 6e f1 39
       -0.005540381 -0.0050345925 -0.0040532 0.00046049236
000070 5e d0 f8 bb 3f a9 c3 ba 89 d8 13 3b 0a f6 0f bc
       -0.0075931987 -0.0014927759 0.0022559485 -0.008786688
000080 8b b3 85 bc 29 f0 8a bc 60 c7 21 ba fc 3c 32 bc
       -0.016320964 -0.01696022 -0.0006171372 -0.010878798
000090 d3 97 a8 bb 02 62 52 bc 79 dc 75 bc e2 0d 7b bb
       -0.005145052 -0.01284075 -0.015006178 -0.0038307835
0000a0 d0 1c 10 bc ee 5f e6 bb 5b a2 d3 bb 7d 0d b5 3b
       -0.008795932 -0.0070304787 -0.0064585633 0.0055252896
0000b0 33 14 0a bc f3 9e d8 bb 41 d0 60 39 1d 24 fb bb
       -0.008427667 -0.006610745 0.00021439885 -0.007664217
0000c0 86 57 4e bb 9d 00 21 3c 35 3f 02 bb a9 61 61 3b
       -0.0031485274 0.009826806 -0.00198741 0.0034390485
0000d0 cb 15 ab bb a3 fd 81 3b ce ae cd bb 30 e1 2b ba
       -0.005221104 0.0039670034 -0.006276942 -0.0006556688
0000e0 1f 43 34 bb b1 b3 29 bc 4f 7f 20 bc eb 58 40 bb
       -0.0027505828 -0.010357783 -0.009795978 -0.0029349874
0000f0 9a 7d 33 ba b4 8a 2f bc c8 65 02 bb 16 43 cf bb
       -0.0006847024 -0.010714222 -0.0019897092 -0.006325136

layer4.1.running_mean f4 [64]
000000 db 35 af ba ef 8d 7d bd 36 cf ca bd 94 20 a9 3e
       -0.0013367491 -0.061902937 -0.099028036 0.33032668
000010 99 19 65 3e 52 63 95 3e be 10 c1 3d 1c d1 9b be
       0.22373046 0.29177338 0.094270214 -0.30432975
000020 dc 5c 12 be 2e f0 db 3d 26 7b 4c 3f 5e c5 55 3e
       -0.14293236 0.1073917 0.7987541 0.20876071
000030 95 df 0a 3e a6 98 a9 3b 5e 33 15 be 84 14 12 3e
       0.13561852 0.005175668 -0.14570376 0.14265639
000040 1f 19 e1 be ec c7 76 3d d6 dd b6 3e 64 26 2c bf
       -0.43964478 0.060249254 0.35716122 -0.6724608
000050 d3 45 27 3e 7a b8 43 be 59 31 a8 3e e4 4f 2c be
       0.1633523 -0.19113341 0.3285015 -0.16827351
000060 92 c2 91 3e c4 73 55 3d ed 8f c0 be 09 2f ba bd
       0.28468758 0.052112356 -0.37609807 -0.090910025
000070 0b 2b 2f 3e b1 36 92 3e ad aa b7 bc ed ad ec bc
       0.17106263 0.2855735 -0.022420252 -0.028891528
000080 6b b0 bd 3d 9e f3 b3 be 39 01 b2 bc f9 07 c6 be
       0.09262165 -0.35146803 -0.021729099 -0.38677958
000090 b2 95 9b 3e 79 7a 16 bf 5a d5 47 3e 6b 9f 2f be
       0.30387646 -0.5878063 0.19514981 -0.17150657
0000a0 ed 36 0c be dd 07 22 3e 7f 08 58 3e 6e 3b 15 3f
       -0.13692828 0.15823312 0.21096991 0.5829381
0000b0 37 b6 ed 3d 8e a1 55 bd 78 8e 15 bf d0 55 18 3f
       0.1160702 -0.052156024 -0.58420515 0.5950594
0000c0 31 41 9e be 49 77 f2 3d 72 71 9e be ef 97 b6 3d
       -0.30909112 0.11839158 -0.30945927 0.08915698
0000d0 0d 45 f4 3e 99 63 e5 be e0 39 73 3e 8f e1 0e 3e
       0.47708932 -0.4480255 0.23752546 0.13953231
0000e0 d3 59 a9 3d 33 b5 81 be 14 af 39 be 59 5b 04 bf
       0.08269086 -0.25333557 -0.18133193 -0.51701885
0000f0 ed 3d a4 be 5d 0c 18 be 1a d5 8c bd ae b2 db 3e
       -0.32078496 -0.14848466 -0.068765834 0.4290976

layer4.1.running_var f4 [64]
000000 02 9a 61 3e 87 8b 79 3e 10 49 92 3e 95 f0 b8 3e
       0.22031406 0.24369632 0.28571367 0.3612105
000010 e9 2f af 3e ad 03 e2 3e f6 0f 49 3e 9f 95 bc 3e
       0.3421624 0.4414343 0.19634995 0.36832902
000020 b0 28 66 3e af 92 e5 3e 92 07 82 3f e7 ba c8 3e
       0.22476459 0.44838473 1.015856 0.39205095
000030 f6 23 90 3e c6 1e 8d 3e fd 45 8c 3e d2 69 c8 3e
       0.28152436 0.2756254 0.27397147 0.39143234
000040 01 12 10 3f 49 84 b9 3e 27 d7 ce 3e 68 27 d9 3e
       0.5627747 0.36233738 0.40398523 0.42412877
000050 a8 45 81 3e d8 b8 09 3f 70 17 b1 3e ab c3 d6 3e
       0.25248456 0.53797674 0.34588194 0.41946158
000060 71 94 9c 3e 57 ad b2 3e 9b 5b 81 3e 79 b2 71 3e
       0.30582002 0.34897873 0.25265202 0.23603238
000070 e2 9a e1 3e 40 0e 9a 3e ab 1e b7 3e a4 c7 88 3e
       0.4406348 0.30088997 0.35765585 0.26714814
000080 65 27 65 3e c1 7f 94 3e 6a b3 a6 3e 3b 3d ec 3e
       0.22378309 0.29003718 0.32558757 0.46140465
000090 2c 80 00 3f ec 80 03 3f e6 ca 8d 3e 0f 85 d4 3e
       0.50195575 0.51368594 0.27693862 0.41507766
0000a0 d7 da 6d 3e 8c 57 9c 3e 94 e6 9f 3e 3a 33 19 3f
       0.23228012 0.30535543 0.31230605 0.5984379
0000b0 17 fb 6e 3e 60 b4 91 3e ad 70 51 3f cd df e5 3e
       0.2333797 0.28457928 0.81812555 0.4489731
0000c0 f9 7c ce 3e 9e 72 85 3e ec c9 ed 3e 80 79 ee 3e
       0.40329722 0.26064008 0.46443117 0.46577072
0000d0 c2 db 08 3f 96 c4 21 3f c7 72 6c 3e 26 f7 83 3e
       0.53460324 0.6319059 0.23090659 0.25774497
0000e0 eb 2b c6 3e ea df 9b 3e 98 01 de 3e 48 ab fe 3e
       0.38705382 0.3044427 0.4336059 0.49740052
0000f0 57 ac 78 3e a7 16 2d 3f e0 f3 61 3e a5 8e ff 3e
       0.24284492 0.6761269 0.22065687 0.49913517

layer5.0.weight f4 [64, 64, 3, 3]
000000 6f 25 e0 bc 6c 74 6c bb 22 96 29 bd fb 3f 39 bc
       -0.0273616 -0.0036080135 -0.041402943 -0.011306758
000010 46 05 3c bc 83 70 58 bb a6 42 3a 3b c1 66 ac bc
       -0.011475867 -0.0033026047 0.0028421073 -0.02104509
000020 3e 35 d7 bb 2a 56 f2 bc 3b 46 04 bd 16 6e df bc
       -0.0065676263 -0.029582102 -0.03229354 -0.027274173
000030 6c 9f 0c 3d a0 1a 87 3b ae c4 f6 3c 5c 2a 2d bd
       0.034331724 0.004123047 0.030123081 -0.042276725
000040 d5 8a eb 3c 03 55 00 bd 48 7a 7a 3b 4b 3e 24 3d
       0.028752724 -0.031331073 0.0038219858 0.04009847
000050 31 03 a5 bc c0 20 a6 ba 4b 20 26 3d b6 e0 3d 3c
       -0.020143123 -0.0012674555 0.04055814 0.01158922
000060 83 5b e6 bc 30 93 bb bc d0 b2 96 3b 5c 80 22 ba
       -0.028119808 -0.022897333 0.004598953 -0.00061989366
000070 f3 f7 8e bc c0 40 88 bc 1f 1e 65 bc 20 ff 10 bd
       -0.017452216 -0.016632438 -0.013984232 -0.035399556
000080 00 17 d8 ba 53 4c 83 bc 55 f7 04 bd e0 b7 33 3d
       -0.0016486347 -0.016027605 -0.032462437 0.04387653
000090 42 28 17 3d 07 0c 26 3d 4e 5d d0 bc b8 a8 d5 bb
       0.036903627 0.040538814 -0.025435116 -0.006520357
0000a0 04 c4 a6 bc bf 8b 69 bc 8e 11 da bc 7d 07 dd 3b
       -0.02035714 -0.0142545095 -0.026619699 0.0067452774
0000b0 ca 7c 10 3d 86 c4 33 3d b9 c1 8a bc 95 d1 c6 bb
       0.035275258 0.04388859 -0.016938077 -0.0060674646
0000c0 4b 56 8e bc 48 3e 0c bd 8c 81 96 bc ac 7e 48 3c
       -0.017375132 -0.034239084 -0.01837232 0.012237232
0000d0 f1 d3 20 3c 88 b7 26 3d 64 93 d0 3a 62 14 42 bc
       0.009816156 0.040702373 0.0015913066 -0.01184568
0000e0 2b fa 0a bd 99 9f 3d 3c 85 f5 23 bd 63 ec ec 3c
       -0.033929985 0.011573696 -0.040029068 0.028921312
0000f0 e3 0d f5 3c 21 98 18 3c 0d ef 7b bc cf 02 03 bc
       0.029913848 0.009313614 -0.015376818 -0.007996275
000100 16 66 09 3d 4c de 15 3d 53 57 2b bc 95 1c ee bc
       0.033544622 0.036588952 -0.010457831 -0.029066363
000110 77 c3 66 bc 6c ff 96 3c eb 25 3a bb 80 fb 63 3c
       -0.014084688 0.018432342 -0.0028403949 0.013914943
000120 d1 90 8b 3a 60 e4 5b bc 13 c1 16 bd 2d ec 99 3c
       0.0010648017 -0.013421148 -0.036805224 0.018789375
000130 7c 2b fc bb d8 c1 c5 3c 28 59 33 bc 13 aa 77 3c
       -0.0076956134 0.024140283 -0.0109465495 0.015116232
000140 6a 80 60 bc 93 93 3e 3c 00 e4 eb ba 49 37 86 bc
       -0.013702491 0.011631864 -0.0017997026 -0.016383784
000150 6b 7d 1e 3c 91 c3 2a bd a2 1a ee bb db 0d 57 bc
       0.009673457 -0.041690413 -0.0072663585 -0.013125862
000160 84 30 14 3d 23 af e2 3c 3f df 91 bc a3 5a ad 3c
       0.03617908 0.027671402 -0.017806647 0.021161383
000170 6a e4 4a 3c da d1 29 bd 39 cc d4 bc 77 b8 02 3d
       0.01238356 -0.041459896 -0.025976287 0.0319142
000180 ab 51 2e bd 5d 49 af 3c a8 08 ca bc e1 f9 c8 bc
       -0.042558353 0.021397287 -0.02466233 -0.024533214
000190 1d ba 84 3c 5f 80 2d bc 3f 2c ef 3c b2 b3 e3 3b
       0.016202027 -0.010589688 0.029195903 0.0069489116
0001a0 76 b0 84 3a e3 c6 0f bd 70 48 44 3c 05 3b 09 3d
       0.001012339 -0.035101783 0.011980161 0.03350355
0001b0 ba 89 fe bc e6 de 11 bd ee ff e6 bc 43 6f 08 3d
       -0.031071533 -0.035612963 -0.028198209 0.033309232
0001c0 6d 4f 42 bc dc c0 0b 3d 0b b9 d1 bc 29 c3 ec bc
       -0.011859757 0.034119472 -0.02560093 -0.028901653
0001d0 cf 99 32 bc 5c ac 25 ba bb 28 50 bb 7d e6 3c 3c
       -0.010900929 -0.0006319934 -0.0031762559 0.011529562
0001e0 d8 98 05 bd 06 1d 41 bc c9 89 bc bc 50 10 8b 3c
       -0.032616466 -0.011786705 -0.02301492 0.016975552
0001f0 04 0a e5 3c 79 4d 7e 3c 0f 13 86 bc 6d 70 0c 3d
       0.027958877 0.015521401 -0.01636651 0.034286905
000200 0f 1d 62 ba 37 6d d3 3c 32 c0 00 bc e5 e3 89 ba
       -0.0008625546 0.025808914 -0.007858323 -0.0010520188
000210 e9 96 79 bc af ce d1 bb a2 15 37 3d 35 81 03 3a
       -0.015233734 -0.0064028124 0.044698365 0.0005016507
000220 1b 8b d5 3c e4 04 d4 bb 94 93 e0 3c 94 81 96 bb
       0.026067307 -0.0064703096 0.02741412 -0.0045930836
000230 6b 9e 07 bc 72 4e f5 3c 05 0b 25 3d 99 e4 23 bc
       -0.008277516 0.029944632 0.040293712 -0.010003232
000240 84 7f f0 3a 59 f6 22 3b ac f3 0f 3d c1 42 9b 3c
       0.001834855 0.0024866073 0.035144493 0.01895273
000250 29 38 fb bc 92 ac a9 b9 3b b4 dd bc c2 f2 8d bc
       -0.030666428 -0.00032362767 -0.02706348 -0.01732767
000260 76 a3 9a 3c 6e c5 0c 3d 7c 1e 0d 3b 8b bd 07 bd
       0.018876772 0.03436797 0.0021533063 -0.033139747
000270 2c 5e 05 bd e8 8e fa bc 2a ac c1 3c 31 98 bc 3c
       -0.032560512 -0.030585721 0.023641665 0.02302179
000280 9f 8c c3 3c e6 6b 41 bc 14 51 34 39 da 01 17 3c
       0.023870764 -0.01180551 0.00017196342 0.00921675
000290 8d bc 9f 3c 30 16 9d bb bc e7 96 3c 07 b1 2d 3c
       0.019499088 -0.0047939047 0.018421046 0.010601289
0002a0 d1 34 53 3c bb 0b b1 3c c1 53 ed 3b 61 c9 37 3c
       0.01289101 0.021612039 0.0072426503 0.011217446
0002b0 0c 56 b0 3c d6 fa d0 3c 87 98 2b bd 82 2f e5 bc
       0.021525405 0.025510233 -0.04189351 -0.027976755
0002c0 7e 61 8d bc 73 70 c7 3a 93 9d 14 3c 06 74 ef 3c
       -0.017258402 0.0015216008 0.009070772 0.029230129
0002d0 9c 96 a8 3c 2d 0b 61 3c 76 96 e9 3c f9 b8 c7 3c
       0.020579629 0.013735575 0.028514128 0.024380194
0002e0 b1 0f ec 3c b0 b3 8b bc 87 e6 00 bd a0 33 03 bc
       0.028816076 -0.017053455 -0.031469848 -0.008007914
0002f0 0d a5 8f bc 6a 58 84 3c a7 d7 df bc 10 a6 05 3d
       -0.017534757 0.01615544 -0.02732451 0.032629073
000300 a8 3c 9a bc c6 52 20 bd cb 71 a8 3c 19 ef ec bc
       -0.018827751 -0.03914144 0.020562073 -0.028922604
000310 fc ed 28 bd 32 a9 18 3c b5 08 b8 3c d4 1c e9 bc
       -0.041242585 0.009317683 0.02246509 -0.02845613
000320 25 c2 a3 bc 08 5d 43 3c 36 b5 02 bd d8 45 9f 3c
       -0.019990036 0.011924036 -0.031911097 0.019442484
000330 dd ce 8a 3b 00 0b db 3c 08 d0 92 3c d4 1a 0f 3d
       0.004236086 0.026738644 0.017921463 0.034937695
000340 b5 df 20 3d b0 0d b1 b9 f2 b7 eb 3c 99 d3 c1 3c
       0.039275844 -0.0003377027 0.028774235 0.023660468
000350 d4 8c 1f 3a 38 6b ae bc ef 86 f2 3c 73 49 ee bc
       0.00060863537 -0.02129136 0.029605357 -0.029087758
000360 27 b8 38 3d 45 51 23 3d 2f 3d 9f ba 3b bc 21 3d
       0.045097496 0.039872427 -0.0012148971 0.03948615
000370 24 be 2f 3d 8e 4e cf 3c 33 05 41 3c bf 83 2b 3d
       0.04290594 0.025306012 0.011781025 0.04187369
000380 64 a8 a4 bc 27 77 81 bc 77 14 e9 bc 3c 2e 44 3d
       -0.020099826 -0.015803887 -0.028452141 0.047895655
000390 4c a5 fc bc 90 34 07 3d 40 9f 03 3c 35 9b f7 bb
       -0.030840538 0.033009112 0.008033574 -0.007556344
0003a0 dd 55 95 bc ed c1 d2 bc 65 af b5 3c c0 8e 71 bc
       -0.01822942 -0.025727237 0.022178361 -0.014743507
0003b0 c0 a0 b3 39 9b 7f 29 3d c4 52 e1 3c 54 73 37 bc
       0.0003426131 0.04138146 0.027505286 -0.01119693
0003c0 f5 89 c0 bc e1 d7 2e 3c 4b 03 31 3b 35 a7 04 3c
       -0.023503283 0.010671587 0.002701002 0.008096506
0003d0 12 f8 4b 3c 79 62 81 bc ba 51 f2 bc 5e 00 39 b9
       0.012449281 -0.015794026 -0.029579986 -0.00017643112
0003e0 05 96 7f bb 57 f3 bb 3c 2d 6d 0f 3d 90 f1 10 3d
       -0.003899933 0.022943182 0.035016228 0.035386622
0003f0 31 2d f7 bc 0d 75 28 bc a5 46 36 bd 02 ec 22 bc
       -0.030172916 -0.010281813 -0.044500966 -0.009943964

layer5.0.bias f4 [64]
000000 17 2b a9 3c 32 65 5e bc 7c 7d 77 bc 8b 95 e3 bb
       0.02065043 -0.0135739315 -0.015105601 -0.006945317
000010 c3 dd f3 3c 08 aa fa bc ac ad e4 bc 88 00 d0 bc
       0.02976883 -0.030598655 -0.027914844 -0.025390878
000020 0f a0 06 3d 4e 30 97 3c 86 04 98 bc 21 67 66 3c
       0.032867488 0.01845565 -0.018556844 0.014062674
000030 67 e8 29 3d 8d e5 0b bd 9d 29 5e bc a5 44 99 bc
       0.0414814 -0.034154464 -0.013559726 -0.01870949
000040 9c d9 ea 3b 6a d3 9a bc ec 9b e5 bc a4 c3 a7 bc
       0.0071670543 -0.018899638 -0.02802845 -0.02047903
000050 d0 fe 06 bd b1 2c 87 bc 02 12 b8 bb 89 62 f6 3c
       -0.032957852 -0.016500803 -0.005617381 0.030076282
000060 2b 17 76 bc 46 3a 17 bd 00 78 3d 38 85 90 27 bd
       -0.015020172 -0.03692081 4.517287e-05 -0.04090931
000070 db 72 c0 bc 37 6a ed 3c 72 57 aa bc b1 38 b9 3c
       -0.023492267 0.028981311 -0.02079365 0.02261004
000080 c1 10 cb bb 35 c0 35 bc 59 93 8f 3c 9a 8b e4 bc
       -0.0061970656 -0.011093189 0.017526316 -0.027898598
000090 0e a3 eb 3c ab 9f 46 bb 2c bf aa bc a0 9d 32 3c
       0.028764274 -0.0030307572 -0.020843111 0.010901839
0000a0 a9 7d 0f bd 46 b4 b7 3c 13 85 23 3d 62 c3 06 bd
       -0.03503195 0.022424828 0.03992183 -0.032901175
0000b0 70 fe 8e 3b a7 cb 1d 3d 5f a6 06 3d a2 d5 b9 3c
       0.0043638274 0.038524296 0.032873508 0.022684876
0000c0 5c ac 28 3d 52 75 ab 3c d1 a6 dc 3c 34 cc 0a 3d
       0.04118 0.020929966 0.026935013 0.03388615
0000d0 d1 a6 a1 3c 3b b9 f9 3c a1 0b bb bb 2d 8a 0f bc
       0.019732865 0.030483833 -0.0057081734 -0.008760971
0000e0 52 75 16 bd ff c0 92 3c d1 b2 12 3d 13 3d f7 bc
       -0.03673298 0.017914293 0.035815064 -0.03018049
0000f0 96 ab 86 bc ec ca b6 3a 59 88 dc bc 69 0b c3 bb
       -0.01643924 0.0013945973 -0.026920484 -0.005952288

layer5.1.weight f4 [64]
000000 2f b2 82 3f 45 76 82 3f 3b 36 83 3f cd 64 82 3f
       1.0210627 1.0192343 1.0250925 1.0187012
000010 e0 62 81 3f df e4 82 3f 1a 4a 82 3f 0e 03 82 3f
       1.0108299 1.0226096 1.0178864 1.0157182
000020 5b ce 81 3f 07 ac 81 3f f9 d2 81 3f 99 4f 82 3f
       1.01411 1.0130624 1.0142509 1.0180541
000030 d5 77 82 3f 1c 12 82 3f 30 d0 82 3f db 0e 82 3f
       1.019282 1.0161777 1.0219784 1.0160784
000040 73 93 82 3f 47 89 81 3f ba 69 82 3f a7 eb 82 3f
       1.0201248 1.0120019 1.0188515 1.0228165
000050 5e a9 82 3f 40 53 81 3f 3a 91 82 3f 46 13 82 3f
       1.0207937 1.0103531 1.020057 1.0162132
000060 39 2a 83 3f b9 70 82 3f 6b b9 82 3f 7d ec 82 3f
       1.024726 1.019065 1.0212835 1.022842
000070 aa 98 82 3f 31 46 81 3f f7 51 82 3f e0 c1 81 3f
       1.0202839 1.0099546 1.0181264 1.0137291
000080 2f 89 82 3f b1 6f 82 3f 66 f1 82 3f f4 8e 82 3f
       1.0198115 1.0190336 1.0229919 1.0199876
000090 39 91 82 3f c0 e1 81 3f 8e 56 82 3f a1 24 81 3f
       1.0200568 1.0147018 1.0182664 1.0089303
0000a0 cf 0d 82 3f be f4 81 3f 3a c6 82 3f 51 fe 82 3f
       1.0160464 1.0152814 1.0216744 1.0233861
0000b0 b0 d3 81 3f e5 4d 81 3f ce 61 82 3f 94 78 82 3f
       1.0142727 1.0101897 1.0186098 1.0193048
0000c0 41 ef 82 3f 20 66 80 3f e9 14 82 3f d7 85 82 3f
       1.0229264 1.0031166 1.0162631 1.0197095
0000d0 d7 da 82 3f 57 1e 82 3f d4 5a 82 3f bd e2 81 3f
       1.0223035 1.0165509 1.0183969 1.014732
0000e0 5d 91 82 3f a7 a5 81 3f 96 ce 82 3f a6 bd 82 3f
       1.0200611 1.0128678 1.0219295 1.0214126
0000f0 b3 51 82 3f 07 66 81 3f e8 d7 81 3f 55 6e 82 3f
       1.0181183 1.0109261 1.0144014 1.0189921

layer5.1.bias f4 [64]
000000 63 22 35 3c e7 97 55 3c 92 2a ac 3c a8 5b 97 3c
       0.011055562 0.013036705 0.021016393 0.018476322
000010 c2 33 6c 3c ba 31 a3 3c 41 7f 01 3c 81 be 2c 3c
       0.014416637 0.019921172 0.007903875 0.010543467
000020 e9 c9 41 3c 8b 52 20 3c 05 26 55 3c f5 2f 61 3c
       0.011827924 0.009785305 0.013009553 0.013744344
000030 3e 24 75 3c 77 62 75 3c 71 77 8f 3c 34 ec 7f 3c
       0.014962254 0.014977089 0.017513009 0.01562028
000040 0f 1f 65 3c e1 62 32 3c 70 5b 99 3c 96 90 8d 3c
       0.013984456 0.010887832 0.018720359 0.017280858
000050 49 76 b0 3c 66 2d 9a 3b 1a 8f 91 3c 50 dc 84 3c
       0.021540778 0.004705119 0.017768431 0.016218334
000060 66 2f 57 3c 9e 19 70 3c ad 87 6b 3c 09 e9 ba 3c
       0.013133859 0.014654545 0.014375609 0.022816198
000070 14 41 4b 3c 8f c2 79 3b 8a af 92 3c 37 3c ff 3b
       0.012405653 0.003811035 0.01790597 0.0077891606
000080 96 c0 9a 3c ef 8e 26 3c 48 82 3b 3c 8d be 5f 3c
       0.01889066 0.010165914 0.011444636 0.013656271
000090 1f 0b 56 3c ba 42 2b 3c 5b 48 4c 3c ae 53 0f 3c
       0.013064175 0.010452921 0.012468423 0.008747978
0000a0 4e 02 56 3c ab df 1c 3c a6 1c 50 3c 12 14 90 3c
       0.013062073 0.009574811 0.012702143 0.017587695
0000b0 ca 26 5b 3c 66 dd d9 3b 7d 0f 2e 3c d0 2d 97 3c
       0.013375947 0.006648707 0.01062381 0.018454462
0000c0 86 27 7c 3c 76 5a 35 3b 45 d8 39 3c 04 36 ad 3c
       0.0153902825 0.0027672327 0.011343067 0.02114392
0000d0 fb b3 89 3c 14 34 3c 3c ad c1 8f 3c 41 e0 14 3c
       0.016809454 0.011487026 0.017548406 0.009086669
0000e0 26 ec 0d 3c 62 89 53 3c 8b a2 97 3c 3c b2 92 3c
       0.008662259 0.012911173 0.018510124 0.017907254
0000f0 91 f9 4d 3c d5 49 33 3c be e7 90 3b 0e 33 9f 3c
       0.012571708 0.010942896 0.004422157 0.019433524

layer5.1.running_mean f4 [64]
000000 80 36 11 3f 26 97 28 3f 77 71 81 3f 99 25 2a 3f
       0.56723785 0.65855634 1.0112752 0.6646362
000010 ab ca 56 bf a0 46 4a 3f db 93 cb 3e ec 2c 56 3f
       -0.83902997 0.79014015 0.39761242 0.83662295
000020 f2 9f 91 bf df 80 81 bf 4d 00 02 3f f8 6a e0 bf
       -1.1376936 -1.0117453 0.5078171 -1.7532644
000030 ca 01 41 3f cd 9c a1 be 13 51 72 3f f7 d2 a9 3f
       0.75393355 -0.31564942 0.9465496 1.3267506
000040 bc f7 73 3f 7a fd ef be 38 14 b7 3f 2c a6 e4 3e
       0.9529989 -0.46873075 1.4303045 0.4465803
000050 36 3f 9d 3f d5 a0 10 3f 4f 4a 47 3f 7c cf 4a 3f
       1.2284915 0.5649541 0.7784776 0.79222846
000060 98 aa 5b 3f 02 23 9a be 6d 98 f6 3e 1c d6 39 3f
       0.8580718 -0.30104834 0.48163167 0.7259233
000070 c1 6f 7d 3f fb f5 04 3f 8a d1 1d 3e 1d ad b1 3e
       0.9899865 0.51937836 0.15411964 0.34702387
000080 18 fc 28 3f ef e3 17 3f bd e3 45 3f 00 63 b5 3f
       0.66009665 0.59332174 0.77300626 1.4170837
000090 7d 10 07 3f eb b3 80 3f fb ed 13 be 7c 47 9a bf
       0.52759534 1.0054907 -0.14446251 -1.2053065
0000a0 de 18 10 bf c9 5b 32 3f 31 23 47 3f d7 1b 97 3e
       -0.56287944 0.69671303 0.7778807 0.29513428
0000b0 ed 10 6b bf 23 2f 16 3c b8 94 b5 3e 8f c0 66 be
       -0.918227 0.009166512 0.35465026 -0.22534393
0000c0 8c 40 44 3f c8 e2 39 3e 7c 88 5d 3f 1a fa 49 3f
       0.7666099 0.18152916 0.86536384 0.7889725
0000d0 61 c1 9f bd d3 b5 4e 3f 77 20 84 bf 8d e3 ce 3e
       -0.07800556 0.8074619 -1.0322407 0.40407982
0000e0 f4 14 36 3f b4 e3 46 bf b7 1a 50 3f 82 43 c0 bf
       0.7112572 -0.776912 0.81290764 -1.5020602
0000f0 ff f2 fa 3e ca 3c 99 bf c8 7c 66 3e ec 90 44 3f
       0.49013516 -1.1971676 0.22508538 0.76783633
