data/chkbox_models/chkbox_rnd11_4_bestVal.pt (torch_old, 35085 bytes, 25 tensors)

layer1.0.weight f4 [4, 1, 3, 3]
-0.1779466 -0.21991079 -0.36297646 -0.17182289 0.16531198 -0.1259477 -0.26976678 -0.13268688
0.0794504 -0.120676465 0.2759083 0.2429539 0.097612835 -0.07445133 -0.17281574 0.2632659
-0.055467263 0.36652666 0.30604896 0.2854687 0.033050984 0.12016046 -0.25942436 0.05381735
0.28318152 0.27600813 -0.049492814 -0.16014409 -0.09605473 0.18288882 0.14002761 -0.12355669
0.46128812 0.18254504 0.19574735 0.05172555
00000000: a237 36be 4b30 61be 0dd8 b9be 57f2 2fbe
00000010: 8b47 293e 6ff8 00be df1e 8abe 12df 07be
00000020: e4b6 a23d 3925 f7bd da43 8d3e e8c8 783e
00000030: 3de9 c73d f079 98bd 9cf6 30be caca 863e
00000040: a431 63bd 62a9 bb3e 73b2 9c3e f428 923e
00000050: 7860 073d b016 f63d 45d3 84be 956f 5c3d
00000060: 2bfd 903e f050 8d3e fab8 4abd d0fc 23be
00000070: 58b8 c4bd 3547 3b3e 6663 0f3e 4a0b fdbd
00000080: f52d ec3e 16ed 3a3e fe71 483e 2cde 533d

layer1.0.bias f4 [4]
-0.2398575 -0.29906142 0.2093542 -0.32877162
00000000: 349d 75be 941e 99be f360 563e c154 a8be

layer1.1.weight f4 [4]
0.93119514 1.0033317 1.0220262 1.0002934
00000000: ce62 6e3f 2c6d 803f c1d1 823f 9d09 803f

layer1.1.bias f4 [4]
0.102495156 5.3764772e-05 -0.049329065 -0.040616687
00000000: fbe8 d13d 7c81 6138 460d 4abd af5d 26bd

layer1.1.running_mean f4 [4]
-1.1459078 0.3122664 0.9896185 0.29476592
00000000: 1bad 92bf 62e1 9f3e a357 7d3f 8feb 963e

layer1.1.running_var f4 [4]
0.9866654 0.458887 0.75261295 0.50957894
00000000: 1b96 7c3f 3df3 ea3e 3eab 403f c473 023f

layer2.0.weight f4 [8, 4, 3, 3]
-0.049767375 0.14625683 0.110227555 0.039101224 -0.05878582 -0.101375386 -0.0058664 0.03963111
-0.05622949 -0.02739213 -0.12533286 0.08613842 -0.00490489 -0.0023454523 -0.08571053 0.04210419
0.019476222 0.12967606 -0.078286685 0.029476786 -0.13266966 0.19411974 -0.08162675 -0.13428801
0.14564247 0.17820078 0.20552509 -0.036758717 -0.14439504 -0.11788445 0.13686596 0.08531799
0.12999742 -0.009197481 0.07808995 -0.03833064 -0.1323378 0.038994234 -0.020403847 -0.16320059
-0.015994873 0.0263481 0.085486025 0.12075506 -0.082859814 -0.05352236 0.12684871 -0.12681372
-0.05366369 0.16868538 -0.01932499 0.1263161 0.081528604 -0.05351854 0.008423694 -0.09093156
0.14388981 0.04137447 0.04244798 -0.10792241 -0.028123079 0.12830678 -0.06918803 -0.15449013
-0.15873818 -0.060298212 -0.033486497 0.029650489 -0.1387166 0.10408814 -0.09743766 0.061541993
-0.1778138 -0.21116805 0.1302007 -0.15773094 0.052985992 0.00081557233 0.075893916 -0.024047593
-0.048503496 0.1762565 0.03408132 -0.028171463 0.124660216 0.15589386 -0.016749395 0.11603224
-0.09653707 0.07042075 0.02850046 0.16569233 -0.0826504 -0.005248725 0.09448056 -0.0075625232
-0.13859956 -0.041183576 -0.11804302 -0.0010418383 0.1568497 -0.043027103 0.11424394 -0.06611556
0.084261484 -0.008386364 -0.17063497 0.0980919 -0.012323317 -0.045874745 -0.04923082 0.059965976
0.016126737 -0.024015607 0.00042374327 0.09623626 0.0020044036 -0.070483066 -0.008103264 0.11224494
-0.0027586485 -0.013275898 -0.068516545 0.036271613 -0.13191298 -0.09224352 -0.043564886 -0.10904976
0.15291238 -0.01740389 0.054166127 0.1692988 -0.17393057 -0.08393155 0.07823308 0.18039131
0.009384161 0.15575656 -0.11276978 -0.15021509 0.05298909 -0.11971065 0.09897789 -0.05568545
-0.0432432 -0.034590457 -0.07819377 0.17812315 0.05343654 0.009215551 0.13558505 0.13257003
-0.09217645 0.0138872 0.0424102 0.058708485 0.10607857 -0.06758305 0.028296571 -0.04675266
-0.055543493 0.17532752 0.12966739 -0.08691625 0.17503534 -0.051843267 0.17066182 0.107773535
0.019011864 -0.0151177645 0.111423 0.06769055 -0.041174985 -0.13769881 -0.08628378 -0.13596548
0.124479 0.09876717 -0.11777234 0.068578094 0.11053535 0.14183278 -0.15856767 0.1072471
-0.07072923 0.033331145 -0.10300873 -9.199624e-05 0.11327659 0.03853763 0.01779702 0.087179095
0.18132654 -0.044223126 0.03526345 0.06858907 -0.06542556 -0.05607553 0.10855893 -0.13100745
-0.18281245 -0.051450785 -0.070795275 0.04762747 0.07141168 -0.054032095 -0.07461097 0.046565764
-0.0449356 0.077708595 -0.057224806 0.05199516 0.16147241 -0.18324511 0.11412398 -0.05626758
-0.09790509 0.060742214 0.09088134 -0.10547316 0.10089355 0.11265908 0.06716358 -0.10068171
-0.17016897 0.09864566 0.12059538 -0.20847796 -0.1337248 -0.12025025 -0.050438687 -0.100604355
-0.086066864 0.13432871 0.04363574 -0.073858924 0.13304392 0.060755532 0.008997157 0.03227007
0.00085850875 -0.08409376 0.09414321 0.11814503 0.043131452 -0.13643631 0.06956969 -0.0020468961
-0.007110668 -0.10646372 -0.110278524 0.08195464 -0.10283475 -0.018419262 0.09403234 -0.12840651
00000000: e0d8 4bbd 5ac4 153e fcbe e13d 9b28 203d
00000010: 66c9 70bd e69d cfbd ee3a c0bb 3b54 223d
00000020: e550 66bd 7665 e0bc 4257 00be 5769 b03d
00000030: 33b9 a0bb 29b6 19bb 0189 afbd 7175 2c3d
00000040: 998c 9f3c cdc9 043e c554 a0bd 4d79 f13c
00000050: 8eda 07be 53c7 463e ed2b a7bd cc82 09be
00000060: 4d23 153e 447a 363e 2b75 523e 4f90 16bd
00000070: 4bdc 13be 676d f1bd 9726 0c3e 33bb ae3d
00000080: 0b1e 053e 08b1 16bc a0ed 9f3d 9700 1dbd
00000090: 8f83 07be 6bb8 1f3d f825 a7bc 0e1e 27be
000000a0: ae07 83bc f8d7 d73c 4c13 af3d 6e4e f73d
000000b0: 68b2 a9bd 433a 5bbd a1e4 013e 75db 01be
000000c0: 75ce 5bbd dcbb 2c3e 714f 9ebc 0259 013e
000000d0: 78f8 a63d 4236 5bbd 8903 0a3c 533a babd
000000e0: da57 133e 4778 293d efdd 2d3d 6d06 ddbd
000000f0: 5f62 e6bc da62 033e 74b2 8dbd a932 1ebe
00000100: 438c 22be 42fb 76bd 2329 09bd 95e5 f23c
00000110: b90b 0ebe 2a2c d53d 658d c7bd 7513 7c3d
00000120: d214 36be 703c 58be 5553 053e 3884 21be
00000130: d707 593d 22cc 553a 456e 9b3d 75ff c4bc
00000140: 9aab 46bd 957c 343e db98 0b3d d7c7 e6bc
00000150: db4d ff3d a4a2 1f3e 0736 89bc 50a2 ed3d
00000160: 3ab5 c5bd c138 903d cc79 e93c 40ab 293e
00000170: 9d44 a9bd 7ffd abbb 067f c13d 0bcf f7bb
00000180: 0bed 0dbe 1cb0 28bd 8ac0 f1bd 4b8e 88ba
00000190: 359d 203e 303d 30bd baf8 e93d 9867 87bd
000001a0: 4991 ac3d f666 09bc efba 2ebe 68e4 c83d
000001b0: bde7 49bc 28e7 3bbd 42a6 49bd e29e 753d
000001c0: 381c 843c 61bc c4bc dc29 de39 8417 c53d
000001d0: 505c 033b 6d59 90bd 8dc3 04bc ade0 e53d
000001e0: 71ca 34bb 2783 59bc 6752 8cbd 8b91 143d
000001f0: 3214 07be 2cea bcbd 1871 32bd 7b55 dfbd
00000200: 1095 1c3e 9a92 8ebc 4ddd 5d3d aa5c 2d3e
00000210: db1a 32be 4ee4 abbd aa38 a03d 80b8 383e
00000220: 06c0 193c a67e 1f3e d8f3 e6bd fcd1 19be
00000230: 170b 593d db2a f5bd ecb4 ca3d 6d16 64bd
00000240: c81f 31bd b9ae 0dbd 0e24 a0bd ea65 363e
00000250: 46e0 5a3d d3fc 163c cfd6 0a3e 70c0 073e
00000260: 02c7 bcbd 2387 633c 51b6 2d3d 4f78 703d
00000270: b93f d93d fb68 8abd 36ce e73c b87f 3fbd
00000280: 9381 63bd 0f89 333e 87c7 043e 2601 b2bd
00000290: 773c 333e 9b59 54bd f9c1 2e3e 5fb8 dc3d
000002a0: c5be 9b3c 80b0 77bc be31 e43d 58a1 8a3d
000002b0: 1aa7 28bd eb00 0dbe 8db5 b0bd 893a 0bbe
000002c0: d9ee fe3d 7146 ca3d a032 f1bd ac72 8c3d
000002d0: 5c60 e23d 9d3c 113e 905f 22be 5ea4 db3d
000002e0: 7dda 90bd 3d86 083d 3ef6 d2bd 1bee c0b8
000002f0: 8ffd e73d a2d9 1d3d 0ecb 913c f48a b23d
00000300: aaad 393e 4f23 35bd 6870 103d 6d78 8c3d
00000310: d6fd 85bd 74af 65bd 2554 de3d d126 06be
00000320: 3033 3bbe 0fbe 52bd 1dfd 90bd 0615 433d
00000330: 4940 923d c250 5dbd a3cd 98bd bebb 3e3d
00000340: 640e 38bd af25 9f3d 8f64 6abd e0f8 543d
00000350: 0659 253e 9ba4 3bbe d5b9 e93d d578 66bd
00000360: 7782 c8bd d4cc 783d ff1f ba3d 5002 d8bd
00000370: 47a1 ce3d ceb9 e63d 0f8d 893d 3632 cebd
00000380: c640 2ebe bc06 ca3d b6fa f63d 3f7b 55be
00000390: 27ef 08be c345 f6bd cc98 4ebd a809 cebd
000003a0: d343 b0bd 778d 093e 64bb 323d 5943 97bd
000003b0: aa3c 083e cbda 783d d068 133c 9f2d 043d
000003c0: 8c0d 613a 5939 acbd 28ce c03d 06f6 f13d
000003d0: 9baa 303d f6b5 0bbe 8e7a 8e3d 3825 06bb
000003e0: 9b00 e9bb a709 dabd b5d9 e1bd d6d7 a73d
000003f0: 079b d2bd fee3 96bc 0794 c03d ff7c 03be

layer2.0.bias f4 [8]
-0.05090025 -0.13662083 0.16067697 0.016390588 -0.056294233 0.0054782666 0.002713828 0.14717449
00000000: c87c 50bd 55e6 0bbe 8188 243e 8e45 863c
00000010: c894 66bd 0883 b33b 7bda 313b e9b4 163e

layer2.1.weight f4 [8]
1.0506094 0.9913218 0.98852617 1.0285215 1.0214567 0.9439181 0.9907133 1.0404092
00000000: 5e7a 863f 44c7 7d3f 0d10 7d3f 98a6 833f
00000010: 18bf 823f 9ea4 713f 639f 7d3f 212c 853f

layer2.1.bias f4 [8]
0.060455307 0.16797502 0.06576252 0.00045127637 -0.05270871 -0.012249186 0.051346183 0.031104032
00000000: fc9f 773d a501 2c3e 80ae 863d 4a99 ec39
00000010: 17e5 57bd cfb0 48bc 6050 523d e2cd fe3c

layer2.1.running_mean f4 [8]
0.20325159 -0.28721818 0.31034878 -0.045763962 0.41247186 0.11375943 -0.11271955 0.22637396
00000000: 2f21 503e 430e 93be 09e6 9e3e fe72 3bbd
00000010: 832f d33e b4fa e83d 82d9 e6bd 93ce 673e

layer2.1.running_var f4 [8]
0.26144552 0.05984337 0.36432073 0.15450706 0.14612569 0.026061902 0.04822213 0.32078832
00000000: 30dc 853e 521e 753d 3f88 ba3e 1937 1e3e
00000010: f9a1 153e c57f d53c 9184 453d 5e3e a43e

layer3.0.weight f4 [16, 8, 3, 3]
0.02897745 -0.029749963 0.048029654 -0.1059871 0.013881864 0.066956826 0.0116302855 -0.08697068
0.112633854 -0.11649597 -0.0093402555 0.02065269 0.045608096 -0.04053782 -0.100154966 0.010703597
-0.031680547 -0.13359618 0.054958854 0.002530335 -0.14712693 0.09258769 -0.042661164 -0.07513009
-0.107958004 0.077378124 0.051373858 -0.028019415 -0.07240914 -0.16634661 0.022327684 0.08276557
-0.10204844 -0.0043323175 -0.06244568 -0.01303579 -0.023278628 -0.071148485 0.06688034 0.082203045
0.055688467 -0.07426905 -0.090737246 0.05425224 0.1289768 -0.07091139 -0.019759575 0.05019307
0.034955587 -0.046327196 -0.02287153 -0.043960936 -0.06962648 -0.0036698654 0.03563463 0.10547704
0.062355578 0.07304234 0.03785221 0.014374122 -0.01307718 0.043884296 0.12295339 0.0798896
0.09933731 0.04618013 -0.07911411 -0.07961488 -0.0009388215 0.040503215 -0.06380271 0.06376962
0.035989594 0.14628562 -0.1373861 -0.08781781 0.084452175 -0.027903302 0.011733965 -0.058548037
-0.015656065 0.01912629 0.040153388 -0.001550581 -0.15354036 0.022296172 0.10081181 -0.011892544
-0.09450058 0.047524504 0.09437078 -0.13000569 0.012788074 -0.011246593 0.010542905 -0.02456343
-0.10078606 0.021827064 -0.0323191 -0.15654197 0.041735917 0.04917337 0.021870458 -0.035207655
-0.1260355 -0.090634376 -0.10279965 -0.113005206 -0.039885756 0.025883157 0.11095834 0.09881423
0.048064977 0.02646635 -0.0022779487 0.024965385 0.10613503 -0.029424673 0.047641527 -0.040897604
-0.042776458 -0.10602007 -0.008695782 0.041661806 -0.04178507 0.020671766 0.07491596 0.029121948
0.08262724 -0.0014889358 -0.006731877 0.054862797 0.020547815 0.021515422 -0.06691828 -0.09403686
-0.064794526 0.06600383 0.12274715 0.017700808 -0.07779577 0.025335068 0.07426773 -0.056602128
0.092075825 -0.034804568 -0.059680197 -0.068454236 -0.027684497 0.11137002 -0.0066420855 -0.08025863
0.09170331 -0.010667127 -0.0082170535 -0.057551082 -0.07319935 -0.0010444701 -0.0295846 -0.09766646
-0.06275631 -0.017649824 0.030295417 -0.091568835 -0.106970794 0.021922885 0.024950558 -0.099096
0.0048346985 -0.06268536 0.039043497 -0.08675239 -0.097015806 0.098503366 0.022801502 -0.05644606
-0.04586939 0.050811425 -0.055784583 -0.1367984 0.015037143 0.05535383 0.030831126 0.11608116
-0.035780888 -0.018154817 0.043503918 0.072465114 0.06750632 -0.014500728 -0.0050981455 -0.003947045
-0.08164618 0.016628457 -0.041271627 0.0013511062 -0.0040260754 -0.07152828 0.017002203 -0.0053486507
0.086582124 0.098128706 0.036376495 0.024803367 0.061872654 -0.0077273045 0.10181898 0.08717243
0.0013752239 0.0070538255 0.007373866 0.07482157 -0.04331854 -0.118309915 -0.0870469 0.12925541
-0.14414155 0.09082121 0.005251633 0.07947922 0.01875659 0.07158423 0.1373786 -0.024372365
-0.0015965519 0.03890711 -0.0009765555 -0.04798943 0.058665447 0.024385598 -0.054170262 -0.088477835
0.015399714 -0.04588661 -0.111659385 0.058474835 -0.07026574 -0.11710274 -0.08687805 -0.074058406
-0.06519285 0.073193386 0.051130768 -0.03539058 0.015119046 0.018255835 -0.011014104 0.10322074
0.017845878 0.005941709 -0.09910964 -0.0096456185 -0.12629905 0.04733016 -0.027987685 0.094701126
00000000: 1e62 ed3c 32b6 f3bc beba 443d c40f d9bd
00000010: c270 633c a920 893d f48c 3e3c af1d b2bd
00000020: 94ac e63d 7095 eebd df07 19bc d52f a93c
00000030: 8ecf 3a3d fc0a 26bd 0c1e cdbd 245e 2f3c
00000040: 76c3 01bd 70cd 08be 891c 613d fad3 253b
00000050: 71a8 16be 9d9e bd3d 79bd 2ebd cedd 99bd
00000060: 1619 ddbd 6c78 9e3d 656d 523d f988 e5bc
00000070: 3e4b 94bd c456 2abe 8ce8 b63c ff80 a93d
00000080: c6fe d0bd 1df6 8dbb 0bc7 7fbd 1194 55bc
00000090: d2b2 bebc 4cb6 91bd 8ff8 883d 125a a83d
000000a0: 9719 643d 5f1a 98bd 73d4 b9bd 9937 5e3d
000000b0: 7f12 043e fe39 91bd d5de a1bc 4097 4d3d
000000c0: 972d 0f3d 96c1 3dbd 135d bbbc 6210 34bd
000000d0: 5498 8ebd 2082 70bb 9ef5 113d 5904 d83d
000000e0: 9068 7f3d 3997 953d eb0a 1b3d 7081 6b3c
000000f0: ab41 56bc 05c0 333d fdce fb3d 299d a33d
00000100: 5c71 cb3d 6027 3d3d 9406 a2bd 200d a3bd
00000110: 3f1b 76ba b3e6 253d ffaa 82bd a699 823d
00000120: d369 133d e6cb 153e f1ae 0cbe d3d9 b3bd
00000130: 43f5 ac3d 7795 e4bc d13f 403c 11d0 6fbd
00000140: 2641 80bc bdae 9c3c e177 243d dd3c cbba
00000150: af39 1dbe 76a6 b63c 6c76 ce3d f2d8 42bc
00000160: 8589 c1bd 0ea9 423d 7845 c13d 3620 05be
00000170: 1285 513c a143 38bc 26bc 2c3c 3f39 c9bc
00000180: ec68 cebd acce b23c 0861 04bd 8a4c 20be
00000190: 48f3 2a3d 046a 493d ad29 b33c e735 10bd
000001a0: 730f 01be 849e b9bd 9f88 d2bd 466f e7bd
000001b0: 3f5f 23bd ea08 d43c 203e e33d 1d5f ca3d
000001c0: c8df 443d f5cf d83c a349 15bb 3584 cc3c
000001d0: 535d d93d 030c f1bc c323 433d 3f84 27bd
000001e0: 5e36 2fbd 0d21 d9bd c178 0ebc 92a5 2a3d
000001f0: d226 2bbd d657 a93c 8a6d 993d 2791 ee3c
00000200: 7838 a93d 6528 c3ba 1497 dcbb d0b7 603d
00000210: e453 a83c 1c41 b03c 740c 89bd 6696 c0bd
00000220: feb2 84bd 042d 873d dc62 fb3d 4901 913c
00000230: 6353 9fbd 7d8b cf3c ae19 983d a2d7 67bd
00000240: 4092 bc3d 3c8f 0ebd 3973 74bd bc31 8cbd
00000250: 99ca e2bc f715 e43d daa5 d9bb a35e a4bd
00000260: f2ce bb3d 2cc5 2ebc d2a0 06bc afba 6bbd
00000270: 8ae9 95bd 9ae6 88ba 675b f2bc 5a05 c8bd
00000280: 6186 80bd 5d96 90bc 182e f83c 7188 bbbd
00000290: 8113 dbbd 9f97 b33c 1d65 cc3c d8f2 cabd
000002a0: 646c 9e3b 2f61 80bd 13ec 1f3d 3dab b1bd
000002b0: 39b0 c6bd 22bc c93d 37ca ba3c fc33 67bd
000002c0: 8be1 3bbd a41f 503d 607e 64bd e114 0cbe
000002d0: 595e 763c b3ba 623d 8f91 fc3c f6bb ed3d
000002e0: fb8e 12bd 69b9 94bc 2a31 323d 9768 943d
000002f0: c140 8a3d 7694 6dbc 580e a7bb 3756 81bb
00000300: 1d36 a7bd 6738 883c 700c 29bd 9a17 b13a
00000310: 2bed 83bb 6b7d 92bd 3448 8b3c bc43 afbb
00000320: f851 b13d b4f7 c83d 85ff 143d 6e30 cb3c
00000330: 2e6e 7d3d 5435 fdbb 7886 d03d 7587 b23d
00000340: db40 b43a c723 e73b 79a0 f13b 0d3c 993d
00000350: c86e 31bd 784c f2bd a545 b2bd 885b 043e
00000360: d899 13be 7800 ba3d e415 ac3b 00c6 a23d
00000370: 6ca7 993c c19a 923d faac 0c3e 8ea8 c7bc
00000380: 6443 d1ba 105d 1f3d 88ff 7fba 9190 44bd
00000390: 2e4b 703d 4ec4 c73c a3e1 5dbd de33 b5bd
000003a0: 154f 7c3c 99f3 3bbd adad e4bd 4f83 6f3d
000003b0: 7ce7 8fbd 90d3 efbd 1eed b1bd efab 97bd
000003c0: d483 85bd 6ae6 953d 7f6e 513d b6f5 10bd
000003d0: e0b5 773c 438d 953c 8074 34bc 6565 d33d
000003e0: 8531 923c abb2 c23b fff9 cabd a808 1ebc
000003f0: 8a54 01be 45dd 413d 6e46 e5bc aaf2 c13d

layer3.0.bias f4 [16]
0.056713317 0.11376491 0.009696058 0.029902898 0.06687241 -0.0032355725 0.09323574 0.08525286
0.010865568 -0.092054784 0.08672969 -0.0049609994 0.092819296 0.09336747 -0.029666787 0.056927506
00000000: 394c 683d 94fd e83d 37dc 1e3c ecf6 f43c
00000010: 67f4 883d e60b 54bb 61f2 be3d 0d99 ae3d
00000020: 7f05 323c 3887 bcbd 569f b13d e18f a2bb
00000030: 0b18 be3d 7237 bf3d c307 f3bc d12c 693d

layer3.1.weight f4 [16]
1.0183345 0.9666442 1.0368719 0.9766352 1.0180013 0.9809989 0.95142907 0.956224
1.0047889 0.9703737 1.0038081 0.9735952 0.9455941 1.0441035 0.9954227 0.93822896
00000000: c958 823f ff75 773f 38b8 843f c404 7a3f
00000010: de4d 823f be22 7b3f db90 733f 19cb 743f
00000020: ec9c 803f 696a 783f c97c 803f 893d 793f
00000030: 7412 723f 2fa5 853f 06d4 7e3f c62f 703f

layer3.1.bias f4 [16]
-0.23053673 -0.18424523 -0.21719877 -0.13017493 -0.050090857 -0.20870173 -0.115268506 -0.08294456
-0.1646336 -0.11843661 -0.13531862 -0.084807076 -0.11501301 -0.2010637 -0.13364789 -0.11794486
00000000: d211 6cbe c8aa 3cbe 5b69 5ebe 944c 05be
00000010: 122c 4dbd e8b5 55be e511 ecbd d6de a9bd
00000020: b695 28be e58e f2bd f790 0abe 55af adbd
00000030: f18b ebbd a4e3 4dbe feda 08be 138d f1bd

layer3.1.running_mean f4 [16]
-0.075411014 -0.043475676 -0.18059632 0.18322964 -0.3812163 -0.14139491 0.34840423 0.0110336635
-0.26669014 0.20471847 -0.120691754 0.048146546 0.13126068 -0.051878642 -0.025061535 0.19509774
00000000: 1771 9abd 8d13 32bd 3eee 38be 8da0 3b3e
00000010: c82e c3be d4c9 10be 0a62 b23e 8ac6 343c
00000020: 9c8b 88be b8a1 513e 3d2d f7bd 5035 453d
00000030: 3369 063e b37e 54bd d94d cdbc b4c7 473e

layer3.1.running_var f4 [16]
0.12689973 0.12293185 0.14116195 0.18318342 0.22667395 0.122532286 0.1827765 0.25432375
0.10190477 0.12566406 0.17308246 0.160678 0.20167628 0.13848792 0.35767365 0.11815241
00000000: 01f2 013e b2c3 fb3d c28c 103e 6f94 3b3e
00000010: 371d 683e 35f2 fa3d c329 3b3e b936 823e
00000020: 73b3 d03d 14ae 003e 873c 313e c688 243e
00000030: 3a84 4e3e c7cf 0d3e 0021 b73e e4f9 f13d

layer4.0.weight f4 [32, 16, 3, 3]
0.07842729 0.12621993 -0.008225379 0.06334861 0.05250383 -0.016480092 -0.048493784 0.06163338
-0.016809005 0.08526945 0.0342022 0.058311984 0.04765013 0.084061444 0.027641514 -0.083718315
0.10203463 -0.030165454 0.0021392626 0.061510593 -0.021424282 -0.07462446 0.0470253 0.004097688
-0.053764503 0.0042456193 -0.0094912695 -0.03059386 -0.0569597 -0.009084208 0.053630497 0.03388355
-0.019102652 0.034515023 -0.07909937 0.017776266 0.07501718 0.039403163 -0.051590994 0.018732116
0.052333396 -0.022006165 0.017362488 0.0605051 0.013137386 0.06527322 -0.029933495 -0.01310139
0.01651173 0.008286053 0.079460725 -0.074935116 -0.06572245 -0.02767182 -0.060335074 0.04620795
0.03271529 -0.053284056 0.029592302 0.004118215 -0.07051993 0.020590428 0.07138004 -0.009871782
-0.046304874 -0.0032943767 -0.029117957 0.055839572 -0.026825424 -0.040596697 0.01472892 -0.053871617
-0.04511246 0.04060838 -0.08479018 0.06770644 0.07220072 -0.053466655 0.025435168 -0.008313232
0.046126723 -0.012939098 -0.010330676 -0.052301712 -0.026780091 0.0012814242 -0.0073845093 0.041788563
-0.004505785 0.08480598 0.05567547 -0.02198208 0.015273513 0.008100811 0.023202674 0.11950013
0.012563132 -0.025013013 -0.0078756455 0.036451746 0.010179026 -0.045700964 -0.017450737 -0.020272447
0.11523037 0.00357672 0.05773274 0.025664123 0.10414624 0.025927762 0.025382206 -0.0028731078
-0.001019698 -0.04450815 -0.06952549 -0.05356355 0.0684589 -0.014298927 0.042575777 0.044682276
-0.051826317 -0.05614631 0.08774609 0.029173693 0.027672477 0.017689766 -0.033642445 -0.079029664
0.0021031995 0.06111911 -0.040539686 -0.011867133 -0.0038926662 -0.056948394 -0.07388401 0.006218156
0.0677666 0.02118686 0.033671718 -0.058838442 0.02876376 -0.04050551 0.047550764 0.045566637
0.023254365 0.03467762 -0.044252425 -0.105873406 -0.08286799 -0.047420263 -0.05900268 -0.052522056
0.053077072 -0.0045250785 -0.074596986 0.025103686 -0.012029388 -0.029379578 -0.009616902 -0.079145975
-0.03399128 -0.058200955 -0.07430068 0.028429689 0.029959887 -0.011907764 -0.0379683 0.007948577
0.056687858 -0.06353175 -0.08050309 0.025002655 -0.086403675 -0.02052546 0.016123252 0.037635278
-0.048733722 -0.010193615 -0.07310187 0.08237101 0.007565152 -0.013944037 -0.012662289 -0.00066520425
-0.06590828 0.039503966 0.07401112 0.042507946 0.08277496 -0.10135033 -0.024900556 -0.03644003
-0.011265492 -0.049230404 -0.04273392 -0.0475235 -0.07584477 0.05748704 -0.033480145 -0.007984395
0.065838456 0.020863594 -0.061843973 0.087395996 0.054137863 -0.047930032 0.06416898 0.047003277
-0.06670658 -0.05074232 -0.08770904 -0.11390677 -0.07980674 -0.04004266 -0.018620068 -0.06693578
-0.025324881 -0.10078296 -0.022349896 -0.020631509 -0.0131950965 -0.020709751 -0.031638373 -0.02123205
0.041635014 -0.08963964 -0.012922035 0.0069453386 -0.01332683 -0.07166933 -0.045643173 -0.06412696
-0.027332315 -0.07543826 -0.04122669 -0.08138826 0.03296658 -0.042282525 -0.096202776 -0.028641498
0.024570012 0.017831791 -0.05626794 -0.056853518 -0.06751653 -0.044765133 -0.08403403 -0.019794067
0.07051381 -0.017773507 0.058901947 -0.015241345 -0.030846747 0.075440146 0.027206011 0.028427172
00000000: 7d9e a03d cc3f 013e bdc3 06bc ebbc 813d
00000010: 420e 573d 4201 87bc 6ba1 46bd 4873 7c3d
00000020: 0ab3 89bc c0a1 ae3d 9b17 0c3d 8cd8 6e3d
00000030: c82c 433d 6828 ac3d 7570 e23c 8274 abbd
00000040: 88f7 d03d 8b1d f7bc df32 0c3b 88f2 7b3d
00000050: fa81 afbc b5d4 98bd 9a9d 403d e645 863b
00000060: 2b38 5cbd d61e 8b3b 4581 1bbc fa9f fabc
00000070: 934e 69bd eed5 14bc a7ab 5b3d 7ac9 0a3d
00000080: 2a7d 9cbc a05f 0d3d dafe a1bd 889f 913c
00000090: 9ba2 993d 3665 213d 1451 53bd 1874 993c
000000a0: 8b5b 563d 4646 b4bc c73b 8e3c 32d4 773d
000000b0: 313e 573c f7ad 853d 1737 f5bc 36a7 56bc
000000c0: 9c43 873c 3ac2 073c 4ebc a23d 9577 99bd
000000d0: 7e99 86bd 03b0 e2bc e921 77bd 8c44 3d3d
000000e0: 7800 063d 6240 5abd 8e6b f23c 17f2 863b
000000f0: c16c 90bd 42ad a83c b32f 923d 41bd 21bc
00000100: 2eaa 3dbd 78e6 57bb c888 eebc 09b8 643d
00000110: fec0 dbbc b948 26bd 9151 713c 7ca8 5cbd
00000120: d8c7 38bd f954 263d 79a6 adbd ada9 8a3d
00000130: f9dd 933d daff 5abd 6a5d d03c 3934 08bc
00000140: 60ef 3c3d 83fe 53bc ff41 29bc 523a 56bd
00000150: ec61 dbbc 76f5 a73a c1f9 f1bb 7c2a 2b3d
00000160: 44a5 93bb c2ae ad3d f60b 643d c313 b4bc
00000170: c23d 7a3c 44b9 043c 8913 be3c 7cbc f43d
00000180: 98d5 4d3c 17e8 ccbc da08 01bc 6d4e 153d
00000190: eec5 263c ef30 3bbd d9f4 8ebc 6712 a6bc
000001a0: e6fd eb3d 6767 6a3b 2a79 6c3d 913d d23c
000001b0: a04a d53d 7566 d43c 58ee cf3c c04a 3cbb
000001c0: 63a7 85ba 2e4e 36bd 6163 8ebd 7465 5bbd
000001d0: 2e34 8c3d 0c46 6abc f063 2e3d c304 373d
000001e0: d547 54bd acf9 65bd 39b4 b33d abfd ee3c
000001f0: 64b1 e23c 21ea 903c a9cc 09bd 4eda a1bd
00000200: d5d5 093b 0858 7a3d f10c 26bd 5d6e 42bc
00000210: 1a1c 7fbb b842 69bd 8050 97bd acc1 cb3b
00000220: 37c9 8a3d 1190 ad3c 5beb 093d 9400 71bd
00000230: faa1 eb3c 1be9 25bd 97c4 423d 15a4 3a3d
00000240: f07f be3c 1f0a 0e3d 0842 35bd 28d4 d8bd
00000250: b1b6 a9bd c03b 42bd cbac 71bd 5e21 57bd
00000260: 5867 593d 1c47 94bb 4ec6 98bd 3fa6 cd3c
00000270: e916 45bc 71ad f0bc 3690 1dbc 4917 a2bd
00000280: 713a 0bbd 2064 6ebd f42a 98bd 61e5 e83c
00000290: 706e f53c c818 43bc a684 1bbd c03a 023c
000002a0: 8731 683d ef1c 82bd cede a4bd 5ed2 cc3c
000002b0: 69f4 b0bd 0225 a8bc e914 843c 7327 1a3d
000002c0: 039d 47bd 1f03 27bc 6fb6 95bd 22b2 a83d
000002d0: 18e5 f73b 8875 64bc 7d75 4fbc 1a61 2eba
000002e0: ecfa 86bd e9ce 213d 2493 973d d01c 2e3d
000002f0: eb85 a93d c390 cfbd 40fc cbbc 2442 15bd
00000300: e692 38bc d2a5 49bd c309 2fbd 00a8 42bd
00000310: 8154 9bbd 8877 6b3d 7a22 09bd fbd0 02bc
00000320: 50d6 863d 21ea aa3c 1b50 7dbd acfc b23d
00000330: aabf 5d3d 4852 44bd 076b 833d 8286 403d
00000340: 769d 88bd 2ed7 4fbd cca0 b3bd f447 e9bd
00000350: b771 a3bd c603 24bd 1d89 98bc a015 89bd
00000360: 2076 cfbc 4c67 cebd 2117 b7bc 6903 a9bc
00000370: 3f30 58bc 7fa7 a9bc 3d97 01bd d6ee adbc
00000380: 7a89 2a3d fd94 b7bd f1b6 53bc b995 e33b
00000390: c758 5abc 5fc7 92bd 56f4 3abd ff54 83bd
000003a0: 05e8 dfbc 607f 9abd 51dd 28bd e3ae a6bd
000003b0: f707 073d 7130 2dbd f605 c5bd 93a1 eabc
000003c0: 0d47 c93c fa13 923c 3679 66bd 3cdf 68bd
000003d0: 1b46 8abd a55b 37bd 091a acbd 2b27 a2bc
000003e0: 8b69 903d bf99 91bc 2b43 713d d6b6 79bc
000003f0: 51b2 fcbc 5d80 9a3d 24df de3c 1ae0 e83c

layer4.0.bias f4 [32]
0.030219415 0.01783612 0.0053808284 -0.048222218 0.01605194 -0.006492096 -0.034835856 0.027677836
0.038346756 -0.044354957 -0.017195001 0.03233931 0.0047656544 -0.007444123 -0.048600633 0.049871683
-0.047156148 -0.016763737 -0.023761377 -0.008005199 0.063441224 -0.07481939 0.06303348 -0.014708677
-0.0016767689 0.032332733 0.0621361 -0.07289741 0.082034126 0.07677817 -0.040013958 -0.042639017
00000000: b58e f73c 0e1d 923c a951 b03b a984 45bd
00000010: 5c7f 833c a6bb d4bb 0bb0 0ebd a1bc e23c
00000020: 7d11 1d3d 8bad 35bd 88dc 8cbc 3976 043d
00000030: 3529 9c3b d4ed f3bb 7511 47bd 4046 4c3d
00000040: ce26 41bd 1b54 89bc 38a7 c2bc 3d28 03bc
00000050: 79ed 813d e93a 99bd b217 813d aafc 70bc
00000060: 07c7 dbba 546f 043d 6c82 7e3d 3d4b 95bd
00000070: 8201 a83d e03d 9d3d ade5 23bd 40a6 2ebd

layer4.1.weight f4 [32]
1.0506836 1.0655973 1.083721 1.0821724 1.0869488 1.0686362 1.0849471 1.0717143
1.0715505 1.0772324 1.0890242 1.0710669 1.0800309 1.0921094 1.0436376 1.0900713
1.075035 1.0819088 1.0985894 1.0739939 1.0767901 1.08574 1.0706091 1.1099899
1.043939 1.1014355 1.0908804 1.0918567 1.0827305 1.1047752 1.0923275 1.0794101
00000000: cd7c 863f 7e65 883f 5fb7 8a3f a084 8a3f
00000010: 2321 8b3f 12c9 883f 8cdf 8a3f ef2d 893f
00000020: 9128 893f c0e2 893f 2565 8b3f b818 893f
00000030: 743e 8a3f 3eca 8b3f eb95 853f 7587 8b3f
00000040: bf9a 893f fd7b 8a3f 949e 8c3f a278 893f
00000050: 42d4 893f 87f9 8a3f b809 893f 2614 8e3f
00000060: cb9f 853f d7fb 8c3f f8a1 8b3f f6c1 8b3f
00000070: ea96 8a3f 4669 8d3f 63d1 8b3f 1c2a 8a3f

layer4.1.bias f4 [32]
0.07361496 0.07196912 0.085535556 0.048834886 0.08542879 0.06637064 0.07260884 0.044054527
0.078980826 0.057471313 0.054977827 0.044422217 0.055797 0.07857056 0.028714048 0.08330573
0.05917571 0.051748563 0.08052377 0.047181148 0.035252653 0.08756545 0.07084068 0.090052195
0.049819384 0.07874857 0.085194305 0.07057069 0.048904754 0.09702278 0.08952455 0.0819992
00000000: 71c3 963d 8c64 933d 442d af3d 1707 483d
00000010: 4af5 ae3d 55ed 873d f2b3 943d 8572 343d
00000020: b3c0 a13d 0a67 6b3d 6e30 613d 12f4 353d
00000030: 658b 643d 9ae9 a03d b939 eb3c 329c aa3d
00000040: 3b62 723d 4df6 533d a5e9 a43d 0541 413d
00000050: 1665 103d 8455 b33d eb14 913d 496d b83d
00000060: 690f 4c3d ee46 a13d 5a7a ae3d 5e87 903d
00000070: 5a50 483d e1b3 c63d a658 b73d 32ef a73d

layer4.1.running_mean f4 [32]
0.58876824 -1.3914226 -1.49219 0.36816284 -0.9840762 -0.81713706 0.6302299 0.2823005
-0.35404134 0.4112069 0.47177476 0.5343779 0.45249304 -0.33416355 0.44566593 0.36648238
0.62049234 0.44224054 -0.42390472 0.38582176 0.55784255 -0.9530911 -0.14734778 0.3180116
-0.4942856 0.4530499 -1.6441281 0.043579448 0.63759017 0.76387924 0.54276854 -1.5305954
00000000: 84b9 163f 231a b2bf 1500 bfbf d77f bc3e
00000010: 6bec 7bbf e52f 51bf bf56 213f b189 903e
00000020: e844 b5be b689 d23e 768c f13e fdcc 083f
00000030: 2bad e73e 7c17 abbe 532e e43e 94a3 bb3e
00000040: 96d8 1e3f 5a6d e23e 0a0a d9be 6e8a c53e
00000050: c5ce 0e3f c7fd 73bf 56e2 16be 6bd2 a23e
00000060: 0113 fdbe 28f6 e73e ca72 d2bf 5d80 323d
00000070: 1c39 233f 978d 433f e1f2 0a3f 8dea c3bf

layer4.1.running_var f4 [32]
0.7861263 1.8769273 2.060089 1.603796 1.6482259 1.6258171 1.0727922 0.9097638
1.3018069 0.7934282 1.1675144 0.9976 0.78376573 1.1574086 0.9190254 0.88386357
1.4695683 1.1077124 1.4196342 1.8883301 0.77251196 1.8898488 1.2191969 1.1003697
1.2542304 1.7010044 2.0438612 1.1367912 1.7745439 1.2332009 1.6542886 1.8725336
00000000: 933f 493f 273f f03f 80d8 0340 3049 cd3f
00000010: 11f9 d23f c61a d03f 4151 893f 48e6 683f
00000020: 9ca1 a63f 1c1e 4b3f 1d71 953f b762 7f3f
00000030: dfa4 483f f725 943f 4045 6b3f e244 623f
00000040: d01a bc3f 85c9 8d3f 93b6 b53f cdb4 f13f
00000050: 58c3 453f 91e6 f13f a50e 9c3f ead8 8c3f
00000060: 9f8a a03f 83ba d93f 9fce 0240 6082 913f
00000070: 4124 e33f 87d9 9d3f bbbf d33f 2eaf ef3f

fc.weight f4 [1, 1152]
-0.0018478101 0.0041721268 -0.0017976508 0.028818095 -0.01453985 0.019589793 -0.037344355 -0.011756297
0.013226999 0.010805747 -0.0038476824 0.013568681 -0.005164552 0.03481462 0.09894852 0.030366918
-0.00696419 -0.01971561 -0.028711163 0.022910254 0.03487403 0.014558256 -0.009721338 0.008762362
-0.012081705 -0.0004442669 0.05626905 0.041066263 0.03368119 0.05312072 0.009241415 -0.016598465
0.009289876 0.037292413 0.010706021 -0.042868357 -0.0024172459 0.02728809 -0.033034664 -0.0005571579
0.014176507 -7.272034e-05 -0.016407335 0.016786166 -0.044517085 -0.023368495 -0.00463617 -0.0010131838
-0.010262305 0.05068699 -0.038207427 -0.079339124 -0.075736955 -0.01851393 -0.010699247 0.03534795
-0.028345238 -0.084611125 -0.063730724 0.0027058544 0.0022256582 0.012839979 -0.012962243 -0.033782568
-0.02347697 0.0034848775 -0.0054186927 -0.0028751194 -0.016404249 0.0027278871 0.0024269535 0.014465209
0.006704636 -0.0022051323 -0.027222646 -0.037599657 0.003948958 -0.025503293 -0.040563103 -0.022253236
-0.08241541 -0.057097737 -0.011456576 -0.023696316 -0.009858214 -0.042099513 -0.085348725 -0.07724765
-0.025671883 -0.026192082 -0.02562783 -0.057997517 -0.10803141 -0.072174236 -0.025335193 -0.022483062
-0.01548785 -0.023747837 -0.07319807 -0.081800535 -0.054438442 -0.031990774 -0.010764246 -0.006905832
-0.043508932 -0.027271263 -0.019333608 0.0029067162 0.00017541798 0.029373918 0.023977036 0.03812468
0.022942374 -0.026416032 0.0007866233 0.047592845 0.054989412 0.034398537 0.020697262 0.005598554
0.0497606 0.04321403 0.099185795 0.06556035 0.042184457 0.030580172 0.037704535 0.06730571
0.060611155 0.05920127 0.082390845 0.05060456 -0.008160907 0.0032661273 0.0059641777 0.03255271
0.032500234 -0.01991881 -0.013068686 0.023200912 0.027461182 0.023981936 -0.0065170396 -0.029144429
0.042266477 0.011618231 -0.009959662 0.0112726195 -0.003873739 -0.020096015 0.033972923 -0.03952405
-0.06386739 -0.014650772 0.043492973 -0.0044874535 0.01260632 -0.06577106 -0.10386421 -0.06017521
-0.042816747 -0.011382817 0.015069819 -0.055238392 -0.071672365 -0.064373344 -0.038299967 -0.050699335
0.012406659 0.010356294 -0.015415613 -0.041407086 -0.04698671 -0.03519263 -0.021104513 0.012263271
-0.027700936 0.0064239893 0.0116171185 -0.0032593645 -0.018067824 0.00144533 -0.016560076 -0.0043443874
0.005123103 -0.023420515 -0.038284123 -0.06325231 -0.109375015 -0.02885271 -0.0141811315 -0.033508256
-0.012955509 -0.02202604 -0.08950117 -0.004280012 -0.04715986 -0.043531045 0.0072637186 -0.03921491
-0.09323302 -0.010209623 0.009696125 0.0032897007 -0.002577956 -0.04860553 -0.0586145 -0.048796806
-0.033593304 -0.02591119 -0.012465866 -0.024149092 -0.048262216 -0.020349344 -0.03917377 -0.0036949134
0.0009944782 -0.01344884 0.024675012 0.0011651075 -0.02052377 -0.0053205173 -0.011134228 0.019797167
-0.017221985 -0.018939247 0.024593806 -0.013186306 0.016712012 0.028809858 -7.466186e-05 -0.015281338
-0.024991816 -0.012105209 -0.008896104 0.052776583 0.13277479 0.07103473 -0.03285762 0.0029948666
0.011417305 -0.014918114 -0.012987796 -0.008462354 0.018768815 0.037478082 -0.01641224 -0.016289694
0.014895045 -0.038729582 -0.019282235 0.006087376 0.0034986807 -0.015013063 -0.023320343 -0.027341295
00000000: 3832 f2ba 56b6 883b 279f ebba ed13 ec3c
00000010: 8d38 6ebc c67a a03c 65f6 18bd 7c9d 40bc
00000020: 0eb6 583c 960a 313c 6629 7cbb 2c4f 5e3c
00000030: 673b a9bb c699 0e3d 86a5 ca3d 0bc4 f83c
00000040: dc33 e4bb a282 a1bc ac33 ebbc 49ae bb3c
00000050: 12d8 0e3d c085 6e3c 3f46 1fbc 0390 0f3c
00000060: 58f2 45bc 7eec e8b9 607a 663d 1935 283d
00000070: 4af5 093d 1d95 593d 4e69 173c 81f9 87bc
00000080: 9034 183c eebf 183d 4f68 2f3c bb96 2fbd
00000090: a86a 1ebb 468b df3c 5b4f 07bd 3c0e 12ba
000000a0: 9444 683c 6f81 98b8 ad68 86bc 2483 893c
000000b0: 8c57 36bd 496f bfbc 03eb 97bb cfcc 84ba
000000c0: 3a23 28bc 299d 4f3d 647f 1cbd 8d7c a2bd
000000d0: fa1b 9bbd 86aa 97bc e54b 2fbc 03c9 103d
000000e0: 4634 e8bc 9948 adbd 4185 82bd b454 313b
000000f0: 59dc 113b c65e 523c 965f 54bc 975f 0abd
00000100: c652 c0bc 8b62 643b 4a8f b1bb 806c 3cbb
00000110: 3462 86bc 5ac6 323b 860d 1f3b 7cff 6c3c
00000120: 90b2 db3b fb83 10bb 0702 dfbc 1902 1abd
00000130: 4366 813b 48ec d0bc 7f25 26bd 6b4c b6bc
00000140: 69c9 a8bd 51df 69bd 5db4 3bbc c71e c2bc
00000150: 5984 21bc 8a70 2cbd 50cb aebd 0434 9ebd
00000160: d74d d2bc c790 d6bc 74f1 d1bc ce8e 6dbd
00000170: 923f ddbd 16d0 93bd c08b cfbc 662e b8bc
00000180: c0c0 7dbc d38a c2bc dfe8 95bd 0a87 a7bd
00000190: d8fa 5ebd c208 03bd 855c 30bc 514a e2bb
000001a0: 6c36 32bd fc67 dfbc 8461 9ebc 9b7e 3e3b
000001b0: 68f0 3739 92a1 f03c 7d6b c43c a028 1c3d
000001c0: a5f1 bb3c 6f66 d8bc 6535 4e3a b7f0 423d
000001d0: 943c 613d 7be5 0c3d 4e8d a93c 1374 b73b
000001e0: c5d1 4b3d 3201 313d ec21 cb3d 8144 863d
000001f0: 9cc9 2c3d 4583 fa3c 1270 1a3d 93d7 893d
00000200: 6743 783d 087d 723d 88bc a83d ba46 4f3d
00000210: 53b5 05bc 860c 563b 266f c33b fe55 053d
00000220: f71e 053d c62c a3bc 0b1e 56bc d70f be3c
00000230: 46f6 e03c c475 c43c e48c d5bb 4cc0 eebc
00000240: 9d1f 2d3d 655a 3e3c da2d 23bc cbb0 383c
00000250: 8ede 7dbb 66a0 a4bc 3127 0b3d f8e3 21bd
00000260: e8cc 82bd cb09 70bc b025 323d 7d0b 93bb
00000270: bd8a 4e3c fab2 86bd c2b6 d4bd 487a 76bd
00000280: 9d60 2fbd ff7e 3abc 67e7 763c a741 62bd
00000290: f6c8 92bd 2cd6 83bd 6de0 1cbd 1baa 4fbd
000002a0: 4d45 4b3c 72ad 293c c491 7cbc 7a9a 29bd
000002b0: 2375 40bd 2626 10bd 5fe3 acbc e3eb 483c
000002c0: 13ed e2bc 5480 d23b ba55 3e3c 109b 55bb
000002d0: f902 94bc 3a71 bd3a ffa8 87bc 5d5b 8ebb
000002e0: b4df a73b 61dc bfbc d0cf 1cbd 6d8a 81bd
000002f0: 0200 e0bd 855c ecbc fa57 68bc f43f 09bd
00000300: 5843 54bc f46f b4bc 644c b7bd 583f 8cbb
00000310: b32a 41bd 9c4d 32bd 7d04 ee3b d09f 20bd
00000320: f4f0 bebd 4346 27bc 7fdc 1e3c 0598 573b
00000330: edf2 28bb 9816 47bd c215 70bd 29df 47bd
00000340: 2299 09bd b443 d4bc a23d 4cbc 51d4 c5bc
00000350: 9aae 45bd abb3 a6bc ad74 20bd 5c26 72bb
00000360: 2759 823a 8658 5cbc 4023 ca3c 85b6 983a
00000370: 7721 a8bc bc57 aebb 566c 36bc ab2d a23c
00000380: 1f15 8dbc 7b26 9bbc f378 c93c 600b 58bc
00000390: a1e7 883c a702 ec3c c893 9cb8 945e 7abc
000003a0: a3bb ccbc ed54 46bc f7c0 11bc 422c 583d
000003b0: 1df6 073e a87a 913d b695 06bd 8645 443b
000003c0: a60f 3b3c 1b6b 74bc c4ca 54bc afa5 0abc
000003d0: 0fc1 993c 9e82 193d f672 86bc f771 85bc
000003e0: 590a 743c e9a2 1ebd c7f5 9dbc 9c78 c73b
000003f0: 1f4a 653b 5af9 75bc 4e0a bfbc dafa dfbc
