data/chkbox_models/chkbox_rnd9_1_bestVal.pt (torch_old, 35085 bytes, 25 tensors)

layer1.0.weight f4 [4, 1, 3, 3]
0.100255296 0.14529729 0.19909413 0.1463121 0.19959791 0.1820191 -0.21681982 -0.07011573
0.1554835 -0.18304515 0.3141237 -0.26232147 0.011988263 -0.30527577 -0.26801673 0.22890794
0.33000532 -0.2491189 -0.20283785 -0.085208744 0.29979858 0.23151791 0.34247515 0.34486216
0.2557256 0.29446238 -0.017925728 -0.34240136 -0.1744553 -0.2748501 0.09302328 0.011690358
-0.19121568 0.119521685 0.20674784 -0.1819259
00000000: a652 cd3d d0c8 143e 55df 4b3e d7d2 153e
00000010: 6563 4c3e 3763 3a3e 0406 5ebe d698 8fbd
00000020: 1137 1f3e 3070 3bbe d2d4 a03e 004f 86be
00000030: 6b6a 443c 1b4d 9cbe 7d39 89be d866 6a3e
00000040: 75f6 a83e 0619 7fbe bab4 4fbe ec81 aebd
00000050: 337f 993e 0813 6d3e e758 af3e c691 b03e
00000060: 77ee 823e c6c3 963e fad8 92bc 3b4f afbe
00000070: 69a4 32be 27b9 8cbe fd82 be3d ea88 3f3c
00000080: 0bce 43be c9c7 f43d b5b5 533e c84a 3abe

layer1.0.bias f4 [4]
-0.0007436972 0.027955981 0.037428137 0.3281945
00000000: adf4 42ba f103 e53c 3f4e 193d 1c09 a83e

layer1.1.weight f4 [4]
1.0479584 0.9334865 1.0530114 0.9740114
00000000: 8023 863f f9f8 6e3f 14c9 863f d058 793f

layer1.1.bias f4 [4]
0.009232899 0.016931029 -0.0085815145 0.027747564
00000000: 9645 173c f1b2 8a3c 7b99 0cbc dc4e e33c

layer1.1.running_mean f4 [4]
0.802442 -0.33766362 1.4359573 -0.3671788
00000000: d76c 4d3f 3fe2 acbe 73cd b73f dcfe bbbe

layer1.1.running_var f4 [4]
0.7374927 0.22903496 2.1438653 0.5886722
00000000: 52cc 3c3f 2488 6a3e 1735 0940 39b3 163f

layer2.0.weight f4 [8, 4, 3, 3]
-0.14048426 -0.17933802 -0.031358935 0.047789678 -0.031244757 -0.16675554 0.028664965 -0.08422074
0.010020208 0.06276062 0.015968572 0.17316616 -0.086619616 0.119333394 0.026213463 0.038363356
0.026162563 0.015433569 0.10015768 0.12945643 0.018311357 0.06148153 -0.11012863 -0.10300603
0.20606999 0.13759133 0.020058043 -0.015554414 0.01382886 -0.10850778 -0.10306171 0.15005714
0.004938502 0.095716365 0.036659673 -0.03276631 -0.16118804 -0.15363494 -0.06505716 -0.11728542
-0.025224492 0.026631508 -0.10565352 0.030375395 0.1713422 0.0858328 -0.078696735 -0.06365831
0.08395316 0.00033145255 -0.10204981 0.031057997 -0.09327721 -0.12087489 -0.15812288 -0.028087363
-0.16847107 0.17584744 0.13812831 -0.13098864 0.07180094 -0.1224014 -0.065073304 0.11471777
0.048511233 0.06390311 -0.047240973 0.097832255 0.078677505 0.096327305 0.11269095 0.066876784
0.076369114 -0.056955397 -0.1544229 -0.080486596 -0.05167765 -0.07009448 0.020393148 -0.019140264
-0.081551366 -0.057474602 0.0211702 0.094986066 0.0155054815 -0.041604884 -0.022480264 -0.1100137
0.087094 0.049911708 -0.12561005 0.118587784 0.0886759 0.09549984 -0.17945231 0.0758575
-0.20210706 0.13034996 0.1532945 -0.13620944 0.035430156 0.08089326 -0.08333957 0.07372659
-0.09061847 -0.044321973 0.0795818 -0.08001879 0.11106814 0.12870407 -0.038835812 0.12858714
-0.005780804 0.12022271 0.08690703 -0.0031826755 0.057168994 -0.05849489 -0.21270245 0.109605685
-0.098398775 -0.009858044 -0.09943021 0.102379926 -0.079830386 0.10944551 0.056671377 0.13239105
-0.08686625 0.08890029 0.04396076 -0.16371933 -0.16319859 -0.11486104 0.15559922 -0.033768047
-0.0070174085 0.12217755 0.043138634 0.035730887 -0.008012149 -0.068498686 0.039813403 -0.0542662
0.036565922 0.06738444 0.07299852 -0.016376648 0.012010052 -0.10524831 0.057471965 -0.069394775
-0.119656734 0.11746461 -0.10838131 0.0638097 0.009672004 -0.033559006 0.03225682 -0.15554088
-0.14025651 -0.06692003 0.030456735 0.10134993 -0.02086335 -0.04328847 0.21157439 0.09565294
-0.029694788 0.07767501 0.1908156 0.033240624 -0.07763728 -0.05180106 0.00040709274 -0.058745876
0.068849206 0.027950408 -0.18461569 0.09610063 -0.038093615 -0.19475684 0.16317147 0.03847547
0.10694424 -0.08202268 -0.107327685 0.16787364 0.037350655 -0.069798484 -0.0015403144 0.017904527
-0.12199833 -0.059367653 -0.12226657 -0.06789637 -0.14028242 -0.09222531 0.11381867 -0.10965545
0.061670948 0.10583176 -0.095309384 -0.063222356 0.11792729 0.098763384 0.023617903 -0.043414496
0.13773254 -0.09618708 0.003126408 0.1629365 0.2067798 0.096053556 -0.108375706 -0.07292281
0.051600296 -0.0414254 0.1001114 -0.12465666 0.01518552 0.044511985 0.12026145 -0.14295222
-0.03414135 0.07528503 0.10156983 -0.14537317 0.05571422 -0.11469363 0.052176602 0.021500248
0.102928266 0.0132493675 -0.15450402 -0.17739995 -0.04223307 -0.018508358 -0.094456896 -0.028289607
0.14184672 0.12279629 0.098344356 -0.048063997 -0.10881991 0.031744987 0.14363687 0.07048306
-0.14574036 -0.02606626 -0.08746492 -0.16508022 -0.07607042 -0.11086371 -0.0152342385 -0.06992486
00000000: 1bdb 0fbe 63a4 37be 3a72 00bd 1cbf 433d
00000010: 01f5 ffbc f7c1 2abe cad2 ea3c ec7b acbd
00000020: cc2b 243c a488 803d 86d0 823c 7852 313e
00000030: a065 b1bd 1165 f43d 9ebd d63c e522 1d3d
00000040: df52 d63c 15dd 7c3c 781f cd3d 3a90 043e
00000050: b301 963c 0fd4 7b3d 1f8b e1bd d3f4 d2bd
00000060: 0304 533e bee4 0c3e c450 a43c f1d7 7ebc
00000070: 7192 623c 5439 debd 0512 d3bd 94a8 193e
00000080: 28d3 a13b f106 c43d 7428 163d f735 06bd
00000090: 7a0e 25be 7a52 1dbe b03c 85bd 5733 f0bd
000000a0: 98a3 cebc 522a da3c df60 d8bd d2d5 f83c
000000b0: 5474 2f3e 1bc9 af3d c12b a1bd 4a5f 82bd
000000c0: a2ef ab3d cfc6 ad39 7eff d0bd 576d fe3c
000000d0: 1f08 bfbd 418d f7bd f7ea 21be 7817 e6bc
000000e0: ae83 2cbe 5a11 343e 8271 0d3e e321 06be
000000f0: 5f0c 933d 96ad fabd 2745 85bd 26f1 ea3d
00000100: b7b3 463d a2df 823d c07f 41bd 475c c83d
00000110: ac21 a13d 4047 c53d 83ca e63d b2f6 883d
00000120: 6967 9c3d 104a 69bd 0921 1ebe 28d6 a4bd
00000130: f2ab 53bd b28d 8fbd 880f a73c 0bcc 9cbc
00000140: 6704 a7bd 7d6a 6bbd 216d ad3c 0e88 c23d
00000150: b40a 7e3c e269 2abd 8828 b8bc dd4e e1bd
00000160: 575e b23d 3870 4c3d ec9f 00be 27de f23d
00000170: b69b b53d 6c95 c33d 59c2 37be 2d5b 9b3d
00000180: 27f5 4ebe 767a 053e 3cf9 1c3e 7d7a 0bbe
00000190: 361f 113d 5eab a53d f0ad aabd f7fd 963d
000001a0: 2d96 b9bd f58a 35bd c8fb a23d e4e0 a3bd
000001b0: b177 e33d 00cb 033e 4d12 1fbd 59ac 033e
000001c0: e66c bdbb 5337 f63d 50fc b13d 6f94 50bb
000001d0: 092a 6a3d 5698 6fbd acce 59be f278 e03d
000001e0: 4c85 c9bd a283 21bc 11a2 cbbd 91ac d13d
000001f0: 1d7e a3bd f824 e03d 3f20 683d 8591 073e
00000200: efe6 b1bd 5b11 b63d 3310 343d 0aa6 27be
00000210: 881d 27be 443c ebbd 6755 1f3e 5d50 0abd
00000220: 4af2 e5bb 3938 fa3d 23b2 303d 8d5a 123d
00000230: 6345 03bc 0a49 8cbd 6113 233d 3c46 5ebd
00000240: 26c6 153d da00 8a3d 4080 953d 5228 86bc
00000250: cfc5 443c 6d8c d7bd b967 6b3d d91e 8ebd
00000260: 970e f5bd 4991 f03d 05f7 ddbd a9ae 823d
00000270: 5377 1e3c 2b75 09bd ba1f 043d 1c46 1fbe
00000280: 679f 0fbe 5e0d 89bd 6780 f93c 8d90 cf3d
00000290: 9ee9 aabc 404f 31bd f5a6 583e b0e5 c33d
000002a0: 7c42 f3bc 1314 9f3d 2a65 433e 5227 083d
000002b0: 4b00 9fbd 592d 54bd 106f d539 849f 70bd
000002c0: d000 8d3d 41f8 e43c e50b 3dbe 68d0 c43d
000002d0: 0d08 1cbd 566e 47be 6c16 273e 7498 1d3d
000002e0: 9505 db3d 82fb a7bd 9ece dbbd 11e7 2b3e
000002f0: 00fd 183d 82f2 8ebd 60e4 c9ba 84ac 923c
00000300: 43da f9bd 7f2b 73bd e566 fabd 410d 8bbd
00000310: 32a6 0fbe a0e0 bcbd c319 e93d 0993 e0bd
00000320: ad9a 7c3d 52be d83d 9131 c3bd b97a 81bd
00000330: dd83 f13d 7544 ca3d 557a c13c 66d3 31bd
00000340: c209 0d3e bbfd c4bd 6ce4 4c3b d3d8 263e
00000350: 15be 533e bab7 c43d 15f4 ddbd 8e58 95bd
00000360: d55a 533d aead 29bd 3507 cd3d fe4b ffbd
00000370: b0cc 783c 3352 363d a34b f63d 1162 12be
00000380: cdd7 0bbd 0a2f 9a3d d803 d03d b4dc 14be
00000390: 9834 643d 7ee4 eabd 22b7 553d 4a21 b03c
000003a0: 0ecc d23d e013 593c 4d36 1ebe 55a8 35be
000003b0: 95fc 2cbd d79e 97bc 9e72 c1bd 9bbf e7bc
000003c0: 4440 113e 9f7c fb3d c468 c93d c1de 44bd
000003d0: f9dc debd 0807 023d 8b15 133e 6c59 903d
000003e0: f63c 15be e988 d5bc cf20 b3bd ca0a 29be
000003f0: cfca 9bbd 830c e3bd 0799 79bc c434 8fbd

layer2.0.bias f4 [8]
-0.071924835 0.093919024 -0.06877047 -0.099134244 0.06235897 0.13309982 -0.06431995 0.026928162
00000000: 544d 93bd 9e58 c03d 88d7 8cbd e506 cbbd
00000010: 1f6c 7f3d 524b 083e 2eba 83bd 7398 dc3c

layer2.1.weight f4 [8]
0.9613557 1.0096681 1.0003599 1.0040119 1.0125945 1.0265411 0.93022186 1.0180472
00000000: 681b 763f ce3c 813f cb0b 803f 7683 803f
00000010: b29c 813f b365 833f 0523 6e3f 5f4f 823f

layer2.1.bias f4 [8]
0.008508549 0.048312616 0.030101325 0.096396856 0.02738374 -0.013692631 -0.031220948 -0.03330704
00000000: 7167 0b3c 73e3 453d 0e97 f63c b76b c53d
00000010: dd53 e03c 0f57 60bc 13c3 ffbc f66c 08bd

layer2.1.running_mean f4 [8]
0.089495465 -0.10683898 -0.25833854 0.09917715 0.13883336 0.14110501 -0.22777684 -0.19480234
00000000: 6649 b73d 65ce dabd f344 84be 641d cb3d
00000010: 552a 0e3e d57d 103e 553e 69be 447a 47be

layer2.1.running_var f4 [8]
0.16049029 0.42894742 0.038896866 0.22661333 0.28360337 0.1265674 0.086947545 0.09703034
00000000: 9157 243e ff9e db3e 5252 1f3d 530d 683e
00000010: 7634 913e e29a 013e 8e11 b23d d8b7 c63d

layer3.0.weight f4 [16, 8, 3, 3]
-0.05267841 -0.10373462 0.06310329 0.06533045 0.011526307 -0.12332944 -0.11660353 0.02055
0.040251672 -0.061791044 0.050373435 0.0892756 0.034997646 0.042047113 -0.05774933 0.025745835
-0.067947574 0.05633108 0.00079216924 -0.066888176 0.049681954 -0.023302363 0.12424431 0.01833753
0.08318791 0.054475762 -0.041055255 -0.14705017 -0.004857134 0.08868241 0.061732642 -0.0797909
-0.06044993 0.09836266 -0.06099752 0.007240815 -0.011965109 0.00055561576 0.058549084 0.07083084
0.054235987 -0.10810668 -0.1405077 0.031221844 0.053416565 0.06279086 -0.06273404 0.102807
0.019979555 0.081089884 0.0029955162 0.016334524 0.09415331 0.0599433 0.024612097 0.074853025
-0.11275485 -0.112201296 -0.036838934 0.06282909 0.055940963 -0.02330048 -0.04203197 0.010144768
-0.08271075 -0.0152238645 -0.055668358 -0.092207454 0.04158319 -0.017156031 -0.060105234 -0.047672465
0.033379477 -0.0045313663 0.010563309 -0.04829834 0.0037035635 -0.09500686 0.04202795 0.06316234
-0.081737414 0.03980757 -0.067682914 -0.06939758 0.008975325 0.082293935 -0.027766846 0.12431611
0.0170309 -0.047151223 -0.041113194 0.10947811 -0.083554655 0.09724491 0.06532375 0.13000429
0.058745123 0.013852787 0.13164 -0.035259634 -0.07065204 -0.044315394 0.019185457 0.019185018
0.10137014 0.020722969 0.06469178 0.062338702 0.030550467 0.05804207 0.00069821696 -0.033341512
-0.07628126 -0.015743727 -0.040523432 0.11762679 0.019776542 0.09863533 -0.014785866 0.0661697
0.032245006 0.021236626 0.102351226 0.102271214 -0.03217198 0.12168026 0.008414884 -0.06730944
-0.066434756 0.084159784 -0.10157184 -0.051962648 -0.032123916 -0.08359075 -0.045574933 -0.07474891
-0.013067137 -0.05048864 -0.05298174 -0.1382756 -0.022574922 -0.14598301 0.0010520862 0.04073435
0.12852544 -0.0076658474 0.1014486 0.00027958545 -0.08925506 0.048834655 -0.09111705 0.0027583584
0.06868101 -0.01029642 -0.075404964 0.021196205 0.019183327 -0.10683823 -0.0077657895 -0.061920244
-0.10056737 -0.034258 0.09444907 0.1439814 -0.07065054 -0.072451755 -0.07683505 -0.07110241
0.051048152 0.03653856 0.08252506 -0.024957368 0.0066736266 0.035050962 0.051175047 0.07963593
-0.063399754 -0.0028910975 -0.022556216 0.018565804 -0.06666926 0.06174458 -0.04080868 0.024800949
-0.07275946 -0.06295304 -0.013465506 0.05634988 -0.09249887 0.03334882 0.12800002 -0.08809373
0.10234667 0.11441927 0.10876948 -0.040418636 -0.058035553 0.06805646 -0.06588182 -0.02553104
-0.04715213 0.08453203 -0.012610639 0.052913647 0.073921345 -0.055334244 -0.048627686 0.023037754
0.03826866 -0.025403058 -0.021913085 -0.098538995 -0.13946842 -0.08396515 -0.019569732 0.05924942
-0.054309703 0.08044101 0.07666241 0.032474983 0.10981146 -0.07832461 0.037223857 0.027036851
0.002623255 -0.0043595205 -0.046986144 0.10995113 0.0072171474 0.012656791 -0.08416989 -0.08203192
0.048797477 -0.06601696 0.05330787 -0.0977368 -0.09363108 -0.08184024 -0.085743986 -0.051917158
-0.020798966 -0.059007835 -0.034786586 0.03978511 -0.08802226 -0.013412138 -0.09979601 -0.11549331
-0.041796852 -0.00068721187 -0.03376555 0.04032673 0.026095679 0.04205814 -0.096288905 0.10564877
00000000: 51c5 57bd d172 d4bd 4c3c 813d f9cb 853d
00000010: d6d8 3c3c 2594 fcbd d5cd eebd 7958 a83c
00000020: f0de 243d 9b18 7dbd 6054 4e3d 20d6 b63d
00000030: b159 0f3d 9839 2c3d 908a 6cbd eee8 d23c
00000040: 1928 8bbd 6bbb 663d 94a9 4f3a abfc 88bd
00000050: 4e7f 4b3d 99e4 bebc cd73 fe3d 9638 963c
00000060: 6c5e aa3d fa21 5f3d 8e29 28bd 5294 16be
00000070: 9828 9fbb 209f b53d 5edb 7c3d 6969 a3bd
00000080: 599a 77bd 5d72 c93d 89d8 79bd 5c44 ed3b
00000090: 4e09 44bc bea6 113a 2ad1 6f3d c20f 913d
000000a0: 8e26 5e3d 0967 ddbd 40e1 0fbe f4c4 ff3c
000000b0: 54cb 5a3d 7f98 803d b47a 80bd 7a8c d23d
000000c0: 2aac a33c 7412 a63d 6c50 443b fbcf 853c
000000d0: 73d3 c03d 1b87 753d 4f9f c93c 8b4c 993d
000000e0: 04ec e6bd cbc9 e5bd 6ce4 16bd 8aac 803d
000000f0: 5a22 653d a6e0 bebc b729 2cbd 3e36 263c
00000100: 4164 a9bd 846d 79bc 8104 64bd 43d7 bcbd
00000110: 2353 2a3d ce8a 8cbc e830 76bd 3444 43bd
00000120: ebb8 083d db7b 94bb bb11 2d3c 7bd4 45bd
00000130: 7cb7 723b f592 c2bd 8025 2c3d 425b 813d
00000140: f265 a7bd 430d 233d 579d 8abd 5220 8ebd
00000150: 3e0d 133c b989 a83d 4c77 e3bc 7299 fe3d
00000160: 6384 8b3c a421 41bd 4f66 28bd 0f36 e03d
00000170: b41e abbd 5728 c73d 75c8 853d d81f 053e
00000180: ba9e 703d cdf6 623c a3cc 063e 686c 10bd
00000190: 04b2 90bd 0f84 35bd d22a 9d3c e629 9d3c
000001a0: 269b cf3d 37c3 a93c 207d 843d de56 7f3d
000001b0: f944 fa3c 86bd 6d3d 8c08 373a 1c91 08bd
000001c0: 5939 9cbd fdf8 80bc e6fb 25bd 51e6 f03d
000001d0: 6a02 a23c 5201 ca3d 6b40 72bc fb83 873d
000001e0: 5713 043d 6ff8 ad3c 859d d13d 9273 d13d
000001f0: c4c6 03bd 8033 f93d 95de 093c 88d9 89bd
00000200: f20e 88bd f75b ac3d e604 d0bd c9d6 54bd
00000210: 5e94 03bd a131 abbd c8ac 3abd f515 99bd
00000220: 8c17 56bc 2dcd 4ebd 6203 59bd 1e98 0dbe
00000230: 0bef b8bc 927c 15be 28e6 893a 10d9 263d
00000240: 2c9c 033e ca31 fbbb 49c4 cf3d 5395 9239
00000250: 5bcb b6bd d906 483d 939b babd 93c5 343b
00000260: a1a8 8c3d 51b2 28bc eb6d 9abd aaa3 ad3c
00000270: 5a26 9d3c 00ce dabd 2a78 febb 15a0 7dbd
00000280: 44f6 cdbd 1e52 0cbd 846e c13d dc6f 133e
00000290: 3bb1 90bd 9661 94bd b25b 9dbd 249e 91bd
000002a0: de17 513d 75a9 153d e602 a93d 6573 ccbc
000002b0: 70ae da3b 9991 0f3d ed9c 513d 2a18 a33d
000002c0: bbd7 81bd 9178 3dbb d0c7 b8bc 5017 983c
000002d0: e589 88bd e2e7 7c3d 0127 27bd 5c2b cb3c
000002e0: e902 95bd 86ed 80bd 6d9e 5cbc 22cf 663d
000002f0: 0c70 bdbd c698 083d 7012 033e 7c6a b4bd
00000300: 229b d13d a654 ea3d 88c2 de3d 038e 25bd
00000310: b0b6 6dbd 2f61 8b3d 0ced 86bd 7926 d1bc
00000320: 9822 41bd 211f ad3d db9c 4ebc fbbb 583d
00000330: 1364 973d 29a6 62bd d32d 47bd acb9 bc3c
00000340: 99bf 1c3d 131a d0bc 1283 b3bc d0ce c9bd
00000350: cfd0 0ebe ecf5 abbd b450 a0bc 85af 723d
00000360: da73 5ebd 42be a43d 2e01 9d3d 7d04 053d
00000370: d5e4 e03d a768 a0bd 0b78 183d 637c dd3c
00000380: eaea 2b3b 4fda 8ebb 8b74 40bd 0f2e e13d
00000390: d27d ec3b 6e5e 4f3c 4361 acbd 5a00 a8bd
000003a0: dddf 473d e633 87bd 5a59 5a3d 3b2a c8bd
000003b0: a7c1 bfbd db9b a7bd 8b9a afbd 16a7 54bd
000003c0: 9862 aabc 33b2 71bd 617c 0ebd b6f5 223d
000003d0: 0445 b4bd 96be 5bbc da61 ccbd c287 ecbd
000003e0: 2d33 2bbd 0226 34ba bf4d 0abd a42d 253d
000003f0: 9bc6 d53c 2845 2c3d 1e33 c5bd 625e d83d

layer3.0.bias f4 [16]
0.024083633 -0.017271401 -0.030878313 0.08422392 0.0216551 -0.099750586 0.0488908 -0.052641854
-0.03155774 0.0011193635 -0.06269015 0.0017019499 -0.09271837 -0.044401634 -0.05952722 0.008223803
00000000: 0a4b c53c c17c 8dbc 84f4 fcbc 977d ac3d
00000010: 0966 b13c 094a ccbd b841 483d fc9e 57bd
00000020: b042 01bd 9bb7 923a b263 80bd f613 df3a
00000030: 21e3 bdbd 7dde 35bd d0d2 73bd 21bd 063c

layer3.1.weight f4 [16]
1.0346578 0.981773 0.9351044 1.0104171 0.97285885 0.98169214 0.9829101 1.0501881
0.96208835 0.9809932 1.004726 0.97726 1.0549228 0.962613 0.9555626 0.96175814
00000000: ab6f 843f 7a55 7b3f 0163 6f3f 5955 813f
00000010: 470d 793f 2d50 7b3f ff9f 7b3f 906c 863f
00000020: 6c4b 763f 5f22 7b3f dd9a 803f b62d 7a3f
00000030: b607 873f ce6d 763f c09f 743f c835 763f

layer3.1.bias f4 [16]
-0.17856492 -0.13398576 -0.1029925 -0.094394766 -0.073521465 -0.10850298 -0.08865599 -0.1962468
-0.12246581 -0.13433884 -0.0965892 -0.17322086 -0.15141845 -0.053257603 -0.10159525 -0.080873065
00000000: b9d9 36be 9033 09be bbed d2bd 0b52 c1bd
00000010: 6c92 96bd cf36 debd 4691 b5bd ecf4 48be
00000020: 5bcf fabd 1f90 09be 8fd0 c5bd cf60 31be
00000030: 700d 1bbe a524 5abd 2c11 d0bd c7a0 a5bd

layer3.1.running_mean f4 [16]
0.018154077 0.21517569 -0.098935686 -0.6308671 -0.33775753 -0.23671708 -0.3744989 -0.12648673
-0.35040766 0.5820079 -0.29327253 0.031897184 -0.16864131 -0.24070437 -0.51339656 -0.16029267
00000000: dcb7 943c 0457 5c3e cb9e cabd 8280 21bf
00000010: 8eee acbe f665 72be 52be bfbe bd85 01be
00000020: a268 b3be 78fe 143f d127 96be 9fa6 023d
00000030: 4fb0 2cbe 357b 76be f56d 03bf c323 24be

layer3.1.running_var f4 [16]
0.061083782 0.07925638 0.16154578 0.19529258 0.25682238 0.07319553 0.42082626 0.06978092
0.3200608 0.31495932 0.15569188 0.08997347 0.085380495 0.5592646 0.23635252 0.20048645
00000000: fd32 7a3d 2b51 a23d 426c 253e c7fa 473e
00000010: 397e 833e 8ae7 953d 8a76 d73e 4de9 8e3d
00000020: 02df a33e 5942 a13e b16d 1f3e 0344 b83d
00000030: f8db ae3d f72b 0f3f 6506 723e 524c 4d3e

layer4.0.weight f4 [32, 16, 3, 3]
0.023381202 0.03693045 -0.06796942 0.034804463 -0.019279186 -0.046352677 -0.035300057 0.045545083
-0.022941044 -0.009298851 0.009576105 -0.0053510787 -0.051229775 0.027763912 -0.0588257 0.045029424
0.033762723 -0.07076407 0.031807996 -0.02567173 -0.012929301 -0.009026975 0.010637635 -0.040947147
-0.007815515 0.05648464 -0.051312964 0.05292676 0.06095768 -0.03551228 0.023131914 0.02728097
-0.05938933 0.049195368 0.05179962 0.06022344 -0.07038035 -0.050255723 0.10887586 -0.06538417
0.03612594 0.030530017 0.025056899 0.05090337 0.07725035 -0.08706329 -0.0032183724 -0.030831175
0.013361932 0.013764454 -0.04101286 0.022535823 -0.0029838234 -0.089007385 0.07009215 0.043047953
0.04946356 -0.057422835 -0.0008468344 -0.0016398499 0.061407097 -0.00083925156 -0.056451403 -0.010263762
0.07789471 -0.028917652 -0.051049054 -0.018089782 -0.074852526 -0.02663646 0.014397565 -0.0431982
0.064339705 -0.012879697 0.09140148 0.04581978 -0.026261142 0.029604651 0.029741924 -0.05046605
0.0066797687 0.060919102 -0.028865432 -0.041688617 -0.07322997 0.03392053 0.010144925 -0.043200064
0.08911782 0.021842327 -0.0031424812 0.050147563 0.102774784 0.015531184 0.0020117187 0.05209448
0.035015754 0.029246593 -0.034998313 0.07863404 -0.036183987 -0.067967854 -0.018798847 0.045843467
-0.08180452 0.046469655 -0.016274644 -0.021152606 -0.038700927 -0.11157045 -0.004947795 -0.017771116
-0.022259492 -0.015760163 -0.023394588 0.012173024 -0.10069615 0.0021167332 -0.033666544 0.09370866
0.00017219431 -0.030818779 0.020722602 -0.06091778 0.031153217 0.07090871 -0.08065891 -0.0025465935
-0.0047759186 -0.018609984 -0.030175898 0.030670669 0.058716178 0.00836684 0.014109643 0.050669834
0.0054853167 0.07391569 -0.011259753 0.023995472 0.026360175 -0.0038281353 -0.0053415797 0.07012596
-0.003246862 -0.042016726 -0.013209719 -0.0483727 -0.05627286 -0.028734641 -0.11814692 -0.070796214
-0.053029794 -0.032893144 -0.0045624455 -0.046900243 -0.011414057 0.0019015431 0.041639652 -0.037064195
0.01597796 -0.069327384 -0.09204076 -0.0546767 0.044538103 0.024536356 -0.052948426 -0.044186026
0.0067116017 -0.08052881 0.081631444 0.014127134 -0.01186944 0.030566039 -0.09250354 -0.012108709
0.04035331 0.10098984 -0.009109085 0.06855776 0.016080502 0.056623552 0.028485281 -0.0015745915
-0.07311656 -0.068171054 0.08807472 0.0353926 0.06611406 -0.05650057 -0.061711743 0.005224083
-0.1066681 -0.068446346 0.015990566 -0.08199148 -0.040955745 -0.061237287 -0.013945964 -0.07407197
-0.050913304 -0.03214197 -0.01433927 -0.024491126 -0.02525498 0.04443564 -0.0105720395 -0.059361912
-0.041520584 -0.084135234 -0.078362845 0.008972467 0.049555026 -0.1054701 -0.11267583 -0.042820375
-0.05367001 0.05646566 0.018807778 -0.02183523 0.007057198 -0.044351984 -0.043031145 -0.05148651
0.099518195 -0.037559744 0.013021587 0.039804228 -0.08511252 -0.0011184695 -0.04568042 -0.05835266
0.008336859 0.024454433 0.0061391895 -0.008947153 0.033176366 -0.10090047 -0.052026004 -0.028197573
0.013280651 -0.0288464 0.083172746 -0.06397433 0.008706261 -0.018409243 -0.001031353 -0.0779947
0.06570412 -0.10779593 -0.04807377 0.05411434 -0.00317806 -0.12497189 0.0203643 -0.031499494
00000000: ef89 bf3c 6244 173d 8d33 8bbd 208f 0e3d
00000010: 62ef 9dbc 4edc 3dbd cb96 10bd 7b8d 3a3d
00000020: dbee bbbc 355a 18bc 18e5 1c3c 1a58 afbb
00000030: 50d6 51bd 2571 e33c 38f3 70bd c670 383d
00000040: c84a 0a3d c1ec 90bd 1a49 023d 854d d2bc
00000050: 6bd5 53bc e1e5 13bc 7a49 2e3c 32b8 27bd
00000060: a50c 00bc 705c 673d 8b2d 52bd bbc9 583d
00000070: c3ae 793d 5375 11bd 247f bd3c 577c df3c
00000080: 3a42 73bd 1581 493d d72b 543d dbac 763d
00000090: 9323 90bd f2d8 4dbd 4ffa de3d 23e8 85bd
000000a0: cbf8 133d 161a fa3c 2044 cd3c 0d80 503d
000000b0: 6e35 9e3d 3d4e b2bd 54eb 52bb a991 fcbc
000000c0: 01ec 5a3c 4e84 613c 1afd 27bd 0c9d b83c
000000d0: 408c 43bb 8149 b6bd 798c 8f3d 0d53 303d
000000e0: 4d9a 4a3d 3534 6bbd 18fe 5dba 3bf0 d6ba
000000f0: 0286 7b3d 3801 5cba 9639 67bd 5729 28bc
00000100: 4387 9f3d b6e4 ecbc d018 51bd 0631 94bc
00000110: 484c 99bd b534 dabc c4e3 6b3c 99f0 30bd
00000120: 89c4 833d 5d05 53bc b330 bb3d 86ad 3b3d
00000130: 9b21 d7bc 7485 f23c 56a5 f33c 7db5 4ebd
00000140: f6e1 da3b 4f86 793d 3377 ecbc afc1 2abd
00000150: 98f9 95bd 41f0 0a3d e636 263c 8df2 30bd
00000160: 6783 b63d aeee b23c 16f2 4dbb 8867 4d3d
00000170: 967b d23d 8276 7e3c 0ad7 033b 0561 553d
00000180: ae6c 0f3d 8d96 ef3c 645a 0fbd e20a a13d
00000190: a935 14bd bb32 8bbd 0a00 9abc 5cc6 3b3d
000001a0: 2189 a7bd f756 3e3d 6752 85bc 3b48 adbc
000001b0: dd84 1ebd 0c7f e4bd 1d21 a2bb bb94 91bc
000001c0: 8a59 b6bc 751b 81bc 02a6 bfbc 5d71 473c
000001d0: c839 cebd e4b8 0a3b eee5 09bd 53ea bf3d
000001e0: 0f8f 3439 aa77 fcbc 72c2 a93c ec84 79bd
000001f0: 0835 ff3c 9638 913d 8030 a5bd c0e4 26bb
00000200: 4f7f 9cbb f773 98bc 7233 f7bc 0e41 fb3c
00000210: 6080 703d 1215 093c 222c 673c 2c8b 4f3d
00000220: 2cbe b33b 1c61 973d d47a 38bc 2792 c43c
00000230: 4bf1 d73c 74e1 7abb 6b08 afbb 339e 8f3d
00000240: 4ec9 54bb bb19 2cbd 946d 58bc 7422 46bd
00000250: 5f7e 66bd e964 ebbc 03f7 f1bd 9bfd 90bd
00000260: c535 59bd f6ba 06bd 9180 95bb 781a 40bd
00000270: 0602 3bbc 333d f93a 578e 2a3d a0d0 17bd
00000280: 36e4 823c 84fb 8dbd de7f bcbd adf4 5fbd
00000290: 966d 363d 7800 c93c 73e0 58bd 68fc 34bd
000002a0: ffec db3b 4aec a4bd 632e a73d 7f75 673c
000002b0: 0a78 42bc a165 fa3c 7f72 bdbd 9b63 46bc
000002c0: 8349 253d c3d3 ce3d 463e 15bc 0368 8c3d
000002d0: 42bb 833c 19ee 673d f759 e93c 8662 ceba
000002e0: 23be 95bd 449d 8bbd 8560 b43d d5f7 103d
000002f0: cf66 873d 246d 67bd 74c5 7cbd c92e ab3b
00000300: ce74 dabd 992d 8cbd a6fe 823c 26eb a7bd
00000310: 36c1 27bd f3d3 7abd 9d7d 64bc 0cb3 97bd
00000320: 788a 50bd 4ca7 03bd 42ef 6abc 9da1 c8bc
00000330: 88e3 cebc 2502 363d 5936 2dbc 7a25 73bd
00000340: 7d11 2abd 184f acbd b37c a0bd 4101 133c
00000350: 36fa 4a3d b500 d8bd 96c2 e6bd 6b64 2fbd
00000360: 16d5 5bbd 8948 673d c512 9a3c ccdf b2bc
00000370: 1140 e73b 6daa 35bd 6d41 30bd 85e3 52bd
00000380: 32d0 cb3d 3fd8 19bd 7f58 553c c209 233d
00000390: 794f aebd 9c99 92ba 641b 3bbd 3303 6fbd
000003a0: 5297 083c aa54 c83c 412b c93b 1497 12bc
000003b0: f1e3 073d e8a4 cebd 3819 55bd 99fe e6bc
000003c0: 1697 593c 494f ecbc 7956 aa3d f904 83bd
000003d0: b5a4 0e3c fbce 96bc 772e 87ba afbb 9fbd
000003e0: e28f 863d 1dc4 dcbd 00e9 44bd 00a7 5d3d
000003f0: 0047 50bb 43f1 ffbd 08d3 a63c 9d05 01bd

layer4.0.bias f4 [32]
-0.026162205 -0.016158607 0.017075937 0.05078418 -0.07444009 -0.03463839 -0.08040183 -0.056215316
0.0578419 0.04779098 -0.07092019 0.047728278 0.06537342 0.062173553 0.04816379 -0.05287618
-0.034813583 -0.03476009 0.030041993 -0.053400066 0.034138 -0.0072384314 -0.07477674 -0.068987176
-0.07971788 0.043810893 -0.045240197 -0.047095925 0.07819319 0.06970423 0.034263045 0.02245295
00000000: 1f52 d6bc 0e5f 84bc d6e2 8b3c 1303 503d
00000010: 0c74 98bd fce0 0dbd b7a9 a4bd 0842 66bd
00000020: a1eb 6c3d 7ac0 433d 9b3e 91bd ba7e 433d
00000030: 80e2 853d b2a9 7e3d 6547 453d b194 58bd
00000040: b098 0ebd 9960 0ebd a01a f63c 07ba 5abd
00000050: 4ad4 0b3d 5d30 edbb 8c24 99bd 2649 8dbd
00000060: 2143 a3bd 0d73 333d c94d 39bd a8e7 40bd
00000070: c023 a03d 17c1 8e3d 6857 0c3d 40ef b73c

layer4.1.weight f4 [32]
1.0686698 1.049474 1.0925097 1.0866532 1.0732546 1.0667288 1.0566326 1.1004238
1.1059083 1.0780336 1.0820142 1.074182 1.0777339 1.1196395 1.0546296 1.0688987
1.0815426 1.0807688 1.0654235 1.0578012 1.0819936 1.0936913 1.0642201 1.088888
1.0916207 1.0792551 1.0911207 1.0756919 1.0403802 1.1024408 1.0738853 1.0676855
00000000: 2cca 883f 2a55 863f 5cd7 8b3f 7417 8b3f
00000010: 6860 893f 928a 883f bd3f 873f b0da 8c3f
00000020: 678e 8d3f 01fd 893f 717f 8a3f cc7e 893f
00000030: 2ff3 893f 5950 8f3f 1afe 863f acd1 883f
00000040: fd6f 8a3f a256 8a3f cc5f 883f 0866 873f
00000050: c47e 8a3f 14fe 8b3f 5d38 883f af60 8b3f
00000060: 3aba 8b3f 0825 8a3f d8a9 8b3f 46b0 893f
00000070: 2e2b 853f c81c 8d3f 1375 893f eba9 883f

layer4.1.bias f4 [32]
0.061210237 0.056499593 0.050683394 0.08437961 0.05442971 0.04234062 0.05179081 0.054458335
0.07587668 0.029049626 0.045543756 0.029126553 0.055480823 0.06248097 0.061287805 0.05628808
0.023303742 0.041580513 0.07443639 0.052783083 0.049874812 0.04021135 0.071650624 0.06275825
0.04468253 0.07427916 0.05269281 0.07234056 0.022595344 0.053527728 0.06806784 0.069708556
00000000: 96b7 7a3d 1e6c 673d 6499 4f3d 38cf ac3d
00000010: b0f1 5e3d 5c6d 2d3d 9a22 543d b40f 5f3d
00000020: 3c65 9b3d 7bf9 ed3c 178c 3a3d cf9a ee3c
00000030: dc3f 633d 0cec 7f3d ec08 7b3d 548e 663d
00000040: 7de7 be3c 5450 2a3d 1b72 983d 1333 583d
00000050: 8849 4c3d a8b4 243d 90bd 923d 6687 803d
00000060: 0705 373d ac1f 983d 6ad4 573d 4a27 943d
00000070: df19 b93c e43f 5b3d 2767 8b3d 5cc3 8e3d

layer4.1.running_mean f4 [32]
0.06318911 -0.9622456 0.3241409 -1.0340366 -0.19164383 0.46420807 -0.23763585 0.30043995
0.4580438 0.24439025 0.50470865 0.12058808 0.42947748 0.39709964 -0.5373273 0.524426
0.01614187 0.14391099 -1.0265046 -0.41018245 0.27664813 0.005512843 -1.1719406 0.5123318
0.19515334 -0.18492767 0.40842462 -1.0172157 0.49136716 0.112003475 0.14564784 -0.7077107
00000000: 4b69 813d ba55 76bf ccf5 a53e 505b 84bf
00000010: 483e 44be aeac ed3e d056 73be 44d3 993e
00000020: b884 ea3e 7041 7a3e 9634 013f e2f6 f63d
00000030: 79e4 db3e a550 cb3e 488e 09bf c840 063f
00000040: f43b 843c 675d 133e 8164 83bf 6f03 d2be
00000050: d3a4 8d3e 14a5 b43b 2602 96bf 2d28 033f
00000060: 47d6 473e ae5d 3dbe 081d d13e 2034 82bf
00000070: 7a94 fb3e 1462 e53d b524 153e 872c 35bf

layer4.1.running_var f4 [32]
0.66083205 1.0729593 1.065777 1.1221864 0.81323165 0.5778735 0.7403348 0.9939261
0.7786018 1.1640289 0.625174 1.0353795 0.58642995 0.9602552 0.97146094 0.5463579
1.0500375 0.7194132 0.94760555 0.8771157 0.7020327 1.1407329 0.8166015 1.0093263
0.53728503 0.7098148 0.54878527 1.0477881 0.5234577 1.4310391 0.77453667 0.83327746
00000000: 4a2c 293f bb56 893f 616b 883f cea3 8f3f
00000010: f32f 503f 85ef 133f 9586 3d3f f171 7e3f
00000020: 7352 473f e6fe 943f 670b 203f 5187 843f
00000030: 4620 163f 49d3 753f aab1 783f 1dde 0b3f
00000040: a167 863f 772b 383f 4796 723f a88a 603f
00000050: 6ab8 333f 8903 923f cc0c 513f 9b31 813f
00000060: 838b 093f 6cb6 353f 317d 0c3f ec1d 863f
00000070: 5301 063f 4a2c b73f 0948 463f ac51 553f

fc.weight f4 [1, 1152]
0.03455039 -0.028039627 -0.00089728937 0.03484026 -0.026167313 -0.00044557586 -0.020286227 -0.041443404
-0.009210221 0.016028348 -0.016418763 0.026770601 0.0013677992 -0.04443857 -0.08085447 0.006934293
-0.036961783 0.016212704 0.018244756 -0.061386507 -0.09458064 0.011792736 0.010907238 0.00057061116
-0.0036677246 -0.009783682 -0.041796114 -0.0010642192 -0.020968027 0.011844737 0.00560209 -0.0038973214
0.011623213 0.015316471 -0.00030581508 0.008317091 -0.013936729 -0.030338956 -0.022331195 -0.03370933
-0.021110984 -0.0028561691 -0.027436607 0.022125022 -0.050046485 -0.09253554 -0.063421115 -0.025596438
-0.007464794 0.026009033 -0.056755144 -0.06546884 -0.04926486 -0.020337677 0.0032293256 0.016128281
-0.003975051 -0.05908954 -0.023787947 0.0078322245 -0.034994867 0.005814325 0.009827524 -0.045252994
-0.041569978 -0.0020355165 -0.01577783 0.012676941 -0.008758412 -0.023734316 -0.011568192 -0.024403317
-0.013137649 0.00901576 0.049537044 0.023536958 0.04235134 -0.0051810783 0.019065494 0.03812812
0.01275904 0.0040069507 -0.0068617063 0.030525412 0.0671145 0.102590024 0.09537433 0.05228671
0.07097149 0.013529757 0.057872895 0.044298906 0.017912123 0.08939372 0.06560713 -0.002765474
-0.00083706237 0.003532281 0.03973994 0.0055344077 0.017468693 -0.022311706 -0.03707618 -0.020604216
0.036041778 -0.016801994 0.027669583 0.00580562 -0.023607446 -0.03230979 -0.010444 -0.019240957
-0.021749394 -0.033258297 0.00354145 -0.020732813 -0.052945722 -0.057964414 0.010785165 0.020217787
-0.01688295 -0.005849651 -0.08327579 -0.10631191 -0.03768485 0.017698303 -0.00047719627 -0.037887223
-0.09702709 -0.08297596 -0.009547574 -0.018153315 0.011733489 0.0029218055 -0.04319557 -0.04128897
-0.0078291055 0.003661009 0.0076894257 -0.007855806 -0.008012494 -0.06695365 -0.018992232 -0.017935986
-0.021547755 -0.031712502 0.017001437 0.009756602 -0.00669656 0.00086577545 -0.013861264 -0.014868383
0.041086536 0.028732631 0.028266553 0.013497636 -0.027044978 -0.054344054 -0.028765831 -0.040315036
-0.035632934 0.014238191 -0.03501041 -0.01246601 -0.03559363 -0.1002402 -0.08490236 -0.039633103
-0.0013824753 0.0014860466 0.034744173 -0.071667634 -0.05730291 -0.023537574 0.0059703183 0.03484159
0.019381681 0.00791415 -0.011486765 0.02037656 -0.018107193 -0.003979445 0.002974327 -0.0029222984
-0.016461488 -0.0046999296 -0.014949708 -0.06150906 -0.07338762 -0.043975245 -0.0485936 0.011311879
0.001162135 -0.046655748 -0.017781606 -0.008384883 -0.011173986 0.024104683 -0.017568303 0.007890226
0.07603831 0.042627368 0.011393433 0.02948332 -0.026985453 -0.036869377 -0.051618885 -0.0805105
-0.027374426 -0.044724993 -0.040927045 -0.0124290595 0.0010026296 -0.02985893 -0.031359073 -0.048529614
-0.018000608 -0.044805285 -0.034370482 0.012957365 -0.02130881 -0.0006906015 0.012903402 -0.0036168979
0.00068433513 0.02716693 0.027761946 0.008140104 0.011202706 -0.02303923 -0.05772333 -0.04970108
-0.0047786017 -0.033767696 -0.0001397519 -0.06357707 -0.07050037 -0.00019292935 0.049749035 -0.04491085
-0.018519018 -0.0157095 -0.037419725 -0.037360925 0.06470207 0.006780463 0.024854511 -0.014998501
-0.027536558 0.0043319487 0.023125362 -0.034966085 -0.040343713 0.008717564 0.034646723 0.021615304
00000000: b684 0d3d 5cb3 e5bc 1238 6bba a9b4 0e3d
00000010: d55c d6bc 2e9c e9b9 4d2f a6bc 8fc0 29bd
00000020: 77e6 16bc e24d 833c a480 86bc 054e db3c
00000030: ba47 b33a 3805 36bd 0797 a5bd 1139 e33b
00000040: 3d65 17bd 81d0 843c 0776 953c 6b70 7bbd
00000050: 7fb3 c1bd 5236 413c 46b4 323c 1195 153a
00000060: 355e 70bb bd4b 20bc 6732 2bbd 457d 8bba
00000070: 24c5 abbc 6e10 423c bd91 b73b 346a 7fbb
00000080: 4a6f 3e3c f0f1 7a3c ce55 a0b9 6844 083c
00000090: e156 64bc 6789 f8bc e9ef b6bc cb12 0abd
000000a0: f1f0 acbc 912e 3bbb bcc2 e0bc 893f b53c
000000b0: 8bfd 4cbd 4683 bdbd eee2 81bd 9faf d1bc
000000c0: 3b9b f4bb e510 d53c 1578 68bd 8714 86bd
000000d0: f3c9 49bd 339b a6bc 18a3 533b 751f 843c
000000e0: 2541 82bb e007 72bd f1de c2bc bb52 003c
000000f0: c756 0fbd 1886 be3b a003 213c 345b 39bd
00000100: 4845 2abd 4d66 05bb 8240 81bc f2b2 4f3c
00000110: 717f 0fbc 786e c2bc 8488 3dbc 77e9 c7bc
00000120: 4b3f 57bc d7b6 133c 5be7 4a3d 94d0 c03c
00000130: 9978 2d3d 09c6 a9bb 3d2f 9c3c 3b2c 1c3d
00000140: 4b0b 513c bd4c 833b 2ad8 e0bb 6e10 fa3c
00000150: 5473 893d b81a d23d 9e53 c33d 972a 563d
00000160: 8059 913d eaab 5d3c 210c 6d3d c572 353d
00000170: 72bc 923c 0e14 b73d 085d 863d f43c 35bb
00000180: 4e6e 5bba d77d 673b 59c6 223d fa59 b53b
00000190: 811a 8f3c 0ac7 b6bc 31dd 17bd 2cca a8bc
000001a0: 8ba0 133d 56a4 89bc 52ab e23c 123d be3b
000001b0: 6764 c1bc 4557 04bd 501d 2bbc 369f 9dbc
000001c0: c92b b2bc da39 08bd ac17 683b dcd7 a9bc
000001d0: 9ddd 58bd 186c 6dbd 43b4 303c c69f a53c
000001e0: 1d4e 8abc 6eae bfbb 7f8c aabd 0fba d9bd
000001f0: 6e5b 1abd 08fc 903c 3330 fab9 a22f 1bbd
00000200: 24b6 c6bd 4def a9bd 6e6d 1cbc 43b6 94bc
00000210: d23d 403c c37b 3f3b d7ed 30bd 9f1e 29bd
00000220: a645 00bc 8aed 6f3b 94f7 fb3b a3b5 00bc
00000230: d646 03bc ff1e 89bd 9995 9bbc 7dee 92bc
00000240: eb84 b0bc f8e4 01bd 9946 8b3c 28da 1f3c
00000250: d16e dbbb 35f5 623a 5b1a 63bc 859a 73bc
00000260: 5b4a 283d b260 eb3c 428f e73c 3025 5d3c
00000270: 6e8d ddbc df97 5ebd 52a6 ebbc 6121 25bd
00000280: d7f3 11bd 4d47 693c 1367 0fbd 3c3e 4cbc
00000290: a0ca 11bd bc4a cdbd 4ae1 adbd 5256 22bd
000002a0: 2c34 b5ba 73c7 c23a e84f 0e3d 7bc6 92bd
000002b0: 75b6 6abd dfd1 c0bc a9a2 c33b 0eb6 0e3d
000002c0: 55c6 9e3c 5aaa 013c fc32 3cbc beec a63c
000002d0: 8955 94bc 0166 82bb edec 423b 0884 3fbb
000002e0: 3eda 86bc de01 9abb 9fef 74bc edf0 7bbd
000002f0: 404c 96bd 631f 34bd 150a 47bd 7655 393c
00000300: c852 983a 191a 3fbd bbaa 91bc c060 09bc
00000310: 1813 37bc 2f77 c53c 67eb 8fbc 0246 013c
00000320: f9b9 9b3d 099a 2e3d 86ab 3a3c 0187 f13c
00000330: 9910 ddbc 5804 17bd 536e 53bd b0e2 a4bd
00000340: 5540 e0bc 8e31 37bd 1ea3 27bd 41a3 4bbc
00000350: ab6a 833a b79a f4bc 5f72 00bd fdc6 46bd
00000360: 0376 93bc bf85 37bd 10c8 0cbd 214b 543c
00000370: d08f aebc 7b09 35ba ca68 533c 7a09 6dbb
00000380: f464 333a 2e8d de3c 056d e33c 125e 053c
00000390: 8e8b 373c c4bc bcbc 4c6f 6cbd 5c93 4bbd
000003a0: d195 9cbb ff4f 0abd 5d8a 12b9 b234 82bd
000003b0: 7f62 90bd 144d 4ab9 a5c5 4b3d 70f4 37bd
000003c0: 32b5 97bc 36b1 80bc 6d45 19bd c507 19bd
000003d0: 8582 843d a52e de3b b09b cb3c 46bc 75bc
000003e0: 5994 e1bc 05f3 8d3b 6671 bd3c 9938 0fbd
000003f0: 733f 25bd 1dd4 0e3c b9e9 0d3d 9412 b13c
