data/chkbox_models/chkbox_rnd10_0_bestVal.pt (torch_old, 35085 bytes, 25 tensors)

layer1.0.weight f4 [4, 1, 3, 3]
-0.057684395 0.0941965 0.28651166 0.27118903 -0.09331433 0.42174822 0.26226047 0.16918547
0.22927271 0.11455403 0.20492949 0.039059393 0.37162012 -0.25914812 -0.10737071 0.22592784
-0.20287187 -0.0295953 -0.095408045 -0.17564766 0.0052947733 -0.1535592 -0.21741255 0.050977573
0.050175052 -0.17058071 0.21711975 0.2507154 0.0065829502 0.15171893 0.38340774 0.2852775
-0.016821533 -0.012955507 -0.13432096 0.16389288
00000000: 7946 6cbd 18ea c03d a8b1 923e 4ad9 8a3e
00000010: 951b bfbd 62ef d73e 0147 863e f53e 2d3e
00000020: 77c6 6a3e 4e9b ea3d 09d9 513e befc 1f3d
00000030: fe44 be3e 10af 84be 2de5 dbbd a159 673e
00000040: a5bd 4fbe d871 f2bc 4b65 c3bd fbdc 33be
00000050: c77f ad3b 9f3e 1dbe 65a1 5ebe dccd 503d
00000060: 5b84 4d3d b6ac 2ebe a454 5e3e c55d 803e
00000070: cab5 d73b 355c 1b3e 054e c43e e40f 923e
00000080: 50cd 89bc 5643 54bc 6f8b 09be 89d3 273e

layer1.0.bias f4 [4]
-0.29436064 -0.3375824 -0.0343307 0.086220786
00000000: 70b6 96be 9ad7 acbe 599e 0cbd 8694 b03d

layer1.1.weight f4 [4]
1.0096982 0.94203395 1.0171697 1.0474457
00000000: ca3d 813f 2329 713f 9e32 823f b312 863f

layer1.1.bias f4 [4]
-0.012542842 0.039175022 0.053434152 0.016442828
00000000: 7e80 4dbc fd75 203d c5dd 5a3d 1cb3 863c

layer1.1.running_mean f4 [4]
1.3019546 0.015913768 -0.5351249 1.1768273
00000000: 73a6 a63f 975d 823c f2fd 08bf 47a2 963f

layer1.1.running_var f4 [4]
2.5642257 0.2506762 0.32329977 1.246448
00000000: 461c 2440 a258 803e 8c87 a53e 9c8b 9f3f

layer2.0.weight f4 [8, 4, 3, 3]
0.13125633 -0.080283344 -0.00033230666 0.1692425 -0.111008994 0.13010994 0.17141357 -0.14130378
-0.025288409 -0.06398514 0.072715774 -0.11414912 -0.1072258 -0.13725029 -0.06364095 0.066704586
0.09447628 -0.008908365 -0.010858369 -0.08553112 0.061119504 -0.026023773 -0.042261574 0.13737056
0.017577056 -0.118899286 0.07506124 0.092339605 0.003485434 -0.13748805 -0.08349929 -0.13965446
-0.023638004 0.054714005 0.09753496 -0.015163023 0.017391937 0.0061130687 0.039949547 -0.0372366
0.027452337 0.07894082 0.13789788 0.044663455 -0.098655 0.09571354 -0.08104837 -0.08130211
0.023731781 0.13285686 0.10718556 0.04478336 0.07055434 0.03003521 -0.015427762 -0.19042972
-0.17649437 0.039905697 0.011802123 -0.16969185 -0.18979934 -0.13063762 -0.028562658 0.02896224
-0.14293104 -0.030873157 0.041643552 0.061978977 0.052854598 0.11282506 -0.07229571 -0.013623429
0.08330646 0.010445346 -0.11135995 -0.009179358 0.14052789 -0.09534354 0.10826736 -0.013796379
0.16350135 -0.10208127 -0.16547614 -0.07875564 0.18822034 -0.18132216 -0.06277924 -0.013754691
-0.12003501 -0.008755874 -0.05137124 -0.02729209 0.01436253 0.08656015 -0.18398096 -0.030146569
-0.007199094 -0.006379979 -0.17009553 -0.08873607 0.011526283 0.093136854 -0.02348859 0.030180885
0.021042902 -0.15660545 -0.03336796 -0.07117933 -0.033947084 0.02300563 0.061530203 0.10931296
0.14735845 -0.1394494 -0.005296992 0.05412596 -0.101542264 -0.080042526 0.10510591 -0.15872802
-0.09570139 -0.08686504 -0.14773731 -0.15117395 -0.15738371 -0.16132484 -0.035490595 0.03516459
-0.007771841 0.008578753 0.17781033 0.040861994 0.09549993 0.021702219 0.15504265 -0.059699483
-0.0153582 0.05389439 0.05341301 0.047177028 -0.09466898 0.0009718515 0.044110388 -0.019773707
0.13485953 -0.06040046 0.08888369 -0.112372816 -0.018531876 0.08342975 -0.059983205 0.12211837
0.06817361 0.13743286 0.04681438 -0.026297966 -0.09912588 -0.008411144 0.037181254 0.03343912
0.058020327 -0.13520828 -0.12424973 -0.11361427 0.12767196 -0.046498403 -0.04549295 0.056969993
-0.14787537 -0.08588385 -0.03191456 -0.07348091 0.08046468 -0.06717331 0.11725713 0.0018866868
0.11619227 0.11393334 0.09533121 0.0063072913 -0.09767065 -0.13229425 -0.085021555 -0.124794215
0.11561219 0.122703545 0.1860851 0.046818003 -0.1373912 -0.016359104 0.060198776 0.07064139
-0.056247596 0.029250829 -0.094886966 0.1124346 -0.08039433 0.12640308 -0.10067954 -0.22313948
-0.13497558 -0.05667543 -0.061791774 -0.20380719 0.003111567 -0.20924702 -0.11826027 0.023942206
0.008942484 0.1375635 0.1575539 -0.025928 0.144684 0.14527224 -0.011239353 -0.074525915
-0.04989002 0.04165005 -0.033163786 -0.21341392 -0.18033297 -0.115818575 -0.0029342638 -0.017686853
-0.072190166 0.005822968 -0.016331468 0.023161106 -0.054910112 0.032780696 -0.02343527 -0.037302494
0.12306554 -0.056312174 0.11835108 0.02140781 0.14023298 0.02469089 -0.08467552 0.11393459
-0.002229864 0.14043643 -0.034818776 -0.02231894 0.032045677 0.14369608 -0.18213412 -0.00938492
-0.18637797 -0.14254352 0.060609367 0.073180236 0.08383861 -0.03661959 0.0715076 -0.094809614
00000000: 0f68 063e 986b a4bd 7239 aeb9 e84d 2d3e
00000010: af58 e3bd 8a3b 053e 0a87 2f3e f0b1 10be
00000020: a329 cfbc a40a 83bd 02ec 943d 04c7 e9bd
00000030: 3399 dbbd 578b 0cbe 3056 82bd 6a9c 883d
00000040: c87c c13d 64f4 11bc 4de7 31bc f12a afbd
00000050: 7258 7a3d cf2f d5bc 791a 2dbd deaa 0c3e
00000060: c2fd 8f3c 7881 f3bd b5b9 993d 8c1c bd3d
00000070: e16b 643b abc9 0cbe ad01 abbd 9401 0fbe
00000080: 7da4 c1bc cb1b 603d 69c0 c73d 546e 78bc
00000090: 8979 8e3c 2350 c83b 23a2 233d 6885 18bd
000000a0: b9e3 e03c baab a13d 1a35 0d3e 07f1 363d
000000b0: a20b cabd 7605 c43d b0fc a5bd b881 a6bd
000000c0: 2769 c23c a10b 083e 1a84 db3d c26e 373d
000000d0: cb7e 903d 670c f63c b9c4 7cbc 0200 43be
000000e0: f1ba 34be 2874 233d b15d 413c b3c3 2dbe
000000f0: c25a 42be dec5 05be 3cfc e9bc 3842 ed3c
00000100: 845c 12be b4e9 fcbc 6e92 2a3d abdd 7d3d
00000110: 107e 583d d310 e73d c60f 94bd ce34 5fbc
00000120: 949c aa3d f522 2b3c af10 e4bd 0565 16bc
00000130: 8be6 0f3e 7943 c3bd 47bb dd3d 350a 62bc
00000140: e66c 273e fc0f d1bd 9472 29be a34a a1bd
00000150: d5bc 403e 84ac 39be 6792 80bd 5b5b 61bc
00000160: ead4 f5bd cc74 0fbc a66a 52bd a993 dfbc
00000170: d150 6b3c 7346 b13d 8165 3cbe f0f5 f6bc
00000180: 61e6 ebbb 250f d1bb 862d 2ebe 42bb b5bd
00000190: bcd8 3c3c 89be be3d 256b c0bc e73d f73c
000001a0: 2a62 ac3c 2e5d 20be d8ac 08bd 78c6 91bd
000001b0: 190c 0bbd 4e76 bc3c 1807 7c3d 79df df3d
000001c0: 22e5 163e d3cb 0ebe 6492 adbb 2fb3 5d3d
000001d0: 64f5 cfbd 56ed a3bd c441 d73d 9989 22be
000001e0: 17ff c3bd 4ce6 b1bd 7348 17be 58cd 1abe
000001f0: 3229 21be 5732 25be 965e 11bd bf08 103d
00000200: edaa febb e68d 0c3c e913 363e e85e 273d
00000210: 7895 c33d dac8 b13c 80c3 1e3e 7287 74bd
00000220: f6a0 7bbc 5dc0 5c3d 9ac7 5a3d b33c 413d
00000230: cfe1 c1bd dac3 7e3a 18ad 343d 78fc a1bc
00000240: 9e18 0a3e 7966 77bd a708 b63d b823 e6bd
00000250: 29d0 97bc 37dd aa3d f3b0 75bd 3219 fa3d
00000260: 9b9e 8b3d 33bb 0c3e 6fc0 3f3d d56e d7bc
00000270: 8202 cbbd e5ce 09bc 5f4b 183d 75f7 083d
00000280: b9a6 6d3d 0a74 0abe a476 febd 99ae e8bd
00000290: 70bc 023e 1c75 3ebd d156 3abd 5e59 693d
000002a0: a46c 17be dfe3 afbd d7b8 02bd 297d 96bd
000002b0: abca a43d 2992 89bd 8224 f03d b44a f73a
000002c0: 36f6 ed3d e255 e93d 023d c33d 65ad ce3b
000002d0: 8d07 c8bd 2578 07be c81f aebd 1c94 ffbd
000002e0: 15c6 ec3d ff4b fb3d 188d 3e3e 3cc4 3f3d
000002f0: 47b0 0cbe 8703 86bc fe92 763d 6fac 903d
00000300: e163 66bd 6f9f ef3c 1954 c2bd 1d44 e63d
00000310: c8a5 a4bd cf6f 013e 1331 cebd ad7e 64be
00000320: 0a37 0abe 7f24 68bd 5f19 7dbd d5b2 50be
00000330: 6feb 4b3b da44 56be 7132 f2bd 7222 c43c
00000340: 7f83 123c 72dd 0c3e cf55 213e f566 d4bc
00000350: 0b28 143e 3fc2 143e 4325 38bc 0ba1 98bd
00000360: 7a59 4cbd 3e99 2a3d c0d6 07bd 2e89 5abe
00000370: 35a9 38be 4a32 edbd c74c 40bb 05e4 90bc
00000380: 70d8 93bd 99ce be3b 92c9 85bc 5cbc bd3c
00000390: 6de9 60bd 0d45 063d 53fb bfbc 80ca 18bd
000003a0: c909 fc3d 98a7 66bd 0d62 f23d 6e5f af3c
000003b0: 3c99 0f3e 8d44 ca3c 5c6a adbd 8a56 e93d
000003c0: e922 12bb 91ce 0f3e 229e 0ebd 36d6 b6bc
000003d0: 5442 033d 1125 133e 5e81 3abe 35c3 19bc
000003e0: ded9 3ebe eef6 11be 8741 783d 85df 953d
000003f0: 94b3 ab3d 6cfe 15bd 9472 923d 8b2b c2bd

layer2.0.bias f4 [8]
-0.1624297 0.1625967 -0.0125806015 -0.035470076 0.02167934 0.071900666 0.102607325 0.10092802
00000000: f953 26be c07f 263e de1e 4ebc 1249 11bd
00000010: df98 b13c a840 933d ca23 d23d 5ab3 ce3d

layer2.1.weight f4 [8]
1.0128967 0.9135013 0.9027586 1.0623287 1.0032712 0.97874886 1.0988984 1.0046197
00000000: 99a6 813f 39db 693f 301b 673f 63fa 873f
00000010: 316b 803f 498f 7a3f b4a8 8c3f 6197 803f

layer2.1.bias f4 [8]
-0.004846859 0.12850077 -0.055833753 0.08305746 0.04576592 0.1346563 0.010943852 0.033615373
00000000: 66d2 9ebb b595 033e efb1 64bd 081a aa3d
00000010: 0c75 3b3d 57e3 093e d84d 333c 46b0 093d

layer2.1.running_mean f4 [8]
-0.28105393 0.050884455 -0.5095558 -0.24362078 0.17191654 -0.2033153 -0.14175858 -0.34177437
00000000: 4de6 8fbe 386c 503d 4072 02bf ba77 79be
00000010: e40a 303e e331 50be 2929 11be 0dfd aebe

layer2.1.running_var f4 [8]
0.12351981 0.47377202 0.13427049 0.40650585 0.32191354 0.5719395 0.57504046 0.30856597
00000000: f4f7 fc3d 3f92 f23e 347e 093e 8921 d03e
00000010: dad1 a43e a16a 123f da35 133f 5cfc 9d3e

layer3.0.weight f4 [16, 8, 3, 3]
-0.0007805673 -0.12563121 -0.095325336 -0.09781511 -0.05060139 -0.095064215 -0.07161394 -0.03902754
0.0026242002 -0.0313803 -0.07990734 0.071821354 0.012264595 -0.08194335 0.0698848 0.08652854
-0.017573485 -0.03316367 -0.013789584 -0.032364454 0.050165087 -0.07046751 -0.0043922667 0.010968212
0.020332087 -0.0794578 -0.005858942 0.11532131 0.0752613 -0.07343588 0.03350452 -0.03150843
-0.03477602 -0.02817172 -0.04044522 0.20151871 0.05301336 -0.049628373 0.04458018 0.12370348
0.10091827 -0.103465475 0.010953459 0.055975012 0.08026076 -0.07600468 0.011786259 0.027505217
0.05925889 0.055110436 -0.083013326 -0.0021436738 0.008978021 -0.0023531208 0.027827045 0.071321085
-0.012233351 -0.034701247 -0.03570089 -0.034137838 -0.116152674 -0.0070487126 -0.01961342 0.11496306
-0.023583531 -0.061178964 -0.010379195 -0.016296951 0.031486854 -0.08371492 -0.010194605 0.1259794
0.09871286 0.03969211 -0.006328421 -0.12455641 -0.03332093 0.09912273 -0.006222605 0.03666977
0.13492806 0.050046712 0.09106736 -0.015907055 -0.06575343 -0.019231156 0.09600527 0.059009776
-0.12813108 -0.11397283 0.117711544 -0.07108084 0.08242719 -0.05125468 -0.011587857 -0.010637261
0.08600711 0.060466565 -0.0053333947 -0.06988932 -0.06488274 -0.068744354 -0.021097377 0.06365167
0.087036744 0.05309575 -0.030974586 0.02983331 -0.060489893 0.020679044 0.08358563 -0.010469856
-0.012511582 -0.042374514 -0.009497844 0.09926921 -0.0049597034 -0.013995402 -0.07218246 9.422616e-05
-0.11145384 -0.050943695 0.002223587 -0.07070756 -0.0047072894 0.10001588 0.030833324 0.100765795
0.08219709 -0.020923348 0.062642165 0.06938978 0.02679665 0.04221199 0.11556879 0.05768779
-0.059348833 0.08967314 0.063017644 -0.03702402 0.03212697 -0.03986064 -0.061077617 -0.036325112
-0.05552083 -0.030132275 0.01602205 -0.026631689 -0.12245364 -0.04212299 0.023538174 -0.04746396
-0.093360685 0.035026707 -0.019753369 -0.015603661 0.061843768 -0.09247694 -0.0059923907 -0.079757325
0.1225286 0.04719352 -0.100734025 -0.002816379 -0.019739209 0.039616145 0.016698238 0.0015235998
0.04606269 -0.006604757 -0.010891002 0.00137805 0.017028272 0.11945601 0.020044817 0.07348893
-0.10624718 0.084411465 0.022583475 -0.0906916 0.012233296 0.04067055 0.0059929406 -0.018797642
0.08320541 0.078289464 -0.09210916 0.0038017011 0.08032971 0.05491682 -0.030513987 -0.07956352
-0.002886929 0.056900267 -0.12708777 -0.018365461 -0.012927942 -0.014642374 -0.17926839 0.025492445
0.0219245 -0.059237957 0.0032691373 0.04602472 0.02694861 0.015594678 -0.101977386 -0.029132579
0.037954867 0.06740928 -0.031961013 0.06680421 0.07210417 0.06189606 -0.0344964 -0.0668003
-0.18052714 -0.10273734 0.09483268 -0.076461695 0.046947014 0.105333626 -0.07208662 0.017147725
0.11000877 -0.11830186 -0.10905787 -0.12140262 0.060692057 -0.0072691967 0.049245585 -0.015610475
-0.010106693 -0.043868598 0.034218412 0.054535177 -0.080820635 -0.06932487 0.12186615 -0.06305072
0.06180368 0.008626787 -0.04202877 0.019196685 -0.07862507 -0.1044531 0.06871182 0.011094189
0.08294749 -0.036948387 0.064226456 -0.10729345 -0.06485688 -0.027116627 0.008189411 -0.11189364
00000000: fc9e 4cba 78a5 00be ee39 c3bd 4a53 c8bd
00000010: 6743 4fbd 07b1 c2bd 54aa 92bd 57db 1fbd
00000020: c6fa 2b3b a188 00bd 76a6 a3bd 1317 933d
00000030: 71f1 483c ead1 a7bd c31f 8f3d e035 b13d
00000040: 45f6 8fbc a1d6 07bd b5ed 61bc 9790 04bd
00000050: e879 4d3d 4551 90bd 01ed 8fbb 04b4 333c
00000060: 7a8f a63c c5ba a2bd 5efc bfbb 942d ec3d
00000070: 9922 9a3d 8d65 96bd 093c 093d fc0e 01bd
00000080: 4d71 0ebd 61c8 e6bc e3a9 25bd ec5a 4e3e
00000090: 8924 593d 1f47 4bbd b599 363d 4058 fd3d
000000a0: 3dae ce3d b5e5 d3bd 2376 333c 0e46 653d
000000b0: c15f a43d 57a8 9bbd 271b 413c 9f52 e13c
000000c0: 73b9 723d 7bbb 613d e402 aabd e17c 0cbb
000000d0: 8d18 133c d136 1abb 8bf5 e33c ca10 923d
000000e0: 656e 48bc e522 0ebd 193b 12bd 1ed4 0bbd
000000f0: 74e1 edbd e3f8 e6bb 53ac a0bc c171 eb3d
00000100: 4032 c1bc cb96 7abd 800d 2abc 2f81 85bc
00000110: 5cf8 003d ba72 abbd 4607 27bc be00 013e
00000120: f829 ca3d 3294 223d a55e cfbb 6e17 ffbd
00000130: 877b 08bd dc00 cb3d fee6 cbbb 0a33 163d
00000140: 952a 0a3e c8fd 4c3d 8681 ba3d 834f 82bc
00000150: bca9 86bd a88a 9dbc 699e c43d 3cb4 713d
00000160: cb34 03be 966a e9bd c012 f13d d592 91bd
00000170: 96cf a83d 6df0 51bd ffda 3dbc e847 2ebc
00000180: 7f24 b03d caab 773d c2c3 aebb 2222 8fbd
00000190: 3ee1 84bd d7c9 8cbd 68d4 acbc cf5b 823d
000001a0: 5240 b23d ee7a 593d 6abe fdbc fc64 f43c
000001b0: 40c4 77bd 1967 a93c f12e ab3d c289 2bbc
000001c0: 61fd 4cbc e690 2dbd d89c 1bbc a84d cb3d
000001d0: 0285 a2bb f84c 65bc 66d4 93bd 499b c538
000001e0: e941 e4bd 56aa 50bd 99b9 113b 20cf 90bd
000001f0: 9b3f 9abb 20d5 cc3d 2b96 fc3c 4c5e ce3d
00000200: f356 a83d 7167 abbc 894a 803d 3b1c 8e3d
00000210: a684 db3c 7be6 2c3d 54af ec3d 084a 6c3d
00000220: c317 73bd 8da6 b73d 650f 813d 80a6 17bd
00000230: 9297 033d e944 23bd 862c 7abd a4c9 14bd
00000240: cf69 63bd f6d7 f6bc ad40 833c b32a dabc
00000250: f9c8 fabd 2889 2cbd 21d3 c03c 9269 42bd
00000260: e333 bfbd 2a78 0f3d d1d1 a1bc 7fa6 7fbc
00000270: e44f 7d3d 8d64 bdbd d15b c4bb cf57 a3bd
00000280: 46f0 fa3d fe4d 413d a44d cebd 0093 38bb
00000290: 1fb4 a1bc 8a44 223d beca 883c 87b3 c73a
000002a0: 3bac 3c3d b86c d8bb 2c70 32bc af9f b43a
000002b0: e07e 8b3c 5aa5 f43d 0735 a43c 5d81 963d
000002c0: 1f98 d9bd ebdf ac3d fb00 b93c 85bc b9bd
000002d0: 2a6e 483c 2a96 263d 6e60 c43b 83fd 99bc
000002e0: 9967 aa3d 3a56 a03d baa3 bcbd f625 793b
000002f0: e783 a43d 76f0 603d 78f8 f9bc 33f2 a2bd
00000300: a232 3dbb 4110 693d 4c23 02be 2a73 96bc
00000310: b8cf 53bc 91e6 6fbc 2292 37be 88d5 d03c
00000320: 029b b33c 80a3 72bd 063f 563b 6b84 3c3d
00000330: 55c3 dc3c d280 7f3c 85d9 d0bd 72a7 eebc
00000340: 9076 1b3d e00d 8a3d 8de9 02bd a5d0 883d
00000350: 5aab 933d b986 7d3d 194c 0dbd 98ce 88bd
00000360: 1bdc 38be f467 d2bd a337 c23d f397 9cbd
00000370: 834b 403d 28b9 d73d 26a2 93bd 6379 8c3c
00000380: 474c e13d 3f48 f2bd bc59 dfbd f0a1 f8bd
00000390: 3c98 783d 7132 eebb bdb5 493d 14c3 7fbc
000003a0: 8b96 25bc 8faf 33bd 9b28 0c3d 4760 5f3d
000003b0: 4a85 a5bd 33fa 8dbd f694 f93d bc20 81bd
000003c0: db25 7d3d 5e57 0d3c 5c26 2cbd 5e42 9d3c
000003d0: 2e06 a1bd 82eb d5bd c8b8 8c3d 67c4 353c
000003e0: 60e0 a93d 3157 17bd 2989 833d abbc dbbd
000003f0: afd3 84bd b023 debc e12c 063c 7e28 e5bd

layer3.0.bias f4 [16]
-0.0014168144 0.04636214 -0.00920974 -0.06369905 0.052688632 0.060304493 -0.10029883 0.06608074
-0.047459207 -0.014216467 0.080393724 -0.0025127558 -0.04750498 -0.08995348 -0.05055854 -0.0030536337
00000000: 67b4 b9ba 3ae6 3d3d 73e4 16bc a674 82bd
00000010: 09d0 573d d801 773d 7969 cdbd 5755 873d
00000020: 9664 42bd 2fec 68bc 77a5 a43d 0cad 24bb
00000030: 9594 42bd 8839 b8bd 7916 4fbd 791f 48bb

layer3.1.weight f4 [16]
0.9762393 0.9467595 0.99323666 0.95895225 0.918208 0.9999344 0.9629799 0.99920535
1.0055413 1.0058318 0.98985434 0.9853802 0.97751325 0.9542901 1.0071658 1.0393754
00000000: d2ea 793f d55e 723f c244 7e3f e57d 753f
00000010: ae0f 6b3f b3fb 7f3f da85 763f eccb 7f3f
00000020: 94b5 803f 19bf 803f 1867 7d3f e041 7c3f
00000030: 4f3e 7a3f 5b4c 743f cfea 803f 410a 853f

layer3.1.bias f4 [16]
-0.17023788 -0.12875926 -0.20759872 -0.16567114 -0.1681762 -0.2072105 -0.18559559 -0.24072005
-0.22720037 -0.1754849 -0.21883072 -0.22406803 -0.16761585 -0.10530226 -0.15811832 -0.26082048
00000000: d752 2ebe 78d9 03be c294 54be b2a5 29be
00000010: 6236 2cbe fd2e 54be c50c 3ebe 517f 76be
00000020: 37a7 68be 50b2 33be 2915 60be 1772 65be
00000030: 7da3 2bbe b6a8 d7bd c5e9 21be 438a 85be

layer3.1.running_mean f4 [16]
-0.12915537 0.35351327 -0.13289845 -0.31612185 -0.19279748 -0.27998433 -0.57584935 -0.1553209
-0.3702816 -0.45392287 0.0038062562 -0.20270333 -0.028464338 -0.62926173 -0.116232276 -0.2167833
00000000: 4e41 04be b1ff b43e 8816 08be b9da a1be
00000010: b46c 45be 1b5a 8fbe dd6a 13bf 710c 1fbe
00000020: 8d95 bdbe 9468 e8be 6272 793b 7691 4fbe
00000030: 0b2e e9bc 4c17 21bf 300b eebd 71fc 5dbe

layer3.1.running_var f4 [16]
0.077230975 0.13179848 0.056494646 0.2093857 0.19538555 0.06905644 0.07449741 0.08280669
0.07593087 0.08027779 0.048788916 0.077753246 0.12099723 0.16451134 0.22756344 0.051456258
00000000: 462b 9e3d 2ef6 063e ee66 673d 3469 563e
00000010: 2613 483e 766d 8d3d 1992 983d 8e96 a93d
00000020: a581 9b3d af68 a43d e3d6 473d 183d 9f3d
00000030: 65cd f73d a975 283e 6406 693e ccc3 523d

layer4.0.weight f4 [32, 16, 3, 3]
0.0214063 0.01564023 0.0009398058 -0.062010217 -0.09253087 -0.043647416 -0.013629215 0.07643447
0.09022804 0.004137913 0.0077324104 -0.025715033 0.080036946 0.049892463 -0.010484379 -0.0031864387
-0.038682126 -0.050886318 -0.10952678 0.0067946906 0.08280497 -0.08518317 -0.06494427 -0.060128268
-0.07176056 -0.07985226 0.02535933 0.07674704 0.060519673 0.029025543 -0.04485977 0.014991478
0.019861933 0.024163553 0.062224563 0.015990283 0.044377234 0.0012673159 0.0826737 0.01474656
0.027052376 -0.03373682 0.062364455 0.02683435 -0.023453243 -0.109102905 -0.022608932 0.0780996
-0.06780667 -0.06119455 0.0040397556 0.019132152 -0.08257843 -0.027461942 0.026056072 0.021611216
0.031391967 -0.048985045 -0.056390766 0.0101224445 0.03829772 0.04448884 -0.011551662 0.0005424121
-0.096476994 -0.08905409 -0.06570306 -0.02233803 0.019341923 -0.048900783 0.053522453 0.04281157
-0.088874474 -0.087833405 0.017492527 -0.08202049 -0.01704671 -0.081141464 -0.088658035 -0.07238999
0.066291876 0.032656804 0.009615162 0.009201179 -0.050197236 -0.029474365 -0.11973436 -0.0221426
-0.029582627 0.0036121567 -0.1097235 -0.01700127 0.01596185 -0.0063442225 -0.0053550024 -0.08371036
0.037275013 -0.037615977 -0.038436547 0.0035659245 0.06918997 0.06466059 0.018908832 -0.012742328
-0.035115216 -0.03862307 -0.06190403 0.0025590202 -0.013154936 -0.014784598 -0.033687793 0.026286235
-0.0015846081 0.023124205 0.0048544337 0.027780266 -0.026685765 0.04223955 0.019853989 0.05614226
0.016366482 0.012470786 -0.0028942772 0.063600846 0.07802949 0.0046778778 0.057437487 -0.017494094
0.04296036 -0.020281067 0.04614856 0.04485755 0.06360654 -0.014464686 -0.0020469206 0.07382946
-0.025156245 -0.018050697 -0.009658025 -0.08889735 -0.09116006 -0.04893522 -0.014692286 -0.017494138
-0.038919423 0.018622933 0.009972676 -0.012022047 0.061441116 0.07574534 0.023468008 0.06487281
0.005843381 -0.03271717 -0.033002544 -0.042950824 -0.06792926 0.0065778596 -9.879583e-05 -0.0015888185
-0.009567728 0.06968005 -0.025522977 0.03512216 -0.046874143 0.09070759 0.0007017555 0.037597664
0.00046916943 0.059409086 0.0029904468 -0.06542122 -0.06150549 -0.051691443 -0.07012142 -0.015326404
-0.08484718 -0.01657511 -0.038338806 -0.059322253 -0.058128327 -0.05528745 -0.05352031 0.02728899
-0.06278054 -0.01699801 -0.007258613 0.03890943 0.012581965 0.0023462102 0.029618887 0.06413724
0.011079509 0.013914981 0.007920219 0.002939269 0.004684135 0.008746549 -0.068255536 -0.08299628
-0.021959657 -0.06648006 -0.05439573 -0.037238408 -0.10006435 -0.0007525789 -0.022772018 -0.050275125
-0.009737281 0.045864347 0.0836366 0.074744046 -0.02475598 0.0010845824 0.054242313 0.004437935
0.03805124 0.04605376 0.0542312 0.06495411 0.08863733 0.02671786 0.08365258 0.0013823657
0.023379214 -0.017011065 0.050094996 0.045260493 0.050675746 -0.00878096 -0.031870652 0.064915515
0.042579047 0.05677465 0.03258 0.039136082 0.050152063 0.072762184 0.0005629878 0.04496522
0.024210151 0.053025488 -0.0006616128 0.113216266 0.08818031 0.06932232 0.09386592 -0.00076800835
0.07029473 -0.01674734 0.08857039 0.064383976 -0.026342921 -0.029661834 -0.008443039 -0.043082945
00000000: 445c af3c f11f 803c 4d5d 763a 6dfe 7dbd
00000010: d380 bdbd a2c7 32bd 124d 5fbc ad89 9c3d
00000020: 7bc9 b83d 5597 873b 2960 fd3b 55a8 d2bc
00000030: 69ea a33d 0a5c 4c3d acc6 2bbc 92d3 50bb
00000040: 2671 1ebd 2c6e 50bd 944f e0bd ffa5 de3b
00000050: a795 a93d 8474 aebd 8001 85bd 0f49 76bd
00000060: 33f7 92bd 9589 a3bd 5fbe cf3c 8d2d 9d3d
00000070: 7ae3 773d fac6 ed3c e1be 37bd d19e 753c
00000080: 7eb5 a23c a5f2 c53c 2fdf 7e3d 0efe 823c
00000090: e7c4 353d 111c a63a d450 a93d 8e9b 713c
000000a0: f29c dd3c 9f2f 0abd df71 7f3d b6d3 db3c
000000b0: 0421 c0bc 5871 dfbd 5e36 b9bc aff2 9f3d
000000c0: 39de 8abd 23a7 7abd ed5f 843b 08bb 9c3c
000000d0: e11e a9bd def7 e0bc 8b73 d53c 010a b13c
000000e0: dd94 003d 8ba4 48bd 01fa 66bd 9cd8 253c
000000f0: 12de 1c3d ee39 363d 2f43 3dbc a930 0e3a
00000100: bb95 c5bd fe61 b6bd 538f 86bd 3ffe b6bc
00000110: f472 9e3c 304c 48bd 5c3a 5b3d 2f5b 2f3d
00000120: d203 b6bd 00e2 b3bd 7d4c 8f3c 5cfa a7bd
00000130: 8ba5 8bbc 7f2d a6bd 5892 b5bd 3441 94bd
00000140: 09c4 873d 24c3 053d ea88 1d3c 8bc0 163c
00000150: 9e9b 4dbd 3974 f1bc 4a37 f5bd 6664 b5bc
00000160: 4457 f2bc efb9 6c3b b7b6 e0bd 3f46 8bbc
00000170: 6dc2 823c 32e3 cfbb 0479 afbb 5670 abbd
00000180: afad 183d 3613 1abd a46f 1dbd 49b2 693b
00000190: 79b3 8d3d c56c 843d b2e6 9a3c 33c5 50bc
000001a0: f9d4 0fbd 3933 1ebd 158f 7dbd 3cb5 273b
000001b0: cd87 57bc 193b 72bc 36fc 09bd 3b56 d73c
000001c0: a0b2 cfba f96e bd3c f111 9f3b 7193 e33c
000001d0: 1b9c dabc 6103 2d3d d5a4 a23c 6df5 653d
000001e0: 0013 863c 4552 4c3c eaad 3dbb 2941 823d
000001f0: edcd 9f3d e248 993b 9243 6b3d c64f 8fbc
00000200: 34f7 2f3d 7b24 a6bc 4606 3d3d 8dbc 373d
00000210: 2544 823d 4afd 6cbc a125 06bb e633 973d
00000220: 7814 cebc 0edf 93bc b13c 1ebc d00f b6bd
00000230: 20b2 babd 4c70 48bd eab7 70bc de4f 8fbc
00000240: f969 1fbd 1f8f 983c 6f64 233c 1ff8 44bc
00000250: aea9 7b3d 5f20 9b3d fb3f c03c 09dc 843d
00000260: d579 bf3b 7002 06bd ad2d 07bd 34ed 2fbd
00000270: 7f1e 8bbd 168b d73b 9b30 cfb8 e73f d0ba
00000280: f6c1 1cbc 6ab4 8e3d 9015 d1bc 41dc 0f3d
00000290: 1aff 3fbd e7c4 b93d 04f6 373a 0200 1a3d
000002a0: dbfa f539 f156 733d 5ffb 433b 90fb 85bd
000002b0: 2eed 7bbd 68ba 53bd d29b 8fbd 991b 7bbc
000002c0: 5cc4 adbd 86c8 87bc 2709 1dbd e4fb 72bd
000002d0: f817 6ebd 1875 62bd 1d38 5bbd 298d df3c
000002e0: 1593 80bd 693f 8bbc a9d9 edbb 7f5f 1f3d
000002f0: 9624 4e3c e0c2 193b 4fa3 f23c 635a 833d
00000300: d486 353c a9fb 633c cec3 013c c0a0 403b
00000310: 5f7d 993b af4d 0f3c 8fc9 8bbd f4f9 a9bd
00000320: bde4 b3bc b326 88bd 0fce 5ebd 4d87 18bd
00000330: 8aee ccbd b748 45ba 628c babc 4aed 4dbd
00000340: 1e89 1fbc 41dc 3b3d aa49 ab3d 6813 993d
00000350: 0ecd cabc 8c28 8e3a 302d 5e3d 196c 913b
00000360: 9edb 1b3d dea2 3c3d 8921 5e3d a906 853d
00000370: 7d87 b53d 6adf da3c 0b52 ab3d 7f30 b53a
00000380: c485 bf3c ca5a 8bbc 6930 4d3d 1163 393d
00000390: 5f91 4f3d 04de 0fbc cd8a 02bd 6df2 843d
000003a0: 5e67 2e3d 898c 683d 9b72 053d 284d 203d
000003b0: 406c 4d3d 5704 953d 7995 133a 732d 383d
000003c0: 5e54 c63c 4131 593d 1570 2dba eedd e73d
000003d0: e197 b43d dcf8 8d3d c73c c03d 2b54 49ba
000003e0: aff6 8f3d b831 89bc 6564 b53d bfdb 833d
000003f0: 1ccd d7bc 60fd f2bc ac54 0abc be77 30bd

layer4.0.bias f4 [32]
-0.012823708 -0.05965484 -0.07181186 0.043896537 -0.015795588 -0.03780617 0.051117573 0.001693764
0.0045518777 0.050620142 -0.031184647 0.07100394 0.081279 0.051220775 -0.00044639842 0.06964912
0.007695535 -0.049966905 -0.07025125 0.026598576 -0.050364077 0.0565609 0.07393295 -0.06391165
0.005381781 0.08121062 -0.025169326 -0.04214336 0.02566895 -0.037274558 0.0076451357 0.045307335
00000000: 881a 52bc a258 74bd 1912 93bd dbcc 333d
00000010: c065 81bc a4da 1abd a960 513d 4a01 de3a
00000020: eb27 953b 1157 4f3d f276 ffbc 846a 913d
00000030: 9b75 a63d e0cc 513d 950a eab9 33a4 8e3d
00000040: d42a fc3b 19aa 4cbd e3df 8fbd 42e5 d93c
00000050: 904a 4ebd 67ac 673d 296a 973d 1ce4 82bd
00000060: a759 b03b c151 a63d e72f cebc 849e 2cbd
00000070: b147 d23c 35ad 18bd 0c84 fa3b 2f94 393d

layer4.1.weight f4 [32]
1.0969738 1.10132 1.065383 1.0930182 1.0885321 1.085428 1.1034881 1.0928011
1.0370424 1.0945511 1.1094997 1.0842435 1.0491279 1.1104308 1.0633627 1.1001084
1.0543368 1.0757473 1.0873535 1.067181 1.08869 1.0597101 1.0928866 1.0989296
1.110271 1.0989327 1.028626 1.1045887 1.0740781 1.0793167 1.0699906 1.0884821
00000000: a369 8c3f 0ef8 8c3f 785e 883f 05e8 8b3f
00000010: 0555 8b3f 4eef 8a3f 193f 8d3f e8e0 8b3f
00000020: cebd 843f 401a 8c3f 1604 8e3f 7ec8 8a3f
00000030: d349 863f 9922 8e3f 451c 883f 5ad0 8c3f
00000040: 82f4 863f 16b2 893f 662e 8b3f 6399 883f
00000050: 325a 8b3f 95a4 873f b5e3 8b3f baa9 8c3f
00000060: 5c1d 8e3f d4a9 8c3f 04aa 833f 2a63 8d3f
00000070: 647b 893f 0d27 8a3f 74f5 883f 6253 8b3f

layer4.1.bias f4 [32]
0.062329356 0.027755069 0.040430807 0.04821936 0.042208146 0.065878704 0.03492821 0.015450606
0.025967756 0.040280636 0.055507373 0.065749474 0.046266112 0.05842718 0.055133678 0.03622693
0.04420106 0.019202357 0.059205882 0.046713848 0.07204457 0.056785077 0.055092756 0.05657172
0.05908498 0.07018563 0.02131737 0.04110662 0.052774884 0.020900339 0.048446216 0.005558612
00000000: 114d 7f3d 995e e33c c69a 253d aa81 453d
00000010: 73e2 2c3d 6aeb 863d e210 0f3d 8a24 7d3c
00000020: 55ba d43c 4ffd 243d b35b 633d a9a7 863d
00000030: 8981 3d3d 5751 6f3d dad3 613d b062 143d
00000040: 2c0c 353d 434e 9d3c de81 723d 0557 3f3d
00000050: 1b8c 933d 7897 683d f1a8 613d bfb7 673d
00000060: 1803 723d 7cbd 8f3d c4a1 ae3c 6a5f 283d
00000070: 7a2a 583d 3037 ab3c 8a6f 463d 0425 b63b

layer4.1.running_mean f4 [32]
-0.4940645 0.31665534 -0.55255634 -0.65096384 0.51375675 -1.4202031 0.4572723 0.29412308
0.40710685 0.69064015 -0.32626066 -0.6780619 -1.2810311 -0.51385033 -0.5989537 0.6851333
0.27295983 0.40156764 -1.058555 -1.2327709 -1.7273729 0.42257386 0.65481347 -0.43028018
0.67836386 0.7869089 0.052714415 0.3261896 -0.47173113 0.049447104 -0.033554707 0.30900368
00000000: 06f6 fcbe a620 a23e 5574 0dbf 91a5 26bf
00000010: 9085 033f 37c9 b5bf 981f ea3e 4d97 963e
00000020: 4f70 d03e cbcd 303f a30b a7be 7795 2dbf
00000030: d4f8 a3bf b28b 03bf 0855 19bf e564 2f3f
00000040: 64c1 8b3e 469a cd3e bb7e 87bf 70cb 9dbf
00000050: 8e1a ddbf 9a5b d83e dba1 273f af4d dcbe
00000060: 41a9 2d3f dd72 493f 12eb 573d 5302 a73e
00000070: be86 f1be 0c89 4a3d a970 09bd bb35 9e3e

layer4.1.running_var f4 [32]
0.96451956 1.1677532 0.72563076 1.1053014 0.7165962 0.945212 0.8900518 1.0063277
0.5621724 0.99801666 1.0187188 0.97170734 1.0374897 1.15327 0.6900901 0.788004
0.60815877 0.6609344 1.225583 0.90501344 0.95860094 0.4929707 0.7635181 0.8107762
0.673311 0.6429888 0.5802377 1.0172707 0.6959989 0.6971798 0.6397752 1.3344855
00000000: c1ea 763f f078 953f f0c2 393f 847a 8d3f
00000010: d972 373f 6af9 713f 6fda 633f 59cf 803f
00000020: 88ea 0f3f 057e 7f3f 6165 823f d0c1 783f
00000030: 76cc 843f 5a9e 933f bfa9 303f a1ba 493f
00000040: 4bb0 1b3f ff32 293f e7df 9c3f f6ae 673f
00000050: df66 753f a866 fc3e ec75 433f 078f 4f3f
00000060: 1c5e 2c3f ea9a 243f 758a 143f ed35 823f
00000070: fc2c 323f 607a 323f 4fc8 233f 6cd0 aa3f

fc.weight f4 [1, 1152]
-0.011837699 0.0018632284 -0.015201722 -0.024647558 -0.011622699 0.010954589 0.019850725 0.024031661
0.008601193 0.021756899 0.032588564 0.022553282 -0.03420966 0.028463505 -0.013680112 -0.080068454
-0.054061558 0.0018921265 0.015415178 0.02505956 -0.053158537 -0.09256011 -0.023018325 0.052988313
0.006932186 0.014935438 0.015680935 -0.044836946 -0.02775271 -0.010268465 0.008607676 -0.006592021
0.03354581 0.021172894 -0.02400892 -0.0038188992 0.0097001735 -0.010359787 0.010978295 0.03738197
0.033700436 -0.021342373 0.02634795 -0.009598612 0.005322609 0.024215478 0.039165948 0.010694441
0.067590006 0.03907032 0.06710533 0.090421334 0.07880056 0.068595454 0.06879681 0.05883533
0.06792188 0.050029904 0.04817806 0.0768374 0.020994108 0.07528767 0.06468032 0.049206674
0.05653402 0.033212584 0.039815888 0.030931093 0.045915917 0.040318288 0.06502178 0.050803855
-0.014911584 -0.017760484 -0.02586762 -0.027985157 -0.019707179 -0.030902417 -0.034855768 -0.019759893
-0.053375598 -0.040342603 -0.03522224 0.00039013269 0.015088794 0.041352317 0.0037142236 -0.02436816
-0.019170117 -0.04910237 -0.01439051 -0.04553803 -0.02779769 0.013495042 0.05200374 -0.013594519
-0.017206699 -0.04851342 -0.06929452 -0.045931038 0.012409587 -0.035033297 0.013821738 -0.024033833
-0.024491267 -0.003998089 0.018267415 -0.0015389007 -0.025478102 -0.028420435 -0.024590917 0.01313979
0.0070229904 -0.011934193 0.011012849 0.038157236 0.09947164 0.041376635 -0.013470616 -0.018940266
-0.013361399 -0.005556469 -0.038257748 -0.056968845 -0.022267114 0.030835647 -0.023040643 0.005417193
-0.056467608 -0.060974725 -0.03484869 0.020245666 -0.02451629 -0.0036022281 -0.037897103 -0.080889635
-0.029013574 0.0146541735 0.016780503 -0.024550429 -0.027905248 -0.046881307 -0.02225067 0.01654724
0.047659546 0.004078682 -0.012583262 0.025620552 0.00511223 -0.005509865 -0.0023234857 -0.006593551
0.003900777 0.06719387 0.058240738 0.027506325 -0.009440719 -0.001536607 -0.02545095 0.050548337
0.08157008 0.030536318 0.039859995 -0.038112033 -0.05272887 -0.020656353 -0.005752343 -0.035781827
0.014066692 0.012812126 0.0016300811 0.02244657 0.0069312146 -0.00024162246 -0.0030774819 0.02053185
0.025751822 0.037095696 0.024447108 0.009513246 0.011838193 -0.0320618 -4.789192e-05 -0.031547956
-0.01278535 -0.015777828 -0.014663173 -0.023594702 -0.04467984 -0.06179989 -0.035194688 -0.028154742
-0.024926437 -0.03505157 -0.09771638 -0.09986292 -0.051489577 -0.029992517 -0.027983608 -0.025563797
-0.05775208 -0.04433677 -0.03932522 0.023715228 -0.0077142525 -0.06923705 -0.07628065 -0.09959307
-0.055606518 -0.03570564 -0.022456765 -0.032040115 -0.047013193 -0.03454458 0.0041702446 -0.008533047
-0.0065029464 0.0043691276 -0.004094318 -0.021575386 0.010683824 -0.014000838 0.025002701 0.025294071
0.0015284518 0.018021878 0.021139339 0.013024865 0.033632714 0.072037466 0.032958925 0.049805164
0.035524238 0.03683384 0.075514935 0.093812935 0.07547046 0.053440765 0.079206266 0.04655934
0.07385422 0.09900053 0.07385006 0.02592993 0.018310245 0.051532142 0.027928373 0.061442122
0.043308616 0.031075034 0.0048462097 -0.02527726 0.009897271 0.0008888594 0.027893396 0.03218476
00000000: e9f2 41bc 9237 f43a a510 79bc ade9 c9bc
00000010: 226d 3ebc e07a 333c fd9d a23c 0cde c43c
00000020: 05ec 0c3c 863b b23c 967b 053d a9c1 b83c
00000030: 6e1f 0cbd 4c2c e93c 8c22 60bc eefa a3bd
00000040: a76f 5dbd 3b01 f83a f18f 7c3c b549 cd3c
00000050: c4bc 59bd 2890 bdbd ed90 bcbc 460a 593d
00000060: 6427 e33b c4b3 743c 4e75 803c f2a6 37bd
00000070: a759 e3bc 103d 28bc 3607 0d3c e101 d8bb
00000080: 5567 093d c772 ad3c 5bae c4bc 7f46 7abb
00000090: 7aed 1e3c 19bc 29bc 4ede 333c d61d 193d
000000a0: 7809 0a3d 33d6 aebc a8d7 d73c 7f43 1dbc
000000b0: 4869 ae3b 8a5f c63c 796c 203d bd37 2f3c
000000c0: a16c 8a3d 3308 203d 856e 893d d22e b93d
000000d0: 3062 a13d c67b 8c3d 58e5 8c3d 51fd 703d
000000e0: a01a 8b3d 28ec 4c3d 5c56 453d ed5c 9d3d
000000f0: d6fb ab3c 6c30 9a3d 1e77 843d f08c 493d
00000100: 3790 673d eb09 083d fc15 233d 3463 fd3c
00000110: 5412 3c3d ca24 253d 242a 853d b417 503d
00000120: b74f 74bc 6f7e 91bc 55e8 d3bc 2141 e5bc
00000130: f370 a1bc 1127 fdbc ecc4 0ebd 80df a1bc
00000140: 5fa0 5abd 493e 25bd 3245 10bd b98a cc39
00000150: fd36 773c 0c61 293d 556a 733b bc9f c7bc
00000160: a60a 9dbc 911f 49bd 2cc6 6bbc 1686 3abd
00000170: fbb7 e3bc 4f1a 5d3c e001 553d 8cbb 5ebc
00000180: 10f5 8cbc 02b6 46bd 49ea 8dbd 2f22 3cbd
00000190: 9551 4b3c 137f 0fbd 9274 623c 9ae2 c4bc
000001a0: e9a1 c8bc 6702 83bb 8ca5 953c f0b4 c9ba
000001b0: 74b7 d0bc f9d1 e8bc e472 c9bc 4648 573c
000001c0: 1d21 e63b a287 43bc 3d6f 343c c34a 1c3d
000001d0: cab7 cb3d 8c7a 293d dcb3 5cbc 9e28 9bbc
000001e0: c5e9 5abc 0a13 b6bb 28b4 1cbd 2a58 69bd
000001f0: 8669 b6bc 0a9b fc3c bbbf bcbc b582 b13b
00000200: 944a 67bd a2c0 79bd 80bd 0ebd 3dda a53c
00000210: 63d6 c8bc 5c13 6cbb fe39 1bbd 77a9 a5bd
00000220: e0ad edbc 0f18 703c 4477 893c fb1d c9bc
00000230: 8c99 e4bc 9d06 40bd 0947 b6bc 148e 873c
00000240: a836 433d 77a6 853b 072a 4ebc 31e2 d13c
00000250: 7e84 a73b 198c b4bb 9f45 18bb b70e d8bb
00000260: 2ea4 7f3b f19c 893d d78d 6e3d f254 e13c
00000270: 3fad 1abc fa67 c9ba 837e d0bc c60b 4f3d
00000280: 370e a73d 4d27 fa3c 3c44 233d 5d1b 1cbd
00000290: 3afa 57bd 8337 a9bc 277e bcbb f78f 12bd
000002a0: fc77 663c f4e9 513c 72a8 d53a dfe1 b73c
000002b0: 3e1f e33b 095c 7db9 94af 49bb 6932 a83c
000002c0: 7cf5 d23c a8f1 173d 4d45 c83c 72dd 1b3c
000002d0: fbf4 413c 3c53 03bd 8fdf 48b8 6e38 01bd
000002e0: a579 51bc 8140 81bc ce3d 70bc ad49 c1bc
000002f0: 3502 37bd e221 7dbd 4e28 10bd c6a4 e6bc
00000300: 8732 ccbc 3c92 0fbd 871f c8bd ee84 ccbd
00000310: bce6 52bd deb2 f5bc e13d e5bc 2b6b d1bc
00000320: 728d 6cbd 799a 35bd 7b13 21bd 7046 c23c
00000330: d7c7 fcbb 28cc 8dbd 0839 9cbd 74f7 cbbd
00000340: a9c3 63bd 1440 12bd 40f7 b7bc 7f3c 03bd
00000350: e890 40bd 9e7e 0dbd 8ca6 883b 31ce 0bbc
00000360: ab16 d5bb e62a 8f3b a129 86bb ddbe b0bc
00000370: 350b 2f3c c563 65bc 77d2 cc3c 8335 cf3c
00000380: 5556 c83a 9ea2 933c 682c ad3c 3e66 553c
00000390: 75c2 093d 6188 933d f0ff 063d 8000 4c3d
000003a0: dd81 113d 15df 163d 93a7 9a3d ff20 c03d
000003b0: 4290 9a3d b4e4 5a3d e536 a23d 02b5 3e3d
000003c0: e240 973d cac0 ca3d b33e 973d 016b d43c
000003d0: 5eff 953c 5e13 533d 0bca e43c bcaa 7b3d
000003e0: 6064 313d 1291 fe3c f4cc 9e3b 4212 cfbc
000003f0: 2a28 223c 5802 693a b180 e43c 2bd4 033d
