data/chkbox_models/chkbox_rnd8_0_bestVal.pt (torch_old, 236310 bytes, 31 tensors)

layer1.0.weight f4 [4, 1, 3, 3]
0	0xbdfd73e4	-0.1237562
1	0xbe05ee62	-0.13079217
2	0x3d635b7d	0.055507172
3	0x3dd3ce6e	0.10342108
4	0x3da1b06d	0.07894979
5	0x3e0f9605	0.14022072
6	0x3e9cd034	0.30627596
7	0xbda01de9	-0.07818205
8	0xbe7a9759	-0.24471797
9	0xbe9e4c9a	-0.30917817
10	0xbe7910dd	-0.24322839
11	0x3e97aabf	0.29622456
12	0xbe8657ce	-0.26238865
13	0x3d95124e	0.07278882
14	0x3e13b324	0.14423805
15	0x3e81ea57	0.253741
16	0xbeae67a7	-0.34063455
17	0xbe8cead5	-0.27522913
18	0xbe893fb7	-0.26806423
19	0xbd82af02	-0.06381036
20	0xbe920c79	-0.2852514
21	0xbe14402a	-0.14477602
22	0xbe73c825	-0.23806818
23	0x3e8b3764	0.27190697
24	0x3dca6ef3	0.09884443
25	0xbe834e94	-0.25645888
26	0xbe19a8f2	-0.15005854
27	0xbe197ff7	-0.14990221
28	0xbd68b29c	-0.05681096
29	0xbdcf251d	-0.10114501
30	0x3e0a057e	0.13478658
31	0x3ea53068	0.32263494
32	0x3d60c9e3	0.054880034
33	0x3eacfe56	0.33787793
34	0xbe4a6cd3	-0.19768076
35	0x3e63d96d	0.2225091

layer1.0.bias f4 [4]
0	0xbe083316	-0.13300738
1	0xbe9481a4	-0.29005158
2	0xbe255c24	-0.1614843
3	0x3ea15f2c	0.31517923

layer1.1.weight f4 [4]
0	0x3f802170	1.0010204
1	0x3f7fffab	0.99999493
2	0x3f75ff15	0.9609235
3	0x3f814178	1.0098104

layer1.1.bias f4 [4]
0	0x3cd448c5	0.025913605
1	0x3b93af4d	0.0045069815
2	0xbd1aed23	-0.037823807
3	0xbc58d6c0	-0.013234794

layer1.1.running_mean f4 [4]
0	0xbcfee187	-0.0311134
1	0xbf699917	-0.9124922
2	0xbf90cc3e	-1.131233
3	0x3f595b4f	0.8490495

layer1.1.running_var f4 [4]
0	0x3d011bce	0.031520657
1	0x3ee6bc8f	0.45065734
2	0x3f832423	1.0245403
3	0x3eb63963	0.35590658

layer2.0.weight f4 [8, 4, 3, 3]
0	0x3d8d33e3	0.06894662
1	0xbd4891cb	-0.048967164
2	0x3ca58fb3	0.020210123
3	0x3e30056c	0.17189568
4	0x3d5d5126	0.054032467
5	0x3d4acfec	0.049514696
6	0x3da02e66	0.0782135
7	0x3dd1aac7	0.10237651
8	0x3c0caf30	0.00858669
9	0x3d936e84	0.071988136
10	0xbe17f07a	-0.14837828
11	0xbc9810d1	-0.018562706
12	0x3def5837	0.116867475
13	0x3d3d3d13	0.046200823
14	0x3d7665bd	0.06015562
15	0x3cd45650	0.025920063
16	0x3d7e6ee0	0.062117457
17	0x3d4a0c29	0.049328003
18	0x3da78039	0.081787534
19	0x3da17ab3	0.07884731
20	0xbe020052	-0.12695435
21	0xbdc19822	-0.09452845
22	0x3db8f9a4	0.0903199
23	0x3d961b5f	0.07329439
24	0xbc8aba9c	-0.016934685
25	0xbe06c643	-0.13161568
26	0x3cff6707	0.031177057
27	0x3e105e9a	0.14098588
28	0x3b9644dd	0.004585846
29	0x3dd4eabc	0.103963345
30	0x3b4dc408	0.0031397361
31	0x3d8f5c36	0.0700001
32	0x3dfae5be	0.12250851
33	0x3d21c3b7	0.03949329
34	0x3cc4e1bb	0.024033418
35	0xbde09827	-0.10966521
36	0x3be1869b	0.0068825013
37	0xbdd73273	-0.10507669
38	0xbc8d2d57	-0.017233534
39	0x3c084097	0.008316181
40	0x3bcea192	0.006305882
41	0x3d39513f	0.045243498
42	0x3e1e94fe	0.15486524
43	0x3e1a9de9	0.150993
44	0x3e02b74a	0.12765232
45	0xbc5cf943	-0.013487163
46	0xbc0f5430	-0.008748099
47	0xbd284aa5	-0.04108681
48	0xbd7e09ba	-0.062020995
49	0xbe138be3	-0.14408831
50	0xbd78fcf0	-0.060788095
51	0xbe37757c	-0.1791591
52	0xbb324983	-0.002720446
53	0x3b8e9fc6	0.0043525426
54	0x3d765823	0.060142647
55	0x3df6ac01	0.12044526
56	0xbdc58582	-0.09644605
57	0x3da3af9a	0.07992478
58	0x3d7bffd7	0.061523285
59	0xbe2212a4	-0.15827423
60	0x3dd4d227	0.10391646
61	0xbe3329a1	-0.17496349
62	0x3cf6d496	0.030130666
63	0xbd2e927a	-0.04262016
64	0xbd82e26b	-0.06390842
65	0xbe05537d	-0.1302013
66	0x3de627fd	0.11238096
67	0xbd07cb21	-0.033152703
68	0x3da560ce	0.08075105
69	0x3e20ab42	0.1569033
70	0xbdf25e04	-0.11834338
71	0xbe16302b	-0.14666812
72	0x3d607f1b	0.054808717
73	0xbd284b27	-0.041087296
74	0x3e1eff88	0.15527165
75	0xbb6a3628	-0.0035737846
76	0xbcbc8257	-0.02301137
77	0x3c0db4aa	0.008649031
78	0x3e003fb5	0.12524302
79	0x3da259f8	0.079273164
80	0x3de2ce2b	0.1107448
81	0x3d508683	0.05090953
82	0xbe28d32c	-0.16486806
83	0x3e07d223	0.13263755
84	0xbd575751	-0.052573506
85	0xbd2a74c1	-0.04161525
86	0xbe22cf39	-0.15899362
87	0x3db19fcf	0.08673059
88	0x3d174dd9	0.036939476
89	0x3df08797	0.11744612
90	0x3e00c574	0.12575322
91	0xbe0efbb4	-0.13963205
92	0x3d40a0f7	0.047028508
93	0x3bcf111a	0.0063191773
94	0xbc670ca8	-0.014102139
95	0x3d95e61e	0.07319282
96	0x3e1a761e	0.1508412
97	0xbd536f81	-0.05162001
98	0x3dce089a	0.10060234
99	0x3e01a4fb	0.12660591
100	0xbddd4df4	-0.10805884
101	0x3e13cffc	0.14434808
102	0x3d41bf99	0.047301862
103	0xbd6569c2	-0.05600906
104	0x3e1be21b	0.15222971
105	0xbc8c2311	-0.017106565
106	0xbcca5c07	-0.024702085
107	0xbb644e42	-0.0034836684
108	0x3c10875f	0.0088213375
109	0xbde07298	-0.10959357
110	0x3db02dfa	0.08602519
111	0xbd795813	-0.06087501
112	0xbe21e358	-0.15809381
113	0xbdbb6973	-0.09150972
114	0x3c05e12b	0.00817136
115	0xbc202fb0	-0.009776995
116	0xbe047b2b	-0.1293761
117	0xbdf28b17	-0.118429355
118	0xbc1773c9	-0.009243914
119	0x3d2355e6	0.03987684
120	0xbe12ff5e	-0.14355227
121	0xbe1e9783	-0.15487485
122	0x3e12e100	0.14343643
123	0xbd6bf71e	-0.057608716
124	0x3dac2320	0.08405137
125	0xbda8f2d5	-0.082494415
126	0x3d35ee53	0.044416737
127	0x3d96a195	0.07355038
128	0xbd8f356f	-0.069926135
129	0xbc3ca3af	-0.011513635
130	0x3dee02c8	0.11621624
131	0x3c848fc1	0.016181828
132	0xbd9f5844	-0.07780507
133	0x3d90e000	0.070739746
134	0x3e12b016	0.14324984
135	0x3c2d36ab	0.010572116
136	0x3d80d284	0.06290153
137	0xbe270506	-0.1631051
138	0xbe50a8e5	-0.20376928
139	0xbd6a9acf	-0.057276543
140	0xbe3372e2	-0.17524293
141	0x3ded35b4	0.11582509
142	0xbdc54abd	-0.09633396
143	0xbd8d26d4	-0.068921715
144	0x3dcf0cb2	0.10109843
145	0xbd7f8020	-0.06237805
146	0x3e3ccf24	0.18438393
147	0xbd6993e6	-0.057025813
148	0xbd429fcf	-0.047515687
149	0xbda19152	-0.07889046
150	0xbc07933c	-0.0082748495
151	0x3dca23d9	0.09870119
152	0xbdf0ce2d	-0.11758075
153	0xbd32c3ef	-0.043643888
154	0x3d6a3e70	0.05718845
155	0xbe273a57	-0.16330849
156	0xbd7e97aa	-0.062156357
157	0xbdf15445	-0.11783651
158	0xbe29e563	-0.1659141
159	0x3daba9e7	0.08382016
160	0x3d89f1db	0.067355834
161	0xbe11841e	-0.14210555
162	0xbd32a84f	-0.043617543
163	0x3d7c5d43	0.06161238
164	0xbd5a4454	-0.05328782
165	0x3d295805	0.041343708
166	0xbdc6063e	-0.09669159
167	0x3dd7dcbd	0.10540149
168	0xbd641f24	-0.05569376
169	0x3cff413f	0.031159041
170	0x3d274af4	0.040842965
171	0x3e46f4c6	0.19429311
172	0x3e3447fe	0.17605588
173	0x3cca1d12	0.024672065
174	0x3c3c9fd7	0.011512718
175	0x3c71d7ee	0.014760954
176	0x3e254017	0.1613773
177	0x3df10ce0	0.11770034
178	0x3cc30040	0.02380383
179	0x3d54ab60	0.05192125
180	0xbd8b80e5	-0.06811694
181	0xbd99ab00	-0.07503319
182	0x3d9071d5	0.07052962
183	0xbd6edfe7	-0.058319
184	0xbd933029	-0.0718692
185	0xbe00e42d	-0.12587042
186	0x3e0b4ece	0.1360428
187	0x3d6b5153	0.057450604
188	0x3da75156	0.081698105
189	0xbd7b096e	-0.06128829
190	0xbe17c926	-0.14822826
191	0xbe1a13d5	-0.15046628
192	0x3d56d6dc	0.052451
193	0xbe040ee9	-0.12896313
194	0xbe197b4a	-0.14988437
195	0xbd92beea	-0.0716532
196	0xbe1e7c55	-0.15477116
197	0x3d93e318	0.07221049
198	0xbe0bee75	-0.13665183
199	0x3d6fac52	0.058513947
200	0x3d311409	0.043231998
201	0x3dc90ccb	0.09816893
202	0x3de1ee6c	0.110318035
203	0xbd1f5b1b	-0.038905244
204	0x3d9d35ee	0.07676302
205	0xbc92fd68	-0.0179431
206	0xbda8ce7c	-0.08242509
207	0xbe0f6f85	-0.14007385
208	0x3e037665	0.12838133
209	0x3cfbe897	0.030750556
210	0x3e28ebd3	0.1649621
211	0xbc1fa5c9	-0.009744116
212	0x3d80979c	0.06278917
213	0xbb37755a	-0.002799353
214	0x3e2df33d	0.1698732
215	0x3dd06e30	0.101772666
216	0x3d0c8dca	0.034314908
217	0x3d017b3f	0.031611677
218	0x3c20aaca	0.009806344
219	0x3d9d083f	0.076675884
220	0xbdfe6bd3	-0.124229096
221	0xbe14825f	-0.14502858
222	0xbd81367e	-0.06309222
223	0x3b1dfbe4	0.0024106437
224	0xbd3a1e8a	-0.04543928
225	0x3d25c92e	0.040475063
226	0x3d9cddb1	0.07659472
227	0xbc575485	-0.01314271
228	0xbdc74b47	-0.09731155
229	0x3a771c41	0.00094265124
230	0x3deaccb4	0.11464825
231	0x3d3daa1c	0.046304807
232	0x3da0bc8c	0.078484625
233	0x3d214f2c	0.039382145
234	0x3bb740cb	0.0055924407
235	0x3d34cc85	0.044140358
236	0x3dbe3d5f	0.09289049
237	0x3e048c6f	0.12944196
238	0xbd0844c6	-0.033268712
239	0x3da74621	0.08167673
240	0xbcd13d85	-0.02554203
241	0x3ac6b522	0.0015160183
242	0x3de0603f	0.109558575
243	0xbc75630d	-0.014977229
244	0xbdabd7de	-0.08390783
245	0x3db95baa	0.09050687
246	0xbd9f81b5	-0.077884115
247	0xbd0fa376	-0.035067998
248	0xbd2697cb	-0.040672105
249	0xbd416cf3	-0.047223043
250	0x3dce9dcb	0.1008869
251	0xbcec2c38	-0.028829679
252	0x3da9db65	0.08293799
253	0x3e31ef0d	0.17376347
254	0x3d65a207	0.056062724
255	0x3e29b00a	0.1657106

layer2.0.bias f4 [8]
0	0xbd6c0b6d	-0.057628084
1	0xbdaebab0	-0.085317016
2	0xbcd81ff3	-0.026382422
3	0x3dea38bd	0.11436603
4	0xbdfcc523	-0.12342288
5	0xbcc07ed7	-0.023497982
6	0x3ddc0971	0.10743988
7	0x3b5f0885	0.0034032178

layer2.1.weight f4 [8]
0	0x3f7c6090	0.9858484
1	0x3f8262a5	1.0186354
2	0x3f72f2d9	0.94901806
3	0x3f7d96ba	0.99058115
4	0x3f83ec9e	1.0306585
5	0x3f7e86b8	0.99424314
6	0x3f7f25e2	0.9966718
7	0x3f82947d	1.0201565

layer2.1.bias f4 [8]
0	0xbc908f5c	-0.017646484
1	0x3d2e6e16	0.042585455
2	0xbcea293e	-0.028584119
3	0x3ad601a2	0.0016327391
4	0x3c342333	0.01099472
5	0xbaf8e864	-0.0018990156
6	0xbb971d7d	-0.0046116696
7	0x3cb12e2b	0.02162846

layer2.1.running_mean f4 [8]
0	0x3ec9ca0c	0.39411962
1	0xbe5cea1b	-0.21573679
2	0x3eb378ab	0.35053
3	0xbe98532a	-0.2975095
4	0x3c617797	0.013761423
5	0xbdc39d1f	-0.09551453
6	0x3e675ff7	0.22595201
7	0xbe780126	-0.24219188

layer2.1.running_var f4 [8]
0	0x3e7e8990	0.24857163
1	0x3e23989a	0.15976182
2	0x3e2e83ce	0.17042467
3	0x3ed9c765	0.42534938
4	0x3ee6b642	0.45060927
5	0x3e9bcbc4	0.30428898
6	0x3e5c4431	0.21510388
7	0x3e9ad905	0.30243698

layer3.0.weight f4 [16, 8, 3, 3]
0	0xbda96d30	-0.08272779
1	0xbd896c28	-0.06710082
2	0xbc1a583f	-0.009420454
3	0xbc672967	-0.014108992
4	0x3c86a400	0.016435623
5	0x3df0b495	0.11753193
6	0xbdbc694a	-0.0919977
7	0x3cea7b4b	0.028623244
8	0xbd8bed89	-0.068324156
9	0xbcb98ebd	-0.02265107
10	0x3d7942a2	0.06085456
11	0x3d750237	0.059816565
12	0x3bc22f7f	0.005926072
13	0xbd23b81c	-0.039970502
14	0x3c818720	0.015811503
15	0xbbe8cc7a	-0.0071044536
16	0xbd147609	-0.03624538
17	0x3dde6674	0.10859385
18	0xbd8e829c	-0.069585055
19	0x3d7be65f	0.061498996
20	0x3dcac4df	0.099008314
21	0xbc124ef8	-0.00892996
22	0x3d3bd912	0.04586131
23	0xbd718dbf	-0.05897307
24	0xbdd6070f	-0.10450565
25	0xbd52f4cf	-0.051503
26	0xbda988e4	-0.08278063
27	0xbd6b63a5	-0.057468075
28	0x3dd4782b	0.10374483
29	0x3cd337bc	0.025783412
30	0x3d9d2b55	0.076742806
31	0x3d4922de	0.049105518
32	0xbde38b0e	-0.11110507
33	0xbda948a3	-0.082658075
34	0xbcdad6b4	-0.026713707
35	0xbbf97428	-0.007612724
36	0xbd96368d	-0.073346235
37	0x3d837b65	0.0642002
38	0x3d9013cd	0.07035027
39	0x3d4539b5	0.048150737
40	0x3db634bc	0.08896777
41	0x3c159111	0.009128825
42	0xbda2afa8	-0.0794366
43	0xbdbb111b	-0.09134122
44	0xbc33257e	-0.010934232
45	0xbdac1e17	-0.08404177
46	0x3d78fc06	0.060787223
47	0x3d644e3b	0.05573867
48	0x3dc7e8a8	0.097611725
49	0x3dafe655	0.08588854
50	0xbdc54920	-0.09633088
51	0xbde64386	-0.11243348
52	0x3d2faa69	0.042887125
53	0xbd8800a2	-0.06640746
54	0x3d86fe2b	0.065914474
55	0xbdda9585	-0.1067305
56	0x3d7840db	0.060608726
57	0xbdf21504	-0.11820415
58	0xbd9b98b8	-0.07597488
59	0xbcadc6de	-0.021212991
60	0xbd891ea1	-0.06695295
61	0x3d8334f6	0.06406586
62	0x3ca061c1	0.019577863
63	0xbdad9fa7	-0.08477717
64	0xbd9fdeae	-0.07806145
65	0x3dce143b	0.100624524
66	0xbdcbf578	-0.09958929
67	0x3e00b2c2	0.1256819
68	0x3cdd050a	0.026979942
69	0xbdcedaf4	-0.10100356
70	0xbcfbb7a2	-0.030727211
71	0x3d0055a4	0.031331673
72	0x3d9a7c55	0.07543246
73	0xbd3f2897	-0.04666957
74	0xbd90c3cf	-0.070685975
75	0x3d5153c1	0.051105265
76	0xbd28e32e	-0.04123228
77	0x3d7ffcbf	0.062496897
78	0xbe0310a3	-0.12799315
79	0xbd86441e	-0.06555961
80	0x3dcc0ebd	0.099637486
81	0xbd8aa2be	-0.06769322
82	0xbdc74016	-0.0972902
83	0xbdb517ff	-0.088424675
84	0xbe0fdb3e	-0.14048478
85	0x3c0c3421	0.00855735
86	0x3d813aad	0.0631002
87	0x3d2394d7	0.039936867
88	0xbd8addc8	-0.06780583
89	0xbd89da2f	-0.06731068
90	0xbdad95a4	-0.08475807
91	0xbd5a793f	-0.053338286
92	0xbd2b08a9	-0.041756306
93	0xbc5b6591	-0.013390915
94	0xbda88058	-0.08227605
95	0x3db8e379	0.09027762
96	0xbcb185d8	-0.021670267
97	0xbd0c096b	-0.03418867
98	0x3da64a2d	0.08119617
99	0xbd897c88	-0.067132056
100	0xbd9f1370	-0.07767379
101	0xbcb3acac	-0.021932922
102	0x3dc1bed9	0.094602294
103	0xbc230c65	-0.009951686
104	0x3d3e9bcb	0.046535295
105	0xbdba0094	-0.090821415
106	0x3af8483a	0.0018942424
107	0xbd16487b	-0.036690217
108	0xbd607d4f	-0.054807004
109	0xbd144eff	-0.03620815
110	0xbd2b78f6	-0.041863404
111	0xbdb2b677	-0.08726209
112	0x3d956493	0.07294574
113	0xbd307ba0	-0.043086648
114	0xbd8c38d1	-0.06846774
115	0x3da8feaf	0.08251702
116	0xbd465ffd	-0.048431385
117	0x3d9cc72b	0.07655176
118	0x3d69ca9e	0.057077996
119	0x3de41b12	0.11137976
120	0x3ceb9479	0.02875732
121	0xbdb76699	-0.08955116
122	0x3db4402d	0.08801303
123	0xbdd2a1e2	-0.10284783
124	0x3dbadf8e	0.09124671
125	0x3d8d0aca	0.068868235
126	0x3c13cb24	0.0090206005
127	0xbdc6f546	-0.09714751
128	0x3d825107	0.06363111
129	0xbd8580cd	-0.065187074
130	0xbd2160ab	-0.03939883
131	0xbd7a4269	-0.06109849
132	0x3cf478e9	0.02984281
133	0xbdd95067	-0.10611039
134	0xbdec5b63	-0.11540868
135	0x3da943b9	0.0826487
136	0xbc09b5c4	-0.008405153
137	0xbddb83d8	-0.107185066
138	0x3d7cf3f9	0.061756108
139	0xbade5bbf	-0.0016964598
140	0x3bdc4c54	0.006722966
141	0x3aa33e8d	0.0012454555
142	0xbdde33fc	-0.10849759
143	0x3bb4bcab	0.005515655
144	0xbd021093	-0.031754088
145	0xbd93bd5c	-0.07213852
146	0x3c5926f3	0.013253915
147	0x3d95b013	0.07308974
148	0xbd09c690	-0.03363663
149	0x3d90ed54	0.07076517
150	0x3dae894e	0.085222825
151	0x3cd1672c	0.025561891
152	0xbde30956	-0.11085765
153	0x3dae3f8d	0.08508215
154	0x3d412030	0.047149837
155	0x3da901f9	0.082523294
156	0x3da212b1	0.07913721
157	0x3d554d58	0.052075714
158	0x3ba89571	0.005144768
159	0xbdcb1ea0	-0.09917951
160	0x3dc4d741	0.09611369
161	0x3d9c6db1	0.076381095
162	0x3dde22c1	0.108464725
163	0xbcd279a2	-0.025692765
164	0x3c211060	0.009830564
165	0xbd7ea953	-0.0621732
166	0x3b14a763	0.0022682778
167	0x3db0b38a	0.08627994
168	0xbd95195e	-0.07280229
169	0xbd89febc	-0.0673804
170	0x3cf05fb9	0.02934252
171	0x3d980b08	0.07423979
172	0xbd073987	-0.033013847
173	0x3d204f5e	0.03913819
174	0xbcb5439a	-0.022126961
175	0x3d952cda	0.072839454
176	0xbdc01d35	-0.09380571
177	0xbddd765c	-0.10813591
178	0xbc296c33	-0.010340738
179	0x3bdc12af	0.0067160944
180	0xbc903686	-0.017604124
181	0xbcc47105	-0.023979673
182	0x3cfb68e8	0.030689672
183	0x3de27b1f	0.1105864
184	0x3d38fd32	0.04516334
185	0x3cd9187c	0.026500933
186	0xbd030afd	-0.0319929
187	0x3d31848f	0.04333931
188	0x3ab7e65c	0.0014030444
189	0xbd882608	-0.06647879
190	0xbd534e30	-0.051588237
191	0xbde181bc	-0.11011073
192	0x3d05346a	0.03252069
193	0xbcc7e78e	-0.024402406
194	0x3d974637	0.07386439
195	0xbda8f57a	-0.08249946
196	0x3d89273a	0.06696935
197	0xbe03312f	-0.12811731
198	0x3d799fb3	0.060943317
199	0xbbda1686	-0.006655517
200	0xbd54f849	-0.051994596
201	0xbe038490	-0.12843537
202	0xbc83e64e	-0.016101029
203	0x3d49e38d	0.049289275
204	0x3d83c600	0.0643425
205	0xbdb0590b	-0.086107336
206	0x3cab77e2	0.020931188
207	0x3daccbb0	0.08437288
208	0x3d6fb9db	0.058526855
209	0x3de5623b	0.112003766
210	0x3de1e02a	0.11029084
211	0xbd8a64e3	-0.06757524
212	0x3dbbe601	0.09174729
213	0x3c3bdcb9	0.011466199
214	0x3e0ebf0d	0.13940068
215	0x3d4ac0d3	0.049500298
216	0xbde03fb4	-0.109496504
217	0x3cebcf6b	0.028785428
218	0x3c7698db	0.015051092
219	0xbd8eefef	-0.069793575
220	0xbd6d9877	-0.05800673
221	0x3d2e3e4c	0.04253988
222	0xbda0f493	-0.07859149
223	0x3d945cfc	0.07244298
224	0xbdd14caa	-0.10219701
225	0xbd2392e3	-0.039935004
226	0xbdd9a774	-0.10627642
227	0x3dc4860a	0.095958784
228	0x3d66ea86	0.056376003
229	0xbdb0f7cb	-0.08641013
230	0x3d703922	0.058648236
231	0xbd0cf591	-0.034413878
232	0xbdaace1a	-0.08340092
233	0x3dc7aa57	0.097492866
234	0x3df2abeb	0.11849197
235	0x3d9d4252	0.07678665
236	0x3d84af58	0.06478757
237	0xbb259542	-0.0025265967
238	0x3d7145a3	0.0589043
239	0xbde1dec4	-0.11028817
240	0x3c1b16f1	0.009465919
241	0x3d9e82e5	0.0773981
242	0xbceebd7b	-0.029143086
243	0x3d809c6b	0.06279834
244	0x3c5adf7d	0.013358948
245	0xbda90d62	-0.08254506
246	0x3d914933	0.0709404
247	0xbb2c6b12	-0.0026308936
248	0x3d883154	0.066500336
249	0xbc1e0fb4	-0.009647299
250	0x3d29ae99	0.041426275
251	0x3d8afed8	0.06786889
252	0x3cf8d3ba	0.030374397
253	0x3def1f9e	0.116759524
254	0xbd7fa671	-0.06241459
255	0xbc38237b	-0.011238928

layer3.0.bias f4 [16]
0	0x3d187df4	0.037229493
1	0xbd8a4808	-0.0675202
2	0x3ddd1a90	0.10796082
3	0x3da4011d	0.08008025
4	0x3cb0a038	0.021560773
5	0xbde5a02b	-0.1121219
6	0x3d933613	0.07188048
7	0x3da2450e	0.079233274
8	0x3b95e290	0.0045741275
9	0xbd318592	-0.043340273
10	0x3da4bafc	0.08043477
11	0xbdaa2e51	-0.083096154
12	0x3b60e3b5	0.0034315411
13	0x3d3c2cba	0.045941092
14	0xbd861fc6	-0.06549029
15	0xba94abf0	-0.0011342745

layer3.1.weight f4 [16]
0	0x3f7db203	0.9909975
1	0x3f7fb250	0.9988146
2	0x3f7a65ee	0.9781178
3	0x3f7e6ce6	0.99384916
4	0x3f822357	1.0167035
5	0x3f80a20a	1.004945
6	0x3f7b6c5a	0.98212206
7	0x3f7c8b22	0.986498
8	0x3f80745d	1.0035511
9	0x3f7d7afb	0.9901578
10	0x3f78e172	0.97219
11	0x3f81f641	1.0153276
12	0x3f826d2f	1.018957
13	0x3f804c0a	1.0023205
14	0x3f82c491	1.0216237
15	0x3f7ff307	0.99980205

layer3.1.bias f4 [16]
0	0xbd19c35f	-0.037539836
1	0xbc81e653	-0.015856897
2	0xbce77020	-0.028251708
3	0xbccaa89f	-0.024738608
4	0x3c843f9b	0.01614361
5	0x39c6f296	0.00037946244
6	0xbcc2b4a6	-0.02376778
7	0xbb1e5eae	-0.002416532
8	0xbb85a897	-0.0040789354
9	0xbca4ace5	-0.020101974
10	0xbd51b89c	-0.051201448
11	0xbc2f1d9b	-0.010688211
12	0xbc04f696	-0.008115431
13	0xbce17fc5	-0.027526746
14	0xbcf022e2	-0.029313508
15	0xbc1c7318	-0.009548925

layer3.1.running_mean f4 [16]
0	0xbe0e6547	-0.13905822
1	0xbefcfb66	-0.49410552
2	0x3ed260ef	0.4108958
3	0x3d8f2b85	0.069907226
4	0xbdc76563	-0.09736135
5	0xbdb77101	-0.08957101
6	0x3d87033b	0.06592413
7	0xbd148006	-0.036254905
8	0x3dce6af6	0.10078995
9	0x3e3fff70	0.18749785
10	0x3eb71ac8	0.3576262
11	0x3e3bf8cf	0.18356632
12	0x3e9c136b	0.30483565
13	0x3d0c7521	0.03429139
14	0xbe38f02a	-0.18060365
15	0xbe23066a	-0.15920416

layer3.1.running_var f4 [16]
0	0x3dba2b8a	0.09090336
1	0x3e2d8d93	0.16948538
2	0x3e9fc805	0.3120729
3	0x3de8c26d	0.11365209
4	0x3e491331	0.19636227
5	0x3dd57503	0.10422709
6	0x3e5c51e1	0.2151561
7	0x3e3a0ba8	0.18168509
8	0x3e8fb938	0.28070998
9	0x3e2810e6	0.16412696
10	0x3ea1333f	0.3148441
11	0x3f088375	0.5332559
12	0x3e057ccc	0.13035887
13	0x3d8ea796	0.06965558
14	0x3dab26ef	0.08357035
15	0x3ec80bff	0.39071652

layer4.0.weight f4 [64, 16, 3, 3]
0	0x3ca882a5	0.020570109
1	0x3d16e033	0.036834907
2	0xbd4302bc	-0.04761003
3	0x3d738e03	0.059461605
4	0xbd7ef4b2	-0.06224508
5	0xbcd4028a	-0.025880117
6	0xbd47aa8f	-0.04874664
7	0x3d120d22	0.035657056
8	0xbcff18a2	-0.031139676
9	0x3d862f2e	0.065519676
10	0xbd7f2c99	-0.06229839
11	0xbda31db2	-0.07964648
12	0xbd32568c	-0.04353957
13	0xbd96d899	-0.073655315
14	0xbc34dd7a	-0.011039132
15	0xbd2b4cdf	-0.041821357
16	0x3c9e61f8	0.019333825
17	0x3d544252	0.05182106
18	0x3d12f83e	0.035881273
19	0xbd512967	-0.051064875
20	0x3daf1d4a	0.08550508
21	0xbd03f7ee	-0.032218866
22	0x3d95599a	0.07292481
23	0x3d90c82e	0.07069431
24	0xbd3cbf30	-0.046080768
25	0x3caa7704	0.020808704
26	0xbd017f2e	-0.03161543
27	0x3c6fd37b	0.014637823
28	0xbd201394	-0.03908117
29	0xbd248ef7	-0.040175404
30	0xbc5cd22f	-0.013477846
31	0xbda1891d	-0.078874804
32	0xbd9ddbd1	-0.07707942
33	0xbc0ce2a1	-0.008598954
34	0xbd9825e5	-0.07429103
35	0x3b0d3bc6	0.002155052
36	0x3d8cd61b	0.06876775
37	0x3d8d76a3	0.06907394
38	0xbdb3e51e	-0.08783935
39	0x3ca2b633	0.01986227
40	0x3d0a1a9b	0.03371678
41	0xbc895a7b	-0.016766777
42	0x3c8d5101	0.01725054
43	0xbdfe2c8f	-0.124108426
44	0xbcdca020	-0.026931822
45	0xbd362939	-0.044472907
46	0x3c564af3	0.013079393
47	0xb83c41f2	-4.488411e-05
48	0xbd9f143d	-0.07767532
49	0xbd26b104	-0.04069616
50	0xbd8bc205	-0.06824116
51	0xbd394c41	-0.045238737
52	0xbd6b8f50	-0.05750972
53	0x3d4991e5	0.0492114
54	0x3c441e23	0.011970076
55	0x3d2b7d31	0.04186744
56	0x3d908665	0.07056884
57	0x3d3e6ac8	0.046488553
58	0x3d7c9fdc	0.06167589
59	0x3d87a76c	0.0662373
60	0x3d3d8dd9	0.046277855
61	0xbceca122	-0.028885428
62	0xbd8848c3	-0.06654503
63	0xbdaa09e9	-0.083026715
64	0xbc51bfc9	-0.012802073
65	0xbdac9a27	-0.0842784
66	0xbd7ca79a	-0.061683275
67	0xbd4ca8cd	-0.04996567
68	0xbdb6a4fc	-0.08918187
69	0xb9dc24f6	-0.00041989208
70	0xbd0f9cfa	-0.035061814
71	0x3d040636	0.032232486
72	0x3d5fb6c1	0.054617647
73	0x3d96f2db	0.0737054
74	0xbc256925	-0.010095869
75	0x3d6bb8b0	0.05754918
76	0x3cd81e38	0.026381597
77	0x3d6d27e4	0.05789937
78	0xbd955454	-0.07291475
79	0xbc9abab9	-0.018887864
80	0xbcec9e5f	-0.028884111
81	0xbd5f08b5	-0.054451663
82	0x3d3b886d	0.045784403
83	0x3c828cee	0.015936341
84	0xbcc27f64	-0.023742385
85	0x3c1c43b0	0.009537622
86	0x3b9e666b	0.0048339865
87	0x3ca7279c	0.02040463
88	0x3d2c2167	0.042024042
89	0xbdb2d2db	-0.08731624
90	0x3ca037a5	0.019557783
91	0x3d8281e3	0.0637243
92	0xbd8c8134	-0.06860581
93	0xbceca85a	-0.02888887
94	0xbd150244	-0.036379114
95	0xbc9d080e	-0.01916888
96	0x3d592e57	0.05302271
97	0x3c6493ea	0.013951281
98	0x3d29256e	0.04129546
99	0x3d1b465f	0.037908908
100	0xbb89af39	-0.0042017964
101	0xbd7369ad	-0.059426952
102	0x3d7ba405	0.061435718
103	0xbd65dd46	-0.056119226
104	0xbcdfb064	-0.02730579
105	0x3d27d788	0.04097703
106	0xbd849aee	-0.06474863
107	0x3d660820	0.056160092
108	0x3d5c5233	0.05378933
109	0x3d95c934	0.07313767
110	0x3d4c8335	0.049929816
111	0x3d525ac5	0.051356096
112	0xbd897de7	-0.06713467
113	0xbbe660ee	-0.007030598
114	0x3c44496d	0.011980397
115	0xbd3c2dcf	-0.045942124
116	0xbdb08e89	-0.086209364
117	0x3d131c6b	0.035915773
118	0xbc40aed0	-0.011760429
119	0xbd6174d6	-0.055043064
120	0x3b37c5a5	0.002804139
121	0xbd413cf2	-0.047177263
122	0xbd93ad72	-0.072108164
123	0xbda547c1	-0.080703266
124	0x3d105843	0.035240423
125	0xbd88396f	-0.066515796
126	0x3d9e56d2	0.077314034
127	0x3d996642	0.07490207
128	0x3d00155b	0.031270366
129	0x3c0b7736	0.008512309
130	0x3d7af179	0.061265443
131	0x3c9bbfd6	0.019012373
132	0xbc9b1e40	-0.018935323
133	0x3da6aebe	0.08138798
134	0xbd41bd77	-0.04729983
135	0xbd390639	-0.04517195
136	0x3c56f5e5	0.013120149
137	0x3d049424	0.03236784
138	0x3b6a56a0	0.00357572
139	0x3ce56edb	0.028006962
140	0x3d7b9427	0.061420586
141	0x3d1f4377	0.0388827
142	0x3cb6f32b	0.022332748
143	0xbdac828c	-0.08423337
144	0xbd9601c4	-0.073245555
145	0xbb9a3505	-0.0047060275
146	0xbd174dfe	-0.036939614
147	0xbca75ea0	-0.020430863
148	0xbd821f25	-0.063535966
149	0xbd7ade11	-0.061246935
150	0xbb066f08	-0.0020512957
151	0xbcfa266f	-0.030535905
152	0xbd5e7c94	-0.054318026
153	0xbd671ddf	-0.05642497
154	0xbd529e3c	-0.051420435
155	0xbd36f324	-0.04466547
156	0xbd4b8251	-0.049684826
157	0xbda2d463	-0.07950666
158	0x3cf8169e	0.030284222
159	0xbd3faeba	-0.04679749
160	0xbd99cfb6	-0.07510321
161	0xbd06dd8f	-0.03292614
162	0xbd8931a0	-0.06698918
163	0xbd862b77	-0.06551259
164	0xbd09ff34	-0.033690646
165	0x3d36eb38	0.044657916
166	0xbc6a3d89	-0.014296898
167	0xbbfc122b	-0.0076925955
168	0xbd91a0be	-0.07110737
169	0x3d4886d1	0.048956696
170	0x3da0541e	0.07828544
171	0xbc27c126	-0.010238921
172	0xbd3663f2	-0.04452891
173	0xbd08c22c	-0.0333883
174	0xbd27f785	-0.041007537
175	0xbc9e4ea6	-0.019324612
176	0x3d78f537	0.06078073
177	0x3b8e90b5	0.0043507465
178	0x3cf6f85d	0.030147726
179	0xbd540176	-0.051759206
180	0xbd21c5de	-0.03949534
181	0x3d839952	0.06425728
182	0x3d3c2690	0.045935214
183	0x3b1cdd4a	0.002393561
184	0xbd6666b4	-0.05625029
185	0x3d636550	0.05551654
186	0xbd9e7dda	-0.07738848
187	0x3cac90fd	0.02106523
188	0x3d95c249	0.073124476
189	0xbcd7a672	-0.026324484
190	0x3d103ad6	0.03521236
191	0x3cccd525	0.025003979
192	0xbb054236	-0.0020333654
193	0xbd13f6a9	-0.036123905
194	0x3d628ff4	0.055313066
195	0x3d6e64eb	0.05820171
196	0x3d5c8f61	0.053847674
197	0xbb9ee666	-0.004849243
198	0x3d9cb8ee	0.0765246
199	0x3c1da038	0.009620719
200	0xbdb8e946	-0.090288684
201	0xbd57e347	-0.052706983
202	0xbd37256c	-0.044713423
203	0xbd393600	-0.045217514
204	0xbd659393	-0.05604894
205	0xbbc7efa9	-0.0061015678
206	0x3dae277b	0.08503624
207	0xbd9a8d46	-0.07546477
208	0x3d29e22e	0.041475467
209	0xbc07bbaa	-0.008284489
210	0x3d5e897d	0.054330338
211	0xbd7923c7	-0.060825136
212	0xbd6e9e24	-0.058256283
213	0x3d1d4101	0.03839207
214	0x3cf2a2f8	0.029618725
215	0xbd2a4faa	-0.04157988
216	0x3d9ea2a9	0.07745869
217	0x3da92e9b	0.082608424
218	0x3db1fb33	0.086904906
219	0x3d97a7de	0.07405065
220	0xbc39498e	-0.011309041
221	0x3d0cc709	0.034369502
222	0x3d6fa8fa	0.058510758
223	0xbd33ba89	-0.043879066
224	0x3d07c940	0.03315091
225	0x3c6cb44f	0.014447286
226	0xbb02bcf0	-0.0019949041
227	0x3cbc482f	0.022983639
228	0xbd41b23c	-0.04728912
229	0xbd7ca1b3	-0.061677646
230	0x3d9070f7	0.07052796
231	0x3d3e56a0	0.04646933
232	0x3d8a6e68	0.067593396
233	0x3cfbcc34	0.03073702
234	0xbd452b60	-0.04813707
235	0x3bcf6cdc	0.0063301157
236	0x3d2bd609	0.041952167
237	0xbd5a1f79	-0.05325267
238	0x3c99ac6e	0.018758979
239	0x39888038	0.00026035472
240	0xbca1d4b9	-0.019754754
241	0xbc1ea0f5	-0.00968193
242	0xbce3be04	-0.027800567
243	0x3b866ae6	0.0041020988
244	0xbc41aa26	-0.011820352
245	0x3cdfaae8	0.027303174
246	0x3d2dabd5	0.0424002
247	0x3d24c46b	0.04022638
248	0xbd3eed3d	-0.046612967
249	0xbb82a677	-0.0039871293
250	0x3daf3f77	0.08557027
251	0xbd162487	-0.03665593
252	0x3d1807dd	0.037116874
253	0x3db446c6	0.088025615
254	0x3d181c56	0.0371364
255	0xbd2f86af	-0.042853054

layer4.0.bias f4 [64]
0	0x3d58482f	0.052803215
1	0xbccd40b5	-0.025055269
2	0xbd39d96e	-0.045373373
3	0x3cae1197	0.021248622
4	0x3d307213	0.04307754
5	0x3d9c5549	0.07633454
6	0x3d3f37c8	0.046684057
7	0xbd22bb57	-0.039729442
8	0x3da70e57	0.08157032
9	0xbc2d6fb3	-0.010585713
10	0xbd761339	-0.060076926
11	0xbd03bb12	-0.032160826
12	0x3d09c543	0.03363539
13	0x3d13d570	0.03609222
14	0x3d9a56e2	0.07536103
15	0xbd38427e	-0.044985287
16	0x3d50d068	0.05098
17	0x3c2e9b69	0.01065717
18	0x3d2ae6db	0.041724067
19	0x3c935047	0.017982615
20	0x3c4781e1	0.012176962
21	0x3bc19629	0.005907793
22	0x3c46d62f	0.012136026
23	0xbd1e2469	-0.038608942
24	0x3c9131c3	0.017723924
25	0xbca7e210	-0.020493537
26	0x3cb85a33	0.022503948
27	0xbd1ebe9c	-0.038755998
28	0xbc991260	-0.01868552
29	0xbda99d76	-0.082819864
30	0x3d4b7f64	0.049682036
31	0xbd02128d	-0.031755973
32	0xbda26ea0	-0.07931256
33	0xbccf0946	-0.025272977
34	0xbc9a7635	-0.018855194
35	0xbd6b5837	-0.057457175
36	0x3d61bf7f	0.055114266
37	0x3cb95ed7	0.022628231
38	0x3d227462	0.039661773
39	0x3cbd3a08	0.02309896
40	0x3c957acf	0.018247036
41	0xbd96dbdd	-0.07366154
42	0x3cdb3006	0.026756298
43	0xbd65245f	-0.05594289
44	0x3c68d8d9	0.014211857
45	0x3d8522c6	0.06500773
46	0xbbc332d0	-0.005956985
47	0x3d11611e	0.03549301
48	0x3da0d9fe	0.07854079
49	0xbd8de001	-0.06927491
50	0xbbe568bc	-0.0070010107
51	0xbd4467dd	-0.047950614
52	0x3d1a379a	0.037650682
53	0x3d59fc1d	0.05321895
54	0x3b6fb15b	0.0036574218
55	0xbc71e3e6	-0.014763808
56	0xbcb2d651	-0.02183071
57	0xbd4b73af	-0.04967087
58	0x3ceb928f	0.028756408
59	0x3c3ee107	0.01165033
60	0xbcbe2669	-0.023211675
61	0x3da0baa6	0.078481
62	0xbc75f0d1	-0.015011028
63	0xbb3e8a23	-0.0029074035

layer4.1.weight f4 [64]
0	0x3f81de97	1.0146054
1	0x3f8230de	1.0171163
2	0x3f823254	1.0171609
3	0x3f81a656	1.0128887
4	0x3f7f7fe5	0.99804527
5	0x3f7e2b49	0.992848
6	0x3f80692f	1.00321
7	0x3f81ed89	1.0150615
8	0x3f7fadf7	0.99874824
9	0x3f7768fc	0.9664457
10	0x3f7ea1bd	0.99465543
11	0x3f820bf3	1.0159897
12	0x3f8181fa	1.0117791
13	0x3f7d2ea2	0.9889928
14	0x3f7fd132	0.9992858
15	0x3f81ed2c	1.0150504
16	0x3f7fdffa	0.99951136
17	0x3f7c047f	0.9844436
18	0x3f7b508e	0.9816979
19	0x3f81423c	1.0098338
20	0x3f7ef7b0	0.9959669
21	0x3f7e46f3	0.9932701
22	0x3f7c1d8e	0.98482597
23	0x3f7d2a42	0.98892605
24	0x3f7e3aaa	0.99308264
25	0x3f809685	1.0045935
26	0x3f79e7e7	0.9761948
27	0x3f801839	1.0007392
28	0x3f811e8b	1.0087446
29	0x3f821ab1	1.0164396
30	0x3f801c5f	1.0008658
31	0x3f7d8e04	0.99044824
32	0x3f7d97c7	0.9905972
33	0x3f802f63	1.0014461
34	0x3f7be67a	0.98398554
35	0x3f813839	1.0095283
36	0x3f7beb2c	0.9840572
37	0x3f7f7930	0.9979429
38	0x3f80bd5f	1.0057791
39	0x3f81eb10	1.014986
40	0x3f7f52e9	0.99735886
41	0x3f79a479	0.9751659
42	0x3f819264	1.01228
43	0x3f7fad88	0.9987416
44	0x3f7ee022	0.9956075
45	0x3f81310a	1.009309
46	0x3f80b264	1.005444
47	0x3f80294f	1.0012606
48	0x3f82042a	1.0157521
49	0x3f81488b	1.0100263
50	0x3f7ec6dc	0.99522185
51	0x3f7caa54	0.986974
52	0x3f7f08fc	0.99623084
53	0x3f7f9fea	0.99853384
54	0x3f782a81	0.96939856
55	0x3f810e14	1.0082421
56	0x3f825476	1.0182025
57	0x3f776fbe	0.9665488
58	0x3f7f45e4	0.9971602
59	0x3f805ec3	1.0028919
60	0x3f7f3c1d	0.997011
61	0x3f803a45	1.0017782
62	0x3f7fd5c0	0.9993553
63	0x3f81da10	1.0144672

layer4.1.bias f4 [64]
0	0xbb8794e5	-0.0041376227
1	0x3ae94dbd	0.0017799657
2	0xbc30ed81	-0.010798813
3	0xbc852d17	-0.016256852
4	0xbcdc2149	-0.02687134
5	0xbc92ddb5	-0.017927984
6	0xbca75e07	-0.020430578
7	0xbd1191be	-0.03553938
8	0xbbd1f940	-0.0064078867
9	0xbd21a3a8	-0.039462715
10	0xbd0394a4	-0.032124177
11	0xbccfebc8	-0.025380984
12	0xbc983df0	-0.018584222
13	0xbc4b9b8f	-0.012427225
14	0xbce06ce4	-0.027395673
15	0xbd53cb7a	-0.051707722
16	0xbd1a95dc	-0.037740573
17	0xbd0bcc1c	-0.0341302
18	0xbd03aa72	-0.03214497
19	0x3c2ebb0c	0.010664713
20	0xbd528856	-0.05139955
21	0xbc03c2a7	-0.008042014
22	0xbcf4e825	-0.029895851
23	0xbcde2c6f	-0.027120797
24	0xbc0b5ca7	-0.008505977
25	0xbc316cca	-0.01082916
26	0xbc1951f0	-0.009357914
27	0xbcc6e004	-0.02427674
28	0xbc800bfd	-0.015630716
29	0xbc695dd0	-0.014243558
30	0xbc7bc2d9	-0.0153662795
31	0xbd1cbe42	-0.03826738
32	0xbcff1053	-0.031135714
33	0xbd2b8dcb	-0.04188327
34	0xbd055b7b	-0.032557946
35	0xbc8da220	-0.017289221
36	0xbccb1f15	-0.024795095
37	0xbc39499a	-0.011309052
38	0xbd2481c5	-0.04016282
39	0xbc82820c	-0.015931152
40	0xbc48ca6e	-0.012255294
41	0xbcb0f4f8	-0.021601185
42	0xbce9b4e1	-0.028528633
43	0xbd152037	-0.036407676
44	0xbc179c2d	-0.009253544
45	0xbc270508	-0.010194071
46	0xbc593cf4	-0.013259161
47	0xbd657f9d	-0.056029905
48	0xbd076974	-0.033059552
49	0xbd62bc75	-0.055355508
50	0xbc1f3259	-0.009716594
51	0xbd50ea51	-0.05100471
52	0xbd174324	-0.036929265
53	0xbc90ab1d	-0.017659718
54	0xbce7810d	-0.028259778
55	0xbd359422	-0.044330724
56	0xbd1d9354	-0.03847058
57	0xbca7d576	-0.020487528
58	0xbc701cbe	-0.01465529
59	0xbc5a5f70	-0.013328418
60	0xbd11e8a0	-0.03562224
61	0xbcf34c90	-0.029699594
62	0xbd7b249f	-0.06131422
63	0xb91494e0	-0.0001416984

layer4.1.running_mean f4 [64]
0	0xbe83f89a	-0.25775605
1	0xbe9f7e5f	-0.311511
2	0xbd8a1c24	-0.06743649
3	0xbd451487	-0.04811528
4	0x3f0c54bd	0.548168
5	0xbedc21a9	-0.4299443
6	0xbe4be6c2	-0.19912246
7	0xbef74420	-0.48294163
8	0x3e83bb10	0.25728655
9	0xbe67aa75	-0.22623618
10	0x3f352c19	0.7077041
11	0x3e263996	0.16232905
12	0xbe4604ae	-0.19337723
13	0x3f1602fa	0.5859829
14	0x3b7c2d53	0.0038479164
15	0xbe3b3af9	-0.18284215
16	0x3cc221d5	0.023697773
17	0x3fc848a5	1.5647169
18	0xbe9757d9	-0.2955921
19	0x3d242b14	0.040080145
20	0xbe46b5d8	-0.19405305
21	0xbe3ee214	-0.1864093
22	0xbe4f3d3d	-0.20238204
23	0xbea6151e	-0.32437986
24	0x3eb4b3cd	0.35293427
25	0xbe56f109	-0.20990385
26	0xbe9658b2	-0.29364544
27	0xbda8650f	-0.082224004
28	0xbf62c1e6	-0.88577116
29	0xbeee2cff	-0.46518704
30	0xbe554980	-0.2082882
31	0xbe6ee3b9	-0.23329057
32	0xbf188e58	-0.595922
33	0xbd6bf70b	-0.057608645
34	0xbe7ea651	-0.24868132
35	0xbe5ff626	-0.21871242
36	0x3d5bd4c0	0.05366969
37	0xbe5017b7	-0.20321546
38	0x3e04f304	0.12983328
39	0xbed42c6d	-0.41440144
40	0x3d823ab3	0.06358852
41	0x3dfb4b37	0.122702055
42	0xbe2a6b69	-0.16642536
43	0x3edd93eb	0.43276915
44	0x3d2e8bf9	0.042613957
45	0xbead8f91	-0.33898595
46	0x3e470c58	0.19438303
47	0x3f34d425	0.70636207
48	0xbd4c9717	-0.049948778
49	0xbe41d685	-0.18929489
50	0xbd4b48bf	-0.049629923
51	0x3d942328	0.07233268
52	0x3d85ecd9	0.06539316
53	0xbe0db7e2	-0.13839677
54	0xbe65c786	-0.22439393
55	0xbd953e16	-0.072872326
56	0xbf0d7b37	-0.55266136
57	0xbf462e0c	-0.7741401
58	0xbe55d7d7	-0.20883118
59	0xbd28ccd9	-0.041210983
60	0xbcbb423e	-0.022858735
61	0xbe09c8e6	-0.13455543
62	0xbdf7dafa	-0.12102313
63	0xbed52883	-0.4163247

layer4.1.running_var f4 [64]
0	0x3f0d5af8	0.5521693
1	0x3eedb189	0.4642451
2	0x3eed28ce	0.46320194
3	0x3ed649ca	0.41853172
4	0x3ef66bf8	0.4812925
5	0x3e863b1f	0.2621698
6	0x3e63fa0f	0.22263359
7	0x3efd4125	0.49463764
8	0x3eab87b4	0.3350197
9	0x3e40c7c3	0.18826203
10	0x3eb0104c	0.34387434
11	0x3ec71b00	0.38887787
12	0x3f037d42	0.51363003
13	0x3f0cce7c	0.5500257
14	0x3eb03475	0.34415022
15	0x3e7d6ab7	0.2474774
16	0x3e93f028	0.28894162
17	0x3ec855cb	0.39127955
18	0x3e5d9fb3	0.21642952
19	0x3ed6c41c	0.41946495
20	0x3ea69914	0.32538664
21	0x3e782521	0.24232914
22	0x3ed96f4c	0.42467725
23	0x3ef908b9	0.48639467
24	0x3edb3f60	0.4282179
25	0x3e7e474c	0.24831885
26	0x3ea0d060	0.31408978
27	0x3ee579f3	0.44819602
28	0x3ef62511	0.48075154
29	0x3ed2c32b	0.41164526
30	0x3e97d533	0.29654846
31	0x3e9a9c36	0.30197304
32	0x3ea20ea1	0.31651786
33	0x3e538c41	0.20658971
34	0x3e82ca45	0.25544944
35	0x3f010326	0.5039543
36	0x3e75a6db	0.23989432
37	0x3e9bbab7	0.3041589
38	0x3e6a56b4	0.22884637
39	0x3f2e47e2	0.68078434
40	0x3ee49b76	0.44649857
41	0x3f6c582e	0.9232205
42	0x3eb555fe	0.3541717
43	0x3f0d8905	0.552872
44	0x3ec033a8	0.3753941
45	0x3f0bc887	0.54602855
46	0x3edde176	0.43336076
47	0x3f67a976	0.9049295
48	0x3e9a1dd7	0.3010089
49	0x3e86471c	0.26226127
50	0x3eaf672a	0.34258395
51	0x3e736ab8	0.23771179
52	0x3e360f11	0.17779185
53	0x3f0fac1a	0.5612198
54	0x3e82223f	0.25416753
55	0x3eccf606	0.4003145
56	0x3edfec54	0.43734992
57	0x3eb69f13	0.3566824
58	0x3e9163ea	0.2839654
59	0x3ef40abb	0.47664437
60	0x3eea0657	0.45707962
61	0x3e6aa4bb	0.22914402
62	0x3ed56e8f	0.41685912
63	0x3eb97a83	0.36226282

layer5.0.weight f4 [64, 64, 3, 3]
0	0xbc532f83	-0.012889746
1	0x3bcf6daf	0.006330214
2	0x3a3deb2a	0.000724482
3	0xbd5099ca	-0.050927915
4	0x3ac8c68f	0.0015317964
5	0xbb8ec9f8	-0.0043575726
6	0xbb5ebe00	-0.003398776
7	0x3c9de0b5	0.019272188
8	0x3d182da2	0.037152894
9	0xbc8ea95d	-0.017414743
10	0xbcbeb607	-0.023280157
11	0xbc83cafe	-0.016088005
12	0xbd134d48	-0.035962373
13	0xbcdd0765	-0.026981065
14	0xbd395ae1	-0.045252685
15	0xbd4dc91e	-0.05024063
16	0xbd085b10	-0.03328997
17	0xbc088a6f	-0.008333786
18	0xbd2301e1	-0.039796714
19	0x39a04b7e	0.00030573824
20	0xbd4c1ffa	-0.049835183
21	0xbc99e380	-0.018785238
22	0x3c1445e6	0.009049868
23	0xbd7cb232	-0.061693378
24	0x3b928de5	0.0044724816
25	0x3c10d7ce	0.008840514
26	0xba933229	-0.0011230159
27	0x3bbe62e7	0.00581013
28	0x3b9c8d18	0.004777562
29	0x3d2e12da	0.042498447
30	0xbb75fb88	-0.0037533958
31	0x3c29eb92	0.010371106
32	0x3c9ca5df	0.019122062
33	0xbd01784b	-0.03160886
34	0x3c779f39	0.015113645
35	0xbbe086b5	-0.006851996
36	0xbb79fc1f	-0.003814466
37	0xbd14dd08	-0.036343604
38	0xbce2e99e	-0.027699288
39	0xbc11ce0b	-0.008899222
40	0xbc4493b5	-0.011998107
41	0x3c15b9c0	0.0091385245
42	0xbc557b70	-0.013029918
43	0xbd35143a	-0.044208743
44	0x3bcdc666	0.0062797545
45	0x3cf166af	0.029467909
46	0x3d233d13	0.039853167
47	0xbb7b4233	-0.0038339018
48	0x3d282f49	0.04106072
49	0x3cb3301a	0.021873523
50	0x3c6c96c5	0.014440243
51	0x3c083806	0.008314138
52	0xbc2b28e0	-0.010446757
53	0xbca7493d	-0.020420665
54	0xbca2a5de	-0.019854482
55	0x3ce26061	0.027633848
56	0x3cffcf02	0.031226639
57	0x3bd51055	0.006502191
58	0x3c95377e	0.018214937
59	0x3c3cb96f	0.01151882
60	0x3caca1fe	0.021073338
61	0xbc433dd9	-0.011916601
62	0xbce0300b	-0.027366659
63	0xbccd3830	-0.025051206
64	0x3c1efa34	0.009703208
65	0xba51152c	-0.0007975872
66	0x3c6f2ba5	0.014597808
67	0xbc492f66	-0.012279367
68	0xbc80d222	-0.0157252
69	0xbce56bd5	-0.02800552
70	0xbd46a018	-0.04849252
71	0xbd1ac61b	-0.037786584
72	0xbd10adda	-0.035322048
73	0x3d10d024	0.03535475
74	0x3c9dacce	0.019247439
75	0x3cb162b6	0.021653514
76	0xbcc08207	-0.023499502
77	0x3bc3e205	0.0059778714
78	0xbcccfcbf	-0.025022862
79	0xbb2cdfd1	-0.0026378522
80	0xbcc5d1e4	-0.024147935
81	0xbc2cfc8e	-0.010558261
82	0x3c36a62b	0.011148016
83	0xbc572084	-0.013130311
84	0xbb5492e4	-0.0032436186
85	0xbb4ae2cc	-0.0030957935
86	0xbd171435	-0.036884505
87	0x3c3ee4b6	0.011651209
88	0xbcacfb5b	-0.02111595
89	0xbb8b9fcd	-0.004260993
90	0x3cc7e4fc	0.02440118
91	0x3c227297	0.009915016
92	0xbc6a0ffb	-0.014286037
93	0x3cbd4d8b	0.023108264
94	0x3ba08e4a	0.0048997747
95	0x3d2007fd	0.03907012
96	0xbc770fed	-0.015079481
97	0x3c74b2c9	0.014935204
98	0xbcd6b51b	-0.026209405
99	0xbd055daf	-0.032560047
100	0xbd37e1ae	-0.04489296
101	0xbce3c9f9	-0.027806269
102	0x3c08c961	0.008348794
103	0xbc7b65e0	-0.015344113
104	0xbd3a4484	-0.045475498
105	0x3b50f05e	0.0031881551
106	0xbc148b0c	-0.0090663545
107	0x3b9558a5	0.0045576864
108	0xbd4489e2	-0.047983058
109	0xbd092baa	-0.033488907
110	0xbc9bf0e2	-0.01903576
111	0x3be62cea	0.007024397
112	0xbb5817ab	-0.0032973092
113	0xbcd4003c	-0.025879018
114	0x3a1ff9f0	0.0006102612
115	0x3c7dacd5	0.015483101
116	0xbc77f618	-0.015134357
117	0x3c1409ae	0.009035511
118	0xba38d82d	-0.00070512557
119	0xbcd755e4	-0.026286073
120	0xbc0dd662	-0.00865707
121	0xbce8eeb7	-0.02843414
122	0x3d07d422	0.03316129
123	0x3c1b9a0a	0.009497175
124	0x3c32dfab	0.010917584
125	0x3cb4b866	0.022060584
126	0x3c1095c4	0.008824769
127	0xbccfe28b	-0.025376579
128	0x3c82e7e9	0.015979724
129	0xbb2664b6	-0.0025389618
130	0x3c721e82	0.014777781
131	0xbbe37b04	-0.006942155
132	0xbc5d2b39	-0.013499075
133	0x3d12441f	0.035709497
134	0xbb88fbf9	-0.004180428
135	0xbcc71661	-0.024302663
136	0xbce5fa89	-0.028073566
137	0xbc88118d	-0.016609931
138	0xbcca1432	-0.024667833
139	0x3c5376d5	0.01290675
140	0x3cb66d62	0.022268955
141	0x3d076bbd	0.03306173
142	0x3ca7a222	0.020463053
143	0xbd0873e9	-0.033313666
144	0x3b7c7990	0.0038524605
145	0xbad2fb6a	-0.0016096656
146	0xbc886153	-0.01664797
147	0xbc3f749e	-0.011685519
148	0x3c02ef67	0.007991648
149	0xbc4bdcf7	-0.012442819
150	0x3c99a69e	0.018756207
151	0xbc75035a	-0.014954412
152	0x3cbf2c07	0.023336424
153	0x3cae9e75	0.021315793
154	0x3ca9bc7b	0.020719757
155	0xbd06d888	-0.032921344
156	0xbd08bfa5	-0.03338589
157	0x3ce52568	0.027971938
158	0x3cff1754	0.031139053
159	0x3c71831b	0.014740731
160	0xbc9911ba	-0.01868521
161	0x3cbdfbbb	0.023191324
162	0xbd1835c0	-0.037160635
163	0x3cb7c427	0.0224324
164	0x3b17f569	0.0023187047
165	0x39ee8754	0.00045495725
166	0xbc572539	-0.013131433
167	0x3ca3aeeb	0.019980868
168	0xbce87505	-0.028376112
169	0x3d0fe9a0	0.03513491
170	0xbb0796b4	-0.0020689191
171	0x3d0c6986	0.034280322
172	0x3ca670c3	0.02031744
173	0xbc11dad8	-0.008902274
174	0x3c5a756c	0.01333366
175	0x3d271df7	0.04080006
176	0xbcb3bb7a	-0.021939982
177	0xbc93bc14	-0.018034019
178	0xbce00433	-0.027345752
179	0x3c69c481	0.014268042
180	0x3b323e05	0.002719761
181	0x3c955f77	0.018233998
182	0xbd553ec4	-0.05206181
183	0x3a312438	0.0006757411
184	0xbc46e6a7	-0.012139953
185	0xbd136391	-0.035983626
186	0x3cdc0157	0.026856108
187	0xbcfee186	-0.031113397
188	0xbcdd22f0	-0.026994199
189	0xbbef7f55	-0.0073088803
190	0xbd175451	-0.036945645
191	0xbbdcaaa2	-0.006734208
192	0x3bb03110	0.0053769425
193	0xbd241844	-0.040062204
194	0xbbffd97d	-0.007807909
195	0xbd439f72	-0.04775948
196	0xbc9bfbae	-0.019040909
197	0xbd80ca41	-0.06288577
198	0x3c4d0b19	0.012514853
199	0xbcd32d16	-0.025778335
200	0xbbf5fedd	-0.0075071887
201	0xbb491c70	-0.0030687116
202	0x3d0b8299	0.034060095
203	0xbcae11c1	-0.0212487
204	0x3d1cddb4	0.03829737
205	0xb99b5dd8	-0.00029633823
206	0x3cdc8786	0.026920091
207	0xbd17491e	-0.036934964
208	0xbd015a50	-0.03158027
209	0xbc063d0e	-0.0081932675
210	0xbcd7bed0	-0.026336104
211	0xbcf9a86a	-0.030475814
212	0xbc19aa0e	-0.009378923
213	0xbb9ea059	-0.0048408923
214	0x3c9624aa	0.01832803
215	0xbb857638	-0.0040729307
216	0xbcf73de5	-0.03018088
217	0x3b217709	0.00246376
218	0x3cf8d4e2	0.030374948
219	0x3c6b9b5a	0.0143803
220	0xbca94d16	-0.02066664
221	0xbc535364	-0.0128983
222	0x3c91426b	0.017731866
223	0xbc908ab5	-0.017644266
224	0x3cd996a7	0.026561094
225	0x3bd81703	0.00659454
226	0x3c815ecd	0.015792275
227	0x3d110ce3	0.03541268
228	0xbcc238c8	-0.023708716
229	0xbc2dc611	-0.010606305
230	0xbc253562	-0.010083528
231	0x3cb5790e	0.02215245
232	0xbc0aaac0	-0.008463562
233	0xbcfe9b79	-0.031079995
234	0x3d310467	0.04321709
235	0xbbea7674	-0.007155234
236	0x3cf62d7b	0.030050984
237	0x3c3af213	0.011410254
238	0x3ce7c645	0.028292784
239	0x3d5cc7d4	0.05390151
240	0x3d321b91	0.04348332
241	0xbc871b6a	-0.016492564
242	0x3d0c2f46	0.03422477
243	0x3c9a099e	0.018803414
244	0x3c1a2d67	0.009410239
245	0x3aeb0402	0.0017930272
246	0xbaaaf5e3	-0.0013043251
247	0xbc02b83e	-0.007978497
248	0xbcf8443a	-0.03030597
249	0xbcd40f41	-0.02588618
250	0x3cfbda9d	0.030743891
251	0x3c7e385c	0.015516367
252	0x3d090112	0.033448286
253	0x3c5bbfa7	0.013412393
254	0x3c7555d9	0.014974081
255	0xbcd5bec4	-0.02609194

layer5.0.bias f4 [64]
0	0xbd25a1e7	-0.040437605
1	0xbc5ba9e6	-0.013407206
2	0x3afc37b2	0.0019242673
3	0x3cbbf824	0.022945471
4	0xbc845d09	-0.016157644
5	0x3c9e872e	0.019351568
6	0xbca42282	-0.020035986
7	0xbd1370bb	-0.03599618
8	0x3bd52750	0.0065049306
9	0xbb66229c	-0.0035115844
10	0x3d19b497	0.03752574
11	0x3c08bbc9	0.008345553
12	0x3c0b98d1	0.008520321
13	0x3d02251e	0.03177368
14	0xbc88f356	-0.016717594
15	0xbbf9d12d	-0.0076238126
16	0xbc88f93f	-0.016720412
17	0x3a44360e	0.00074848614
18	0x3b94ba1d	0.004538788
19	0xbd0b4bf1	-0.03400797
20	0xbbc9fb44	-0.0061639864
21	0xbc167926	-0.0091841575
22	0xbc43a268	-0.011940576
23	0x3d09691c	0.033547506
24	0xbcf136bd	-0.029445047
25	0xbcd72261	-0.02626151
26	0xbd02a93d	-0.03189968
27	0xbd194f77	-0.0374293
28	0x3d0d2bb8	0.03446552
29	0xbc888bbd	-0.016668195
30	0xbc45af35	-0.012065698
31	0x3be13e6f	0.0068738977
32	0x3cdfd7a7	0.02732451
33	0x3d11cb4f	0.03559428
34	0xbaece9a0	-0.0018074997
35	0x3c381aec	0.011236887
36	0x3ba66eb0	0.005079113
37	0x3d264802	0.040596016
38	0x3b2491b7	0.0025111267
39	0xbcd4a018	-0.025955245
40	0xbcb6b150	-0.022301346
41	0xbc479677	-0.01218187
42	0xbc74c9f4	-0.0149407275
43	0x3c4479da	0.011991942
44	0xbb319aa5	-0.0027100232
45	0xbd0b1e34	-0.03396435
46	0xbc9bebe9	-0.01903339
47	0xbc8f2616	-0.017474215
48	0x3ba3fecd	0.00500474
49	0xba81be31	-0.00098986
50	0xbce3e343	-0.027818328
51	0xbd18efa0	-0.0373379
52	0x3d0c8e8a	0.034315623
53	0x3c11a43c	0.008889254
54	0xbca05210	-0.01957038
55	0x3c242c52	0.010020332
56	0x3ba20bbe	0.0049452474
57	0x3b676093	0.0035305365
58	0x3c5f8bc0	0.013644159
59	0x3ba6ebd5	0.0050940313
60	0xbbe0ac6e	-0.0068564927
61	0xbc23bcda	-0.009993756
62	0xbbbb9302	-0.005724312
63	0xb977b7ab	-0.00023624177

layer5.1.weight f4 [64]
0	0x3f821a7d	1.0164334
1	0x3f874bdd	1.0570027
2	0x3f813e93	1.0097221
3	0x3f82613a	1.0185921
4	0x3f828901	1.019806
5	0x3f869bdb	1.0516313
6	0x3f82c830	1.0217342
7	0x3f82fc66	1.0233276
8	0x3f832776	1.0246418
9	0x3f8626f8	1.0480642
10	0x3f870ef2	1.0551436
11	0x3f82f3a6	1.0230606
12	0x3f85a4d7	1.044093
13	0x3f85fa85	1.0467077
14	0x3f837d28	1.027257
15	0x3f81cbd6	1.0140331
16	0x3f87287f	1.0559233
17	0x3f86c615	1.05292
18	0x3f86cfd3	1.0532173
19	0x3f828309	1.0196239
20	0x3f84747f	1.0348052
21	0x3f8273ea	1.0191624
22	0x3f84c23c	1.0371776
23	0x3f82a930	1.0207882
24	0x3f8261c6	1.0186088
25	0x3f825591	1.0182363
26	0x3f82bdca	1.0214169
27	0x3f82648e	1.0186937
28	0x3f872291	1.0557424
29	0x3f842c3e	1.0326002
30	0x3f82cc48	1.0218592
31	0x3f825e50	1.0185032
32	0x3f8122fb	1.00888
33	0x3f832b6b	1.0247625
34	0x3f81f1f7	1.0151967
35	0x3f850ed0	1.0395145
36	0x3f828a41	1.0198442
37	0x3f8215f6	1.0162952
38	0x3f835e53	1.026316
39	0x3f82b942	1.0212786
40	0x3f88aa2b	1.0676931
41	0x3f83be25	1.0292403
42	0x3f82363e	1.0172803
43	0x3f83b232	1.0288756
44	0x3f81c640	1.0138626
45	0x3f82b18f	1.0210437
46	0x3f86fd0e	1.0545976
47	0x3f83225c	1.0244861
48	0x3f85d885	1.0456702
49	0x3f83005f	1.0234488
50	0x3f831d68	1.0243349
51	0x3f8459cd	1.0339905
52	0x3f83c44a	1.0294278
53	0x3f84c695	1.0373102
54	0x3f839bbd	1.0281903
55	0x3f84c2bf	1.0371932
56	0x3f859f5e	1.043926
57	0x3f825492	1.0182059
58	0x3f849fd0	1.0361271
59	0x3f88b1e1	1.0679284
60	0x3f85e4b2	1.0460417
61	0x3f83b38f	1.0289172
62	0x3f82b7dc	1.021236
63	0x3f82c0fe	1.0215147

layer5.1.bias f4 [64]
0	0x3bd0e595	0.0063750246
1	0x3c2e6798	0.010644816
2	0x3b16ac05	0.0022990715
3	0xbb59dae2	-0.0033242037
4	0x3b8dd844	0.0043287594
5	0x3ca04cc9	0.019567864
6	0xbbc39361	-0.0059684967
7	0xbbdf4c81	-0.00681454
8	0x3b89bc31	0.0042033424
9	0x3bceeb5d	0.0063146786
10	0x3babd47f	0.0052438374
11	0xbbd41219	-0.006471884
12	0x3b992dee	0.0046746647
13	0x3c2af136	0.010433486
14	0x3c5d2371	0.013497219
15	0xbb520826	-0.0032048314
16	0x3cb3eb85	0.02196289
17	0x3ca1e315	0.019761601
18	0x3c2d2120	0.01056698
19	0x3bc50fd7	0.006013851
20	0xbc6df9f2	-0.014524924
21	0xbb5f7012	-0.0034093899
22	0x3c555abd	0.013022122
23	0x3c10127b	0.008793469
24	0x3c45e27b	0.012077923
25	0xbb88e2ab	-0.0041774116
26	0xbbe476ac	-0.0069721546
27	0x3c001239	0.007816845
28	0x3bac6287	0.005260769
29	0x3c2e7b3f	0.010649501
30	0xbc3a15a5	-0.0113576995
31	0x3c124e3b	0.008929784
32	0x3bbbd642	0.0057323286
33	0x3b8f8e73	0.004380995
34	0x3bc6ef16	0.0060709817
35	0x3c0807b2	0.008302616
36	0xbafecf55	-0.0019440452
37	0xb8fb4b32	-0.00011982619
38	0x3b1ac8bb	0.002361818
39	0xbbd2ac22	-0.0064292112
40	0x3c4b9831	0.012426422
41	0x3bb082e9	0.0053866995
42	0x3be81a35	0.0070832022
43	0x3bfccf7d	0.007715164
44	0x3bbe60b7	0.005809869
45	0xbb87f0eb	-0.0041485927
46	0x3b9e667e	0.0048339954
47	0xbbd9932f	-0.00663986
48	0x3b14216c	0.0022602929
49	0x3c24e663	0.010064694
50	0x3b33297f	0.0027337966
51	0x3c5b8740	0.013398945
52	0xbc275851	-0.010213927
53	0x3ab904a2	0.001411576
54	0x3c1fb9ce	0.009748889
55	0x3b9ee935	0.004849578
56	0x3c82bd0f	0.01595929
57	0x3c2cd757	0.010549388
58	0x3c2b60b9	0.010460072
59	0x3c5351ba	0.012897903
60	0x3b12ca97	0.0022398585
61	0x3b22ccf9	0.0024841412
62	0x3c139d9a	0.009009743
63	0x3bcd10eb	0.0062581203

layer5.1.running_mean f4 [64]
0	0xbf79ac71	-0.9752875
1	0x3ebdb30d	0.37050667
2	0xbfaac4b6	-1.3341281
3	0x3fd7e73d	1.6867443
4	0x3d5c09ff	0.05372047
5	0x3ede953f	0.4347324
6	0x3f7be3ad	0.9839428
7	0x3f9f2097	1.2431821
8	0xbda8114b	-0.08206423
9	0xbdb20b35	-0.08693544
10	0x3f039e3c	0.5141332
11	0xbe0040f4	-0.12524778
12	0x3f5963fd	0.84918195
13	0x3ec54542	0.38529402
14	0xbf5e8c0e	-0.86932456
15	0x3e9cb1bf	0.3060436
16	0x3e8e8bbc	0.27840984
17	0x3eaeb0c3	0.34119233
18	0x3dc35018	0.09536761
19	0xbf348c70	-0.7052679
20	0x3f36dc80	0.71430206
21	0xbd30296c	-0.043008253
22	0x3f06bc8d	0.52631456
23	0x3ca3d329	0.01999815
24	0xbe7f27c6	-0.24917516
25	0x3be68e61	0.007036016
26	0xbf0cd9f1	-0.5502005
27	0xbf2a5afa	-0.6654507
28	0x3ee943df	0.45559594
29	0x3cb3ecb8	0.021963462
30	0x3f51bb88	0.81926775
31	0xbe353e4b	-0.17699544
32	0xbe6c61cb	-0.2308418
33	0x3e2935a4	0.16524369
34	0xbf74b690	-0.9559107
35	0x3ed1dadf	0.40987298
36	0x3ffc11be	1.9692914
37	0x3f8b8071	1.0898572
38	0xbeb0abc3	-0.34506044
39	0x3e067036	0.13128743
40	0x3e66560f	0.22493766
41	0x3e711131	0.23541714
42	0xbffab671	-1.9586927
43	0x3e9454ae	0.28970855
44	0xbf8a847c	-1.0821681
45	0x3e582ce5	0.21110876
46	0x3e6cecb3	0.23137169
47	0x3f9c1ba5	1.2195936
48	0x3f17e1a4	0.59328675
49	0x3f42d0dd	0.7609995
50	0x3ec5205b	0.38501248
51	0xbe143b3f	-0.14475726
52	0x3f7b54c4	0.9817622
53	0x3e0449f9	0.12918843
54	0x3d8a1789	0.0674277
55	0x3e4602fe	0.19337079
56	0x3eaa6a91	0.3328443
57	0x3e9d1a5d	0.30684176
58	0x3e4b1626	0.19832668
59	0xbe987a75	-0.29780927
60	0x3ed262f2	0.41091114
61	0x3f1a1961	0.60194975
62	0xbeab324f	-0.3343682
63	0xbd394f86	-0.045241855

layer5.1.running_var f4 [64]
0	0x3f945994	1.1589837
1	0x3f27b345	0.6550792
2	0x3fc1c724	1.5138898
3	0x3fac8a56	1.3479717
4	0x3f6fe2d3	0.9370548
5	0x3f72083d	0.9454382
6	0x3fa1a580	1.2628632
7	0x3f8506bc	1.039268
8	0x3f08fec7	0.5351376
9	0x3f517a00	0.8182678
10	0x3f67c1d1	0.90530115
11	0x3f8b0e86	1.0863807
12	0x3f5cbed1	0.8622866
13	0x3fb6363f	1.4235305
14	0x3f51fcd7	0.8202643
15	0x3ed5832d	0.41701642
16	0x3f99e143	1.202187
17	0x3ed79e56	0.42112988
18	0x3f960611	1.1720601
19	0x3f9ec072	1.240248
20	0x3f857eaa	1.042928
21	0x3f7652c8	0.96220064
22	0x3fa21171	1.2661573
23	0x3f72a148	0.94777346
24	0x3f2d107b	0.6760327
25	0x3f4653b3	0.77471465
26	0x3f4d14bc	0.80109763
27	0x3f5a625f	0.8530635
28	0x3f507752	0.8143207
29	0x3f158ac8	0.5841489
30	0x3f983d7f	1.1893767
31	0x3f85ad09	1.0443431
32	0x3f55e163	0.8354704
33	0x3f2c77e1	0.6737042
34	0x3f909f7f	1.1298674
35	0x3f57e1ab	0.84328717
36	0x3fa5e6fb	1.2961115
37	0x3f7a7607	0.97836345
38	0x3f271369	0.6526399
39	0x3fb33022	1.3999064
40	0x3f5b71c2	0.85720456
41	0x3f381c9f	0.7191867
42	0x3fb8e22a	1.444402
43	0x3f89d8d6	1.0769298
44	0x3fd11136	1.6333377
45	0x3f4300d4	0.7617314
46	0x3f25da65	0.6478637
47	0x3f8b7432	1.0894835
48	0x3f08e8e8	0.53480387
49	0x3f6aea3f	0.9176368
50	0x3f8ed653	1.1159157
51	0x3f36799f	0.7127933
52	0x3fa47b2a	1.2850087
53	0x3f8d4a1d	1.1038243
54	0x3f2c527a	0.6731335
55	0x3f3b4e3b	0.73166245
56	0x3f913291	1.1343557
57	0x3f982cad	1.1888634
58	0x3f5cd51c	0.8626268
59	0x3f9a4bcf	1.2054385
60	0x3f88b83a	1.0681221
61	0x3f96d517	1.178378
62	0x3f637a62	0.88858616
63	0x3f157ce9	0.5839372
