data/chkbox_models/chkbox_rnd10_2_bestVal.pt (torch_old, 35085 bytes, 25 tensors)

layer1.0.weight f4 [4, 1, 3, 3]
000000 02 31 a7 3e eb 4e 29 be 7b 8f c5 bd 4d 64 7c 3e
       0.32654577 -0.16534011 -0.09646507 0.24647637
000010 ec f8 8a bd f4 a0 7a be 83 95 68 bd 99 b8 18 be
       -0.06785759 -0.24475461 -0.05678321 -0.14914168
000020 47 66 5d bd a3 37 14 3e 91 bd 26 bd bc 2e d5 3e
       -0.054052617 0.14474349 -0.04070813 0.41637218
000030 90 53 c7 bd 57 61 5d bc 61 4e b2 3d e1 19 86 be
       -0.09732735 -0.013511977 0.08706356 -0.2619162
000040 49 72 38 3e b2 7d 61 3c 29 6d 9a 3e ef f7 bf 3d
       0.18012346 0.013762878 0.30161408 0.093734615
000050 c2 2c 89 bd 08 a0 53 be 3a 13 71 3d 4f e2 2b 3e
       -0.0669799 -0.20666516 0.058856227 0.16785549
000060 ca bc 47 be 59 b1 4f 3d ac f3 c9 3e f4 f2 3d 3e
       -0.19505611 0.05070624 0.3944372 0.1854971
000070 83 5e 03 bd 02 eb 10 3f c9 7a 0c be 3b 0b cf 3d
       -0.032072555 0.56608593 -0.13718714 0.10109564
000080 11 c6 2a 3e 06 96 08 3c 2d dc d5 bc 49 62 bc 3c
       0.16677119 0.00833655 -0.026105965 0.022996085

layer1.0.bias f4 [4]
000000 d3 0b a0 be 68 91 1b be 08 a3 eb 3c 85 21 dd 3d
       -0.3125902 -0.15192187 0.028764263 0.10797409

layer1.1.weight f4 [4]
000000 38 9d 5b 3f 62 b3 7e 3f f0 78 75 3f 3f 8c 95 3f
       0.8578677 0.99492466 0.9588766 1.1683425

layer1.1.bias f4 [4]
000000 1f d4 99 3b ce fa 32 3d 50 d0 e5 3d 7d a0 39 3d
       0.0046944763 0.043696217 0.11221373 0.04531907

layer1.1.running_mean f4 [4]
000000 82 6d 0f bf 78 58 7c 3e d8 27 16 3f cd 5c 67 3f
       -0.5602647 0.24643123 0.58654547 0.9037598

layer1.1.running_var f4 [4]
000000 dc d0 3d 3e 5b 64 8d 3e 4b f4 d2 3e 9b d7 49 3f
       0.18536705 0.27615628 0.41202006 0.7884461

layer2.0.weight f4 [8, 4, 3, 3]
000000 dc fe e4 3d 01 1d d5 bd 5c 2b d3 3d 74 5a 0f bd
       0.11181423 -0.10405923 0.103110045 -0.034998372
000010 13 14 dc bd 10 37 0f 3e 86 d3 c7 3d 58 50 b7 3d
       -0.10746016 0.13985848 0.09757142 0.08950871
000020 73 dd 79 bc 41 f5 ec bd 2d 2f 05 3d e9 15 9f 3b
       -0.0152505515 -0.11570216 0.032515693 0.004854907
000030 c6 4a 2c 3e 5b af 97 bd ed 95 04 3e e6 97 42 3e
       0.16825399 -0.07406493 0.12947817 0.19003257
000040 7b 8e 97 bd 40 ec 06 3e a9 d9 14 bb 7d 10 e0 3c
       -0.07400223 0.1317606 -0.0022712743 0.027351612
000050 79 f8 2e 3e 93 0f 12 bd cb f4 01 be 84 4f 4c 3d
       0.17086972 -0.035659384 -0.12691037 0.04988052
000060 da e5 1d 3e 8e 60 08 3c 45 80 02 3d 8f f6 f2 3d
       0.15419713 0.008323802 0.03186061 0.118634336
000070 eb a2 25 3e c0 43 89 bd ba 88 7a bd 6f 29 2b 3e
       0.1617543 -0.067023754 -0.06116555 0.16715024
000080 68 06 ab bc c4 01 44 3e 71 b2 f7 bd 4b 94 94 3d
       -0.020877078 0.19141299 -0.12094582 0.07254847
000090 76 ff c2 3d 50 64 f0 bc 56 3f f4 bd e6 88 8c 3c
       0.095213816 -0.029344708 -0.11926143 0.017155122
0000a0 d0 69 8e bd 79 62 aa bd a2 4f ad 3d 9d 32 f6 bb
       -0.06953776 -0.083195634 0.084624544 -0.007513358
0000b0 23 20 05 be 85 fb 2f 3c 4d be a9 3c bb 4f f0 3d
       -0.1300054 0.010741119 0.020720625 0.117339574
0000c0 39 d2 5e 3d 9a 1f 01 be 6f e9 6f bd 29 12 cb 3a
       0.054399703 -0.12609711 -0.05857223 0.0015493083
0000d0 b4 02 f9 3d 0a 40 e0 3d 72 cf 99 bc ad 0c 2d be
       0.12158719 0.109497145 -0.018775675 -0.16899367
0000e0 a2 2a 05 be 19 7b 35 be 2d c2 91 3d 8f 0d 98 3d
       -0.13004544 -0.1772274 0.07117114 0.07424461
0000f0 1a 6c 89 3d f9 28 02 3e 6f 78 e6 3d 2a 86 5a be
       0.06710072 0.12710942 0.1125344 -0.21340242
000100 e8 66 bc bb 45 f0 11 3e 6c af 39 be a8 d6 a8 3d
       -0.005749572 0.14251812 -0.18133324 0.082440674
000110 e6 81 74 3c 46 74 81 3d 86 f0 00 be cd 78 b3 bd
       0.014923548 0.063210055 -0.12591752 -0.08763275
000120 f7 78 f2 bc 82 67 d7 3d 70 89 89 bc d1 0d 51 be
       -0.029598696 0.105177894 -0.016789168 -0.20415427
000130 10 d6 ea 3d 84 70 96 bd 8e 1b 94 3d 6b 9f d0 bd
       0.114666104 -0.073456794 0.07231818 -0.101866566
000140 24 ef 1b be 4e 54 a2 bd 31 6f 81 3b 3e eb 45 bc
       -0.15227944 -0.07926236 0.0039500226 -0.012080012
000150 4f d9 30 3d 6f 14 24 bc f7 d4 50 bc 90 a0 d9 3c
       0.04317599 -0.010014637 -0.012746087 0.02656582
000160 de c4 12 be 5d a0 98 bd 83 e7 3e bd 8f 83 07 3e
       -0.14332911 -0.07452462 -0.046607506 0.1323378
000170 7a 02 72 bd b4 56 fc bd 14 4d fb bd fc 48 0e 3c
       -0.059084393 -0.12321225 -0.12270561 0.008684393
000180 a8 ac 21 3e 63 3b 05 3e 53 27 d4 3c a0 4d 20 3e
       0.1578852 0.13010935 0.025897657 0.15654612
000190 2c 07 ff bd 76 08 31 3e 38 6d 60 3c ad 1c aa 3d
       -0.1245254 0.17288384 0.013697915 0.08306251
0001a0 a1 40 2a 3e 2a 8e c1 3c fc ea a9 3d a2 f0 11 3d
       0.16626216 0.02362736 0.08296773 0.035629876
0001b0 91 36 86 3c 42 87 0d be 45 59 4d be 4a 73 13 3d
       0.016383441 -0.13821128 -0.20053585 0.03599862
0001c0 91 01 02 be a7 c4 bc 3d ff d0 29 bd 54 9e 40 3c
       -0.1269591 0.09217196 -0.04145908 0.011756498
0001d0 2e 11 09 3e 9a 5c e5 bd d7 a0 be bd 6e 78 06 ba
       0.1338546 -0.11199303 -0.093080215 -0.000512964
0001e0 4d 70 c9 bd fb 7f 22 3e c9 f1 db 3c ab a3 2e 3c
       -0.09835873 0.15869133 0.02684869 0.010659139
0001f0 77 ef 56 be 69 b2 96 bc 36 c1 e3 3d c0 c3 82 bd
       -0.20989786 -0.01839562 0.111208364 -0.063849926
000200 7d b9 2a 3d d9 f9 3e 3d 5d 83 75 3d bf 69 80 3d
       0.0416808 0.046624992 0.05993973 0.062701695
000210 ee 00 a4 3d 2c 1a 04 be f8 37 ad 3d f5 0a 53 3d
       0.0800799 -0.12900609 0.08457941 0.05152412
000220 3f 5d 3e 3e 15 00 e0 3d e4 2e 7f 3d 46 ca 1f 3d
       0.18590258 0.10937516 0.062300578 0.039011262
000230 11 69 97 3d ce 84 d6 3d f0 cb b0 3c ce d7 37 bd
       0.07393087 0.10474549 0.02158162 -0.04488354
000240 fe 01 be 3d 52 65 2e 3e be 42 0d 3e 6b 24 44 3c
       0.09277724 0.17030838 0.13794991 0.011971573
000250 a4 d6 1c 3e 1a b0 16 bd 0f 98 35 3d c3 22 bb 3c
       0.15316254 -0.036789037 0.044334468 0.022843724
000260 b4 1a 8e bb 85 91 e4 bd c1 ce 74 3d 22 96 9f bd
       -0.0043366794 -0.11160568 0.05976749 -0.077923074
000270 92 63 4d bd ba b8 8c bd fd b2 da bd 13 27 57 bd
       -0.050143786 -0.06871171 -0.106786706 -0.0525275
000280 0b 94 aa bc 0d 49 1b be b7 b7 24 be ae 66 99 3d
       -0.020822546 -0.15164585 -0.16085707 0.07490288
000290 7e 59 bf bd 55 62 52 bd 9a c5 33 bd c7 b9 aa 3d
       -0.09343241 -0.051363308 -0.04388962 0.083362155
0002a0 04 2d 0b be 22 d7 36 bd c5 0f 69 3d d6 0f 62 3d
       -0.13591391 -0.04463876 0.056899805 0.055190884
0002b0 c7 05 ea bd 66 0c c8 3d cf ff c3 3c ff 3c f3 bd
       -0.11426883 0.0976799 0.02392569 -0.118768685
0002c0 61 b0 1c 3d 6c 48 e7 3c d0 4f d9 bd 94 b9 8b 3d
       0.038254146 0.028232776 -0.10610926 0.068225056
0002d0 be 6e c0 3d 7e 8b 30 3c 9e dc e7 3b e1 3f 05 bd
       0.093961224 0.010775445 0.00707586 -0.032531623
0002e0 dd 13 87 3d e6 c6 d0 bd ad 51 b2 3d c2 22 a8 bd
       0.065955855 -0.10194187 0.08706985 -0.082097545
0002f0 68 2e 28 bd d8 ef 17 3c b2 52 b3 3c 47 02 2b 3e
       -0.04105988 0.009273492 0.021890018 0.16700087
000300 9b d0 6e 3d ce e2 31 3e e8 9c 13 bd a3 55 f0 bd
       0.05830441 0.17371675 -0.03603831 -0.11735084
000310 73 a7 3c be c2 b6 1e 3e b4 ad d7 bc ca 2e 51 bd
       -0.18423252 0.15499404 -0.026327945 -0.051070012
000320 74 ba 91 3e 13 c4 c4 bd 71 c5 08 3e fa d1 f6 3d
       0.28462565 -0.09607711 0.13356568 0.120517686
000330 58 26 fa 3d ef f6 f5 3d e5 58 13 bd e3 12 14 bd
       0.12214345 0.120099895 -0.03597345 -0.036150824
000340 15 76 9d bc be 05 4c 3e f8 2f 39 3d 8e dc a2 3d
       -0.019221345 0.19924065 0.045211762 0.07952224
000350 e5 6e f6 3d 63 ec e8 3c 52 04 78 3d 9d da d9 3d
       0.1203287 0.02843303 0.060550995 0.106374
000360 8c 61 6c 3d 3a f7 47 3d 43 80 12 3e dc 07 d5 bd
       0.057710215 0.048819758 0.1430674 -0.1040189
000370 47 6b 45 be da 1a 97 bc 65 fd cc bd 5c 72 c2 bd
       -0.19279204 -0.018445421 -0.10009269 -0.094944686
000380 dc 6b da 3d 64 22 d5 3d a7 e8 20 3d 3b 7c 3b 3d
       0.10665104 0.1040695 0.039284375 0.045772772
000390 1a c6 48 3d 34 3d 18 be 4d 08 8e bd 69 b1 1b bc
       0.04901705 -0.14867097 -0.06935177 -0.009502747
0003a0 1c c2 de 3c fe 2d 96 bd db cc 80 bd e4 9f 0f bc
       0.027192168 -0.07332991 -0.06289073 -0.008766148
0003b0 3a 38 98 3c a5 51 ad bd c1 d8 f9 3d de 98 a3 bc
       0.018581498 -0.08462838 0.12199546 -0.019970354
0003c0 48 5d 8b 3d cc 39 c4 bd f4 f6 06 3d 36 4d 39 3e
       0.06804901 -0.095813364 0.032950357 0.1809586
0003d0 34 5c a6 3d e4 b7 47 bd 6a c1 df bd 71 6e 3f be
       0.08123055 -0.048759356 -0.10925563 -0.18694474
0003e0 26 6a a9 bd b4 4f eb 3c aa bc 12 3e 93 28 ce bd
       -0.08272199 0.028724529 0.14329782 -0.10066333
0003f0 ca af 26 be b0 ed e9 3d f9 a3 13 bd 34 86 b9 bc
       -0.16277996 0.114222884 -0.03604505 -0.022647

layer2.0.bias f4 [8]
000000 09 db 8e bc 4c 9e 28 3e e6 34 f9 3d 21 f2 10 bb
       -0.017438428 0.16466635 0.12168293 -0.0022116976
000010 6d f7 28 3e 40 e5 21 bd 97 81 1b bd 0f 12 28 bd
       0.16500635 -0.03952527 -0.037965383 -0.041032847

layer2.1.weight f4 [8]
000000 fd bd 74 3f 3f 13 88 3f ab 1a 6d 3f 50 ff 82 3f
       0.956024 1.0630873 0.9261882 1.0234165
000010 09 9e 91 3f 40 81 77 3f cd 68 88 3f bf 09 7e 3f
       1.1376354 0.96681595 1.0656983 0.9923362

layer2.1.bias f4 [8]
000000 f1 5f 12 bd c1 89 61 3d 36 c0 11 3d 48 f1 71 3d
       -0.035736028 0.055063013 0.035583697 0.059067994
000010 f8 64 0e 3e cb dc 4e 3d 97 5c 74 3b 46 f0 41 3d
       0.13905704 0.050503533 0.0037286633 0.047348283

layer2.1.running_mean f4 [8]
000000 0f ac 46 3f a8 70 06 bd ce 44 96 3e 71 87 87 3e
       0.7760629 -0.03282228 0.2934937 0.2647052
000010 f8 0e ed bd 4c 85 51 3f c0 07 67 be 86 24 ba 3e
       -0.11575121 0.8184402 -0.2256155 0.3635599

layer2.1.running_var f4 [8]
000000 27 f5 2b 3f c1 c8 66 3e 49 ac 35 3e 30 af 96 3e
       0.6717095 0.22537519 0.17741503 0.29430532
000010 13 b2 07 3f 25 7c 9a 3f a0 fd 09 3e 8e 7d d9 3e
       0.53006095 1.2069136 0.13475657 0.42478603

layer3.0.weight f4 [16, 8, 3, 3]
000000 bc 14 6a 3d 2f 66 3c bd ce c3 6a bc 48 25 71 3d
       0.05714868 -0.045995887 -0.01432891 0.058873445
000010 2b a2 02 3d 5e 0c f1 bc 05 d1 59 3d 94 bc 11 bd
       0.031892937 -0.029424842 0.053177852 -0.035580233
000020 f1 3c 9f bd 3e 02 33 bd 26 ff c0 3c 31 1b de 3c
       -0.077752955 -0.04370331 0.023559164 0.027112575
000030 0e 9f 06 be 54 dc 87 bd 7f 97 5c bd ba 87 f5 3c
       -0.13146612 -0.06633821 -0.053855415 0.029971946
000040 2d 5e 24 be 91 44 26 bd 35 b7 2e 3c 99 09 f4 3c
       -0.1605155 -0.040592734 0.010663797 0.029789733
000050 23 e8 8b 3d d0 79 a7 bd 67 82 70 bd 99 3b e8 bd
       0.06831386 -0.08177531 -0.05871811 -0.11339492
000060 cb d9 57 bd f5 9b 5c bc 6e 9d 86 bd b7 d1 c6 bd
       -0.052697938 -0.013464917 -0.06572996 -0.09707969
000070 94 10 d9 bc f1 c4 b8 3d b4 21 38 3c da a0 64 3c
       -0.026497163 0.090219386 0.011238504 0.013954366
000080 8d 17 c5 3d a6 c5 1b b9 91 6e b5 3d fd c7 30 3d
       0.096236326 -0.00014855582 0.088589795 0.043159474
000090 ed 60 9b 3d d9 05 c7 3d 27 71 ab bd a1 b7 38 3d
       0.075868465 0.09717912 -0.083711915 0.045096997
0000a0 11 75 9c bd a2 7f 7a 3d 55 06 02 be 7c 83 b2 bd
       -0.07639516 0.061156876 -0.12697728 -0.08716485
0000b0 45 66 2c bd 76 e3 06 bd 2d f2 b7 3c 96 74 cd bd
       -0.04208972 -0.032931767 0.022454346 -0.10032003
0000c0 64 07 7c 3d 9b 83 62 bb eb 67 01 3d 5b 40 29 3d
       0.061530486 -0.0034563306 0.031593245 0.04132114
0000d0 16 c5 6f 3d 2b cf 8a 3c f8 25 36 bd 97 a5 9d 3b
       0.058537565 0.016944489 -0.044469804 0.0048109996
0000e0 d9 84 c5 bd bb 7b 2c bd 9c 9d 45 bd c8 f0 7c bd
       -0.09644479 -0.042110186 -0.04824601 -0.061753064
0000f0 92 b7 b4 bd 94 1e 17 be b6 76 67 bd ef 06 67 3d
       -0.08824076 -0.14757758 -0.056509696 0.056403097
000100 04 77 e0 bc 88 27 b6 3d bf 8f 80 bd 42 e4 03 3d
       -0.027400501 0.08894259 -0.062774174 0.032200105
000110 95 8d 2b bd 9b 85 e1 3d 4e a1 76 3d 7d f9 6b 3d
       -0.04188307 0.11011811 0.060212426 0.057610977
000120 93 31 44 3d ac 20 f3 3c 0d f2 b5 bd 98 6d 45 3d
       0.04789884 0.029678665 -0.08884058 0.04820022
000130 c6 94 e6 3d 61 4e 24 3d 74 a1 0d 3d 58 e1 45 3d
       0.11258845 0.04011381 0.0345778 0.048310608
000140 62 79 48 3d e1 9a 51 3d b7 8f a8 3d e9 ad 89 3d
       0.048943885 0.051173095 0.082305364 0.06722624
000150 17 01 ab bd a8 23 07 be 50 d0 f8 bc 83 87 0d 3c
       -0.08349817 -0.13197196 -0.030372769 0.008638266
000160 df b0 de bc 0d a8 00 3d 4e d3 e1 bd 19 6f a8 3d
       -0.027183948 0.031410266 -0.11026631 0.08224315
000170 cc 40 60 3d 3d 7b 5f bc 74 ef 9c bc c3 c7 87 bd
       0.054749295 -0.013640222 -0.019157149 -0.066298984
000180 40 be 9d 3d 08 d1 18 3d ba 07 17 bd ac a8 90 3d
       0.07702303 0.037308723 -0.036872603 0.070634216
000190 85 99 13 bc 32 5b 02 be 08 26 f5 bd 5b 36 80 bd
       -0.00900877 -0.12730101 -0.119701445 -0.062603675
0001a0 95 e1 b8 bd 66 3b 25 bc c7 1f ab 3d 9f 23 1f be
       -0.09027401 -0.0100849625 0.083556704 -0.15540932
0001b0 b7 6c 1d bd a8 63 47 3d c5 20 b8 3d d1 61 ec 3d
       -0.038433757 0.048679024 0.08990625 0.115420945
0001c0 24 dc eb 3d 8b f8 04 3e 2c fe 9b bd 56 21 24 bd
       0.11516598 0.12985437 -0.07616839 -0.040070854
0001d0 f0 87 1d 3e 66 3c c5 3c 35 c6 be bc 24 ef f9 bd
       0.15383887 0.024076652 -0.023287872 -0.122038156
0001e0 8a d4 73 bd f0 01 0a 3d 24 12 92 bd 6e 74 b9 bd
       -0.059528865 0.033693254 -0.07132366 -0.0905541
0001f0 7b 52 15 3d 25 51 b0 bd cd 83 65 3c fe 4f 0f bd
       0.036455613 -0.08609227 0.014008475 -0.034988396
000200 d9 a4 dc 3d 4e 09 b2 3d a9 cd 32 bc 96 b4 ae bb
       0.1077363 0.08693181 -0.010913291 -0.005331586
000210 6a ad f9 3d b9 ac a5 bc 93 dc 40 3d f4 9f a8 bd
       0.12191279 -0.020223962 0.047085356 -0.08233634
000220 3a 2b b2 3d 50 28 c6 bd 65 32 da bb 8d ae 42 bd
       0.08699651 -0.09675658 -0.0066588395 -0.047529746
000230 d8 40 7d bd f2 b7 1d 3d ee 21 86 3d 37 c0 bb bc
       -0.061829418 0.038505502 0.0654944 -0.022918804
000240 a7 7f d1 bd e6 ef 86 3d a6 51 98 3d 03 db 11 bd
       -0.10229426 0.06588726 0.07437448 -0.035609256
000250 d8 63 13 bd 52 11 94 bd 03 6e c9 bb c3 08 00 3e
       -0.03598389 -0.07229866 -0.0061471476 0.12503342
000260 a8 c4 9f 3c 9d 25 a9 bc f7 04 05 be 0f f2 e0 3c
       0.019502953 -0.020647818 -0.12990175 0.027459173
000270 8b fb 87 3d 9a 74 11 be 3e 45 a1 bd 1e ba a7 3d
       0.06639775 -0.14204636 -0.07874535 0.08189796
000280 a1 d3 44 bd b7 74 0d be 95 06 c0 3d 7e 0a 80 3d
       -0.048053388 -0.13814054 0.093762554 0.06252001
000290 e1 13 b5 bc 6a ae 36 3d 04 3a 26 bd d0 f3 ad 3d
       -0.022104206 0.044599928 -0.04058267 0.08493769
0002a0 eb 4e 2e 3d a0 93 5d bd 80 3e 31 bd b3 76 59 bd
       0.04255573 -0.054095864 -0.043272495 -0.053091716
0002b0 8b 38 80 bd 9d b6 38 3d a5 09 36 3d bb f9 0e be
       -0.06260785 0.04509603 0.04444279 -0.13962452
0002c0 c3 0b e4 bd d6 d6 8b bd 91 04 5c bd 0d a6 0d bd
       -0.11135056 -0.06828086 -0.053715292 -0.034582186
0002d0 ca 82 2a bd dd 5a e8 3c 74 e9 26 bd 01 c1 66 3d
       -0.041628636 0.02836364 -0.040749982 0.056336407
0002e0 e9 96 b6 3c 3d 01 e5 bd 8d 65 6a bc 56 7d 0d bd
       0.022288756 -0.11181877 -0.014306438 -0.034543358
0002f0 c3 ad 92 3d c7 54 b8 3d f7 7a 51 3c 0b 3c b6 3c
       0.07162049 0.09000545 0.012785665 0.022245428
000300 a0 4a 27 3d df 9a 85 bd cc e6 c8 bd 5e 41 fc bc
       0.040842652 -0.0652368 -0.09809646 -0.030792888
000310 5e 07 68 3d 9e be a0 3c c6 8a 0d 3d 50 91 90 3c
       0.05664765 0.019622143 0.034556173 0.017647415
000320 75 78 5e 3d 31 d8 a0 bd ae 3b 13 3d a3 ab 37 3d
       0.054314096 -0.07853735 0.035945587 0.04484142
000330 6f 5f c2 bd c3 90 36 3d 1e 2f 45 bd c9 a8 aa bd
       -0.09490859 0.04457165 -0.048140638 -0.083329745
000340 b5 41 c4 bc f8 bc 3c 3d 96 d1 07 be 24 f5 4b bd
       -0.023957113 0.046078652 -0.13263544 -0.04979433
000350 ab c0 6e 39 09 70 62 3c e5 e1 8d 3d ca c3 a5 bd
       0.00022769223 0.013820657 0.069278516 -0.080939844
000360 4d 3d a3 bd 8a e7 7b 3d 4e c3 1f bd d8 53 70 bc
       -0.079706766 0.06150011 -0.039004616 -0.014668427
000370 2f 17 72 ba 58 30 e1 3d 97 3e 23 3d 6a 18 18 3d
       -0.0009235022 0.10995549 0.039854612 0.037132658
000380 a9 88 98 3d af fa 4f 3d aa 04 02 be fc 6b 12 be
       0.07447941 0.05077618 -0.12697092 -0.14299005
000390 c5 8b b0 3d 09 8c 0a be f3 d2 89 bd b4 7e bd bc
       0.08620409 -0.13529982 -0.067296885 -0.023131706
0003a0 8d f7 0e be 24 12 d9 bd a4 1e 22 bd d8 4e 57 3c
       -0.1396162 -0.10599163 -0.039580002 0.013141356
0003b0 84 72 07 bd 4e 95 2e bd 29 20 99 bd 90 c8 af 3d
       -0.033068195 -0.042622857 -0.07476837 0.08583176
0003c0 fa c0 aa 3d e0 fa bc bb 73 13 9f 3d 46 e2 21 bd
       0.083375886 -0.0057672113 0.077673815 -0.03952243
0003d0 78 64 3b bb 12 c4 c2 bd d6 46 4c bd 5f 4d 80 bc
       -0.002859382 -0.09510054 -0.049872242 -0.015661893
0003e0 c5 eb da bc 7d 47 20 3c 54 d3 21 3d 9d 8b c8 3d
       -0.026723752 0.009782669 0.03950818 0.09792254
0003f0 f1 e8 35 3d d8 fc 64 bd 62 e0 e8 bd ab 2b de 3d
       0.044411603 -0.055905193 -0.113709226 0.10848173

layer3.0.bias f4 [16]
000000 f7 a1 86 bd 8a 7b 60 bd 94 be 26 3d d6 e5 19 3c
       -0.06573861 -0.054805316 0.040709093 0.009393176
000010 35 2c 33 3d 7c 2b 59 3d 3d 37 e6 3d 1a fe 09 bb
       0.04374333 0.053019986 0.112410046 -0.0021055997
000020 13 57 50 3c 63 24 46 3d 54 d7 9c bd a4 cb f8 3c
       0.012716073 0.048374545 -0.07658258 0.03037054
000030 62 6a 7d 3d 92 ce 89 3c 7e 81 46 bd a2 70 c3 bd
       0.061869033 0.016822133 -0.048463337 -0.095429674

layer3.1.weight f4 [16]
000000 31 b0 80 3f ad df 6e 3f 90 35 6d 3f 88 d4 7c 3f
       1.0053769 0.9331005 0.92659855 0.98761797
000010 1a e0 83 3f 1f 4b 74 3f dc 6d 71 3f 68 2e 74 3f
       1.0302765 0.95427126 0.9430826 0.9538331
000020 08 46 7f 3f 58 e4 79 3f fd 5f 73 3f 81 a6 85 3f
       0.99716234 0.9761405 0.9506834 1.0441438
000030 97 19 7c 3f 52 5b 7a 3f 72 d6 84 3f 39 64 7a 3f
       0.98476547 0.97795594 1.0377944 0.9780918

layer3.1.bias f4 [16]
000000 cb 70 47 be 32 6f 19 be a5 c4 0e be 79 05 21 be
       -0.19476621 -0.14983824 -0.13942201 -0.15724744
000010 25 f5 95 be 1a 0b cf bd 0c ca 28 be 26 86 26 be
       -0.29288593 -0.10109539 -0.16483325 -0.16262111
000020 a2 29 13 be e5 27 11 be 48 3b 33 be ac e6 5c be
       -0.1437135 -0.14175375 -0.17503083 -0.2157237
000030 ed 72 82 be 00 ea 12 be dd 02 6e be 44 ea 02 be
       -0.25478306 -0.14347076 -0.2324328 -0.12784678

layer3.1.running_mean f4 [16]
000000 80 0f 0f bf 42 9b 06 3d 43 ff 00 bf 4a 5d e0 be
       -0.55883026 0.03286291 -0.503895 -0.43821174
000010 97 4f 48 be 16 e7 c9 be 51 6c 72 be d7 d2 15 bf
       -0.19561611 -0.39434117 -0.23674132 -0.5852484
000020 5f e9 fe 3e d0 b0 a0 be e4 9a dd bd ea 94 0d bf
       0.49787423 -0.31384897 -0.10820559 -0.5530535
000030 e1 2e c4 be 63 15 4e bf 4b 0c 03 bf 37 4c 95 be
       -0.38317016 -0.80501384 -0.5119063 -0.2915971

layer3.1.running_var f4 [16]
000000 62 b4 0b 3e 1f 21 f4 3e 28 46 8b 3e f5 e7 54 3e
       0.1364303 0.4768152 0.27201962 0.2079161
000010 e1 88 c2 3d af 23 21 3e b0 42 fe 3d 69 b8 b8 3e
       0.09498764 0.15736268 0.124150634 0.36078194
000020 9e 29 af 3e be ee e4 3d 62 1c 7d 3e 16 84 38 3e
       0.3421144 0.11178349 0.24717858 0.18019137
000030 38 8b 4b 3e 77 c7 87 3e f5 16 d6 3d 5c 8a 27 3e
       0.19877326 0.26519367 0.104535975 0.16361374

layer4.0.weight f4 [32, 16, 3, 3]
000000 bd a2 9e bd 70 08 41 bd ee dc 95 bc 45 35 b0 3c
       -0.077458836 -0.047127187 -0.018293824 0.021509776
000010 53 a9 e0 bc 70 12 a1 bc a4 30 ab bc ac f6 93 3c
       -0.02742449 -0.019662112 -0.020897217 0.018061958
000020 30 c0 2d 3b bc c5 67 bc ab 2f 9d bd 25 bd 0d bc
       0.0026512258 -0.014146265 -0.076751076 -0.008651053
000030 28 0a b3 bd b0 c8 27 bd 24 42 0a bd cc 03 18 3c
       -0.087421715 -0.040962875 -0.033754483 0.009278249
000040 82 c8 48 bd 70 0b 04 3d 07 ba 9d 3d a1 74 f6 3c
       -0.049019344 0.03223747 0.077014975 0.03008491
000050 93 fb 37 3b 05 46 4c 3d be 4b 92 bd b1 af cf bc
       0.0028073534 0.049871463 -0.07143353 -0.02535233
000060 35 48 07 bc a8 1e ed 3c d9 3d 39 3d 28 b4 f0 3c
       -0.008256962 0.028945282 0.045225 0.02938278
000070 28 a8 82 bd 2c dd 92 3c 72 27 87 bd 0e 09 c5 bd
       -0.063797295 0.017927729 -0.065993205 -0.09620868
000080 df d3 bc 3c 08 e6 a8 3d 5f 33 96 bd 25 29 1f 3d
       0.023050247 0.08247 -0.07334017 0.038857598
000090 bb 52 f7 bd e3 f7 d8 bc 57 a3 dd bd ce c3 70 bd
       -0.120763265 -0.02648539 -0.1082217 -0.058780484
0000a0 99 1f 0f bd 65 0c 2b bd 54 fe a7 bd 7a 71 9b bc
       -0.034942243 -0.041759867 -0.08202806 -0.018975008
0000b0 46 22 aa bd f9 ed ac 3c cb da 11 3d fb 1b 7d bd
       -0.083073184 0.021109568 0.035609048 -0.061794262
0000c0 aa 65 71 bd 82 76 37 3d 9f 13 6f bd 39 5f e3 bb
       -0.058934845 0.044790752 -0.05836832 -0.0069388417
0000d0 c6 ad 3c 3c c6 dd 66 3d 35 97 c9 bd 3d b7 3b bd
       0.01151604 0.056363843 -0.098432936 -0.045829047
0000e0 89 2d cf bc a2 0a 1d 3d fd 09 7f bc 2d 13 a9 bc
       -0.025290268 0.03834022 -0.015566346 -0.020639027
0000f0 6e f2 71 bd 4a 60 16 3c 01 c5 5e bc 44 14 9c 3d
       -0.05906909 0.009178231 -0.013596774 0.07621053
000100 d2 c5 73 bd 15 62 12 bc f7 bb 20 bc 8c ca 5a 3d
       -0.059514828 -0.008934517 -0.009810439 0.05341582
000110 ea 9e c5 3c 5c 06 4a 3d 15 dd c4 bd da cb 92 39
       0.024123628 0.04932247 -0.096124806 0.0002799917
000120 6b 56 f8 3c 53 83 8e bc c2 59 35 3d af c7 b2 bc
       0.030314645 -0.017396605 0.044275053 -0.021823732
000130 6f bc 14 be 14 c9 a1 bd 7d 5f bb bd 83 ab ff bd
       -0.14525007 -0.07899681 -0.09149072 -0.12483885
000140 06 10 e3 b7 2a 48 70 3b aa 4a 4d 3d 78 b7 44 bd
       -2.706797e-05 0.0036664107 0.050120033 -0.048026532
000150 c9 1e 04 3c 3d 6a 80 bc d1 49 59 bc 9f e4 08 3b
       0.00806398 -0.015675658 -0.013262228 0.0020888222
000160 7b 1a 24 3b b8 f9 c2 bd 9e aa 76 bd de a2 4d 3d
       0.0025040198 -0.09520286 -0.060221307 0.05020415
000170 84 62 60 3d 2a 15 af bd 5d 58 e5 bd ac e6 9f bd
       0.05478145 -0.085489586 -0.111984946 -0.07807669
000180 f4 c2 d9 bc 92 9b 8d bd 3a c5 95 bc 7e d9 8d bd
       -0.026582219 -0.06914438 -0.018282522 -0.06926249
000190 29 a6 ce b9 ad ee 0c bd 7e 8d 95 bd 89 a9 59 3c
       -0.0003941518 -0.034407306 -0.07302378 0.013285049
0001a0 3b 58 dc bc 35 30 0e bd 06 5b 62 ba 47 d3 7a bc
       -0.02689754 -0.034713943 -0.00086347794 -0.0153091615
0001b0 cb 66 97 bd da 5f 6b bd 18 11 82 bd 56 d6 ec 3c
       -0.07392653 -0.057464458 -0.063509166 0.028910797
0001c0 ca ab 24 bb cb df 3c bd 27 ef 43 bd 67 9d cb bc
       -0.0025126808 -0.046111863 -0.047835495 -0.024855329
0001d0 eb 19 3b bb 23 87 73 3d 90 e6 a7 bd 27 d2 89 3d
       -0.0028549384 0.05945505 -0.08198273 0.067295365
0001e0 3f 00 5f bc 6c fa 65 bd 3b 1f cf 3c ca 66 94 3d
       -0.0136108985 -0.056147024 0.025283447 0.07246168
0001f0 5e b3 47 3d 1c 09 fc bc 87 af a9 bd c5 c0 96 3c
       0.048755042 -0.030766062 -0.08285432 0.018402467
000200 66 bb 26 bd cf ce 6f bc 5c 42 48 bb 90 cd b6 3c
       -0.04070606 -0.014636709 -0.0030557131 0.022314817
000210 5a 3f 93 bd 20 b0 eb 3c 4b 1b 3c bd b9 ae 0a 3b
       -0.07189818 0.028770506 -0.045924466 0.0021161272
000220 3c d9 00 bd 8d 7a c3 3b 44 b3 62 3d 26 6c 9e 3c
       -0.03145717 0.005965537 0.055346742 0.019338679
000230 67 2b 42 3d 5b ed 51 3c 0e 0d dd bc 63 f0 6c bd
       0.047404673 0.012812938 -0.026983764 -0.05784644
000240 ab 09 86 3c 03 b3 8b 3d c6 43 f0 3c ed c9 48 bd
       0.016362032 0.06821253 0.029329192 -0.049020696
000250 64 3e 6c bd a8 f9 9d bd 66 d5 34 bd 70 eb 77 bd
       -0.057676688 -0.07713634 -0.044148825 -0.060527265
000260 3c 12 bc bd 42 07 e8 bc 24 ce 6b bd fc 4b 50 bd
       -0.091831654 -0.028323773 -0.057569638 -0.050853714
000270 b2 d5 99 3c b1 b0 f1 3c 9d 44 15 bc b4 c3 e7 bc
       0.018778656 0.029503198 -0.009110597 -0.02829156
000280 ca d3 d6 bc 6f fd 01 3c 7e 2c 68 bd 66 33 a8 bd
       -0.026224036 0.007933958 -0.056683056 -0.082129285
000290 6c 95 48 bd 7a ef 3f bc 50 ec 02 3d 21 94 aa 3d
       -0.048970625 -0.0117148105 0.031963646 0.083290346
0002a0 3b 29 a9 3d 0d d8 36 3d f3 df 2e 3d 76 d1 29 bd
       0.08259817 0.044639636 0.042694043 -0.041459523
0002b0 ba 66 8f bd bf 68 36 bd 71 d3 6a bd b5 16 1c bd
       -0.070020154 -0.044533487 -0.057330552 -0.038107593
0002c0 95 0c 09 bc 39 fd 12 3d ac 91 36 3d bd 07 a2 3d
       -0.008364816 0.035886023 0.044572517 0.07911632
0002d0 75 29 9c bc 9e c8 ed 3c 98 45 bf bc 9e b7 af 3d
       -0.019062737 0.029026326 -0.023348615 0.08579944
0002e0 57 40 9d 3d 47 4d 39 3d 0d d7 09 bc 15 2d 0f 3b
       0.076782875 0.045239713 -0.0084130885 0.002184694
0002f0 a2 17 01 bd 2a 5b 3e 3d 2b ac f2 bc 52 d1 1b 3d
       -0.03151668 0.04647366 -0.029623112 0.03804142
000300 30 15 21 bd f5 af 92 bc 2a 69 72 bd 3c c4 a1 bc
       -0.039326847 -0.017906168 -0.059182324 -0.019746892
000310 00 c1 96 bd 48 61 a5 bc 2d a5 65 3c 2c c3 75 3c
       -0.073610306 -0.020187989 0.014016432 0.015000146
000320 40 63 55 3d 8a 35 b0 bd 9b 0b 1b bc 59 a7 74 bd
       0.052096605 -0.08603962 -0.009463216 -0.059729908
000330 6a 6c a0 bd 28 25 b6 bd e7 90 8b bd cc 8f a7 bc
       -0.07833178 -0.08893806 -0.06814747 -0.02045431
000340 43 3f 80 bd 0e a1 06 bd 60 ec e9 3c de d6 ba 3b
       -0.06262066 -0.032868437 0.028555095 0.0057018837
000350 4c e3 91 3d 75 ed 89 3c 5d 1c 03 3d 85 36 b1 3d
       0.071234316 0.016836861 0.03200947 0.08652977
000360 ce fd 0e 3c 9a 7b 7b bd dc b8 a8 bd 6e 00 ac 3d
       0.008727504 -0.061397173 -0.08238384 0.083985195
000370 5c e9 71 bb b2 d3 f0 3c 2e ce 4f 3d 10 61 8d 3d
       -0.0036912775 0.02939782 0.050733738 0.06903279
000380 eb e4 b8 3c b0 e9 b2 3d 20 ca 98 bc bd 72 e2 bc
       0.022570094 0.087359786 -0.018651068 -0.027642602
000390 03 73 31 bc e9 33 22 bb 78 ac 1d 3c 91 72 33 3d
       -0.010830644 -0.002475018 0.009623639 0.04381043
0003a0 77 6d 32 bd fa 68 d4 bc 38 78 76 bc 42 a1 3a bc
       -0.043561425 -0.025928963 -0.015043311 -0.011390986
0003b0 80 1a 6c bd b8 d1 17 3d d5 1c 33 3d cd ff 8a 3c
       -0.05764246 0.037065238 0.04372867 0.016967678
0003c0 49 a3 16 3d 92 68 4b 3c f3 d0 3d 3d 5a e8 46 3b
       0.036776815 0.012415068 0.046341848 0.0030350895
0003d0 83 47 a2 3d bb 31 81 3d a7 4b b0 bc 98 5a 33 3d
       0.07923796 0.063083135 -0.021520449 0.04378757
0003e0 3b 8e 5e bd 91 2b 76 3c 65 c8 62 bd 9c de 3c bd
       -0.05433486 0.0150250355 -0.055366892 -0.046110734
0003f0 35 38 81 3d f0 0e b4 3d db f9 f8 3c 95 d9 03 bd
       0.06309549 0.087919116 0.030392578 -0.032189924

layer4.0.bias f4 [32]
000000 9c 10 56 bd cb 41 34 3d ab 74 62 3d 71 6b 99 bc
       -0.052261934 0.044008058 0.055287044 -0.01872799
000010 c6 d9 d8 3c 9a fa e2 ba 61 c9 81 bd 12 43 90 bc
       0.02647103 -0.0017317117 -0.06337238 -0.017610107
000020 63 a3 a5 3d 17 ad 6f bd 71 24 91 3d 37 97 a3 3d
       0.08087804 -0.05851468 0.07087029 0.07987826
000030 81 a5 83 3d ca 34 0e bd 31 a3 16 3d 2d 3a a6 3d
       0.06428052 -0.034718312 0.036776725 0.08116565
000040 a6 07 a6 bd 33 29 44 3c 6c c8 11 bc ec 22 88 bd
       -0.081069276 0.011972713 -0.008897882 -0.06647286
000050 37 9f 96 bd fa 04 92 3d 6c 2b 30 3d b0 b7 7f bd
       -0.073545866 0.071298555 0.04301016 -0.062431037
000060 ef cb 77 3d be f8 43 3d 35 78 89 bd 83 c4 67 bc
       0.06049722 0.04784464 -0.06712381 -0.014145973
000070 c6 8b 5c bd eb 3d b6 ba 15 b5 8a 3c 5d 15 13 3d
       -0.053844236 -0.0013903951 0.01693205 0.035909045

layer4.1.weight f4 [32]
000000 f5 6e 88 3f 1d b6 8e 3f f1 cf 8a 3f ea cd 89 3f
       1.0658861 1.1149327 1.0844709 1.0765965
000010 7a 07 86 3f 96 4d 89 3f 03 48 84 3f 00 76 8a 3f
       1.0471032 1.0726802 1.0334476 1.0817261
000020 85 5b 8a 3f cd 4f 84 3f 34 e1 89 3f a1 98 89 3f
       1.080918 1.0336853 1.0771852 1.0749704
000030 dd 55 8a 3f 55 cb 8a 3f 57 91 8c 3f 38 ba 8b 3f
       1.0807453 1.0843302 1.0981854 1.0916204
000040 59 93 8c 3f 31 dd 8b 3f 4b d1 8c 3f 2d e0 89 3f
       1.0982467 1.0926877 1.1001371 1.0771538
000050 b8 45 88 3f 82 bf 89 3f 58 d4 8a 3f 59 36 8a 3f
       1.0646276 1.0761569 1.0846052 1.0797836
000060 bb e1 8a 3f ce 4a 8b 3f 74 6d 87 3f 4a 4f 90 3f
       1.0850137 1.0882204 1.0580277 1.1274197
000070 4a bd 8b 3f 4b a2 8b 3f 72 f1 88 3f c2 ca 89 3f
       1.0917141 1.0908903 1.0698683 1.0765002

layer4.1.bias f4 [32]
000000 57 3c 86 3d 6c 35 24 3d c2 5e 64 3d 35 80 ae ba
       0.06554478 0.04009001 0.05575443 -0.0013313355
000010 ec 04 6d 3d 21 a9 9b 3d 44 8b 41 3d c1 fe 96 3d
       0.057866022 0.07600618 0.047251955 0.07372809
000020 8b 11 b1 3c 74 3a 03 3d fd 72 76 3d c8 5b 6c 3d
       0.02161481 0.032038167 0.060168255 0.057704717
000030 6c 36 69 3d 20 c3 98 3d 14 a6 59 3d aa 9d 86 3d
       0.056936666 0.07459092 0.0531369 0.06573041
000040 a6 96 b1 3d 89 99 47 3d 46 ae 98 3d 37 d4 8c bb
       0.08671312 0.048730407 0.07455115 -0.004297759
000050 a9 fb a1 3d 86 1d 7e 3c d1 a9 99 3d 7e b4 6a bb
       0.079093285 0.015509969 0.07503093 -0.0035813148
000060 7a ed f0 3c 89 63 7b 3d 77 af 5b 3c 74 f8 42 3d
       0.029410113 0.06137422 0.013408533 0.047600225
000070 0d 2b 7a 3d c6 71 39 3d 1b 6e 2a 3c 2f 1b 6b 3d
       0.061076213 0.04527452 0.010402228 0.05739897

layer4.1.running_mean f4 [32]
000000 10 98 8f bf 01 d4 17 be 05 e7 31 bf 5c 54 9a 3e
       -1.1218281 -0.14826967 -0.6949313 0.30142486
000010 d4 02 22 bf 36 a8 be be 06 de cc be 49 7f 9a be
       -0.63285565 -0.3723771 -0.4001314 -0.30175236
000020 10 bc d7 3e 53 07 bb be 6f 0b e2 be 37 54 96 bd
       0.42135668 -0.36529025 -0.44149348 -0.073402815
000030 49 73 9a be 62 da 02 be bd df 85 3d 13 7e 9d be
       -0.3016608 -0.12778619 0.06536815 -0.3076025
000040 35 0d 11 bf 52 d2 ab 3e 8b 76 ab be 3f a4 49 3e
       -0.5666078 0.335589 -0.3348888 0.19691561
000050 81 93 2f 3e 79 73 c3 3e d0 ce 65 bf a0 c8 79 3e
       0.17146112 0.38174036 -0.89768696 0.24392939
000060 bb d8 b1 3e e8 73 63 3e 74 48 e7 3e 70 ac 9d 3d
       0.34735665 0.22212183 0.45172465 0.076989055
000070 c7 a1 9b 3e 01 de 23 3e e1 e7 d7 3e c4 24 14 3e
       0.30396864 0.16002657 0.42169097 0.1446715

layer4.1.running_var f4 [32]
000000 d0 15 13 3f 75 7e 2c 3f b2 4b 4f 3f a0 c2 8d 3f
       0.5745516 0.6738046 0.80974877 1.107502
000010 6f ef 20 3f 9d 25 4f 3f 9d 6e f6 3e 63 85 e5 3e
       0.62865347 0.8091677 0.48131266 0.44828328
000020 63 4b 42 3f 36 76 39 3f 0a 01 40 3f d2 ed d9 3e
       0.7589628 0.72446 0.75001585 0.42564255
000030 ff 5d 59 3f 59 56 3b 3f d7 3b 25 3f 42 0b 71 3f
       0.8490905 0.7317863 0.64544433 0.94157803
000040 1f 35 3e 3f 9d 48 5a 3f a4 c5 54 3f ab 80 8c 3f
       0.74299806 0.8526705 0.83114076 1.0976766
000050 e4 a9 0b 3f b2 4f 3f 3f 05 02 27 3f dd e8 77 3f
       0.5455611 0.7473098 0.65237457 0.96839696
000060 7b 33 18 3f 2a 43 5b 3f e1 00 68 3f 13 67 e4 3e
       0.5945355 0.8564936 0.9062634 0.4460989
000070 53 8c fc 3e 22 8b f6 3e c1 ab 8a 3f 19 3b 02 3f
       0.4932581 0.48153025 1.0833665 0.50871426

fc.weight f4 [1, 1152]
000000 62 61 19 bd bf fb 52 bd 45 d8 10 bd d2 12 ef bc
       -0.037446387 -0.051509615 -0.0353625 -0.029183779
000010 e0 13 87 bc e0 04 22 bd 72 6a d1 bc 33 f1 a6 bc
       -0.01648897 -0.03955543 -0.025563452 -0.020378685
000020 04 c9 91 3b 52 0c b1 bc 64 91 06 bd 7c 6f 0a bd
       0.0044490118 -0.02161232 -0.0328535 -0.033797726
000030 da 24 98 bc 41 3d 3c bd 6f c2 42 bc 59 57 87 bd
       -0.01857226 -0.045956854 -0.011887177 -0.06608457
000040 2d e9 55 bd fa 76 01 bd 32 bf ac bb 39 17 0d bd
       -0.052224327 -0.031607606 -0.0052718157 -0.034445975
000050 1b 51 e2 bc 39 e0 98 bd e2 2a 66 bd 0f 7a 55 bd
       -0.027626565 -0.07464642 -0.05619324 -0.052118357
000060 70 40 14 bd 48 7c 7a bd 38 f9 6f bc 96 df 64 bd
       -0.036194265 -0.06115368 -0.014646821 -0.05587729
000070 ba b7 ad bd 6c 95 34 bd d7 2b fa bc 7b 9e 41 bd
       -0.08482309 -0.044087812 -0.030538483 -0.04727028
000080 0a d6 81 bc 10 2e e3 bc d5 3a 1a bd ed af e6 bc
       -0.015849132 -0.027731925 -0.037653763 -0.02816006
000090 33 6d d7 3c 51 4f 03 3d 38 76 c8 3c 98 03 c5 3c
       0.026297187 0.032058064 0.024470434 0.024049565
0000a0 83 f4 5c 3b a1 6c 37 3c 7b 7b 22 bd 6e 08 70 bd
       0.0033715076 0.011195333 -0.03966854 -0.05860179
0000b0 67 51 a3 bd b9 dc 59 bd e3 df f8 bc fa b4 c8 bb
       -0.07974511 -0.053189013 -0.030380195 -0.0061250897
0000c0 55 ee 42 bb fd 76 3f bd 54 fb 82 bd e1 68 66 bc
       -0.0029744108 -0.046744335 -0.06395593 -0.014063091
0000d0 50 14 d0 bc 16 9d 22 3d 5d 50 23 3c af 33 56 bb
       -0.02540031 0.03970059 0.009967891 -0.0032684614
0000e0 d9 64 5b bc b8 f6 58 3c 0d 96 ca bb a0 50 fc 3c
       -0.013390743 0.013242416 -0.006182438 0.030800164
0000f0 7b d1 17 3d ea 21 43 3d 94 16 c9 3d 97 31 83 3d
       0.03706501 0.047639765 0.098187596 0.06405943
000100 b0 d5 40 3d a1 66 8e 3c 4a ec 70 3b 86 65 8b bc
       0.04707879 0.017382922 0.0036761933 -0.017016184
000110 4c ce 04 bd 22 7a bd 3b 36 81 ea 3c c7 c3 3c 3c
       -0.032423303 0.0057823816 0.028626066 0.011521286
000120 73 3e 81 bb 6b 13 dd 3b 82 6e 22 bb f6 f7 8f bb
       -0.003944212 0.0067466996 -0.0024785106 -0.004393573
000130 92 f3 ee ba 5e 1e 2b bd de a9 00 3a cd 16 e9 3b
       -0.0018230549 -0.041777007 0.00049081247 0.007113314
000140 2b c2 38 bc 09 0b 06 3b 48 af 92 3c 6e 9a 25 bd
       -0.011276762 0.0020453355 0.017905846 -0.04043048
000150 92 f1 61 bc 51 20 79 bd 9e 80 dd bd 1b 30 c7 bc
       -0.013790505 -0.060821835 -0.108155474 -0.02431493
000160 58 da 64 3c 4a a3 67 3a 40 7d 7c bc d1 92 6c bd
       0.013968073 0.00088362827 -0.015410721 -0.057757203
000170 73 eb 96 bd 8b 9b bb bc 26 5a 03 3d 48 3d 01 bb
       -0.07369127 -0.022901317 0.032068394 -0.0019720364
000180 94 c2 a7 bc 12 12 c3 bc be 85 9e bd 92 fa de bc
       -0.020478524 -0.023812328 -0.07740353 -0.02721909
000190 19 83 dd 3c 42 42 18 bd 5b 7a 82 3b e6 e0 89 bb
       0.027040051 -0.037172563 0.003981871 -0.004207718
0001a0 7e a3 29 bc ab ab a7 3c 6f 12 16 3d 24 97 8e bc
       -0.010353921 0.0204676 0.036638673 -0.017406054
0001b0 ea 41 03 bc d3 a7 be 3a 96 e4 05 3d 4d d1 0a 3d
       -0.008011321 0.0014545865 0.0326887 0.03389101
0001c0 f4 84 b9 3c 30 46 ae 3a 58 bb 50 3d df 25 3f 3d
       0.022646405 0.0013296064 0.050959915 0.046666976
0001d0 91 76 26 3c 93 42 07 3c 80 08 db 3c eb ee be ba
       0.010160104 0.008255619 0.026737452 -0.0014567053
0001e0 c8 1a 8f 3d 5c 55 ad 3d 63 cb 13 3d 2e 5b d7 3c
       0.0698753 0.08463547 0.036082637 0.026288595
0001f0 71 b6 44 3d 4f 65 81 3d 98 a3 80 3d c4 80 9c 3d
       0.048025552 0.06318151 0.06281203 0.076417476
000200 63 ac b9 3d a2 2b 8c 3d 76 9c 8e 3d c2 f4 8a 3d
       0.09066083 0.0684426 0.06963436 0.06784965
000210 2a 26 3f 3d 66 61 ac 3d 66 b9 7d 3c 92 d1 00 3d
       0.046667255 0.08417015 0.015486097 0.03144986
000220 15 25 88 3d ed a8 35 3d f3 4d a4 3c da c8 3e 3d
       0.06647698 0.044350553 0.0200567 0.046578266
000230 89 79 d6 3c f9 8b b9 ba af 89 7b 3d fa 82 a0 3c
       0.026181 -0.0014156095 0.061410602 0.019593704
000240 af db 0d bc 5c e0 a4 bc 54 d4 b3 bc 9b 6f 5a bc
       -0.008658334 -0.020126514 -0.021951832 -0.013332273
000250 1c 6c 88 3b eb 29 ca 3b f8 30 45 bc a3 a0 f4 bc
       0.0041632783 0.006169548 -0.012035601 -0.029861754
000260 da 43 89 bd 32 ff 46 bd db eb d1 bc 74 7b 68 bd
       -0.06702395 -0.048583217 -0.02562516 -0.05675836
000270 1b e7 36 bd cd 48 9a bd a8 a0 05 bd 8d af 71 bd
       -0.044653993 -0.07533417 -0.032623917 -0.05900531
000280 62 9f 5a bd 6d a3 ab bc 3c 65 ac bc a0 b4 b3 bd
       -0.053374656 -0.02095195 -0.021044366 -0.08774686
000290 dd 66 28 bc 5c 6c 82 bc e0 8f cb bb b5 2e ab bc
       -0.010278431 -0.01592081 -0.0062122196 -0.020896295
0002a0 f6 7b 72 bc 52 5b 73 bc 3d dc 7d 3c d9 bf a4 ba
       -0.014800062 -0.014853315 0.015494403 -0.0012569382
0002b0 13 31 85 bb e0 3c a2 bb 43 2b 77 bc 20 ce 0a 3a
       -0.004064688 -0.0049511045 -0.015085998 0.0005294997
0002c0 81 fc 69 bc 5b f2 d6 bc 9a 1e 19 bd e1 71 3c bd
       -0.014281393 -0.026238611 -0.0373827 -0.04600704
0002d0 00 a1 0c bc ec a8 8c 3c 47 1c 85 3c ff bf 07 bb
       -0.008583307 0.017170392 0.016248835 -0.0020713804
0002e0 c9 49 3c 3c 3c 3a 23 3c 38 38 2b 3c 84 12 ba 3b
       0.011492201 0.009962615 0.010450415 0.0056784768
0002f0 9f cb e4 3c bb 76 c7 3b f6 d5 2e bc 8f 29 8d bc
       0.027929125 0.006087152 -0.010671129 -0.01723173
000300 af 1b dc bc ee fe 60 bd 34 99 bb bc 35 9d fc 3c
       -0.02686867 -0.05493062 -0.022900201 0.03083668
000310 34 28 75 3c 98 a6 a2 3b 52 0f 08 bc 4c 81 87 bd
       0.014963198 0.004963707 -0.008304434 -0.06616458
000320 0f 7a ac bd 57 15 57 bd e2 59 39 bd 79 64 c7 bb
       -0.08421718 -0.052510586 -0.045251735 -0.0060849753
000330 91 72 fc 3a 38 01 6e bc 43 80 4a bd 01 7e 7c bd
       0.0019260218 -0.014526658 -0.049438726 -0.061643604
000340 fb e8 6e bd c2 3b 4d bc 79 a0 6c 3c ba 5d 3d 3d
       -0.058327656 -0.012526454 0.014442557 0.046231963
000350 5b e7 18 3d 83 c6 8b bc 30 0a 6a 3c 42 e7 d1 3b
       0.037330013 -0.017062431 0.014284655 0.006405742
000360 8f 6a 09 bc 8e a7 32 3b c7 41 ad 3c 03 d4 32 bb
       -0.008387222 0.0027260515 0.02114953 -0.0027287013
000370 ec 26 e6 3b e7 56 1e bc 71 76 df bc 18 3a 49 bb
       0.007023683 -0.009664274 -0.027278157 -0.0030704793
000380 f2 bf 0d 3c e8 73 87 bc 24 8c 05 3b ba c9 0a bd
       0.00865172 -0.01653476 0.002037772 -0.033883788
000390 35 e2 45 bc 16 6b 2d bd 28 65 08 bd 66 8a e9 bc
       -0.012077858 -0.042338453 -0.033299595 -0.028508376
0003a0 17 11 21 bd 2c f9 c1 bc 37 78 7c bc 8c 23 a2 bd
       -0.03932294 -0.023678385 -0.015409521 -0.07916936
0003b0 55 d3 4f bc 1c f0 21 3d 7c ca 0b bc 51 5f 39 bc
       -0.012684663 0.039535627 -0.008532163 -0.011314229
0003c0 86 6a d8 bc f9 69 55 bd 50 29 9e bc 00 7a 21 bc
       -0.026417982 -0.052103017 -0.019306809 -0.009855747
0003d0 0d 6a 45 bd eb a4 f5 bc 4b 7e 8a bc 70 04 03 bd
       -0.04819684 -0.029985866 -0.016905924 -0.031986654
0003e0 98 68 fc bc 4a 33 a4 bc 9b 0d 67 bc a8 91 f1 bc
       -0.030811593 -0.020043988 -0.014102365 -0.0294884
0003f0 b3 fb da bc e6 3c 12 3c c4 a5 c0 bc 7a 6f ab 3c
       -0.026731348 0.008925652 -0.023516543 0.02092718
