data/chkbox_models/chkbox_rnd7_3_bestVal.pt (torch_old, 236310 bytes, 31 tensors)

layer1.0.weight f4 [4, 1, 3, 3]
00000000: 610e 903e c427 143e 3e28 f13d 3598 393d
00000010: 175e d8bd 9177 443e 89e2 563e 212c 0e3e
00000020: 8f2f 48be 75cf 97be 5229 59be b47f cd3d
00000030: f1e3 42be 734f 8fbc 7826 96be a103 9dbe
00000040: cedd 043e 9669 47be a8bc 7abe 8cff e73b
00000050: 7c2f 7a3e 16e9 873e 1b3a 143e cc81 873e
00000060: a7cb 6ebd d152 b03d 22ee 97bd 5dc8 063d
00000070: 9fdd 143e ae3d 6fbe 8ec0 43be bd23 15bd
00000080: 51a9 ec3d 3baf 90be 5454 12be e7c9 a4bd
0.2813597 0.14468294 0.11775254 0.04531117 -0.10564821 0.19186236 0.20984854 0.13884021
-0.19549392 -0.29650465 -0.21207169 0.10034123 -0.19032265 -0.017493939 -0.29326224 -0.3066683
0.12975237 -0.19473872 -0.24486029 0.007080024 0.24432176 0.26545018 0.1447529 0.26466215
-0.058299687 0.08609546 -0.07418467 0.032905925 0.14537667 -0.23363373 -0.19116423 -0.036411036
0.11555732 -0.2825869 -0.14289981 -0.08046322

layer1.0.bias f4 [4]
00000000: 0890 b939 1cff c73d 4dbd 993d 34a5 823e
0.0003539326 0.09765455 0.075068094 0.25516665

layer1.1.weight f4 [4]
00000000: 80ee 7f3f 909d 7f3f c4c9 7f3f bc6b 803f
0.999733 0.99849796 0.99917245 1.0032878

layer1.1.bias f4 [4]
00000000: f162 cabc c2a8 1fbb 6edd e4bb a427 a93b
-0.024705382 -0.0024362062 -0.0069844043 0.0051621962

layer1.1.running_mean f4 [4]
00000000: 2be7 ee3e 712f 1fbf b987 df3e 0bcf f2bd
0.46660742 -0.62181765 0.43658236 -0.118558966

layer1.1.running_var f4 [4]
00000000: d2c0 193f cbab b23f 840a ca3e 13c5 c83e
0.60059845 1.3958677 0.39461148 0.39212856

layer2.0.weight f4 [8, 4, 3, 3]
00000000: d803 dfbd 6152 cd3d 590f 123e 8c74 adbd
00000010: 69f9 94bb a914 203e e1b3 f63d a8a6 4dbb
00000020: 6ea0 fb3d ab67 1c3e 4213 1bbe 4ef8 90bd
00000030: 9865 a2bc e680 c8bd 5574 9ebc 1d18 ec3d
00000040: 271a 433b 8756 b63d bfb6 f43d 15d3 b53c
00000050: 75f2 c23d b40f 12be a48f ea3d 444b b0bd
00000060: 6f48 e23c 1d9c 8fbd 0d6e 8dbc d0f3 03be
00000070: 2fa9 f4bd 5628 ab3c d595 a9bd 763f a8bc
00000080: d920 9ebd 411b 2d3c a8e8 98bc 601c 54bd
00000090: 4856 f0bd 45fd 0a3d ec78 03bc 8467 fe3d
000000a0: 0c7e 09be 2a84 38bd 19c0 e7bd 46e7 c1bd
000000b0: c8a5 f0bd 8519 47bc 18b2 963d 9654 fabd
000000c0: 283a aebd f7d8 bfbd 1e6a 1fbd 2c02 833d
000000d0: 18ec b63d 2144 0f3e d349 0ebe 32e5 d4bd
000000e0: 576b e53b 843b 273e 0fb3 a33d 1778 abbc
000000f0: 7c55 853d bdcc 30bd dd69 1b3e f1a9 91ba
00000100: 70a6 a73c 9041 003e e1c7 d6bd ce27 243d
00000110: 36df bbbc de40 623c a3f9 c93d d6b0 0b3d
00000120: 6c8c 353d 7474 15be 7168 18be 6531 503a
00000130: ad5d 943d 71d4 f4bd e13c 403c 7646 563d
00000140: 9109 01bd 72a9 bebd 6065 00be ec21 5bbd
00000150: 62da a03d 89cf 083d 7bbf e1bc 8116 543d
00000160: 98d9 de3b 7738 6fbd 9351 093e 1c49 293d
00000170: d22e 52bd 70dc 02bd 9b57 333a f810 a2bd
00000180: ea45 0f3e 35c9 bc3d 8ffa 773c ed5e 7d3d
00000190: 7b3b 2bbe 7dbd 31be be5e be3c 42bf 37be
000001a0: d12c 643d bb3c 27be 1908 0f3e aea3 73bd
000001b0: b5b8 d8bd bf7e d13c b9a3 c13b 8617 ebbd
000001c0: 8f53 ffbd abc4 bf3d 9e3e 293e db42 cc3c
000001d0: dfff b4bd 3a19 653d 1d57 1ebe 73df e43c
000001e0: 11f2 143c 924d 16be 664e c1ba f2d8 d3bd
000001f0: b647 9bbd 1ae9 ab3d 43ef 1d3c cad3 f93d
00000200: d0e4 5bbd 13a2 e6bc 515e 573d f003 87bd
00000210: 63a8 de3d b070 2c3e ab14 c23d 5374 1cbd
00000220: c0d1 27be bead 1c3e ca94 31be 3236 86bd
00000230: 775f 24be bbdb 41bd a178 323d 4519 0b3e
00000240: e92a 17be ee7b 01be 3009 ddbd 08f0 8f3c
00000250: 7694 05be a688 d33d da55 3ebd 1963 02be
00000260: b3e9 d3bc 190e 2abc d988 b53d 83ef 0bbd
00000270: b8e6 a93c 3eb7 9d3c 0c08 a0bd 40df 49bb
00000280: 5854 d23c 33f0 1e3c a628 dabc a6cb 09be
00000290: 5638 7e3c df46 da3d 7cad efbd 4f7e 853c
000002a0: 09fc 113e db5a c1bc bbe1 b1bd dae8 963d
000002b0: 9812 c23d cd0b b6bd 6415 163e 2952 20be
000002c0: 3eb0 44bd aa99 83bc d31d 09be 548b 3dbc
000002d0: 865c a43c 7c98 213d 4a2f 21be 9633 773c
000002e0: fbcb 6cbd 6f3c d33d 801b 813d eba9 32bc
000002f0: 8e3e be3c 3154 343e 1c84 9ebc 212b a1bd
00000300: 2200 533c cad7 e53d 87df 7b3b 02f5 303e
00000310: dea1 c6bc 230f 903d 9abd 403d 42dc 1c3e
00000320: 0965 53bd 0fc2 fdbc 5b0f 803b 2952 cfbd
00000330: f4ad be3d a406 083e 037f fc3d b88a 8bbd
00000340: dc7c 0d3e abe8 ad3d 9ba1 9f3d c67a e23d
00000350: 7b95 a33d fa11 c5bd b8df 66bc 98fa 8dbd
00000360: ae78 133e 2bdc 73bd e6b7 d4bd de84 7b3d
00000370: 4b2a 4a3d 82f4 02be 73e7 3d3d 7c28 1a3e
00000380: b019 9c3d f5fa d83c eae0 18be 8601 e23d
00000390: ad49 a73d 6dc4 e0bd 8174 0fbd 4180 fa3c
000003a0: d36a 06be ec90 d63d d7db 61bd a321 4fbc
000003b0: 3d21 f33d 604b a13c cae5 173e 8d73 ecbd
000003c0: 15f9 ccbd ae9a 123e 95e5 1cbe f0f7 c53d
000003d0: ad3e 02bd d0fe 9f3a 6b36 533d 60c2 a2bd
000003e0: 8ff2 853d 06fa 02be 66fd 863d 4a55 14be
000003f0: e11a f3ba c987 1dbe ff1d 233e eef5 26be
-0.10889405 0.10025478 0.14263667 -0.08469495 -0.0045463336 0.15632881 0.12046028 -0.0031379852
0.12286459 0.15273921 -0.15144065 -0.0707861 -0.019823834 -0.097902104 -0.01934258 0.11528037
0.0029770227 0.089032225 0.119489186 0.022195378 0.09518901 -0.14263803 0.114531785 -0.08608106
0.02762243 -0.07012198 -0.01726439 -0.12885976 -0.11946332 0.020893257 -0.08280531 -0.020538073
-0.07721109 0.01056558 -0.018665627 -0.051784873 -0.11735207 0.033932943 -0.0080244355 0.12422088
-0.1342699 -0.045047916 -0.113159366 -0.0946794 -0.1175037 -0.01215208 0.073581874 -0.12223165
-0.08507186 -0.09367555 -0.03891956 0.063968986 0.0893175 0.13990833 -0.13895349 -0.10395278
0.0070013213 0.16331297 0.07993137 -0.020931287 0.065104455 -0.043164004 0.15177102 -0.0011113269
0.020465106 0.1252501 -0.104873426 0.040077023 -0.022933584 0.013809411 0.098620676 0.03410419
0.04432337 -0.14595205 -0.14883591 0.00079419307 0.0724443 -0.119545825 0.011733265 0.05231329
-0.031503264 -0.09309663 -0.12538671 -0.053499147 0.07854153 0.033401046 -0.027557125 0.051779274
0.0068008415 -0.05840346 0.13410024 0.04132949 -0.051314183 -0.031948507 0.00068413623 -0.07913393
0.13991514 0.09218065 0.015135421 0.061858106 -0.16721909 -0.1735744 0.023238536 -0.17944053
0.055706803 -0.1633176 0.13967933 -0.05948227 -0.10582105 0.025573133 0.00590941 -0.11479096
-0.124671094 0.09363683 0.16527793 0.024934223 -0.08837866 0.05593226 -0.15462919 0.02793858
0.009090916 -0.14678028 -0.0014748096 -0.103441134 -0.07582037 0.0839407 0.009639564 0.12198599
-0.05368501 -0.028153455 0.05258018 -0.06592548 0.10871961 0.16839862 0.09476598 -0.038196873
-0.16388607 0.15300652 -0.17341915 -0.06553306 -0.16052042 -0.047328692 0.043572072 0.13583858
-0.14762463 -0.12644932 -0.10792768 0.01757051 -0.13044915 0.10328798 -0.046468593 -0.12733115
-0.025868272 -0.010379338 0.08863992 -0.034163963 0.020739898 0.019252416 -0.07814035 -0.0030803233
0.025674984 0.009700823 -0.02663071 -0.13456592 0.015516361 0.10658049 -0.117030114 0.01629558
0.142563 -0.023602894 -0.08685633 0.07368632 0.09476203 -0.088889696 0.14656597 -0.15656342
-0.04801964 -0.016064484 -0.13390283 -0.011568863 0.02006365 0.03945206 -0.15740696 0.015087983
-0.05781172 0.10314261 0.06304073 -0.010904769 0.023223188 0.17610241 -0.019350104 -0.07869554
0.01287845 0.11222799 0.0038432793 0.17280963 -0.024247106 0.07034137 0.04705582 0.15318397
-0.051610027 -0.030976323 0.0039080805 -0.10123093 0.09310523 0.13283783 0.12328913 -0.06813568
0.13817161 0.084916435 0.07794496 0.110585734 0.079874955 -0.096225694 -0.014091425 -0.069325626
0.14401504 -0.05953614 -0.10386638 0.06140601 0.04935674 -0.12788585 0.046363305 0.15054506
0.07622087 0.026486853 -0.14929548 0.11035447 0.081683494 -0.10974965 -0.035023216 0.030578734
-0.13126688 0.104768604 -0.055141296 -0.012642297 0.11871574 0.019689262 0.14833751 -0.11545477
-0.10008446 0.14316818 -0.15321954 0.09666431 -0.031798054 0.0012206677 0.05156557 -0.0794723
0.06540405 -0.12790689 0.06591301 -0.1448566 -0.0018547439 -0.15383829 0.15929411 -0.16304752

layer2.0.bias f4 [8]
00000000: f4ad cdbd edf6 183d 6971 633d 8516 e33c
00000010: 7190 b03d fd03 2abe 6c68 b73d f1f2 b5bd
-0.100429446 0.03734486 0.05552808 0.0277207 0.086213 -0.16603084 0.08955464 -0.08884228

layer2.1.weight f4 [8]
00000000: 908d 803f 59c8 7f3f ed2e 813f 6525 7f3f
00000010: 06be 813f 8b37 7e3f 0622 7e3f 09f5 7f3f
1.0043201 0.9991508 1.0092446 0.99666435 1.0136116 0.993035 0.99270666 0.9998327

layer2.1.bias f4 [8]
00000000: 241a eb3b ff5e bb3b 735f 7b3c c85a d33b
00000010: 3d08 073d c23d 0b3b 3431 95bb 3b21 a3bb
0.007174747 0.0057181115 0.015342581 0.006450031 0.03296684 0.0021246527 -0.0045529846 -0.0049783266

layer2.1.running_mean f4 [8]
00000000: 4e6a b9bd 9355 a33a 4daf 42be 5d7b d6bd
00000010: 766a 5abe 7910 703e f723 dc3d 2929 dabe
-0.09053479 0.0012461416 -0.19012184 -0.104727484 -0.21329674 0.23443784 0.10749047 -0.42609528

layer2.1.running_var f4 [8]
00000000: f1cc 8c3e b11c 003e 65d7 bb3d 21ed 463e
00000010: 6c78 893e 36a4 b43d 0fae cd3d cba2 0e3e
0.27500108 0.12510945 0.091719426 0.19426395 0.26849687 0.08820383 0.10042965 0.13929288

layer3.0.weight f4 [16, 8, 3, 3]
00000000: e229 95bc 9e07 b23d 4d4f c03d a877 6c3d
00000010: 0c2a 85bd 6129 903b 3692 4fbc 1119 e3bc
00000020: 7db7 59bd 5c63 b73d 91b9 cc3d 0c26 bb3b
00000030: c03c e5bd a0ec 9cbd e866 80bc 1299 c2bc
00000040: 0aca fcbc df38 80bd 6f18 bf3d 5665 e5bd
00000050: cb34 b6bd d0a1 c9bc 32bb 30bd bab5 02bc
00000060: 8911 a0bc 6f6c 3b3d c763 aabd 48af dcbd
00000070: 37e7 bf3d b1c7 07bd a294 d73d 4794 95bd
00000080: 99de 8cbd e97d 683d b710 a83d 2d5c 89bc
00000090: e218 ba3c 6b4d a73d 136b bebc 4866 df3c
000000a0: ddc5 8fbd 245f 803d d2fa f83d e0e0 d13d
000000b0: 5453 c93c 485b dabc dd34 cebd e722 943c
000000c0: 5a5f 073d 7779 a4bd 8131 213d 6b7c d4bd
000000d0: 91c1 88bd 51b1 823d bb6d 1bbd 7030 793c
000000e0: 10d9 65bd f515 b53d f89b b1bd 9561 eebc
000000f0: b328 bfbd dee7 f4bd 08e6 d7bd 9e5d 803d
00000100: 176c 8fbd 2b7e 5bbc bc9d 033c a208 e0bd
00000110: 1424 bcbc 9c93 e4bd 1253 7d3d c284 073d
00000120: 4a79 f0bc 11ab d53d c42f b2bd 4b9c 57bc
00000130: b2f9 72bd fe38 d3bd 58c1 e0bb 5824 d1bc
00000140: f58d b43d fcc1 34bb 8eb2 a6bd f9e1 2dbd
00000150: f4da 55bd eca3 703d f08a a73d d67c a739
00000160: 127f 373d a72f 013e 7694 993c adea 8a3c
00000170: 742e 88bc 6344 d93d c1f9 833d ddbc ebbd
00000180: f5dd bcbd d7b1 0f3c d7f1 80bd 7073 9dbd
00000190: 260a cf3c d941 0a3d 6ebe f2bd 27d5 1c3c
000001a0: 4684 b1bd 99f9 eebc e5e0 993d 490a 82bd
000001b0: 4216 a83d 828b cf3c 168d cd3d fbdd d8bd
000001c0: aa43 563d 51b5 123d a0ea 25bd 8879 76bc
000001d0: 53be 1e3d 54bb 893d b2a5 4bbd 128f 003d
000001e0: 0bff 1bbd f470 d43d 8e23 b43d c6d7 8bbb
000001f0: 5ef2 0fbc 0c71 8cbb 2b22 283d 6e4f 683d
00000200: f745 e33a f659 b0bc c95a 0abd 5056 7dbd
00000210: 512b bb3d e776 8c3d 48ac edbd e4e7 d2bd
00000220: a089 72bd ea9c 8fbd 09a1 b7bd 54b3 2c3c
00000230: c4d7 963d 5ef9 a93d 9ba4 a23d e252 ffbd
00000240: 3734 87bd 7a55 53bd 76ee 703d 15c9 acbd
00000250: fe58 b6bd 6d6e 8ebd a23e 9e3d ae62 99bc
00000260: 446f c2bd 66eb 923d 6547 2c3d ae33 933d
00000270: 9288 f73d 3085 9c3d b60b c83d d81b 9dbd
00000280: b0b5 013d db4c 283d 296b 0e3d 0890 763d
00000290: 1754 163c 4328 c6bd 087a 83bd 3e51 4f3d
000002a0: 1bc9 e33c ca66 843d 90a8 d9bc 4fc2 ce3c
000002b0: b307 3abd ba26 b53d f1a7 a5bc b461 b1bd
000002c0: 09fb 48bd 08c1 283d bac2 f3bc 02bd 64bd
000002d0: 75e3 57bd a2b4 8e3d 3c2e 42bd eeeb 56bd
000002e0: e5db c23d ebed e5bd e973 7d3d 6c8c a53d
000002f0: 68c2 353d c6ff ef3d 51ac 34bd 451a cfbc
00000300: 71bb 8c3d 0f50 cdbd b044 e7ba bcbe 73bd
00000310: 4523 983d 9e61 51bd ae76 693c f6ea 1f3d
00000320: 2033 773d 8110 f1bc 5b20 07bd c802 343d
00000330: 88ec c93d 2a29 e8bc e278 a33c b9f9 d1bd
00000340: 044e cb3c 34b1 18bd 7036 abbd 9ff0 d4bc
00000350: 8134 583d 79a1 bb3d 1c66 e6bd 1769 5a3c
00000360: 3dfc 3cbd 7307 443d be56 ad3d c55d 4fbd
00000370: da93 743d b869 9f3d 901d 36bc 5742 333c
00000380: f964 be3d 346c 0d3d ac5d aa3d 677e ccbd
00000390: a1c5 1a3d 94b6 293d f85a a5bd d8ff a13c
000003a0: 1723 4a3d 6ffb 6c3d 5448 a3bd e946 813d
000003b0: 0a32 583d 44ba f63d d660 7e3d a904 a0bb
000003c0: ec25 8f3d 2f25 6cbd 94a8 83bd bf46 87bc
000003d0: b2f3 d73c 9ef7 303d 5415 59bd acc0 813d
000003e0: 200d 96bd 5477 8a3d a987 de3d c225 d03d
000003f0: e59e 863c efbe 1a3d e209 ccbd 8b62 9f3d
-0.018208448 0.08692859 0.093901254 0.0577313 -0.065021604 0.004399464 -0.012669137 -0.027721914
-0.053153504 0.08954498 0.099963315 0.0057113227 -0.11193228 -0.0766232 -0.01567407 -0.02375463
-0.030858058 -0.06260847 0.09330832 -0.11200969 -0.08896788 -0.024613291 -0.043147273 -0.007977897
-0.019539611 0.045757707 -0.08319812 -0.1077562 0.093702726 -0.033149425 0.10526396 -0.07303672
-0.06878395 0.056760702 0.08206313 -0.016767586 0.022716943 0.08169063 -0.023244416 0.027270451
-0.07020161 0.06268147 0.12157215 0.102479696 0.024575867 -0.026654854 -0.100686766 0.018083049
0.03304992 -0.0803098 0.03935385 -0.10375293 -0.06677545 0.06381477 -0.037946444 0.015209302
-0.05611521 0.088420786 -0.08672327 -0.029099265 -0.09333935 -0.11958288 -0.10541922 0.06267856
-0.070030384 -0.01339678 0.008033212 -0.109391466 -0.022966422 -0.11160967 0.0618468 0.033085592
-0.02935471 0.10433019 -0.08700517 -0.013159822 -0.05932016 -0.10313605 -0.006858986 -0.025530025
0.08816139 -0.0027581444 -0.08139525 -0.042451832 -0.052210763 0.058750078 0.08180797 0.00031945732
0.044798918 0.12615834 0.01874755 0.016957605 -0.016623713 0.10608747 0.06444121 -0.11510632
-0.092220224 0.008770428 -0.06296127 -0.076880336 0.025273394 0.033754203 -0.11852728 0.009572304
-0.08667807 -0.029171752 0.07513598 -0.06349618 0.0820737 0.025335077 0.10036676 -0.105892144
0.052310623 0.035817448 -0.04050696 -0.015043624 0.038755726 0.06725183 -0.049718566 0.031386442
-0.038085025 0.103731066 0.08795844 -0.0042676656 -0.008785812 -0.004285937 0.04104821 0.056716375
0.0017339577 -0.021527272 -0.033777986 -0.061849892 0.09139121 0.06858616 -0.11605126 -0.10298136
-0.05921328 -0.07012351 -0.08966262 0.010540802 0.07365373 0.08299516 0.07941552 -0.124669805
-0.06601756 -0.05159519 0.058821164 -0.08436791 -0.08903693 -0.06954656 0.0772679 -0.018723812
-0.094938785 0.07173805 0.042060275 0.071875915 0.120865956 0.07642591 0.09767859 -0.076713264
0.03166741 0.04108892 0.034770165 0.060195953 0.009175322 -0.09675648 -0.0641976 0.050614588
0.027805855 0.06464918 -0.026569635 0.025239138 -0.0454175 0.08845277 -0.020221682 -0.086612135
-0.04906753 0.041199714 -0.029755939 -0.055844314 -0.052707154 0.06968047 -0.047407374 -0.052471094
0.09514598 -0.1122702 0.06187812 0.08083424 0.044374853 0.11718707 -0.044109646 -0.025281081
0.06871689 -0.100250356 -0.0017644372 -0.05950807 0.07428602 -0.051118486 0.014249487 0.039042436
0.06035149 -0.029426815 -0.03298984 0.043947965 0.09859568 -0.028339941 0.019955102 -0.10252709
0.024817474 -0.03727837 -0.083599925 -0.025993643 0.052784447 0.09161658 -0.112499446 0.013330719
-0.04613899 0.047858667 0.084638104 -0.050626535 0.059711315 0.07783836 -0.011115447 0.01094111
0.09296603 0.03452702 0.08318648 -0.09985047 0.03778613 0.041433886 -0.080739915 0.019775316
0.04934987 0.057856973 -0.0797278 0.06312353 0.052782096 0.12047246 0.06210407 -0.004883368
0.06989655 -0.05765265 -0.06428638 -0.016513227 0.02636132 0.043204896 -0.052998856 0.06335577
-0.07326722 0.06761041 0.10865719 0.10163452 0.016433189 0.037779745 -0.099628225 0.077824675

layer3.0.bias f4 [16]
00000000: 7e05 9e3c 6b33 a83d 06c0 a03d 93c4 6cbc
00000010: d495 2f3d e3f9 973c 5d92 e9bd f898 423d
00000020: 4c66 903d e45d e03d 6911 9d3d 3c72 a1bd
00000030: 1c5b a1bc c423 80bd 411d ce3d f4a5 e8bd
0.019289728 0.08212932 0.078491256 -0.014451164 0.042867497 0.018551772 -0.1140487 0.047509164
0.070507616 0.10955408 0.07669336 -0.078831166 -0.019696765 -0.06256822 0.100641735 -0.11359778

layer3.1.weight f4 [16]
00000000: 6966 7e3f 963d 7e3f 14ce 803f 653e 7f3f
00000010: 8e37 833f 4ef1 7d3f 3680 803f 4474 7f3f
00000020: 99b6 803f 97b3 7e3f 156f 803f 528e 803f
00000030: aba3 7e3f 8183 7f3f 84ac 803f f1dd 7f3f
0.99375015 0.9931272 1.006289 0.9970458 1.0251329 0.99196327 1.0039127 0.9978678
1.0055724 0.9949278 1.00339 1.0043433 0.9946849 0.99810034 1.0052648 0.9994803

layer3.1.bias f4 [16]
00000000: 0495 bfbb 312f 89bc b06f 25bb ab49 a63b
00000010: 9318 533c 7b0d 223c 1a9d 25bc 336e e5bb
00000020: 8299 193a 31d6 1abb 8087 0fbc ec3e cf3b
00000030: 44ab dbba ba3c 0bbc 3f60 af3b f1dc 91bc
-0.0058466215 -0.016746135 -0.0025243573 0.0050747 0.012884277 0.009890909 -0.010108257 -0.007001662
0.0005859361 -0.0023626203 -0.008760333 0.0063246395 -0.0016759415 -0.008498365 0.0053520496 -0.017805548

layer3.1.running_mean f4 [16]
00000000: c3d4 67be d9c5 073d c56e d93d cf46 223e
00000010: d9f2 4c3d 3ae8 8c3e f386 69bd 9e20 7bbd
00000020: 3a75 283e f3cb 8c3e 9794 e53c ccfd d8be
00000030: 98f9 7abe 2684 383c 1823 0b3e 2fa7 323e
-0.22639756 0.033147667 0.10616831 0.15847324 0.050036285 0.27520925 -0.057013463 -0.061310403
0.16450968 0.2749935 0.028024955 -0.42381132 -0.24509275 0.011261975 0.13587606 0.17446588

layer3.1.running_var f4 [16]
00000000: 24b8 903e b3d5 0c3e 1c85 483e e991 3e3e
00000010: fe84 db3d 7844 e33e 6f6f 033e 1f41 003e
00000020: fa53 c23d 0a8b ce3d 9fae 033e 40b7 ca3d
00000030: 7c18 d83d ba3f b43d a5d7 1a3e 9d63 d63d
0.28265488 0.13753395 0.19582027 0.18610348 0.107187256 0.44388175 0.12835477 0.12524842
0.094886735 0.10085113 0.12859581 0.098982334 0.10551545 0.088012174 0.15121324 0.104682185

layer4.0.weight f4 [64, 16, 3, 3]
00000000: 48ea df3b cf3c a6bc 2139 a3bd be9e 683d
00000010: b842 83bd 2346 923c e6e5 913d 40f1 94bd
00000020: 3ccc 27b7 d4b7 9c3c 1787 3cbd a501 9ebd
00000030: 07a0 4abd 0aad 513d 6685 26bc db26 41bd
00000040: e9d7 e2bc a08d 6bbd c037 8b3d 1c30 8b3d
00000050: 07c8 d03c 4d95 fc3c caf7 b9bd 6b96 0a3d
00000060: 709b 84bd 49d8 a7bd e77d 023d 519f 7d3d
00000070: a952 673c bde4 5d3c f090 1cbd 8ed4 a53c
00000080: 08d5 81bd 6e7f 7bbd 0917 133c 02a0 c1bc
00000090: 3aac 7cbd 89ba 793c c3a6 72bd bb6a 203c
000000a0: 9288 a5bd 66ba c93c 15a9 3abd b275 89bd
000000b0: bfe1 b3bd 2d95 603d bd09 8abd 5178 cc3c
000000c0: 56ff a33c c07a 85bd a632 9dbc 7d22 b33d
000000d0: 29eb 68bc 7450 a13d ed21 903d a7a8 323d
000000e0: 1555 f3bc d261 8cbd 3a1c 2a3d 4009 acbd
000000f0: 47b1 863d 4168 cbbb a4cb 5bbd bbde 763d
00000100: d0b1 7fbc bf4d 73bc 98a8 fcbc abff a43b
00000110: fa5f ec3c 445e 78bd 8a79 2abd 1c3d a53d
00000120: 1a98 9b3c 3cfd e9bb 1e0c a43b 6b9f 4a3d
00000130: 616f 8e3d 56ca 48bd d31c a4bc b631 473c
00000140: 3d40 3abd f158 4d3d 1dfe 31bd 51c6 263d
00000150: 0161 55bd 4e1d 89bc f284 363c 50e3 8a3d
00000160: 980e a83c 9c66 d5bc 5233 97bd 3017 43bd
00000170: 17fd 28bc 5375 9a3d 51dd 2ebd c477 a33d
00000180: 7274 813d f802 633d 48eb 0d3d b69c 273d
00000190: 09da 2bbd e70b 59bc 1b0a dc3c 91f3 25bd
000001a0: 7ee1 c7bc ee6d 8c3d 8a73 ae3d fe80 a63d
000001b0: cccc 893c d5e7 093d 78cc f73c 342b 5a3d
000001c0: 1965 9dbb f805 973d d24b 2e3d c417 48bd
000001d0: 518e 4e3c bf69 ce3c cff9 81bd 352f 9e3c
000001e0: 015a 52bc 32d0 f2bb 44e6 73bc 0b2e c43c
000001f0: 997c 2b3d fad4 9dbd 1cb4 f1bc dc43 9dbc
00000200: 37b1 94bc 80da 0d3d bb45 093d 903c 943d
00000210: 55f5 83bd 9bf1 de3c d92a 333c 6b5c 173d
00000220: 09ea 9ebd f671 05bd 69b8 37bc 888c 103d
00000230: 2da9 dcbc 196e 9b3d d6eb 64bd 30db 9a3c
00000240: e4aa 87bd 12cc 8cbd ee67 0dbd 5c26 4cbd
00000250: 66bd 813d a1b1 2bba d388 293d 3258 fbbc
00000260: e369 20bd 9bb0 1c3b 6289 1d3d dec2 c93c
00000270: 7a1e aa3d 22ee 80bd 44da 72bc 498c 743c
00000280: 77ab 073d 43bf 1abd c86d c63c a192 1cbd
00000290: a15c acbc a387 de3c ec9c 1dbd 5d2f 80bc
000002a0: 5a08 6e3d e4a0 e4bc 5696 94bd 0bf5 97bd
000002b0: f803 42bd 70ff 503d 63bf ab3b 12f8 9c3d
000002c0: fd2e e0bc 64f2 393d 714e 06bd a5a1 843c
000002d0: 3929 adbd ba04 653b 0798 a13c 0030 5dbc
000002e0: 3886 883c 7364 86bd bd3c 8cbd 1f68 ddbc
000002f0: afe0 81bd 0628 a3bd 1cec da3b 99e3 3e3d
00000300: 38d0 513d d46d 7f3d 7778 78bd ee69 f03a
00000310: 9e28 4abc 850d a33c 4329 683d b202 9c3c
00000320: f67e 213d 64d4 233d 7422 4abd 5968 c43c
00000330: 54bb 3abd f681 1dbd f2fb 66bd 0885 17bc
00000340: 7ad2 933d 9715 dd3b db00 233d 973c 533d
00000350: 2e4a c43c c49d 1abd f2f0 153d f765 06bd
00000360: 6e08 363d 11ce 4e3d be22 623c e0af 8b3d
00000370: 0c0b 803d aae3 a5bb f351 54bc 8cf9 723d
00000380: 0e2e a13d 9a36 66bc cdae 1d3d d761 20bd
00000390: 9b1d 60bd b30c 75bd 7b56 87bd e899 133d
000003a0: 7e98 823d e95d 70bc 4b36 883d 7c26 73bc
000003b0: e89d 92bd a8f7 32bd e52c 7e3d d5de ea3c
000003c0: ed58 9abd a9b0 0cbd 972a 773d d677 76bc
000003d0: 99c5 bc3c 9430 5c3d 6466 973d c0e1 af3c
000003e0: ef4a 7e3d 2d3c 0ebd 7504 1f3d 6e3e 61bd
000003f0: 4c60 89bd ed9e ad3c 9ebf f6bc d242 b93c
0.0068333484 -0.020292668 -0.07969881 0.056792013 -0.0640921 0.01785571 0.07123928 -0.07272577
-1.0001528e-05 0.019130625 -0.04602727 -0.077151574 -0.04946902 0.051190414 -0.010163641 -0.047156196
-0.027690845 -0.05750811 0.06797743 0.067962855 0.025486005 0.03083291 -0.09080465 0.033834856
-0.0647496 -0.0819555 0.03185835 0.061919514 0.014118829 0.013543305 -0.03822416 0.020242956
-0.063394606 -0.061400823 0.00897766 -0.023635868 -0.061687686 0.015242227 -0.059241068 0.0097910715
-0.08082689 0.024625015 -0.045571405 -0.06711902 -0.08783292 0.054829765 -0.06740139 0.024959715
0.020019215 -0.06517553 -0.01918919 0.087468125 -0.014216223 0.07876673 0.07037721 0.04361787
-0.029703656 -0.06854595 0.041530825 -0.08400202 0.06576782 -0.0062074964 -0.053661004 0.060271006
-0.015606359 -0.014850079 -0.03084211 0.005035361 0.028854359 -0.060636774 -0.041619815 0.08068296
0.018993426 -0.0071407836 0.0050063273 0.04946844 0.069548376 -0.049021088 -0.020033276 0.012157848
-0.04547142 0.05013365 -0.043455232 0.040716473 -0.052094463 -0.016737606 0.011140095 0.06781638
0.020514771 -0.026049905 -0.073828354 -0.047629535 -0.010314248 0.07541909 -0.042691533 0.07981828
0.06321038 0.055422753 0.03464821 0.040920936 -0.04195598 -0.013247467 0.026860287 -0.040515486
-0.024399515 0.06856905 0.08518131 0.08130072 0.016821288 0.033668358 0.030248865 0.053263858
-0.0048033115 0.07374185 0.042552777 -0.04885079 0.012607173 0.025196908 -0.06346475 0.01930962
-0.012838841 -0.0074100727 -0.014886443 0.023947736 0.041866872 -0.07706638 -0.029504828 -0.019197397
-0.018150909 0.034632206 0.033513766 0.07238114 -0.06443278 0.027214816 0.010935509 0.03695337
-0.077594824 -0.032579385 -0.0112134 0.03529027 -0.026936138 0.07589359 -0.055888973 0.018903345
-0.06624392 -0.06874861 -0.034522943 -0.04984127 0.06334953 -0.0006549601 0.04139025 -0.030681703
-0.03916348 0.0023908976 0.038461097 0.024629053 0.08306594 -0.0629542 -0.014822546 0.014926025
0.033122506 -0.037780058 0.02422227 -0.038225774 -0.021040263 0.027164286 -0.03847973 -0.015647585
0.058113433 -0.02790875 -0.07255237 -0.07419785 -0.047367066 0.051024854 0.005241321 0.07664503
-0.027366156 0.045397177 -0.03278965 0.01619036 -0.08455128 0.0034945444 0.019725813 -0.013500214
0.016665563 -0.06562128 -0.068475224 -0.027027188 -0.06341683 -0.07966618 0.0066809785 0.046603773
0.051223963 0.0623606 -0.06066176 0.0018342116 -0.012338785 0.019903908 0.056679975 0.019044254
0.03942772 0.039997473 -0.049349263 0.023975538 -0.045588806 -0.03845402 -0.056392618 -0.009248026
0.072178796 0.0067469585 0.039795738 0.051571455 0.023961153 -0.037748113 0.036606736 -0.032812085
0.044441633 0.05048949 0.0138022285 0.06820655 0.06252107 -0.00506254 -0.012958991 0.059320018
0.07870112 -0.014051104 0.03849678 -0.039155807 -0.054715734 -0.059826564 -0.06608292 0.03603545
0.06376742 -0.014670827 0.066509806 -0.014840718 -0.071590245 -0.043693215 0.062054534 0.028670708
-0.075364925 -0.034348164 0.06034335 -0.01504322 0.02304344 0.053757265 0.07392576 0.02146995
0.06208318 -0.034725357 0.03882261 -0.05499118 -0.0670782 0.021193946 -0.030120667 0.02261487

layer4.0.bias f4 [64]
00000000: dffc 7cbd dc9f 19bd 58ab a6bd 3f4a 69bd
00000010: bbc2 4c3b 1427 53bd 3d57 713d 4163 763d
00000020: 9c3c 933d 1d17 91bd 9f0a 2abc 0550 95bd
00000030: 0598 6b3c 74d6 a73d b4a1 643d 2e4f a63b
00000040: 956a ad3c 960b 523a acf5 383d 7d0a 69bd
00000050: 8bb6 19bd 4aab d33c c68e 273d 4094 8fbd
00000060: 0f79 97bc a322 1bbd 10f7 83bb fd4f a43d
00000070: 1199 abbc 4d4d 38bc 532f 283d c950 adbc
00000080: 0cc6 623b 6bfa 843a b94b 8abc 465c 19bd
00000090: 73c2 cf3c 0d84 99bd 66c0 343d 2fb3 8f3d
000000a0: 851e 8ebd 6374 83bd e340 16bb dd42 9e3d
000000b0: 18d3 653d 2ca4 b23c db4b 0ebd 15e4 3b3c
000000c0: 5aa2 01bd e0ae 80bd edf5 66bc 7581 4fbd
000000d0: 1ed9 93bd 642a 7f3d a060 22bd b325 813d
000000e0: 6ea2 eebb 9e42 8abd c4c8 abbb d1df 943d
000000f0: 8a10 8d3d 544a f83c 008b a6bd 2304 483d
-0.061764594 -0.03750597 -0.0813815 -0.056955572 0.0031243998 -0.05155094 0.058921088 0.06015325
0.07189295 -0.07084487 -0.010378509 -0.07290653 0.014379506 0.081952006 0.055818275 0.005075357
0.021168986 0.00080125907 0.045156166 -0.056894768 -0.037527602 0.025838513 0.040907644 -0.07010698
-0.018490342 -0.03787483 -0.004027255 0.08023069 -0.020947011 -0.011248899 0.041060757 -0.021156685
0.0034602908 0.0010145431 -0.01688181 -0.037441514 0.025361275 -0.0749589 0.044128798 0.070165984
-0.06939415 -0.064186834 -0.002292686 0.07727597 0.056109518 0.021806799 -0.03474031 0.011467953
-0.03164897 -0.06283355 -0.014096719 -0.05066057 -0.07219146 0.062296286 -0.03964293 0.06306019
-0.0072825467 -0.067509875 -0.005242439 0.07269252 0.0688792 0.03030888 -0.08131981 0.04883207

layer4.1.weight f4 [64]
00000000: 54e7 7d3f 5303 813f 0193 803f eb0b 803f
00000010: 88b4 803f e56e 813f 84f2 7f3f 32a2 7e3f
00000020: b11f 7f3f 8cff 7e3f 5d69 7e3f e014 7f3f
00000030: c5e9 803f 9355 7f3f 966f 7c3f dec3 813f
00000040: 8d64 7e3f 7c0f 7f3f e861 7f3f b7e0 7f3f
00000050: 97c7 7d3f 40af 7e3f 6d30 7e3f 1c56 7f3f
00000060: ea79 803f 2a4c 823f 2201 803f c679 7d3f
00000070: 58c5 7e3f b1a3 803f 30d2 7f3f 8116 803f
00000080: 008c 7c3f 112d 7f3f 8f04 7e3f e1cf 7e3f
00000090: 0d6a 803f 10cb 7d3f 4cc4 803f bf93 803f
000000a0: 0827 7f3f 5caf 7e3f 4e14 7e3f 018b 7d3f
000000b0: 6d1f 7f3f 8363 7f3f 63c8 7d3f 0a5c 7f3f
000000c0: 30ad 813f 5c66 803f 1e4a 803f 91a6 803f
000000d0: a54e 7e3f e697 7f3f 5fb8 803f 1d59 813f
000000e0: 4385 7f3f c022 823f f3a0 803f a7df 7f3f
000000f0: 6fad 7f3f 08e1 803f e738 803f 5b89 833f
0.99181104 1.007914 1.0044862 1.0003637 1.0055094 1.0111967 0.99979424 0.9946624
0.9965773 0.99608684 0.9937952 0.9964123 1.0071341 0.9973995 0.98607767 1.0137899
0.9937218 0.99633 0.9975877 0.9995226 0.99132675 0.9948616 0.9929264 0.9974077
1.0037205 1.0179493 1.0000346 0.99013937 0.9951987 1.0049955 0.99930096 1.0006868
0.98651123 0.9967814 0.99225706 0.9953595 1.0032364 0.99137974 1.0059905 1.0045089
0.9966893 0.9948633 0.9924973 0.9904023 0.99657327 0.9976122 0.9913389 0.99749815
1.0130978 1.0031238 1.0022619 1.0050832 0.9933875 0.99841154 1.0056266 1.010532
0.99812716 1.0166855 1.0049118 0.9995064 0.99874014 1.0068674 1.0017365 1.0276293

layer4.1.bias f4 [64]
00000000: 3bb8 10bc 128b a53b ed9e b63b 2426 fe3b
00000010: f168 503b afca 193b 7f14 d33a 2239 fbbb
00000020: 5bcb 483b ae05 b8bb b81e 83bc 17fa 5ebb
00000030: 5265 0f3b cb6c 35bb 7cca ebbb 36a2 483c
00000040: de62 b7bb 9c45 2b3b 04e2 bbbb e13c 14bb
00000050: da04 33bc 24f6 dfbb af41 67ba da31 86bb
00000060: 31d2 b4ba 2a71 1aba 837f 36bc d00b 30bc
00000070: 3b29 a0bb 9e53 b23b 6074 4bbb 1b24 89ba
00000080: ba7f 2bbc f37f 0fbc 9690 48bc c6cc bdbb
00000090: 50e0 b9bb c92d 6bbc 0a56 64bc 9401 5ebc
000000a0: 3353 c8bb e2e8 81bb 31e2 2ebc 1c7d 1dbc
000000b0: f91b 39ba 9189 cd3b 89ea 18bc f4d6 08bc
000000c0: 64a6 0f3c 5629 5cbc 6040 fa3a e27e e4bb
000000d0: c63c 1c3a 9677 c3bb 92e8 88bb 9cb7 d73b
000000e0: 1210 bebb 65d5 973b de4c 183b 5360 b1ba
000000f0: ca67 2c3c 60b0 5a39 f4ca 64bb 0b46 e93a
-0.0088329865 0.005051979 0.0055731446 0.0077560116 0.0031800831 0.0023466756 0.0016104131 -0.007666723
0.0030638787 -0.0056159114 -0.016005859 -0.0034023577 0.002188046 -0.0027683254 -0.007195769 0.012245705
-0.0055965027 0.002613402 -0.0057337303 -0.0022619294 -0.01092645 -0.006834762 -0.00088217383 -0.0040952982
-0.0013795552 -0.00058914965 -0.0111388 -0.010745004 -0.0048877276 0.005442097 -0.0031044707 -0.0010463031
-0.010467464 -0.008758533 -0.012241503 -0.005792233 -0.005672492 -0.014354178 -0.013936529 -0.013550181
-0.0061134337 -0.0039645294 -0.010674045 -0.009612348 -0.0007061358 0.0062725027 -0.009333261 -0.00835203
0.008767698 -0.01343759 0.0019092672 -0.0069731334 0.00059599837 -0.0059651835 -0.004178115 0.0065831672
-0.0058002556 0.004633593 0.0023239176 -0.0013532735 0.010522792 0.00020855805 -0.0034911009 0.0017797364

layer4.1.running_mean f4 [64]
00000000: d185 a6bd a5af 98bc 501c 18bf 8011 19bf
00000010: 22aa 54bd 7baf dfbe 8c8a 25be 084d 4f3e
00000020: 9cbe d2bd d1ca 543f e799 f23d b7ff 8abb
00000030: 54f2 3cbf ac08 b9bd 589b c63e 66f3 8cbe
00000040: 8ce6 9bbe 62d3 153f 1649 0e3f f90c 9abf
00000050: f016 1bbf 6c5f cd3d babb 3d3e 38c4 86be
00000060: 92d6 05be fd6e 723e 84d6 da3d 68e9 c1be
00000070: fee0 953e cf3c 53bd a823 c5be 1dfb 9fbe
00000080: f06e 2fbf 5b47 b13d f92f dcbd 3d7b ca3c
00000090: 6a8d 15bf c2b5 1abe 6659 51be 1441 dbbd
000000a0: 8c0c a6be 7ebb 81bf c913 27bf 0b6d 823e
000000b0: c300 473e 3546 543c bfe0 08be ea26 a33e
000000c0: d96a 66be 9e74 043e 5661 1a3e c463 e0be
000000d0: f97e ab3e b617 8fbe a67c 0bbe 6cd3 a3be
000000e0: efee a1be 7e3d 5cbc ea62 853d 7186 81be
000000f0: f65d 883d 6f09 09bf cac8 afbe 6ea1 dd3e
-0.08130992 -0.018638441 -0.594182 -0.5979233 -0.051920064 -0.43688568 -0.16166133 0.20244229
-0.10290262 0.83121973 0.11845761 -0.0042419094 -0.73807263 -0.09034857 0.38790393 -0.27529448
-0.3044933 0.5852567 0.5558027 -1.2035209 -0.60581875 0.10027966 0.18528643 -0.26321578
-0.13070133 0.23675151 0.10685447 -0.37873387 0.29273218 -0.051571663 -0.38503766 -0.31246272
-0.6852865 0.08656188 -0.107513376 0.024716968 -0.58418906 -0.15108398 -0.20444259 -0.10705772
-0.32431448 -1.0135343 -0.65264565 0.25473818 0.19433884 0.012956192 -0.13366984 0.31865627
-0.22501697 0.12935111 0.15076193 -0.43826115 0.3349531 -0.27947778 -0.13621768 -0.3199724
-0.31627604 -0.013442395 0.06513007 -0.25297883 0.066585466 -0.5353002 -0.34332877 0.43287224

layer4.1.running_var f4 [64]
00000000: be08 c03e 31d6 863e 07ea be3e 78bc 963e
00000010: 474b a23e 8752 9b3e cce8 bd3e cc64 933e
00000020: 2066 af3e 9e4a c63e c392 953e cc0a 9b3e
00000030: ef18 813e abdf 623e 89a7 a33e 982e 103f
00000040: eb6a bf3e 262c c93e cd49 fa3e ccf2 7a3f
00000050: 6c55 8d3e e102 a13e e419 8e3e f24f 743e
00000060: 02f6 d53e a4a8 f13e 889c 983e 7ade a73e
00000070: aff4 003f 6ee7 b73e 7c08 7f3e a797 063f
00000080: da76 f03e 7b26 943e de43 493e c073 f93e
00000090: 230e 453f ed87 8e3e e010 833e 2f73 783e
000000a0: a2c6 af3e bade 493f f32d 8c3e 2be5 a33e
000000b0: 1d63 ff3e 28ad bf3e 6656 5b3e 1ab9 913e
000000c0: e47a a33e 879a 983e 9a2e 193f 8649 853e
000000d0: 8508 053f f78f 8a3e eea7 f83e eea0 073f
000000e0: c319 953e 3f56 cb3e 1d17 d33e 4120 ab3e
000000f0: 9bbc fa3e 789a 6d3e 9304 973e 64e4 ca3e
0.3750667 0.2633529 0.37287924 0.29440665 0.31698057 0.303364 0.37091672 0.2878784
0.34257603 0.38728803 0.29213533 0.30281675 0.25214335 0.22155635 0.31963757 0.56321096
0.3738626 0.39291495 0.4888443 0.9802673 0.27604234 0.3144751 0.27754128 0.23858622
0.41789252 0.47198975 0.29806924 0.32786924 0.5037336 0.35918754 0.2490558 0.52575153
0.46965677 0.28935608 0.19654796 0.48721123 0.76974696 0.27838078 0.25598812 0.24262689
0.34331232 0.7885548 0.27378806 0.3201078 0.49880305 0.37436795 0.21419677 0.28461534
0.31929696 0.29805395 0.59836733 0.26032656 0.51966125 0.2706296 0.4856562 0.52979934
0.29121217 0.39714238 0.41228572 0.33423045 0.4897202 0.23203456 0.29495677 0.39627373

layer5.0.weight f4 [64, 64, 3, 3]
00000000: 862d 5bbc 0a59 f3bc 7625 013d c760 99bc
00000010: f545 173d fe9f c4bc 92bd 42bc cb5b 133d
00000020: 1d31 f0bc c11a 473c f211 203c 078d 433c
00000030: 100e 2fbc 6cd0 6fbc 5997 333c 6a66 12bc
00000040: f904 063d 8b5b 053d 56b5 d33c 7a30 f4bc
00000050: 31df eabc 400d 1f3d 3e56 093d f3dc cb3b
00000060: 3f45 81bb a133 fc3c 6c9b ae3c f3da 953b
00000070: 258b a9bc 845d c43c e09f 1f3d 68b0 1f3d
00000080: 8aef 9f3b 7e6d 403b b28c e23b b9fe d9bc
00000090: 0456 8cbc a73e 213d aa4a 1a3d 83b5 17bc
000000a0: c69a 463c b1ae 0fbb aa47 76bc 0271 17bc
000000b0: 7d52 c7bb 154a 4a3d efa2 263d 6de4 f8bc
000000c0: abec 243d b674 2fbc 7132 3b3d eda6 ca3b
000000d0: 87e6 22bb be54 ce3b 1358 093d 62e4 f93c
000000e0: 9e63 f13b 79f5 483c 9b95 273d de39 183d
000000f0: fbc3 1d3d e9fd dbbb d2a3 92bc 69c4 ecbc
00000100: 68b3 81bc 3eb1 843c b443 cf3c 0685 5f3c
00000110: a272 51ba 6a92 2b3d 2b94 61bb b4a3 a4bc
00000120: 9e0e d13c 8363 713c cec5 633a 32c1 f83c
00000130: fd37 133d 5f4e 1dbc d6af a73c deea 903c
00000140: 458b c13b a642 60bc cce8 213c 23d3 ec3c
00000150: baa6 0e3d 2837 3d3c a82d 053d 2534 e73c
00000160: 0f32 39bd 7703 9e3c 9171 e33c 056c ec3c
00000170: 9789 8abc b383 20bd 3d3a c0bb 4ed8 0cbd
00000180: 9e40 44bc d958 c3bc cabf e9bc 9cf0 7fbc
00000190: 7b75 163d 0628 6ebc 9266 853b 29db ff3b
000001a0: 3277 60bc d007 11bc 3c6b 75bb d391 233c
000001b0: f4ca 153d 3e2a b83c 4fd7 ecbc fcc8 3b3b
000001c0: ee61 eebc 5cae 97bc 77d5 9cbc 46c9 7dbc
000001d0: c923 bebb 3501 f53c b386 cb3c 28db 66bb
000001e0: 505d 163d c739 bbbc bef9 6d3c 8ba4 e3bb
000001f0: ef21 4dbc 3407 a3bc 831c ad3c f847 463c
00000200: a9f6 b3bc aae9 ecbc 4b03 733c 6b4a c03b
00000210: eb95 043d 2e64 9c3b b97e 183d 52ef 19bd
00000220: a2ae e3bc 9bda 72bc 8d0e 0abd 28c1 e3bc
00000230: 742c 02bd 7256 30bc ebec 413b 8131 9fbb
00000240: 1c86 11bd dded 00bd 40f2 e53c 9cf7 b0ba
00000250: d803 4c3a 2952 323c ee33 b6bc ca30 493c
00000260: 0b0a 94bc 169c 963c fe08 8c3c 43be 0d3d
00000270: dd5d 82bc 840b 12bd b8ec c5bc 0468 f83b
00000280: d382 1fbd 74a7 0e3d 8cb6 273c 52bc 34bb
00000290: 9f87 13bd 53ba e2bc a78b 913c 9469 013d
000002a0: 412b a3bc cfd1 8a3b 1c37 523b 7e9b 173c
000002b0: 3267 dabb e400 813c 4353 f13c d025 6e3c
000002c0: c0a3 1ebd e23c 1d3d a93d 483c 883d c5bc
000002d0: dc62 29bc 5f30 cebc 407b 183b 066f ef3c
000002e0: 59a0 e2bc f6ab 9ebc 82fa 2abd c98f f13c
000002f0: 03bb cabc 4055 933c dc5f 893c deec 4839
00000300: 72a9 e9bc c829 dabc 94a2 453c 2767 a0bc
00000310: 7ff2 bf3c 7869 963b f365 943c e080 903a
00000320: b916 a6bc 5c02 0abd ff00 efbb dfb6 95bc
00000330: 6f8f 1b3c f562 073d 793b 70bc d539 423d
00000340: 5ca8 eb3c e30e 77bc 9c17 5f3c 58a2 93bc
00000350: 4445 a7b9 73d3 133c 976d 18bd 0a1b 693c
00000360: 3a13 35bc d60e bf3c 9bbe 943c c41f 103c
00000370: 6c06 d9bc 6045 7bbc 38dd ab3c ca43 de3c
00000380: 8e5e 093d 472f fbbc 5b7a 61ba 9708 573c
00000390: d195 043d 0fb8 f8bc d4fe 0bbb 69e2 543c
000003a0: 4e99 38bc fc8a f23c 0ace 34bd 7710 92bc
000003b0: f827 7abc 8b40 0dbd 8f44 2e3c 0f7d 82bc
000003c0: 4e63 f5bc 8850 c0bc 05ad 50bc 4a1e 4fbc
000003d0: 2be9 833b b9f4 2cbc ea90 a73c e7cc d9bb
000003e0: a0d8 e73c b3ec 493c 99e7 c6bc ef21 083d
000003f0: 80e5 d23c f441 ab3a fb8b b9bc 43a1 a4bc
-0.013377553 -0.029705543 0.031529866 -0.018722905 0.03693195 -0.024002071 -0.011886017 0.035976212
-0.029320294 0.012152375 0.0097699035 0.011935479 -0.010684505 -0.014637094 0.010961377 -0.00893555
0.032719586 0.032558005 0.025843304 -0.029808272 -0.02867088 0.038830996 0.033529513 0.0062214076
-0.0039450224 0.030786337 0.021314345 0.00457322 -0.020696232 0.023970373 0.038970828 0.038986593
0.00488085 0.0029362137 0.006913745 -0.026610719 -0.01713086 0.03936639 0.03766886 -0.009259584
0.012121862 -0.0021924193 -0.0150317345 -0.009243252 -0.0060828314 0.049387056 0.04068273 -0.03038236
0.040264767 -0.010708978 0.0457024 0.00618445 -0.0024856643 0.006296723 0.03353126 0.03050441
0.0073666116 0.0122655565 0.04091416 0.03716456 0.03851698 -0.006713618 -0.017900381 -0.02890225
-0.015832618 0.016197797 0.025300838 0.013642555 -0.0007989799 0.04188768 -0.003442059 -0.020097591
0.025519665 0.014733198 0.0008688838 0.03036556 0.035942066 -0.009601205 0.020469587 0.017690118
0.005906495 -0.013687765 0.009882163 0.028909272 0.03482697 0.011548795 0.032514244 0.028223107
-0.045213755 0.019288762 0.027764114 0.028860101 -0.016911311 -0.0391881 -0.0058663175 -0.03438597
-0.011978297 -0.023846077 -0.028533835 -0.015621331 0.03673313 -0.0145359095 0.004071065 0.0078081083
-0.013700293 -0.00885196 -0.003744795 0.009983498 0.036570504 0.02248108 -0.02891126 0.0028653732
-0.02909943 -0.018515758 -0.019144757 -0.015489882 -0.0058026058 0.029907802 0.024844503 -0.0035225842
0.036710083 -0.022854699 0.014524875 -0.0069471053 -0.012520297 -0.019900896 0.02113176 0.01210212
-0.021968203 -0.028920013 0.014832328 0.0058682463 0.032369535 0.0047726845 0.037230227 -0.03758175
-0.027793232 -0.014822627 -0.033705283 -0.027802065 -0.031780675 -0.010762798 0.0029590677 -0.0048581962
-0.035528287 -0.031476844 0.028069615 -0.0013501528 0.0007782555 0.010883846 -0.022241559 0.012279699
-0.018071195 0.018384974 0.017094132 0.034605276 -0.015913898 -0.035655513 -0.024160728 0.007580759
-0.038943123 0.034827664 0.010236394 -0.0027578068 -0.03601801 -0.027676737 0.017766787 0.031594828
-0.019918086 0.004236437 0.0032076305 0.009253381 -0.006665134 0.015747495 0.029458648 0.014535382
-0.038730383 0.03838814 0.012221732 -0.024077192 -0.010338511 -0.02516955 0.0023266822 0.029227745
-0.02766435 -0.019369107 -0.04174281 0.029487507 -0.024747377 0.017984986 0.016769342 0.00019161726
-0.02852318 -0.026631251 0.012062687 -0.019580437 0.02343106 0.0045902096 0.01811502 0.0011024736
-0.020274507 -0.033693656 -0.00729382 -0.018275676 0.009494646 0.033053357 -0.014662617 0.047418434
0.028766803 -0.015079233 0.013616469 -0.018021747 -0.0003190433 0.009022581 -0.037213888 0.014227638
-0.011051947 0.023322504 0.018157294 0.008796636 -0.02649232 -0.0153363645 0.020979509 0.027131934
0.03353744 -0.030662192 -0.0008601301 0.013124607 0.03236944 -0.030361203 -0.0021361606 0.0129934335
-0.011267019 0.029607289 -0.044141807 -0.017830117 -0.015268318 -0.03448538 0.010636463 -0.015928773
-0.029954579 -0.0234759 -0.012736564 -0.012641499 0.0040255985 -0.010556393 0.020454843 -0.0066467407
0.028301537 0.0123245 -0.024280356 0.033235487 0.0257442 0.001306592 -0.022649756 -0.020096427

layer5.0.bias f4 [64]
00000000: 9375 133d 26b1 f23c 7f4f 15bd 7075 0c3b
00000010: bcea c5bc 3876 f83b ce72 8a3c 1343 54bb
00000020: bbd3 b7bc 00ac ffbc ab7d 1f3d da07 a7ba
00000030: 3138 d33c 74a3 093d 8ece eb3b e7e5 b63c
00000040: fc08 de3c ca94 4fbc eb7b 73bc a167 94bc
00000050: 7546 cf3c dbe6 113d 779d c23c 6c29 bdbc
00000060: 07ed e93c 658c f7bc 388c 763c a7cd 6ebc
00000070: f2ce ac3c 0a7f 103d 8208 4339 f454 0b3d
00000080: e21c 223d 4d79 853c 2e03 cbbb 7dfb 20bd
00000090: b8dd 8739 200a 27bc acd8 193d b1b3 233d
000000a0: e263 eebc 10cf be3a 1f94 e53a 4bde 03bd
000000b0: a935 253c 98fc 17bd be99 0ebd 75e7 1a3c
000000c0: af18 743c 92f5 dabc d9c5 0d3c 189e 133d
000000d0: a416 1b3d 369a d2bc d2ce 3a3c 8c32 d8bc
000000e0: 1d61 8d3a 082c 483b 4ab1 1fbd c9a0 513c
000000f0: 5050 a0bc a688 96bc 4938 393a c643 58bc
0.0360008 0.029625487 -0.036452767 0.0021432303 -0.024159782 0.007582452 0.016900446 -0.0032388612
-0.022439828 -0.031209946 0.038938206 -0.0012743429 0.02578363 0.033603147 0.007196254 0.022326423
0.027103893 -0.012669751 -0.014861087 -0.01811582 0.025302151 0.03562055 0.023756726 -0.02309104
0.028555406 -0.030218313 0.015048079 -0.0145753985 0.021094773 0.035277404 0.00018599819 0.034016564
0.039578326 0.016293192 -0.0061954474 -0.039302338 0.000259144 -0.010195285 0.03756015 0.03996629
-0.029100362 0.0014557559 0.0017515457 -0.032194417 0.010083594 -0.037106127 -0.03481459 0.009454598
0.014898463 -0.026728425 0.008653128 0.03603944 0.03786339 -0.0257083 0.011401849 -0.02639129
0.0010786388 0.0030543823 -0.038987435 0.012794682 -0.019569546 -0.018375706 0.0007065577 -0.013199752

layer5.1.weight f4 [64]
00000000: 4432 833f 99ae 823f e2fe 813f cf7a 823f
00000010: 3955 833f 318a 823f f001 823f 948d 813f
00000020: 34cd 823f 987d 833f 589c 833f 9a44 823f
00000030: 9788 833f 2992 823f 254e 833f d2bf 823f
00000040: ed60 833f f020 833f fcbf 823f d964 823f
00000050: 12d1 833f 7cff 823f 9588 823f 136b 833f
00000060: e7fc 813f 94d4 813f 1f7e 823f b5e2 823f
00000070: efae 823f 194b 833f f81a 833f ed3e 823f
00000080: dea0 823f c733 823f 5e4f 833f d3f4 813f
00000090: eaa1 823f 72a6 823f 0ca8 823f a4cb 823f
000000a0: e9c6 813f 0373 813f 560d 833f 1bfb 813f
000000b0: 82c0 823f 19af 813f cb82 823f c50a 833f
000000c0: 0687 823f 1826 833f c3a7 813f edb0 833f
000000d0: 66e6 823f 8893 813f ba8e 813f 2c24 833f
000000e0: ed1f 823f a79a 813f 6a0a 823f e51b 843f
000000f0: f5e8 823f 1eb6 823f ac50 833f 1a42 833f
1.0249715 1.0209533 1.0155909 1.0193728 1.0260383 1.0198423 1.0156841 1.0121331
1.0218873 1.0272703 1.0282087 1.0177186 1.0276059 1.0200855 1.0258223 1.0214789
1.0263954 1.0244427 1.0214839 1.0187026 1.0298178 1.0234218 1.0197932 1.0267051
1.0155305 1.0142999 1.0194739 1.0225435 1.0209635 1.0257293 1.0242605 1.0175453
1.0205343 1.0172051 1.0258596 1.015284 1.0205662 1.0207045 1.0207534 1.0218396
1.0138828 1.0113224 1.0238445 1.0154756 1.0214999 1.013156 1.0196165 1.0237662
1.0197456 1.0246 1.0129322 1.0288368 1.0226562 1.0123148 1.0121682 1.0245414
1.0165993 1.0125321 1.0159428 1.0321013 1.0227343 1.0211828 1.0258994 1.0254548

layer5.1.bias f4 [64]
00000000: d7ac a03c d928 653c 0303 9a3c e5b3 603c
00000010: 49eb 9e3c ceb9 653c 0bb1 583c c36f 2f3c
00000020: 1595 aa3c 1215 a13c f6f6 8a3c 5a39 703c
00000030: db81 983c 64a7 653c 6520 a33c 2d22 733c
00000040: b81e 7f3c 019b c53c e766 a63c ed15 4d3c
00000050: 170c 413c 9d10 953c dd1a 9a3c 7965 9d3c
00000060: 27de 113c c2ab b23b 4b28 813c a96b 863c
00000070: fa9a 983c 5393 7d3c ac5c b73c b8f8 1a3c
00000080: e170 8d3c 59c1 503c be61 933c 3652 2a3c
00000090: 6719 5c3c 9bc6 963c 821c 8f3c 15a9 843c
000000a0: ddc3 f43b d6cf 123c 989c 9f3c 8e4e 393c
000000b0: 1a48 943c 27cc de3b eecb 4e3c 567f 9d3c
000000c0: 5fc4 983c 7df0 953c 8852 233c 3fb7 b13c
000000d0: ebf3 923c 0a8a f23b f609 f83b 752a 813c
000000e0: 567e 1c3c 5303 0d3c 9e70 2b3c 69a5 b03c
000000f0: 7d84 353c 697c 663c 09f0 9e3c 1e07 8f3c
0.019613666 0.01398679 0.018800264 0.013714765 0.019399302 0.01402135 0.013225804 0.010707798
0.020823041 0.019663367 0.016963463 0.014662111 0.018616607 0.01401696 0.019912908 0.014839691
0.015571289 0.024121763 0.02031274 0.012517435 0.011782668 0.018196398 0.018811638 0.019213425
0.008903063 0.005452604 0.015766283 0.016408758 0.018628586 0.015477019 0.022383057 0.009458713
0.017265739 0.01274141 0.017990943 0.010395577 0.013433791 0.01840525 0.017469648 0.016193906
0.007469638 0.008960685 0.01948385 0.011310233 0.018100787 0.006799239 0.012621863 0.019225758
0.018648325 0.01830315 0.009968407 0.021693824 0.017938575 0.0074017094 0.007569547 0.015767315
0.009551605 0.00860675 0.010463862 0.021563249 0.011078951 0.014067748 0.019401567 0.017459448

layer5.1.running_mean f4 [64]
00000000: 3b1c df3e 6363 ce3e e258 cb3e 2c0f 3cbe
00000010: 3b6f 803e db9c 15bd a5cf 773f c0f3 de3e
00000020: 81ff ca3d d74d e63e bf95 8a3e 3c8a 643d
00000030: c032 d33e 579d 413f b6e2 033f be0b 203f
00000040: ad07 713e 2c54 dd3e e6b5 e5be d4ed 3c3e
00000050: fabc f03e 4e11 013e 0faa 4a3f 9ff9 b83e
00000060: 4731 143f 39d6 543d 4c48 e13e 12bb 053f
00000070: f084 833e f25a fb3c d108 e63e 3b42 993e
00000080: 91b5 373e 3fd4 81bc 44ae 143f bae6 153e
00000090: d213 e23e 6336 853d 87bc 973e dd5a fe3e
000000a0: e2d5 f03e 021b a8bd 0bfa 703e c856 143d
000000b0: 75c9 9a3e bfab 803e 2116 a3bd 5d9d 0e3e
000000c0: 1fa4 5fbd c884 093f cca4 ee3e c33a 5c3f
000000d0: aa00 243e 74ac c23c 7c48 a13d ba4e cb3b
000000e0: 4dcd c13e 5878 edbd 236b 033f 2ba4 c53e
000000f0: 95eb ad3c a684 a13e a8c5 293f 4b60 653f
0.43576226 0.403102 0.3971625 -0.18365163 0.25084862 -0.036526542 0.96801215 0.43545341
0.09912015 0.44981262 0.27067372 0.055795893 0.41249657 0.75630707 0.5151781 0.6251792
0.23538084 0.4322828 -0.4486534 0.18450099 0.47019178 0.12604257 0.7916574 0.36127946
0.5788769 0.05196211 0.4400047 0.5223857 0.2568736 0.030683015 0.449286 0.29933342
0.17940356 -0.015848277 0.5807841 0.14638796 0.44155747 0.06504514 0.29636022 0.49678698
0.4703818 -0.08208276 0.23532884 0.036215574 0.30231825 0.25131032 -0.07963205 0.13927217
-0.054599877 0.53718233 0.46610105 0.86027163 0.16015878 0.023763873 0.078751534 0.0062044533
0.37851945 -0.115952194 0.5133535 0.38601813 0.021230498 0.31546515 0.66317225 0.89600056

layer5.1.running_var f4 [64]
00000000: 4fb0 803f 458b 1e3f d00a 583f 57be e93e
00000010: 39e8 913f f12d 423f 8b9c a63f 730e 103f
00000020: 9749 173f 3af8 1f3f f27d 333f 6c89 383f
00000030: b013 713f 5637 833f 6785 8f3f ea9c 7b3f
00000040: 40ca 633f 18cb 293f 2e3d 273f 1af3 473f
00000050: 9846 833f b437 673f 6a90 a03f 0cfb 023f
00000060: 382d 083f 727a 7a3f 784b 283f 4934 5f3f
00000070: 4585 063f 1c68 8c3f d367 233f decb 1c3f
00000080: 161d 603f ff49 553f 5781 483f e16e 433f
00000090: 80be 4f3f 1a70 993f 37b7 8f3f 864e 293f
000000a0: 901f 203f 9e0e 133f 4c72 1b3f 6d73 423f
000000b0: e370 4f3f cd9e 5b3f 9f46 703f 8303 303f
000000c0: ed15 8a3f 0cbc ec3e 10d9 8a3f 2d73 2c3f
000000d0: 5973 323f dfcf 253f 0ba5 3a3f 7daf 173f
000000e0: c45a 263f c2ff 463f 8fbb 673f 3378 813f
000000f0: 2f62 1f3f 889a 3d3f 2b17 973f a817 7e3f
1.0053805 0.6193126 0.843915 0.4565303 1.1398994 0.7585135 1.3016523 0.5627205
0.59096664 0.6248814 0.7011405 0.7208469 0.94170666 1.0251262 1.1212586 0.98286307
0.88980484 0.6632552 0.6532773 0.7810532 1.0255919 0.9031937 1.2544072 0.5116432
0.53194 0.97843087 0.65740156 0.87189156 0.52547103 1.0969272 0.638303 0.61248577
0.8754438 0.83316034 0.78322357 0.7634106 0.81150055 1.1987336 1.1227788 0.6613544
0.6254816 0.5744418 0.6072128 0.75957376 0.81031626 0.85789186 0.9385776 0.6875536
1.0787941 0.46237218 1.0847492 0.67363244 0.69707257 0.6477031 0.72908086 0.5925215
0.6498225 0.77734005 0.90520567 1.0114807 0.6225919 0.7406392 1.1803945 0.99254847
