data/chkbox_models/chkbox_rnd13_2_bestVal.pt (torch_old, 35085 bytes, 25 tensors)

layer1.0.weight f4 [4, 1, 3, 3]
-0.29358664 0.18132213 -0.21665058 -0.094511256 -0.19226052 -0.18997629 0.08333074 -0.095437355
0.025469534 -0.16369693 0.12156678 0.101127096 -0.23810066 -0.25645545 -0.3991176 0.11365297
-0.101288244 -0.45199272 0.11943513 0.2986236 0.08887517 0.052159045 -0.07061489 0.25665638
-0.04767393 -0.023293996 0.18389484 -0.078269854 -0.18049037 -0.037802376 -0.06659105 -0.24657114
0.16203107 -0.2563216 -0.0387979 0.22698495
00000000: fd50 96be 82ac 393e a6d9 5dbe 1e8f c1bd
00000010: f1df 44be 2589 42be 4fa9 aa3d a974 c3bd
00000020: 7ca5 d03c 2ba0 27be 01f8 f83d b91b cf3d
00000030: a9d0 73be 214e 83be 2459 ccbe e3c2 e83d
00000040: 3670 cfbd 976b e7be 689a f43d 31e5 983e
00000050: 2f04 b63d b9a4 553d 8a9e 90bd 7768 833e
00000060: bd45 43bd 0dd3 bebc ee4e 3c3e f24b a0bd
00000070: 78d2 38be aad6 1abd e360 88bd 257d 7cbe
00000080: 79eb 253e 963c 83be 8cea 1ebd be6e 683e

layer1.0.bias f4 [4]
0.22299096 0.19816141 -0.3344582 0.2923436
00000000: be57 643e d3ea 4a3e 1b3e abbe 0fae 953e

layer1.1.weight f4 [4]
0.91748923 0.939417 1.1712981 0.90008736
00000000: 93e0 6a3f a27d 703f 19ed 953f 206c 663f

layer1.1.bias f4 [4]
0.08111262 -0.014348273 0.09188558 0.13579395
00000000: 601e a63d 0515 6bbc 822e bc3d 920d 0b3e

layer1.1.running_mean f4 [4]
-0.5515493 -1.0489899 0.50259113 -0.21325123
00000000: 5632 0dbf 4d45 86bf d0a9 003f 885e 5abe

layer1.1.running_var f4 [4]
0.8717064 2.2860782 1.0093392 0.46032152
00000000: 2728 5f3f 1b4f 1240 0732 813f 43af eb3e

layer2.0.weight f4 [8, 4, 3, 3]
-0.10961778 -0.13102438 0.11696057 -0.110296085 0.07502203 0.05507872 0.026521726 0.122869335
-0.089121774 -0.014544582 -0.0454604 -0.033057295 -0.079182394 0.05957425 -0.021958023 0.06383578
-0.0855916 -0.04158275 0.21802934 0.07594381 0.13356939 -0.1046446 0.052523606 -0.046291154
0.015136722 -0.14815845 -0.07767204 -0.017542582 0.065179825 0.12005947 -0.13039187 -0.046325967
-0.053493027 -0.08614521 -0.01703277 0.09937315 0.026106775 0.11877263 0.01863837 -0.012423923
0.06637169 -0.10487632 0.07564839 0.089783534 -0.06834158 0.06700714 -0.007706672 0.032179605
0.100382626 -0.044501714 0.10699732 -0.0066584963 0.12268164 0.052288316 -0.087520935 0.10608173
0.18394107 0.047656234 0.06683859 0.18370877 0.0014862271 0.11471147 -0.14566083 -0.12753512
-0.1136984 -0.16182326 -0.073152386 0.069380715 -0.01904898 0.17332071 0.08707866 -0.07789114
-0.1074325 -0.16926637 0.06306322 -0.1666181 -0.10629071 -0.14464177 0.08322418 0.06801165
-0.05936626 -0.18168873 -0.03053523 0.14289524 0.01703661 -0.041899618 0.038877595 0.0887368
-0.113118045 -0.16886505 0.057084538 0.040469524 0.057089936 0.010160859 0.08593583 0.11784352
-0.011528154 0.14345515 0.20648101 0.076839015 0.0024812527 0.14539208 -0.019540608 0.028100334
-0.005244087 0.1105078 0.059801105 0.040495533 0.0010753743 -0.034580532 0.12950906 -0.12307017
0.10987141 -0.047116384 0.076853365 0.16275443 0.03735286 0.00034835533 -0.0998486 -0.07104366
0.091005534 -0.07223903 0.10954776 0.013284529 -0.0575966 -0.053897846 0.08239821 0.019617142
-0.026283195 -0.021120312 -0.09485619 -0.13627702 -0.005730778 -0.11428176 -0.20296556 -0.21312146
-0.12386273 -0.1545133 -0.13898793 -0.09848075 -0.0031519546 0.0021488112 -0.026776074 0.05457569
-0.1808561 -0.12294853 0.10671928 -0.032085158 0.06983447 -0.070936665 -0.09660702 -0.083939075
-0.22619168 0.008406774 0.028738244 -0.117546566 0.1062547 0.031593174 -0.1528151 -0.14794163
-0.08619849 -0.13283326 -0.103718765 0.09124285 -0.12546614 -0.20780215 -0.08602288 -0.035527162
-0.085495554 -0.09918145 0.03353123 -0.06764545 -0.13621815 0.059483744 -0.031032471 -0.07948101
0.012578073 0.038797263 0.15488271 0.037847225 0.07257436 0.11467778 -0.1671868 0.027917705
-0.04562739 0.006368558 -0.002295481 -0.11232488 -0.0025064605 0.07161083 -0.1585861 -0.1910027
-0.027778713 0.10384107 0.003850638 0.07309997 -0.003051877 0.105356485 -0.08627171 0.08269122
0.0738383 -0.18576334 -0.02306249 0.1982589 -0.06511505 -0.0031746533 0.056687396 0.14145647
0.058161233 -0.07392397 0.12572695 0.0018762252 -0.009452341 0.08042372 -0.07919004 -0.008178542
0.020797372 0.07533274 0.021180473 -0.13952883 0.06331132 -0.020818964 0.09229843 0.0031519646
-0.050824087 -0.13149613 -0.17043112 0.021736965 -0.09203743 0.046310868 0.11268833 -0.011493565
-0.04228398 -0.15240175 0.09255 -0.028664824 0.20959026 -0.18724732 0.116443545 0.044142783
-0.07322692 0.010532334 -0.051648196 0.08072445 0.045983505 0.08221806 0.14880016 0.12582539
-0.07221762 0.0029339273 0.122506835 0.080985256 0.011484174 0.06722034 0.09603599 0.048462663
00000000: 497f e0bd 412b 06be 0689 ef3d eae2 e1bd
00000010: 26a5 993d 399a 613d 1744 d93c eba2 fb3d
00000020: 7a85 b6bd 664c 6ebc af34 3abd 1667 07bd
00000030: 612a a2bd 2104 743d 50e1 b3bc 55bc 823d
00000040: a64a afbd ac52 2abd 1543 5f3e 6e88 9b3d
00000050: 6ac6 083e e84f d6bd fe22 573d cb9b 3dbd
00000060: 0300 783c d9b6 17be 8512 9fbd 76b5 8fbc
00000070: 007d 853d bde1 f53d 7285 05be 4cc0 3dbd
00000080: 811b 5bbd e66c b0bd 4f88 8bbc 2684 cb3d
00000090: e0dd d53c 113f f33d 7faf 983c b68d 4bbc
000000a0: e1ed 873d 65c9 d6bd 8bed 9a3d 6ee0 b73d
000000b0: acf6 8bbd 0a3b 893d 4088 fcbb c3ce 033d
000000c0: 6895 cd3d 6e47 36bd 6921 db3d 842f dabb
000000d0: 8340 fb3d 462c 563d 2d3e b3bd 6141 d93d
000000e0: 0c5b 3c3e 2f33 433d ace2 883d 271e 3c3e
000000f0: 82cd c23a d9ed ea3d 1d28 15be 9198 02be
00000100: b5da e8bd ffb4 25be ebd0 95bd 7a17 8e3d
00000110: 9b0c 9cbc fc7a 313e 4c56 b23d 6485 9fbd
00000120: 9205 dcbd 2a54 2dbe 4a27 813d ef9d 2abe
00000130: f2ae d9bd f91c 14be 7071 aa3d b149 8b3d
00000140: 092a 73bd 9c0c 3abe 0525 fabc 2153 123e
00000150: 5c90 8b3c ef9e 2bbd 1d3e 1f3d a4bb b53d
00000160: 6faa e7bd f6ea 2cbe 7ad1 693d 5fc3 253d
00000170: 23d7 693d bb79 263c 20ff af3d f257 f13d
00000180: 95e0 3cbc e8e5 123e c26f 533e c65d 9d3d
00000190: 839c 223b a9e1 143e a013 a0bc ac32 e63c
000001a0: 97d6 abbb ea51 e23d 01f2 743d a5de 253d
000001b0: 93f3 8c3a 51a4 0dbd 069e 043e 370c fcbd
000001c0: 4304 e13d 1cfd 40bd 4c65 9d3d 19a9 263e
000001d0: 50ff 183d 76a3 b639 6c7d ccbd 577f 91bd
000001e0: 1c61 ba3d 0ef2 93bd 935a e03d 5aa7 593c
000001f0: 6aea 6bbd fdc3 5cbd 65c0 a83d 21b4 a03c
00000200: db4f d7bc 8104 adbc f643 c2bd 348c 0bbe
00000210: 40c9 bbbb 8e0c eabd 34d6 4fbe 833c 5abe
00000220: beab fdbd bc38 1ebe da52 0ebe 47b0 c9bd
00000230: 0691 4ebb 12d3 0c3b 7f59 dbbc c28a 5f3d
00000240: 5732 39be 70cc fbbd a38f da3d ba6b 03bd
00000250: 6005 8f3d 3e47 91bd e7d9 c5bd 40e8 abbd
00000260: cb9e 67be 91bc 093c 776c eb3c 41bc f0bd
00000270: 109c d93d d867 013d 907b 1cbe 037e 17be
00000280: d588 b0bd 7105 08be 816a d4bd 88dd ba3d
00000290: 327a 00be 16ca 54be c42c b0bd ee84 11bd
000002a0: 4b18 afbd a51f cbbd 0b58 093d b389 8abd
000002b0: c57c 0bbe 3aa5 733d cf37 febc f1c6 a2bd
000002c0: 4314 4e3c e1e9 1e3d 9399 1e3e b105 1b3d
000002d0: dea1 943d 2fdc ea3d 0433 2bbe acb3 e43c
000002e0: c9e3 3abd 56af d03b c86f 16bb 960a e6bd
000002f0: 6e43 24bb b3a8 923d 6564 22be 3696 43be
00000300: 2f90 e3bc a0aa d43d fc5a 7c3b 70b5 953d
00000310: 0002 48bb 24c5 d73d 39af b0bd 045a a93d
00000320: 8938 973d bf38 3ebe 8ced bcbc 6204 4b3e
00000330: 0a5b 85bd d80d 50bb 0b31 683d f7d9 103e
00000340: 793a 6e3d 7365 97bd 91be 003e aceb f53a
00000350: fedd 1abc 31b5 a43d 632e a2bd 4bff 05bc
00000360: 405f aa3c 0d48 9a3d ac82 ad3c a5e0 0ebe
00000370: 5ea9 813d 888c aabc f606 bd3d 3191 4e3b
00000380: eb2c 50bd eca6 06be 7f85 2ebe b811 b23c
00000390: 1f7e bcbd 77b0 3d3d 24c9 e63d 814f 3cbc
000003a0: f731 2dbd 340f 1cbe db8a bd3d 7ed2 eabc
000003b0: d49e 563e c3bd 3fbe f479 ee3d 10cf 343d
000003c0: fff7 95bd d08f 2c3c 0f8d 53bd dc52 a53d
000003d0: 3359 3c3d f161 a83d 125f 183e 5fd8 003e
000003e0: d5e6 93bd 2247 403b dde4 fa3d 99db a53d
000003f0: 1e28 3c3c d1aa 893d 84ae c43d c980 463d

layer2.0.bias f4 [8]
0.019212745 -0.15096503 -0.016397184 -0.15658683 -0.029895956 0.15249647 -0.119625375 -0.11770055
00000000: 0c64 9d3c 9496 1abe 6353 86bc 4c58 20be
00000010: 5de8 f4bc 0928 1c3e 26fe f4bd fc0c f1bd

layer2.1.weight f4 [8]
0.9809213 0.9562365 0.99495196 1.1002209 0.96601593 1.0885198 0.93265843 1.0019233
00000000: a91d 7b3f eacb 743f 2cb5 7e3f 0ad4 8c3f
00000010: d24c 773f 9e54 8b3f b4c2 6e3f 063f 803f

layer2.1.bias f4 [8]
-0.024660436 -0.037854835 0.09528983 0.10695782 0.105154246 0.06716738 -0.11116664 0.09259532
00000000: af04 cabc ac0d 1bbd 5027 c33d b40c db3d
00000010: 1c5b d73d 0d8f 893d 56ab e3bd 9da2 bd3d

layer2.1.running_mean f4 [8]
-0.042454015 0.29495528 0.2909995 -0.7417442 -0.8896029 0.24474284 0.14462763 0.16217798
00000000: 43e4 2dbd 6104 973e e3fd 943e f3e2 3dbf
00000010: 04bd 63bf de9d 7a3e 4419 143e fc11 263e

layer2.1.running_var f4 [8]
0.10307222 0.16619529 0.5132714 0.2748633 0.19679451 0.14351963 0.07456316 0.3852464
00000000: 8717 d33d 192f 2a3e c165 033f e2ba 8c3e
00000010: 8084 493e cff6 123e 92b4 983d 043f c53e

layer3.0.weight f4 [16, 8, 3, 3]
-0.1142623 -0.07842851 0.015154651 -0.021600839 0.0021802946 -0.01370729 -0.026269674 -0.0533961
0.026810355 -0.010782471 0.078393824 -0.05757265 -0.09452143 0.000980124 -0.018876461 -0.062464915
0.120248064 0.12650488 -0.09602191 -0.0014720666 -0.036500122 -0.11602499 0.087050304 0.05931733
-0.17008568 0.07391395 0.12613523 -0.02871512 0.06468751 -0.05023337 0.086852536 -0.067796975
0.06322067 -0.0021796392 0.15032114 -0.019844394 -0.009910073 -0.02163192 0.049026318 0.032388236
-0.14564428 0.059480585 -0.10559563 -0.08973143 0.07241543 -0.01843186 0.084230304 0.14230636
-0.06145533 0.058994927 0.0641369 0.0037348086 -0.01739486 -0.05642143 0.040373106 -0.034024555
0.04816702 0.06500784 -0.03169332 0.07470422 0.011790721 0.05683869 0.077504545 -0.10830863
-0.015194456 0.07092488 -0.05804271 0.08173032 0.013789538 -0.17282596 -0.05445356 -0.06483285
0.062219106 0.074539736 -0.11142122 -0.08392944 0.09749523 0.061779 -0.012465371 -0.010162235
0.09487318 -0.06325806 -0.007381918 -0.05864193 -0.0942481 0.11727815 0.1140898 -0.07088724
0.06527632 0.02764733 0.10435998 -0.05386764 0.11559261 -0.103973225 -0.063201316 0.030205552
0.047790594 -0.0022003357 -0.08098367 -0.021290569 0.06005205 -0.12493167 0.07094807 0.06580658
0.08314009 0.053860962 0.060418382 0.08460937 0.04966806 0.1163657 0.07280268 0.10297624
-0.06815386 -0.029355844 -0.10914864 -0.035334893 0.06079287 0.12454839 0.07721575 -0.042092305
0.018952247 0.06695665 -0.05035844 0.03778749 -0.08868787 0.14471006 -0.10927401 -0.062980235
-0.10257593 0.017291484 0.029340366 0.030908363 -0.11029551 -0.07603951 -0.056995437 -0.035377823
0.07065531 0.02630847 0.007325814 0.057049617 0.12287874 0.06389905 0.0016245127 0.027974669
0.035570655 0.07803884 -0.05942323 0.010842638 -0.065499306 -0.11975304 -0.019364908 -0.034507714
-0.015774991 -0.037620943 0.02877378 -0.04291601 -0.086288534 -0.08565548 -0.08816781 -0.093102165
0.067645684 -0.06150606 0.032477524 -0.034117408 -0.079957314 -0.03281016 0.12272086 0.013652155
0.0009131071 0.025778506 0.058047093 0.004320115 0.16097729 0.059905734 -0.013712603 0.06002744
0.041012578 -0.09608483 -0.14477365 -0.09203874 -0.075206935 -0.01834053 -0.039359644 -0.011705315
0.044097465 -0.0018991688 0.09839943 0.08779703 0.0098923 0.0043829307 -0.07240129 0.017019011
0.020132031 -0.070226334 -0.032477856 0.05972885 0.06847853 0.06757197 -0.10630508 0.021564323
-0.052647974 0.055828862 -0.059771016 0.0049674814 0.049199272 0.060549 0.018981712 0.10588331
-0.0327584 -0.06448031 0.06535405 0.08061727 0.07499639 -0.018922918 0.040374037 0.121203706
0.079374135 0.003898813 0.06673703 -0.04937985 0.005038956 -0.0667175 0.016783504 -0.016184516
0.0926454 -0.027808385 0.047100123 -0.015776666 -0.0056297104 0.09609513 0.07720291 -0.05039623
0.014099331 -0.032265935 -0.012466523 -0.11897028 -0.012336015 0.06916289 -0.12288103 -0.008286687
0.014833037 0.025966424 0.10266105 -0.010712808 -0.0831839 -0.033812772 -0.053760737 -0.065285966
-0.03060459 0.103025265 0.052447125 0.015999444 0.05346597 -0.030790491 0.014458547 -0.04469265
00000000: 5a02 eabd 209f a0bd 374b 783c 3ef4 b0bc
00000010: 46e3 0e3b 8b94 60bc 8033 d7bc deb5 5abd
00000020: 64a1 db3c f6a8 30bc f18c a03d 4dd1 6bbd
00000030: 7494 c1bd 8177 803a cfa2 9abc 36db 7fbd
00000040: 9e44 f63d 7f8a 013e 23a7 c4bd 5cf2 c0ba
00000050: 2781 15bd 839e edbd 6e47 b23d bbf6 723d
00000060: f12a 2ebe 3260 973d 9829 013e f93b ebbc
00000070: e37a 843d 82c1 4dbd bedf b13d 24d9 8abd
00000080: d779 813d 47d8 0ebb c9ed 193e b690 a2bc
00000090: dc5d 22bc 6d35 b1bc d2cf 483d 87a9 043d
000000a0: c623 15be eaa1 733d 8642 d8bd 1dc5 b7bd
000000b0: 8a4e 943d 69fe 96bc f080 ac3d c2b8 113e
000000c0: 96b8 7bbd aaa4 713d 355a 833d b1c3 743b
000000d0: aa7f 8ebc 281a 67bd 455e 253d 555d 0bbd
000000e0: c84a 453d d522 853d dbd0 01bd 87fe 983d
000000f0: de2d 413c b0cf 683d b4ba 9e3d ead0 ddbd
00000100: 2bf2 78bc 1041 913d 31be 6dbd 3a62 a73d
00000110: 84ed 613c 4af9 30be b20a 5fbd 16c7 84bd
00000120: 76d9 7e3d 4aa8 983d cf30 e4bd 33e3 abbd
00000130: 94ab c73d fa0b 7d3d 8e3b 4cbc 817f 26bc
00000140: df4c c23d 718d 81bd 04e4 f1bb 8532 70bd
00000150: 2605 c1bd 872f f03d eaa7 e93d 542d 91bd
00000160: 97af 853d a77c e23c afba d53d 51a4 5cbd
00000170: d1bb ec3d eaef d4bd b16f 81bd a271 f73c
00000180: 12c0 433d 8233 10bb c4da a5bd 8f69 aebc
00000190: 23f9 753d 2ddc ffbd 394d 913d 9ac5 863d
000001a0: 5a45 aa3d 509d 5c3d 4479 773d ad47 ad3d
000001b0: bc70 4b3d 2451 ee3d 9219 953d 35e5 d23d
000001c0: 4094 8bbd ab7b f0bc 5289 dfbd 52bb 10bd
000001d0: f201 793d 3a13 ff3d 4b23 9e3d fb68 2cbd
000001e0: be41 9b3c 9120 893d a744 4ebd 0ec7 1a3d
000001f0: fca1 b5bd e02e 143e 0dcb dfbd c8fb 80bd
00000200: 5413 d2bd dfa6 8d3c 355b f03c 8933 fd3c
00000210: 9de2 e1bd 9aba 9bbd 0c74 69bd 56e8 10bd
00000220: bbb3 903d dc84 d73c 620d f03b dcac 693d
00000230: d9a7 fb3d 81dd 823d 9aed d43a 222b e53c
00000240: 89b2 113d d4d2 9f3d c665 73bd 52a5 313c
00000250: 8024 86bd 1541 f5bd 28a3 9ebc f657 0dbd
00000260: 8e3a 81bc 6b18 1abd feb6 eb3c b3c8 2fbd
00000270: 0bb8 b0bd 246c afbd 5391 b4bd 59ac bebd
00000280: d289 8a3d c7ed 7bbd 2707 053d b2be 0bbd
00000290: a9c0 a3bd f263 06bd 1355 fb3d 4aad 5f3c
000002a0: 955d 6f3a 722d d33c cac2 6d3d c08f 8d3b
000002b0: 3bd7 243e b75f 753d d3aa 60bc 55df 753d
000002c0: cefc 273d 20c8 c4bd 8b3f 14be cf7e bcbd
000002d0: 1806 9abd e13e 96bc 9437 21bd a6c7 3fbc
000002e0: 8b9f 343d 88ed f8ba a485 c93d eece b33d
000002f0: 5013 223c b09e 8f3b 2147 94bd 746b 8b3c
00000300: eeeb a43c d3d2 8fbd 8007 05bd 3da6 743d
00000310: 793e 8c3d 2c63 8a3d 7ab6 d9bd aaa7 b03c
00000320: 67a5 57bd ceac 643d 74d2 74bd 41c6 a23b
00000330: 2d85 493d 3a02 783d 897f 9b3c 59d9 d83d
00000340: ac2d 06bd 410e 84bd 58d8 853d ab1a a53d
00000350: b597 993d 3c04 9bbc 3f5f 253d a639 f83d
00000360: e88e a23d 3a83 7f3b 6dad 883d 8742 4abd
00000370: d41d a53b 2fa3 88bd 8f7d 893c 6495 84bc
00000380: dfbc bd3d 69ce e3bc 0fec 403d 113e 81bc
00000390: 6f79 b8bb 86cd c43d 8f1c 9e3d 476c 4ebd
000003a0: e100 673c 4929 04bd 6340 4cbc b1a6 f3bd
000003b0: ff1c 4abc 46a5 8d3d 0da9 fbbd e2c4 07bc
000003c0: 4406 733c 8ab7 d43c f53f d23d c684 2fbc
000003d0: 525c aabd 437f 0abd 3834 5cbd a6b4 85bd
000003e0: 7ab6 fabc e9fe d23d ccd2 563d 4411 833c
000003f0: 22ff 5a3d 573c fcbc 8be3 6c3c a40f 37bd

layer3.0.bias f4 [16]
-0.012412911 -0.026178904 0.10977923 0.09479577 0.0845278 0.061427437 0.086465016 0.0429165
-0.010591768 -0.009019653 0.08602244 0.10069988 0.010779249 0.01413072 -0.028282478 0.036031757
00000000: 865f 4bbc 2475 d6bc efd3 e03d 4924 c23d
00000010: e91c ad3d 569b 7b3d 9214 b13d 36c9 2f3d
00000020: 1889 2dbc 2bc7 13bc 882c b03d bd3b ce3d
00000030: 729b 303c 8984 673c a8b0 e7bc 0996 133d

layer3.1.weight f4 [16]
0.9604795 0.86661 0.991877 1.0144604 1.0229366 0.90743285 0.9546602 0.99197847
0.8832313 0.9347948 1.0414824 0.9441771 0.95196575 0.927185 0.98014516 1.0410372
00000000: fce1 753f 27da 5d3f a7eb 7d3f d7d9 813f
00000010: 96ef 823f 854d 683f 9c64 743f 4df2 7d3f
00000020: 721b 623f b64e 6f3f 4c4f 853f 97b5 713f
00000030: 07b4 733f ff5b 6d3f cbea 7a3f b540 853f

layer3.1.bias f4 [16]
-0.19961858 -0.24719985 -0.28276268 -0.13781774 -0.19629091 -0.22316317 -0.26368755 -0.25649485
-0.17161332 -0.3898371 -0.293732 -0.34714884 -0.17361762 -0.25903553 -0.15906096 -0.17613529
00000000: d068 4cbe f521 7dbe 45c6 90be 1820 0dbe
00000010: 7c00 49be e384 64be 0e02 87be 4b53 83be
00000020: 67bb 2fbe ba98 c7be 0a64 96be 7ebd b1be
00000030: d1c8 31be 4ea0 84be e0e0 22be cf5c 34be

layer3.1.running_mean f4 [16]
-0.063777894 0.53721386 0.17680268 -0.5413745 -0.33989447 0.32754046 -0.13547993 -0.29834634
0.42770147 -0.1547014 -0.004354324 0.12515475 -0.69474363 0.16209061 -0.009065332 -0.63115996
00000000: fc9d 82bd d986 093f c30b 353e 8597 0abf
00000010: a606 aebe 62b3 a73e 40bb 0abe dac0 98be
00000020: b0fb da3e 0b6a 1ebe b8ae 8ebb 9128 003e
00000030: b8da 31bf 15fb 253e c286 14bc b393 21bf

layer3.1.running_var f4 [16]
0.5248972 0.23655145 0.2515826 0.17437935 0.20297617 0.17769761 0.12235204 0.17298965
0.1972429 0.0956312 0.17644253 0.10794945 0.25746116 0.2013254 0.23199198 0.21670102
00000000: aa5f 063f 8b3a 723e 6fcf 803e 8090 323e
00000010: fcd8 4f3e 5df6 353e b593 fa3d 3324 313e
00000020: 0bfa 493e 4ada c33d 5aad 343e 9a14 dd3d
00000030: f3d1 833e 3f28 4e3e 4e8f 6d3e dfe6 5d3e

layer4.0.weight f4 [32, 16, 3, 3]
0.017542819 0.056751855 0.07850902 -0.014276453 0.003686564 0.08172424 0.042263694 0.031439256
0.0026707072 -0.025490653 0.024853367 -0.048137028 -0.0023399193 -0.0028561929 -0.024112046 0.0060544508
-0.024195137 0.014502436 0.03192687 0.041668024 0.068582565 -0.0102508385 0.013407396 -0.017950237
0.05175054 -0.05579072 -0.057418864 0.07520294 0.008649604 0.018603384 0.029073419 -0.01117021
-0.08868498 0.03833911 -0.010586799 -0.09415383 0.023015112 0.0061222296 0.030909901 0.009807568
-0.024611464 -0.13533197 -0.025114294 -0.056718137 -0.12441393 -0.0052528908 0.012742208 0.018924218
0.013905088 -0.039864324 0.004109073 0.034790494 -0.004813675 0.10002746 0.055506293 0.008860485
0.07421152 0.005638731 0.061019834 0.088939615 0.03761125 0.10242244 0.054237854 0.043873917
0.0018311029 0.06550695 -0.016834777 -0.00089401007 -0.042900763 0.03829747 -0.030184902 -0.036461007
0.0019142203 0.009895654 0.061234366 -0.0040926207 0.035389207 1.0775604e-05 0.028026678 0.00183669
0.021854864 0.049294163 -0.02479481 0.09028822 -0.046026673 -0.049008377 0.08275852 0.0056440933
0.10534571 0.084143795 0.102539286 -0.06491863 -0.08336765 -0.038968187 -0.03644844 0.0037201473
-0.02360253 0.00426127 0.118848264 0.008433435 0.04382502 -0.004085425 -0.09352099 -0.029815663
-0.00015717236 -0.03412693 -0.037720155 0.015920542 0.06473254 0.027607953 0.0778164 0.095576234
0.038285173 0.018082084 0.047029324 0.041322097 -0.030847663 -0.06362811 -0.020708743 -0.0169559
-0.006282785 0.02324313 0.0015963777 -0.010780542 -0.0033619006 0.0031031913 0.08635902 -0.013667299
-0.100632414 -0.039744243 -0.02083868 -0.035479076 -0.037681375 0.0018956815 0.010535148 0.089310884
0.022517666 0.008793754 0.049664628 0.047838993 -0.061553188 0.031528946 -0.04479925 -0.10905829
0.026502043 -0.0014730287 0.01751283 0.053173315 0.035413086 0.035535783 0.03587488 -0.09349515
0.04223581 0.07503516 0.070332974 0.050163027 0.0144065935 -0.007846225 0.015596204 -0.020451074
-0.019233689 0.0043747732 -0.038738143 -0.036664043 0.0032654146 -0.032167528 -0.02511544 -0.07087004
0.016114036 0.008043514 -0.019702353 0.052124463 0.057798117 -0.02145227 0.00093185774 0.07753464
0.06521175 0.065286264 -0.0050460408 0.025592411 0.005684185 -0.032806136 -0.03283542 0.08209516
0.036594898 0.015910557 0.0675481 0.030313011 0.05061532 0.018856706 0.038489107 0.12754636
0.015015637 -0.085466966 -0.03118634 0.0116396 -0.05553479 0.049070958 0.070175335 -0.009729907
-0.040067755 0.031824835 -0.03643083 0.019558536 0.01465929 -0.04536769 0.08846353 0.04778424
-0.013529892 -0.042157758 0.013107724 -0.014010022 0.072662435 -0.018626593 -0.04020376 0.029475227
0.033548594 -0.014685149 0.09833057 0.029477151 -0.104802586 0.03667436 0.0574718 -0.05685206
-0.031246448 0.063187964 -0.05453163 -0.059229523 -0.06503148 -0.051499806 -0.037931938 -0.09626719
-0.08737153 -0.013435626 0.06809205 0.025768612 -0.057024464 0.0021938796 0.03224989 0.011643231
-0.0015830571 -0.058304556 0.09086325 -0.00581571 0.011566875 0.088332914 -0.0074710073 -0.033231933
-0.03640909 -0.017561514 -0.05244086 -0.015366538 0.019827526 0.02862764 -0.01900047 0.034143414
00000000: f5b5 8f3c a274 683d 56c9 a03d c9e7 69bc
00000010: 489a 713b 0a5f a73d b21c 2d3d 73c6 003d
00000020: 0807 2f3b c6d1 d0bc 4a99 cb3c 552b 45bd
00000030: 5559 19bb f72e 3bbb a086 c5bc 6a64 c63b
00000040: e134 c6bc a09b 6d3c c0c5 023d 17ac 2a3d
00000050: 0475 8c3d 22f3 27bc b2aa 5b3c 600c 93bc
00000060: 60f8 533d cf84 64bd 0b30 6bbd 0004 9a3d
00000070: 12b7 0d3c 2066 983c 612b ee3c 4203 37bc
00000080: 79a0 b5bd 7809 1d3d 4174 2dbc b9d3 c0bd
00000090: 308a bc3c fc9c c83b c336 fd3c ecaf 203c
000000a0: fb9d c9bc 7794 0abe 7ebc cdbc 4751 68bd
000000b0: bbcc febd 7120 acbb b2c4 503c f606 9b3c
000000c0: 2bd2 633c c648 23bd 67a5 863b 7a80 0e3d
000000d0: 08bc 9dbb 32db cc3d 915a 633d 912b 113c
000000e0: 36fc 973d 1bc5 b83b efef 793d f925 b63d
000000f0: 410e 1a3d dbc2 d13d 8328 5e3d 23b5 333d
00000100: 9e01 f03a 8228 863d 16e9 89bc 005c 6aba
00000110: b6b8 2fbd cfdd 1c3d 5446 f7bc 2358 15bd
00000120: 93e6 fa3a 6221 223c e3d0 7a3d 641b 86bb
00000130: 46f4 103d dec8 3437 3498 e53c 17bd f03a
00000140: f908 b33c ade8 493d 7c1e cbbc 08e9 b83d
00000150: 7786 3cbd 02bd 48bd 4d7d a93d 16f2 b83b
00000160: 7ebf d73d 9553 ac3d 1e00 d23d 0ff4 84bd
00000170: a9bc aabd 1b9d 1fbd f64a 15bd b7cd 733b
00000180: 185a c1bc 20a2 8b3b b866 f33d 642c 0a3c
00000190: dd81 333d 07df 85bb ef87 bfbd fa3f f4bc
000001a0: a2ce 24b9 aec8 0bbd 7380 1abd cc6b 823c
000001b0: 7e92 843d 132a e23c 345e 9f3d 79bd c33d
000001c0: ead0 1c3d e120 943c d2a1 403d 5c41 293d
000001d0: 3db4 fcbc 744f 82bd 62a5 a9bc 19e7 8abc
000001e0: d2df cdbb 6068 be3c 8c3d d13a dfa0 30bc
000001f0: 5553 5cbb e95e 4b3b ffdc b03d cfec 5fbc
00000200: 5e18 cebd dcca 22bd e1b5 aabc 8252 11bd
00000210: c957 1abd 8478 f83a 9d9b 2c3c a0e8 b63d
00000220: f876 b83c ad13 103c 236d 4b3d d2f2 433d
00000230: 321f 7cbd 7f24 013d 6b7f 37bd f459 dfbd
00000240: d01a d93c a412 c1ba 1177 8f3c 43cc 593d
00000250: 500d 113d f88d 113d 8af1 123d 637a bfbd
00000260: 75ff 2c3d 09ac 993d bc0a 903d bf77 4d3d
00000270: a209 6c3c 748d 00bc 3987 7f3c 0389 a7bc
00000280: f88f 9dbc 425a 8f3b e3ab 1ebd 092d 16bd
00000290: 9100 563b 19c2 03bd e5be cdbc 5024 91bd
000002a0: 9501 843c f1c8 033c d466 a1bc 7680 553d
000002b0: b8bd 6c3d acbc afbc ea47 743a 7bca 9e3d
000002c0: bd8d 853d ceb4 853d 4259 a5bb 2da7 d13c
000002d0: 6642 ba3b ba5f 06bd 6f7e 06bd 8221 a83d
000002e0: 88e4 153d db56 823c a956 8a3d fe52 f83c
000002f0: 0352 4f3d 6179 9a3c c1a6 1d3d 839b 023e
00000300: 2504 763c 4e09 afbd 7f7a ffbc 05b4 3e3c
00000310: 7378 63bd a1fe 483d 16b8 8f3d 306a 1fbc
00000320: 161e 24bd c25a 023d 7e38 15bd 3939 a03c
00000330: 852d 703c 79d3 39bd 5e2c b53d 68b9 433d
00000340: 7bac 5dbc 9dad 2cbd c7c1 563c 4b8a 65bc
00000350: 0bd0 943d cc96 98bc b3ac 24bd 0876 f13c
00000360: 406a 093d fb99 70bc 8a61 c93d 117a f13c
00000370: bda2 d6bd db37 163d 8d67 6b3d b5dd 68bd
00000380: 8df8 ffbc b168 813d 8f5c 5fbd a89a 72bd
00000390: 392f 85bd 76f1 52bd 855e 1bbd bc27 c5bd
000003a0: d8ef b2bd 1a21 5cbc d873 8b3d b218 d33c
000003b0: 7c92 69bd 31c7 0f3b 7618 043d 40c3 3e3c
000003c0: 957e cfba c2d0 6ebd 8316 ba3d b691 bebb
000003d0: fd82 3d3c e3e7 b43d 5acf f4bb 351e 08bd
000003e0: b321 15bd 2add 8fbc 3acc 56bd efc3 7bbc
000003f0: 566d a23c 8384 ea3c e0a6 9bbc f7d9 0b3d

layer4.0.bias f4 [32]
0.04234537 -0.021279365 -0.0023520319 -0.078887336 0.054236908 -0.0069180843 0.0142717315 -0.0810529
-0.018127808 0.08263131 -0.07742574 0.038784683 -0.0263403 0.06324717 -0.0551201 -0.036731374
-0.013260569 -0.01521424 0.08294852 -0.07615865 -0.014100441 -0.05863331 -0.06613862 -0.022816353
-0.011307299 -0.002127684 0.014380047 -0.049280975 -0.025765574 -0.040853932 0.033405673 0.08016278
00000000: 5772 2d3d 1052 aebc 8c24 1abb af8f a1bd
00000010: 8527 5e3d 19b1 e2bb fbd3 693c 10ff a5bd
00000020: c580 94bc 9b3a a93d 6391 9ebd b0dc 1e3d
00000030: 9dc7 d7bc bb87 813d 9dc5 61bd a373 16bd
00000040: dc42 59bc 2645 79bc eae0 a93d 11f9 9bbd
00000050: 8905 67bc 7b29 70bd af73 87bd 5ce9 babc
00000060: 4042 39bc 9d70 0bbb 4a9a 6b3c d9da 49bd
00000070: 5312 d3bc 7456 27bd 63d4 083d 622c a43d

layer4.1.weight f4 [32]
1.1374336 1.1374598 1.1242181 1.1291324 1.1505121 1.1661156 1.112466 1.0715147
1.1484425 1.1478174 1.0833644 1.1400092 1.0932232 1.0981333 1.0985235 1.1091033
1.0985087 1.1401317 1.0822681 1.1642886 1.1704838 1.0600778 1.1011314 1.1530331
1.1314007 1.0746226 1.1285006 1.1029435 1.12751 1.0919178 1.1185243 1.1177747
00000000: 6d97 913f 4898 913f 61e6 8f3f 6987 903f
00000010: fb43 933f 4743 953f 4965 8e3f 6527 893f
00000020: 2a00 933f aeeb 923f afab 8a3f d2eb 913f
00000030: bdee 8b3f a28f 8c3f 6b9c 8c3f 19f7 8d3f
00000040: ef9b 8c3f d6ef 913f c387 8a3f 6907 953f
00000050: 6ad2 953f a1b0 873f e0f1 8c3f 9796 933f
00000060: bdd1 903f 3c8d 893f b572 903f 412d 8d3f
00000070: 3f52 903f f6c3 8b3f ce2b 8f3f 3e13 8f3f

layer4.1.bias f4 [32]
0.04346723 -0.008237926 0.028477633 0.03708447 0.07785086 0.040542 0.011112041 0.01021927
-0.014652621 0.067673445 0.011431332 0.0157313 -0.0001480308 0.025760699 0.034320757 -0.02976992
0.032052886 0.049713004 0.003928933 0.06896609 0.0021075539 0.0036217521 -0.0057047512 0.03826733
0.04686342 0.027494144 0.037862454 0.0447123 0.03407812 0.0016333709 0.03012667 0.010471341
00000000: b20a 323d 5ef8 06bc ed49 e93c e3e5 173d
00000010: 4670 9f3d 5e0f 263d 470f 363c ba6e 273c
00000020: 8c11 70bc 6098 8a3d 7b4a 3b3c edde 803c
00000030: b738 1bb9 1a08 d33c ec93 0c3d 0ce0 f3bc
00000040: e349 033d dd9f 4b3d 47be 803b 183e 8d3d
00000050: e31e 0a3b eb5a 6d3b ecee babb 34be 1c3d
00000060: dcf3 3f3d 663b e13c a915 1b3d 3f24 373d
00000070: 8095 0b3d d516 d63a 35cc f63c fd8f 2b3c

layer4.1.running_mean f4 [32]
0.35466728 0.50355506 -0.26789856 -0.3285913 -1.4544623 0.5116875 0.45494723 -0.066491716
0.7585651 0.30405915 -0.35471633 0.5295634 -0.19993782 0.19975609 0.001905323 0.21256644
0.02691619 -0.08477178 0.5825662 -0.108103156 0.72193563 0.0167291 0.31623715 -0.20240249
0.11542602 -0.17957534 0.11494459 -1.9353694 0.25584558 0.03254954 -0.030930826 0.26414713
00000000: f396 b53e fce8 003f 002a 89be 1e3d a8be
00000010: d22b babf f4fd 023f d8ee e83e cf2c 88bd
00000020: 5331 423f a4ad 9b3e 619d b5be 7891 073f
00000030: 80bc 4cbe dc8c 4c3e 08bc f93a 04ab 593e
00000040: 577f dc3c d49c adbd 0f23 153f 3065 ddbd
00000050: c6d0 383f 770b 893c d6e9 a13e 9942 4fbe
00000060: 7a64 ec3d 99e2 37be 1268 eb3d 2fba f7bf
00000070: 31fe 823e ab52 053d a562 fdbc 4b3e 873e

layer4.1.running_var f4 [32]
0.6178761 0.77206993 0.93558437 0.83689106 1.7919451 0.6370559 0.8590153 0.60979986
0.77129537 0.58578086 0.7588428 0.8562706 0.91612405 0.8144082 0.77173394 0.79603285
0.7094973 0.8991942 0.8944114 0.8697199 0.84126073 0.62433785 0.8096273 0.8372516
0.9345913 0.8102923 0.684685 1.9965552 0.89090306 0.8045285 0.86780775 0.76604897
00000000: 212d 1e3f 60a6 453f 7582 6f3f 7e3e 563f
00000010: 755e e53f 1816 233f 6de8 5b3f d81b 1c3f
00000020: 9d73 453f bcf5 153f 8643 423f 8d34 5b3f
00000030: 1b87 6a3f 0e7d 503f 5b90 453f cfc8 4b3f
00000040: 9da1 353f 9731 663f 25f8 643f f7a5 5e3f
00000050: dd5c 573f 9bd4 1f3f bc43 4f3f 1f56 563f
00000060: 6041 6f3f 516f 4f3f 8447 2f3f 1f8f ff3f
00000070: 3912 643f 94f5 4d3f a628 5e3f c91b 443f

fc.weight f4 [1, 1152]
0.025325647 0.002313499 0.024628554 0.036745414 0.058449242 0.012588458 -0.01699671 0.01067139
0.11927633 0.035524007 0.041304804 0.023757776 -0.008398133 0.07908454 0.102532685 -0.025527671
0.016157398 -0.0099489745 -0.019165216 0.09636435 0.031353015 -0.039223254 -0.025293952 -0.016122658
0.0030573013 0.070461325 0.09359794 -0.0073094587 -0.007886464 -0.012043223 0.039501257 0.009712402
0.023780407 0.028278433 -0.020471396 -0.028094176 -0.0106174685 0.033290833 0.06937601 0.01411873
0.031723227 0.026209075 -0.007628082 0.024261799 -0.029701155 -0.05640748 -0.0169954 0.043537937
0.037007596 -0.0082377605 -0.092522204 -0.057752617 -0.017751647 0.05127105 0.014155768 0.0321404
-0.08790006 -0.031036548 -0.021854037 0.03549654 -0.055756163 0.052015282 0.09729505 0.08414311
0.018389035 0.003527003 -0.004437038 -0.027882483 -0.015377403 0.00087874924 0.0043249577 0.004255181
0.013546433 0.008694553 -0.012666151 -0.010293923 0.012888117 0.003512423 0.017191391 -0.040837996
-0.06383796 -0.02076801 0.014546845 0.021227838 0.025626022 -0.03061854 -0.12518142 -0.08441888
0.037760157 0.015242221 0.02860658 -0.034688428 -0.10257984 -0.10567403 -0.019005062 0.0038477988
-0.056049995 -0.09147739 -0.10552045 -0.09275079 -0.039490916 0.006112019 -0.0023009558 -0.055550616
-0.078645244 -0.07614265 -0.051051583 0.0020044746 0.0143934935 0.033531092 0.07602028 0.072036795
0.026878754 -0.00073736487 0.054440413 0.025660155 0.046325944 0.057903085 0.020272134 -0.0030550826
0.060869604 0.06053962 0.13366884 0.11987525 0.0009043929 0.015472479 0.05418627 0.056069385
0.08289398 0.08811864 0.030057939 0.024925832 0.015011276 0.05471465 0.055242408 0.05851752
0.045517053 0.034217715 0.002846903 0.041387547 -0.0012380069 0.027213136 0.037538882 0.025956254
-0.008083389 -0.0015251131 -0.014783234 -0.011987728 -0.009342596 0.0112357 0.010954973 0.013097989
-0.031131377 -0.04594052 -0.04898737 0.0006435721 -0.00802194 0.007032848 -0.05617011 -0.10934785
-0.094290875 -0.021360893 -0.012262897 -0.013874915 -0.10215896 -0.12614675 -0.12683024 -0.04171163
-0.019127158 0.0064937314 -0.107579894 -0.09081448 -0.09715645 -0.013883782 -6.5314703e-06 0.03961414
-0.038760323 -0.08072531 -0.057307325 0.0007920205 -0.042322192 0.0070280647 -0.008188006 0.027072117
-0.000117508585 0.036497444 -0.022780659 -0.042511415 0.012187149 0.035408698 0.04313123 0.0104294
-0.010651371 -0.052080087 0.025838733 -0.0152788125 0.013852085 -0.034619663 0.052012533 0.072579555
0.056360625 -0.046252962 -0.02419452 -0.017710581 0.015462519 0.07996663 0.1076593 0.08486118
0.079668656 0.017809277 -0.0013287636 -0.02212887 0.016001899 0.06527999 -0.02439773 -0.063821234
0.016221534 0.022535797 -0.0417973 -0.0013752733 0.02230736 -0.019327102 0.048075743 0.019949295
-0.052428294 -0.0084619 0.029121898 -0.016996289 0.026231028 0.09246387 0.039899416 0.0036979786
0.026184192 -0.040381808 -0.02941871 0.07813444 0.0984803 -0.0051797964 -0.0013567904 -0.02435948
-0.015717944 0.014438015 0.07857749 0.07330427 0.0701429 0.010096557 0.016924573 -0.015219809
0.0071699154 0.06799003 0.04479799 -0.029059716 -0.0021445216 -0.026536193 -0.08325731 -0.054632135
00000000: bb77 cf3c 139e 173b d2c1 c93c 5c82 163d
00000010: 7968 6f3d d23f 4e3c af3c 8bbc 0ed7 2e3c
00000020: 2647 f43d 9f81 113d 3a2f 293d ab9f c23c
00000030: 5398 09bc 13f7 a13d a8fc d13d 681f d1bc
00000040: 855c 843c 0601 23bc 5f00 9dbc ac5a c53d
00000050: 056c 003d 90a8 20bd 4335 cfbc aa13 84bc
00000060: 015d 483b 074e 903d 47b0 bf3d 2f84 efbb
00000070: 3a36 01bc f050 45bc 12cc 213d c420 1f3c
00000080: 21cf c23c 2ca8 e73c a1b3 a7bc c225 e6bc
00000090: e4f4 2dbc f85b 083d 0215 8e3d 3f52 673c
000000a0: 37f0 013d 6ab4 d63c fdf4 f9bb aec0 c63c
000000b0: d64f f3bc 880b 67bd f039 8bbc d654 323d
000000c0: 4795 173d acf7 06bc 487c bdbd 028e 6cbd
000000d0: e76b 91bc 9801 523d 98ed 673c a7a5 033d
000000e0: f204 b4bd 5c40 febc 3d07 b3bc d264 113d
000000f0: 9360 64bd fa0d 553d a142 c73d 3953 ac3d
00000100: 9aa4 963c 4b25 673b 9364 91bb ce69 e4bc
00000110: 81f1 7bbc dd5b 663a 60b8 8d3b 0c6f 8b3b
00000120: dcf1 5d3c 9973 0e3c b085 4fbc d8a7 28bc
00000130: ae28 533c ae30 663b f6d4 8c3c be45 27bd
00000140: 7abd 82bd ac21 aabc e455 6e3c 01e6 ad3c
00000150: aaed d13c bbd3 fabc 8f2f 00be cee3 acbd
00000160: 65aa 1a3d 82ba 793c 5958 ea3c 7415 0ebd
00000170: 6115 d2bd a06b d8bd 81b0 9bbc 5a2b 7c3b
00000180: ae94 65bd 7f58 bbbd 1b1b d8bd 20f4 bdbd
00000190: 3ac1 21bd 5547 c83b a2cb 16bb 0b89 63bd
000001a0: c210 a1bd adf0 9bbd 771b 51bd 815d 033b
000001b0: b0d2 6b3c e657 093d 85b0 9b3d 0788 933d
000001c0: d530 dc3c b84b 41ba e9fc 5e3d 3f35 d23c
000001d0: 46c0 3d3d c92b 6d3d bf11 a63c c837 48bb
000001e0: 6852 793d 65f8 773d 7ce0 083e 2881 f53d
000001f0: c814 6d3a 4880 7d3c 6cf2 5d3d 03a9 653d
00000200: 52c4 a93d 8c77 b43d 113c f63c 4231 cc3c
00000210: dbf1 753c 781c 603d dd45 623d 11b0 6f3d
00000220: 1770 3a3d e027 0c3d 1b93 3a3b fd85 293d
00000230: 9e44 a2ba 15ee de3c 5fc2 193d 36a2 d43c
00000240: 3170 04bc 4ee6 c7ba 6135 72bc 2d68 44bc
00000250: b011 19bc f115 383c 7d7c 333c f398 563c
00000260: 3b07 ffbc 202c 3cbd fba6 48bd 64b5 283a
00000270: 746e 03bc ce73 e63b a112 66bd c4f1 dfbd
00000280: 931b c1bd 0afd aebc 51ea 48bc 9d53 63bc
00000290: b838 d1bd 9d2c 01be c9df 01be d0d9 2abd
000002a0: 8fb0 9cbc 5ec9 d43b d952 dcbd f1fc b9bd
000002b0: f6f9 c6bd cd78 63bc e728 dbb6 7042 223d
000002c0: 25c3 1ebd 5053 a5bd 16bb 6abd 999f 4f3a
000002d0: 095a 2dbd ae4b e63b fc26 06bc 58c6 dd3c
000002e0: f16e f6b8 587e 153d 819e babc 7320 2ebd
000002f0: 9cac 473c b608 113d 5faa 303d 13e0 2a3c
00000300: 1783 2ebc ee51 55bd c0ab d33c fc53 7abc
00000310: dbf3 623c 59cd 0dbd 180b 553d 97a4 943d
00000320: 66da 663d bf73 3dbd 9633 c6bc c815 91bc
00000330: 8156 7d3c 8bc5 a33d 7b7c dc3d b3cb ad3d
00000340: 5229 a33d c3e4 913c e829 aeba 9b47 b5bc
00000350: 6a16 833c 84b1 853d c0dd c7bc b5b4 82bd
00000360: 06e3 843c fe9c b83c a533 2bbd 8442 b4ba
00000370: edbd b63c df53 9ebc 12eb 443d b46c a33c
00000380: 0dbf 56bd c8a3 0abc 0c91 ee3c cd3b 8bbc
00000390: 74e2 d63c b35d bd3d 926d 233d c959 723b
000003a0: 3b80 d63c 6567 25bd 82ff f0bc f304 a03d
000003b0: 0ab0 c93d 48bb a9bb 55d6 b1ba 888d c7bc
000003c0: ebc2 80bc 6d8d 6c3c 3ced a03d 8d20 963d
000003d0: 15a7 8f3d 086c 253c 67a5 8a3c 815c 79bc
000003e0: 9cf1 ea3b 5b3e 8b3d 197e 373d a40e eebc
000003f0: 1a8b 0cbb 6e62 d9bc cf82 aabd f2c5 5fbd
