data/chkbox_models/chkbox_rnd9_4_bestVal.pt (torch_old, 35085 bytes, 25 tensors)

layer1.0.weight f4 [4, 1, 3, 3]
0.3070615 0.048635986 -0.05611048 -0.15529506 -0.10180713 0.372801 0.11769299 -0.06661925
-0.045550976 -0.2026487 0.14687985 0.2414447 0.19587244 -0.037019704 0.3594038 -0.028212259
-0.28215963 0.021606252 -0.14861993 -0.023704432 0.19204865 0.20437315 0.27176905 0.3454818
-0.26205906 0.17543519 0.3373965 0.2585062 -0.23137768 0.1671936 -0.14603476 0.035380524
0.18736725 0.0024233793 -0.34286767 -0.05072758
00000000: 2a37 9d3e 8736 473d 1ad4 65bd ab05 1fbe
00000010: 4280 d0bd c6df be3e 0609 f13d ac6f 88bd
00000020: a993 3abd 2483 4fbe ac67 163e 483d 773e
00000030: c992 483e f9a1 17bd c603 b83e 651d e7bc
00000040: 3a77 90be 98ff b03c d32f 18be cc2f c2bc
00000050: 67a8 443e 3247 513e 5025 8b3e fee2 b03e
00000060: 9b2c 86be 48a5 333e 3cbf ac3e ed5a 843e
00000070: 45ee 6cbe cd34 2b3e 238a 15be 2beb 103d
00000080: 33dd 3f3e 8fd1 1e3b 5a8c afbe b9c7 4fbd

layer1.0.bias f4 [4]
-0.3163754 -0.18652757 -0.17143124 0.31172854
00000000: f5fb a1be 1501 3fbe ac8b 2fbe e29a 9f3e

layer1.1.weight f4 [4]
1.032855 1.0329531 1.0099055 0.9006272
00000000: 9834 843f cf37 843f 9544 813f 818f 663f

layer1.1.bias f4 [4]
-0.025523992 0.010929795 0.006032176 0.08258465
00000000: b117 d1bc e212 333c 8fa9 c53b 2422 a93d

layer1.1.running_mean f4 [4]
0.066027015 0.19437455 0.8309938 0.19900525
00000000: 2c39 873d 1f0a 473e 02bc 543f 08c8 4b3e

layer1.1.running_var f4 [4]
0.17634861 0.2254214 1.2598544 0.056678
00000000: bb94 343e ded4 663e e942 a13f 3127 683d

layer2.0.weight f4 [8, 4, 3, 3]
-0.028041633 -0.060082257 -0.056560427 0.18098998 0.07686626 0.122292705 0.10777917 0.15333451
0.17420931 -0.09661405 -6.809924e-05 0.11909726 0.047945563 0.14386754 -0.04247609 0.09501661
0.13397384 0.15535884 0.04479806 0.12874222 0.070646994 -0.13634764 0.09014446 0.18920293
-0.02243727 -0.05128955 0.0031507788 0.067997724 0.019303566 0.10480913 0.052268375 -0.034588467
-0.03628481 -0.15532869 -0.121948026 -0.10518252 -0.16662332 -0.010032576 0.14423108 -0.11470865
-0.08974287 -0.053104185 0.13350827 -0.03915774 0.0792296 -0.10324562 -0.047121868 0.080685124
-0.04476783 -0.020362495 0.13052896 0.12116941 -0.13215736 -0.16054913 0.045355294 0.12723182
0.16975848 -0.049633212 -0.018913075 -0.11380708 0.13949975 0.054579377 -0.081038155 -0.010799477
-0.07259743 -0.057936393 -0.14961497 -0.0041080494 -0.035137758 -0.102101564 -0.0085869385 0.15002929
-0.021483848 -0.06843928 0.01838615 0.03678138 -0.16024296 0.07475265 -0.13577424 -0.051664636
-0.14318992 -0.017388716 0.15805438 -0.11688082 -0.049853668 0.006231402 0.024469595 -0.08850828
-0.08719346 -0.0010075485 -0.0737004 0.14146547 -0.011839016 0.02533741 -0.08432687 0.15271264
0.052506935 -0.06910091 -0.15068974 0.08828633 0.12523802 0.081092365 -0.0013375196 -0.110151075
0.011319143 -0.060155615 0.059954867 0.1347674 -0.14836906 0.110522985 0.006683102 -0.19076778
0.072803095 0.0037978357 0.09053987 0.07332175 -0.17716838 0.13199006 0.176539 0.13481125
-0.056683943 -0.12788142 0.147453 -0.042105425 0.0042028488 0.015235274 0.07346328 -0.035197787
0.068738975 -0.059589766 0.11901597 -0.07305475 0.017227309 -0.0904051 0.1073309 -0.031021614
0.039915677 0.099284284 -0.028986681 0.12315206 0.101939075 0.15345266 0.09510539 0.04961619
-0.18324101 0.105265744 -0.006187982 -0.005421834 -0.066250734 -0.09748009 -0.0119632995 0.17743574
-0.06034936 -0.1216543 0.072554655 0.0065393983 0.03412919 0.1089413 0.02131214 0.037001606
0.024927575 -0.018348023 -0.08164819 -0.12629801 -0.028632931 -0.14381528 0.110524595 0.039682176
-0.08154227 0.024453059 0.20619017 -0.069678575 0.056589883 -0.058370568 0.120471835 -0.05646194
-0.022883363 -0.037193216 -0.095243804 -0.038255118 0.09955974 0.029693456 0.047036782 0.13770571
-0.03505846 0.15642339 0.17919445 0.10502587 0.17893593 0.14668156 -0.122048676 -0.14017543
0.11329153 0.1504971 -0.025087502 0.014619744 0.14735353 0.050960183 -0.008218284 -0.1323751
0.07133001 -0.01155806 0.03499306 0.07966135 0.049320698 -0.10800832 -0.013997962 -0.03280433
-0.12543224 0.04997464 -0.16106555 -0.06974577 0.07805491 0.07913601 -0.0781706 0.073986694
-0.2004094 0.10541329 0.06929534 -0.08769044 0.11194881 -0.14323708 -0.13194644 -0.08270624
-0.14917631 -0.17470637 -0.11238322 0.084830105 0.02466256 -0.13601838 -0.16919614 -0.0126208635
-0.13273291 0.08172922 -0.052633327 0.060129516 0.1491513 0.113434575 0.07448701 -0.07476163
-0.05129132 0.06539611 0.0039574667 -0.04503623 0.10833861 -0.0209479 0.12604995 -0.08866394
0.05641715 -0.038475897 -0.17893045 0.0567963 -0.06277067 0.1299618 0.0017769368 -0.03621109
00000000: 91b7 e5bc d018 76bd e8ab 67bd 7055 393e
00000010: 0f6c 9d3d 9974 fa3d 53bb dc3d b903 1d3e
00000020: ed63 323e 96dd c5bd 80d0 8eb8 44e9 f33d
00000030: 9162 443d 0352 133e 69fb 2dbd 1298 c23d
00000040: 7030 093e 6316 1f3e 2c7e 373d 00d5 033e
00000050: 5faf 903d b79e 0bbe a99d b83d 6abe 413e
00000060: 5ece b7bc fe14 52bd 4c7d 4e3b 6442 8b3d
00000070: 8322 9e3c 2ba6 d63d 5d17 563d a3ac 0dbd
00000080: 629f 14bd 7c0e 1fbe e3bf f9bd ef69 d7bd
00000090: 4e9f 2abe ac5f 24bc 50b1 133e 5eec eabd
000000a0: 1ccb b7bd c683 59bd 64b6 083e de63 20bd
000000b0: 2143 a23d 7172 d3bd dc02 41bd 3e3e a53d
000000c0: 795e 37bd 3fcf a6bc 62a9 053e ab27 f83d
000000d0: 4254 07be fe66 24be 79c6 393d 0f49 023e
000000e0: 2bd5 2d3e 324c 4bbd 98ef 9abc b013 e9bd
000000f0: 06d9 0e3e a08e 5f3d 55f7 a5bd 4af0 30bc
00000100: f6ad 94bd b64e 6dbd ab34 19be d19c 86bb
00000110: 9cec 0fbd a01a d1bd 3bb0 0cbc 47a1 193e
00000120: e5fe afbc e529 8cbd 8d9e 963c 13a8 163d
00000130: bb16 24be eb17 993d 6708 0bbe 4c9e 53bd
00000140: 61a0 12be c872 8ebc 02d9 213e 365f efbd
00000150: 5c33 4cbd ca30 cc3b 7674 c83c d443 b5bd
00000160: 7c92 b2bd b80f 84ba 3cf0 96bd 53dc 103e
00000170: 6ff8 41bc 6690 cf3c 91b3 acbd b460 1c3e
00000180: 8311 573d c784 8dbd 694e 1abe 77cf b43d
00000190: 653e 003e c113 a63d b64f afba e396 e1bd
000001a0: ed73 393c bc65 76bd 3c93 753d 7700 0a3e
000001b0: 0fee 17be e059 e23d ecfd da3b a158 43be
000001c0: ca19 953d 1ce5 783b f86c b93d b729 963d
000001d0: a16b 35be 6728 073e a4c6 343e f60b 0a3e
000001e0: 6c2d 68bd 59f3 02be ebfd 163e bd76 2cbd
000001f0: 0db8 893b 5f9d 793c eb73 963d 8e2b 10bd
00000200: 05c7 8c3d 6614 74bd a5be f33d bb9d 95bd
00000210: 4920 8d3c 4f26 b9bd 4ed0 db3d 0a21 febc
00000220: 9f7e 233d 8f55 cb3d 7a75 edbc 2637 fc3d
00000230: 6fc5 d03d b222 1d3e 9dc6 c23d 593a 4b3d
00000240: 88a3 3bbe 9195 d73d 8ec4 cabb a4a9 b1bb
00000250: 77ae 87bd a4a3 c7bd b701 44bc b7b1 353e
00000260: e430 77bd e425 f9bd 8997 943d 7348 d63b
00000270: 0dcb 0b3d 9e1c df3d cc96 ae3c ff8e 173d
00000280: ea34 cc3c 984e 96bc 2b37 a7bd 4454 01be
00000290: 9c8f eabc 5044 13be b85a e23d c789 223d
000002a0: a2ff a6bd c851 c83c 8423 533e a4b3 8ebd
000002b0: cbca 673d fa15 6fbd f0b9 f63d a344 67bd
000002c0: e475 bbbc ea57 18bd 2f0f c3bd 66b1 1cbd
000002d0: fae5 cb3d b13f f33c a4a9 403d ba02 0d3e
000002e0: 7699 0fbd 742d 203e c07e 373e ce17 d73d
000002f0: fb3a 373e b133 163e a8f4 f9bd 268a 0fbe
00000300: 6405 e83d e91b 1a3e 4e84 cdbc a787 6f3c
00000310: d8e3 163e a0bb 503d fba5 06bc 578d 07be
00000320: 7815 923d 045e 3dbc e254 0f3d 7d25 a33d
00000330: 8004 4a3d 7733 ddbd b557 65bc d55d 06bd
00000340: 4f71 00be 35b2 4c3d 5eee 24be dfd6 8ebd
00000350: 41db 9f3d 0f12 a23d e817 a0bd 5686 973d
00000360: 1f38 4dbe ece2 d73d b7ea 8d3d 0c97 b3bd
00000370: 6b45 e53d beac 12be f81c 07be e461 a9bd
00000380: adc1 18be 3ae6 32be 2c29 e6bd 68bb ad3d
00000390: 2309 ca3c 6748 0bbe c141 2dbe bdc7 4ebc
000003a0: 23eb 07be a661 a73d 0b96 57bd 5e4a 763d
000003b0: 1ebb 183e 6350 e83d a58c 983d a01c 99bd
000003c0: d916 52bd 65ee 853d a3ad 813b e977 38bd
000003d0: a2e0 dd3d ee9a abbc 3d13 013e 7195 b5bd
000003e0: ab15 673d e798 1dbd 8b39 37be 3da3 683d
000003f0: e98d 80bd b514 053e 1be8 e83a 1452 14bd

layer2.0.bias f4 [8]
0.15514982 -0.02856242 0.070675775 -0.013992644 0.11307177 -0.08669571 -0.027215758 0.1528039
00000000: 98df 1e3e bcfb e9bc 76be 903d 6741 65bc
00000010: 2c92 e73d 858d b1bd 95f3 debc a078 1c3e

layer2.1.weight f4 [8]
0.9975306 1.0590365 0.9653276 0.9833961 1.040283 0.96782976 0.9733839 1.0033149
00000000: 2a5e 7f3f 828e 873f b61f 773f d9bf 7b3f
00000010: fe27 853f b1c3 773f b02f 793f 9f6c 803f

layer2.1.bias f4 [8]
-0.0059013725 -0.021168841 -0.03262779 0.02322725 -0.08446141 0.007105364 0.0020476151 -0.052741364
00000000: 4d60 c1bb 476a adbc b8a4 05bd 1347 be3c
00000010: 1bfa acbd 1dd4 e83b 4831 063b 5407 58bd

layer2.1.running_mean f4 [8]
0.8686844 -0.20698705 -0.109742776 0.49602598 -0.018702699 0.45886266 -0.4694596 0.16128002
00000000: 1a62 5e3f 6af4 53be d2c0 e0bd 1ef7 fd3e
00000010: 6736 99bc 0cf0 ea3e 025d f0be 9726 253e

layer2.1.running_var f4 [8]
1.1606925 0.06826891 0.2895058 0.22038656 0.103573196 0.8260298 0.31297156 0.066175185
00000000: 9291 943f 92d0 8b3d 1b3a 943e 04ad 613e
00000010: 2f1e d43d b076 533f cf3d a03e db86 873d

layer3.0.weight f4 [16, 8, 3, 3]
0.08395119 0.0100218775 -0.08339059 -0.034024756 -0.10913354 -0.014316584 -0.02537174 -0.007529852
-0.011356704 -0.11623159 -0.09073513 -0.1141047 -0.057403993 -0.063717075 -0.01652497 0.063484795
-0.10306956 -0.016367918 0.100595504 0.006640022 0.039670262 -0.07959529 0.020583674 -0.046767607
0.06677893 -0.058322452 -0.018495603 0.13073504 -0.077186145 0.013829988 -0.029326525 -0.059762426
0.05310197 0.052897498 0.019380985 -0.011826354 0.024108343 -0.058450334 0.0123083405 -0.010769176
0.06442038 0.08410592 -0.10424428 -0.06398562 -0.1013807 0.10410813 -0.0010626385 0.014734043
0.053214055 -0.11855436 -0.06414221 -0.0359904 -0.03960704 -0.11819285 0.04098899 -0.04899317
0.004561302 -0.08992422 0.021234581 -0.006073321 -0.06071398 0.028477984 0.059725467 -0.017887019
-0.09255133 0.09347156 -0.11918495 0.0567093 -0.063980445 -0.029905666 0.038135454 -0.042222578
-0.019883996 -0.07502846 0.11380634 -0.016834125 -0.035857428 0.026897466 0.049942736 -0.040429454
-0.07880919 -0.12395932 -0.10980395 -0.08541459 -0.07442238 -0.019013012 -0.091671705 -0.05203023
0.047031797 -0.059940558 0.025751479 0.051367927 0.12578644 -0.011640216 0.029724492 -0.12340818
0.04318576 0.009839139 -0.037683852 0.06741738 0.055323675 -0.01565209 0.066679105 -0.08938057
0.008240704 0.025620641 -0.10233947 -0.04506411 0.09484391 0.08543435 -0.011346392 0.1324541
-0.016503142 0.029090764 0.0062902076 -0.096497916 -0.069187574 0.035501305 -0.052604742 -0.039194703
0.0068767485 0.06517775 -0.051138442 -0.08607026 0.016876865 0.073333316 -0.03636237 0.037935607
-0.0054028123 0.06429376 -0.060724303 -0.06825198 0.056786094 0.10716456 0.046508186 0.083247125
0.0010481526 -0.008674182 -0.0009563688 -0.047753245 0.08573714 -0.01572044 -0.102896854 -0.06957157
0.011416748 -0.087791346 -0.07377986 -0.020983776 0.1170126 -0.060592353 -0.06903797 0.11067851
-0.08624499 0.054522846 -0.02168958 -0.060138714 -0.035782065 0.039755926 0.10971842 -0.054501995
-0.025088342 0.10915163 0.093513906 0.11307803 0.08842099 -0.056231044 0.015590848 -0.06644271
-0.027808331 -0.04791647 -0.05630628 -0.0093844775 -0.044155564 -0.10943888 0.09346202 0.108236544
0.06998501 -0.084639095 0.10974154 0.084694356 -0.004492202 0.15626404 -0.08763839 -0.10576319
0.14882113 0.08084257 0.066187486 -0.009535184 -0.07616474 -0.04709016 -0.017814208 0.06687958
0.05887826 0.002222827 0.03968937 -0.071496546 -0.04862561 -0.04171538 0.07842856 0.0005320282
0.12798966 0.04011707 -0.060731605 0.0137896715 -0.078011915 -0.043657016 0.11205878 -0.01313413
-0.02304004 0.045522753 0.0180434 0.061609544 0.037305746 -0.021447988 0.06808588 -0.094566226
-0.0078057037 0.00026906945 -0.070558414 0.0026362534 -0.03807915 -0.00683856 0.12116378 -0.08471115
0.014584917 0.0034370306 -0.07072255 -0.05243781 0.12579505 0.024879545 -0.0863245 -0.074397996
-0.08562477 -0.11300525 -0.08593399 0.029101096 0.06495771 -0.041799657 -0.111527435 0.049421836
0.019826243 0.029291054 -0.0514185 0.090433545 0.1066725 -0.020945456 0.061816577 -0.08772185
-0.018059818 -0.055578496 0.063319884 0.06882799 0.08196855 0.00027067092 0.06497835 0.02449445
00000000: 9aee ab3d cd32 243c b0c8 aabd 8b5d 0bbd
00000010: 6881 dfbd 1b90 6abc 65d8 cfbc fabc f6bb
00000020: 7811 3abc d40a eebd 57d3 b9bd baaf e9bd
00000030: 7320 6bbd 197e 82bd 605f 87bc 5104 823d
00000040: 2216 d3bd 0316 86bc 0405 ce3d 8b94 d93b
00000050: 497d 223d db02 a3bd 189f a83c 648f 3fbd
00000060: 64c3 883d 86e3 6ebd 1784 97bc 68df 053e
00000070: c513 9ebd 2d97 623c 2e3e f0bc 72c9 74bd
00000080: 7481 593d 0cab 583d dfc4 9e3c 53c3 41bc
00000090: dc7e c53c 9e69 6fbd eca8 493c 3371 30bc
000000a0: d5ee 833d b93f ac3d 067e d5bd e50a 83bd
000000b0: afa0 cfbd a536 d53d 3b48 8bba 0e67 713c
000000c0: fbf6 593d a1cc f2bd fe5c 83bd ab6a 13bd
000000d0: fe3a 22bd 180f f2bd 12e4 273d 10ad 48bd
000000e0: f976 953b 312a b8bd 25f4 ad3c b602 c7bb
000000f0: 39af 78bd a94a e93c b1a2 743d cc87 92bc
00000100: 8d8b bdbd 046e bf3d 3d17 f4bd 0348 683d
00000110: 2e08 83bd bafc f4bc ec33 1c3d 95f1 2cbd
00000120: c3e3 a2bc 85a8 99bd 4c13 e93d b8e7 89bc
00000130: 3ddf 12bd 1358 dc3c c190 4c3d 5b99 25bd
00000140: b666 a1bd 62de fdbd e5e0 e0bd d8ed aebd
00000150: c36a 98bd 2dc1 9bbc 60be bbbd a71d 55bd
00000160: 6aa4 403d 3b84 75bd c4f4 d23c 2d67 523d
00000170: 29ce 003e 9bb6 3ebc c780 f33c 6ebd fcbd
00000180: 8de3 303d 5734 213c 625a 1abd 2012 8a3d
00000190: 149b 623d d038 80bc 0e8f 883d 290d b7bd
000001a0: 0504 073c 61e2 d13c 5b97 d1bd 2595 38bd
000001b0: 863d c23d 34f8 ae3d 38e6 39bc 0ca2 073e
000001c0: 9931 87bc c14f ee3c 161e ce3b b3a0 c5bd
000001d0: 37b2 8dbd d169 113d 1278 57bd a08a 20bd
000001e0: 5956 e13b ea7b 853d 8b76 51bd 9b45 b0bd
000001f0: 5a41 8a3c c72f 963d b5f0 14bd 5e62 1b3d
00000200: 130a b1bb 72ac 833d 0cba 78bd b2c7 8bbd
00000210: 8998 683d 1879 db3d 5e7f 3e3d 787d aa3d
00000220: 2a62 893a 281e 0ebc d3b4 7aba e898 43bd
00000230: f496 af3d 27c8 80bc 96bb d2bd 8a7b 8ebd
00000240: 500d 3b3c f3cb b3bd e519 97bd 2be6 abbc
00000250: 4da4 ef3d b02f 78bd c763 8dbd 6aab e23d
00000260: 37a1 b0bd 5953 5f3d 59ae b1bc 0354 76bd
00000270: 3790 12bd 1cd7 223d 0db4 e03d 7c3d 5fbd
00000280: 1186 cdbc e48a df3d 3884 bf3d 7495 e73d
00000290: 1016 b53d 8652 66bd c270 7f3c 1e13 88bd
000002a0: 4cce e3bc 0f44 44bd 6aa1 66bd 5ac1 19bc
000002b0: 77dc 34bd 7e21 e0bd 0469 bf3d 1fab dd3d
000002c0: 4d54 8f3d 4357 adbd 2cc0 e03d 3c74 ad3d
000002d0: 5233 93bb ae03 203e c27b b3bd 5f9a d8bd
000002e0: 9164 183e ca90 a53d 4e8d 873d 7639 1cbc
000002f0: 42fc 9bbd 9de1 40bd 1aef 91bc 29f8 883d
00000300: 552a 713d d9ac 113b 5291 223d c86c 92bd
00000310: a62b 47bd bfdd 2abd 279f a03d cf77 0b3a
00000320: b90f 033e cc51 243d b4c1 78bd 13ee 613c
00000330: b6c4 9fbd b3d1 32bd 137f e53d 8930 57bc
00000340: 77be bcbc 1176 3a3d c1cf 933c 4a5a 7c3d
00000350: e9cd 183d b1b3 afbc 9c70 8b3d f0ab c1bd
00000360: fdc6 ffbb e411 8d39 ee80 90bd fec4 2c3b
00000370: e2f8 1bbd 0016 e0bb b724 f83d 0a7d adbd
00000380: 93f5 6e3c ce3f 613b fcd6 90bd 07c9 56bd
00000390: 6bd0 003e 30d0 cb3c e6ca b0bd fa5d 98bd
000003a0: 0a5c afbd 4c6f e7bd 29fe afbd 6c65 ee3c
000003b0: 8c08 853d 1e36 2bbd 7f68 e4bd 8d6e 4a3d
000003c0: a56a a23c cbf3 ef3c 349c 52bd 3935 b93d
000003d0: 1d77 da3d ce95 abbc 6133 7d3d 83a7 b3bd
000003e0: 2ff2 93bc 47a6 63bd dbad 813d b0f5 8c3d
000003f0: 21df a73d d6e8 8d39 5f13 853d 96a8 c83c

layer3.0.bias f4 [16]
0.11010549 -0.026411152 0.004493474 0.016331146 -0.101146534 0.02363599 0.09374037 -0.009092627
0.07728943 -0.0064707706 -0.036281478 -0.031136876 0.112487026 -0.10552875 0.064774305 -0.043541558
00000000: fd7e e13d 335c d8bc fe3d 933b e5c8 853c
00000010: ea25 cfbd 44a0 c13c f3fa bf3d 3ef9 14bc
00000020: ec49 9e3d c208 d4bb e39b 14bd c312 ffbc
00000030: 995f e63d 751f d8bd 64a8 843d a258 32bd

layer3.1.weight f4 [16]
0.99929523 1.0681783 0.95510787 1.012702 0.9704529 1.003462 1.002224 1.029868
0.992275 0.9954745 0.98401123 1.0068216 0.950413 1.0036883 0.9902022 0.9964559
00000000: d0d1 7f3f 11ba 883f f381 743f 38a0 813f
00000010: 9a6f 783f 7171 803f e048 803f b7d2 833f
00000020: bc05 7e3f 6bd7 7e3f 29e8 7b3f 88df 803f
00000030: 444e 733f dc78 803f e47d 7d3f bc17 7f3f

layer3.1.bias f4 [16]
-0.013396139 0.020767434 -0.10750115 -0.020721423 -0.09376424 -0.12694035 -0.13701522 -0.15518099
-0.11762852 -0.010655515 -0.038309846 -0.026593275 -0.12910944 -0.08374003 -0.09985961 -0.07442295
00000000: 7b7b 5bbc 7720 aa3c 9029 dcbd f9bf a9bc
00000010: 7707 c0bd a7fc 01be b84d 0cbe c4e7 1ebe
00000020: 39e7 f0bd 7894 2ebc c9ea 1cbd 24da d9bc
00000030: 4435 04be e57f abbd 3283 ccbd 0f6b 98bd

layer3.1.running_mean f4 [16]
-0.57174367 -0.29355583 0.32097614 -0.34829804 0.50622535 0.031317018 0.28374967 0.26491338
0.44219393 -0.43526345 -0.46038705 -0.34874207 0.27978134 0.38636938 0.4161788 -0.25725222
00000000: cb5d 12bf f34c 96be fc56 a43e 1f54 b2be
00000010: fc97 013f 4646 003d a347 913e baa2 873e
00000020: 3e67 e23e dada debe dab7 ebbe 528e b2be
00000030: 803f 8f3e 35d2 c53e 6315 d53e 90b6 83be

layer3.1.running_var f4 [16]
0.38980132 0.16448022 0.20940007 0.17133841 0.1200065 0.092175536 0.122539245 0.13059382
0.12145542 0.25530615 0.19729018 0.2361942 0.16610248 0.14309904 0.16474155 0.13089703
00000000: 0a94 c73e 816d 283e f96c 563e 5673 2f3e
00000010: f8c5 f53d 87c6 bc3d dbf5 fa3d 63ba 053e
00000020: 9fbd f83d 7db7 823e 7006 4a3e e4dc 713e
00000030: c516 2a3e 8e88 123e 02b2 283e df09 063e

layer4.0.weight f4 [32, 16, 3, 3]
-0.034945257 -0.0032131227 0.033008575 -0.017472863 0.01006831 0.09195051 -0.05467776 -0.013914283
-0.033407778 -0.025057957 0.031698488 -0.056483354 0.05993076 0.05675662 0.06607906 -0.06749096
-0.04613395 -0.020203128 -0.035586666 0.04249522 0.00093572476 -0.06410739 -0.007217997 -0.0015098576
0.05306682 0.008264708 -0.017771726 0.09604777 -0.08181055 -0.069660306 0.03492277 -0.009446341
0.035080116 -0.0039420077 -0.00529595 -0.07842535 -0.064443156 -0.04918046 0.0066663884 -0.06620802
-0.06254431 -0.06482935 -0.035525326 -0.0005124191 -0.07633775 -0.09009015 -0.011588829 -0.090049244
-0.031091811 -0.010324457 -0.057523683 0.017603323 -0.039708886 0.042135645 -0.0796399 0.04007992
-0.012678073 -0.12126925 0.019535009 -0.07721835 -0.100356035 -0.018574672 -0.06338064 -0.085032105
-0.025512155 -0.020683262 -0.0012425778 0.042867612 0.01712697 -0.05018229 -0.014271998 0.0044152457
-0.034293424 0.004612448 -0.07622281 0.0077378056 -0.020430211 -0.04686201 -0.09693173 -0.033843983
-0.09018203 0.038919985 -0.03005049 -0.048287604 -0.026259124 -0.08419681 0.0637426 -0.058028188
-0.09190404 -0.032009903 -0.026274398 0.023882871 -0.019788878 -0.035343025 -0.053514484 0.019982407
-0.055587716 0.041254707 -0.05849374 0.014870494 0.06678817 -0.06386955 -0.036360566 0.0076895906
-0.016386293 0.008121173 -0.039970435 -0.028081119 -0.013988917 -0.028717205 -0.026761655 0.044951286
-0.04223398 -0.0031741597 -0.059490424 0.040860116 0.033255354 -0.0276685 0.054939833 -0.0839097
0.00091275387 -0.012853841 -0.015604036 -0.100379005 -0.0037980406 -0.0132269915 -0.10176345 -0.011095604
0.022110725 -0.05935533 -0.094357535 -0.084486544 0.0068480982 -0.06464205 0.02659344 -0.095535316
-0.083644845 0.04545225 -0.035751723 -0.040918212 -0.0006892199 0.0358001 0.01428427 0.094346404
-0.030626887 0.08191572 0.006250116 -0.0061727893 -0.06294819 -0.051135127 -0.03648157 -0.028330147
-0.027570955 -0.007715131 0.09133962 0.08177743 -0.06088934 -0.06714412 -0.04712477 0.112745814
0.096777156 0.06745459 -0.06949297 -0.009114271 -0.06726266 0.08967828 0.08888375 -0.009054631
0.042420186 0.070712954 -0.013937984 0.0052505936 0.053908534 0.021759935 0.015316044 0.06337243
-0.057232793 0.06937351 0.09371162 0.034930058 -0.007493655 0.059654955 0.049823858 -0.03863255
0.010644235 -0.062353402 -0.036045603 -0.039222106 -0.06594697 -0.04631423 -0.034367085 -0.09584738
-0.03298192 -0.031310845 -0.009350467 0.06599632 -0.032952067 -0.011755256 -0.027459044 0.007562451
-0.067879826 -0.05910425 0.029069288 0.042832207 -0.02304922 -0.026769828 0.015324964 0.012125112
-0.050013386 0.0028666493 -0.048718426 -0.05942461 0.02264724 -0.022569967 0.025117423 -0.022406185
-0.09581862 -0.045867085 -0.009634071 -0.01607826 -0.025507916 0.03249364 0.008643289 0.04173332
-0.04150748 0.06648771 -0.031930357 -0.018516973 0.066561125 -0.050289627 -0.07858982 -0.043718796
0.04932167 0.021317419 -0.0029095667 -0.0297346 0.025479212 0.011318172 -0.09147992 0.0054256134
0.056947973 -0.051748175 0.026200937 -0.04300813 -0.01969312 -0.031937186 0.08238933 0.062992565
-0.057561588 0.02593908 0.046971574 -0.04335155 0.05707745 -0.032721438 -0.085047185 0.04241762
00000000: c222 0fbd 4193 52bb 0034 073d 4023 8fbc
00000010: 8ef5 243c 8d50 bc3d c9f5 5fbd bcf8 63bc
00000020: 98d6 08bd 5846 cdbc 46d6 013d 175b 67bd
00000030: f579 753d a179 683d 7554 873d b338 8abd
00000040: f4f6 3cbd 0881 a5bc 53c3 11bd 780f 2e3d
00000050: 6d4b 753a bc4a 83bd f384 ecbb 6ae6 c5ba
00000060: 985c 593d b368 073c 0396 91bc b1b4 c43d
00000070: 4a8c a7bd 10aa 8ebd 2e0b 0f3d d3c4 1abc
00000080: 2bb0 0f3d f52b 81bb a689 adbb 789d a0bd
00000090: c6fa 83bd 7371 49bd b871 da3b 1298 87bd
000000a0: 3b17 80bd 40c5 84bd 0183 11bd dd53 06ba
000000b0: f756 9cbd 2f81 b8bd 12df 3dbc bd6b b8bd
000000c0: 41b4 febc e927 29bc f49d 6bbd d834 903c
000000d0: c9a5 22bd 6d96 2c3d 3e1a a3bd d82a 243d
000000e0: b1b7 4fbc 035c f8bd e207 a03c a724 9ebd
000000f0: 7787 cdbd e929 98bc b5cd 81bd 5025 aebd
00000100: defe d0bc f26f a9bc fedd a2ba f395 2f3d
00000110: dc4d 8c3c f28b 4dbd 19d5 69bc c4ad 903b
00000120: 4377 0cbd 0524 973b b41a 9cbd 6b8d fd3b
00000130: 425d a7bc 61f2 3fbd 2584 c6bd fd9f 0abd
00000140: 5bb1 b8bd 906a 1f3d 722c f6bc 39c9 45bd
00000150: 601d d7bc 616f acbd 7b8b 823d f7ae 6dbd
00000160: 2f38 bcbd d11c 03bd 683d d7bc 03a6 c33c
00000170: 491c a2bc d9c3 10bd 0132 5bbd 25b2 a33c
00000180: f2af 63bd b2fa 283d 2297 6fbd 5fa3 733c
00000190: 3cc8 883d 0ace 82bd d1ee 14bd f6f8 fb3b
000001a0: 8c3c 86bc ab0e 053c 0ab8 23bd 600a e6bc
000001b0: c531 65bc 5840 ebbc 423b dbbc d71e 383d
000001c0: 8afd 2cbd 9005 50bb 3bac 73bd f05c 273d
000001d0: c436 083d 0da9 e2bc 9708 613d d9d8 abbd
000001e0: e045 6f3a eb98 52bc 12a8 7fbc 8293 cdbd
000001f0: 8ce8 78bb 06b6 58bc 5b69 d0bd 56ca 35bc
00000200: 8d21 b53c 931e 73bd 863e c1bd 4807 adbd
00000210: 0366 e03b 0d63 84bd 7cda d93c 05a8 c3bd
00000220: fd4d abbd 232c 3a3d 6670 12bd db99 27bd
00000230: c4ac 34ba 20a3 123d 9208 6a3c b038 c13d
00000240: 3de5 fabc 6ec3 a73d c6cd cc3b 1c45 cabb
00000250: fbea 80bd 1173 51bd b36d 15bd a014 e8bc
00000260: 7cdc e1bc 36cf fcbb 4410 bb3d ed7a a73d
00000270: 1a67 79bd db82 89bd e705 41bd 47e7 e63d
00000280: 1a33 c63d a225 8a3d 5552 8ebd 0654 15bc
00000290: 01c1 89bd 3fa9 b73d af08 b63d e059 14bc
000002a0: cac0 2d3d f4d1 903d 245c 64bc 2c0d ac3b
000002b0: 32cf 5c3d e441 b23c 25f0 7a3c 68c9 813d
000002c0: ef6c 6abd b313 8e3d e1eb bf3d d212 0f3d
000002d0: 568d f5bb c158 743d 1a14 4c3d 2a3d 1ebd
000002e0: 2865 2e3c 4866 7fbd 8ea4 13bd 5ca7 20bd
000002f0: 340f 87bd fdb3 3dbd 80c4 0cbd a24b c4bd
00000300: 0d18 07bd cd3f 00bd b332 19bc 1429 873d
00000310: bff8 06bd 1e99 40bc caf1 e0bc 70ce f73b
00000320: 9404 8bbd 4c17 72bd b722 ee3c d370 2f3d
00000330: b8d1 bcbc 664c dbbc 8f15 7b3c 68a8 463c
00000340: d6da 4cbd 65de 3b3b f98c 47bd 3867 73bd
00000350: b486 b93c a7e4 b8bc 0ec3 cd3c 2d8d b7bc
00000360: 8d3c c4bd 20df 3bbd 39d8 1dbc 8eb6 83bc
00000370: faf5 d0bc 0d18 053d 959c 0d3c 8ff0 2a3d
00000380: bf03 2abd b52a 883d 68c9 02bd e8b0 97bc
00000390: 3351 883d 7ffc 4dbd b3f3 a0bd 7b12 33bd
000003a0: 8505 4a3d dea1 ae3c 6eae 3ebb fa95 f3bc
000003b0: c8b9 d03c db6f 393c d359 bbbd 58c9 b13b
000003c0: 4742 693d e5f5 53bd 59a3 d63c 4b29 30bd
000003d0: 7753 a1bc 91d0 02bd bdbb a83d 3f02 813d
000003e0: b3c5 6bbd 327e d43c 4465 403d 6591 31bd
000003f0: 0bca 693d ea06 06bd 382d aebd 19be 2d3d

layer4.0.bias f4 [32]
-0.06940414 -0.009130704 -0.0002378918 0.036985964 0.07073594 -0.057198033 -0.037962075 0.06950891
-0.0688017 -0.053177066 -0.07247338 -0.011117944 -0.07508545 -0.06833954 -0.053479295 -0.07955471
-0.033949055 -0.01643956 -0.020996528 0.028048154 0.078770526 -0.081458926 -0.025628055 0.030547626
0.075583346 0.08121326 -0.06485351 0.011340888 -0.07226192 -0.05713221 -0.049342074 -0.045750365
00000000: c223 8ebd f398 15bc 9872 79b9 987e 173d
00000010: 01de 903d 7c48 6abd 1f7e 1bbd b05a 8e3d
00000020: e8e7 8cbd 32d0 59bd ec6c 94bd 0928 36bc
00000030: 67c6 99bd 9af5 8bbd 1b0d 5bbd 94ed a2bd
00000040: 2a0e 0bbd 42ac 86bc e900 acbc 3ec5 e53c
00000050: 7152 a13d f0d3 a6bd edf1 d1bc 043f fa3c
00000060: 71cb 9a3d 2353 a63d ebd1 84bd 22cf 393c
00000070: 0ffe 93bd 7703 6abd ea1a 4abd bc64 3bbd

layer4.1.weight f4 [32]
1.0526643 1.0450222 1.0882239 1.0890944 1.072309 1.0605416 1.09075 1.0759721
1.0820384 1.0863941 1.0846577 1.0601158 1.0803767 1.0785238 1.0576799 1.1009434
1.0827261 1.0690036 1.0298946 1.0741805 1.0970151 1.076204 1.0799226 1.0678538
1.0860183 1.0653415 1.0734407 1.0828756 1.0886432 1.0849185 1.0682063 1.0626326
00000000: b4bd 863f 4ac3 853f ec4a 8b3f 7267 8b3f
00000010: 6c41 893f d4bf 873f b29d 8b3f 74b9 893f
00000020: 3c80 8a3f f60e 8b3f 10d6 8a3f e0b1 873f
00000030: c949 8a3f 110d 8a3f 0e62 873f b7eb 8c3f
00000040: c596 8a3f 1cd5 883f 96d3 833f bf7e 893f
00000050: fe6a 8c3f 0dc1 893f e73a 8a3f 6faf 883f
00000060: a602 8b3f 1c5d 883f 8166 893f ab9b 8a3f
00000070: a958 8b3f 9cde 8a3f fcba 883f 5804 883f

layer4.1.bias f4 [32]
0.06584642 0.058789954 0.04647575 0.081786856 0.027494455 0.048399813 0.06276678 0.028408526
0.046859134 0.06485095 0.023481091 0.040374674 0.08518643 0.08161317 0.047090847 0.058279667
0.068960205 0.058951642 0.051983144 0.060086723 0.036009427 0.07283274 0.03920037 0.047828946
0.056874696 0.07971508 0.031601697 0.07095353 0.020656006 0.050232768 0.07940049 0.070669316
00000000: 7dda 863d bccd 703d 5b5d 3e3d de7f a73d
00000010: 0d3c e13c e23e 463d df8b 803d ffb8 e83c
00000020: 5def 3f3d 93d0 843d 6b5b c03c ea5f 253d
00000030: 3976 ae3d ce24 a73d 55e2 403d a9b6 6e3d
00000040: 023b 8d3d 4777 713d 47ec 543d 7f1d 763d
00000050: 9f7e 133d 5529 953d 9190 203d 49e8 433d
00000060: 71f5 683d a941 a33d c870 013d 1650 913d
00000070: c936 a93c e0c0 4d3d b99c a23d 13bb 903d

layer4.1.running_mean f4 [32]
-1.5254381 0.17292741 0.44334966 -2.16998 -0.23018959 0.87863094 0.10578713 0.043363497
-0.1611158 -0.012356993 -0.430402 0.31508443 -1.698624 -0.06143764 0.47724146 0.119524516
-0.0522136 0.4463194 -1.0008366 0.5116781 -0.48816848 0.3925996 0.027297007 -0.13121794
-0.24729544 -0.8657736 -0.12922932 0.3779015 -0.45573053 0.08560394 -1.1572173 0.16189359
00000000: 8e41 c3bf e213 313e bafe e23e f4e0 0ac0
00000010: d2b6 6bbe f5ed 603f eca6 d83d ec9d 313d
00000020: 8afb 24be fc74 4abc a75d dcbe bf52 a13e
00000030: 836c d9bf 09a6 7bbd fe58 f43e 45c9 f43d
00000040: eedd 55bd fa83 e43e 6a1b 80bf 56fd 023f
00000050: 38f1 f9be d102 c93e f99d df3c ff5d 06be
00000060: 043b 7dbe 57a3 5dbf b154 04be 4e7c c13e
00000070: 8355 e9be 1e51 af3d b21f 94bf 6fc7 253e

layer4.1.running_var f4 [32]
1.9335213 1.0342617 1.1232369 2.502635 2.1131587 1.3300278 0.96486616 1.0258116
1.451874 0.80087906 1.717237 0.86805385 2.3435318 1.4075944 0.8377922 1.1238668
1.1532853 1.3220756 1.7043949 0.98058057 1.95164 0.8545669 1.0349663 1.6533884
1.6273038 2.0819354 1.0485088 1.4707494 2.0185606 1.060322 1.5320886 1.1323351
00000000: a07d f73f b062 843f 3ac6 8f3f 2c2b 2040
00000010: fe3d 0740 5a3e aa3f 7801 773f cb4d 833f
00000020: 02d7 b93f 6906 4d3f 6cce db3f c738 5e3f
00000030: 6dfc 1540 0e2c b43f 8d79 563f deda 8f3f
00000040: da9e 933f c639 a93f 9d29 da3f 5407 7b3f
00000050: 57cf f93f e5c4 5a3f c779 843f 3ba2 d33f
00000060: 7e4b d03f 6e3e 0540 8935 863f 8441 bc3f
00000070: 1930 0140 a2b8 873f 7b1b c43f 5bf0 903f

fc.weight f4 [1, 1152]
-0.033823296 -0.019726088 -0.03592964 -0.015700663 -0.03752251 0.0019258499 -0.016140478 0.0077715553
-0.0066807144 0.0016748951 -0.054748047 -0.0025134275 -0.01986584 -0.0065490874 -0.048241273 -0.025401091
-0.07580924 -0.046692476 -0.035820518 -0.05343557 -0.0693383 -0.074557915 -0.042109456 0.0080097625
-0.017986901 0.0007299487 -0.05628601 -0.0875321 -0.030345565 -0.017902756 0.010172767 -0.0211642
-0.042159457 -0.04756427 -0.04116227 -0.004834745 0.012370167 0.0035730796 -0.012724734 -0.055254884
-0.04393919 -0.02604993 -0.017193615 -0.0076196147 0.0021745889 -0.04100261 -0.047205303 -0.046984944
0.02100358 -0.03241851 -0.027412998 -0.03453057 -0.035709664 -0.016812958 0.033522964 -0.02932604
-0.027304381 -0.0009883825 -0.015583086 -0.038580533 -0.004928767 -0.010673951 -0.04535579 -0.088108055
-0.034932137 -0.011400016 -0.013890702 -0.00586862 0.03367353 -0.017043991 -0.014712225 0.017030904
0.003443603 0.009688299 0.00065590197 -0.03770351 -0.013229617 0.0107159875 -0.0015238993 -0.026891008
-0.015530441 -0.04534843 -0.013042034 0.008846942 -0.01993004 -0.009541422 0.017840968 0.00062415947
-0.0044997516 -0.022131532 0.033783894 0.08995966 0.098329425 -0.024496011 -0.0027029146 -0.0028365476
-0.004650484 0.018454805 0.049375083 -0.011977883 0.00019774126 0.02153412 -0.0018359054 0.012847844
0.021243472 0.012710983 0.017637178 -0.027100133 -0.03238018 -0.016299253 -0.041566227 -0.012524269
-0.03302371 -0.014300124 -0.021983266 -0.021557445 -0.0698709 -0.024411606 -0.036439396 -0.028438915
-0.035918914 -0.04235306 -0.08970262 -0.091901585 -0.036053263 -0.0032843968 -0.00646713 -0.080443256
-0.10263929 -0.102377415 -0.048092637 -0.037006926 0.002591388 -0.052972276 -0.085372135 -0.055685777
-0.051560737 -0.049243487 -0.019669566 -0.039017323 -0.06976198 -0.035622396 -0.03621307 -0.036998507
-0.03002579 0.02674943 0.052218396 0.039576188 0.021986527 0.017311025 0.029574886 0.04300093
0.06455835 0.08048433 0.033047255 0.011366493 0.051336452 0.026317189 0.028437594 0.060905702
0.06174823 0.051694024 0.0014433492 0.019970398 0.039850794 0.05529433 -5.30009e-05 0.040525522
-0.027100245 0.066034764 0.08051266 0.031552497 0.027579833 0.032659695 -0.0075087026 0.018161692
0.03062118 0.05188414 0.05339682 0.028701926 -0.032066133 -0.025475271 0.008438042 -0.025201255
0.018683346 -0.0408635 -0.016415095 -0.00013004997 -0.0013284256 -0.03153586 -0.011115987 0.005247678
-0.02895725 0.027551066 0.015740465 -0.030360637 0.044316705 0.010701244 0.021139141 -0.05247449
-0.075870246 -0.092266016 -0.039117705 -0.03676581 0.0020516554 -0.023610378 -0.04209025 -0.039606225
-0.011792659 -0.012151463 0.0026245625 -0.012799286 -0.001380329 0.015046006 0.02839498 -0.00287999
0.013306004 -0.0053350134 -0.008784665 -0.0013615497 -0.0005708447 0.009631614 0.04665712 0.008913146
0.025560874 -0.050835032 -0.0076042805 0.016265586 -0.0025253424 0.05089896 0.081223145 0.010149753
0.015853647 0.044957053 0.005108484 0.022053694 0.04503343 0.066969335 0.04949467 0.025792003
0.012388851 0.008327658 -0.050140444 -0.00960996 0.022560954 -0.02714069 -0.030176066 0.00551945
-0.043514483 -0.0052170167 0.04801602 0.027002867 -0.0036432985 0.024451831 0.0068633934 0.040684793
00000000: 4c8a 0abd 9b98 a1bc f52a 13bd ad9e 80bc
00000010: 34b1 19bd cd6c fc3a 0939 84bc 88a8 fe3b
00000020: e5e9 dabb 2788 db3a 7d3f 60bd 51b8 24bb
00000030: b0bd a2bc ba99 d6bb a498 45bd f315 d0bc
00000040: e041 9bbd 9c40 3fbd 89b8 12bd 42df 5abd
00000050: 3d01 8ebd d2b1 98bd f77a 2cbd 613b 033c
00000060: 4459 93bc 075a 3f3a 298c 66bd 0844 b3bd
00000070: 4397 f8bc cda8 92bc adab 263c 8b60 adbc
00000080: 65af 2cbd c1d2 42bd c599 28bd c86c 9ebb
00000090: 3eac 4a3c 542a 6a3b 677b 50bc f252 62bd
000000a0: 95f9 33bd aa66 d5bc a0d9 8cbc f6ad f9bb
000000b0: 8c83 0e3b 5af2 27bd 595a 41bd 4973 40bd
000000c0: b30f ac3c 46c9 04bd 3991 e0bc ed6f 0dbd
000000d0: 4c44 12bd 54bb 89bc 604f 093d 2a3d f0bc
000000e0: 70ad dfbc 9d8c 81ba 3350 7fbc 9f06 1ebd
000000f0: 7f81 a1bb cce1 2ebc fec6 39bd ff71 b4bd
00000100: 0015 0fbd 22c7 3abc d495 63bc 8d4d c0bb
00000110: 41ed 093d d79f 8bbc 8b0b 71bc 6584 8b3c
00000120: 12ae 613b acbb 1e3c d6f0 2b3a ff6e 1abd
00000130: 09c1 58bc 1c92 2f3c 93bd c7ba 884a dcbc
00000140: 6473 7ebc 46bf 39bd 41ae 55bc c4f2 103c
00000150: 5344 a3bc a053 1cbc 3927 923c a29e 233a
00000160: a772 93bb 304d b5bc fb60 0a3d c53c b83d
00000170: f060 c93d dcab c8bc 6223 31bb 5fe5 39bb
00000180: 1663 98bb 882e 973c 873d 4a3d e23e 44bc
00000190: c458 4f39 5368 b03c c3a2 f0ba c37f 523c
000001a0: ca06 ae3c ba41 503c d87b 903c 1901 debc
000001b0: 14a1 04bd 0386 85bc 5941 2abd 9732 4dbc
000001c0: df43 07bd 114b 6abc 4016 b4bc 3d99 b0bc
000001d0: 7918 8fbd d9fa c7bc 7a41 15bd baf8 e8bc
000001e0: b61f 13bd 677a 2dbd 02b6 b7bd e636 bcbd
000001f0: 96ac 13bd 093f 57bb 38ea d3bb 6fbf a4bd
00000200: 8c34 d2bd 40ab d1bd c9fc 44bd 9394 17bd
00000210: 47d4 293b 75f9 58bd 96d7 aebd c516 64bd
00000220: 5a31 53bd 8ab3 49bd 1222 a1bc a1d0 1fbd
00000230: 5edf 8ebd cae8 11bd 2854 14bd bf8b 17bd
00000240: a5f8 f5bc 9f21 db3c f5e2 553d a41a 223d
00000250: 171d b43c dacf 8d3c 0847 f23c be21 303d
00000260: 2b37 843d f8d4 a43d 8f5c 073d 873a 3a3c
00000270: 2c46 523d 2597 d73c f5f5 e83c 4278 793d
00000280: b6eb 7c3d 1dbd 533d c32e bd3a f698 a33c
00000290: 963a 233d 4f7c 623d 484d 5eb8 17fe 253d
000002a0: 5501 debc 3c3d 873d d2e3 a43d 313d 013d
000002b0: 1aef e13c 2cc6 053d 900b f6bb d4c7 943c
000002c0: 45d9 fa3c 7784 543d a0b6 5a3d 4d20 eb3c
000002d0: c757 03bd 84b1 d0bc b73f 0a3c dd72 cebc
000002e0: d10d 993c 7c60 27bd f378 86bc 065e 08b9
000002f0: 911e aeba bf2b 01bd d41f 36bc b7f4 ab3b
00000300: c137 edbc c6b2 e13c 26f2 803c dfb6 f8bc
00000310: 6f85 353d 4554 2f3c fe2b ad3c 7eef 56bd
00000320: dc61 9bbd f7f5 bcbd e339 20bd bf97 16bd
00000330: 1175 063b 8d6a c1bc d366 2cbd 233a 22bd
00000340: ff35 41bc ee16 47bc da00 2c3b 19b4 51bc
00000350: 28ec b4ba 8683 763c 979c e83c 37be 3cbb
00000360: 6d01 5a3c 56d1 aebb 8eed 0fbc 0776 b2ba
00000370: bda4 15ba ebcd 1d3c 891b 3f3d 7208 123c
00000380: 0a65 d13c 6538 50bd 542d f9bb 683f 853c
00000390: 3780 25bb 6e7b 503d 5258 a63d 264b 263c
000003a0: 82df 813c e324 383d 1265 a73b f3a9 b43c
000003b0: f974 383d 3827 893d ecba 4a3d c049 d33c
000003c0: 9bfa 4a3c bb70 083c 1160 4dbd 1873 1dbc
000003d0: c0d1 b83c 2756 debc cc33 f7bc 81dc b43b
000003e0: 3e3c 32bd 82f3 aabb 72ac 443d 1e35 dd3c
000003f0: 68c4 6ebb 354f c83c 51e6 e03b 19a5 263d
