data/chkbox_models/chkbox_rnd11_2_bestVal.pt (torch_old, 35085 bytes, 25 tensors)

layer1.0.weight f4 [4, 1, 3, 3]
0	0xbe0b4c34	-0.13603288
1	0x3dd805a3	0.1054795
2	0xbe4e06a0	-0.20119715
3	0x3ce6b0fe	0.028160568
4	0x3e866169	0.26246193
5	0x3dc8bedb	0.09802028
6	0x3ec1f94a	0.37885505
7	0x3d921ec3	0.071347736
8	0x3e606694	0.2191413
9	0x3ec9dafa	0.39424878
10	0xbe14b09c	-0.14520496
11	0xbd079f3d	-0.033110846
12	0x3e539d4c	0.20665473
13	0xbdf76ba8	-0.12081081
14	0xbe5e0bc6	-0.21684179
15	0xbe7b134a	-0.24519077
16	0x3e613db5	0.21996196
17	0xbd6a833f	-0.057254072
18	0x3d7845c2	0.0606134
19	0x3dadb4fb	0.08481785
20	0xbd81dff4	-0.06341544
21	0x3d4506c2	0.048102148
22	0xbe403632	-0.18770674
23	0x3df16211	0.11786283
24	0x3ebb271f	0.36553285
25	0x3e1d17e1	0.1534114
26	0x3e83178c	0.25603902
27	0x3ca49496	0.020090383
28	0xbe7d2c29	-0.24723877
29	0xbcf89a0e	-0.030346896
30	0x3e0e4ea6	0.1389719
31	0xbe8934b1	-0.26798013
32	0x3e57d19e	0.21076056
33	0x3d7a1d85	0.06106331
34	0xbe320957	-0.17386375
35	0xbe6a7035	-0.22894366

layer1.0.bias f4 [4]
0	0xbe478988	-0.19486058
1	0xbea7bc7d	-0.32760993
2	0xbdb96a2d	-0.090534545
3	0xbe0104cb	-0.12599485

layer1.1.weight f4 [4]
0	0x3f89e27e	1.0772245
1	0x3f5ee276	0.870643
2	0x3f818a95	1.0120417
3	0x3f74fb67	0.9569611

layer1.1.bias f4 [4]
0	0x3e0f7a57	0.14011513
1	0xbc851338	-0.016244516
2	0x3d5da02a	0.054107822
3	0x3d98f6fb	0.07468983

layer1.1.running_mean f4 [4]
0	0x3f263314	0.6492169
1	0xbea797d2	-0.32733017
2	0x3f415633	0.75522155
3	0xbf279097	-0.65455

layer1.1.running_var f4 [4]
0	0x3f6e0152	0.92970765
1	0x3dc3ef9b	0.095671855
2	0x3f5e1559	0.86751324
3	0x3ec06eb7	0.3758447

layer2.0.weight f4 [8, 4, 3, 3]
0	0xbe28d79e	-0.16488501
1	0x3e43cc15	0.1912082
2	0x3e5747ec	0.2102353
3	0x3e2d5cc1	0.16929914
4	0x3e2a6be3	0.16642718
5	0xbdc008a7	-0.0937665
6	0xbda1e41c	-0.079048365
7	0xbb75a1f1	-0.0037480558
8	0xbd2673bd	-0.04063772
9	0x3db9899d	0.09059451
10	0xbdba1a28	-0.0908702
11	0xbdc4b423	-0.09604671
12	0xbd50e0bb	-0.05099557
13	0xbbd55011	-0.006509789
14	0xbd190309	-0.03735641
15	0xbd962dda	-0.07332964
16	0x3c8a92eb	0.01691576
17	0x3e0b430b	0.13599794
18	0x3d0389cf	0.032113846
19	0x3dcb8809	0.09938056
20	0x3e0e2427	0.13880979
21	0xbcf5a00c	-0.029983543
22	0x3c3befe5	0.0114707695
23	0x3e0912a2	0.13386014
24	0x3e2f8af5	0.17142852
25	0xbe1e1397	-0.1543716
26	0xbd76ab76	-0.06022211
27	0x3cfecb77	0.031102879
28	0xbcf693f4	-0.030099846
29	0x3de9e502	0.11420633
30	0xbe448d09	-0.19194426
31	0xbcb3ff20	-0.021972239
32	0x3d8bf6ad	0.06834159
33	0xbdbe8514	-0.093027264
34	0x3d74978b	0.059714835
35	0xbd8551c9	-0.0650974
36	0xbdff85b0	-0.12476671
37	0xbd1b5856	-0.03792604
38	0xbe24a654	-0.16079074
39	0x3c2789ae	0.0102256965
40	0x3dcfbe36	0.10143702
41	0x3d9ecfb7	0.07754462
42	0x3de151a8	0.11001903
43	0xbdc2d596	-0.095133945
44	0xbc1be1a4	-0.009514246
45	0xbd537665	-0.05162658
46	0x3dc1f1ee	0.094699726
47	0xbe05f6f4	-0.13082486
48	0x3c9caa0a	0.01912405
49	0xbcfce464	-0.030870624
50	0xbd16acae	-0.036785774
51	0x3d074673	0.03302617
52	0x3cb680a0	0.02227813
53	0xbe0360a1	-0.1282983
54	0xbcc4cee4	-0.024024434
55	0xbcb3a378	-0.021928534
56	0xbda3e509	-0.08002669
57	0x3bba6d4b	0.0056892983
58	0xbc9df565	-0.019282052
59	0xbcc4c055	-0.024017492
60	0x3d34bb96	0.04412421
61	0x3d98a77f	0.07453822
62	0x3e120c47	0.14262496
63	0x3d1a63dd	0.037692893
64	0xbd781bf0	-0.06057352
65	0x3d1555d1	0.036458794
66	0x3dbd7bba	0.092521146
67	0x3d08febb	0.033446055
68	0xbd89132f	-0.06693112
69	0xbe1c559a	-0.1526703
70	0xbe068e3b	-0.13140194
71	0x3daa2850	0.0830847
72	0x3c021335	0.00793915
73	0xbe2646a0	-0.16237879
74	0x3d8f0c29	0.06984741
75	0xbe4b2d61	-0.1984153
76	0xbe0e71c9	-0.13910593
77	0xbdffa418	-0.1248247
78	0xbe0c031e	-0.13673064
79	0x3d9cd9ec	0.07658753
80	0x3dadb6d5	0.08482138
81	0xbda86fae	-0.08224426
82	0xbe7a41c2	-0.24439147
83	0xbd865cc3	-0.06560662
84	0xbe05c779	-0.13064374
85	0x3bfff9f8	0.007811781
86	0x3e1420c5	0.14465626
87	0x3d046bad	0.03232925
88	0xbe3740f6	-0.17895874
89	0xbd4e8a07	-0.050424602
90	0x3db1e618	0.08686465
91	0x3e0871d1	0.13324668
92	0xbe12ead4	-0.14347392
93	0xbc64d868	-0.013967611
94	0x3db7064d	0.08936749
95	0x3ddb5867	0.10710221
96	0x3dad63e9	0.08466322
97	0xbd3c500c	-0.045974776
98	0x3d2c745e	0.042103164
99	0xbdc21e17	-0.094783954
100	0x3cb9e6c4	0.022693045
101	0xbd28abcd	-0.041179467
102	0x3dfec88e	0.124405965
103	0xbe0009a0	-0.12503672
104	0xbc6e4eb9	-0.014545136
105	0xbdbfc5c5	-0.093638934
106	0x3cae5967	0.021282865
107	0xbdb26109	-0.08709914
108	0x3e33d53f	0.17561816
109	0x3dc61b7d	0.09673212
110	0xbe062255	-0.13099034
111	0x3d1b6d48	0.037946016
112	0x3dbb623a	0.091495946
113	0xbe4be748	-0.19912446
114	0x3d86134c	0.06546649
115	0xbe239fe5	-0.15978964
116	0x3db13c3d	0.08654068
117	0xbd994d8f	-0.07485496
118	0x3cdc0b52	0.026860867
119	0x3da85bec	0.08220658
120	0x3d8e0ef2	0.06936444
121	0x3d8082cd	0.06274948
122	0x3df633bc	0.12021586
123	0x3d7dcced	0.06196301
124	0xbd4b892a	-0.049691357
125	0x3c95b7b8	0.01827608
126	0x3d046812	0.03232581
127	0x3d267dfa	0.040647484
128	0xbe5eda8b	-0.21763055
129	0x3dada65f	0.084789984
130	0x3e27130c	0.1631586
131	0xbd5eb49d	-0.054371465
132	0x3b792a05	0.003801943
133	0x3dcb0059	0.09912176
134	0x3db9008f	0.0903331
135	0xbe11e631	-0.14247967
136	0xbba2e020	-0.0049705654
137	0x3dfa2365	0.12213782
138	0xbe703ef9	-0.23461522
139	0xbd85162d	-0.0649837
140	0x3d89e3b8	0.06732887
141	0xbd3a242a	-0.045444645
142	0xbe0d4e45	-0.13799389
143	0xbd7fd928	-0.062462956
144	0x3b6a2099	0.0035724996
145	0x3de614e7	0.112344556
146	0x3e090a43	0.13382821
147	0xbd758189	-0.059937987
148	0xbe0a107e	-0.13482854
149	0x3dced250	0.10098708
150	0xbca83036	-0.020530801
151	0xbdb409a8	-0.08790904
152	0xbd5a36a2	-0.05327476
153	0xbd147084	-0.036240116
154	0x3de2ab0d	0.110677816
155	0xbe062a53	-0.13102083
156	0x3dd75928	0.10515052
157	0xbd9d463e	-0.07679413
158	0xbddcd5f4	-0.10782996
159	0x3dcf7364	0.10129431
160	0xbce33e10	-0.027739555
161	0x3de50a19	0.111835666
162	0x3ce0a84d	0.027424002
163	0xbdf5a869	-0.11995012
164	0x3d6baa89	0.057535682
165	0x3d038311	0.032107417
166	0xbc8547b2	-0.016269539
167	0x3df85497	0.12125509
168	0xbd7e428f	-0.062075194
169	0xbd53d4c7	-0.051716592
170	0xbd57de5a	-0.052702285
171	0x3df6d128	0.12051612
172	0x3c0ebe8c	0.008712422
173	0x3b5eeacf	0.0034014469
174	0xbd99bcaa	-0.07506688
175	0x3cae6aa0	0.021291077
176	0x3ddc0edf	0.10745024
177	0x3d9e7322	0.077368036
178	0xbbbc149d	-0.005739762
179	0xbd38d7fb	-0.04512785
180	0xbdd1c354	-0.10242334
181	0x3c87b6d9	0.01656668
182	0x3e143f0d	0.14477177
183	0xbe1dee09	-0.15422834
184	0x3d975ccf	0.07390749
185	0xbda6b12d	-0.08139262
186	0xbd1a3c9c	-0.037655458
187	0xbda91065	-0.0825508
188	0x3cf44ab1	0.029820772
189	0xbca09369	-0.01960154
190	0x3cef02d3	0.029176151
191	0xbd91b189	-0.0711394
192	0xbd7b6030	-0.06137103
193	0x3dc2f09f	0.09518551
194	0x3d6e06f6	0.058112107
195	0xbdfe4f75	-0.12417499
196	0xbe14f764	-0.14547497
197	0x3d3f8a98	0.046763033
198	0xbe048b26	-0.12943706
199	0xbd3829cd	-0.04496174
200	0x3e01d086	0.12677202
201	0xbd1ab17f	-0.03776693
202	0xbc7e6c72	-0.015528785
203	0xbb864e6a	-0.004098703
204	0xbe24310b	-0.16034333
205	0xbdabf799	-0.08396835
206	0x3e3c2677	0.18374048
207	0xbe093fe5	-0.1340328
208	0xbcb18f66	-0.021674823
209	0xbe39c0f7	-0.18140016
210	0x3df77a7b	0.12083908
211	0xbc8593da	-0.016305853
212	0xbd9ac2fa	-0.0755672
213	0xbcd21089	-0.02564265
214	0xbdb5d496	-0.08878438
215	0xbaf69dc9	-0.0018815334
216	0x3e443a28	0.1916281
217	0x3e0d274c	0.13784522
218	0xbcf43819	-0.029811906
219	0xbd3a57cc	-0.045493886
220	0x3e30b13a	0.17255107
221	0xbb2218bb	-0.0024733979
222	0xbd688c12	-0.056774206
223	0xbe0aff9a	-0.13574067
224	0xbdb66605	-0.089061774
225	0x3df4daa9	0.119557686
226	0x3d426f04	0.047469154
227	0x3c862a32	0.016377542
228	0x3d4b94f4	0.0497026
229	0xbdc43766	-0.09580879
230	0x3dca0333	0.098638915
231	0x39163f08	0.00014328596
232	0x3dc8b223	0.09799602
233	0xbd6d3481	-0.0579114
234	0x3dc86e18	0.09786624
235	0x3dd1f729	0.1025222
236	0xbe29740a	-0.16548172
237	0x3e3fa382	0.18714717
238	0x3e34c0c6	0.17651662
239	0xbdb32059	-0.08746404
240	0xbdf760b5	-0.12078992
241	0xbd41d6f7	-0.047324147
242	0x3d39fed4	0.04540904
243	0x3db2921e	0.08719276
244	0xbde5300c	-0.11190805
245	0xbd9b0b6b	-0.07570537
246	0xbe132e0e	-0.14373037
247	0xbe4a049d	-0.19728322
248	0xbdc65f15	-0.09686104
249	0xbcf06ae3	-0.029347843
250	0xbe184bfd	-0.14872737
251	0xbd5ffa11	-0.05468184
252	0x3d2d24f8	0.042271584
253	0xbe0c2fe6	-0.13690147
254	0xbde51eae	-0.11187492
255	0xbc464570	-0.012101516

layer2.0.bias f4 [8]
0	0x3df9f97f	0.12205791
1	0xbdbfc4d1	-0.093637116
2	0x3d92abfa	0.07161708
3	0x3dc24201	0.094852455
4	0x3c69203f	0.0142288795
5	0x3ddb5eea	0.10711463
6	0xbd4cb324	-0.04997553
7	0x3e1d7e89	0.153803

layer2.1.weight f4 [8]
0	0x3f84da45	1.037911
1	0x3f837d70	1.0272655
2	0x3f81187d	1.0085598
3	0x3f8867de	1.0656698
4	0x3f70bf87	0.9404225
5	0x3f82140d	1.0162369
6	0x3f8769b2	1.0579131
7	0x3f6c0c27	0.92206043

layer2.1.bias f4 [8]
0	0x3e29655f	0.16542576
1	0x3d99a9c3	0.075030826
2	0x3c01b7ff	0.007917403
3	0x3e14a3bc	0.14515585
4	0xbb523b3c	-0.0032078763
5	0x3d83cb36	0.06435244
6	0x3dcb7825	0.09935025
7	0xbd83d7f4	-0.06437674

layer2.1.running_mean f4 [8]
0	0x3ed4c71a	0.41558152
1	0xbe8a90fe	-0.27063745
2	0xbee53756	-0.4476878
3	0x3e15342a	0.1457068
4	0x3dc88135	0.09790269
5	0xbec56d9a	-0.38560182
6	0xbe0e9c1a	-0.13926736
7	0x3c878245	0.01654161

layer2.1.running_var f4 [8]
0	0x3ec71f4d	0.38891068
1	0x3df58149	0.1198755
2	0x3e8bbe26	0.2729351
3	0x3ebb3b28	0.3656857
4	0x3dbf4d0b	0.09340867
5	0x3e875e39	0.26439074
6	0x3edff027	0.4373791
7	0x3de5ca5d	0.11220238

layer3.0.weight f4 [16, 8, 3, 3]
0	0x3d98fafc	0.074697465
1	0xbd259def	-0.04043382
2	0xbd689d9c	-0.056790933
3	0xbda55382	-0.080725685
4	0x3d9a1e47	0.07525306
5	0xbc269577	-0.010167471
6	0x3d18d8b1	0.037316028
7	0x3e121e9b	0.14269488
8	0xbbad0079	-0.0052795974
9	0xbc01ff86	-0.007934457
10	0x3d19d935	0.03756066
11	0xbc0df2b7	-0.008663825
12	0xbc9356a8	-0.017985657
13	0x3c3f4163	0.011673304
14	0x3c880bb0	0.016607136
15	0x3d82a775	0.06379596
16	0xbd9ac91a	-0.07557888
17	0xbd8bb022	-0.06820704
18	0x3cfc32c6	0.03078593
19	0xbe0a5cdd	-0.13511987
20	0x3c82339b	0.015893748
21	0xbdba0ce7	-0.09084492
22	0xbc9e8842	-0.019352082
23	0xbd4c8028	-0.049926907
24	0x3be1ba15	0.006888638
25	0x3c9aee8a	0.018912572
26	0xbd454576	-0.048161946
27	0x3dfc6eb8	0.123258054
28	0x3d117b26	0.035517834
29	0xbe046541	-0.1292925
30	0xbd83c826	-0.0643466
31	0x3d01ba5b	0.031671863
32	0xbccc88ec	-0.024967633
33	0xbd6f14d5	-0.058369476
34	0xbd771f90	-0.060332835
35	0x3de28d01	0.110620506
36	0xbdb8f9af	-0.09031998
37	0xbc61446f	-0.013749226
38	0x3d2d0f51	0.042250935
39	0x3d34ffda	0.04418931
40	0x3d31b660	0.043386817
41	0xbd760acd	-0.060068894
42	0x3ba5c499	0.0050588367
43	0xbd3ecac9	-0.04658011
44	0xbd2832d8	-0.041064113
45	0xbcb12a12	-0.021626506
46	0xbaf1c2b6	-0.0018444869
47	0x3d2b0b9b	0.041759115
48	0x3dbbed77	0.09176152
49	0x3d921ba8	0.07134181
50	0xbc1cc5ed	-0.009568674
51	0x3c50d14e	0.012745215
52	0x3d1f6ed3	0.03892405
53	0x3ccd0f4c	0.025031708
54	0x3e1307f4	0.14358503
55	0xbd52032a	-0.05127255
56	0xbdfdfb8c	-0.124014944
57	0xbb3a04cc	-0.0028384207
58	0xbc44e160	-0.012016624
59	0xbd921589	-0.07133014
60	0xbe391538	-0.180745
61	0x3bc9c848	0.0061579086
62	0x3d8b1b5e	0.06792329
63	0xbd7649b6	-0.06012889
64	0xbd6d9e5e	-0.05801236
65	0xbc8cacbc	-0.01717221
66	0xbd3f90ff	-0.04676914
67	0xbc07fe8c	-0.008300435
68	0xbdc13a69	-0.09434969
69	0xbc6f05e7	-0.01458881
70	0xbdae2eaf	-0.08504998
71	0x3d1211e8	0.035661608
72	0x3dc4aef8	0.09603685
73	0x3bed22aa	0.0072367983
74	0xbdf8552a	-0.12125619
75	0x3d6c5d97	0.05770644
76	0xbd650542	-0.055913217
77	0xbda3e1a8	-0.08002025
78	0xbdf23d4c	-0.11828098
79	0x3d8b5ef7	0.068052225
80	0xbda7c49c	-0.08191797
81	0x3d6117a5	0.05495419
82	0xbb8de460	-0.004330203
83	0xbdadd199	-0.08487243
84	0xbd1ac087	-0.037781265
85	0x3d91c001	0.071167
86	0xbcd50517	-0.026003404
87	0xbda7b304	-0.081884414
88	0xbd7afdbb	-0.061277132
89	0x3d97e7f4	0.074172884
90	0xbd8adec7	-0.06780773
91	0xbccf42d8	-0.025300428
92	0xbdb54515	-0.08851067
93	0xbd939f39	-0.07208104
94	0xbe1bde96	-0.15221629
95	0x3b99944e	0.0046868687
96	0x3dcfe5ca	0.10151251
97	0xbd9de861	-0.077103384
98	0xbd785b4f	-0.060633954
99	0x3cea2720	0.02858311
100	0x3c844b8e	0.016149309
101	0xbd51b824	-0.051201
102	0x3df2694b	0.11836489
103	0xbced7929	-0.028988438
104	0xbdd8f69a	-0.105939105
105	0xbd47bbe9	-0.04876319
106	0x3d9bcfba	0.0760798
107	0x3da1e299	0.07904548
108	0xbdc41eee	-0.09576212
109	0xbda9d8f6	-0.08293335
110	0x3c5506b4	0.013002086
111	0xbd89c862	-0.06727673
112	0xbd9cc9fe	-0.076557145
113	0x3b5217cc	0.003205764
114	0x3c408bc2	0.011752071
115	0xbd4cf1bd	-0.050035227
116	0xbd448893	-0.04798181
117	0x3d9a4745	0.07533125
118	0xbda742c6	-0.08167033
119	0xbd36c684	-0.044622913
120	0xbd451e16	-0.048124395
121	0x3ca02d4f	0.019552855
122	0x3dfd9daf	0.123835914
123	0xbbe899d7	-0.0070984173
124	0x3d3a87da	0.045539714
125	0x3d7f00b4	0.06225653
126	0x3c91d371	0.017801018
127	0x3da5ae37	0.080898695
128	0xbdb67a01	-0.08909989
129	0x3de603b9	0.11231179
130	0xbcf38268	-0.029725268
131	0xbd3a1828	-0.045433193
132	0x3d4b527d	0.049639214
133	0x3d331625	0.04372229
134	0x3c8d8f7d	0.017280335
135	0xbd4f28ea	-0.050576128
136	0xbc826f8f	-0.015922336
137	0x3cf1f271	0.02953455
138	0xbd1ddaad	-0.038538624
139	0x3c883ca8	0.016630486
140	0x3d9f8397	0.07788771
141	0xbda7a0be	-0.08184956
142	0x3c1b7269	0.009487727
143	0x3d8b4bab	0.06801542
144	0x3dc22c92	0.09481157
145	0x3d115a11	0.035486285
146	0xbd996c70	-0.07491386
147	0x3d2edba2	0.042689927
148	0x3d992233	0.07477226
149	0xbdd8713e	-0.10568474
150	0x3d2ba715	0.04190739
151	0xbdde0508	-0.108408034
152	0xbe32f58d	-0.17476483
153	0xbc47d7a0	-0.012197405
154	0x3c8b94b3	0.017038679
155	0xbc4109c8	-0.011782117
156	0x3e0cecbe	0.13762185
157	0xbd62d82f	-0.05538195
158	0xbc68b403	-0.014203074
159	0xbcb5d4d0	-0.022196203
160	0x3b6c33b9	0.0036041571
161	0xbd324def	-0.043531355
162	0x3e04afff	0.12957762
163	0xbdec5b47	-0.11540847
164	0x3d175fcc	0.036956593
165	0xbd12fa7a	-0.035883404
166	0xbd08ac86	-0.033367656
167	0xbda2e869	-0.07954485
168	0x3dac2e36	0.084072515
169	0xbdc13165	-0.094332494
170	0xbde7bade	-0.11314939
171	0xbbb3a24c	-0.005481994
172	0xbd803027	-0.06259184
173	0x3dad4666	0.08460693
174	0x3dd60aaf	0.104512565
175	0xbdd0ee8d	-0.1020175
176	0x3d6f03b6	0.05835315
177	0x3dbd61d9	0.092471786
178	0xbd8662c1	-0.065618046
179	0x3bfcfb64	0.007720398
180	0x3c4b5925	0.01241139
181	0xbdf47c4e	-0.11937772
182	0xbc4e00bd	-0.012573418
183	0xbd46a8c5	-0.048500795
184	0x3db73bfa	0.089469865
185	0x3cb0337a	0.021508921
186	0xbd98457a	-0.074351266
187	0x3d48f96e	0.049066
188	0xbca7ba19	-0.02047448
189	0x3bf33e42	0.007423193
190	0xbb85ac31	-0.0040793647
191	0xbb5de879	-0.0033860488
192	0xbcbc533e	-0.022988912
193	0xbd8d3042	-0.0689397
194	0x3e0e0e7e	0.13872716
195	0xbdcb2c34	-0.099205405
196	0xbd5efc24	-0.05443968
197	0xbd8240cd	-0.06360016
198	0x3aeee9a0	0.0018227585
199	0x3cab869c	0.02093821
200	0xbbef1471	-0.007296138
201	0xbde21455	-0.11039034
202	0x3cb27137	0.0217825
203	0x3d3081d3	0.04309256
204	0x3cb7940c	0.022409461
205	0x3d826f9b	0.06368943
206	0xbda23bd0	-0.079215646
207	0xbdeb2336	-0.11481325
208	0x3d8190f0	0.06326473
209	0x3d99a767	0.075026326
210	0xbc113264	-0.008862112
211	0xbbeb1d3a	-0.007175115
212	0x3da2132f	0.07913815
213	0x3d6fbd33	0.058530044
214	0xbd228e9b	-0.03968678
215	0xbc994557	-0.018709822
216	0x3dcc6e67	0.09981995
217	0x3d0cdb21	0.034388665
218	0xbd2a4193	-0.041566443
219	0x3d07d9ef	0.033166822
220	0xbde6cb12	-0.11269201
221	0xbd1e2e0e	-0.03861814
222	0xbc8a42ce	-0.016877558
223	0xbb85a960	-0.004079029
224	0x3e2918fe	0.1651344
225	0xbdb133f1	-0.08652485
226	0xbc1a2cab	-0.009410064
227	0x3d363d27	0.044491913
228	0xbdde68d0	-0.10859835
229	0xbc2a1bc3	-0.0103825955
230	0x3e34709a	0.17621079
231	0x3d6c5c2d	0.057705093
232	0x3c2a4df5	0.010394563
233	0xbd805149	-0.06265504
234	0x3d623258	0.055223793
235	0xbcbe5463	-0.023233598
236	0x3d15298e	0.036416583
237	0xbdb07000	-0.08615112
238	0xbcf166a6	-0.029467892
239	0x3d3425d3	0.043981384
240	0xbc7bd7a8	-0.015371241
241	0x3dd573af	0.104224555
242	0x3bd57e55	0.006515304
243	0x3da90201	0.08252335
244	0x3dab5504	0.08365825
245	0xbc12c50e	-0.008958114
246	0x3cc4df91	0.024032386
247	0x3d0b7936	0.034051143
248	0xbd13ad09	-0.03605369
249	0xbddc8a35	-0.107685484
250	0x3bf6f8bd	0.007536976
251	0x3d3219b5	0.043481547
252	0xbc722558	-0.014779411
253	0xbd6d387c	-0.057915196
254	0xbcc58e63	-0.024115747
255	0x3d5b81be	0.05359053

layer3.0.bias f4 [16]
0	0x3c244ff9	0.010028833
1	0xbdd607e1	-0.104507215
2	0x3d3726cf	0.044714745
3	0x3dd82ba4	0.10555199
4	0xbd050e88	-0.03248456
5	0x3d5fe14d	0.054658223
6	0xbdd74ed8	-0.10513085
7	0x3ddbcfc1	0.10732985
8	0xbdace0d4	-0.0844132
9	0xbd64d205	-0.055864353
10	0x3ce4a55f	0.027910886
11	0xbc969410	-0.018381149
12	0x3ddd5e32	0.10808982
13	0xbcd62999	-0.026142882
14	0xbd364351	-0.04449779
15	0x3d144b85	0.036204834

layer3.1.weight f4 [16]
0	0x3f828aac	1.0198569
1	0x3f80cc5b	1.0062364
2	0x3f65646a	0.89606345
3	0x3f6e8e3f	0.931858
4	0x3f7cbe63	0.9872801
5	0x3f72f208	0.9490056
6	0x3f80d0a7	1.0063676
7	0x3f744f7b	0.9543378
8	0x3f7c173d	0.9847296
9	0x3f82af9a	1.0209839
10	0x3f7944bf	0.97370523
11	0x3f6cfe88	0.92575884
12	0x3f7213d1	0.9456149
13	0x3f71825b	0.9433953
14	0x3f77709f	0.9665622
15	0x3f7ff1e3	0.99978465

layer3.1.bias f4 [16]
0	0xbe9f64ad	-0.31131497
1	0xbe519ad3	-0.20469217
2	0xbe23fe6e	-0.16015026
3	0xbe82c7f4	-0.25543177
4	0xbdbdfd58	-0.09276837
5	0xbe02623c	-0.12732786
6	0xbe1d6913	-0.15372114
7	0xbe902f2b	-0.28160986
8	0xbdf181b8	-0.1179232
9	0xbe95e9bc	-0.29279888
10	0xbe31f684	-0.17379194
11	0xbe192138	-0.14954078
12	0xbe440dc1	-0.19145872
13	0xbe60f5e0	-0.21968794
14	0xbe2d8473	-0.16945057
15	0xbe3f3628	-0.18673003

layer3.1.running_mean f4 [16]
0	0xbe9ed293	-0.3102003
1	0xbef6adff	-0.48179623
2	0xbe53c84b	-0.20681874
3	0xbdb8d10d	-0.09024248
4	0xbf1120c5	-0.5669063
5	0xbe7595a5	-0.23982866
6	0xbeb33855	-0.35003915
7	0xbe9b9b6d	-0.30392018
8	0xbf20b21a	-0.6277176
9	0xbee951ea	-0.45570308
10	0x3dd34f68	0.1031788
11	0xbe404a74	-0.18778402
12	0x3ed9e612	0.42558342
13	0xbdb52d06	-0.08846478
14	0xbe19ed4a	-0.15031925
15	0xbe40f45c	-0.18843216

layer3.1.running_var f4 [16]
0	0x3e0fb89a	0.14035264
1	0x3e685e1f	0.22692154
2	0x3e2ab357	0.16669975
3	0x3e24f991	0.16110827
4	0x3e7db1ea	0.247749
5	0x3e9c8846	0.30572718
6	0x3e9a9f6d	0.30199757
7	0x3e1b470b	0.1516382
8	0x3e76914d	0.24078865
9	0x3e23ae07	0.15984355
10	0x3e8fbd6c	0.28074205
11	0x3ded10e1	0.11575485
12	0x3e20fd4e	0.15721628
13	0x3e535b5d	0.20640321
14	0x3ee0ffcd	0.4394516
15	0x3e23a706	0.15981683

layer4.0.weight f4 [32, 16, 3, 3]
0	0xbbef7a6b	-0.0073082945
1	0xbd6ac4b6	-0.057316504
2	0xbd04e3b4	-0.032443717
3	0xbd6a66cb	-0.057226937
4	0xbd0aa6c3	-0.033850443
5	0xbd50356b	-0.050832193
6	0x3dbbf2f6	0.091772005
7	0xbd4351a5	-0.047685284
8	0xbda165ca	-0.07880743
9	0xbd165278	-0.036699742
10	0x3d33bd83	0.043881904
11	0xbdcc2fab	-0.099700294
12	0x3cf46d23	0.029837197
13	0x3c7d0199	0.015442275
14	0xbda31b65	-0.079642095
15	0x3d96bc14	0.07360092
16	0x3d54af01	0.05192471
17	0xbccf987b	-0.025341263
18	0xbd04302e	-0.03227251
19	0x3cc136bb	0.023585668
20	0xbc62653d	-0.013818082
21	0x3d318f36	0.043349467
22	0x3b51b58c	0.003199908
23	0xbd6591d3	-0.056047272
24	0xbd28c83b	-0.04120658
25	0xbc9789c1	-0.018498303
26	0x3c08cee0	0.008350104
27	0xbc7395d8	-0.0148672685
28	0xbda6d6c6	-0.081464335
29	0xbc8b68e0	-0.017017782
30	0xbabc1951	-0.0014350807
31	0xbd6dc852	-0.05805237
32	0xbd0f009f	-0.0349127
33	0x3d8bb5a9	0.06821758
34	0xbd205567	-0.039143946
35	0x3a9888d5	0.0011637459
36	0x3d5e66e6	0.05429735
37	0xbb1b8fb0	-0.0023736767
38	0x3d28e357	0.041232433
39	0x3c42bd6a	0.01188598
40	0x3d830f18	0.06399363
41	0x3da1284d	0.07869015
42	0x3d49e93b	0.04929469
43	0xbc275764	-0.010213707
44	0x3d410928	0.047127873
45	0xb972d145	-0.00023156877
46	0x3c80d01a	0.01572423
47	0xbd096c12	-0.03355033
48	0xbdbda0ab	-0.092591606
49	0xbd318083	-0.04333545
50	0xbd1619c4	-0.036645666
51	0x3d917eb9	0.071042486
52	0xbceeea95	-0.029164592
53	0x3af93e92	0.001901584
54	0xbdd4782b	-0.10374483
55	0xbdd8345f	-0.10556864
56	0xbdda0d6a	-0.1064709
57	0xbcad843c	-0.021181218
58	0x3c9e21ba	0.019303191
59	0xbc962087	-0.018326057
60	0xbcdd8879	-0.027042614
61	0x3d1fe503	0.039036762
62	0x3dd0681f	0.101761095
63	0x3d0f9b4f	0.035060223
64	0xbc1f48c2	-0.009721937
65	0xbdd180b1	-0.10229624
66	0x3be0e81b	0.0068636066
67	0x3b836f9d	0.004011108
68	0xbda4ff7b	-0.080565415
69	0x3c69bfdd	0.014266935
70	0xbd4067ff	-0.04697418
71	0x3db0252e	0.086008415
72	0x3c169c9d	0.009192613
73	0x3d684667	0.056707766
74	0xbcc448df	-0.023960529
75	0xbc6946e9	-0.014238098
76	0x3d346ec6	0.044050954
77	0x3dae79a0	0.08519292
78	0x3cc214d8	0.02369158
79	0xbc2fb2f4	-0.010723818
80	0x3c2fa9bd	0.010721621
81	0x3c987e5e	0.018614944
82	0xbc2b20cf	-0.010444834
83	0xbda7efe0	-0.082000494
84	0xbdaff65b	-0.085919105
85	0x37c0574a	2.292883e-05
86	0xbd7e74ea	-0.062123217
87	0x3d9b4ded	0.075832225
88	0x3bc0929b	0.0058768517
89	0xbbc9229a	-0.006138158
90	0x3d3b204e	0.045685105
91	0x3c722b8f	0.014780893
92	0xbc97d5bd	-0.018534536
93	0xbbdf6f41	-0.0068186824
94	0xbd9aba84	-0.07555106
95	0x3d75d5c4	0.060018316
96	0x3ae0209e	0.0017099564
97	0xbd08583c	-0.03328727
98	0x3d87001a	0.06591816
99	0x3c009d5a	0.007850016
100	0xbc42a67f	-0.011880516
101	0xbc0ceb62	-0.0086010415
102	0xbd4f3b4c	-0.05059366
103	0xbdbda63a	-0.09260221
104	0xbd8fb48d	-0.07016859
105	0x3bb9aff2	0.0056667263
106	0xbc132694	-0.008981366
107	0xbc4f0858	-0.012636267
108	0x3d086757	0.033301678
109	0x3d2720ec	0.04080288
110	0xbbc4ce58	-0.0060060434
111	0xbcb4a03b	-0.02204906
112	0xbd869856	-0.065720245
113	0x3d16278a	0.0366588
114	0x3d515981	0.05111075
115	0x3d060433	0.03271885
116	0x3a955af9	0.001139491
117	0x3ce318b4	0.02772174
118	0x3d79c5f9	0.060979817
119	0x3d9e7796	0.07737653
120	0x3d4abcaa	0.04949633
121	0xbcd452c4	-0.025918372
122	0x3c6fe314	0.014641542
123	0x3c875691	0.01652077
124	0x3baec99e	0.0053340932
125	0xbca579b4	-0.020199634
126	0xbce3f0e9	-0.027824836
127	0xbd93f1ed	-0.07223878
128	0xbd18506f	-0.037186082
129	0x3c8353f1	0.016031237
130	0x3d808b97	0.06276625
131	0x3d27bfc1	0.040954355
132	0x3c8187f6	0.015811902
133	0x3d651089	0.055923972
134	0xbb1c3a3e	-0.0023838426
135	0x3cb74973	0.02237389
136	0xbd8f943d	-0.07010696
137	0xbcdc57be	-0.026897307
138	0x3d12a6e9	0.03580371
139	0xbd844e4e	-0.06460248
140	0xbd2a5dec	-0.041593477
141	0x3d3c74c4	0.046009794
142	0xbd8c5e8b	-0.0685397
143	0xbdd2c51f	-0.10291504
144	0x3d8df5e7	0.06931668
145	0x3e054e32	0.1301811
146	0x3d863ffe	0.06555174
147	0xbd3a0222	-0.04541219
148	0x3d443a97	0.047907438
149	0xbced1c48	-0.02894415
150	0x3def00da	0.11670084
151	0x3d24c7ed	0.040229727
152	0x3d60150a	0.054707564
153	0x3d390d9d	0.045179
154	0x3dc4adcf	0.09603464
155	0xbc8e595e	-0.017376598
156	0xbd3aad29	-0.045575295
157	0x3d0a9a17	0.033838358
158	0x3caa930f	0.020822076
159	0x3dd094db	0.10184642
160	0xbd9783b5	-0.07398168
161	0x3d557e3a	0.052122332
162	0xbd9817ff	-0.07426452
163	0x3d630f46	0.055434488
164	0xbc5a0173	-0.01330601
165	0xbd4c8d26	-0.049939297
166	0xba85b36a	-0.0010200564
167	0x3d122029	0.0356752
168	0x3c81344e	0.015772011
169	0xbcbb2e35	-0.022849182
170	0xbc529c16	-0.012854597
171	0x3d61176a	0.05495397
172	0x3db1148b	0.086464964
173	0x3d920bf8	0.07131189
174	0x3d271c9c	0.04079877
175	0x3d30dcca	0.04317931
176	0x3cf5714d	0.029961253
177	0x3d87ccba	0.06630845
178	0x3bcc6908	0.0062381066
179	0xbc860389	-0.016359108
180	0xbcb1b23a	-0.02169143
181	0xbccce39a	-0.025010873
182	0xbd847804	-0.06468204
183	0x3cbfda7e	0.023419615
184	0x3ca68212	0.020325694
185	0xbd156631	-0.03647441
186	0xbc745b6c	-0.014914375
187	0x3ca71dc7	0.020399941
188	0x3c6bc513	0.014390248
189	0x3d37ca8b	0.044870894
190	0xbdbf5e48	-0.093441546
191	0xbdaf2577	-0.08552068
192	0xbcc30ed1	-0.023810776
193	0x3cbde25e	0.02317923
194	0x3d8a24fc	0.067453355
195	0xbd565055	-0.052322704
196	0x3c096298	0.008385323
197	0x3c09fd82	0.008422257
198	0xbcd24b7b	-0.025670758
199	0x3d69cbb4	0.057079032
200	0x3d1d87f8	0.038459748
201	0x3b36c442	0.0027887975
202	0x3cfc834c	0.030824326
203	0x3bda06d4	0.006653646
204	0x3d04fd93	0.03246839
205	0x3d20b381	0.03923369
206	0x3d356bb4	0.044292167
207	0x3da1f9e7	0.07908993
208	0x3deb1517	0.11478632
209	0x3a682478	0.0008855532
210	0x3c8da7c0	0.017291903
211	0x3dd86cdf	0.105676405
212	0x3d32bfd3	0.04363997
213	0x3d814968	0.06312829
214	0x3a2a7d9b	0.0006503702
215	0xbcbcf21e	-0.02306467
216	0x3c2121eb	0.009834747
217	0xbc38833c	-0.011261757
218	0x3c55d21e	0.013050584
219	0xbb58d9a6	-0.0033088713
220	0x3c82a025	0.015945503
221	0xbc8f85c0	-0.017519832
222	0x3c68e949	0.014215776
223	0xbbb82029	-0.005619068
224	0xbd98073b	-0.07423254
225	0x3defb6cf	0.1170479
226	0x3cc026df	0.023456035
227	0x3cfe1758	0.03101699
228	0xbc4ac946	-0.012377089
229	0x3d31dd47	0.043423917
230	0x3e2609e5	0.16214712
231	0x3cf37a1e	0.029721316
232	0xbb26c018	-0.0025444087
233	0x3d9724c6	0.07380061
234	0x3d56115a	0.05226264
235	0xbc8eea52	-0.017445717
236	0x3c813290	0.01577118
237	0xbd2a4262	-0.041567214
238	0xbc464a25	-0.012102638
239	0xbccde3ce	-0.02513304
240	0xbc9534e8	-0.018213704
241	0xbd2e230e	-0.0425139
242	0xbd117a71	-0.03551716
243	0xbc2e111c	-0.010624196
244	0x3afb9421	0.0019193926
245	0x3c08ed6c	0.008357387
246	0xbcc99045	-0.024604926
247	0x3b923c6d	0.0044627697
248	0x3ce14fd9	0.027503895
249	0x3c45d9b8	0.012075834
250	0xbd07e9fc	-0.03318213
251	0x3b8a92bd	0.0042289183
252	0xbcb7c212	-0.022431407
253	0xbde8d5d3	-0.11368909
254	0x3b989d18	0.004657399
255	0xbd622c06	-0.055217765

layer4.0.bias f4 [32]
0	0xbda4ee6b	-0.08053287
1	0x3d27c685	0.040960807
2	0xbd46af29	-0.04850689
3	0xbc3be471	-0.011468039
4	0xbd51772a	-0.051139034
5	0x3d4ce4fd	0.050023068
6	0xbccd6e4b	-0.025077006
7	0xbd414881	-0.047188286
8	0xbd26f485	-0.040760536
9	0x3d65b475	0.0560803
10	0x3dabb624	0.0838435
11	0x3d895489	0.06705577
12	0xbd6dd01f	-0.058059808
13	0xbc11eafc	-0.008906122
14	0xbd07a10e	-0.033112578
15	0xbd5cd618	-0.053915113
16	0x3d1d59e5	0.03841581
17	0xbc92bd7c	-0.017912619
18	0x3d4c1644	0.04982592
19	0xbd9fd53d	-0.07804344
20	0x3d16b724	0.03679575
21	0xbcb66b24	-0.022267886
22	0xbc82a24c	-0.01594653
23	0x3d15c437	0.03656408
24	0xbd342577	-0.04398104
25	0x3c86bccf	0.016447453
26	0xbc0f40aa	-0.008743444
27	0xbd989381	-0.07450009
28	0x3ca6427b	0.020295372
29	0xbd092ad2	-0.033488102
30	0xbd835dc4	-0.06414369
31	0x3ca556ff	0.020183085

layer4.1.weight f4 [32]
0	0x3f8d1a46	1.1023643
1	0x3f8b4061	1.0879022
2	0x3f8d7642	1.1051714
3	0x3f8951eb	1.0728124
4	0x3f8b0a2a	1.0862477
5	0x3f8918fc	1.071075
6	0x3f8b4f1c	1.0883517
7	0x3f8acde6	1.0844085
8	0x3f8b5024	1.0883832
9	0x3f8bb988	1.0915995
10	0x3f8a5e13	1.0809959
11	0x3f8e798f	1.1130847
12	0x3f8c1b53	1.0945839
13	0x3f87f080	1.062027
14	0x3f88b933	1.0681518
15	0x3f83416a	1.0254338
16	0x3f895d7d	1.0731655
17	0x3f8e7ee9	1.113248
18	0x3f8be1ac	1.0928245
19	0x3f8e56e6	1.1120269
20	0x3f884967	1.0647401
21	0x3f8b3d97	1.0878171
22	0x3f87b05b	1.0600694
23	0x3f8e18c9	1.1101314
24	0x3f8c2d6a	1.0951359
25	0x3f8c785d	1.0974232
26	0x3f8c2294	1.0948052
27	0x3f880c22	1.0628703
28	0x3f89f0da	1.0776627
29	0x3f8a77c0	1.0817795
30	0x3f882411	1.0636007
31	0x3f8646b9	1.0490333

layer4.1.bias f4 [32]
0	0x3d0bb51c	0.034108266
1	0x3d1d6cdc	0.038433895
2	0x3d8ec6f9	0.06971545
3	0x3c86f8b2	0.016476009
4	0x3d006363	0.031344783
5	0x3cd56a1f	0.026051579
6	0x3d1e0ebd	0.038588274
7	0x3cd33aea	0.025784928
8	0x3d17ee80	0.037092686
9	0x3d71a9c9	0.05899981
10	0x3cad4ca1	0.021154704
11	0x3d9e3485	0.07724861
12	0x3cffcf37	0.031226737
13	0x3d278b3a	0.04090426
14	0x3d57f4bd	0.052723635
15	0xbb2e9bd4	-0.0026643174
16	0x3d0eea77	0.03489157
17	0x3c8e3d8a	0.017363328
18	0x3d25eb9c	0.040507898
19	0x3cf34cef	0.02969977
20	0x3c3be9be	0.011469303
21	0x3d598960	0.053109527
22	0x3d3ad989	0.045617614
23	0x3d5c7d1f	0.053830262
24	0x3d0907ae	0.03345459
25	0x3d3b510d	0.045731593
26	0x3d1932e8	0.037402064
27	0x3d1eb514	0.03874691
28	0x3d692d0c	0.056927726
29	0x3d43a393	0.04776342
30	0x3d468d21	0.048474435
31	0x3d26bf52	0.0407098

layer4.1.running_mean f4 [32]
0	0xbee9e58b	-0.4568294
1	0x3ed1c5ff	0.40971372
2	0x3dc15b14	0.094412
3	0x3e949f73	0.290279
4	0xbe972c98	-0.2952621
5	0x3d15b0cc	0.03654556
6	0xbe748e83	-0.23882489
7	0x3f0cc196	0.5498289
8	0xbe8b9655	-0.27263132
9	0xbf04a289	-0.5181051
10	0x3f43196f	0.76210684
11	0x3f046991	0.5172358
12	0xbe12799c	-0.14304203
13	0xbf145d79	-0.5795513
14	0xbf7b056a	-0.98055136
15	0x3e0944f2	0.13405207
16	0x3f04aa41	0.51822287
17	0xbedadf1e	-0.4274835
18	0x3f02ab54	0.51042676
19	0xbe46e828	-0.19424498
20	0xbec5cdcb	-0.3863357
21	0xbf8cde51	-1.1005346
22	0xbf4981c2	-0.7871362
23	0x3ea4d80e	0.32196087
24	0x3d320af0	0.043467462
25	0xbec2603f	-0.37964055
26	0xbe90e73b	-0.28301415
27	0x3ead0f8e	0.3380093
28	0x3f1855a6	0.5950569
29	0xbfd7afe1	-1.6850549
30	0xbf15ced0	-0.58518696
31	0x3f04b601	0.51840216

layer4.1.running_var f4 [32]
0	0x3f838fca	1.0278256
1	0x3f2ab358	0.66679907
2	0x3f3a3b20	0.7274647
3	0x3f5be910	0.859025
4	0x3f40460f	0.751069
5	0x3f559e25	0.83444434
6	0x3f47a856	0.77991235
7	0x3f0224f0	0.5083761
8	0x3f4c830c	0.7988746
9	0x3f879ab7	1.059409
10	0x3f2c5d09	0.6732946
11	0x3f0e390d	0.555558
12	0x3f42568e	0.7591332
13	0x3f726200	0.94680786
14	0x3f4b91c0	0.7951927
15	0x3f1157f3	0.56774825
16	0x3f35fcc4	0.71088815
17	0x3f6d5085	0.9270099
18	0x3f37a05f	0.7172908
19	0x3f4dc06a	0.80371726
20	0x3f77f34a	0.96855605
21	0x3f8f0166	1.1172302
22	0x3f80ac14	1.0052514
23	0x3f1e9b74	0.6195595
24	0x3f64ecfe	0.8942412
25	0x3f6febdd	0.93719274
26	0x3f4c3d6b	0.79781216
27	0x3f204766	0.62608945
28	0x3f2203a2	0.63286793
29	0x3fa842a6	1.314534
30	0x3f5f7d6d	0.8730076
31	0x3f0041c4	0.5010035

fc.weight f4 [1, 1152]
0	0x3d09d034	0.033645824
1	0x3cdf1db7	0.027235849
2	0xbcac587b	-0.021038285
3	0xbc82d2da	-0.015969682
4	0x3c1caaca	0.009562204
5	0x3c8d03a4	0.01721365
6	0x3ca8f19e	0.020623025
7	0x3d35b00e	0.044357352
8	0xbbad2e14	-0.005285034
9	0x3d302ed1	0.043013398
10	0xbbb705b5	-0.005585397
11	0xbc5aed95	-0.013362308
12	0x3d315659	0.04329524
13	0xbcd5fc37	-0.026121242
14	0xbd9b3149	-0.0757776
15	0xbd818402	-0.063240066
16	0x3d32508d	0.04353385
17	0x3d41156c	0.04713957
18	0x3bef7211	0.007307299
19	0xbcff842c	-0.031190954
20	0xbd8c3c7b	-0.06847473
21	0xbd970791	-0.0737449
22	0xbce53cac	-0.027983032
23	0xbc16cdf2	-0.009204375
24	0xbb2315ec	-0.0024884893
25	0xbce4fb73	-0.027951932
26	0xbd9c9ce3	-0.07647111
27	0xbcc7cbe4	-0.024389215
28	0x3bbc0397	0.0057377326
29	0x3c5a661b	0.013330008
30	0xbc4f75c2	-0.012662353
31	0xbcd133d6	-0.025537413
32	0x3beacc9b	0.007165504
33	0x3d0b08c9	0.033943925
34	0x3c523e58	0.012832247
35	0x3ca2abf9	0.019857394
36	0x3ccdabb8	0.025106296
37	0x3c96e37c	0.01841902
38	0x3cd7a944	0.02632583
39	0x3d2a0cff	0.0415163
40	0x3d1eaf4c	0.038741395
41	0xbcaf3f3d	-0.021392459
42	0x3ca6c0ba	0.020355571
43	0x3ce87b8f	0.02837923
44	0x3d3f2780	0.04666853
45	0x3d5f7fa4	0.054565087
46	0x3d252446	0.040317796
47	0x3b8657f7	0.0040998417
48	0x3c0615e1	0.008183927
49	0x3cebd625	0.028788636
50	0x3ce45253	0.027871286
51	0x3c96e7cf	0.018421082
52	0x3d1a6881	0.03769732
53	0x3b419f5e	0.0029544453
54	0x3d1ed45f	0.03877675
55	0x3d59b43b	0.053150397
56	0x3d9119c6	0.07084994
57	0x3dce5b90	0.10076058
58	0x3d73a178	0.05948016
59	0xbd0472d8	-0.032336086
60	0x3c974b84	0.018468626
61	0x3c23c208	0.009994991
62	0xbb1beb81	-0.0023791494
63	0x3d8b592e	0.06804119
64	0x3d608908	0.054818183
65	0x3cca0c8e	0.02466419
66	0xbbf82547	-0.007572803
67	0x399ec2b3	0.0003028117
68	0x3b241196	0.0025034896
69	0x3ceb728c	0.028741144
70	0x3ba8afbe	0.005147903
71	0xbcb7aa35	-0.022420028
72	0xbbbbeeef	-0.00573527
73	0xbc28b680	-0.010297418
74	0xbc661eec	-0.014045458
75	0xbb733d86	-0.0037115528
76	0xbb85360e	-0.0040652817
77	0xbb2c71ca	-0.002631294
78	0xbaf6fa0f	-0.0018842834
79	0x3c67d0ad	0.014148873
80	0x3dabb6dc	0.08384487
81	0x3d9fd920	0.07805085
82	0x3d15e45e	0.03659474
83	0x3ce7d4f5	0.028299788
84	0x3c0fc314	0.008774538
85	0x3d5d4ad8	0.054026455
86	0x3cd1d3fa	0.025613774
87	0xbd7529b9	-0.059854243
88	0xbd45b2f5	-0.04826637
89	0x3cef07b1	0.029178472
90	0xbc98df91	-0.018661292
91	0x3c8ac51b	0.01693969
92	0xbd668695	-0.05628069
93	0xbd017ded	-0.031614233
94	0xbd196f13	-0.037459444
95	0x3bd953e9	0.0066323173
96	0xbbe14962	-0.006875203
97	0xbc9fdb36	-0.019513708
98	0xbd99400e	-0.074829206
99	0xbd4c8836	-0.04993459
100	0xbd32a978	-0.04361865
101	0x3c18f7b7	0.009336404
102	0x3d0b4ffb	0.034011822
103	0xbb58c55d	-0.0033076622
104	0xbb7999f1	-0.003808614
105	0x3d145891	0.036217276
106	0x3c0a87fd	0.008455274
107	0x3d836a1a	0.06416722
108	0x3c159ba2	0.009131344
109	0xbc1b0471	-0.009461508
110	0x3cc45c19	0.023969697
111	0x3c583af4	0.013197649
112	0x3ca9aaee	0.020711388
113	0x3b95f91e	0.004576816
114	0x3bef7d53	0.007308641
115	0xbac87d2b	-0.0015296092
116	0x3cb1ab52	0.021688137
117	0x3d278683	0.040899765
118	0x3d4f9292	0.05067689
119	0x3cca63f7	0.02470587
120	0xbc046732	-0.008081244
121	0x3cd12c44	0.025533803
122	0x3ddf650b	0.10907944
123	0x3dd68d56	0.104761764
124	0x3d98c080	0.074585915
125	0x3d0f6819	0.035011385
126	0x3d10686a	0.035255827
127	0x3cb13dfa	0.021635998
128	0x3d4cebb4	0.05002947
129	0xbc47ab3c	-0.012186822
130	0x3d2aa642	0.041662462
131	0x3cc6e1bf	0.024277566
132	0x3d3c2f24	0.045943394
133	0x3d1b7f54	0.037963226
134	0x3d499ac9	0.04921988
135	0x3cee45ce	0.02908602
136	0x3d1754f7	0.036946263
137	0x3cf61287	0.030038131
138	0x3c912031	0.017715545
139	0xbbcf800e	-0.006332404
140	0x3d33385a	0.043754913
141	0x3c391e85	0.01129878
142	0x3c3fe447	0.01171214
143	0x3b18d011	0.0023317377
144	0xbc3e1490	-0.011601582
145	0x3cf02d35	0.029318431
146	0xbb44868c	-0.0029987423
147	0xbc884b10	-0.016637355
148	0xbd001621	-0.031271104
149	0xbc91941e	-0.017770823
150	0xbc6ecbc0	-0.014574945
151	0x3c2b200f	0.010444655
152	0xbd6faa73	-0.058512162
153	0xbd9f75c7	-0.07786136
154	0xbd37ba10	-0.044855177
155	0xbcc8dac4	-0.024518378
156	0xbc8afb8d	-0.016965652
157	0x3c8671b9	0.016411649
158	0xbda456d8	-0.08024377
159	0xbdfaa2c7	-0.122380786
160	0xbda25ebd	-0.07928226
161	0xbd230a4a	-0.039804734
162	0xbc57adcf	-0.013163998
163	0xbbd7ca28	-0.006585378
164	0x3d435f10	0.04769808
165	0xbce40325	-0.02783353
166	0xbd276be9	-0.040874396
167	0xba98ce9d	-0.0011658255
168	0xbc8367dc	-0.016040735
169	0xbd430bc7	-0.047618654
170	0xbd87e2d7	-0.06635063
171	0xbd92443f	-0.07141923
172	0xbd8a1e09	-0.0674401
173	0x3c2a8314	0.010407228
174	0x3a3fc7fe	0.0007315873
175	0x3cd7d433	0.026346302
176	0x3c54b921	0.012983591
177	0xbb42bfaa	-0.0029716291
178	0x3bc8674d	0.00611583
179	0x3ccc8be3	0.024969047
180	0xbb2b015a	-0.0026093335
181	0x3c81dc88	0.015852228
182	0x3c0aee5d	0.008479682
183	0x3c80812b	0.015686592
184	0x3c9a43a7	0.018831087
185	0xbc861df5	-0.016371707
186	0x3c627be9	0.013823488
187	0x3c99af41	0.018760325
188	0x3d760fce	0.060073666
189	0x3db06578	0.08613104
190	0x3d2fd271	0.042925302
191	0x3be289fe	0.0069134226
192	0x3c8eff48	0.017455712
193	0x3d313df2	0.043271966
194	0x3d0c22a8	0.03421274
195	0x3d2d7ede	0.042357318
196	0x3d1fa3e9	0.038974676
197	0x3d6723c2	0.056430586
198	0x3cb7fbdd	0.022458965
199	0x3dbcbf55	0.09216181
200	0x3d4fc7e4	0.05072774
201	0xbb004711	-0.001957361
202	0x3d381b1b	0.044947725
203	0x3d5294a5	0.05141129
204	0xbd00e279	-0.03146598
205	0x3ce65bc1	0.028119924
206	0x3cc6a459	0.024248289
207	0x3d097eb7	0.03356811
208	0x3d8245ab	0.06360944
209	0x3ca78586	0.020449411
210	0xbba1bc0b	-0.0049357465
211	0x3cd53d24	0.02603013
212	0x3cc32330	0.02382049
213	0x3c998043	0.018737918
214	0x3b7fecbb	0.0039051014
215	0xbc413c8f	-0.011794223
216	0xbcd0fb7f	-0.025510548
217	0x3b7e5d0b	0.0038812782
218	0x3af2cdc2	0.0018524455
219	0xbbc3695a	-0.0059634866
220	0xbcfd4cc5	-0.030920396
221	0xbca19af5	-0.01972721
222	0x3c66866b	0.014070134
223	0x3c60f314	0.013729829
224	0xbd2c5208	-0.04207042
225	0xbdabc51e	-0.083872065
226	0xbd220df3	-0.039564084
227	0x3c9f7eac	0.019469582
228	0x3c1d22c8	0.009590812
229	0xbd820589	-0.06348712
230	0x3a8b8949	0.0010645773
231	0x3b7e293d	0.0038781904
232	0xbd1efc83	-0.038815033
233	0xbcff46ea	-0.031161744
234	0xbc4e52de	-0.012592999
235	0xbd5d869e	-0.05408346
236	0xbbb1d0fc	-0.005426524
237	0xbdeb4698	-0.11488074
238	0xbdd36bc7	-0.10323291
239	0xbd945c12	-0.072441235
240	0x3c0f1114	0.008732099
241	0x3d23d6a4	0.03999962
242	0x3d5af897	0.05345973
243	0xbda1cec5	-0.07900766
244	0xbd47edfb	-0.04881094
245	0xbc629afa	-0.013830895
246	0x3c97639c	0.018480115
247	0xbd270b2e	-0.040782146
248	0xbad6b60d	-0.001638116
249	0x3beb43a9	0.0071796966
250	0xbd2803ba	-0.04101918
251	0xbc9d1811	-0.019176515
252	0xbb358a7f	-0.0027700958
253	0x3cbd121d	0.023079926
254	0x3aba1e17	0.0014199641
255	0xbc42252d	-0.011849684
