data/chkbox_models/chkbox_rnd8_4_bestVal.pt (torch_old, 236310 bytes, 31 tensors)

layer1.0.weight f4 [4, 1, 3, 3]
0	0x3e37252f	0.17885278
1	0xbd69456a	-0.056950964
2	0x3deae801	0.114700325
3	0xbe207937	-0.1567124
4	0xbe9c486d	-0.30524006
5	0x3e08031c	0.13282436
6	0xbeab7015	-0.3348395
7	0x3c735177	0.014850966
8	0xbe8f3860	-0.27972698
9	0x3e3f89d9	0.18704928
10	0xbe5d6a7f	-0.21622656
11	0x3d9dbea4	0.077023774
12	0x3e94e9d9	0.29084662
13	0x3e80f81b	0.2518929
14	0xbd59e469	-0.053196345
15	0xbe89be19	-0.26902846
16	0x3e200599	0.15627135
17	0xbd42fd69	-0.047604952
18	0x3d1466bf	0.0362308
19	0x3c8f0c7a	0.017462004
20	0x3d69d4a6	0.057087563
21	0x3dcc0700	0.09962273
22	0xbdc6e9e3	-0.09712579
23	0xbc0e80fb	-0.0086977435
24	0xbe0e517c	-0.13898271
25	0x3dcffb38	0.10155338
26	0x3e9dffc3	0.30859193
27	0xbe87e3ab	-0.26540884
28	0x3e0f53e3	0.13996844
29	0xbe05708d	-0.13031216
30	0xbdaafdf4	-0.08349219
31	0xbd88bdef	-0.06676852
32	0xbeabbe9d	-0.33543864
33	0x3e5dbfd7	0.21655212
34	0xbe9e2269	-0.30885628
35	0xbe14a968	-0.14517748

layer1.0.bias f4 [4]
0	0x3e901321	0.28139594
1	0x3e51e8f1	0.20499016
2	0xbd94893b	-0.07252737
3	0x3e9c2f21	0.30504707

layer1.1.weight f4 [4]
0	0x3f7e8b8e	0.99431694
1	0x3f7ad502	0.97981274
2	0x3f826e7f	1.0189971
3	0x3f7cef74	0.98802876

layer1.1.bias f4 [4]
0	0xbbccd04b	-0.0062504164
1	0xbc771ded	-0.015082818
2	0x3ba12702	0.00491798
3	0xbca57db4	-0.020201541

layer1.1.running_mean f4 [4]
0	0xbec0d792	-0.37664467
1	0x3f10f314	0.5662091
2	0x3e90115b	0.2813824
3	0xbf1f9238	-0.6233249

layer1.1.running_var f4 [4]
0	0x3f04c284	0.5185931
1	0x3e2535e4	0.16133839
2	0x3e0f9cb4	0.14024621
3	0x3f6bd478	0.92121077

layer2.0.weight f4 [8, 4, 3, 3]
0	0x3c9ea3a1	0.019365134
1	0xbe087ffb	-0.1333007
2	0xbb905fb3	-0.0044059395
3	0x3db4dbab	0.08830961
4	0x3d879c18	0.066215694
5	0x3d967137	0.07345813
6	0x3d8ca9ab	0.06868299
7	0xbd0920c9	-0.033478532
8	0x3dad5976	0.08464329
9	0x3ac19890	0.0014770199
10	0x3e1001a8	0.14063132
11	0x3e17014f	0.14746593
12	0x3d057a7b	0.03258751
13	0xbe0b3fbb	-0.1359853
14	0xbd74e803	-0.059791576
15	0xbd259e3f	-0.04043412
16	0xbd9c7187	-0.07638841
17	0x3bece895	0.0072298744
18	0x3e03a94b	0.12857549
19	0x3cfe8c7b	0.031072846
20	0xbd876f93	-0.06613078
21	0xbd390afa	-0.045176484
22	0x3deccd0c	0.11562547
23	0x3de1e318	0.11029643
24	0xbca318fd	-0.019909376
25	0xbdb215f7	-0.08695596
26	0x3dc1a79c	0.09455797
27	0xbd761ffa	-0.06008909
28	0x3df3d1ad	0.11905227
29	0x3d76a2e8	0.060213953
30	0x3e094340	0.1340456
31	0xbdf4a78e	-0.11946021
32	0xbd922bb8	-0.07137245
33	0x3e03da74	0.12876302
34	0xba858d9e	-0.00101893
35	0x3dd72156	0.10504405
36	0xbc61327a	-0.013744945
37	0x3d0e3cf3	0.034726094
38	0xbb7c4cde	-0.0038497965
39	0xbd9466b1	-0.07246149
40	0x3e0eb812	0.13937405
41	0x3dbbfec4	0.09179452
42	0xbc6e60fa	-0.014549488
43	0x3c537262	0.012905689
44	0xbe217e8f	-0.15770935
45	0x3d01019c	0.031495675
46	0x3cc5c8d2	0.02414361
47	0x3deca83b	0.11555525
48	0x3dfb5b28	0.12273246
49	0x3c8610b9	0.016365396
50	0xbd520253	-0.051271748
51	0x3cb4ddc5	0.022078404
52	0x3b84f13a	0.0040570768
53	0xbd10f66d	-0.03539126
54	0x3c6d6983	0.014490488
55	0x3dda202b	0.10650667
56	0xbd93e5d5	-0.07221571
57	0x3daa19c9	0.083056994
58	0x3d828c05	0.06374363
59	0x3e025278	0.12726772
60	0xbd1cb16e	-0.038255148
61	0x3e160118	0.14648855
62	0x3e3186b6	0.17336544
63	0x3c5d3438	0.013501219
64	0x3d697442	0.056995638
65	0x3e214aea	0.15751234
66	0x3e00288f	0.12515472
67	0x3d0c3e94	0.034239367
68	0x3cc94467	0.02456875
69	0x3d99f64e	0.07517682
70	0x3dc308bb	0.095231496
71	0xbcf2bc3c	-0.029630773
72	0xbe298beb	-0.1655728
73	0xbdd8969e	-0.10575603
74	0x3d9b1fed	0.07574449
75	0xbe160f14	-0.1465419
76	0xbd0a94cd	-0.033833314
77	0x3dadea35	0.08491937
78	0xbe22ce07	-0.15898906
79	0xbd8fc7dd	-0.07020543
80	0xbd15f8dc	-0.036614284
81	0x3de136c4	0.10996774
82	0xbd523313	-0.05131824
83	0x3c6ccea8	0.014453568
84	0x3e0641b3	0.13111
85	0x3d100686	0.03516247
86	0x3d97fdee	0.0742148
87	0x3ded3944	0.11583188
88	0x3afa1776	0.0019080478
89	0x3d606c64	0.05479087
90	0xbd3c91c7	-0.04603746
91	0x3df2fc38	0.11864513
92	0x3d549a6e	0.051905088
93	0xbd597a9e	-0.053095452
94	0x3d872832	0.065994635
95	0x3d81cc86	0.06337838
96	0x3e1e6915	0.15469773
97	0xbe092f43	-0.13396935
98	0xbd644925	-0.05573382
99	0xbbb70ae4	-0.005586015
100	0xbd3c50ed	-0.045975614
101	0xbdd7b025	-0.10531644
102	0x3c995551	0.01871744
103	0xbe0a4493	-0.13502721
104	0xbae62365	-0.0017558156
105	0x3c6a98b9	0.0143186385
106	0x3d424b92	0.04743535
107	0xbd76fc76	-0.06029936
108	0xbd8d5361	-0.06900669
109	0x3d103cce	0.035214238
110	0x3d962235	0.07330743
111	0x3e16f9ea	0.14743772
112	0xbb9730df	-0.00461398
113	0xbc760a94	-0.01501717
114	0x3d5ceac8	0.053934842
115	0x3e0d13ef	0.13777135
116	0x3da7a487	0.08185678
117	0xbdfc778c	-0.12327489
118	0xbd92dac9	-0.07170636
119	0xbdd25223	-0.102695726
120	0xba034396	-0.00050073245
121	0xbdf28084	-0.11840919
122	0x3d8b79fd	0.06810377
123	0xbe06f85f	-0.13180684
124	0x3db17f63	0.08666875
125	0x3da1e56c	0.07905087
126	0xbdc699c3	-0.096972965
127	0x3d193aa3	0.037409436
128	0xbbfc7d9b	-0.007705403
129	0x3d9d3cec	0.076776356
130	0xbd8c1232	-0.06839408
131	0xbe1884ca	-0.14894405
132	0x3e09a718	0.13442647
133	0xbd7e60b5	-0.062103946
134	0x3de74c22	0.11293818
135	0x3cfb210e	0.03065541
136	0x3e3e8eba	0.18609133
137	0x3dc6f545	0.0971475
138	0x3e0d5e40	0.13805485
139	0xbdfc3337	-0.12314456
140	0x3e0e66c1	0.13906385
141	0xbdd8704e	-0.105682954
142	0x3dee3e06	0.11632924
143	0xbd37fd28	-0.044919163
144	0xbe1f0c91	-0.15532137
145	0xbcc78949	-0.024357455
146	0xbdf89909	-0.12138564
147	0x3dca9a0f	0.098926656
148	0xbdf0a36c	-0.1174992
149	0x3d5c20c2	0.053742178
150	0xbda167a3	-0.07881095
151	0xbd8694fc	-0.06571385
152	0x3d13c806	0.03607943
153	0xbd0ad985	-0.03389885
154	0xbe02235e	-0.12708804
155	0x3c558540	0.013032258
156	0x3dc19c86	0.094536826
157	0xbc420729	-0.011842527
158	0x3ca455d8	0.020060465
159	0xbddbb28f	-0.10727417
160	0x3e0885cd	0.13332291
161	0xbda220e9	-0.07916433
162	0xbd159950	-0.036523163
163	0x3dc2d6e4	0.095136434
164	0xbe0c2cdd	-0.13688989
165	0x3d3f3692	0.0466829
166	0x3d63ff2d	0.055663276
167	0xbe0aa459	-0.13539256
168	0x3dc3de1b	0.09563848
169	0x3e1dd808	0.1541444
170	0x3b98477e	0.0046471944
171	0x3e127201	0.14301302
172	0x3d22be4f	0.039732274
173	0x3c5c7cf7	0.013457528
174	0x3e096a77	0.1341952
175	0x3d89e708	0.06733519
176	0xbde0bc6e	-0.1097344
177	0x3c144d24	0.009051595
178	0xbd84b6eb	-0.06480201
179	0xbdfe935a	-0.12430449
180	0x3da99059	0.08279485
181	0x3e0d98eb	0.13827865
182	0x3da4a509	0.080392905
183	0x3ab07f70	0.0013465714
184	0xbe203de4	-0.1564861
185	0xbd862b18	-0.06551188
186	0xbe030b23	-0.12797217
187	0xbca47c67	-0.02007885
188	0xbd8bbdda	-0.06823321
189	0x3d07ef38	0.03318712
190	0x3e0a05ab	0.13478725
191	0xbdfa1df8	-0.12212747
192	0xbe00f1fe	-0.12592313
193	0x3dd6b6c6	0.1048408
194	0x3e012bc7	0.12614356
195	0x3d072949	0.032998357
196	0x3c3b792b	0.011442463
197	0x3d3f01f2	0.046632715
198	0xbdbad52e	-0.09122692
199	0x3e17dc33	0.14830093
200	0x3e1a162f	0.15047525
201	0x3e29c348	0.165784
202	0x3dd58630	0.10425985
203	0x3e22f6a2	0.15914395
204	0x3da622fa	0.0811214
205	0xbd1cd8a1	-0.03829253
206	0xbdb52372	-0.08844651
207	0xbe295da9	-0.16539635
208	0xbe381d74	-0.17979985
209	0xbe096331	-0.13416745
210	0x3c498a85	0.012301092
211	0x3e0f2d68	0.13982165
212	0xbdaf9e38	-0.085751
213	0xbe00cb78	-0.12577617
214	0x3e034044	0.12817484
215	0x3dc9b6ba	0.098493055
216	0x3bf2c9a2	0.0074092904
217	0xbe0060a1	-0.12536861
218	0xbdab15f7	-0.08353799
219	0x3daff270	0.08591163
220	0xbde82c70	-0.11336601
221	0xbd829bd7	-0.0637738
222	0xbdc89e6c	-0.097958416
223	0xbad4e9b9	-0.0016243971
224	0x3c827d13	0.01592878
225	0x3d033d2b	0.032040756
226	0xbe1fd36f	-0.15608
227	0xbac089ab	-0.0014689466
228	0x3c8ebfb9	0.017425405
229	0xbe11e292	-0.14246586
230	0xbe1fc73d	-0.15603347
231	0xbdb5367a	-0.08848281
232	0xbd3741a0	-0.04474032
233	0xbda7ac69	-0.081871815
234	0x3d0a1873	0.033714723
235	0xbd1ac0eb	-0.037781637
236	0xbdf27d06	-0.118402526
237	0x3df7bf61	0.120970495
238	0xbe249028	-0.16070616
239	0x3d9648ad	0.073380806
240	0x3db2f131	0.0873741
241	0x3d52c9fa	0.05146215
242	0xbe0da095	-0.13830788
243	0x3daa1141	0.08304072
244	0xbdf8cc51	-0.12148345
245	0x3b10e6c1	0.0022110196
246	0xbd565b95	-0.052333433
247	0xbdd3e0df	-0.10345625
248	0xbde5c158	-0.11218518
249	0x3ddcb468	0.10776597
250	0x3cd70dec	0.026251756
251	0x3db4926c	0.0881699
252	0x3df631ef	0.12021243
253	0xbba7094e	-0.0050975448
254	0xbd4c019d	-0.049806226
255	0xbd9b26f9	-0.07575793

layer2.0.bias f4 [8]
0	0x3df4d07f	0.1195383
1	0x3dee74a5	0.11643342
2	0x3d807652	0.06272568
3	0xbe109dda	-0.14122716
4	0x3e092093	0.13391332
5	0xba3df327	-0.00072460104
6	0xbe1bdc36	-0.15220723
7	0xbdc6ff4a	-0.09716661

layer2.1.weight f4 [8]
0	0x3f7ad266	0.9797729
1	0x3f812836	1.0090396
2	0x3f81fd87	1.0155495
3	0x3f80ec8b	1.0072187
4	0x3f7f2645	0.9966777
5	0x3f80bd46	1.0057762
6	0x3f7c2dfa	0.98507655
7	0x3f7d8ed7	0.9904608

layer2.1.bias f4 [8]
0	0xbbdbf209	-0.0067122024
1	0xbaba80e8	-0.0014229091
2	0x3c1058a5	0.008810197
3	0x3b550d7f	0.0032509265
4	0xbba5eecb	-0.0050638667
5	0x3c962e94	0.018332757
6	0xbc674fb5	-0.014118125
7	0xbb9b3d1c	-0.0047375094

layer2.1.running_mean f4 [8]
0	0x3edd7dc7	0.43260023
1	0x3f3073b9	0.6892658
2	0x3b59053a	0.0033114688
3	0x3d822d50	0.06356299
4	0x3d64614a	0.055756845
5	0x3e33eca6	0.17570743
6	0xbf1d9b69	-0.6156526
7	0xbe453403	-0.19258122

layer2.1.running_var f4 [8]
0	0x3da11398	0.07865065
1	0x3e51766c	0.2045533
2	0x3edf3c22	0.43600565
3	0x3e8d3f21	0.27587226
4	0x3d9b7d74	0.07592288
5	0x3ef2bd18	0.47409892
6	0x3e279052	0.16363648
7	0x3e41ca64	0.18924862

layer3.0.weight f4 [16, 8, 3, 3]
0	0x3ce450a2	0.02787048
1	0x3d9219fc	0.071338624
2	0x3d0396da	0.032126285
3	0x3d3a6269	0.045504007
4	0x3d22eb5e	0.039775245
5	0xbd82a2e8	-0.06378728
6	0xbd163b2d	-0.03667753
7	0x3d97b70d	0.07407961
8	0xbd366834	-0.04453297
9	0x3d0b1778	0.03395793
10	0xbd3c858f	-0.04602581
11	0xbd8fa042	-0.070129886
12	0x3c91083d	0.017704124
13	0x3cb0f72d	0.021602238
14	0xbdf11a5b	-0.11772605
15	0x3d5b6378	0.053561658
16	0xbdf7a04e	-0.120911226
17	0xbe00e329	-0.12586655
18	0x3de19906	0.11015515
19	0x3dcf16b3	0.101117514
20	0xbd9e6e8f	-0.07735931
21	0xbd0aa270	-0.03384632
22	0x3c9d8fb2	0.019233558
23	0x3db77678	0.08958143
24	0x3d062e04	0.032758728
25	0xbc5ba666	-0.013406372
26	0x3d361857	0.044456806
27	0x3ddb6c06	0.10713963
28	0xbd0925ac	-0.033483192
29	0xbdcbcc43	-0.09951069
30	0xbbf0221b	-0.0073282844
31	0xbdd0d62c	-0.101971
32	0x3d2a545d	0.04158436
33	0xbdbe9f48	-0.09307724
34	0x3d24c168	0.04022351
35	0xbd28eabf	-0.041239496
36	0x3d961da3	0.073298715
37	0xbd0b73da	-0.03404603
38	0x3dfecf33	0.12441864
39	0x3dda8bda	0.10671206
40	0x3d005880	0.0313344
41	0x3d4f5309	0.050616298
42	0x3c7a6deb	0.015284996
43	0xbdcc8c7f	-0.09987735
44	0x3db66529	0.089060135
45	0xbd422f49	-0.047408376
46	0x3c910b71	0.017705651
47	0xbdc369ce	-0.09541665
48	0x3dc83a52	0.09776749
49	0x3d33be80	0.043882847
50	0x3d6f772d	0.058463264
51	0x3c49f5fd	0.012326715
52	0xbd200501	-0.039067272
53	0xbd430039	-0.047607634
54	0x3d3b5f22	0.045745023
55	0x3da61595	0.08109585
56	0x3dbdb343	0.09262707
57	0x3d463fb7	0.048400607
58	0x3d612e02	0.054975517
59	0x3d373669	0.044729624
60	0x3cda1c28	0.026624754
61	0x3cc6853f	0.024233459
62	0x3c51eba4	0.012812529
63	0x3d2ecb0e	0.042674117
64	0xbcbeb114	-0.023277797
65	0x3d434c1d	0.04768001
66	0x3d01b69a	0.031668283
67	0xbd7461a8	-0.059663445
68	0x3d9e5bb9	0.077323385
69	0x3d165cec	0.03670971
70	0xbdc26661	-0.094921835
71	0xbda27cab	-0.07933935
72	0x3cf02c5d	0.029318029
73	0xbd274734	-0.04083939
74	0xbc873060	-0.01650256
75	0xbd1855c8	-0.037191182
76	0xbd1c1a0a	-0.03811077
77	0xbcb453d2	-0.022012625
78	0x3d09b4fa	0.03361986
79	0xbdb844ab	-0.089974724
80	0x3d1428a5	0.036171574
81	0x3da09be0	0.07842231
82	0x3d71c8e8	0.05902949
83	0xbdd5d97c	-0.104418725
84	0x3d3b1097	0.04567012
85	0x3b9266d6	0.0044678254
86	0xbd6a6b61	-0.05723131
87	0x3c3062ea	0.01076577
88	0x3d44436d	0.047915865
89	0x3db0e4ca	0.08637388
90	0x3cef9ac6	0.029248606
91	0x3dafaf56	0.085783646
92	0xbdffbb9e	-0.12486957
93	0xbdbebe9e	-0.09313701
94	0xbca439cc	-0.020047091
95	0x3cfae7e5	0.030628154
96	0xbd8098f9	-0.06279177
97	0xbcbac887	-0.022800697
98	0xbd60e06e	-0.054901533
99	0x3dc29483	0.095009826
100	0x3daaf0e8	0.083467305
101	0x3c69275b	0.0142305745
102	0x3d654183	0.05597068
103	0x3deec39a	0.11658402
104	0x3bcda758	0.0062760524
105	0x3ca1dd08	0.019758716
106	0x3dcb0aa8	0.09914142
107	0xbd3de3f4	-0.04635997
108	0x3cd03329	0.02541502
109	0x3d578691	0.052618567
110	0x3dd67dcf	0.10473215
111	0xbd49bb99	-0.049251173
112	0x3d9f857b	0.07789131
113	0xbca97ad9	-0.020688461
114	0x3da7e68a	0.08198269
115	0x3cbf1d6e	0.023329463
116	0x3cb197b4	0.021678783
117	0xbc80cfd2	-0.015724096
118	0xbd60837d	-0.054812897
119	0xbdf5ee32	-0.12008323
120	0x3cc3ea71	0.023915501
121	0x3d9a174f	0.07523977
122	0x3d9f8e35	0.07790796
123	0xbd5f8e92	-0.054579325
124	0xbd51c5d9	-0.051214073
125	0xbc9c5003	-0.019081121
126	0x3d3a9086	0.045547985
127	0xbd3e6530	-0.04648322
128	0x3d278e95	0.04090746
129	0xbda5b372	-0.08090867
130	0x3d0bf299	0.034166906
131	0x3d4df8a2	0.050285943
132	0xbde9a92e	-0.114092216
133	0xbdd76fa0	-0.10519338
134	0xbcf0f084	-0.029411562
135	0x3d3c3f2f	0.045958694
136	0x3d875c4c	0.06609401
137	0x3d6c4383	0.05768157
138	0x3d98c557	0.074595146
139	0xbca66056	-0.020309608
140	0xbddf662e	-0.10908161
141	0xbca19e06	-0.019728672
142	0xbddc791f	-0.107652895
143	0xbdf663d9	-0.12030763
144	0xbd215e62	-0.03939665
145	0xbd1bbbcb	-0.03802089
146	0xbd4dbf07	-0.050231006
147	0xbd8ce574	-0.06879702
148	0xbd67e562	-0.05661524
149	0x3da141fd	0.078739144
150	0xbd065a3d	-0.0328009
151	0xbd9d4ad9	-0.07680292
152	0xbc6bfbec	-0.014403325
153	0xbd1db518	-0.038502783
154	0xbc6191eb	-0.0137677
155	0xbd364285	-0.04449703
156	0xbd2944f3	-0.04132552
157	0xbcbb3f69	-0.022857385
158	0xbcec9012	-0.028877292
159	0xbd733020	-0.059372067
160	0x3d4f4417	0.050602045
161	0xbd85cbfb	-0.06533047
162	0x3d4f1286	0.050554775
163	0xbd7bbb2d	-0.0614578
164	0x3d68ef43	0.056868803
165	0xbcd2e2b6	-0.02574287
166	0x3d0feb8e	0.03513675
167	0x3d6b1a8e	0.05739837
168	0x3d7e6f55	0.062117893
169	0xbd83c54c	-0.06434116
170	0x39c33905	0.0003723578
171	0x3ce26767	0.027637197
172	0x3cf33dcb	0.029692551
173	0xbdc78d0c	-0.097436994
174	0x3da03125	0.078218736
175	0x3d0dbe55	0.034605343
176	0xbd8b44c4	-0.068002254
177	0x3dab7957	0.08372753
178	0x3cb6a4b2	0.02229533
179	0xbd405728	-0.04695812
180	0x3d57e2f4	0.052706674
181	0x3dd9a11e	0.10626434
182	0x3d0d4377	0.034488168
183	0x3db4c6ab	0.088269554
184	0xbc6b0db9	-0.014346533
185	0xbda92abf	-0.08260106
186	0x3c7e6fed	0.015529615
187	0xbda6252d	-0.081125595
188	0x3d42838a	0.047488727
189	0xbdafaf0b	-0.08578309
190	0xbdbffde8	-0.09374601
191	0x3d278d47	0.040906217
192	0x3cb54cf2	0.022131417
193	0x3d4fa6fe	0.050696366
194	0xbd3afb4c	-0.04564981
195	0xbc1775f6	-0.009244433
196	0x3d0d3946	0.03447845
197	0xbdbadea1	-0.09124494
198	0x3d8d1f35	0.06890718
199	0x3c2be6d1	0.010492043
200	0x3be1288b	0.006871288
201	0xbd82be58	-0.063839614
202	0xbdba063a	-0.09083219
203	0xbd58b1ac	-0.052903816
204	0xbca57a7a	-0.020200003
205	0xbc66d9d5	-0.014090021
206	0xbcc7cf28	-0.024390772
207	0xbd5a8658	-0.053350776
208	0xbc1c7616	-0.009549638
209	0x3cde5504	0.027140148
210	0x3b410c02	0.002945662
211	0x3d7cc631	0.061712448
212	0x3d9861d1	0.07440532
213	0x3df212ae	0.11819969
214	0x3db5ec66	0.0888298
215	0x3d7b2507	0.06131461
216	0x3db0e984	0.086382896
217	0xbd1bfd8e	-0.038083605
218	0xbd83b61a	-0.064312175
219	0x3ddc5d40	0.107599735
220	0x3d2acc9a	0.04169903
221	0xbda7e9c5	-0.08198885
222	0x3deb6089	0.11493022
223	0xbd8f2667	-0.069897465
224	0xbc8ee8ec	-0.01744505
225	0x3d18c7ba	0.03729985
226	0xbdcbf576	-0.09958927
227	0xbda58f18	-0.080839336
228	0x3dc282f1	0.09497631
229	0x3d790e3e	0.060804598
230	0x3ca886c3	0.020572072
231	0xbdd56f1e	-0.104215845
232	0x3dcd80e8	0.100343525
233	0x3d029e22	0.03188909
234	0xbd9505a2	-0.07276465
235	0x3b1a0a53	0.002350469
236	0x3df0dab3	0.117604636
237	0x3dd63ead	0.10461173
238	0x3dd702b9	0.10498566
239	0xbd16deb1	-0.03683347
240	0x3dfca7a5	0.12336663
241	0xbd94af2c	-0.07259974
242	0x3dff5bb7	0.12468665
243	0x3db1325b	0.08652183
244	0x3cbf88e7	0.02338071
245	0x3dbe4ca4	0.09291962
246	0xbd24a522	-0.040196545
247	0x3d9a7ab3	0.07542934
248	0xbc482907	-0.012216813
249	0x3c49e9f8	0.012323849
250	0x3dda5197	0.10660093
251	0xbc4730de	-0.012157647
252	0x3db2f2ad	0.08737693
253	0x3db719bc	0.08940455
254	0xbcfedaf8	-0.031110272
255	0x3d47b614	0.048757628

layer3.0.bias f4 [16]
0	0x3d792334	0.060824588
1	0x3dddbb76	0.10826771
2	0x3c96c633	0.018405056
3	0xbbe941fd	-0.007118462
4	0xb908234e	-0.00012983123
5	0xbdc0b974	-0.094103724
6	0xbddbfea2	-0.10741927
7	0x3dc2fb51	0.09520591
8	0x3ca7d43d	0.020486945
9	0xbde9b786	-0.114119574
10	0x3ced3e6b	0.028960427
11	0x3d34de98	0.044157594
12	0x3c8b3af1	0.016995879
13	0xbd80845a	-0.06275244
14	0x3d058894	0.032600954
15	0xbdbf8e79	-0.093533464

layer3.1.weight f4 [16]
0	0x3f80fea5	1.0077711
1	0x3f7f6963	0.9977018
2	0x3f80060b	1.0001844
3	0x3f806746	1.0031517
4	0x3f80dcb7	1.0067357
5	0x3f8186a8	1.0119219
6	0x3f80dbf1	1.0067121
7	0x3f7d9399	0.9905334
8	0x3f76e818	0.96447897
9	0x3f82ef4a	1.0229275
10	0x3f80ea30	1.0071468
11	0x3f7e8998	0.994287
12	0x3f801e88	1.0009317
13	0x3f7fcfaf	0.99926275
14	0x3f809d96	1.0048091
15	0x3f7a32ed	0.97733957

layer3.1.bias f4 [16]
0	0xbcb1a3b7	-0.02168451
1	0xbc7bc98e	-0.015367879
2	0xbcf60c04	-0.030035026
3	0xbb9127fc	-0.0044298153
4	0xbc5ec040	-0.013595641
5	0xbc2788f3	-0.010225522
6	0xbbad8e14	-0.005296478
7	0xbc7bea77	-0.015375725
8	0xbbadb68b	-0.005301302
9	0xbce8ded8	-0.028426573
10	0xbc46efa3	-0.012142095
11	0xbd498ada	-0.049204685
12	0xbc92c9ca	-0.017918486
13	0xbc8774be	-0.01653516
14	0xbc02efe0	-0.007991761
15	0xbd0b4cc8	-0.03400877

layer3.1.running_mean f4 [16]
0	0x3e93eb33	0.2889038
1	0x3e0bb6ab	0.13643901
2	0xbd661ffd	-0.05618285
3	0x3e4f7293	0.2025855
4	0xbe80a2cd	-0.25124207
5	0xbef44957	-0.47712204
6	0x3e0d8f0c	0.138241
7	0x3f1d368f	0.61411375
8	0x3e036c45	0.1283427
9	0xbde1f6fa	-0.11033435
10	0x3dbabb2d	0.09117732
11	0xbe8a2946	-0.26984614
12	0x3a808df1	0.0009807927
13	0x3e395368	0.18098223
14	0x3ed581be	0.41700548
15	0x3d9fa78c	0.07795629

layer3.1.running_var f4 [16]
0	0x3dd43b4a	0.10362871
1	0x3df78e17	0.12087648
2	0x3d86d681	0.06583882
3	0x3e05ce48	0.13066971
4	0x3de2bc52	0.110710755
5	0x3e352413	0.17689542
6	0x3eae1fb0	0.3400855
7	0x3e8340c7	0.2563536
8	0x3da72349	0.08161027
9	0x3e123ccf	0.14281009
10	0x3dc00006	0.093750045
11	0x3e217536	0.15767369
12	0x3dd7fcda	0.105462745
13	0x3e7192af	0.23591112
14	0x3eaabc5b	0.3334683
15	0x3e70d03e	0.23516938

layer4.0.weight f4 [64, 16, 3, 3]
0	0xbd5f6a1c	-0.054544553
1	0xbd0d0804	-0.034431472
2	0xbd42ed08	-0.047589332
3	0x38f07349	0.00011465565
4	0x3c1a61da	0.009422744
5	0xbd86d338	-0.065832555
6	0xbd9f2a37	-0.07771724
7	0x3c01bd05	0.007918601
8	0xbd122ffe	-0.0356903
9	0x3b7ce451	0.0038588236
10	0x3be4a17b	0.006977258
11	0x3d81eeb4	0.06344357
12	0x3d26121b	0.04054461
13	0xbd6a3533	-0.05717964
14	0xbd804554	-0.06263223
15	0x3c868997	0.01642303
16	0x3d834752	0.06410088
17	0x3d6a2569	0.057164583
18	0xbce2eba2	-0.02770025
19	0x3b690cbb	0.0035560566
20	0xbd345ca7	-0.044033673
21	0x3c1baa1b	0.0095010055
22	0xbcdfee69	-0.027335363
23	0x3c686bf2	0.014185892
24	0x3b01fbca	0.0019833916
25	0xbcefdd02	-0.02928019
26	0xbcdce7e4	-0.026966043
27	0x3d501dab	0.050809544
28	0x3cbad0db	0.022804668
29	0x3b286d6b	0.0025699984
30	0x3cbb4ec5	0.022864709
31	0xbd112e41	-0.0354445
32	0xbc474aa8	-0.0121637955
33	0x3d862f2f	0.06551968
34	0x3d4144a1	0.04718459
35	0xbd21c7dc	-0.03949724
36	0x3c6f62ef	0.01461099
37	0xbd2587ad	-0.040412594
38	0xbd58b01f	-0.052902337
39	0xbd809980	-0.06279278
40	0x3c97ff60	0.01855439
41	0x3be7de4a	0.0070760595
42	0xbd4cbd31	-0.049985114
43	0xbcf787fc	-0.03021621
44	0xbd9a2855	-0.07527224
45	0x3db32534	0.0874733
46	0x3d2b2d09	0.041790996
47	0x3d29f2ab	0.04149119
48	0x3d20a578	0.039220303
49	0x3d6e1dee	0.058134012
50	0xbc57c3a8	-0.013169207
51	0xbd65d1f6	-0.056108437
52	0xbd25ef87	-0.040511634
53	0x3d986ea2	0.074429765
54	0x3ca88539	0.020571338
55	0xbd7d6630	-0.06186503
56	0x3c4405bb	0.011964257
57	0x3c365808	0.011129387
58	0x3d0c7df9	0.034299824
59	0xbcd89e92	-0.0264428
60	0x3d2fed8d	0.042951155
61	0xbcdc1347	-0.02686466
62	0xbb7e7db7	-0.0038832256
63	0xbcba2733	-0.02272377
64	0xbc8526d7	-0.016253872
65	0x3d685095	0.056717474
66	0x3d9356d6	0.07194297
67	0x3d32a63e	0.043615572
68	0xbc7dc4d3	-0.015488821
69	0xbcf357f0	-0.029705018
70	0x3d9d7d5c	0.07689926
71	0xbcc46636	-0.02397452
72	0x3db1e8db	0.08686992
73	0x3d75caf4	0.060008004
74	0x3b2f0358	0.0026704874
75	0xbc438281	-0.01193297
76	0xbd7ec90a	-0.062203445
77	0x3d757bd6	0.059932552
78	0xbc2e155c	-0.01062521
79	0xbcae87c4	-0.021304972
80	0xbd13b9de	-0.03606593
81	0x3d67849e	0.056522958
82	0x3d993e2c	0.074825615
83	0xbd8e1dbe	-0.069392666
84	0xbda2ff7a	-0.079588845
85	0x3cfbf3ff	0.030755995
86	0x3ce99403	0.02851296
87	0xbd0da5a2	-0.034581788
88	0x3ccbf538	0.024897203
89	0xbd702e5e	-0.05863797
90	0xbc853c65	-0.01626415
91	0xbd648cea	-0.05579845
92	0xbbfe93e1	-0.0077690934
93	0x3d166437	0.036716666
94	0xbd987fdd	-0.07446263
95	0x3cd18e34	0.025580503
96	0xbae05bf5	-0.0017117249
97	0xbd6208ba	-0.055184104
98	0xbd018fc8	-0.03163126
99	0x3caedac3	0.021344548
100	0x3b1febc5	0.0024402004
101	0xbd00a089	-0.0314031
102	0xbd9096ca	-0.07060011
103	0xba4221cc	-0.0007405549
104	0x3d471b24	0.048609868
105	0x3d4527d6	0.048133694
106	0xbd8fe423	-0.070259355
107	0xbde23089	-0.110444136
108	0xbc7a0bb5	-0.01526158
109	0xbb83492c	-0.0040065255
110	0xbd4c2b2f	-0.04984587
111	0x3cc6e851	0.024280699
112	0xbd9eb75c	-0.07749817
113	0xbcc19067	-0.023628427
114	0xbcff016d	-0.03112861
115	0x3cd842e6	0.026399087
116	0x3c88bc34	0.016691305
117	0x3c6337ee	0.013868315
118	0x3ca86d9d	0.02056008
119	0x3d82244a	0.06354578
120	0x3a3d3baf	0.00072186714
121	0xbd4606a5	-0.04834618
122	0x3d0d3b8a	0.03448061
123	0x3bfa055e	0.0076300343
124	0xbc606a18	-0.01369717
125	0x3dcf1b32	0.10112609
126	0xbcbc7f59	-0.023009943
127	0xbdadcbbf	-0.08486127
128	0x3bb2de38	0.0054586194
129	0x3cdadf8b	0.026717922
130	0xbd906399	-0.07050247
131	0xbcc0e7d8	-0.023548052
132	0x3d641c78	0.055691212
133	0xbbbfd5e6	-0.005854356
134	0x3d3bb9dc	0.045831546
135	0xbd11c2ff	-0.035586353
136	0xbd264839	-0.04059622
137	0xbcc67078	-0.024223551
138	0x3cd58832	0.02606592
139	0xbda1c4ef	-0.0789889
140	0x3baf5cd6	0.005351643
141	0x3d5804b8	0.052738875
142	0xbcc60369	-0.024171548
143	0xbd8790ae	-0.06619392
144	0x3d64e7ce	0.05588513
145	0x3cb91c16	0.0225964
146	0xbc9c732f	-0.019097893
147	0xbd7e8021	-0.062133912
148	0x3d07e135	0.03317376
149	0x3d377d45	0.0447972
150	0xbd3dc82c	-0.046333477
151	0xbd80ab72	-0.062827006
152	0x3dab1630	0.08353841
153	0x3cf446bd	0.029818887
154	0x3c6b3f9c	0.014358427
155	0xbdbc4c95	-0.09194294
156	0x3b5685d2	0.0032733572
157	0xbda689b3	-0.08131733
158	0xbd0aa9a4	-0.03385319
159	0xbd063f42	-0.03277517
160	0x3d08ff93	0.03344686
161	0xbd64d2fc	-0.055865273
162	0x3d8b558d	0.06803427
163	0x3d5d5a18	0.054041
164	0xbb569a23	-0.0032745681
165	0xbd7878dd	-0.06066214
166	0xbd4c64b5	-0.04990073
167	0x3d2ebac4	0.042658582
168	0x3d186f38	0.03721544
169	0xbd043b28	-0.03228298
170	0xbdad97e0	-0.084762335
171	0x3d3083fc	0.04309462
172	0xbd9ee1f5	-0.07757942
173	0x3b8c1dd9	0.004276019
174	0xbcd6fd03	-0.026243692
175	0xbd8b4a02	-0.06801225
176	0x3d8f307c	0.069916695
177	0xbd2d3201	-0.042284016
178	0x3c3cb477	0.011517636
179	0xbd910d2e	-0.07082592
180	0x3dade6bc	0.08491275
181	0xbd4adfeb	-0.04952995
182	0xbd26efc7	-0.040756013
183	0x3c276c92	0.010218756
184	0xbb869a52	-0.004107752
185	0xbcebe896	-0.028797429
186	0xbd9b902e	-0.075958595
187	0x3d771f55	0.060332615
188	0xbae89294	-0.0017743879
189	0xbdb85523	-0.090006135
190	0xbd846967	-0.064654164
191	0x3d140a59	0.03614268
192	0xbc769ebf	-0.015052496
193	0xbd5c44f4	-0.053776696
194	0x3dac9be9	0.08428175
195	0xbd17274f	-0.036902722
196	0x3d724e6a	0.059156813
197	0xbc4bd488	-0.012440808
198	0x3d133b14	0.035945013
199	0x3d1b73a8	0.037952095
200	0xbc7d4407	-0.0154581135
201	0xbbc88e5f	-0.0061204876
202	0xbd42ce13	-0.04755981
203	0x3d813e1b	0.06310674
204	0xbd26a7c0	-0.040687323
205	0x3cbee78f	0.023303775
206	0xbda825af	-0.082103126
207	0x3d256259	0.040376995
208	0xbd67e1e1	-0.0566119
209	0xbd9a1070	-0.075226665
210	0xbd93d902	-0.07219125
211	0x3bba64b6	0.005688275
212	0xbc6518c7	-0.013982958
213	0xbd287c24	-0.041134015
214	0xbc46d8ff	-0.012136697
215	0xbc9eeef8	-0.019401059
216	0x3da034c8	0.07822567
217	0xbcd6d01c	-0.026222281
218	0x3cc0aeee	0.023520913
219	0x3d5737c1	0.052543405
220	0xbcf8e2e8	-0.030381635
221	0x3d3fe0eb	0.046845358
222	0x3cf95d0d	0.030439878
223	0xbd4b6727	-0.04965892
224	0xbd9477cb	-0.07249411
225	0x3d4667a8	0.048438698
226	0x3d3a8fea	0.045547403
227	0x3c878f36	0.01654778
228	0x3bf018fb	0.0073271967
229	0x3d6ec871	0.058296625
230	0xbda189b3	-0.07887592
231	0x3d69b317	0.05705556
232	0xbd45b5e7	-0.04826918
233	0xb9da47bc	-0.00041633646
234	0x3bc00993	0.0058605163
235	0x3d877b35	0.06615297
236	0xbd818c06	-0.063255355
237	0x3d0fbf2d	0.03509443
238	0x3d2aa116	0.04165753
239	0xbd2ecc8e	-0.042675547
240	0xbd8ffed8	-0.070310295
241	0xbd27558a	-0.04085306
242	0x3d926235	0.07147638
243	0x3bafb9dd	0.005362733
244	0x3da2257a	0.07917304
245	0x3dac1119	0.084016986
246	0x3c299b9a	0.01035204
247	0x3db9a28b	0.09064206
248	0x3c1b7d89	0.009490379
249	0x3aa20ec1	0.0012364016
250	0x3cce922b	0.025216183
251	0x3d4a2fcd	0.049361993
252	0x3d32cf79	0.043654893
253	0xbd839f7a	-0.06426902
254	0x3d56d61a	0.052450277
255	0xbc8d9151	-0.017281206

layer4.0.bias f4 [64]
0	0xbce827a4	-0.028339215
1	0x3c7b621f	0.015343218
2	0xbd0e998a	-0.034814395
3	0xbc6dbfc2	-0.014511051
4	0xbd998586	-0.07496171
5	0xbd8890bd	-0.06668232
6	0xbd950939	-0.0727715
7	0x3d017c0e	0.03161245
8	0x3a5931f5	0.0008285337
9	0xbc182ca2	-0.009287985
10	0x3d9d4f76	0.076811716
11	0xbd234d0f	-0.03986841
12	0x3d5f6615	0.054540712
13	0x3d4d8edf	0.05018508
14	0x3d7f319f	0.06230318
15	0xbd0c5131	-0.034257118
16	0xbc139734	-0.009008218
17	0x3cbdfc51	0.023191603
18	0x3d3a8f55	0.04554685
19	0xbd1ac6e0	-0.03778732
20	0xbd35edbc	-0.044416174
21	0xba35caa6	-0.0006934799
22	0x3d3fb694	0.04680498
23	0xbd932bf2	-0.07186116
24	0x3d9884dc	0.07447216
25	0xbd954494	-0.07288471
26	0x3d91bb9b	0.07115861
27	0xbd2f7110	-0.042832434
28	0xbcc2e209	-0.023789423
29	0xbd73bebc	-0.05950807
30	0x3cf92fad	0.030418241
31	0xbda3d5e7	-0.07999783
32	0x3c8d22df	0.017228542
33	0xbd200f71	-0.039077226
34	0x3daa1075	0.0830392
35	0x3c49fee8	0.012328841
36	0x3bff6eb3	0.007795179
37	0x3d83ba43	0.06432011
38	0x3d565f25	0.05233683
39	0xbc421e97	-0.0118481135
40	0x3d9fec24	0.07808712
41	0x3d7c9771	0.061667863
42	0xbcd33333	-0.02578125
43	0x3d6fe033	0.058563422
44	0xbcb0f598	-0.021601483
45	0x3cdf81d0	0.02728358
46	0xbace0a1e	-0.0015719568
47	0xbd3c349d	-0.045948613
48	0x3cc4fd32	0.024046514
49	0xbcde1bd6	-0.027112883
50	0xbd6b90cc	-0.057511136
51	0xbd5346f6	-0.051581345
52	0x3d51ec4d	0.051250745
53	0xbbf608f5	-0.007508392
54	0x3d5c49a0	0.05378115
55	0xbd83af66	-0.06429939
56	0x3c3ab97b	0.011396761
57	0x3da7354f	0.08164465
58	0x3c981367	0.01856394
59	0x3cca89f0	0.024723977
60	0xbcf448f3	-0.029819941
61	0xbcd3837c	-0.025819533
62	0x3d1c0dbd	0.03809904
63	0xbd5d4d1e	-0.054028623

layer4.1.weight f4 [64]
0	0x3f835a80	1.0261993
1	0x3f7f9704	0.99839807
2	0x3f7f14da	0.9964119
3	0x3f7df5c0	0.9920311
4	0x3f7fa459	0.9986015
5	0x3f7c596e	0.9857396
6	0x3f80498f	1.0022448
7	0x3f7ef5d4	0.99593854
8	0x3f8217f9	1.0163566
9	0x3f8013cb	1.000604
10	0x3f808334	1.004004
11	0x3f7e9dba	0.9945942
12	0x3f7faebb	0.9987599
13	0x3f8200e2	1.015652
14	0x3f808df2	1.0043318
15	0x3f7ca7bf	0.9869346
16	0x3f814e5f	1.0102042
17	0x3f812b09	1.0091258
18	0x3f80abb8	1.0052404
19	0x3f810d97	1.0082272
20	0x3f7e1e3f	0.992649
21	0x3f84cf6a	1.0375798
22	0x3f7e87a3	0.99425715
23	0x3f7fe652	0.99960816
24	0x3f7e0261	0.9922238
25	0x3f8232ce	1.0171754
26	0x3f7ca6f5	0.98692256
27	0x3f80bd9c	1.0057864
28	0x3f7f3b20	0.9969959
29	0x3f815f4e	1.010721
30	0x3f7e8565	0.99422294
31	0x3f81fe51	1.0155736
32	0x3f806c57	1.0033063
33	0x3f7de38a	0.9917532
34	0x3f801db5	1.0009066
35	0x3f7fc22e	0.9990567
36	0x3f7f8008	0.99804735
37	0x3f803ace	1.0017946
38	0x3f7e89a0	0.9942875
39	0x3f7ce7d0	0.9879122
40	0x3f82a7f1	1.0207502
41	0x3f8023ab	1.0010885
42	0x3f8080b4	1.0039277
43	0x3f807264	1.0034909
44	0x3f7c8ba8	0.986506
45	0x3f7cc5c3	0.9873926
46	0x3f801900	1.0007629
47	0x3f80e5b7	1.0070103
48	0x3f8218af	1.0163783
49	0x3f810a80	1.0081329
50	0x3f7e6a23	0.993807
51	0x3f80c3f1	1.0059797
52	0x3f7c52a8	0.98563623
53	0x3f7f5fff	0.99755853
54	0x3f7e23e8	0.9927354
55	0x3f821a54	1.0164285
56	0x3f805658	1.002635
57	0x3f7ea5d5	0.9947179
58	0x3f7ce95a	0.98793566
59	0x3f7b3857	0.9813284
60	0x3f7f156d	0.9964207
61	0x3f7a9e54	0.9789784
62	0x3f7e7c91	0.99408823
63	0x3f7db63a	0.9910618

layer4.1.bias f4 [64]
0	0xbc01dc5f	-0.007926076
1	0xbc31d16d	-0.010853154
2	0xbcb42006	-0.021987926
3	0xbd07134a	-0.03297738
4	0xbc12a9f1	-0.00895165
5	0xbd1b7b84	-0.03795959
6	0xbc3d144c	-0.011540484
7	0xbc2d4710	-0.010576025
8	0xbc5366a5	-0.01290289
9	0x3a9d4940	0.001199998
10	0xbc00f127	-0.007869995
11	0xbc84b821	-0.01620108
12	0xbcfd341f	-0.030908642
13	0xbce1662d	-0.027514542
14	0xbca19e81	-0.0197289
15	0xbc9fa4ea	-0.019487817
16	0xbcdb6a77	-0.026784165
17	0xbd1770c2	-0.03697277
18	0xb9dcf240	-0.0004214216
19	0x3b80d1f3	0.003931278
20	0xbc6618d3	-0.0140440045
21	0x3c34ff25	0.011047159
22	0xbc0a7458	-0.00845059
23	0xbd0295cb	-0.031881135
24	0xbca00b44	-0.019536622
25	0xbb391184	-0.00282392
26	0xbcd243b0	-0.025667042
27	0xbc8dcff4	-0.017311074
28	0xbcd0f45a	-0.02550714
29	0xbcb11ec9	-0.021621125
30	0xbbdab8c0	-0.006674856
31	0xbc7fe003	-0.015617373
32	0xbbe4b163	-0.006979154
33	0xbc90a353	-0.017656004
34	0xbc40aa9c	-0.011759426
35	0xbc1af6a3	-0.009458217
36	0xbcc2e571	-0.023791047
37	0x3b9b24e9	0.0047346246
38	0xbc6427c9	-0.013925501
39	0xbcd50ec8	-0.026008025
40	0xbc5c48ee	-0.013445122
41	0xbc2f41f8	-0.0106968805
42	0xbc391320	-0.011296064
43	0xbc10ede7	-0.008845783
44	0xbcdda311	-0.027055295
45	0xbc971951	-0.018444689
46	0xbc8a3f7f	-0.01687598
47	0xbd1bc989	-0.038033996
48	0xbc6eab72	-0.014567243
49	0xbc35bf9b	-0.011093046
50	0xbc8c99dc	-0.01716321
51	0xbc39003f	-0.011291563
52	0xbd0d8173	-0.03454728
53	0xbc97526e	-0.018471923
54	0xbcae770c	-0.021297
55	0xbcbf0e94	-0.023322381
56	0xbcc8b734	-0.02450142
57	0xbcfd4631	-0.030917259
58	0xbc7ad55b	-0.015309657
59	0xbd0e854f	-0.0347951
60	0xbc8c2768	-0.017108634
61	0xbce1d9d7	-0.027569694
62	0xbcd00fb6	-0.025398117
63	0xbc8afc81	-0.016966106

layer4.1.running_mean f4 [64]
0	0xbeb74f68	-0.3580277
1	0xbe5293a8	-0.20564139
2	0xbe90a6c9	-0.28252247
3	0x3e9ee869	0.3103669
4	0xbe3d94c0	-0.18513775
5	0xbec99709	-0.39373043
6	0xbf0f0074	-0.55860066
7	0x3dcde9a1	0.10054327
8	0x3e8bf1fe	0.27333063
9	0xbf63520a	-0.88797057
10	0xbf81a7f1	-1.0129377
11	0x3f65a8ba	0.8971058
12	0x3f083b42	0.5321542
13	0x3e63d0cf	0.22247623
14	0xbd5dd154	-0.05415471
15	0xbf1807cf	-0.59386915
16	0xbe402678	-0.18764675
17	0x3ec48574	0.38383067
18	0xbe8b56dd	-0.2721471
19	0xbf0b215c	-0.5434778
20	0xbee79790	-0.4523282
21	0xbe358047	-0.17724715
22	0x3f6c752e	0.923663
23	0x3d36f528	0.044667393
24	0xbd52a1a3	-0.05142368
25	0xbee199c7	-0.44062635
26	0x3df50173	0.11963167
27	0xbe9381a5	-0.28809848
28	0xbf89c436	-1.0763004
29	0x3ee47f51	0.44628385
30	0x3eeab8c6	0.45844096
31	0xbee86b93	-0.45394573
32	0x3ed75c7e	0.42062753
33	0x3e3c03db	0.18360846
34	0x3e20be34	0.15697557
35	0x3eeab3e6	0.45840377
36	0xbe23a638	-0.15981376
37	0xbd78bbdb	-0.060726028
38	0x3f7102bf	0.94144815
39	0xbe9f6915	-0.3113486
40	0x3ca73c74	0.020414568
41	0x3e8b3de8	0.27195668
42	0xbeac454f	-0.33646628
43	0xbe1e4bfb	-0.15458672
44	0xbed232db	-0.41054425
45	0x3ea59200	0.32337952
46	0x3dfe9767	0.124312215
47	0xbec9c7c3	-0.3941022
48	0xbd767528	-0.060170323
49	0x3e2626f9	0.16225804
50	0x3c89dd9d	0.016829306
51	0xbe1a646e	-0.15077373
52	0x3f7fb7f3	0.9989006
53	0x3f8ec5b4	1.1154084
54	0x3f45492f	0.77064794
55	0xbe1b0fa0	-0.15142679
56	0xbed41cdf	-0.41428277
57	0x3d94e8ae	0.07270943
58	0x3e16917c	0.14703935
59	0x3f0bde3b	0.5463597
60	0xbd2f9727	-0.04286876
61	0xbe10ec9e	-0.14152762
62	0xbeb81e65	-0.3596069
63	0xbdcee936	-0.10103075

layer4.1.running_var f4 [64]
0	0x3edde5ed	0.43339482
1	0x3ee6ab72	0.45052677
2	0x3ed45d25	0.41477314
3	0x3e87451b	0.2641991
4	0x3ebf99b5	0.37421957
5	0x3e842007	0.25805685
6	0x3ebe4c07	0.3716738
7	0x3eb18474	0.34671366
8	0x3f030f79	0.51195484
9	0x3f588610	0.84579563
10	0x3fad8417	1.3555936
11	0x3f969c46	1.1766441
12	0x3f1b5ced	0.6068867
13	0x3f15ddb3	0.5854141
14	0x3ec01664	0.37517083
15	0x3e552969	0.20816578
16	0x3eecadf6	0.46226472
17	0x3ec3accd	0.38217774
18	0x3ecde5dc	0.4021443
19	0x3ec98803	0.3936158
20	0x3e8de868	0.27716374
21	0x3f614936	0.88002336
22	0x3f6c7ef8	0.9238124
23	0x3f076b1b	0.52897805
24	0x3ec25af3	0.37960014
25	0x3f2f96a3	0.6858923
26	0x3efb975f	0.49138924
27	0x3f13cd5b	0.5773522
28	0x3f250fca	0.6447722
29	0x3eeac5cd	0.45854035
30	0x3f5b4507	0.856522
31	0x3f09c40f	0.53814787
32	0x3f0b766b	0.54477566
33	0x3eabd598	0.33561397
34	0x3e9388b9	0.2881525
35	0x3efff718	0.49993205
36	0x3f02752f	0.5096006
37	0x3ef3c22f	0.47609088
38	0x3f0436a0	0.5164585
39	0x3f0fb4f2	0.56135476
40	0x3ea6052e	0.32425827
41	0x3f3251fe	0.6965636
42	0x3f21281f	0.62951845
43	0x3eca5387	0.3951685
44	0x3ea4a6a2	0.3215838
45	0x3f485545	0.7825511
46	0x3ef0191e	0.46894163
47	0x3f2ef1bb	0.683376
48	0x3eaad366	0.3336441
49	0x3f016e4f	0.5055894
50	0x3e8c3ad7	0.2738864
51	0x3f0f6eaa	0.56028235
52	0x3f031226	0.5119957
53	0x3f2b2b6b	0.66863126
54	0x3f0362e3	0.51322764
55	0x3ea776bf	0.32707784
56	0x3ec2d570	0.38053465
57	0x3e60186e	0.21884319
58	0x3efb2f4f	0.4905953
59	0x3ea12151	0.3147073
60	0x3ea2e973	0.31818733
61	0x3ea94008	0.33056664
62	0x3ed1d6f4	0.4098431
63	0x3ebb2bed	0.3655695

layer5.0.weight f4 [64, 64, 3, 3]
0	0xbd6f040e	-0.058353476
1	0xbd304680	-0.043035984
2	0xbb8149c0	-0.0039455593
3	0xbcca5808	-0.02470018
4	0x3a8d03b0	0.0010758545
5	0x3ca86bc5	0.020559201
6	0x3d53d5bf	0.051717516
7	0xbc3f8a1c	-0.011690643
8	0xbcbada8e	-0.022809293
9	0x3d35d88b	0.044395965
10	0x3cc783a1	0.024354758
11	0x3d0c0c05	0.03419115
12	0xbcb06fff	-0.021537779
13	0x3c29d34b	0.010365318
14	0xbd3b724e	-0.045763306
15	0x3cbe7fd0	0.023254305
16	0xbb213184	-0.0024596164
17	0xbd0c7783	-0.034293663
18	0x3c91e20b	0.017807981
19	0xbc80d0df	-0.015724597
20	0xbd0216c4	-0.031759992
21	0x3d088734	0.033332065
22	0x3bce6121	0.0062981998
23	0xbc88c5ae	-0.016695824
24	0xbca9b3ab	-0.020715555
25	0x3c9eee0f	0.019400625
26	0x3c42ad99	0.011882209
27	0x3d3a529e	0.045488946
28	0x3d0dc318	0.034609884
29	0x3c4b7198	0.01241722
30	0xbb69c36e	-0.0035669464
31	0x3cf21c0b	0.029554388
32	0x3b8b4b0a	0.0042508887
33	0x3ced04be	0.028932925
34	0x3d0c8f75	0.0343165
35	0xbc625f63	-0.013816687
36	0x3cd1da3d	0.02561676
37	0xbcd26aed	-0.025685752
38	0x3cf0c48e	0.0293906
39	0xbce602fd	-0.028077597
40	0x3cfef624	0.031123228
41	0xbd1ecca0	-0.038769364
42	0x3c9322e0	0.017960966
43	0xbc828121	-0.015930714
44	0x3d03802d	0.03210466
45	0x3ca701d4	0.020386614
46	0xbc736918	-0.014856599
47	0xb942af8f	-0.00018566682
48	0x3cf45d1f	0.02982956
49	0x3914faef	0.0001420786
50	0x3c8ec8f3	0.017429804
51	0xbbc3e599	-0.005978298
52	0xbca588f8	-0.020206913
53	0xb9a6e3c3	-0.00031831683
54	0xbc6f072e	-0.014589114
55	0xbd15302c	-0.036422893
56	0x3cbac554	0.022799172
57	0xbc8e6a85	-0.017384777
58	0xbd2a905d	-0.04164158
59	0xbd2c411b	-0.042054277
60	0x3ceb3f0f	0.028716592
61	0x3d28d26b	0.041216295
62	0xbd07cb81	-0.03315306
63	0x3cd556ee	0.026042428
64	0x3cd4b633	0.025965786
65	0x3d12f5e3	0.035879027
66	0x3c9a2b1f	0.01881939
67	0x3c359600	0.011083126
68	0x3d040987	0.03223565
69	0x3bf7e746	0.0075654117
70	0xbcc18ced	-0.023626769
71	0x3ce3210f	0.027725725
72	0x3bbd9d88	0.0057866015
73	0x3d18bd57	0.037289944
74	0xbbc55205	-0.0060217404
75	0x3d11ce88	0.035597354
76	0x3b921d4a	0.004459058
77	0x3c755fa8	0.0149764195
78	0xbbd0378e	-0.006354279
79	0x3d0199e4	0.031640902
80	0x3c8bdb0a	0.01707222
81	0x3c948e92	0.01813439
82	0xbd6e1cb2	-0.058132835
83	0x3cab6f13	0.020926988
84	0xbb8628a9	-0.0040942025
85	0x3d1e985f	0.03871953
86	0x3ccfdef4	0.025374867
87	0xbc0212c3	-0.007939043
88	0x3caf2183	0.021378284
89	0x3c583d52	0.013198214
90	0x3ce36921	0.02776009
91	0xbc80dbff	-0.015729902
92	0xbc979cb3	-0.018507337
93	0xbc7fdbfa	-0.015616411
94	0x3cc97288	0.024590746
95	0xbd35fc8e	-0.044430308
96	0x3d5a45f3	0.053289365
97	0xbd136026	-0.035980366
98	0x3c48cdcf	0.0122561
99	0xbcb3742e	-0.021905985
100	0xbcfb1dec	-0.030653916
101	0xbd1e0a5d	-0.038584102
102	0xba5d6ea1	-0.0008446966
103	0x3cdff0e9	0.027336555
104	0xbc3291c2	-0.010899009
105	0xbbc08a8e	-0.005875892
106	0xbca06866	-0.019581031
107	0x3ba9acdf	0.0051780785
108	0xbcb2fdee	-0.021849599
109	0x3cec10ae	0.028816547
110	0x3a3388cd	0.0006848693
111	0x3cf12363	0.029435819
112	0xbc854159	-0.016266512
113	0x3d02aa13	0.031900477
114	0xbc05138b	-0.008122335
115	0xbd1dbffa	-0.03851316
116	0x3c88abef	0.016683547
117	0x3cf8ce92	0.030371938
118	0x3c615e76	0.013755431
119	0xbc36157e	-0.011113523
120	0xbc71e8e0	-0.014764994
121	0x3ccdcd1f	0.025122223
122	0x3cdd3f1c	0.027007632
123	0x3d056291	0.032564703
124	0xbd24f915	-0.040276606
125	0x3c508af3	0.012728441
126	0x3d13cae0	0.03608215
127	0x3d3e4c40	0.046459436
128	0xbccb045d	-0.024782354
129	0x3d1f6c92	0.0389219
130	0x3bfb685f	0.007672354
131	0x3c8c0051	0.017089995
132	0xbd30eddf	-0.0431956
133	0xbcff4d52	-0.031164799
134	0x3c8c16c6	0.017100703
135	0x3c9563eb	0.018236121
136	0x3d0c44b0	0.034245193
137	0x3d0534a5	0.03252091
138	0x3ce5f26e	0.028069701
139	0xba55342d	-0.000813308
140	0x3c9e7b0d	0.019345785
141	0xbc9b9956	-0.018994015
142	0xbcffa063	-0.031204408
143	0x3cdcfc17	0.026975675
144	0xbca4a871	-0.02009985
145	0xbd135665	-0.035971064
146	0x3cf7af9c	0.030235104
147	0xbccdcd28	-0.02512224
148	0x3c5d0636	0.01349025
149	0xbc91866b	-0.01776429
150	0x3d0ef0da	0.034897663
151	0x3d1e2c6e	0.03861659
152	0xbcfd80d9	-0.030945228
153	0x3c896c8e	0.016775396
154	0x3c8555f0	0.01627633
155	0xbc16db35	-0.0092075365
156	0x3bf611b8	0.0075094365
157	0xbd0909b1	-0.033456508
158	0xbd0e8c79	-0.034801934
159	0x3b32fa69	0.00273099
160	0x3c2a6aeb	0.010401468
161	0x3cfe800b	0.031066915
162	0x3cf5c517	0.030001206
163	0xbc308206	-0.0107731875
164	0xbcbecc91	-0.023290904
165	0x3c64a426	0.013955152
166	0xbbd65d8f	-0.006541915
167	0xbd2afd39	-0.0417454
168	0xbcd2da40	-0.025738835
169	0xbc686a7d	-0.014185545
170	0x3c3e091b	0.011598851
171	0xbaa9e818	-0.0012962846
172	0xbd12088c	-0.035652682
173	0xbc959cce	-0.018263247
174	0x3d1c44dd	0.03815161
175	0x3d22d2ea	0.039751925
176	0xbcad2a45	-0.02113832
177	0x3c8b2533	0.016985511
178	0xbcb3a01b	-0.02192693
179	0x3b08aafe	0.0020853872
180	0xbd03408e	-0.032043986
181	0x3c474250	0.012161806
182	0xbbe5b286	-0.007009807
183	0xbd0bfddd	-0.03417765
184	0x3c54665c	0.0129638575
185	0x3c6b735f	0.014370768
186	0xbcc4b35d	-0.024011308
187	0xbc92e92b	-0.017933449
188	0xbca0f181	-0.019646408
189	0xbca2e48d	-0.019884372
190	0xba0ec2f1	-0.00054459187
191	0x3cf3d6f1	0.029765578
192	0xbc3b52d2	-0.01143332
193	0x3ceee160	0.029160202
194	0x3c067e5b	0.008208836
195	0x3d23ec0d	0.040020037
196	0x3d4be04a	0.049774446
197	0xbc921988	-0.01783444
198	0x3cf36ffd	0.029716486
199	0xbce6a15e	-0.028153118
200	0xbcd05e99	-0.025435733
201	0xbc7900b3	-0.015197921
202	0xbd0c9f35	-0.03433152
203	0x3ca30ab0	0.019902557
204	0xbc99e26f	-0.01878473
205	0x3a20994f	0.00061263604
206	0xbd1a0eb5	-0.037611682
207	0x3b8de415	0.004330168
208	0x3c335387	0.010945207
209	0x3a978d61	0.001156252
210	0x3d001eb6	0.03127929
211	0xbc5faad9	-0.013651573
212	0x3c907f6c	0.017638884
213	0xbd0e9251	-0.034807507
214	0x3c79bd6c	0.015242916
215	0x3d0d8b22	0.034556516
216	0xba9f0f9d	-0.001213539
217	0x3cd6f924	0.026241846
218	0x3c9823ce	0.01857176
219	0x3cd3dadd	0.025861198
220	0x3c6fce8d	0.014636648
221	0xbbd19225	-0.0063955956
222	0xbce21b94	-0.02760104
223	0x3cfef5d4	0.03112308
224	0xbc193b5c	-0.009352531
225	0x3cd1009a	0.025512982
226	0xbd0bb642	-0.03410936
227	0x3adaf7af	0.0016705896
228	0x3a221ea9	0.0006184378
229	0x3d1f8676	0.03894659
230	0xba9ab3ae	-0.0011802816
231	0x3cf13a4b	0.029446742
232	0x3d4ea691	0.05045182
233	0xbcac2ba2	-0.0210169
234	0x3bdb41a8	0.0066911764
235	0x3b805c69	0.003917266
236	0xbd3f970d	-0.046774913
237	0xbce492b4	-0.027901985
238	0xbc8b207b	-0.016983261
239	0x3cd34c47	0.025793208
240	0xbcb938fa	-0.022610176
241	0xbcd8641a	-0.02641492
242	0x3d00a2b5	0.03140517
243	0x3d02ab1a	0.031901456
244	0x3c4ac60e	0.0123763215
245	0x3d1551de	0.036455028
246	0x3c00e612	0.007867353
247	0x3cdc4122	0.026886526
248	0x3b73463b	0.0037120718
249	0xbd23a7a2	-0.03995479
250	0xbcfe4d46	-0.031042706
251	0x3bea9af9	0.0071595875
252	0xbc86e0e4	-0.016464658
253	0xbbaebeaa	-0.0053327875
254	0x3d1b519d	0.03791963
255	0xbc8a5f10	-0.016891032

layer5.0.bias f4 [64]
0	0xbc6a126f	-0.0142866215
1	0x3d1af5c5	0.03783204
2	0xbc6aa383	-0.014321211
3	0xbc12ceec	-0.008960467
4	0xbd16ab6e	-0.03678458
5	0xbc98cc7e	-0.018652197
6	0xbca0be53	-0.019622004
7	0x3ca52e6e	0.020163741
8	0xbbf4b3b2	-0.0074677104
9	0x3c8a03d4	0.016847529
10	0x3c8a0eda	0.016852785
11	0x3ce26e8d	0.027640605
12	0x3aaa170e	0.0012976842
13	0xbd1887ee	-0.037239008
14	0x3afe8019	0.0019416838
15	0xbd1e96ae	-0.038717918
16	0x3d1bffac	0.038085625
17	0xbac09f6c	-0.0014695949
18	0xbb8f1d85	-0.0043675327
19	0x3d1af825	0.037834305
20	0xbd25aa45	-0.040445585
21	0xbd16133e	-0.036639445
22	0x3d01c75d	0.03168427
23	0xbd2a2b57	-0.04154524
24	0xbc95c26d	-0.018281186
25	0xbc2d4f74	-0.010578025
26	0xbaa4030f	-0.0012513119
27	0xbc8226d2	-0.015887652
28	0x3cba679e	0.022754487
29	0x3a3829f7	0.0007025296
30	0x3d1f0424	0.03882231
31	0xbcfba903	-0.03072024
32	0xbcb1903e	-0.021675225
33	0x3cb11a04	0.02161885
34	0xbba4d1f4	-0.005029911
35	0x3c2f3e22	0.010695966
36	0xbc853300	-0.01625967
37	0xbd0ca525	-0.03433718
38	0xbd0c1f10	-0.03420931
39	0xbab4d078	-0.0013795039
40	0x3c099a75	0.008398642
41	0xbc8485bf	-0.016177056
42	0x3c754988	0.0149711445
43	0xbbfafc79	-0.0076594916
44	0xbc692a8f	-0.014231338
45	0xbcc7604d	-0.024337912
46	0xbb900a64	-0.00439577
47	0x3ba3e5fd	0.005001782
48	0xbc7fdc91	-0.015616552
49	0x3d0570d6	0.03257831
50	0xbd22fd8a	-0.039792575
51	0x3d1e013f	0.038575407
52	0xb94b4cb1	-0.00019388158
53	0x3c5cbced	0.013472778
54	0xbcf360a4	-0.029709168
55	0xbc54d2ac	-0.012989681
56	0xbc16222f	-0.009163423
57	0xbc8647ef	-0.016391722
58	0x3c1439a6	0.009046948
59	0x3c8f1b95	0.017469207
60	0x3c690ee3	0.014224741
61	0x3cf22023	0.02955634
62	0xbcd2e53b	-0.025744071
63	0x3c8f70f1	0.01750991

layer5.1.weight f4 [64]
0	0x3f84d065	1.0376097
1	0x3f839d9e	1.0282476
2	0x3f82c9cf	1.0217837
3	0x3f85ad71	1.0443555
4	0x3f81519e	1.0103033
5	0x3f82881c	1.0197787
6	0x3f82afc8	1.0209894
7	0x3f83822f	1.0274104
8	0x3f826ecf	1.0190066
9	0x3f82e4d3	1.0226082
10	0x3f820f63	1.0160946
11	0x3f83c428	1.0294237
12	0x3f832cf1	1.024809
13	0x3f836a80	1.0266876
14	0x3f80d586	1.0065162
15	0x3f8420b9	1.0322486
16	0x3f82fd6a	1.0233586
17	0x3f861cb7	1.0477513
18	0x3f8490bd	1.0356671
19	0x3f861330	1.0474606
20	0x3f835be2	1.0262415
21	0x3f834ca9	1.025777
22	0x3f824ebf	1.0180281
23	0x3f81c2c3	1.0137562
24	0x3f831c29	1.0242969
25	0x3f80da37	1.0066594
26	0x3f83327c	1.0249782
27	0x3f81bbb3	1.0135406
28	0x3f81b447	1.0133141
29	0x3f8392c6	1.0279167
30	0x3f844a2b	1.0335134
31	0x3f826dc2	1.0189745
32	0x3f83525e	1.0259511
33	0x3f82a5a8	1.0206804
34	0x3f8269f7	1.0188588
35	0x3f817abd	1.0115582
36	0x3f824ed3	1.0180305
37	0x3f8612f2	1.0474532
38	0x3f828a02	1.0198367
39	0x3f833733	1.025122
40	0x3f82c0b2	1.0215056
41	0x3f827a7c	1.0193629
42	0x3f844433	1.0333313
43	0x3f853d66	1.0409362
44	0x3f834aa5	1.0257155
45	0x3f8200f1	1.0156537
46	0x3f828832	1.0197814
47	0x3f82bb69	1.0213443
48	0x3f824227	1.0176438
49	0x3f8263c3	1.0186695
50	0x3f84f031	1.0385801
51	0x3f822c74	1.0169816
52	0x3f820788	1.0158548
53	0x3f8459c2	1.0339892
54	0x3f8330f8	1.0249319
55	0x3f849816	1.0358913
56	0x3f830843	1.0236896
57	0x3f8201bd	1.015678
58	0x3f81bee8	1.0136385
59	0x3f847508	1.0348215
60	0x3f8246d5	1.0177866
61	0x3f82df96	1.0224483
62	0x3f839c43	1.0282062
63	0x3f83cb72	1.0296462

layer5.1.bias f4 [64]
0	0x3c351894	0.011053223
1	0x3c3a81a9	0.011383452
2	0x3c53c028	0.012924232
3	0x3ca2f2d6	0.019891184
4	0x3bcda260	0.00627546
5	0x3bcde6bd	0.0062836097
6	0x3c625871	0.013815031
7	0x3b26e197	0.0025464052
8	0x3adcb5ef	0.0016838888
9	0x3b7d7556	0.0038674674
10	0x3c04a299	0.008095407
11	0x3be83def	0.007087461
12	0x3a6250a2	0.0008633231
13	0x3b4d9a3a	0.0031372444
14	0x3b8aeab9	0.004239407
15	0x3c1dcab0	0.009630844
16	0x3a43cd7c	0.0007469279
17	0x3ca23191	0.019799026
18	0x3c7d008d	0.015442026
19	0x3c841a4f	0.016125826
20	0x3bcda098	0.006275248
21	0x3c29fc3f	0.010375082
22	0x3c008102	0.007843258
23	0x3b8425c7	0.0040328237
24	0x3b20f10a	0.0024557733
25	0x3aa0665e	0.0012237539
26	0x3c107f29	0.00881938
27	0x3c0c0b9a	0.008547688
28	0xbb6a314f	-0.0035734957
29	0x3be13173	0.00687235
30	0x3c51dc7a	0.012808913
31	0x3bafdaed	0.005366674
32	0x3c30428a	0.010758052
33	0x3c52934c	0.012852501
34	0x3c0a91ed	0.008457643
35	0x3bf323da	0.0074200453
36	0xba141531	-0.000564891
37	0x3c61b872	0.013776885
38	0x3c2251e1	0.009907217
39	0x3b645ec5	0.0034846526
40	0xb91e3a15	-0.00015089691
41	0x3b3e1362	0.0029003252
42	0x3c2e8d86	0.010653859
43	0x3c8378cb	0.01604881
44	0x3bbc5a8b	0.0057480983
45	0x3c2f5954	0.01070245
46	0x3b97ae08	0.0046289004
47	0x3ba0056d	0.0048834593
48	0x3ba7822e	0.005111954
49	0x3bb00d20	0.0053726584
50	0x3c328e2a	0.010898152
51	0x3bc74501	0.006081224
52	0x3bfac393	0.007652709
53	0x3c156593	0.009118455
54	0x3c55417b	0.0130161
55	0x3c894b5a	0.016759563
56	0x3bbffa07	0.005858663
57	0xbaf1241d	-0.0018397603
58	0xba41ffc7	-0.00074004795
59	0x3c1b1890	0.009466305
60	0x3c20c30a	0.009812126
61	0x3c597bf0	0.013274178
62	0x3c87ef68	0.01659365
63	0x3c214c92	0.009844916

layer5.1.running_mean f4 [64]
0	0x3f0486e1	0.5176831
1	0x3f1ac41c	0.6045549
2	0xbed93bc5	-0.42428413
3	0x3f13fa36	0.57803667
4	0xbcf35c88	-0.029707208
5	0x3e3e19f8	0.18564594
6	0x3e396166	0.18103561
7	0x3e488504	0.19581991
8	0x3d289d8c	0.041165873
9	0x3f7b2c6a	0.98114645
10	0x3f1e2c3a	0.61786234
11	0x3e9c163e	0.3048572
12	0x3ef9126b	0.48646864
13	0xbe2f8016	-0.17138705
14	0xbf54cab7	-0.8312182
15	0x3f277405	0.65411407
16	0x3e1a91f1	0.15094735
17	0x3f1b3e95	0.6064237
18	0x3eb05c10	0.34445238
19	0xbdd56c92	-0.10421099
20	0x3e66c53d	0.22536178
21	0x3f09dfa8	0.538569
22	0xbf9933df	-1.1968955
23	0x3f033f4c	0.5126846
24	0xbd081b60	-0.03322923
25	0x3f3791ae	0.71706665
26	0xbf0d6187	-0.5522694
27	0xbf89e78e	-1.077379
28	0x3bfcbf80	0.0077132583
29	0xbcc86628	-0.024462774
30	0x3f8f133d	1.1177746
31	0x3f224773	0.6339027
32	0x3f434515	0.76277286
33	0xbee576a9	-0.44817093
34	0xbf252ec0	-0.6452446
35	0x3e700b3b	0.23441784
36	0x3e229203	0.15876012
37	0x3f2ee9f0	0.6832571
38	0xbc1233f7	-0.008923522
39	0x3e870ee3	0.26378545
40	0x3e4791f4	0.1948927
41	0xbd9ee5af	-0.077586524
42	0x3eeff6b6	0.46867913
43	0x3f2d853e	0.67781436
44	0xbdb6ad4b	-0.08919772
45	0xbc2bf32b	-0.0104949875
46	0xbe3f5c2a	-0.18687502
47	0x3d89e8e4	0.067338735
48	0x3d9adfbc	0.07562205
49	0x3f749d82	0.9555284
50	0x3f244fc4	0.6418421
51	0x3ef6ad36	0.48179024
52	0xbfab3e20	-1.3378334
53	0x3f3aa4b0	0.72907543
54	0x3f1a3854	0.602422
55	0x3ee0086a	0.4375642
56	0x3f3d41eb	0.7392871
57	0xbe614804	-0.22000128
58	0x3f31902f	0.6936063
59	0x3ea28ff8	0.31750464
60	0x3eeca8e0	0.4622259
61	0xbe8dc584	-0.27689755
62	0xbe6439c3	-0.2228766
63	0x3d781817	0.06056985

layer5.1.running_var f4 [64]
0	0x3ef3eabb	0.47640023
1	0x3f906483	1.1280674
2	0x3f7c8a55	0.9864858
3	0x3f0214fd	0.50813276
4	0x3f1e165e	0.6175288
5	0x3f3c8b9a	0.73650515
6	0x3f7060fd	0.9389799
7	0x3f96a4e4	1.1769071
8	0x3f748274	0.95511556
9	0x3f60921c	0.87722945
10	0x3f3a31f1	0.72732455
11	0x3f835878	1.0261374
12	0x3f6a8792	0.91613114
13	0x3f32e333	0.6987793
14	0x3f2f12fd	0.6838835
15	0x3f3fd372	0.74932015
16	0x3f3a7ba2	0.728449
17	0x3f950d1e	1.1644628
18	0x3f2fbabc	0.6864431
19	0x3f3567c9	0.7086149
20	0x3f2bc297	0.67093796
21	0x3f1cca7f	0.61246485
22	0x3fa145fe	1.2599485
23	0x3f44e403	0.7691042
24	0x3f43f7d6	0.7655004
25	0x3f12d0a5	0.57349616
26	0x3fb00941	1.3752824
27	0x3f386983	0.72036
28	0x3f9856bd	1.190147
29	0x3f49f086	0.78882635
30	0x3f90dfda	1.1318314
31	0x3f4065a2	0.7515508
32	0x3f0c5f23	0.5483267
33	0x3f25d33f	0.6477546
34	0x3f74e02d	0.95654565
35	0x3f1e3f55	0.61815387
36	0x3f7d7581	0.9900742
37	0x3f130009	0.5742193
38	0x3f158b53	0.58415717
39	0x3f27a062	0.654791
40	0x3f3452de	0.70438945
41	0x3ec6f250	0.38856745
42	0x3f787fa9	0.97069794
43	0x3f37e1f8	0.71829176
44	0x3f44c547	0.7686352
45	0x3f402bc7	0.750668
46	0x3f490c96	0.7853483
47	0x3f39473e	0.7237433
48	0x3f711bf9	0.9418331
49	0x3f38ccea	0.72187674
50	0x3f8dc6a2	1.1076243
51	0x3f796b7c	0.97429633
52	0x3f972bb3	1.1810211
53	0x3f237861	0.6385556
54	0x3ecd480c	0.4009403
55	0x3f49fbd6	0.78899896
56	0x3f678606	0.9043888
57	0x3f5ec4fb	0.8701932
58	0x3f2f2097	0.68409103
59	0x3f25950e	0.64680564
60	0x3ec45af5	0.38350645
61	0x3f6963eb	0.9116809
62	0x3f7a8af5	0.9786828
63	0x3f185ecf	0.59519666
