data/chkbox_models/chkbox_rnd7_2_bestVal.pt (torch_old, 236310 bytes, 31 tensors)

layer1.0.weight f4 [4, 1, 3, 3]
000000 55 7e ac 3e 7e 36 d8 3d 68 dd 56 3d 8a 08 b4 3d
       0.33690134 0.105572686 0.052457243 0.08790691
000010 e2 3c 79 be c9 ac 8f be 9f 8a 85 3e 9e 7e a5 3e
       -0.24339631 -0.28061512 0.26082322 0.32323164
000020 59 14 27 3e 83 8d 98 3d 98 ab ae bc c7 7e 43 be
       0.16316356 0.07448866 -0.021322057 -0.1909133
000030 f9 8f 7c be 3c ee 70 be 81 87 c5 bd c9 6a 1f bd
       -0.24664296 -0.23528379 -0.09644986 -0.038920198
000040 7f 56 2e be 0b b8 89 3d ad 7c 69 be 4b 34 39 be
       -0.17025183 0.067245565 -0.22801466 -0.18086354
000050 f9 7e 4d 3e 79 92 76 3e e6 6e 9e 3e 98 29 1c be
       0.20067967 0.24079312 0.30943984 -0.15250242
000060 3e f2 9a 3e f8 7c 2d be 38 49 83 be b6 f7 5f 3e
       0.3026294 -0.16942203 -0.256418 0.21871838
000070 b2 7f 88 3e 1e dc c3 bd 3c c5 b8 3d ea 8f 6f be
       0.26659924 -0.095634684 0.090219945 -0.23394743
000080 e9 aa a4 be ae 5e 84 3e 70 0c 6a be a2 22 cb bd
       -0.32161644 0.25853485 -0.22856307 -0.09918715

layer1.0.bias f4 [4]
000000 11 4d 80 be 2d 2f 2a 3e 4c 9f a3 3e 06 69 2e 3e
       -0.25058797 0.16619559 0.3195747 0.17032251

layer1.1.weight f4 [4]
000000 01 65 7e 3f 67 f7 80 3f 3f aa 7f 3f f0 fa 80 3f
       0.9937287 1.0075501 0.9986915 1.007658

layer1.1.bias f4 [4]
000000 da 23 00 3c 22 eb 6f 3c 97 bb d4 bb ab e2 7e 3b
       0.007821048 0.014643462 -0.006492089 0.003889243

layer1.1.running_mean f4 [4]
000000 4b 10 7a 3e c5 be bf be a1 86 bb 3e 42 ce 99 3d
       0.24420278 -0.37450233 0.3662615 0.07510044

layer1.1.running_var f4 [4]
000000 33 97 17 3f 13 6b 33 3f 5f 14 3d 3d dc 5f 1c 3e
       0.59215087 0.7008526 0.046162006 0.15270942

layer2.0.weight f4 [8, 4, 3, 3]
000000 a0 09 c5 bd 5a b8 84 bd d0 ae 5e bb 32 8b ea bd
       -0.096209764 -0.06480475 -0.0033978708 -0.11452331
000010 7a 10 7c 3b 72 26 1b be 5c b1 7a 3d 8c 9d e5 bc
       0.003846197 -0.15151384 0.0612043 -0.028029226
000020 a6 b2 b3 3d c9 3d 1e bd f4 76 a6 bd 8f 79 cc bc
       0.08774309 -0.03863314 -0.08128157 -0.024960307
000030 86 16 25 3e 39 11 a8 3d cb 41 99 3c 38 67 ac 3d
       0.16121873 0.0820641 0.01870813 0.08418125
000040 1a 3e 04 3e 1f b7 bf bb de ce 45 bd 93 34 12 3c
       0.12914315 -0.005850687 -0.048292987 0.0089236675
000050 f2 7f 1d be 3a fe 2c be 62 c7 a0 bd de 54 ac bd
       -0.15380839 -0.16893855 -0.07850529 -0.08414625
000060 63 89 de bd 37 d0 85 3d 06 b8 1d bc 80 83 de bd
       -0.10866048 0.065338545 -0.009626394 -0.108649254
000070 ed b6 2a be 57 9c aa bd bd 90 80 3d 0e 8d e8 bd
       -0.16671343 -0.08330601 0.06277607 -0.11355029
000080 43 19 44 bc 2e 0f ac bd 98 3a e9 3d 70 74 06 3d
       -0.0119689135 -0.08401333 0.11388129 0.032825887
000090 74 54 5f bc 7b 68 34 bd 54 83 08 3d d8 72 d0 3d
       -0.013630975 -0.044044953 0.03332837 0.10178155
0000a0 37 49 01 3e 72 87 ae 3d 1f 1c 0b be a7 36 bf bd
       0.12625585 0.08521928 -0.13584946 -0.09336596
0000b0 90 95 d1 3d 59 19 7b bc 85 79 9b 3c c1 8a ce 3c
       0.10233605 -0.015325868 0.018978843 0.025212647
0000c0 a2 3a f9 3d 1e 10 71 bd 2b 35 ed bd a4 cc 70 bd
       0.121693864 -0.05885326 -0.115824066 -0.05878891
0000d0 3f 6a 4d bc 9b fb 58 bc b9 78 b9 3b 2e 59 23 3e
       -0.012537538 -0.013243581 0.005660143 0.15951988
0000e0 2e 4d bb bd 97 78 03 be 0c 42 1c 3e 46 a6 c3 3d
       -0.0914558 -0.1283897 0.1525957 0.095531985
0000f0 50 a2 9d 3d da 82 99 3c de 54 60 bd 5e 1d f4 3c
       0.07696974 0.018739153 -0.054768436 0.02979916
000100 5f dd 95 bd 07 7b 84 bd 49 a1 c1 bd 2a 5a 02 be
       -0.07317614 -0.06468778 -0.09454591 -0.12729707
000110 c6 8a aa bd 92 94 ec bc c6 f0 a7 bd a0 00 31 bd
       -0.0832725 -0.028879438 -0.08200221 -0.043213487
000120 f2 e5 da bd 2b 6d 4e bb d6 8a b8 bd af d6 e9 3c
       -0.1068839 -0.0031498175 -0.09010856 0.028544752
000130 b3 c5 90 bc b8 4b 2e ba 25 8c 21 be 19 20 b0 3d
       -0.017672395 -0.0006648856 -0.15776117 0.08599872
000140 bf e4 86 3d 91 67 d2 3d 0d e6 c0 bd a1 ce 29 3e
       0.065865986 0.1027366 -0.09418879 0.16582729
000150 6b 8a 18 3e f1 be b5 bc eb 3a 31 3e ca 6d bd bd
       0.14896552 -0.022185775 0.17307632 -0.09249456
000160 31 ff 87 3d 1b f9 87 bb 9b 3b 45 bd 32 78 3f bd
       0.06640471 -0.0041495687 -0.048152547 -0.046745487
000170 f8 6f 09 3e ee 79 25 be f1 de f1 3d 9b b3 00 3d
       0.13421619 -0.16159794 0.11810101 0.031421285
000180 1d 66 be bd 6e c9 ef 3d c8 ad c1 3d 99 f1 82 bd
       -0.0929682 0.117083415 0.09456974 -0.06393737
000190 52 80 ad 3d 32 be a8 3d 7b f8 ce bd ab c0 e1 3d
       0.08471741 0.08239402 -0.10105988 0.110230766
0001a0 a3 ca 41 bd a1 72 0a 3e a5 f0 1c 3d 7e bd d2 3d
       -0.04731239 0.1352029 0.038315434 0.10290049
0001b0 96 8d 6c bd a0 a7 0f 3e c3 67 a5 3d 6c ad c5 3d
       -0.057752214 0.14028788 0.080764316 0.09652218
0001c0 bd ce 91 bd e3 a1 af bc 66 56 22 3e a3 62 bc bd
       -0.0711951 -0.021439498 0.15853271 -0.09198501
0001d0 b7 5d 63 bd 4a c7 1c be e8 44 bd bd 9f 35 80 bd
       -0.055509295 -0.15310398 -0.092416584 -0.062602274
0001e0 30 15 a1 bc 74 45 24 3e 58 a3 86 3d 9b 77 f8 3c
       -0.019663423 0.1604212 0.06574124 0.03033047
0001f0 a3 dc c9 3c 7d f3 20 3e 58 2a 5f 3d b7 4a 0d 3d
       0.02464134 0.15717883 0.05448374 0.03449508
000200 fc 7f d6 bd 50 0a ad 3d 37 28 00 be 38 2d c2 3d
       -0.1047363 0.084492326 -0.12515341 0.09481281
000210 13 59 72 bc 0d 69 0a 3e 2d c5 b8 3d 67 dd c4 3d
       -0.014791745 0.13516636 0.09021983 0.09612542
000220 7a 21 f8 bd 40 ce f6 3b 56 f5 8a 3c ce d5 c5 3d
       -0.1211576 0.007531911 0.016962688 0.09659921
000230 10 1c a0 bd 31 2e ad bd 26 d6 31 3e db 61 cf 3d
       -0.078178525 -0.08456076 0.17366847 0.10126086
000240 11 e9 f6 3d 45 d0 1d 3e e1 6b 56 3d b4 a8 b9 3d
       0.12056173 0.1541148 0.052348975 0.09065381
000250 97 d6 75 3d a3 9e c3 bd c1 4a 7a 3d 78 a9 6f 3d
       0.060019102 -0.09551742 0.061106447 0.058511227
000260 61 29 26 bb 4b e8 9a 3c 01 12 ce bd f0 72 91 3d
       -0.0025354254 0.018909594 -0.10062028 0.07102001
000270 45 35 0f 3d c5 be f3 3b 2c 9c be b9 a8 e0 5b 3d
       0.03496291 0.007438513 -0.0003635598 0.053681046
000280 ed 33 05 3c 8c d4 eb bd 9e 7d 31 3d d5 66 9d bd
       0.008130056 -0.115151495 0.04333269 -0.07685629
000290 e8 4e b9 3c a9 cf 07 3e 0b b3 17 be a7 a5 16 be
       0.022620633 0.1326281 -0.14814393 -0.14711629
0002a0 e8 20 10 3e 68 98 ef bd 06 38 01 be 69 af 84 bc
       0.14075053 -0.11698991 -0.12619027 -0.016196923
0002b0 88 fa fd bd 89 f3 87 bc 14 67 1e bd e1 06 05 3e
       -0.12401301 -0.016595619 -0.03867252 0.12990905
0002c0 4f cf e9 bd c0 3b 08 bd 7f 3f 06 be fe a5 f3 3d
       -0.11416494 -0.033260107 -0.1311016 0.11896895
0002d0 e4 c1 a4 3d 7a ef 8c 3d c0 d6 2e bd 87 30 96 3d
       0.08044794 0.06881614 -0.04268527 0.073334746
0002e0 bf 94 4f bb df 91 56 3d 61 2d 10 be cb f0 0f 3c
       -0.0031674353 0.052385207 -0.1407981 0.008785437
0002f0 8e 6f 97 bd 4e 5c 6a 3b 11 05 83 3d 1d 02 b6 3d
       -0.07394324 0.0035760584 0.06397451 0.08887122
000300 b4 5f b6 bd 36 9b d1 3d 34 74 e4 bd 11 5a a5 3d
       -0.08904973 0.10234682 -0.111549765 0.080738194
000310 e0 5b 12 3e 23 e5 80 bd d3 bb d9 bd e8 4f 14 be
       0.1429286 -0.06293704 -0.10631528 -0.14483607
000320 a0 f9 d7 3b 87 ae 04 3e 10 46 ee bc 1d 3f 40 bd
       0.006591037 0.12957202 -0.029086143 -0.04693519
000330 56 cc c5 3d 21 a3 0b 3e 0a 5f 2b bd 0e 84 0f 3e
       0.096581146 0.13636447 -0.041838683 0.14015219
000340 ec ca 20 be 55 62 10 be 58 67 16 be 0d 1d 1d be
       -0.15702409 -0.1410001 -0.1468786 -0.15343113
000350 22 71 c1 bd 23 f4 17 3d 8b 1d f4 3d 11 7e f8 bd
       -0.094454065 0.03709806 0.119196974 -0.1213342
000360 bb 45 c8 3c a1 28 f2 bd 97 5f a0 bd 8b 71 45 bd
       0.024447313 -0.118241556 -0.07830732 -0.048203986
000370 43 75 73 3d 0c 29 d5 3c 16 cb 8a bd 0c 4b 31 3e
       0.059438 0.02602055 -0.06777017 0.17313784
000380 e6 e0 0e be 57 2b c2 3b a5 7f 36 be b8 be e7 bd
       -0.1395298 0.0059255767 -0.1782213 -0.113156736
000390 43 f9 3c bd 77 77 14 bc a3 45 d8 bd 37 74 02 3e
       -0.046136152 -0.009061686 -0.10560157 0.12739645
0003a0 55 66 8a bd 53 e2 f3 bd 9d c7 f5 bc 44 b9 cc 3b
       -0.067577995 -0.11908402 -0.03000241 0.0062476713
0003b0 23 29 35 3d 2d 8c 09 3c 81 04 67 3d 34 11 bb bd
       0.044228684 0.008395237 0.05640078 -0.091341406
0003c0 b5 84 b4 38 27 6f 26 be 7c 43 02 be 66 69 fc bd
       8.6077875e-05 -0.16253339 -0.12721056 -0.12324791
0003d0 52 b3 22 be bb c6 d9 3d 05 c8 2d 3d f8 93 f5 3c
       -0.15888718 0.10633608 0.04242708 0.029977784
0003e0 aa f6 36 3d 3f 5e e9 bd fc e6 16 3e 6a 17 9d bd
       0.04466883 -0.11394929 0.14736551 -0.076704815
0003f0 62 29 12 3e 9b 38 8b bd 35 a7 0f be c4 66 1c 3e
       0.14273599 -0.06797906 -0.14028628 0.15273577

layer2.0.bias f4 [8]
000000 5f d8 9b bc 62 2c bc bc 2d d2 b9 3d 70 ce 28 3e
       -0.019024072 -0.022970382 0.09073291 0.16485
000010 37 8c c7 3c 15 2f a6 3d b9 5f f0 bd 19 87 dc 3d
       0.024358852 0.08114449 -0.11737008 0.10767955

layer2.1.weight f4 [8]
000000 49 45 7f 3f 45 b6 80 3f 9d 9b 7e 3f fb e8 7f 3f
       0.99715096 1.0055624 0.994562 0.99964875
000010 7e 13 81 3f 7a 7f 7d 3f 9c fd 7d 3f aa 6c 80 3f
       1.0084074 0.9902264 0.992151 1.0033162

layer2.1.bias f4 [8]
000000 61 f5 51 ba c1 a0 30 3c 18 13 ca 3b 3d 9f 88 3b
       -0.00080092816 0.010780514 0.006166827 0.0041693733
000010 d2 58 6d 3c 18 5d 18 bc b9 8f ff 39 23 65 80 3c
       0.014486508 -0.009299539 0.00048744472 0.015673226

layer2.1.running_mean f4 [8]
000000 35 7c a2 be 5d 28 f0 bd d1 69 b5 3e fe 2b db 3e
       -0.31735387 -0.11726449 0.35432294 0.42807
000010 92 c3 31 3d 57 f4 bc ba 6e 22 02 bf bb c1 1e 3d
       0.0433994 -0.0014416081 -0.50833786 0.038758975

layer2.1.running_var f4 [8]
000000 95 94 df 3e 67 0d 07 3e 21 48 e6 3d 22 62 10 3e
       0.43668047 0.13188706 0.11244226 0.14099935
000010 99 c6 eb 3d ac 56 fa 3d 9b fd c7 3d 9a 6c 15 3e
       0.11512489 0.122235626 0.09765168 0.1459221

layer3.0.weight f4 [16, 8, 3, 3]
000000 4e dd 00 be 55 5b b6 bc 14 4e e0 bd 9b c4 a0 bd
       -0.12584421 -0.022260347 -0.10952392 -0.078499995
000010 1f 54 e8 bd a3 a5 b0 bd a8 f2 8f 3b ad 50 5e bd
       -0.1134417 -0.08625343 0.0043929406 -0.054276157
000020 10 fa c4 3d 43 83 9e bc 39 93 db 3c e1 ba bb 3d
       0.09618008 -0.0193497 0.0268036 0.09166504
000030 ca 42 c4 bc a5 50 6c 3d d7 e3 39 3c 86 b7 5b 3c
       -0.023957629 0.057694096 0.011345825 0.013410455
000040 1c 64 09 bd 8b a2 84 3d 48 d2 a0 bd 06 20 82 3d
       -0.033542737 0.06476315 -0.07852608 0.06353764
000050 d5 7c 77 bc 61 ef a3 3b f1 62 7e 3d ba b1 8a 3d
       -0.015105446 0.0050029014 0.062106077 0.0677218
000060 4f 61 90 bd 62 90 c9 3d de 84 a3 bd a0 2c b0 3c
       -0.0704981 0.09841992 -0.07984327 0.021505654
000070 5f 5d 40 bd 83 52 07 bd 5e 9e a2 bd 07 81 18 3b
       -0.046964046 -0.033037674 -0.079403624 0.0023270266
000080 03 f5 e3 3d d2 f0 9b bd 91 af 1b bd a7 f0 3d bd
       0.11130717 -0.07614292 -0.03800923 -0.046372082
000090 2f ec 8c bd 43 62 87 3d e0 20 a3 bd 1e 52 b4 3d
       -0.06880986 0.06610539 -0.07965255 0.08804725
0000a0 8c e8 80 3d 9d 48 96 bd 5d 65 3f 3d ed 4f a8 3d
       0.06294355 -0.07338069 0.046727527 0.0821837
0000b0 a6 2f 95 3d cc ad af 3c d1 36 aa bc 15 5e 8c 3b
       0.07284479 0.021445177 -0.020778092 0.0042836764
0000c0 29 96 48 bc 83 d4 06 3d 16 b8 b2 3c f2 a2 d6 bd
       -0.012242832 0.03291751 0.021816295 -0.10480298
0000d0 91 0f 69 bd 2c 18 62 bc f5 f3 d2 3c 65 83 cb bd
       -0.05689961 -0.013799708 0.025751093 -0.09937171
0000e0 36 55 25 3d 71 84 a1 3d 12 40 2f 3d dc 8d 12 bd
       0.040364467 0.07886589 0.04278571 -0.03577982
0000f0 66 1c 9d 3d 37 ab bc 3d 91 a8 53 3d db 68 96 3b
       0.07671432 0.09212344 0.05167443 0.0045901365
000100 b1 ff b7 3d 7d 77 df 3b c0 1b b7 3d f9 d3 f9 3c
       0.08984316 0.006819664 0.0894084 0.030496584
000110 ac 69 cc 3c cb 96 94 3d 95 42 b2 bd 63 28 48 bc
       0.024952732 0.07255324 -0.08704106 -0.01221666
000120 b3 ef c6 bd 30 5b 9f bc 87 4d ba 3d d0 de f6 bc
       -0.09713688 -0.019452661 0.090968184 -0.030135542
000130 c5 cd 4d bd d1 0f a6 bc d9 d3 6e bd 80 26 c8 3d
       -0.050245065 -0.020271214 -0.058307502 0.09772968
000140 a1 e8 bb bd 40 4f d8 3d 5c 6d 74 3d 66 ea d0 3d
       -0.0917523 0.10561991 0.059674606 0.10200958
000150 e3 49 a3 3d 2c 4b 86 bd c2 7d 1f bd 70 34 bb bd
       0.07973077 -0.06557307 -0.03893829 -0.09140861
000160 c2 ad d6 bc 6a 01 ba bc 53 9a 96 bd da de d1 bd
       -0.026205901 -0.022705752 -0.07353654 -0.10247584
000170 ac f8 a2 3d d4 e9 c1 3d cb 4c 9d 3c 81 76 e2 bc
       0.07957587 0.09468427 0.019201657 -0.027644398
000180 e7 8d 1f 3d 93 fa bc 3d d8 a4 62 bd bc 2f ce bd
       0.038953688 0.09227481 -0.05533299 -0.10067698
000190 58 f4 54 bd e7 e3 e1 bd 58 07 45 3c f9 b9 2f 3d
       -0.051990837 -0.11029797 0.012025677 0.042901967
0001a0 f8 92 a5 3d 7d 77 23 bd 1d 36 52 3d 02 a3 97 3d
       0.08084673 -0.039908875 0.051321138 0.07404138
0001b0 7d 21 67 3d 9f 77 80 3d d6 46 b1 3d 84 f8 27 bd
       0.05642842 0.06272816 0.08656089 -0.041008487
0001c0 a7 7c b7 bd f1 de 8b 3c a9 38 39 bd 46 c1 c0 3d
       -0.089593224 0.01707408 -0.04522005 0.09411864
0001d0 90 ee c1 3d ab 47 b4 bd e5 56 b4 3d 3f 02 9b 3d
       0.0946933 -0.08802732 0.08805636 0.07568788
0001e0 41 7b a4 3d 06 b8 d0 3d 52 fa ab 3d df d2 cd bc
       0.08031321 0.1019135 0.08397354 -0.025124965
0001f0 d2 ea 70 bd e5 e9 21 bd 62 68 b2 bd e4 33 8b bd
       -0.058817692 -0.0395297 -0.08711316 -0.06797007
000200 f9 ed ed 3c 55 e3 d1 3d ef b2 17 3d 09 50 f6 bd
       0.029044138 0.10248438 0.03703588 -0.12026984
000210 dd 44 21 3d cf ea c3 3d e3 c0 d6 bd 4a 64 c5 bd
       0.039372314 0.095662706 -0.10486009 -0.09638269
000220 65 9f 91 3d 59 05 70 bd c0 23 89 3d e4 91 7f bc
       0.0711048 -0.05859885 0.06696272 -0.015598748
000230 c2 44 8a bd 2c d9 74 3d 58 73 cd bc 6a 0e 27 3d
       -0.06751396 0.059777424 -0.025079414 0.04078523
000240 1b 6a fb 3d 89 73 0f bd b4 1d 4b 3d 1d 79 9d 3c
       0.122760974 -0.035022292 0.049588874 0.01922279
000250 e2 df 9b 3d 02 cf f6 3c d3 1c 3b bd 82 3b b4 3d
       0.07611062 0.030128006 -0.045681786 0.08800413
000260 81 6f 5f bd 11 4b 04 bc 75 4b 4f bd a9 32 f7 bd
       -0.054549698 -0.008074538 -0.05060907 -0.120702095
000270 9c fb fd 3c 08 3d 95 3d cf fe d7 3d ac dc ac bc
       0.031003766 0.072870314 0.10546648 -0.021101318
000280 78 b6 82 bd 37 07 3e 3d 02 fa a2 3b 3e 8a c6 bc
       -0.063824594 0.0463936 0.004973651 -0.02423584
000290 f1 18 6f 3d a8 43 5d 3d db 00 c7 3c 3d 52 c8 3d
       0.058373395 0.0540196 0.0242924 0.09781311
0002a0 40 da 67 3d b7 41 e7 3d 7b e8 94 3d a9 ac 93 bc
       0.056604624 0.11291831 0.07270905 -0.018026667
0002b0 2f b9 50 3c 90 0c 9a 3d 7b 5e c1 bd b1 ff 34 bc
       0.012739464 0.07521927 -0.09441849 -0.01104729
0002c0 8f c8 e6 3d cd ba 20 3d d6 7f b1 bd 1c e8 9d bd
       0.11268722 0.039240647 -0.08666961 -0.07710287
0002d0 55 69 4d bd e9 7a bd 3d 89 90 2d bb 78 d5 d9 bd
       -0.05014928 0.09251959 -0.0026483855 -0.10636419
0002e0 6b 21 bd bd f8 f7 9f 3d bd 58 55 bd 5f ed c4 3b
       -0.092348896 0.07810968 -0.05208658 0.006009742
0002f0 c1 29 99 3d d9 a2 52 bc 92 d7 d2 3d 87 95 99 bd
       0.07478667 -0.012856209 0.10295023 -0.07499223
000300 28 cd 31 3d c5 9f e7 ba ac 0d 3e 3d 29 b8 83 bd
       0.043408543 -0.0017671516 0.046399757 -0.0643161
000310 9b a0 8b bd a8 62 4c 3d 47 aa e2 bc 18 db 88 3c
       -0.068177424 0.049898773 -0.027669085 0.016706035
000320 1b 2f 8d bd 1d 89 08 bd dd cf f2 bd d9 41 44 3c
       -0.0689375 -0.033333886 -0.11856053 0.01197859
000330 cf f3 35 bd 54 94 cb 3b 8a 3e d5 3d e1 78 db bd
       -0.044421967 0.0062127504 0.10412319 -0.10716415
000340 b3 54 be 3d b8 42 7e bd d5 8b ab bc dd 83 95 bd
       0.09293499 -0.062075347 -0.0209407 -0.073005415
000350 12 e4 bd 3d 00 e0 01 3d fc 64 ce 3d 1f d9 b8 bd
       0.092720166 0.031707764 0.10077855 -0.090257876
000360 18 04 b9 bc da 4e e2 bd 32 2e 71 3c 4c 5e cb 3d
       -0.02258496 -0.11050196 0.0147204865 0.09930095
000370 9d e0 4c 3d b9 be 55 3d 20 d4 c8 bd 2f 9a 98 3d
       0.050018895 0.05218384 -0.09806085 0.07451283
000380 6a 1c 89 3d 53 e3 1b 3d d9 d2 a3 bc d5 b0 c8 3c
       0.06694873 0.03805859 -0.019998001 0.024498383
000390 a4 20 ca 3d e6 be d4 3d b3 46 cf 3c df 9c ca 3d
       0.09869507 0.103879735 0.025302267 0.09893202
0003a0 e0 d6 d8 bd 6b 2c a2 bd 43 23 6f bd 52 ad 57 3c
       -0.10587859 -0.07918628 -0.058383238 0.013163881
0003b0 e4 1d a4 3d 57 4e d8 3d db 60 89 bb ff 54 d5 bd
       0.08013514 0.10561817 -0.0041924543 -0.10416602
0003c0 ff 52 9a bd 0a 9d 11 bd 50 d8 d4 bd 5b 12 bc bb
       -0.075353615 -0.035550155 -0.10392821 -0.005739493
0003d0 c6 c8 28 3c 22 17 eb 3d 4e cc 6a bd 88 5b d9 bd
       0.010301774 0.114790216 -0.057323746 -0.10613161
0003e0 02 e1 a0 3d 87 69 17 3d c8 98 ba 3d 9b ac d4 3d
       0.07855417 0.036965873 0.09111172 0.103844844
0003f0 58 59 90 bd 8f b1 f8 bd 91 f5 84 3c c9 2a 98 3d
       -0.07048291 -0.121432416 0.016230376 0.074300356

layer3.0.bias f4 [16]
000000 22 b1 76 3d 0c 04 14 bd df 42 de bc 4f c2 12 bd
       0.06022752 -0.036136672 -0.027131496 -0.03582984
000010 20 a6 0d 3d 91 fc a3 3d ad dc 49 bb 8a 34 25 3d
       0.034582257 0.080071576 -0.00308017 0.04033331
000020 f6 bc 79 3c 2b 35 ae 3c 8a 7f 35 bd 2b f2 7a 3d
       0.015242806 0.021265587 -0.044311084 0.061266106
000030 f9 34 aa 3c 2b c3 20 bd 8f fc 81 bd 57 0a 35 bd
       0.020777212 -0.039248627 -0.06347 -0.044199314

layer3.1.weight f4 [16]
000000 42 08 7e 3f dd 37 7c 3f 43 a6 80 3f 88 64 81 3f
       0.9923135 0.9852274 1.0050739 1.0108805
000010 31 71 7f 3f a1 04 7d 3f 42 ff 7e 3f 8f 20 80 3f
       0.9978209 0.9883519 0.9960824 1.0009936
000020 61 2c 81 3f 91 ba 7b 3f 24 3c 80 3f 03 69 80 3f
       1.0091668 0.9833155 1.0018353 1.0032047
000030 44 8c 80 3f 3a 13 80 3f 13 07 81 3f ca 7f 80 3f
       1.0042806 1.0005867 1.0080284 1.0038998

layer3.1.bias f4 [16]
000000 f8 95 23 3b 49 32 17 bc 3f b9 49 bb b0 3a d0 b8
       0.0024961215 -0.0092282975 -0.0030780581 -9.929144e-05
000010 8a b8 4a ba 74 fc bf bb 73 23 f6 bb e3 c9 1a bb
       -0.0007733187 -0.005858952 -0.00751155 -0.002361887
000020 da 6c 7e 3a e9 ae 5b bc 43 96 a8 3b 0d b6 c5 3a
       0.0009705551 -0.013408401 0.0051448657 0.0015084163
000030 98 75 21 3c 63 15 29 bb 29 c8 16 3c 9a 9e a1 bb
       0.009854697 -0.00258001 0.009202995 -0.004932237

layer3.1.running_mean f4 [16]
000000 d0 d8 ce 3d 01 ed 68 3d 72 7e 0a 3e 35 cf c7 3d
       0.100999475 0.05686665 0.13524798 0.097563185
000010 92 aa 1f 3e b1 09 24 3e 2e 1f 50 3d 74 41 c2 bd
       0.15592411 0.16019322 0.050810985 -0.094851404
000020 36 6a 81 3d 2b e9 52 3e 24 04 3f be ab eb 6b 3e
       0.06319086 0.20596759 -0.18653923 0.23039119
000030 3c 01 40 3e d0 03 b3 be c8 7f 03 be 82 aa 93 bd
       0.18750471 -0.34963846 -0.12841713 -0.07210256

layer3.1.running_var f4 [16]
000000 e2 22 2e 3e 08 17 ee 3d 4c 59 ff 3d a7 82 ba 3d
       0.17005494 0.116254866 0.12468204 0.09106951
000010 18 8c 07 3e 36 6c b4 3d 96 c4 db 3d 0b ec 1d 3e
       0.13237035 0.08809702 0.10730855 0.15422074
000020 a6 68 3e 3e 5d 21 2f 3e a5 0f 38 3e 2a f0 df 3d
       0.18594608 0.17102571 0.17974718 0.109344795
000030 34 30 2e 3e d0 b4 38 3e 64 e8 83 3d b8 60 ae 3d
       0.17010576 0.18037724 0.06440809 0.085145414

layer4.0.weight f4 [64, 16, 3, 3]
000000 ae 5a 6e 3d d5 b6 90 3d e1 79 90 bd 7d 0c 8b bc
       0.058191948 0.070661224 -0.070544966 -0.016973728
000010 36 6b 7a 3d 04 19 8f bd b6 5e fd bc 34 2a 01 bd
       0.0611374 -0.06987193 -0.03092895 -0.03153439
000020 1b 03 86 bd 13 5e f1 bc 59 86 1b bc 2c 1d 9d bd
       -0.06543561 -0.029463803 -0.00949248 -0.0767158
000030 bc 4b 39 ba 96 a5 07 3c 04 88 84 3d 9d 02 4f bd
       -0.0007068475 0.008279225 0.064712554 -0.0505396
000040 a0 0f 85 bd 13 bd 4c bd 2e 41 27 bd 21 20 8f 3d
       -0.06497121 -0.049985003 -0.040833645 0.0698855
000050 ae 7f 4f 3d 1f 4b 5c bd e3 97 20 3c 58 b5 32 3c
       0.050658874 -0.05378258 0.009801838 0.0109074935
000060 3d 7e 73 3d b2 9f 72 bd 9a 37 66 3d be 9e a1 bd
       0.059446562 -0.05923433 0.05620537 -0.07891606
000070 4f b7 6c 3d 95 a8 80 bd 6b 11 a0 bd 6e ad 46 3c
       0.057792004 -0.062821545 -0.07815822 0.01212631
000080 8e 73 f5 3c 0a 71 35 3c bd 3d 2f 3d 44 71 08 bd
       0.029962327 0.011074314 0.042783488 -0.033311144
000090 11 02 a5 3d 7d 84 56 bc 20 d4 4c 3d e9 1e 41 3d
       0.08057035 -0.013093111 0.050006986 0.04714862
0000a0 24 c4 9e 3d f8 94 27 3b 0d a2 80 bd 82 e7 f7 3c
       0.077522546 0.002557097 -0.06280909 0.030261759
0000b0 6a a8 33 bd 6f 5f 3f 3d 1a 56 61 bd 03 08 4e bd
       -0.043861784 0.046721872 -0.055013753 -0.05030061
0000c0 45 45 55 3c f3 b2 8d bd 68 95 a3 ba 24 73 82 bd
       0.013017003 -0.069188975 -0.001248044 -0.063696176
0000d0 e1 34 57 3d 15 e0 38 bd ed 9b 7a 3d 83 5e 9d bd
       0.052540664 -0.045135576 0.06118386 -0.07684042
0000e0 ad 6a 89 3d 5c c0 f5 3c c7 24 98 3d d6 d3 47 3d
       0.067098 0.02999895 0.0742889 0.048786007
0000f0 4d 9d 9a bd 8a 2d 86 3b 85 1f 4b bc b9 2d 4f 3d
       -0.07549534 0.004094784 -0.012397652 0.050580714
000100 98 f9 61 bc c4 f0 8f bd 8a 19 e7 3b ba ad 0c 3d
       -0.013792418 -0.07028344 0.007052605 0.034345366
000110 28 51 0a 3d 62 dd 2f 3c 15 86 76 3d 08 2e eb 3c
       0.033768803 0.010733934 0.060186464 0.028708473
000120 a4 2c 17 3d 43 00 90 3d 6f 7a 6e bd 02 a6 90 3d
       0.036907807 0.070313 -0.05822223 0.070629135
000130 79 e5 ae 3d 49 79 62 39 20 e4 32 bd 36 1b 3a bd
       0.08539862 0.00021598222 -0.04367459 -0.045436107
000140 87 cb 9f bd 7d 6b 4c bd f8 8d 23 3d bd e7 87 3c
       -0.07802492 -0.049907196 0.039930314 0.016589994
000150 cf bd 10 bd e5 83 93 3d 61 68 ef 3c bc fc 5c bd
       -0.035337266 0.07202891 0.029224576 -0.053951964
000160 49 75 37 bd d8 35 3d bd af 2b 5b bd 50 d5 ad bd
       -0.044789586 -0.046193928 -0.053508457 -0.08487952
000170 37 82 19 3c 45 3a 99 3d cd a1 01 bc 02 20 34 3d
       0.009369425 0.07481817 -0.0079121115 0.043975838
000180 a6 5d 75 bd cb 0f d0 3c 15 0d 86 bd df 77 cd 3c
       -0.059903763 0.025398156 -0.06545464 0.025081573
000190 6e fa 79 3d f4 7a 79 bc 4b e2 ac 3c 85 e7 44 bd
       0.061029844 -0.015227068 0.021103999 -0.048072357
0001a0 80 49 69 bc 3a 62 82 bd d2 09 fa 3c 69 7d 7c 3d
       -0.014238715 -0.063663915 0.03052226 0.061643038
0001b0 41 8c 1d 3c 3f a1 6d bd 1b 8a 86 bd 24 95 7a 3d
       0.009615959 -0.058015104 -0.0656931 0.061177388
0001c0 81 fb 92 bd 59 81 9a bd 0c e0 a5 bd d4 a6 23 3d
       -0.07176877 -0.07544202 -0.08099374 0.03995402
0001d0 61 36 bd 3b a2 93 7b 3d 38 54 8b bd e0 c0 05 bd
       0.0057743047 0.06142009 -0.06803173 -0.032654643
0001e0 b8 bc 5b bd 59 28 b8 bc e7 05 a2 3d 7b 5b 1f bd
       -0.053646773 -0.022480177 0.07911282 -0.038905602
0001f0 1c d5 a0 bc c8 f1 25 3d a7 f6 e5 bc a3 44 84 3a
       -0.019632868 0.040513784 -0.028071715 0.0010091256
000200 5c 84 12 bd 92 81 22 bd 44 98 93 bd c0 c0 a7 bd
       -0.03577076 -0.03967435 -0.07206777 -0.08191061
000210 2c 01 1b bd a4 a0 29 bd 3b 38 19 bd 6e 33 97 3d
       -0.037842914 -0.041412964 -0.03740714 0.07382856
000220 a8 37 90 3d 0a 95 21 3d 21 b9 26 3a 5a bd a7 bd
       0.070418656 0.039448775 0.0006359984 -0.08190413
000230 b1 bf 48 3d e2 c8 1b bc 79 fd 93 3b b6 41 34 bd
       0.049010936 -0.009508343 0.0045163003 -0.04400798
000240 0a 85 4d 3c 88 93 16 3d 3d 6f 43 bd 15 de c7 bc
       0.012543926 0.03676179 -0.047713507 -0.02439789
000250 b3 aa 8e bd 1d 54 c4 3c a9 ac f9 3c ea 97 bf 3c
       -0.06966152 0.02396589 0.030477839 0.023387868
000260 55 87 1d 3d f4 64 5c 3d 6e cc bd bc 55 d2 58 bd
       0.03845914 0.053807214 -0.023168769 -0.052934963
000270 de 55 63 3c 3e 9b 9d 3d 85 1b 35 3d b0 0c 1a 3d
       0.013875453 0.07695626 0.044215698 0.037609756
000280 52 2e 6c 3d 74 ae a8 bd 95 58 7a bc 60 fb 1b 3d
       0.057661362 -0.08236399 -0.015279909 0.038081527
000290 b2 04 96 bd a8 e2 98 bd 89 74 33 3c f6 2b 04 3d
       -0.07325114 -0.07465106 0.010953077 0.032268487
0002a0 68 2f 1b bd 3c 37 48 3c 8a 1a 83 bd bc 67 49 3d
       -0.037887007 0.0122202 -0.06401546 0.049171194
0002b0 08 78 b6 bd ad 57 48 3c 19 90 78 bd 1c 3c ab 3c
       -0.08909613 0.012227935 -0.060684297 0.020902686
0002c0 72 bc 1c 3d 1a 50 bc 3c f2 db dc bc 13 e1 a0 bd
       0.038265653 0.022987414 -0.026960347 -0.078554295
0002d0 27 7b 8d 3d 14 b2 37 3d c1 c4 a3 bd 65 81 94 3d
       0.06908255 0.044847563 -0.07996512 0.072512425
0002e0 1b 39 8d bd e1 2a 86 3d 58 97 02 bc bf a9 96 bd
       -0.06895658 0.06551147 -0.0079706535 -0.07356595
0002f0 d9 05 83 3d 2c 45 36 3d 86 5c 95 bd ac 3a 39 bd
       0.063976 0.04449956 -0.07293038 -0.04522197
000300 4e 6b 98 bb 57 e7 22 3d 93 68 2a bd c8 03 96 bc
       -0.0046514636 0.039771404 -0.041603636 -0.01831235
000310 ed b0 2a 3b 28 ce c2 bb 8b 6f 6f bb 00 f4 97 3d
       0.0026045397 -0.005944986 -0.003653499 0.07419586
000320 93 57 92 bc bb ef a5 bd a7 5a 1f 3c 39 7c a2 bd
       -0.017864024 -0.081023656 0.009726203 -0.0793385
000330 d7 99 f4 3c 23 69 93 3d b9 38 df 3c bb 56 74 3c
       0.029858513 0.071977876 0.027248727 0.014913256
000340 1d 01 23 bd 78 bb 90 3b dd 49 e4 bc df 55 20 3d
       -0.039795984 0.0044168793 -0.027867252 0.039144393
000350 b8 85 98 bb 0e 95 3a bd 15 83 3d 3d b7 16 e0 3c
       -0.0046546124 -0.045552306 0.046267588 0.027354581
000360 f7 2e db 3c 13 59 00 3d fa 64 3d bc a6 34 6c bd
       0.026755793 0.031334948 -0.011559719 -0.057667397
000370 3f 74 07 bd d8 88 42 3d 16 8a 1c bd c1 74 9a 3d
       -0.033069845 0.047493786 -0.038217627 0.075418
000380 fb ff 93 bd 8c 0b 98 bd 3a 80 98 bd 50 db 13 3c
       -0.07226559 -0.074240774 -0.07446332 0.009024456
000390 64 df 9a 3d 5b c2 da bc 18 c8 cc 3c fd c7 0f bd
       0.0756214 -0.026704004 0.024997756 -0.035102833
0003a0 82 8e cc 3b fc 0c 96 bd f7 0e 24 bd a3 be 79 bd
       0.006242574 -0.07326695 -0.040053334 -0.06097282
0003b0 6c 7d 86 bd 59 5d 8b 3d 00 3c a2 bd a0 51 28 bd
       -0.06566891 0.06804914 -0.079216 -0.04109347
0003c0 43 b8 fb bc d9 70 9f 3d 15 51 76 3c 40 8b 33 3d
       -0.030727511 0.07785196 0.01503398 0.04383397
0003d0 06 e2 24 bc dd c5 ea bb fa e4 dd 3b 5a be 7a bd
       -0.010063654 -0.0071647004 0.006771681 -0.06121669
0003e0 32 da 88 3d 67 03 64 bd 56 d6 be 3b a9 62 a8 3d
       0.066822425 -0.055667307 0.0058238907 0.08221943
0003f0 8c a4 4d bd d1 7e 1e 3d bc 74 93 3d da 28 48 bd
       -0.050205752 0.03869516 0.072 -0.048867084

layer4.0.bias f4 [64]
000000 6e 23 fd 3c 82 f0 87 3d 38 8f 98 bd 86 cd c3 bb
       0.030900683 0.0663767 -0.07449192 -0.005975428
000010 51 3e b2 3c 31 55 85 bd 33 a5 80 bc 34 31 8b 3c
       0.02175823 -0.065103896 -0.015703773 0.016991235
000020 1f 2a 2d 3d d0 55 98 3d 83 00 b0 bb 7a 63 70 bd
       0.042276498 0.074382424 -0.0053711548 -0.05868862
000030 b7 5e 30 bd 02 65 a1 bd 52 ee 7d bc cf ee 73 3d
       -0.043059077 -0.07880594 -0.0154987145 0.059553917
000040 21 9a 31 3d da 27 9a bd f0 d8 1b 3b ae f6 77 bd
       0.04335988 -0.07527132 0.0023780428 -0.060537986
000050 30 5e 80 3b 03 d4 df bc f2 59 23 3d c8 25 49 3c
       0.003917478 -0.027322775 0.0398807 0.012277074
000060 fe 8b 3f 3c 8c df 3a 3d fb ac 7a 3c 56 1e 3d bc
       0.011691092 0.045623347 0.015300031 -0.011542877
000070 5a 67 15 3c 1e 53 8f 3d d6 7c 6b bc d5 6a 9d bd
       0.009118879 0.06998275 -0.014373025 -0.07686392
000080 9c 23 81 bd 6b 60 86 bd 46 94 2e 3c f9 ed 9c bd
       -0.0630562 -0.06561359 0.010655468 -0.07662577
000090 9a 7d 9a bd 5d 28 2d 3d 58 72 11 3c 14 b4 a7 3d
       -0.07543488 0.04227482 0.008877359 0.08188644
0000a0 8c 56 61 bd 24 74 ee 3c 13 12 30 3d ab 8a 98 3d
       -0.05501418 0.029108115 0.042985987 0.07448324
0000b0 fb 71 11 3d b1 e5 29 bd 2d 8d 2d bc ad cf 8c bc
       0.03550909 -0.041478816 -0.010592741 -0.017188871
0000c0 c4 88 c3 bc a1 c6 26 3a d0 d6 1c bc b7 6b 8f bd
       -0.023868926 0.00063619955 -0.0095727 -0.07002967
0000d0 77 56 ef 3c b7 97 d8 bb b5 bb dc 3c 8c b4 37 bd
       0.029216034 -0.0066098827 0.026944974 -0.044849917
0000e0 5f a9 38 bd 8f b0 9e 3d 93 ec 55 3d e7 00 7f bd
       -0.0450834 0.0774852 0.052227568 -0.06225672
0000f0 e3 19 87 bd 1a 33 f0 3c 39 61 8b bd d5 85 7f 3d
       -0.065967344 0.029321242 -0.06805653 0.06238349

layer4.1.weight f4 [64]
000000 4a 03 80 3f 91 76 7e 3f 01 4f 7f 3f 07 7d 80 3f
       1.0001004 0.9939967 0.99729925 1.0038155
000010 b7 0a 80 3f 45 c6 7d 3f 4b 5d 7f 3f d9 c1 7e 3f
       1.000327 0.9913066 0.9975173 0.9951454
000020 42 55 80 3f a3 c6 7d 3f 6c 76 7e 3f 6d 44 7f 3f
       1.0026019 0.9913122 0.9939945 0.99713784
000030 2c 53 80 3f f5 bf 81 3f 2a 58 80 3f 71 41 7f 3f
       1.0025382 1.0136706 1.0026906 0.9970923
000040 7d 6f 81 3f 45 12 80 3f ed 70 80 3f 46 f0 7e 3f
       1.0112149 1.0005575 1.0034462 0.9958538
000050 45 c1 7e 3f 1c 5d 80 3f 02 14 81 3f a8 25 7f 3f
       0.99513656 1.0028415 1.0084231 0.99666834
000060 d5 4a 7e 3f be 65 81 3f cc 0c 7e 3f 03 15 7f 3f
       0.99332935 1.0109174 0.99238276 0.99641436
000070 58 cf 7d 3f f7 a2 7e 3f b7 59 81 3f c7 8b 7f 3f
       0.99144506 0.99467415 1.0105504 0.9982266
000080 50 87 80 3f c3 cc 7c 3f a0 f7 7e 3f 40 19 80 3f
       1.0041294 0.9874994 0.99596596 1.0007706
000090 93 18 7f 3f e0 f2 7d 3f a4 00 80 3f 8c 8a 7d 3f
       0.9964687 0.9919872 1.0000196 0.9903953
0000a0 a9 b7 80 3f 54 22 82 3f 1a 44 80 3f 82 a2 80 3f
       1.0056049 1.0166726 1.0020783 1.0049593
0000b0 ea 86 7f 3f 9e 93 81 3f ca c5 80 3f 73 43 7d 3f
       0.9981524 1.0123174 1.006036 0.98931044
0000c0 10 13 80 3f df af 80 3f 45 83 7e 3f aa 5f 7e 3f
       1.0005817 1.0053672 0.9941905 0.9936472
0000d0 58 10 7f 3f e7 64 80 3f 0f 32 7e 3f 48 8b 80 3f
       0.99634314 1.0030793 0.99295133 1.0042505
0000e0 4a 93 80 3f 2e b4 80 3f 4f 83 80 3f 94 19 81 3f
       1.0044949 1.0054986 1.0040072 1.0085931
0000f0 7a 39 80 3f 1b a5 7e 3f 9b 52 7d 3f ca fb 80 3f
       1.001754 0.9947068 0.9895417 1.007684

layer4.1.bias f4 [64]
000000 63 60 c1 b9 1c ec dc b9 68 80 19 3a 8f be 7e bb
       -0.00036883642 -0.00042137585 0.0005855621 -0.0038870906
000010 1e 64 ca 3b fe b4 f6 b9 8b 77 da bb e6 36 fa bb
       0.0061764857 -0.00047055626 -0.0066670827 -0.007635939
000020 84 3e dc 3b e4 9e f4 ba 93 ce 0e bc e7 ae ac bb
       0.0067213196 -0.0018663076 -0.008716243 -0.0052698734
000030 9c 60 27 3a a5 e5 fb 3b 77 51 f6 3b d4 ee cf ba
       0.00063849404 0.007687288 0.0075170356 -0.0015864023
000040 92 51 24 3c fb f6 8e 3a 6f 28 04 3b c1 01 c0 3a
       0.0100292135 0.0010907346 0.0020165702 0.001464896
000050 fd 14 9e 3a 46 17 0b 3b 3f df 9a 39 2d df 4a bb
       0.0012060698 0.002122359 0.000295395 -0.0030955777
000060 f8 d1 84 bb e0 42 6a 3c fd b3 05 bc 3f d0 ec 3a
       -0.0040533505 0.014298171 -0.008160588 0.0018067433
000070 68 99 01 bc 8d 68 cd bb 72 b7 cb 3a aa 53 0e bc
       -0.00791011 -0.006268567 0.0015542342 -0.008686939
000080 f9 52 a7 3b 84 bc 2c bc a5 9b c8 3a 6a ab 76 3b
       0.0051063267 -0.0105429925 0.0015305175 0.0037638792
000090 e1 86 e1 bb f3 9f d6 bb 81 98 2e 3b 67 c5 7b bc
       -0.006882534 -0.006549829 0.0026641192 -0.015366889
0000a0 14 96 c1 39 34 5a 2e 3c 25 27 1a 3b be 23 96 bb
       0.00036923646 0.010641623 0.0023521867 -0.0045818975
0000b0 83 5f ca 39 57 2e 1e 3a d9 41 ab 3b 26 40 48 bc
       0.00038599604 0.0006034127 0.0052263555 -0.012222325
0000c0 41 ed 00 3a 7e b7 b4 3b f7 c0 42 bb e3 88 34 bc
       0.0004918166 0.005515038 -0.0029717067 -0.011018964
0000d0 99 9e 15 bc fd 31 43 bb 23 80 3c bb a6 79 b9 3a
       -0.009132051 -0.0029784434 -0.00287629 0.0014150634
0000e0 f1 9b ca ba 63 51 fe 3b 2d 15 99 bb e6 a8 2b 3c
       -0.0015457851 0.007761167 -0.004671714 0.01047728
0000f0 cb 18 df 3b 7b 02 86 3b 1a d5 b8 ba 68 c5 94 3b
       0.0068083755 0.004089651 -0.0014101595 0.004540134

layer4.1.running_mean f4 [64]
000000 34 7d d9 be ff 41 c4 be 5f 60 c8 3e b1 2f fa be
       -0.42478335 -0.383316 0.39136025 -0.4886451
000010 4e cb 76 3e d9 84 fa bd 93 77 73 be 2d a2 0b 3e
       0.24100992 -0.1223237 -0.23776083 0.13636084
000020 20 d4 94 3e 9d 1e 5a 3f 6b 76 19 bf 71 92 53 bf
       0.2906809 0.8520296 -0.59946316 -0.82645327
000030 1d 81 d5 be 4d 04 1d bf c6 a5 83 be a5 10 d7 bd
       -0.41700068 -0.6133469 -0.25712413 -0.105012216
000040 84 a9 45 3f 35 df 05 bf ec 4a db be d6 8b 31 3f
       0.77211785 -0.5229371 -0.42830598 0.69354
000050 22 d5 34 3e 68 9a f3 3e e7 c2 32 bb 47 ed 94 3e
       0.17659429 0.4757874 -0.0027276815 0.29087278
000060 15 63 93 3e 41 99 6e 3e f9 06 57 be ab c9 9c 3d
       0.2878653 0.23300649 -0.20998754 0.076556526
000070 41 e4 97 be 68 3f 23 be dd 6c 03 bf ab 34 9b 3d
       -0.2966633 -0.15942156 -0.5133799 0.07578405
000080 8c fd 05 bf e5 15 25 3e 63 3b 0f 3e a1 b0 c8 bd
       -0.52340007 0.16121633 0.13987498 -0.09799314
000090 df e9 74 bc 80 d8 23 bf 3e 9f 99 3e eb 70 8e be
       -0.014948337 -0.6400223 0.30004305 -0.27820525
0000a0 44 b1 af be 50 c9 3b bc 45 3b 39 3e 9d 42 33 be
       -0.3431493 -0.011461571 0.18089016 -0.1750588
0000b0 3e 3e ee 3e dd 3d 46 bf 62 78 f4 bd 3b cc ba be
       0.46531862 -0.77438146 -0.11937024 -0.3648394
0000c0 bd 1e 35 3f 53 8e 57 bc 91 7f 52 3f af af fd bd
       0.7075003 -0.013156491 0.822259 -0.123870246
0000d0 3d f5 54 3f df 8a 9e be c1 35 f5 bd f8 cc ff bd
       0.83186704 -0.30965325 -0.11973143 -0.124902666
0000e0 7a 86 a6 be 57 28 a1 be 48 2d 92 be 14 d8 fa be
       -0.32524472 -0.3147609 -0.28550172 -0.4899298
0000f0 67 7f 00 3e d3 e8 28 3e cb 55 78 3e bb 8d a7 be
       0.125486 0.16495065 0.24251477 -0.3272532

layer4.1.running_var f4 [64]
000000 29 21 46 3f a7 50 e6 3e 3b 68 ac 3e e8 8d 97 3e
       0.7739435 0.44983408 0.33673272 0.29600453
000010 64 38 bc 3e 0f ee 9c 3e e8 e7 57 3e 05 4f a1 3e
       0.36761773 0.30650374 0.21084559 0.315056
000020 7b 7d 00 3f 9d 62 94 3e dc 0b ee 3e 47 1d 28 3f
       0.5019147 0.28981486 0.46493423 0.65669674
000030 84 19 98 3e da 0d 8c 3e 0f f7 73 3e ca 21 de 3e
       0.29706967 0.27354318 0.23824714 0.43385154
000040 3c 25 d6 3e e3 ca 8a 3e f8 82 fc 3e 2a 41 38 3f
       0.41825283 0.27107915 0.4931867 0.7197443
000050 d1 fa 9f 3e fe 27 13 3f bc 5f bb 3e 0f f1 99 3e
       0.31246045 0.574829 0.36596477 0.30066726
000060 09 8c b4 3e 32 f6 96 3e db dd 80 3e e0 5c 04 3f
       0.35263088 0.29484707 0.25169262 0.51704216
000070 ae 6b 83 3e 51 c6 94 3e ff d1 de 3e 3b d4 94 3e
       0.2566809 0.29057553 0.4351959 0.2906817
000080 1a fc 88 3e f4 01 76 3e db 0b bd 3e 82 da 88 3e
       0.26754838 0.24024183 0.36923108 0.26729208
000090 30 4b 75 3e 43 79 22 3f 74 05 a0 3e 0f f4 83 3e
       0.23954463 0.6346628 0.3125416 0.2577214
0000a0 cf 1c 75 3e b2 06 a0 3e 56 09 98 3e 34 05 8e 3e
       0.23936771 0.31255108 0.29694623 0.27738345
0000b0 dc 68 98 3e 3e b9 07 3f cb 2a 6c 3e 6c 6c a1 3e
       0.297675 0.5301703 0.23063199 0.31528032
0000c0 56 a0 84 3f 84 f2 ee 3e 7c 0e 64 3f d5 76 9f 3e
       1.0361431 0.466694 0.890846 0.3114535
0000d0 7b 2e 9e 3e f4 98 af 3e 56 a5 80 3e 91 7f 81 3e
       0.30894837 0.3429638 0.2512614 0.25292638
0000e0 e2 3c 07 3f 58 fa 06 3f 81 85 a9 3e 83 6a 6f 3e
       0.52827275 0.52725744 0.33109668 0.23380475
0000f0 a7 b8 cf 3e 5f 59 bd 3e 22 20 b2 3e a2 6e 83 3e
       0.40570566 0.36982247 0.3479014 0.25670344

layer5.0.weight f4 [64, 64, 3, 3]
000000 b8 78 0c bc fb 25 82 3c 3b 44 2c bd 3b d5 03 3b
       -0.0085737035 0.015887251 -0.042057257 0.002011611
000010 18 92 00 bc a7 d2 71 3b 05 53 36 bc 2e 17 61 b9
       -0.007847331 0.003689924 -0.011128192 -0.00021466307
000020 ee 33 fa ba a2 72 51 bc e1 ba 90 3c 97 18 2b bd
       -0.0019088963 -0.012783678 0.017667236 -0.041771498
000030 de cc d1 3a f1 bc eb 3c 09 29 1f bc c9 9c 09 3d
       0.001600649 0.028776618 -0.009714373 0.033596788
000040 b9 98 28 bd 11 bc 13 bd fd f9 00 3d 74 27 23 3d
       -0.041161273 -0.036068026 0.031488407 0.039832547
000050 32 00 ad 3b 79 92 d4 bc 25 44 62 3c a1 d1 af bb
       0.0052795643 -0.02594875 0.013810192 -0.005365566
000060 6b 88 7d bc 9f a5 0e bd c6 d7 15 bd de 57 b5 bc
       -0.015474419 -0.034825917 -0.03658273 -0.022136625
000070 a6 1e 0a bb de bb d8 3a 7b 3f 59 3b 63 56 13 bc
       -0.0021075397 0.0016535481 0.003314941 -0.008992764
000080 b0 16 f7 3c 84 1b 1d bd ce e2 08 bd cf fe 01 3d
       0.030162185 -0.03835632 -0.033419423 0.031737145
000090 37 5e 09 bb d8 de 05 bd b9 be 98 bc f6 17 13 3c
       -0.0020960697 -0.032683223 -0.018645631 0.008977881
0000a0 a6 7c 2d bd f4 bd 9f bc a9 db 5a bc 8d df fa bc
       -0.042355202 -0.019499756 -0.013358035 -0.030624175
0000b0 05 55 f9 bc 77 0c 9a 3c 65 70 3a bc 2b 8e 09 bc
       -0.030436048 0.018804772 -0.011379336 -0.008395712
0000c0 8b 70 ff 3b 16 f3 0f 3c 53 54 14 bd b4 1d 72 bc
       0.0077953986 0.008785984 -0.03621323 -0.01477759
0000d0 e8 01 0c bd 67 e6 bf 3c 3c 22 1e 3d 52 df 79 bc
       -0.034181505 0.023425294 0.038606867 -0.015250998
0000e0 f2 12 13 3d 37 16 d0 bc 07 cf 8b bc 0e 82 64 3c
       0.03590674 -0.025401218 -0.017066492 0.013947023
0000f0 87 c4 1d bd c1 ae 61 bc 71 bd 3c bc 62 95 db bc
       -0.0385175 -0.013774575 -0.011519776 -0.02680463
000100 92 27 a5 bc 20 47 f8 3c 31 c6 0a 3d 07 78 c2 3c
       -0.02016047 0.030307353 0.033880416 0.023738874
000110 0a dc b6 bc 1d 42 d0 bc e9 1f 8a 3b d4 f3 e2 3c
       -0.02232172 -0.02542215 0.00421523 0.027704157
000120 bf 0b 1e bd f0 36 07 3b b1 9d 18 bc 86 c9 24 bd
       -0.03858542 0.002063211 -0.00931494 -0.04023125
000130 44 cb ee 3c 84 b4 80 bc 0f 79 81 bc 34 53 3d bc
       0.029149659 -0.015711077 -0.015804796 -0.011555482
000140 d3 31 9f bc be 51 d3 bc c2 9d 6c 3b a5 e2 a4 bc
       -0.019432938 -0.025795814 0.0036104773 -0.020127604
000150 5b 4b 15 3c b3 d7 30 3c 38 55 da bc bc 1f ae bb
       0.009112204 0.010793614 -0.026651964 -0.0053138416
000160 9c 41 03 3d 5c 9d 58 3c e6 65 15 3c 76 bd 00 bd
       0.03204499 0.013221111 0.009118533 -0.031430684
000170 8b 57 00 3d 88 27 f5 3b 16 ab 01 3d 40 df 6b bc
       0.031333487 0.007481519 0.0316573 -0.014396489
000180 50 e3 09 3d 6c 75 f2 bc 8b c9 15 3c eb 6e 81 3c
       0.033664048 -0.029597007 0.00914229 0.01579996
000190 4d e1 24 3d d3 54 78 bb b8 fe 17 bd 7b 21 df bc
       0.040253926 -0.0037892356 -0.037108153 -0.027237644
0001a0 e7 f4 af bc 98 6b 3a bc df b3 89 ba e9 7c 05 3d
       -0.021479083 -0.011378191 -0.0010505876 0.032589827
0001b0 ef 21 d2 bc 81 17 22 bd 0f 99 22 3d 11 ea 1a 3b
       -0.025650946 -0.039573196 0.03969675 0.002363805
0001c0 74 cc 8a bc 52 92 8d 3c 3a 94 07 bd d8 57 d4 3b
       -0.016943194 0.017281685 -0.033100344 0.0064801984
0001d0 0e d1 1c 3c 01 05 a3 bc d2 75 1d 3d 63 6a d5 bc
       0.009571327 -0.019899847 0.03844244 -0.026051706
0001e0 c9 05 e6 bc e8 ed 74 3b 50 bf f8 3b 3b d7 01 bc
       -0.02807893 0.0037373248 0.0075911656 -0.00792485
0001f0 63 3f a6 3c 82 94 b0 bb 7b 52 58 3c 1e c4 56 bc
       0.020293897 -0.0053887973 0.013203259 -0.013108281
000200 70 b2 ac bc d8 ff 28 3c a6 6a 19 3d 0a 14 ac 3c
       -0.02108118 0.010314904 0.037455224 0.02100565
000210 fa 86 9d bc af a4 63 3c ee f2 0e 3c fb 8c 2e 3d
       -0.0192294 0.013894244 0.008724911 0.04261492
000220 e7 d4 d4 ba ce fb a4 ba a2 7a ff bb 91 c5 04 bc
       -0.0016237766 -0.0012587251 -0.0077966014 -0.008103744
000230 64 24 e1 bc 55 f9 23 3d 7b 14 8f bb 0e 83 ec b9
       -0.027483173 0.040032703 -0.004366455 -0.0004511107
000240 53 d6 9a 3c c3 c9 02 3d 42 2b 5c 3d 2d 2b c9 3b
       0.018901026 0.031930696 0.05375219 0.00613918
000250 dd 17 01 3d 07 49 a7 bb fe 19 0e 3d 87 9a 4e bc
       0.0315169 -0.005105141 0.034692757 -0.012610084
000260 5a 72 16 bc 64 33 2f bd 33 ca 0c bc 9b 9f f2 bc
       -0.009182537 -0.04277362 -0.00859313 -0.029617121
000270 27 8a 86 bc 58 38 bc 3b 49 de 93 ba 73 9e 0e 3c
       -0.016423298 0.0057440214 -0.0011281456 0.008704769
000280 05 2b ce bc 9b 2e 23 3c 7e 4e 45 3c 65 04 ef 3c
       -0.025166998 0.009959842 0.01204264 0.0291769
000290 3f 0e ce 3c fb 2d ff ba 3a 08 c8 bc 2c f7 08 bd
       0.025153277 -0.0019468659 -0.024417985 -0.033438846
0002a0 65 de 1f 3c fe 50 4c bb 74 db e4 bc 45 9e 02 3c
       0.009757613 -0.0031176205 -0.027936675 0.007972305
0002b0 1a d5 f3 3c 23 ef 2b bc 73 f4 ff 3c 1d c5 17 bd
       0.0297647 -0.010494026 0.031244492 -0.037053216
0002c0 34 b9 c6 3c cd 96 94 bc a8 6e 27 3d d3 98 b3 39
       0.024258234 -0.018138314 0.040877014 0.00034255403
0002d0 33 85 b2 3c d6 b5 0e bd 46 a2 12 3c 9e 1a 1f bd
       0.02179203 -0.03484138 0.008949822 -0.038843744
0002e0 aa 6e 04 bd a2 d1 84 3c 44 f6 fc 3b 86 38 99 3c
       -0.0323321 0.016213242 0.007719787 0.01870371
0002f0 14 e8 f9 3c df e1 ff bc a9 58 27 3d 2f c6 25 bd
       0.030506171 -0.031235633 0.040856037 -0.040472206
000300 8d 81 11 3d c8 fd ec bc 1d a7 1b bd 17 66 15 bd
       0.03552394 -0.028929606 -0.03800117 -0.036474314
000310 33 bc d9 3b 92 0e b3 bc 23 2b d1 bc 98 5c aa bc
       0.0066447495 -0.021857534 -0.025533265 -0.020796105
000320 da 3e 13 bd 22 98 fe 3b 1a 45 19 39 c1 9a 7d 3c
       -0.03594861 0.0077696005 0.0001461696 0.015478791
000330 33 74 1f 3d 8f e4 87 bc 2b 9b bf bc 7a 11 2f 3c
       0.038929176 -0.016588477 -0.02338942 0.010685319
000340 23 52 43 3c 5e 5a a0 bc 9e 81 1b 3d 2f b9 1c 3d
       0.011921438 -0.01957434 0.03796541 0.038262542
000350 dd 80 8f bc 12 5d 9d 3c 2a 41 28 3d 1f f7 21 bd
       -0.017517501 0.019209418 0.04107777 -0.039542314
000360 d4 0b 83 bb f9 ed 49 3c 7b f0 f2 bb 89 bc 23 3c
       -0.0039992128 0.0123248035 -0.0074139214 0.009993681
000370 be 5e 99 3c 25 bb b3 bc a9 0c 1e bd 5f 55 33 ba
       0.018721934 -0.021939823 -0.038586292 -0.00068410294
000380 f4 5e 65 3c 82 1c f7 bc f3 ed f8 bc 13 ea b9 bc
       0.013999689 -0.03016496 -0.0303869 -0.022694623
000390 f1 79 7d bc c3 b6 c5 3c c7 a9 0e bc fc 35 2e 3d
       -0.015470968 0.024135 -0.00870747 0.042531952
0003a0 ac db cb 3c b3 ca 9f bc a2 bd b9 3a c6 aa 03 3d
       0.024885021 -0.019505834 0.0014170895 0.032145284
0003b0 fd 0c 62 3c 49 04 c9 3b 4e 8a 73 bc a4 f4 70 3c
       0.013797042 0.006134544 -0.014864517 0.014706764
0003c0 e4 60 81 bc ab 33 54 bc e9 3a ec bb ed 5b 24 3d
       -0.015793271 -0.012951772 -0.007209171 0.04012673
0003d0 c2 57 c2 bc d9 8c 8a 3c 5a 89 82 bc a9 51 17 3d
       -0.023723487 0.016912865 -0.015934635 0.03694311
0003e0 13 71 0f bc 2f 61 8e bc 8e 4b 54 3c b8 d4 eb 3c
       -0.008754986 -0.017380325 0.012957467 0.028787956
0003f0 63 a8 0b bd 01 45 ac 3a 3c c0 17 3c e9 c2 39 3d
       -0.034096133 0.0013143123 0.009262141 0.045351896

layer5.0.bias f4 [64]
000000 aa 2d 84 bc 88 e1 12 bc 47 30 ca bc eb ea 05 bd
       -0.016135056 -0.008964904 -0.024681224 -0.03269474
000010 3c 62 6c 3c 6f 34 e4 bc 71 27 75 bc 73 ca 80 3c
       0.014427718 -0.027857034 -0.014963017 0.015721535
000020 21 52 ef 3c 9c 3b c6 bc 54 f8 84 bb 69 d0 15 bd
       0.029213967 -0.024198346 -0.0040579233 -0.03657571
000030 67 b2 54 bc ff ba 65 3c 94 8f bd bc 51 0b e5 bb
       -0.012981988 0.014021634 -0.023139752 -0.0069898744
000040 02 ff a9 bc 32 ee 1c bd 7f 4e 07 bd 83 db 4d 3c
       -0.02075148 -0.0383131 -0.033033844 0.012564543
000050 e5 3d 10 bd c4 2b 1b 3d 1e 5c 87 3c e5 2a d7 bc
       -0.035215277 0.037883535 0.016523417 -0.02626557
000060 21 01 80 bc 33 56 d6 3c a3 3a 8f bb e2 18 61 3c
       -0.015625538 0.02616415 -0.0043710037 0.013738843
000070 aa a1 ad bc 35 b8 81 bb b6 da 02 3d ab 9a 11 3d
       -0.021195251 -0.003958727 0.03194686 0.035547893
000080 ba be 38 ba cd bb bd bb bc 4f cb 3c f4 9b 39 3b
       -0.00070474634 -0.00579021 0.024818294 0.0028321715
000090 c9 b9 03 bd 9c 5d b4 3c 61 53 e5 3c 61 ad ad 3c
       -0.0321596 0.022017293 0.02799386 0.021200838
0000a0 aa 34 b5 bc 53 8b ed 3c 6f 5a a2 3b 0b bc 06 bc
       -0.022119839 0.028997099 0.004954628 -0.008223544
0000b0 5f dc d6 bc 74 0b 04 bd f7 b5 19 3b 4f 78 19 3d
       -0.026228128 -0.032237485 0.0023454407 0.03746825
0000c0 ab da 14 bd 75 56 57 bc 80 19 d8 bc 2e f9 ee bb
       -0.03634135 -0.013143172 -0.026379347 -0.007292888
0000d0 4a af 1d bc 33 c4 0c 3d 60 a8 4c 3c 7a 26 7a bb
       -0.009624312 0.034366798 0.012491316 -0.0038169906
0000e0 98 50 16 bd ae 47 3e 3c 5b 77 c7 3c 66 ab 0a 3d
       -0.036697954 0.011613769 0.024348905 0.033854865
0000f0 79 c5 5f 3c a6 a7 b0 bc 26 e6 23 bd 52 dd 0e 3d
       0.013657921 -0.021564316 -0.04001441 0.034879036

layer5.1.weight f4 [64]
000000 34 6e 81 3f 66 4d 82 3f 52 08 82 3f e5 a3 81 3f
       1.0111756 1.017987 1.0158789 1.0128142
000010 a8 2e 81 3f e9 e8 81 3f 28 51 82 3f 5c c1 82 3f
       1.0092363 1.0149204 1.0181017 1.0215259
000020 d0 9a 80 3f 6b 44 82 3f d5 fd 81 3f a9 aa 81 3f
       1.0047245 1.017713 1.0155588 1.0130206
000030 5f a5 82 3f dc ff 81 3f aa 6c 80 3f 3e 5c 82 3f
       1.0206717 1.0156207 1.0033162 1.01844
000040 d8 dd 80 3f 92 4e 81 3f fd 2a 81 3f ee 78 81 3f
       1.0067701 1.0102103 1.0091244 1.011503
000050 74 f3 80 3f 99 4e 82 3f 37 0f 82 3f 6c 2e 81 3f
       1.0074296 1.0180236 1.0160893 1.0092292
000060 71 f4 82 3f c0 ee 81 3f 62 d4 82 3f 9e 73 81 3f
       1.0230848 1.0150986 1.0221064 1.0113409
000070 36 92 81 3f ca 09 82 3f 38 1a 82 3f 97 c7 82 3f
       1.0122745 1.0159237 1.0164251 1.021716
000080 48 58 81 3f b8 51 81 3f 57 00 82 3f c3 a7 81 3f
       1.0105066 1.0103064 1.0156354 1.0129322
000090 f3 22 81 3f f4 08 81 3f 64 1c 82 3f 52 1e 82 3f
       1.0088791 1.0080857 1.0164914 1.0165503
0000a0 11 5c 81 3f 9c 96 81 3f f1 18 82 3f 7a 77 82 3f
       1.0106221 1.0124087 1.0163862 1.0192711
0000b0 57 8c 81 3f 79 b2 81 3f 81 68 81 3f 37 88 81 3f
       1.0120953 1.013259 1.0110017 1.0119694
0000c0 30 1e 82 3f 69 6d 82 3f 48 c4 81 3f 4e 23 82 3f
       1.0165462 1.0189639 1.0138025 1.0167024
0000d0 15 fc 81 3f 2f aa 81 3f 16 14 82 3f 0c 25 82 3f
       1.0155054 1.0130061 1.016238 1.0167556
0000e0 5e f7 81 3f 9b 21 82 3f 0e 41 81 3f 92 cb 82 3f
       1.0153615 1.0166506 1.0097978 1.0218375
0000f0 6c ad 81 3f 98 5b 81 3f 00 e9 82 3f c7 08 82 3f
       1.0131049 1.0106077 1.0227356 1.0158929

layer5.1.bias f4 [64]
000000 a1 fb 13 3c 94 28 9c 3c 81 1d 78 3c 48 b8 5b 3c
       0.009032161 0.019062318 0.015143753 0.013410635
000010 be 84 a2 3b 0e cb 3d 3c 1b ef 8b 3c ff e1 93 3c
       0.0049596718 0.011584057 0.017081788 0.0180521
000020 5f cb 94 3b 72 d2 8b 3c 90 73 20 3c eb 85 0b 3c
       0.0045408453 0.017068122 0.009793177 0.008515815
000030 c2 00 9e 3c 4d 0d 8d 3c 3c 94 81 3b ac 5a 80 3c
       0.01928747 0.017218256 0.0039544385 0.015668236
000040 cb 88 9d 3b 28 1a e8 3b d7 06 c2 3b 40 56 e4 3b
       0.0048075668 0.007083196 0.0059212255 0.0069682896
000050 85 fe ce 3b 15 7d 6d 3c c5 e2 7f 3c f7 7a 1c 3b
       0.006316962 0.014495154 0.015618031 0.0023877004
000060 4d b1 87 3c aa e3 8a 3c fb ec 8c 3c dd c9 26 3c
       0.016564036 0.016954262 0.017202845 0.010179964
000070 7f df 2f 3c eb 15 af 3c b6 59 67 3c 42 13 a1 3c
       0.010734438 0.021372756 0.01412051 0.019662503
000080 f7 0f e6 3b 11 2a 06 3c f7 f1 65 3c d1 b4 e8 3b
       0.007020946 0.00818874 0.01403474 0.007101633
000090 de bd 66 3c 99 6a 13 3c e3 0b 60 3c 3a e0 e6 3b
       0.014083354 0.008997583 0.013674709 0.007045773
0000a0 06 50 e9 3b cf 43 30 3c 0f 8a 59 3c a8 a2 8e 3c
       0.0071201352 0.010758354 0.013277545 0.017411545
0000b0 4c 34 fe 3b b0 d0 1c 3c 83 fe 10 3c ee 5b 5f 3c
       0.007757699 0.009571239 0.008849743 0.013632758
0000c0 8b 2b 47 3c 41 54 64 3c 93 99 03 3c 3c d7 6a 3c
       0.012156378 0.013936103 0.00803222 0.014333542
0000d0 6e 94 0d 3c c5 4c 1b 3c b1 bb 58 3c 83 b3 8d 3c
       0.008641345 0.0094787525 0.013228343 0.017297512
0000e0 9a b6 2d 3c c7 10 6d 3c 5e 29 da 3b 51 63 70 3c
       0.010602618 0.014469332 0.0066577634 0.014672116
0000f0 b9 1f 0c 3c 5f 98 16 3c 34 6a 8f 3c f2 33 8a 3c
       0.008552485 0.009191602 0.017506696 0.016870473

layer5.1.running_mean f4 [64]
000000 9e 41 31 3c 6b ed 84 3e b8 32 1c 3f dd 5f 7d 3f
       0.010818867 0.25962386 0.6101489 0.989744
000010 bf f6 d2 3d e6 a9 a5 3d b4 14 15 3e a1 1e 0b 3f
       0.10300969 0.08089046 0.14558679 0.5434361
000020 48 d0 80 3e e7 25 da 3e bb be ef 3d 43 03 23 3e
       0.25158906 0.42607042 0.11706301 0.15919213
000030 81 5b 92 3e 5d 3f 22 3f 00 f3 81 be 9f 40 ab 3e
       0.28585437 0.63377935 -0.25380707 0.3344774
000040 fa 16 37 3f 42 09 8f be 01 55 28 be af 26 92 3e
       0.71519434 -0.2793675 -0.16438676 0.28545138
000050 1c ba 07 3e d7 e1 39 3e f2 47 1c 3f 8c a0 d4 3e
       0.13254589 0.18152557 0.6104728 0.41528738
000060 de 79 7c 3e c3 b4 df 3e 61 4d 11 3f 58 33 d3 3e
       0.24655864 0.43692598 0.56758696 0.4125011
000070 d1 78 cf 3e 0d 10 20 3f c1 f7 39 3f c8 2b 63 3e
       0.40521863 0.6252449 0.7264367 0.2218467
000080 d8 e2 95 bf 20 ca 54 be d9 b7 ac 3e 13 6d a6 bd
       -1.1709852 -0.2078023 0.33734015 -0.08126273
000090 cc bd 19 3f 61 b5 db be 11 47 8c 3e 79 f7 32 3f
       0.6005523 -0.4291182 0.2739797 0.69908863
0000a0 6d 33 ed bd db 40 45 3f 02 62 59 3f fb 66 31 3f
       -0.11582074 0.77052087 0.84915173 0.6929776
0000b0 b6 fe 3b 3d 82 5f 1e 3f 0a 0c 94 3e ec 41 a6 3e
       0.04589721 0.61864483 0.28915435 0.3247217
0000c0 30 36 b4 3e 42 91 1d 3f 85 fe 54 3e 7d ff 08 3f
       0.35197592 0.6154977 0.20800216 0.53514844
0000d0 e7 55 0a 3f e5 e2 90 3e 86 57 44 3f 85 f9 1c 3f
       0.54037327 0.28298107 0.7669605 0.61318237
0000e0 3a 89 86 3d 79 75 a7 3e 5a 70 1e bf cf 11 ee 3e
       0.06569143 0.32706812 -0.61890185 0.46497962
0000f0 f6 b8 86 bb cb 84 1f 3f a9 59 96 be c2 86 2e 3f
       -0.0041114045 0.62312 -0.2936528 0.68174374
