data/chkbox_models/chkbox_rnd13_1_bestVal.pt (torch_old, 35085 bytes, 25 tensors)

layer1.0.weight f4 [4, 1, 3, 3]
0	0xbe2114a4	-0.1573053
1	0xbe211db7	-0.15733992
2	0x3df3956b	0.118937336
3	0x3ec313f1	0.38101152
4	0x3e684bab	0.22685115
5	0x3c5e55c0	0.013570249
6	0x3e6b4ad3	0.22977762
7	0x3c249d38	0.0100472495
8	0x3ebb9d3a	0.36643392
9	0xbe3b4622	-0.18288472
10	0xbe248a42	-0.16068366
11	0x3d161c17	0.036647882
12	0x3b41880a	0.0029530548
13	0xbe2f0d85	-0.17095001
14	0xbe80f99c	-0.25190437
15	0xbe9f4411	-0.31106618
16	0x3e6a0d1e	0.22856566
17	0xbe9e7171	-0.30945924
18	0x3eaa2600	0.33232117
19	0x3e1a1068	0.15045321
20	0xbe1c0960	-0.15237951
21	0xbe1be849	-0.15225329
22	0x3e90be40	0.2827015
23	0xbe61056e	-0.21974728
24	0xbd3fa481	-0.046787743
25	0xbe154c5f	-0.14579915
26	0xbcee7649	-0.029109137
27	0x3eb00534	0.3437897
28	0xbd321dd1	-0.043485466
29	0x3ec8cc08	0.39218163
30	0x3e0fb093	0.14032201
31	0x3ea6380f	0.32464644
32	0x3e3b251f	0.1827588
33	0xbdfbd15d	-0.12295792
34	0x3e1de20b	0.1541826
35	0x3e3ee499	0.1864189

layer1.0.bias f4 [4]
0	0xbd292125	-0.041291375
1	0xbdcd5eec	-0.100278705
2	0xbe845b0c	-0.25850713
3	0x3df762d2	0.12079395

layer1.1.weight f4 [4]
0	0x3f8c79c2	1.0974658
1	0x3f7ce7ba	0.98791087
2	0x3f4fdfe0	0.8120098
3	0x3f8871cf	1.0659732

layer1.1.bias f4 [4]
0	0x3e380eb2	0.17974356
1	0x3cf2936a	0.029611308
2	0xbd8a15c4	-0.06742433
3	0x3d31502a	0.04328934

layer1.1.running_mean f4 [4]
0	0x3f6e1e4a	0.9301497
1	0xbf935f4b	-1.1513456
2	0xbe74fe1a	-0.23925057
3	0x3fcb18b2	1.5866911

layer1.1.running_var f4 [4]
0	0x3fc146a3	1.5099682
1	0x3fd2905d	1.6450306
2	0x3ded8ad7	0.11598747
3	0x404ed080	3.2314758

layer2.0.weight f4 [8, 4, 3, 3]
0	0x3daa03bf	0.08301496
1	0x3dbfd9d7	0.093677215
2	0xbe34d41f	-0.17659043
3	0x3b1bb685	0.0023759913
4	0x3e05f473	0.13081531
5	0xbe189fd3	-0.14904718
6	0x3decf325	0.11569814
7	0x3d1d3d61	0.038388614
8	0xbe0d237c	-0.13783067
9	0x3c8b3999	0.016995238
10	0xbd7b2dbe	-0.06132292
11	0x3e3703b0	0.178725
12	0xbd890b12	-0.066915646
13	0xbd9f8bdb	-0.07790347
14	0x3d3908bd	0.04517435
15	0xbdd818f0	-0.105516315
16	0x3bd5c11f	0.006523266
17	0x3c90f6c9	0.017695801
18	0x3d51cd13	0.051220965
19	0xbd037140	-0.032090425
20	0xbca377e9	-0.019954639
21	0xbcfa8e4a	-0.030585427
22	0x3d39059d	0.04517137
23	0xbb36b8d3	-0.002788116
24	0xbbfe0ed5	-0.007753233
25	0x3d09d310	0.03364855
26	0x3d4c8b48	0.049937516
27	0xbc9abd8f	-0.018889217
28	0x3cb1cb68	0.021703437
29	0xbe4020df	-0.1876254
30	0x3e64e887	0.22354327
31	0xbd4fa485	-0.050694007
32	0xbe2b0dcb	-0.1670448
33	0x3e335e3c	0.17516416
34	0x3e0a7494	0.13521034
35	0xbe18d78c	-0.14925975
36	0x3e0b2f36	0.13592228
37	0xbd3289a8	-0.04358831
38	0x3c20c6ab	0.009812991
39	0x3e32bb73	0.17454319
40	0xbdca04c5	-0.09864191
41	0xbddf8bcf	-0.10915338
42	0x3de9501f	0.11392235
43	0xbe036661	-0.12832023
44	0xbe4a983f	-0.1978464
45	0xbdb5baf9	-0.08873553
46	0x3d073f73	0.033019494
47	0x3d20f909	0.0393
48	0xbb9721cb	-0.0046121827
49	0xbd24f7f9	-0.040275548
50	0x3d63b41a	0.05559168
51	0x3e06a9fe	0.13150784
52	0xbe197669	-0.14986576
53	0x3d672724	0.05643381
54	0x3e40a8d9	0.1881441
55	0xbcf025fb	-0.029314985
56	0xbd55280f	-0.052040156
57	0x3d286d8d	0.0411201
58	0x3e10ffff	0.14160155
59	0xbdb673c1	-0.08908797
60	0x3e04d5f9	0.12972249
61	0xbd7b96c9	-0.061423097
62	0x3bec2378	0.0072063766
63	0xbd0250cf	-0.031815346
64	0x3d463944	0.048394457
65	0x3e123194	0.14276725
66	0x3d5d8b4e	0.05408793
67	0x3db6841e	0.08911918
68	0x3c281ebc	0.010261234
69	0xbe08b5de	-0.13350627
70	0xbd8b6751	-0.068068154
71	0x3df4253f	0.11921167
72	0x3d30ef40	0.043196917
73	0xbc28022f	-0.010254427
74	0xbdefc142	-0.11706783
75	0xbe3a7d3a	-0.18211833
76	0x3d8844bf	0.06653737
77	0xbe06bc77	-0.13157831
78	0x3de43c12	0.1114427
79	0x3de5df62	0.112242475
80	0x3ce3974b	0.027782103
81	0xbcf743d3	-0.030183708
82	0xbd26e9c9	-0.0407503
83	0x3db0dcb1	0.086358435
84	0x3cceeb8a	0.025258798
85	0x3d1ea443	0.03873087
86	0xbd330c22	-0.043712743
87	0x3d9a2979	0.075274415
88	0x3d0e15c8	0.03468874
89	0x3d7b2b67	0.06132069
90	0x3d3fdfb9	0.046844218
91	0x3da9b634	0.082867056
92	0x3d842fbc	0.06454417
93	0xbe334648	-0.17507279
94	0x3d7a3ec0	0.061095
95	0x3daff922	0.0859244
96	0xbde32f5a	-0.11093016
97	0x3d11698c	0.035501048
98	0xbd78d196	-0.06074675
99	0x3dfb6f70	0.122771144
100	0xbd0f544f	-0.034992512
101	0xbca3dd10	-0.020002872
102	0x3df69615	0.120403446
103	0x3c8b964c	0.01703944
104	0xbb704700	-0.0036663413
105	0x3cecee74	0.028922297
106	0xbd2e3dba	-0.042539336
107	0xbe287f95	-0.16454919
108	0x3e22aa04	0.15885168
109	0xbdc16663	-0.09443357
110	0xbd7b43a6	-0.06134381
111	0x3e0796d9	0.13241138
112	0xbc29ab67	-0.010355807
113	0x3d4fe692	0.050757
114	0xbe0c4837	-0.13699423
115	0x3d5b92d1	0.053606812
116	0x3e376046	0.17907819
117	0xbe90b72c	-0.2826475
118	0xbdeaf6ba	-0.114728406
119	0xbd0ab3ab	-0.03386275
120	0xbe294f82	-0.16534236
121	0xbd741260	-0.059587836
122	0x3dde688c	0.108597845
123	0xbdad1ebf	-0.0845313
124	0xbcc41fff	-0.023941038
125	0xbe08773c	-0.13326734
126	0x3e13e415	0.14442475
127	0xbd5e639f	-0.054294225
128	0xbdcaa1a0	-0.09894109
129	0x3da1ddb0	0.07903612
130	0xbcc2fc1b	-0.023801854
131	0x3da24807	0.079238944
132	0x3d8ccc30	0.06874883
133	0xbd15f3d2	-0.03660948
134	0xbcdbeebc	-0.026847236
135	0xbd9f569f	-0.077801935
136	0x3db7ff36	0.089842245
137	0x3cb7dcc8	0.022444144
138	0x3e5a1202	0.21295932
139	0x3e4efe22	0.20214131
140	0xbe490b10	-0.19633126
141	0xbe329ea0	-0.17443323
142	0x3d45df78	0.04830882
143	0x3de082c6	0.10962443
144	0x3de4c207	0.1116982
145	0xbcb1d340	-0.021707177
146	0x3d14a087	0.036285903
147	0x3d2e2050	0.042511284
148	0x3d703ab1	0.058649722
149	0xbde4761d	-0.11155341
150	0x3e5b7d21	0.21434452
151	0xbcb26b55	-0.021779696
152	0x3e06e712	0.13174084
153	0xbe4824ba	-0.1954526
154	0x3dd55b21	0.10417772
155	0x3e54a3b0	0.20765567
156	0x3d30b25e	0.043138854
157	0x3d415719	0.047202203
158	0x3e05f489	0.13081564
159	0xbd8465ea	-0.06464751
160	0x3ca79842	0.020458344
161	0x3d371d42	0.044705637
162	0x3e1a4356	0.15064749
163	0xbcec9b4e	-0.028882649
164	0x3d58162f	0.05275553
165	0x3dd623af	0.10456025
166	0x3dedd91d	0.11613677
167	0xbc2b0182	-0.010437371
168	0x3e3cca81	0.18436624
169	0x3cb1c377	0.02169965
170	0xbe0e211d	-0.13879819
171	0x3d7955b4	0.06087275
172	0x3d5503c4	0.052005544
173	0xbc12fc56	-0.008971294
174	0x3dd3f025	0.10348538
175	0x3cf2a39b	0.029619029
176	0x3daad4c5	0.08341364
177	0x3d0be719	0.03415594
178	0x3e2d18d2	0.16904
179	0xbe2632c1	-0.16230299
180	0x3cde27ee	0.02711865
181	0xbd5cb12d	-0.053879905
182	0xbc717b16	-0.014738819
183	0x3e534f74	0.20635778
184	0xbdd0913f	-0.101839535
185	0x3d017064	0.031601325
186	0x3dcc7b31	0.099844344
187	0xbdab047f	-0.08350467
188	0xbd4bbc23	-0.049739968
189	0xbdd7c926	-0.10536413
190	0x3deb2dea	0.11483367
191	0xbe299852	-0.16562012
192	0xbe3d588f	-0.18490814
193	0x3dda2779	0.1065206
194	0x3e4fe59c	0.20302433
195	0x3d0d50d3	0.034500908
196	0x3dd0b61a	0.10190983
197	0xbdb759a9	-0.08952648
198	0xbde1eec2	-0.110318676
199	0xbb49cffd	-0.0030794137
200	0x3d436a87	0.047709014
201	0xbd300d9c	-0.04298173
202	0xbc8e1db4	-0.017348148
203	0x3cd6368f	0.026149062
204	0x3d86716d	0.06564603
205	0x3cfbd766	0.030742358
206	0xbdce6c5b	-0.10079261
207	0xbd167d52	-0.03674061
208	0x3e079d08	0.13243496
209	0x3dfecb35	0.124411024
210	0x3e15376d	0.14571925
211	0xbd86e2d3	-0.06586232
212	0xbe413be2	-0.188705
213	0x3d3a12d6	0.04542812
214	0xbdfa75df	-0.122295134
215	0xbded0690	-0.11573517
216	0x3e842f01	0.2581711
217	0x3df335e8	0.11875516
218	0x3e2f207f	0.1710224
219	0x3e80c325	0.25148883
220	0xbcb4ca3e	-0.022069093
221	0x3dfcc1b9	0.12341637
222	0xb88df6ae	-6.7693516e-05
223	0xbca415f8	-0.020030007
224	0x3c41a79f	0.011819749
225	0xbe369b4b	-0.17832677
226	0x3da5b46c	0.08091053
227	0x3e1cac38	0.15300071
228	0xbd4faf5f	-0.050704356
229	0x3d592889	0.053017173
230	0xbc072133	-0.008247661
231	0xbd7b1abb	-0.06130479
232	0xbc4e2abd	-0.012583432
233	0x3c03020b	0.007996093
234	0xbd8639cd	-0.065539934
235	0xbd7d8225	-0.061891694
236	0x3dd4d6f8	0.103925645
237	0xbd2ed73b	-0.04268573
238	0x3db9604e	0.09051572
239	0xbc931a19	-0.01795678
240	0xbdc002f5	-0.09375564
241	0x3dd7bf7e	0.10534571
242	0x3d0fb30f	0.035082873
243	0x3d2c83a1	0.04211772
244	0xbd9c28f0	-0.07624996
245	0xbde0c4ac	-0.10975012
246	0x3e835408	0.25650048
247	0x3e40bed3	0.18822794
248	0x3e2681f6	0.16260514
249	0x3d749ed1	0.05972177
250	0x3da4b749	0.08042771
251	0xbdb2de16	-0.08733766
252	0x3c3661c3	0.011131707
253	0xbd9f1814	-0.077682644
254	0x3d823db1	0.06359423
255	0x3e3f7498	0.1869682

layer2.0.bias f4 [8]
0	0xbe0536e0	-0.13009214
1	0xbb8ed9d4	-0.004359463
2	0x3dcbf2b0	0.09958398
3	0xbe1844db	-0.14870016
4	0x3d439e11	0.047758166
5	0x3d402769	0.046912584
6	0x3db60198	0.08887023
7	0xbd5f3339	-0.05449221

layer2.1.weight f4 [8]
0	0x3f879153	1.0591224
1	0x3f7967e1	0.9742413
2	0x3f77b6a0	0.9676304
3	0x3f78d072	0.9719306
4	0x3f6d31e0	0.9265423
5	0x3f861d41	1.0477678
6	0x3f8b26d1	1.0871221
7	0x3f7f76ef	0.99790853

layer2.1.bias f4 [8]
0	0x3d39374d	0.045218755
1	0xbd7c00e2	-0.06152428
2	0xbda5c8d4	-0.080949455
3	0x3df78e14	0.12087646
4	0xbb6792c9	-0.0035335294
5	0xbb03c6f5	-0.0020107601
6	0x3dff2bd9	0.12459535
7	0x3d2fefbc	0.042953238

layer2.1.running_mean f4 [8]
0	0xbe058612	-0.13039425
1	0x3e0ba8fc	0.13638681
2	0x3e26c455	0.16285832
3	0xbe102578	-0.14076793
4	0x3f58c412	0.8467418
5	0x3cb95469	0.022623258
6	0x3f7935ea	0.9734789
7	0xbe633ed4	-0.22191936

layer2.1.running_var f4 [8]
0	0x3eb4d27a	0.3531683
1	0x3e3e2bbf	0.18571375
2	0x3de07443	0.10959675
3	0x3eebecab	0.46079
4	0x3f191602	0.59799206
5	0x3df7bbf7	0.12096398
6	0x3fc38f91	1.5278188
7	0x3ddbb4ec	0.107278675

layer3.0.weight f4 [16, 8, 3, 3]
0	0xbe226485	-0.15858658
1	0xbd207de5	-0.039182562
2	0xbd7478e3	-0.0596856
3	0xbda783ec	-0.08179459
4	0x3cf42785	0.029804
5	0xbdf9535d	-0.121741034
6	0xbd893695	-0.06699864
7	0xbd50b2a7	-0.050951626
8	0xbdcd3f53	-0.10021844
9	0x3df6f96b	0.120592915
10	0xbd27b218	-0.040941328
11	0x3cfc2609	0.030779855
12	0xbd3c47fc	-0.045967087
13	0x3d40d9eb	0.047082823
14	0xbd5100bb	-0.051026087
15	0xbd2ef5eb	-0.042714994
16	0x3cf900e6	0.030395936
17	0xbbb3792a	-0.0054770904
18	0x3e0a1cb4	0.13487512
19	0x3e1fc27c	0.15601534
20	0xbd132c1c	-0.035930738
21	0x3e04e01c	0.12976116
22	0x3dee5ce7	0.116388135
23	0xbd55831f	-0.052127
24	0x3de70035	0.11279336
25	0x3e1a942d	0.15095587
26	0xbdaa49a7	-0.08314829
27	0xbd49cf79	-0.049270127
28	0xbcbca3fd	-0.023027414
29	0xbd96fe0b	-0.073726736
30	0x3ce41356	0.027841251
31	0xbc4e97e7	-0.0126094585
32	0xbb9e0437	-0.00482228
33	0x3d613426	0.054981373
34	0xbdf1b5cc	-0.11802253
35	0x3c4ad171	0.012379036
36	0xbb8bb6e5	-0.004263746
37	0xbd01f8fb	-0.031731587
38	0xbce798cb	-0.0282711
39	0x3b297725	0.002585837
40	0xbc8e6d52	-0.017386112
41	0x3af6e660	0.0018836968
42	0xba8f2a15	-0.0010922576
43	0x3d93bbca	0.07213552
44	0xbd9a0721	-0.07520891
45	0xbe127cf1	-0.14305474
46	0xbd0f76ca	-0.035025395
47	0x3d937d53	0.07201638
48	0xbda9df28	-0.08294517
49	0xbe11191a	-0.14169732
50	0xbd0de0bd	-0.034638155
51	0xbe0595ea	-0.13045469
52	0xbd931a5f	-0.07182764
53	0x3d2f4b7f	0.042796608
54	0xbc998c4d	-0.018743658
55	0x3d893717	0.06699961
56	0x3959495a	0.00020722058
57	0xbd183455	-0.037159283
58	0x3d8732f9	0.06601519
59	0xbdd5a1fc	-0.10431287
60	0x3cb16eae	0.021659222
61	0x3d1e7f3b	0.038695555
62	0xbd7eaa30	-0.062174022
63	0x3d7ef0e6	0.062241457
64	0x3ca55c16	0.020185512
65	0x3d8591e9	0.06521971
66	0x3d18db02	0.037318237
67	0x3c8f8faf	0.017524568
68	0x3dfdb18c	0.1238738
69	0x3d0c4f75	0.034255464
70	0xbd18a2c7	-0.03726461
71	0x3d044c42	0.032299288
72	0x3d785d1b	0.060635667
73	0xbd19fddb	-0.03759561
74	0x3cbec8f1	0.023289176
75	0xbd5b5279	-0.05354545
76	0x3e17fccc	0.14842528
77	0x3a9ce39d	0.001196969
78	0xbd916053	-0.070984505
79	0xbc0ba2d2	-0.008522706
80	0xbca0714f	-0.01958528
81	0xbd3aad30	-0.04557532
82	0xbd967793	-0.07347026
83	0x3c8044f8	0.015657887
84	0xbd90ecb6	-0.07076399
85	0x3ad0e6a0	0.0015937872
86	0xbdd1647b	-0.10224243
87	0x3d02391b	0.03179274
88	0xbc3933ec	-0.011303883
89	0xbe17979c	-0.14803928
90	0xbe06aa89	-0.13150991
91	0xbc8a8754	-0.016910233
92	0xbbc939ce	-0.006140924
93	0xb817b677	-3.617114e-05
94	0xbd817d21	-0.063226946
95	0xbd2809cd	-0.04102497
96	0x3c361262	0.011112781
97	0xbdc28c94	-0.094994694
98	0x3ba98969	0.0051738513
99	0x3caf31b6	0.021386009
100	0x3cccb05d	0.02498644
101	0x3d91d98f	0.07121574
102	0x3df1d8ec	0.11808953
103	0xbd65b5da	-0.05608163
104	0xbe0b4d74	-0.13603765
105	0x3d283f17	0.041075792
106	0x3db14ea3	0.08657577
107	0x3d2e0853	0.042488407
108	0x3ca7b0d3	0.020470059
109	0xbd950cb9	-0.07277817
110	0x3d8838a4	0.06651428
111	0x3d0e1bec	0.034694597
112	0x3cdc7012	0.026908908
113	0xbc74ba15	-0.014936944
114	0xbd9a630f	-0.07538425
115	0xbe0aa1eb	-0.1353833
116	0x3d6f84e2	0.058476336
117	0x3d1c7ae5	0.03820314
118	0x3bbd013f	0.005767971
119	0x3a2d525a	0.00066116976
120	0x3ce2cc7d	0.027685398
121	0x3e176f14	0.14788467
122	0x3dc20559	0.09473676
123	0x3db47a58	0.08812398
124	0xbd19ea2d	-0.037576843
125	0x3d8eaad7	0.06966179
126	0xbc530bde	-0.012881247
127	0xbdeb51f2	-0.11490239
128	0x3d02304c	0.03178434
129	0x3db4d4a9	0.08829624
130	0x3d02941b	0.031879526
131	0xbdb9861d	-0.09058783
132	0xbc2fda3b	-0.010733183
133	0x3d6d6076	0.05795332
134	0xbd232e20	-0.03983891
135	0x3dc267a2	0.09492423
136	0xbd4b3ca0	-0.049618363
137	0xbd90be6b	-0.07067569
138	0xbd799ca1	-0.06094039
139	0xbc0b836e	-0.008515222
140	0xbd3c8a7b	-0.046030503
141	0xbe2d9ea0	-0.16955042
142	0xbdc3f867	-0.09568863
143	0x3d36ee2e	0.04466074
144	0x3d1e5fdb	0.038665634
145	0x3d20e0e6	0.03927698
146	0x3dad9bfd	0.08477018
147	0xbc17bbec	-0.009261113
148	0xbcfb7718	-0.030696437
149	0x3d004b6a	0.03132192
150	0xbdbd2dd5	-0.092372574
151	0xbdc1cddc	-0.09463093
152	0x3af99f9f	0.0019044763
153	0xbc387f0e	-0.011260761
154	0xbdd5f285	-0.104466476
155	0xbda159c7	-0.07878452
156	0x3d2ee1bd	0.04269575
157	0x3dc14d9f	0.09438633
158	0xbb8f408b	-0.004371708
159	0xbd4a38a2	-0.049370416
160	0xbcc5562b	-0.02408894
161	0xbb5087a7	-0.0031819136
162	0xbc3adbc6	-0.011404937
163	0x3c18dd6a	0.009330133
164	0xbda9bcf9	-0.08287997
165	0xbbc2b011	-0.005941399
166	0xbd68da8d	-0.05684905
167	0xbd7199ba	-0.058984496
168	0x3d60ec9e	0.054913156
169	0xbd98734b	-0.074438654
170	0xbd9005ea	-0.07032378
171	0x3db05e2f	0.08611714
172	0x3d5ce744	0.05393149
173	0xbcf1f626	-0.029536318
174	0x3d9b4545	0.075815715
175	0xbd3abe7e	-0.045591824
176	0xbc362d29	-0.011119165
177	0xbd6ceaca	-0.0578411
178	0xbdba74b1	-0.09104288
179	0x3d8e0647	0.06934791
180	0xbca8fafb	-0.02062749
181	0x3ca5ab28	0.020223215
182	0xbcdf394b	-0.027249
183	0xbdc1df5e	-0.09466432
184	0xbdabffaf	-0.08398377
185	0xbddf6d32	-0.10909499
186	0x3bacba2f	0.0052712183
187	0x3cec4ce8	0.028845266
188	0x3d349bf9	0.04409406
189	0x3de26aa6	0.11055498
190	0x3a97eced	0.0011590995
191	0x3d86f49f	0.065896265
192	0x3d923add	0.071401335
193	0x3dcd5a24	0.100269586
194	0x3d3c391c	0.0459529
195	0x3bc6811c	0.0060578715
196	0x3da5683a	0.0807652
197	0x3d78ef3c	0.060775027
198	0x3dbdfbeb	0.09276565
199	0xbbb63212	-0.005560168
200	0xbd88d209	-0.06680686
201	0x3d065a37	0.03280088
202	0x3e09a8f1	0.13443352
203	0x3cd3dc5f	0.025861917
204	0xbd8a4c92	-0.06752886
205	0xbbbb9264	-0.005724238
206	0x3db47ade	0.088124976
207	0xbce7ca59	-0.02829473
208	0x3d0e6bf5	0.034770925
209	0x3d2118f4	0.039330438
210	0xbd841e92	-0.06451143
211	0xbd07ddac	-0.033170387
212	0xbbe2958c	-0.0069148
213	0x3c7e44d6	0.015519341
214	0xbc0aff53	-0.008483726
215	0xbd6d840e	-0.057987265
216	0x3dcf0d4d	0.10109959
217	0x3e0d9169	0.13825001
218	0xbdffbf29	-0.12487633
219	0xbcd9a231	-0.026566597
220	0xbc6dd0d9	-0.014515125
221	0x3dfd4af2	0.1236781
222	0xbcd252cd	-0.025674248
223	0xbdcdab48	-0.10042435
224	0x3e17aadb	0.1481127
225	0x3c11d625	0.008901154
226	0x3ca55435	0.020181755
227	0xbda9be82	-0.082882896
228	0x381ea2be	3.78217e-05
229	0xbdb8c5f0	-0.090221286
230	0xbdcb9812	-0.099411145
231	0xbd650d34	-0.055920795
232	0x3c857017	0.0162888
233	0x3d0b7453	0.034046482
234	0xbe0c0c4d	-0.13676567
235	0xbd857e4e	-0.06518231
236	0xbd47b0db	-0.048752647
237	0x3c04e948	0.008112259
238	0x3bbd8446	0.0057835905
239	0xbd326129	-0.04354969
240	0x3d380080	0.04492235
241	0x3d38bde2	0.04510296
242	0xbdea1169	-0.11429102
243	0x3dbcacf2	0.09212674
244	0x3d2637f7	0.040580716
245	0xbd1c032c	-0.038088962
246	0x3d58b60d	0.052907992
247	0x3d80c9bc	0.06288478
248	0xbd089caf	-0.03335255
249	0xbdc9b995	-0.0984985
250	0xbd12999b	-0.03579102
251	0x3caba322	0.020951811
252	0xbc717747	-0.014737911
253	0x3d48d05a	0.049026825
254	0x3d73fd63	0.05956782
255	0xbd6fcd75	-0.05854555

layer3.0.bias f4 [16]
0	0x3d63c306	0.05560591
1	0x3df67d9b	0.12035676
2	0xbdbeccaf	-0.09316384
3	0x3b5105bf	0.0031894294
4	0x3be6a4a3	0.007038669
5	0xbdd6427d	-0.104619004
6	0x3ce11c5b	0.027479341
7	0xbbd6cf7d	-0.0065554962
8	0xbd80009d	-0.06250117
9	0x3d5fced1	0.054640595
10	0x3d824ec6	0.06362681
11	0x3d3d2e3e	0.046186678
12	0x3dc40c1e	0.09572624
13	0x3d987258	0.07443684
14	0x3d9cb54a	0.07651766
15	0xbc279db4	-0.01023047

layer3.1.weight f4 [16]
0	0x3f7d7899	0.9901214
1	0x3f6eefac	0.9333446
2	0x3f73ce90	0.95237064
3	0x3f788f7b	0.97093934
4	0x3f822330	1.0166988
5	0x3f82142e	1.0162408
6	0x3f74ff7b	0.9570233
7	0x3f740d7f	0.95333093
8	0x3f6e6df1	0.9313651
9	0x3f6ebb23	0.932543
10	0x3f6fbd0f	0.93647856
11	0x3f71050c	0.94148326
12	0x3f74a5ea	0.95565665
13	0x3f7fe14f	0.9995317
14	0x3f750e3a	0.95724833
15	0x3f6b16e2	0.9183179

layer3.1.bias f4 [16]
0	0xbde27911	-0.11058248
1	0xbe9b98bd	-0.30389968
2	0xbe7a5cd4	-0.24449474
3	0xbe9808a3	-0.2969409
4	0xbe3bcf85	-0.18340881
5	0xbe594608	-0.21218121
6	0xbe66f265	-0.22553404
7	0xbe8b3d4b	-0.271952
8	0xbe6c4ccb	-0.23076169
9	0xbe8260b6	-0.2546441
10	0xbe56e93c	-0.2098741
11	0xbe70f516	-0.23530993
12	0xbe8ced06	-0.27524585
13	0xbe87fd5a	-0.2656048
14	0xbe797ae0	-0.2436328
15	0xbe8cc521	-0.27494147

layer3.1.running_mean f4 [16]
0	0xbe70d1be	-0.2351751
1	0xbe10696b	-0.14102714
2	0xbd07e92d	-0.033181358
3	0xbe998ac0	-0.2998867
4	0xbe95d13a	-0.2926119
5	0xbec7c57d	-0.3901786
6	0xbe49312d	-0.19647665
7	0xbc2c6230	-0.010521457
8	0xbe8a2046	-0.26977748
9	0xbe105cf3	-0.14097957
10	0xbdc28edc	-0.094999045
11	0xbcf5167a	-0.029917944
12	0xbe3ff630	-0.18746257
13	0xbe5d8d1a	-0.21635857
14	0xbdbafec3	-0.09130623
15	0xbdfc3c73	-0.12316217

layer3.1.running_var f4 [16]
0	0x3e9b4b64	0.30330956
1	0x3e146d25	0.1449476
2	0x3de1f054	0.11032167
3	0x3e81f0bd	0.2537898
4	0x3ea030c0	0.31287193
5	0x3e38644d	0.18007012
6	0x3e195988	0.1497556
7	0x3e906561	0.28202346
8	0x3e48bcef	0.19603322
9	0x3e7dec4f	0.24797176
10	0x3ece839a	0.4033478
11	0x3e53fca1	0.20701839
12	0x3e445c2d	0.19175787
13	0x3ec9839f	0.3935823
14	0x3debc577	0.11512273
15	0x3e1dcccf	0.1541016

layer4.0.weight f4 [32, 16, 3, 3]
0	0xbd572644	-0.052526727
1	0x3d157b5e	0.036494605
2	0xbb874fa5	-0.0041293674
3	0xbd6f1fe4	-0.058380023
4	0xbd977bf9	-0.07396693
5	0xbdbf7398	-0.0934822
6	0xbdb64fc1	-0.089019306
7	0xbda80694	-0.0820438
8	0xbd92f126	-0.07174902
9	0x3d30360a	0.043020286
10	0x3dc4923d	0.09598205
11	0x3cbf367e	0.023341414
12	0x3b31ce5e	0.002713106
13	0x3dda8024	0.10668972
14	0x3d21f3af	0.039539035
15	0xbd49b180	-0.049241543
16	0x3dde3000	0.10848999
17	0x3c64cd94	0.013965029
18	0x3daedf50	0.08538687
19	0xbccd8de9	-0.025092082
20	0x3ca0f5e3	0.019648498
21	0x3d00469d	0.031317342
22	0xbc99d4c8	-0.01877822
23	0x3cd1972b	0.025584778
24	0x3ca05f16	0.01957659
25	0x3ca3cd96	0.019995492
26	0x3c94b39a	0.018152047
27	0x3da04286	0.07825188
28	0x3d907fa5	0.07055596
29	0x3d551eb5	0.052031238
30	0x3d02542a	0.031818546
31	0xbc0d49a0	-0.008623511
32	0xba52a4b4	-0.0008035407
33	0x3c074a72	0.008257495
34	0x3dace3fc	0.08441922
35	0x3c17a02c	0.009254497
36	0xbd33e6cc	-0.043921277
37	0xbcfbd15b	-0.030739477
38	0x3cdd0290	0.026978761
39	0xbd1d701f	-0.038437005
40	0xbd762808	-0.06009677
41	0xbc675caf	-0.014121219
42	0xbd74892f	-0.05970114
43	0xbcbe47b1	-0.023227545
44	0xbd03c845	-0.032173414
45	0xbd135d8a	-0.035977878
46	0x3cb7acfb	0.02242135
47	0x3db2cb05	0.08730129
48	0x3c6d79ac	0.014494341
49	0xbd2f7d85	-0.042844314
50	0xbd844da1	-0.06460119
51	0x3d478eb7	0.048720088
52	0x3cd9114e	0.02649751
53	0x3d94df0d	0.07269106
54	0xbbb121bd	-0.0054056332
55	0x3e0797d8	0.13241518
56	0x3c426946	0.011865919
57	0x3c9221d5	0.017838398
58	0x3c8b6917	0.017017884
59	0xbcbc2cff	-0.022970675
60	0xbd0c9450	-0.03432113
61	0x3dbccc86	0.09218697
62	0x3db91d10	0.09038746
63	0x3d4d48bd	0.050118197
64	0x3d9b2d11	0.07576955
65	0xbd2ee7e6	-0.042701624
66	0x3ccc959e	0.024973687
67	0xb92289f4	-0.00015500915
68	0x3ce44c8d	0.027868534
69	0xbbc2bed7	-0.00594316
70	0xbdca9c63	-0.0989311
71	0x3c3f2773	0.01166712
72	0x3d5a8584	0.053349987
73	0xbd5f92b6	-0.054583274
74	0x3cb00edf	0.021491466
75	0xbd339346	-0.043841623
76	0x3d81ba77	0.063343935
77	0xbd322b4b	-0.04349832
78	0xbcc199b2	-0.023632858
79	0x3b4ba335	0.003107262
80	0xbc43381b	-0.011915232
81	0x3ccb9744	0.024852403
82	0xbd54053a	-0.051762797
83	0x3c883b8e	0.01662996
84	0x3ce2e381	0.027696373
85	0x3c846a1a	0.016163874
86	0xbc3e3119	-0.0116083855
87	0xbcec5921	-0.028851094
88	0x3d248df2	0.040174432
89	0xbd732283	-0.059359085
90	0xbd5e3580	-0.05425024
91	0xbc91529f	-0.017739592
92	0x3cf50c05	0.029912958
93	0x3b990519	0.004669797
94	0x37624159	1.3485865e-05
95	0xbcaef698	-0.02135782
96	0xbd36cd00	-0.044629097
97	0xbb8defb4	-0.0043315534
98	0xbb5dd689	-0.0033849797
99	0xbce0a2d7	-0.027421398
100	0xbb23b47b	-0.00249794
101	0x3ca954f8	0.0206704
102	0xbd8dc651	-0.069225915
103	0x3d2b1441	0.041767363
104	0x3d0d70f7	0.03453156
105	0xbcf2ae38	-0.02962409
106	0xbd615411	-0.055011813
107	0x3c5ddb9b	0.013541128
108	0xbbac8927	-0.0052653733
109	0xbda43ebd	-0.08019779
110	0xbaf9e8fb	-0.0019066626
111	0xbca1110a	-0.019661445
112	0x3cee5bb1	0.029096456
113	0xbd86b5fa	-0.06577678
114	0x3d128b9a	0.035777666
115	0xbc9194af	-0.017771093
116	0xbdbdd1a9	-0.09268505
117	0xbda6f721	-0.08152605
118	0xbccc5be5	-0.024946162
119	0xbd10fad9	-0.035395477
120	0xbdff2e5b	-0.124600135
121	0xbda82f7e	-0.082121834
122	0xbd41ea89	-0.04734281
123	0xbdf929e0	-0.1216619
124	0xbdb87ed6	-0.09008567
125	0xbd54f656	-0.051992737
126	0xbd2fb3ba	-0.04289601
127	0x3e21b247	0.15790664
128	0xbcb6e5c8	-0.022326365
129	0xbcec5710	-0.028850108
130	0x3da4e7ad	0.08052001
131	0xba81dd27	-0.0009907827
132	0x3d197002	0.037460335
133	0x3d8466a2	0.06464888
134	0x3d711b0d	0.05886369
135	0x3d4d66eb	0.05014698
136	0xbbbc0921	-0.005738393
137	0xbd0a01d4	-0.03369315
138	0xbca4a110	-0.020096332
139	0x3ce16880	0.02751565
140	0xbb3cc01b	-0.0028801027
141	0xbd73476e	-0.059394293
142	0xbd0fb05e	-0.035080306
143	0xbc4de9a3	-0.01256791
144	0xbd2b32bc	-0.04179643
145	0x3d245d16	0.040127836
146	0x3b0b8b43	0.0021292723
147	0xbc49cfbc	-0.012317594
148	0xbd018eca	-0.031630315
149	0xbccf5a67	-0.025311662
150	0x3cd9be83	0.0265801
151	0x3d240521	0.040043954
152	0x3d8263c1	0.06366683
153	0x3d5780ea	0.052613176
154	0xbc377276	-0.011196723
155	0x3c756517	0.014977715
156	0x3c4b73f9	0.012417787
157	0x3d776272	0.06039662
158	0x3d345a4a	0.04403142
159	0xbd6b405a	-0.057434417
160	0xbd2ef3de	-0.04271304
161	0xbd1f69a2	-0.0389191
162	0x3c80c71e	0.015719946
163	0xbcd471a8	-0.025933102
164	0xbd8416bb	-0.06449648
165	0x3ddc8ce6	0.10769062
166	0x3dd6d23e	0.10489319
167	0x3d9a5e15	0.07537476
168	0xbd32dbb1	-0.043666545
169	0xbce0433c	-0.02737581
170	0xbc1b6d3d	-0.009486494
171	0x3c88aafc	0.016683094
172	0x3cb29c88	0.021803156
173	0xbd05c5ca	-0.03265933
174	0x3c95e15a	0.018295933
175	0x3d839674	0.06425181
176	0x3caeb0ec	0.021324597
177	0x3c356c1e	0.01107314
178	0xbcb9fd4f	-0.022703795
179	0xbc6c0131	-0.014404581
180	0xbd1bda4f	-0.038049992
181	0x3c4a15ac	0.012334269
182	0x3c95e88b	0.018299362
183	0xbaa4c918	-0.0012572138
184	0xbc3fdf99	-0.011711025
185	0x3cf757a5	0.03019316
186	0x3c2a49a1	0.010393531
187	0x3b93967c	0.004504023
188	0x3d84715c	0.06466934
189	0x3b2572b0	0.002524536
190	0xbc6bfdc2	-0.014403762
191	0x3ce57e62	0.028014366
192	0x3d837599	0.06418914
193	0x3d91ed0a	0.0712529
194	0x3c760db2	0.015017914
195	0x3c4a4ec3	0.01234788
196	0x3d568fee	0.052383356
197	0xba473531	-0.00075991737
198	0x3cf1e186	0.029526483
199	0xbd6d0d11	-0.05787379
200	0xbcca26fa	-0.024676789
201	0x3dbd0b3e	0.0923066
202	0x3d1ff7b3	0.039054584
203	0x3dc508ac	0.09620795
204	0x3bc128e2	0.005894766
205	0x3d44ea49	0.048074994
206	0x3cc89743	0.02448619
207	0x3da7e858	0.08198613
208	0x3c97be6c	0.018523417
209	0x3d61b9a7	0.055108692
210	0x3af53032	0.001870638
211	0x3b8c562e	0.0042827344
212	0x3d07c2ca	0.03314475
213	0x3d6e8a6f	0.05823749
214	0x3d4367fe	0.047706597
215	0x3d2c2bec	0.042034075
216	0xbcef2ba6	-0.029195618
217	0xbc8ed90f	-0.017437486
218	0xbd45c366	-0.04828205
219	0x3d220a2f	0.039560493
220	0xbc957e6c	-0.01824876
221	0x3c15e6a3	0.009149226
222	0xbd52b9ef	-0.05144685
223	0xbd528a4f	-0.051401433
224	0xbdcccf8e	-0.100005254
225	0xbb8043df	-0.003914341
226	0x3d1d4c10	0.038402617
227	0x3ca53a3b	0.020169368
228	0x3d4b48ad	0.049629856
229	0x3d095885	0.033531684
230	0x3d230691	0.039801184
231	0xbca364c5	-0.019945512
232	0x3c0ca7fe	0.008584974
233	0x3c6b5dd2	0.01436563
234	0xbd114bf1	-0.035472814
235	0xbd99f541	-0.075174816
236	0xbdf0652e	-0.117380485
237	0x3dc1ce94	0.0946323
238	0x3d87f653	0.066387795
239	0x3db80c4c	0.089867204
240	0xbcc8e542	-0.024523381
241	0xbb8aa504	-0.004231097
242	0x3c17e25a	0.009270275
243	0xbd30c225	-0.0431539
244	0x3bffc473	0.007805401
245	0xbd949985	-0.07255844
246	0x3dc6732d	0.09689937
247	0x3d741654	0.059591606
248	0x3c19b68f	0.009381904
249	0xbd953110	-0.072847486
250	0xbbcb1f9c	-0.0061988365
251	0x3d3695ed	0.044576574
252	0xbc3cdf14	-0.011527795
253	0xbd8abb66	-0.06774025
254	0xbd81c44c	-0.06336269
255	0x3d138d29	0.036023293

layer4.0.bias f4 [32]
0	0xbb402550	-0.0029319115
1	0x3d715d4e	0.058926873
2	0xbda52903	-0.08064463
3	0x3d8adafc	0.06780049
4	0xbd2f7e2c	-0.042844936
5	0x3d433657	0.047659244
6	0xbca87b76	-0.020566683
7	0xbd3396b6	-0.0438449
8	0x3dad747f	0.084694855
9	0x3d213386	0.039355777
10	0xbd345743	-0.04402853
11	0xbd8f03b6	-0.0698313
12	0xbca7e926	-0.020496916
13	0xbd4ff8ee	-0.050774507
14	0xbaadb5de	-0.0013253053
15	0x3d8a62b2	0.06757106
16	0x3d49c929	0.049264107
17	0xbb95d508	-0.0045725144
18	0xbd957261	-0.07297207
19	0x3c09635a	0.008385504
20	0x3a8aacdd	0.0010580082
21	0x3c7a61ec	0.015282135
22	0x3cb86486	0.02250887
23	0xbd31d281	-0.043413643
24	0x3d59ae68	0.053144842
25	0xbcb945e1	-0.022616329
26	0x3d607a7e	0.054804318
27	0xbd9818aa	-0.07426579
28	0xbcfaa205	-0.030594835
29	0x3b8b05eb	0.004242649
30	0xbd3b0555	-0.045659382
31	0xbd740dc3	-0.059583437

layer4.1.weight f4 [32]
0	0x3f909734	1.1296144
1	0x3f9649fe	1.1741331
2	0x3f8e64b6	1.1124485
3	0x3f8df605	1.1090704
4	0x3f8c454d	1.0958649
5	0x3f90739a	1.1285279
6	0x3f9353ac	1.150991
7	0x3f8b61e3	1.0889248
8	0x3f8f2503	1.118317
9	0x3f94ddef	1.1630229
10	0x3f975012	1.182131
11	0x3f91bb18	1.1385221
12	0x3f8c1f74	1.0947099
13	0x3f8e6b69	1.1126529
14	0x3f90fc43	1.1326984
15	0x3f8e0c50	1.1097507
16	0x3f9179ad	1.1365258
17	0x3f929fd0	1.1455021
18	0x3f912c71	1.1341687
19	0x3f919c0e	1.1375749
20	0x3f92a7fe	1.1457517
21	0x3f8b11e9	1.0864841
22	0x3f920f0a	1.141084
23	0x3f9656e0	1.1745262
24	0x3f97b3f9	1.1851798
25	0x3f8e1ce2	1.1102564
26	0x3f988aea	1.1917393
27	0x3f8c6767	1.0969056
28	0x3f91cd23	1.1390728
29	0x3f9119bf	1.1335982
30	0x3f952598	1.1652098
31	0x3f8f8330	1.121191

layer4.1.bias f4 [32]
0	0x3d5d24b4	0.05399008
1	0xbb8998fd	-0.004199146
2	0x3d419f53	0.047271084
3	0x3d008186	0.031373523
4	0x3d08d59f	0.03340685
5	0x3d507a5a	0.050897934
6	0x3dcc3965	0.09971885
7	0x3d476df3	0.04868884
8	0xbd0a7929	-0.033806954
9	0x3c517c6c	0.012786012
10	0x3d8d95cb	0.06913336
11	0x3c9b2bc7	0.018941773
12	0x3cc84648	0.024447575
13	0x3d49620e	0.049165778
14	0x3c02ab67	0.007975436
15	0xbcd9b20c	-0.026574157
16	0x3ca6b5cb	0.020350358
17	0x3d907cf7	0.07055085
18	0x3d3e8add	0.04651915
19	0x3bb83fa2	0.00562282
20	0x3c901370	0.017587394
21	0x3d641ae6	0.055689715
22	0xbc3b233b	-0.011421974
23	0x3cf0db66	0.029401492
24	0x3bd535ed	0.0065066726
25	0x3d806dcd	0.06270943
26	0x3d949cd9	0.07256479
27	0x3d3c8fc7	0.046035554
28	0xbc063403	-0.0081911115
29	0x3c7768c4	0.015100662
30	0x3daa80b1	0.08325327
31	0x3d65e99d	0.056130994

layer4.1.running_mean f4 [32]
0	0xbde12a42	-0.10994388
1	0x3f36e4d4	0.71442914
2	0xbf4ba05b	-0.7954156
3	0xbea43a0c	-0.32075536
4	0x3dfb92dd	0.12283871
5	0x3e8b400b	0.27197298
6	0x3e5e5970	0.21713805
7	0xbf395c0a	-0.72406065
8	0x3f16e8b5	0.5894883
9	0x3f0b61cf	0.5444612
10	0x3e1daa88	0.15397084
11	0x3e00bf2c	0.12572926
12	0xbc6f6ba8	-0.01461307
13	0xbf2f187a	-0.68396723
14	0xbecc45f8	-0.39897132
15	0x3d6724b5	0.05643149
16	0xbe4c4280	-0.19947243
17	0x3ed29130	0.41126394
18	0x3e66ec94	0.22551185
19	0x3ee06c1b	0.43832478
20	0x3f1c6838	0.61096525
21	0xbfd77c7b	-1.6834863
22	0x3e0f97b6	0.14022717
23	0x3f072056	0.52783716
24	0x3f184427	0.5947899
25	0xbfca4d8c	-1.5804915
26	0x3f104741	0.56358725
27	0xbfb22fc3	-1.3920826
28	0xbe55a770	-0.20864654
29	0x3c8d4f9e	0.017249878
30	0x3d12af0d	0.035811473
31	0x3e8064f2	0.25077015

layer4.1.running_var f4 [32]
0	0x3f2b8a80	0.6700821
1	0x3f3d22e5	0.7388137
2	0x3f951d4d	1.1649567
3	0x3f7d7847	0.99011654
4	0x3f574e25	0.84103614
5	0x3f53f359	0.82793194
6	0x3f308661	0.68955046
7	0x3f90e806	1.1320808
8	0x3f2efefa	0.68357813
9	0x3f527f74	0.8222573
10	0x3f2465b8	0.6421771
11	0x3f2e006c	0.67969394
12	0x3f69407a	0.9111401
13	0x3f88959f	1.0670661
14	0x3f973714	1.1813684
15	0x3f6a1496	0.9143766
16	0x3f674fe2	0.90356266
17	0x3f5ee6ca	0.87070906
18	0x3f854cd7	1.0414075
19	0x3f35e562	0.71053135
20	0x3f215d59	0.6303306
21	0x4010bc74	2.2615023
22	0x3f68fa66	0.9100708
23	0x3f571490	0.8401575
24	0x3f6a5685	0.9153827
25	0x40079d9a	2.1189942
26	0x3f334f5c	0.7004297
27	0x3fc453d5	1.5338084
28	0x3f6f13c4	0.93389535
29	0x3f65eb05	0.89811736
30	0x3f5fe95a	0.8746544
31	0x3f4dd879	0.80408436

fc.weight f4 [1, 1152]
0	0xbcb36ef9	-0.021903502
1	0xbd209c0c	-0.039211318
2	0x3d0e7088	0.034775287
3	0x3d32c05c	0.04364048
4	0x3cb9f5e4	0.022700258
5	0x3c159d3f	0.009131729
6	0x3cfee5f5	0.031115511
7	0xbb944ad0	-0.00452552
8	0x3d82622f	0.06366383
9	0x3dc63b0a	0.096792296
10	0x3c71ff88	0.014770396
11	0x3cfd6a5b	0.030934503
12	0x3d5df9d5	0.054193337
13	0x3cad12f3	0.0211272
14	0x3d8cafe7	0.06869488
15	0x3dad7601	0.08469773
16	0xbd2053c0	-0.03914237
17	0x3cc106c3	0.023562795
18	0xbbc7e4b4	-0.0061002616
19	0x3bc7fafb	0.0061029173
20	0xbb133779	-0.0022463484
21	0x3da63ee6	0.08117466
22	0x3c819887	0.015819801
23	0x3c95515b	0.01822727
24	0x3c8eafd1	0.01741782
25	0x3d430106	0.047608398
26	0x3d4e180f	0.050315913
27	0x3df11d64	0.11773184
28	0x3cc4a5f7	0.02400492
29	0x3d8ff46c	0.07029042
30	0xbcf1632b	-0.029466232
31	0xbc36c7fe	-0.01115608
32	0x3d538fe0	0.05165088
33	0xbd076635	-0.033056457
34	0xbb865f53	-0.004100719
35	0x3d20c35d	0.039248813
36	0xbc02146e	-0.007939441
37	0xbbb16c79	-0.0054145423
38	0xbc86aeff	-0.016440867
39	0xbca17604	-0.019709595
40	0xbc2471dd	-0.010036913
41	0xbcc6b330	-0.024255365
42	0x3baf25e8	0.005345095
43	0xbd87d7e5	-0.066329755
44	0xbdbafb42	-0.09129955
45	0xbd9f2918	-0.0777151
46	0xbba01720	-0.004885569
47	0xbcbcceaf	-0.023047773
48	0xbd02c3e3	-0.031925093
49	0xbd856262	-0.06512906
50	0xbce28092	-0.027649198
51	0xbda2c3e2	-0.07947518
52	0xbda05dc7	-0.078303866
53	0xbda6dcf2	-0.08147611
54	0x3d3dd3f2	0.046344705
55	0x3ca04bb0	0.01956734
56	0x3da5dbca	0.08098562
57	0x3e0344db	0.12819235
58	0x3dbf4f61	0.09341312
59	0x3d82f4b1	0.063943274
60	0x3cc951f2	0.024575207
61	0xbd082a6b	-0.033243578
62	0xbdc0f49d	-0.09421656
63	0xbd62c329	-0.0553619
64	0xbcd06ed0	-0.025443465
65	0xbcbf4471	-0.023348065
66	0x3cbdc75d	0.023166353
67	0x3c4578cd	0.012052727
68	0xbcc97e46	-0.024596345
69	0xbba62868	-0.005070735
70	0x3bbd4af2	0.0057767564
71	0x3ceb3342	0.028710965
72	0x3c84102a	0.016120989
73	0x3c98dfe0	0.01866144
74	0x3b3c70ae	0.0028753686
75	0x3d1d08db	0.038338523
76	0xbcfbc264	-0.030732341
77	0x3c27198b	0.010198961
78	0x3ceef7ae	0.029170837
79	0xbc87633a	-0.016526807
80	0xbd028f35	-0.031874854
81	0xbb21b25f	-0.0024672968
82	0xbdcc8d11	-0.09987844
83	0xbcb33ad5	-0.02187864
84	0x3b666455	0.0035155017
85	0xba44865a	-0.00074968266
86	0xbd0e80f8	-0.034790963
87	0xbd2fa0df	-0.042878028
88	0xbdb91e00	-0.09038925
89	0xbd95b50a	-0.07309921
90	0xbc405712	-0.011739509
91	0xbd54231e	-0.051791303
92	0xbd60154d	-0.054707814
93	0xbddbaef2	-0.107267275
94	0xbe0e5845	-0.1390086
95	0xbda786ac	-0.081799835
96	0xbc226311	-0.009911315
97	0xbd204e1c	-0.03913699
98	0xbd1c672b	-0.038184326
99	0xbd96099f	-0.07326054
100	0xbde1acb3	-0.11019268
101	0xbd4ee521	-0.050511483
102	0x3a677dc3	0.00088306906
103	0xbcc00acd	-0.02344265
104	0xbce6d5a8	-0.028178051
105	0xbce7996f	-0.028271405
106	0xbd616f56	-0.05503782
107	0xbb0ab757	-0.0021166408
108	0x3c1a92a0	0.009434372
109	0x3d15a50c	0.036534354
110	0x3cfb90f0	0.03070876
111	0x3d05c7a0	0.03266108
112	0x3d5faa22	0.05460561
113	0x3c3ab552	0.011395769
114	0x3ba9c71b	0.005181206
115	0x3d2bcd44	0.041943803
116	0x3d842edc	0.0645425
117	0x3cdcaeaf	0.026938764
118	0x3d1355bf	0.035970446
119	0x3ce1a959	0.027546572
120	0xbb3d8471	-0.0028918053
121	0x3d6d7afe	0.057978623
122	0x3d9f734a	0.077856615
123	0x3d7b0042	0.061279543
124	0x3dac2e03	0.084072135
125	0x3d17fc9d	0.037106145
126	0xbb8db7b8	-0.0043248795
127	0x3cf259c1	0.029583814
128	0x3d02bee4	0.03192033
129	0x3dca21e3	0.09869745
130	0x3dcb3ddc	0.09923908
131	0x3c243913	0.010023373
132	0x3cc2d9af	0.02378544
133	0x3d91398c	0.07091054
134	0x3d579f9a	0.052642442
135	0x3db2fa12	0.087391034
136	0x3d8c0e5e	0.06838678
137	0x3c74be93	0.014938015
138	0xbaf9cf10	-0.0019058902
139	0x3d164906	0.036690734
140	0x3d145b65	0.036219973
141	0x3d30760c	0.04308133
142	0x3d8f82eb	0.070073925
143	0x3d2d63a2	0.042331345
144	0x3ca1b15f	0.019737897
145	0x3d7ba627	0.061437752
146	0x3e01ab94	0.12663108
147	0xbbfd6b60	-0.0077337474
148	0xbb903dfe	-0.0044019213
149	0x3cd24826	0.025669169
150	0x3c734801	0.01484871
151	0x3d723821	0.05913556
152	0x3dd89a92	0.10576357
153	0x3dabae93	0.08382907
154	0xb96e0102	-0.00022697824
155	0x3b7f994e	0.0039001289
156	0x3d30b640	0.043142557
157	0xbb95d5f1	-0.004572623
158	0x3c37c270	0.011215791
159	0x3db45eb6	0.08807127
160	0x3c0fb10c	0.008770239
161	0x3b808814	0.003922472
162	0xbb1f5505	-0.002431215
163	0xbca58601	-0.0202055
164	0x3be88fc1	0.007097215
165	0x3db95110	0.090486646
166	0xbc9f6d4a	-0.019461293
167	0x3ca09493	0.019602096
168	0x3c99d522	0.018778387
169	0x3c4a36c4	0.012342159
170	0x3d93928c	0.07205686
171	0x3d90099d	0.070330836
172	0x3d28e78a	0.041236438
173	0x3da110de	0.07864545
174	0xbc79f88e	-0.015257014
175	0xbb594735	-0.0033154015
176	0x3cc9d2c4	0.024636634
177	0x3d82f964	0.06395224
178	0x3cb65bd7	0.02226059
179	0xbc46518f	-0.012104406
180	0x3b83952e	0.0040155863
181	0x39744827	0.00023296532
182	0x3d823fda	0.06359835
183	0x3d9b5945	0.07585386
184	0xbba11a37	-0.004916455
185	0x3cbaac8d	0.022787357
186	0xbd11df10	-0.03561312
187	0x3cb57e4d	0.022154951
188	0x3cf5cd76	0.030005198
189	0x3dd1751e	0.102274165
190	0xbcc5c03d	-0.024139518
191	0x3caef8e3	0.021358913
192	0xbc9f94f2	-0.019480202
193	0xba9b9e76	-0.0011872787
194	0x3d6df89c	0.05809842
195	0x3e15f8a8	0.14645636
196	0x3bff67cc	0.007794356
197	0x3ca8d2d9	0.020608352
198	0x3cc93cfd	0.024565214
199	0x3d45a88c	0.048256442
200	0x3d2f3f55	0.042785008
201	0x3d3eae7f	0.04655313
202	0x3d62f8fe	0.05541324
203	0x3cecaeb8	0.028891906
204	0x3bcd34d1	0.0062623997
205	0x3d9b39a6	0.07579355
206	0xbc15ad19	-0.009135508
207	0x3bae2744	0.0053147394
208	0x3db5a796	0.08869855
209	0x3d86795c	0.06566116
210	0xbd7ee916	-0.062234007
211	0x3c507975	0.01272427
212	0x3b9f55b6	0.0048625125
213	0xbcc9d962	-0.024639789
214	0x3dd2083c	0.10255477
215	0xbcd82fbf	-0.026389955
216	0x3c1ead23	0.009684834
217	0x3c9e5229	0.019326286
218	0x3d2782a9	0.04089609
219	0x3d31ca7a	0.043405987
220	0x3b21fcd0	0.0024717338
221	0x3ca26886	0.019825231
222	0x3b4d5fed	0.0031337694
223	0xbc8eced2	-0.017432604
224	0x3c904ad2	0.017613802
225	0xbcab9ebe	-0.020949718
226	0xbd5bf00f	-0.053695735
227	0xbc22fcec	-0.009947997
228	0x3bf25c1a	0.0073962333
229	0xbc3d71aa	-0.011562744
230	0x3da39d47	0.07988983
231	0x3decb4d1	0.115579255
232	0x3d24906a	0.040176786
233	0x3d5fa497	0.054600324
234	0x3d63dd29	0.055630837
235	0x3d129d61	0.03579462
236	0x3c2b0e7c	0.010440465
237	0x3d6da0e8	0.05801478
238	0x3de40c5a	0.111351684
239	0x3dd218e6	0.10258655
240	0x3d10404d	0.035217572
241	0x3cd65d15	0.026167432
242	0x3c655ba0	0.013998896
243	0x3c900100	0.017578602
244	0x3d1bca32	0.038034625
245	0xbcc04f77	-0.023475392
246	0x3c35e4ea	0.011101941
247	0x3cf4e38a	0.029893655
248	0x3c8c14c1	0.01709974
249	0x3d7e48c5	0.062081117
250	0x3c43e26d	0.01195584
251	0xbd009d78	-0.031400174
252	0x3c841936	0.016125303
253	0xbcabc536	-0.020968061
254	0xbc392cad	-0.011302155
255	0x3c90993e	0.017651197
