data/chkbox_models/chkbox_rnd9_4_bestVal.pt (torch_old, 236310 bytes, 31 tensors)

layer1.0.weight f4 [4, 1, 3, 3]
-0.015822297 0.2445823 -0.13482167 -0.09037083 -0.23053972 -0.041246977 -0.064577684 -0.08077364
-0.019782545 0.17280272 0.1374489 0.14746904 0.08376704 -0.05314891 0.36620462 -0.17272036
-0.0509632 -0.17321227 -0.24969465 -0.132078 0.2174469 -0.28141809 0.19815776 0.24310403
-0.24350914 -0.14373738 -0.14555243 -0.26578027 -0.26079512 -0.07645874 -0.19700128 -0.10381306
-0.31786218 -0.007700101 0.0946612 0.027246209
00000000: c39d 81bc c873 7a3e b10e 0abe 5714 b9bd
00000010: 9b12 6cbe 97f2 28bd 4e41 84bd a66c a5bd
00000020: 010f a2bc 32f3 303e 68bf 0c3e 2002 173e
00000030: 0e8e ab3d acb2 59bd 2c7f bb3e 9bdd 30be
00000040: cabe 50bd 8f5e 31be f4af 7fbe 753f 07be
00000050: 66aa 5e3e 0816 90be dee9 4a3e 43f0 783e
00000060: 765a 79be e42f 13be b20b 15be 5a14 88be
00000070: f086 85be 6696 9cbd b4ba 49be f19b d4bd
00000080: d5be a2be 2151 fcbb bbdd c13d 7133 df3c

layer1.0.bias f4 [4]
-0.1987814 -0.06589992 0.18173103 -0.21642132
00000000: 5a8d 4bbe 8af6 86bd b317 3a3e 8d9d 5dbe

layer1.1.weight f4 [4]
0.99160475 0.99445266 1.0035259 1.0073773
00000000: cfd9 7d3f 7394 7e3f 8973 803f bdf1 803f

layer1.1.bias f4 [4]
0.030704992 0.007999001 -0.013657068 0.043629874
00000000: 0989 fb3c 3e0e 033c e5c1 5fbc 3db5 323d

layer1.1.running_mean f4 [4]
-0.69607663 0.45755833 -0.42304456 -1.483207
00000000: 1432 32bf 1645 ea3e 4c99 d8be bad9 bdbf

layer1.1.running_var f4 [4]
0.2856574 0.41307783 0.5659748 1.7066278
00000000: b041 923e f07e d33e b9e3 103f c872 da3f

layer2.0.weight f4 [8, 4, 3, 3]
0.057639528 -0.044247743 -0.012451707 0.024483018 0.07664276 -0.056472696 0.0065529346 0.11322842
0.07952927 -0.10705828 -0.050592545 -0.09875148 -0.14636883 0.06428453 -0.09653168 -0.12987685
0.11995119 0.12188557 -0.064180225 0.08129945 0.13120145 -0.10311677 -0.06417652 0.09263148
0.039205115 0.034525767 -0.06095201 -0.12228022 0.12722404 0.12623328 -0.12762351 -0.052323114
0.07628446 -0.11060551 -0.044607025 0.044626508 -0.16317232 0.13542055 0.05352648 0.050029352
0.026663937 -0.025584323 -0.07252691 -0.12643805 0.037435632 0.047203176 -0.1341951 0.12101783
-0.1275749 -0.13584918 -0.028425384 0.13946481 0.15624878 0.14094217 0.19362134 0.120473884
-0.16912244 0.1829201 -0.020719668 -0.099029936 0.008465629 0.07000318 -0.18397486 0.08239957
0.09075552 -0.09197218 -0.13520661 0.11311825 0.1359288 -0.1527648 0.090131015 -0.08270846
0.051686477 0.11154226 -0.1579297 -0.0099182 -0.1001259 0.0382303 0.08391086 -0.020650687
0.023109995 -0.027248224 0.06847548 -0.18707418 -0.08264591 -0.17273565 0.08568514 -0.05064011
-0.13324745 -0.08165902 -0.056621566 0.05814462 0.08907919 -0.060222693 0.02955022 0.00075268943
0.060748365 -0.06900232 -0.008267773 0.050969902 -0.09724353 0.10433619 -0.10727148 -0.119064406
0.15383849 0.027382763 0.10657819 0.09251289 -0.057808883 0.033628378 -0.0756609 -0.038085006
-0.06944271 -0.13568449 -0.17135362 -0.1639365 -0.011073757 0.01836673 0.02040131 -0.015398161
-0.07766418 -0.026141914 0.03885959 -0.107058704 -0.07630578 -0.0777725 -0.10488808 0.14430432
-0.013689984 0.121247284 -0.020942673 -0.012509591 -0.047410052 -0.14572977 -0.13469574 0.007899502
0.016304374 0.09168303 -0.12852468 -0.119498536 -0.07331249 0.098857105 0.13102703 0.07484832
-0.14127769 0.054560892 -0.14756769 -0.103544466 0.035713043 0.0057732724 -0.08163379 0.14888734
-0.104834445 0.0128833875 0.016219618 0.15299927 0.068157636 0.062273156 -0.047690723 -0.09255289
0.14403865 0.06836413 0.093388975 -0.023245968 -0.017999278 0.0011126333 -0.18013832 0.092779085
-0.077750795 0.026015388 0.027259579 0.10826097 -0.13087617 -0.05700415 -0.06876143 -0.0009836435
-0.088806495 -0.03960988 0.002726224 0.024585003 -0.0060959477 0.11640067 0.16826929 0.16317292
-0.11956523 0.05997366 -0.035379414 -0.010772293 0.12729394 0.11040237 0.12820897 -0.105217256
-0.030556893 -0.1163553 0.1261746 -0.17226496 -0.00048754935 0.0928556 -0.10705871 0.13710526
0.14228578 -0.107366234 0.12603684 -0.015081366 0.034197308 -0.0412809 -0.09720872 -0.08656733
0.14914407 0.1477488 0.0451061 0.07625367 -0.08521616 0.14160332 0.10009411 0.0053755376
-0.038730096 -0.019492052 0.06922924 0.106643304 0.043007676 0.086106345 -0.11317801 -0.14390656
0.16493186 -0.15708154 -0.14711185 -0.16868508 -0.053442374 -0.026952324 -0.037724182 -0.051765583
0.08877653 0.08816765 0.1435315 -0.10914531 -0.015905423 -0.12190323 -0.13391662 -0.05168184
0.015833357 -0.056834374 -0.044640567 -0.013429596 0.09730508 0.031014228 0.10369854 0.15847139
0.13624789 0.158914 0.072170794 -0.14104523 0.009104033 -0.15927973 0.103952244 -0.05758064
00000000: 6d17 6c3d 1f3d 35bd 3f02 4cbc 9c90 c83c
00000010: e1f6 9c3d ea4f 67bd 00ba d63b 4de4 e73d
00000020: 3ee0 a23d 5f41 dbbd 213a 4fbd 373e cabd
00000030: b6e1 15be 9ca7 833d 67b2 c5bd 70fe 04be
00000040: f8a8 f53d 249f f93d ec70 83bd 5380 a63d
00000050: ac59 063e e32e d3bd fb6e 83bd 93b5 bd3d
00000060: 8b95 203d e46a 0d3d d1a8 79bd 0d6e fabd
00000070: 0547 023e 4c43 013e bdaf 02be c350 56bd
00000080: 073b 9c3d 2485 e2bd dbb5 36bd 49ca 363d
00000090: a516 27be afab 0a3e 953e 5b3d 94eb 4c3d
000000a0: 546e da3c 3796 d1bc fd88 94bd fa78 01be
000000b0: 1b56 193d 1e58 413d 716a 09be 32d8 f73d
000000c0: ffa2 02be 0c1c 0bbe 5adc e8bc ddcf 0e3e
000000d0: aeff 1f3e 2553 103e ac44 463e 03bb f63d
000000e0: 6f2e 2dbe 684f 3b3e 4bbc a9bc 35d0 cabd
000000f0: 6cb3 0a3c d45d 8f3d e863 3cbe 1bc1 a83d
00000100: 08de b93d e95b bcbd 9a73 0abe 8baa e73d
00000110: eb30 0b3e 606e 1cbe 9c96 b83d 0e63 a9bd
00000120: 33b5 533d 4570 e43d 53b8 21be f27f 22bc
00000130: cf0e cdbd 6097 1c3d 75d9 ab3d a12b a9bc
00000140: 2c51 bd3c ab37 dfbc df3c 8c3d 6090 3fbe
00000150: 4242 a9bd 9de1 30be b17b af3d 016c 4fbd
00000160: 0572 08be d83c a7bd 04ec 67bd 0e29 6e3d
00000170: 266f b63d 12ac 76bd 4e13 f23c 2250 453a
00000180: 47d3 783d 1751 8dbd 8e75 07bc d1c5 503d
00000190: 9e27 c7bd 36ae d53d 26b1 dbbd 0ad8 f3bd
000001a0: d687 1d3e d151 e03c ab45 da3d 6677 bd3d
000001b0: 02c9 6cbd e9bd 093d 1af4 9abd 06ff 1bbd
000001c0: fb37 8ebd e0f0 0abe 5377 2fbe f8de 27be
000001d0: b46e 35bc d375 963c a620 a73c 9148 7cbc
000001e0: 660e 9fbd 9127 d6bc 3c2b 1f3d 9841 dbbd
000001f0: 3446 9cbd 3047 9fbd 90cf d6bd 83c4 133e
00000200: f44b 60bc 7f50 f83d f88f abbc 07f5 4cbc
00000210: 0b31 42bd 2f3a 15be aeed 09be ea6c 013c
00000220: c090 853c 50c4 bb3d f99b 03be a6bb f4bd
00000230: dc24 96bd 9875 ca3d f32b 063e 134a 993d
00000240: 19ab 10be 3e7b 5f3d fc1b 17be 1f0f d4bd
00000250: d747 123d b82d bd3b 9e2f a7bd ec75 183e
00000260: 71b3 d6bd d814 533c 01df 843c d7ab 1c3e
00000270: 3b96 8b3d 2312 7f3d 5957 43bd 5f8c bdbd
00000280: de7e 133e 7e02 8c3d b842 bf3d 546e bebc
00000290: 3973 93bc c7d5 913a 2e76 38be f602 be3d
000002a0: cf3b 9fbd 391e d53c 7b4f df3c edb7 dd3d
000002b0: 6704 06be 2f7d 69bd cbd2 8cbd 99ed 80ba
000002c0: 2ee0 b5bd f83d 22bd 73aa 323b 7d66 c93c
000002d0: 84c0 c7bb 7963 ee3d c94e 2c3e cd16 273e
000002e0: 9ede f4bd f1a6 753d 01ea 10bd 467e 30bc
000002f0: 5859 023e a31a e23d 3649 033e 257c d7bd
00000300: 7352 fabc b04b eebd ea33 013e 3a66 30be
00000310: c49d ffb9 142b be3d 9941 dbbd 5265 0c3e
00000320: 5db3 113e d4e2 dbbd cd0f 013e d517 77bc
00000330: 7a12 0c3d 2916 29bd 5e15 c7bd 364a b1bd
00000340: 39b9 183e 764b 173e 2dc1 383d e22a 9c3d
00000350: cf85 aebd 7600 113e 24fe cc3d 4725 b03b
00000360: 73a3 1ebd ccad 9fbc 0fc8 8d3d ce67 da3d
00000370: d128 303d 8658 b03d dfc9 e7bd 3e5c 13be
00000380: e6e3 283e fcd9 20be 7da4 16be c8bb 2cbe
00000390: 64e6 5abd 1fcb dcbc ac84 1abd 2608 54bd
000003a0: 78d0 b53d 3e91 b43d ecf9 123e 9487 dfbd
000003b0: 174c 82bc 67a8 f9bd 7021 09be 56b0 53bd
000003c0: f5b4 813c 29cb 68bd 07d9 36bd cf07 5cbc
000003d0: e347 c73d 8d11 fe3c e65f d43d 5346 223e
000003e0: 9184 0b3e 5aba 223e 48ce 933d 296e 10be
000003f0: 1529 153c 3a1a 23be eae4 d43d add9 6bbd

layer2.0.bias f4 [8]
0.117643565 -0.11460744 -0.062055994 -0.0066529224 0.021575242 -0.110278495 -0.08491183 0.10639584
00000000: 1cef f03d 4eb7 eabd 6d2e 7ebd c200 dabb
00000010: 90be b03c b1d9 e1bd 41e6 adbd 10e6 d93d

layer2.1.weight f4 [8]
1.0015596 1.0061134 0.9935327 1.0044999 0.9874695 1.0039527 1.0041201 0.9896742
00000000: 1b33 803f 53c8 803f 2958 7e3f 7493 803f
00000010: cdca 7c3f 8681 803f 0287 803f 4a5b 7d3f

layer2.1.bias f4 [8]
0.013592945 0.029833205 0.023769833 0.005525941 0.02216247 0.010700257 0.045327984 0.022553226
00000000: f2b4 5e3c c464 f43c f4b8 c23c f412 b53b
00000010: 118e b53c 2150 2f3c d6a9 393d 8bc1 b83c

layer2.1.running_mean f4 [8]
0.08946385 -0.007840004 -0.18262199 -0.43709487 -0.08689055 0.3098872 -0.085365996 0.17818987
00000000: d338 b73d 5c73 00bc 4201 3bbe e6ca dfbe
00000010: acf3 b1bd 89a9 9e3e 5ed4 aebd 6877 363e

layer2.1.running_var f4 [8]
0.12322273 0.11884159 0.22634487 0.10086821 0.21161845 0.22269766 0.26520383 0.17441994
00000000: 335c fc3d 3863 f33d f3c6 673e fe93 ce3d
00000010: 82b2 583e db0a 643e ccc8 873e 249b 323e

layer3.0.weight f4 [16, 8, 3, 3]
0.08685766 -0.08398884 0.048847508 -0.06408094 -0.081050165 -0.10311454 -0.09660682 0.009769703
0.0474539 -0.114996776 0.053166658 0.0043805116 -0.07168264 -0.11561654 0.06029609 -0.13617131
0.0069200806 -0.056012604 -0.013212611 -0.053030014 -0.05595368 0.00880971 0.055327293 -0.058988623
-0.090788774 -0.096034706 0.08242768 0.110509604 -0.06849899 0.06564605 0.09873834 0.09822916
-0.0069691814 -0.08599203 0.0087968 0.1018836 0.080347575 0.033189453 -0.057106983 -0.06845312
0.09672043 -0.07648061 -0.11188783 -0.043187235 -0.12582344 0.09432173 0.112853795 0.09484863
0.10132573 0.09754658 -0.038313504 0.08388416 0.08702111 -0.0633605 -0.12564091 -0.094162
0.09509807 -0.051208943 0.06281309 0.045913354 -0.087032765 0.016287562 0.0009855744 -0.09512135
0.02228943 -0.0940242 -0.06298171 0.015808372 -0.10041042 -0.10980939 -0.03639327 0.046934623
-0.10694571 -0.012029919 -0.12452661 -0.031178122 -0.08075158 -0.07090862 -0.045901086 -0.10450475
-0.10222741 -0.02504302 0.09734935 0.03278379 -0.038502842 0.05693116 0.0007129749 0.020564828
-0.06848077 0.047003463 0.023076901 0.04505747 -0.12277602 -0.0585025 -0.076393016 -0.12685573
0.09486561 0.069550894 -0.057274733 -0.13941203 -0.058301724 0.09640024 0.05115149 -0.04815072
0.02850729 0.05021432 -0.08697163 -0.010663019 0.050948173 -0.014687499 -0.056823235 0.02110389
-0.032452755 0.084174246 0.0707881 -0.056917652 0.10335573 -0.019799734 0.05254185 -0.017114142
-0.078387626 0.09537806 0.036098234 -0.01874182 -0.066849686 -0.00024364058 0.073164 -0.09395219
-0.13177611 0.011736206 -0.08636119 0.09330796 -0.04691188 0.07724262 0.005534893 -0.09854147
-0.102359354 0.095631465 -0.039605096 -0.1252882 -0.122321114 0.09831835 -0.044026263 0.021540528
0.05487642 0.09186081 -0.054643508 0.0696595 -0.10428176 -0.016853506 -0.0021351927 0.01251989
0.036279235 0.08890029 -0.0067654587 0.004405647 -0.028442992 -0.08840587 -0.08021964 -0.11205893
-0.058471274 -0.04725113 -0.053972695 0.090016425 -0.0907893 -0.0023845858 0.06338134 -0.1103876
0.07592171 -0.07039149 0.053405743 -0.06346398 -0.13177623 -0.038922183 -0.11609018 -0.0029644351
0.064535215 -0.099336155 -0.014139595 -0.09575501 0.029087016 0.09661373 0.06285568 -0.020082349
0.07232861 0.009150901 -0.0634654 -0.10306743 0.034870867 -0.024565427 -0.01444889 -0.060794327
-0.082123 -0.10977297 0.058776416 0.018010013 0.09985935 -0.02145786 -0.062696226 0.02468566
0.020953618 -0.11118597 -0.014696464 -0.018531693 -0.09968109 -0.030685011 0.06280729 0.020573698
-0.01242605 -0.052310117 0.10203704 -0.025634961 0.04796805 0.09836453 0.014109912 0.051544204
0.13332567 0.07330215 -0.09960902 0.12091242 0.015920306 -0.07506646 0.052119307 0.041520365
0.040306445 -0.043348454 -0.07782021 -0.065619126 -0.08291077 0.09882881 0.08736639 0.031850018
-0.107586145 -0.02540825 0.051453024 0.013057788 -0.092853084 -0.031259064 0.08243474 0.08589329
-0.013991919 0.003939117 0.043326613 0.047517326 -0.031574246 -0.1171056 -0.12283198 -0.05576393
-0.08625472 -0.112647735 -0.0036877212 0.062836885 -0.011270336 -0.07732718 -0.02579125 0.048167314
00000000: 6ee2 b13d 5702 acbd 5314 483d de3c 83bd
00000010: a1fd a5bd b72d d3bd ccd9 c5bd 1b11 203c
00000020: 055f 423d 6e83 ebbd 48c5 593d 658a 8f3b
00000030: 59ce 92bd 5dc8 ecbd 08f9 763d 7e70 0bbe
00000040: d8c1 e23b 796d 65bd b579 58bc 0036 59bd
00000050: b02f 65bd 9a56 103c df9e 623d 0e9e 71bd
00000060: 77ef b9bd d8ad c4bd d8cf a83d dc52 e23d
00000070: 3349 8cbd 7071 863d 5437 ca3d 5f2c c93d
00000080: bb5d e4bb 971c b0bd 7420 103c 59a8 d03d
00000090: 458d a43d aaf1 073d 03e9 69bd 2631 8cbd
000000a0: 5c15 c63d dea1 9cbd 7225 e5bd 19e5 30bd
000000b0: dcd7 00be c02b c13d e41f e73d 0040 c23d
000000c0: dd83 cf3d 80c6 c73d 9fee 1cbd 75cb ab3d
000000d0: 2038 b23d 26c3 81bd 03a8 00be 02d8 c0bd
000000e0: c7c2 c23d 78c0 51bd 26a4 803d a40f 3c3d
000000f0: 3c3e b2bd 7e6d 853c 642e 813a fbce c2bd
00000100: 5398 b63c c38f c0bd 8efc 80bd 8f80 813c
00000110: faa3 cdbd bfe3 e0bd 1c11 15bd 853e 403d
00000120: 5a06 dbbd 2319 45bc cf07 ffbd 4369 ffbc
00000130: 1661 a5bd 8a38 91bd c702 3cbd 9606 d6bd
00000140: 9b5c d1bd 0527 cdbc 195f c73d 4c48 063d
00000150: 28b5 1dbd a630 693d f0e6 3a3a 9277 a83c
00000160: a53f 8cbd b486 403d c50b bd3c 2f8e 383d
00000170: fe71 fbbd 51a0 6fbd f173 9cbd 78e6 01be
00000180: e748 c23d b370 8e3d e998 6abd 07c2 0ebe
00000190: cacd 6ebd 7d6d c53d 3a84 513d b039 45bd
000001a0: 1f88 e93c 88ad 4d3d 2f1e b2bd f1b3 2ebc
000001b0: 08af 503d d6a3 70bc 7bbf 68bd 11e2 ac3c
000001c0: 2eed 04bd 8c63 ac3d 5af9 903d 7c22 69bd
000001d0: 2bac d33d 0d33 a2bc 1f36 573d f532 8cbc
000001e0: b189 a0bd 9355 c33d bedb 133d 7288 99bc
000001f0: 7de8 88bd c579 7fb9 02d7 953d 016a c0bd
00000200: 51f0 06be 3749 403c 23de b0bd 3e18 bf3d
00000210: ac26 40bd 6131 9e3d 0c5e b53b 1cd0 c9bd
00000220: c8a1 d1bd 6eda c33d f438 22bd 8d4b 00be
00000230: 7e83 fabd 225b c93d e254 34bd c375 b03c
00000240: 19c6 603d 8521 bc3d dfd1 5fbd a4a9 8e3d
00000250: ad91 d5bd 5d10 8abc 97ee 0bbb 3a20 4d3c
00000260: 8999 143d 5b11 b63d c8b0 ddbb 3f5d 903b
00000270: 4701 e9bc 230e b5bd 324a a4bd 277f e5bd
00000280: 937f 6fbd 678a 41bd 7912 5dbd 885a b83d
00000290: beef b9bd b646 1cbb 13ce 813d e512 e2bd
000002a0: d77c 9b3d 6a29 90bd fbbf 5a3d 67f9 81bd
000002b0: 59f0 06be de6c 1fbd b0c0 edbd f846 42bb
000002c0: 0a2b 843d c170 cbbd c3a9 67bc 341b c4bd
000002d0: e547 ee3c 6bdd c53d 7bba 803d bd83 a4bc
000002e0: 0621 943d a9ed 153c 26fa 81bd 0415 d3bd
000002f0: c1d4 0e3d 6f3d c9bc 0abb 6cbc 7903 79bd
00000300: 1a30 a8bd a7d0 e0bd 8abf 703d bc89 933c
00000310: 0f83 cc3d 65c8 afbc e166 80bd 9539 ca3c
00000320: eca6 ab3c 78b5 e3bd 70c9 70bc c7cf 97bc
00000330: 9925 ccbd 225f fbbc 1ca1 803d 2c8a a83c
00000340: a296 4bbc 2243 56bd ccf8 d03d 6900 d2bc
00000350: 257a 443d 5873 c93d 432d 673c 0420 533d
00000360: 8686 083e 701f 963d d0ff cbbd eea0 f73d
00000370: 4d6b 823c 72bc 99bd 0e7b 553d 4211 2a3d
00000380: 5f18 253d 268e 31bd 3460 9fbd 5263 86bd
00000390: 1fcd a9bd c266 ca3d 26ed b23d 2a75 023d
000003a0: 2056 dcbd f624 d0bc 68c0 523d 55f0 553c
000003b0: c229 bebd 8109 00bd 8cd3 a83d d2e8 af3d
000003c0: 5d3e 65bc b513 813b 3f77 313d 87a1 423d
000003d0: ff53 01bd 10d5 efbd 558f fbbd b868 64bd
000003e0: 51a6 b0bd dbb3 e6bd b2ad 71bb a0b0 803d
000003f0: 37a7 38bc b65d 9ebd 2c48 d3bc 174b 453d

layer3.0.bias f4 [16]
0.08844743 -0.030246314 -0.040684655 -0.090172365 0.032394912 0.11036474 -0.09675128 -0.061840963
-0.0661896 -0.08009373 -0.077721976 -0.015316337 -0.10310922 0.0136734275 -0.062314995 0.046193346
00000000: ed23 b53d 1ec7 f7bc f4a4 26bd 4aac b8bd
00000010: 87b0 043d e906 e23d 8925 c6bd f34c 7dbd
00000020: 6a8e 87bd 2e08 a4bd b32c 9fbd 60f1 7abc
00000030: ed2a d3bd 8306 603c 023e 7fbd 3c35 3d3d

layer3.1.weight f4 [16]
0.9873679 0.992644 0.9935158 0.9850916 1.0146105 0.99840504 1.0274502 1.0315075
0.99854845 1.0021248 1.0046785 0.9835858 0.9817696 0.9717797 1.0015072 1.0075903
00000000: 25c4 7c3f eb1d 7e3f 0d57 7e3f f72e 7c3f
00000010: c2de 813f 7997 7f3f 7d83 833f 7008 843f
00000020: dfa0 7f3f a045 803f 4e99 803f 47cc 7b3f
00000030: 4155 7b3f 8ec6 783f 6331 803f b8f8 803f

layer3.1.bias f4 [16]
-0.015474249 -0.014584665 -0.03324672 -0.013513542 -0.029086988 0.0020778172 0.045748625 0.010805983
-0.031749304 -0.034932073 -0.0050222315 -0.02773296 -0.020949017 -0.005328109 -0.029459298 -0.003733658
00000000: b487 7dbc 85f4 6ebc b62d 08bd e767 5dbc
00000010: d647 eebc fd2b 083b e962 3b3d 940b 313c
00000020: 8f0b 02bd ef14 0fbd 8891 a4bb 3c30 e3bc
00000030: 469d abbc 6b97 aebb a054 f1bc 63b0 74bb

layer3.1.running_mean f4 [16]
-0.16668653 -0.4511051 -0.3387709 0.07225274 0.43783864 0.1042648 -0.4365427 -0.45973387
0.30735078 -0.98292905 0.419189 0.48779035 -0.47116938 0.1134252 0.037246276 -0.30503532
00000000: e0af 2abe 3ff7 e6be 6173 adbe 3ff9 933d
00000010: 632c e03e c988 d53d 8682 dfbe 3d62 ebbe
00000020: 155d 9d3e 3da1 7bbf f19f d63e a8bf f93e
00000030: 1d3d f1be 794b e83d 8d8f 183d 972d 9cbe

layer3.1.running_var f4 [16]
0.12816897 0.28634876 0.09483528 0.3653534 0.15765972 0.11208555 0.18840559 0.17167582
0.1554018 0.38291347 0.4277588 0.17624415 0.18304679 0.116283916 0.09651324 0.13705254
00000000: ba3e 033e 4e9c 923e 0039 c23d 9a0f bb3e
00000010: 8d71 213e 1c8d e53d 65ed 403e c9cb 2f3e
00000020: a621 1f3e 3c0d c43e 3403 db3e 5979 343e
00000030: 9e70 3b3e 4326 ee3d bca8 c53d 8057 0c3e

layer4.0.weight f4 [64, 16, 3, 3]
-0.017572643 -0.08100166 0.064905494 0.030187767 -0.047555327 -0.07343769 -0.03604699 -0.02131584
0.034246705 0.05370784 -0.07742625 0.04117477 -0.050023004 0.019452263 0.04089365 -0.044776488
0.045362085 -0.08630417 0.029893275 0.081307314 0.059188806 0.01800975 0.0734058 -0.048749354
-0.019964276 0.0042325547 -0.051617734 -0.026435534 -0.06251327 -0.04236078 -0.018646937 -0.0122747915
-0.048712 -0.035372216 0.053453263 0.07290965 0.0613233 0.044538453 0.07715157 0.054901082
-0.08817403 -0.059113406 -0.038716193 0.059812367 -0.032662395 -0.0025530404 -0.025596458 -0.05556751
0.0600091 0.040671118 0.038347535 0.0261334 -0.023642927 0.059138793 0.08104512 -0.024383014
0.0077931373 -0.025243036 -0.052133016 -0.026629388 -0.035193264 -0.008266518 0.04579081 0.018288724
-0.028543705 -0.048856393 0.051888395 -0.015678508 0.0347734 0.024446076 -0.031753182 -0.014555791
0.06238923 0.063753836 -0.012685165 0.00714578 -0.060740363 -0.026557047 0.078294106 -0.03790407
0.0072167334 0.054986633 -0.012538397 0.017161852 -0.037237782 -0.003723169 0.02841306 -0.06457025
0.022554925 0.06499473 0.0034299484 0.03766897 0.072739825 0.02683389 0.017775957 0.079004236
-0.039501686 0.021004848 0.056793578 0.030581547 -0.06416358 0.0683455 0.053223465 -0.07560716
0.060984556 -0.009215304 0.0732151 -0.046368666 -0.015560571 -0.061416656 0.049967743 0.05915101
-0.031131497 0.044922516 0.0012739166 0.083769076 0.08334686 -0.045661766 0.007835731 -0.073505595
-0.010501802 -0.057648305 0.08071821 0.05979227 -0.052177563 -0.06578799 0.076606266 -0.056674507
-0.027183292 -0.011013353 -0.060817078 0.0015444456 0.08463852 -0.0099856965 0.058186654 -0.07697039
-0.0109178815 -0.062079474 0.0833968 -0.07519123 0.089309804 0.071375966 0.044884063 0.09266188
0.06264968 -0.008290372 0.03396306 0.05004873 0.05408373 0.06444304 -0.026812633 0.012492346
0.02921001 0.03388394 0.0081515405 -0.0744856 -0.021139879 -0.00057190086 0.06296739 -0.023701003
0.0067912396 0.008766768 -0.03500736 -0.017881112 -0.004602051 0.0121918265 0.09583284 0.039688203
-0.049434043 -0.049331825 -0.017383788 0.05904879 0.025300726 0.015860604 -0.0036241384 -0.06361008
0.0016670477 -0.07035586 0.075592265 -0.048071396 -0.048612677 -0.064170465 -0.012272336 0.055640303
0.06805726 0.03227139 0.0988715 0.02196501 0.043422837 0.046785183 -0.034221355 0.007325009
0.011439906 -0.06847759 0.077294596 0.031950712 0.06263973 0.041067168 0.009676699 -0.06288362
0.05174268 0.011121574 0.041478943 -0.012412252 -0.0376751 -0.02605864 0.076141 0.068903066
0.07317809 0.06946348 0.06430727 0.0924425 -0.07553754 -0.07636928 0.014609293 -0.034324236
0.039051764 0.027704993 0.033827133 0.05016907 0.024660842 -0.022139817 -0.082651645 0.032831352
-0.0015037197 -0.04152571 -0.027968055 -0.033787873 0.042255867 -0.037158377 0.08378564 -0.021681113
0.07222024 0.020663233 0.056720946 -0.04791747 -0.025739238 0.05083066 -0.033351976 -0.07781218
0.07178991 0.06193143 0.040594425 0.03564232 -0.019712664 -0.055957574 -0.008840647 -0.0067552743
-0.04349108 -0.034418654 0.020762552 -0.0066907466 -0.040465754 -0.030241398 0.026017519 -0.025688391
00000000: 81f4 8fbc 33e4 a5bd 2ced 843d 564c f73c
00000010: 60c9 42bd 8066 96bd 02a6 13bd 8e9e aebc
00000020: 4646 0c3d c1fc 5b3d a791 9ebd e0a6 283d
00000030: ece4 4cbd 5a5a 9f3c 1a80 273d 8d67 37bd
00000040: 98cd 393d 3ec0 b0bd bee2 f43c 7384 a63d
00000050: f66f 723d 2f89 933c c855 963d 67ad 47bd
00000060: 1f8c a3bc 3eb1 8a3b 1e6d 53bd 558f d8bc
00000070: f506 80bd 7f82 2dbd 76c1 98bc 351c 49bc
00000080: 3c86 47bd 75e2 10bd cff1 5a3d a851 953d
00000090: 242e 7b3d f46d 363d a401 9e3d f5df 603d
000000a0: 9694 b4bd e620 72bd df94 1ebd d0fd 743d
000000b0: 01c9 05bd e950 27bb aaaf d1bc c29a 63bd
000000c0: 1acc 753d c296 263d 4e12 1d3d b615 d63c
000000d0: d0ae c1bc 853b 723d fcfa a53d e3be c7bc
000000e0: 935d ff3b 7cca cebc 6e89 55bd e025 dabc
000000f0: d026 10bd 4a70 07bc 258f 3b3d 3cd2 953c
00000100: 7dd4 e9bc a41d 48bd ed88 543d 3770 80bc
00000110: 8d6e 0e3d 2343 c83c a00f 02bd 6a7b 6ebc
00000120: d98b 7f3d 5f91 823d 70d5 4fbc 2627 ea3b
00000130: e3ca 78bd 2a8e d9bc a958 a03d 4c41 1bbd
00000140: 597a ec3b aa39 613d d96d 4dbc 0397 8c3c
00000150: a586 18bd 6900 74bb 81c2 e83c 683d 84bd
00000160: 1bc5 b83c f51b 853d fcc8 603b c74a 1a3d
00000170: 9ef8 943d bfd2 db3c e29e 913c f9cc a13d
00000180: 85cc 21bd 5c12 ac3c 62a0 683d 2786 fa3c
00000190: 3268 83bd baf8 8b3d d900 5a3d edd7 9abd
000001a0: f1ca 793d c9fb 16bc ccf1 953d 12ed 3dbd
000001b0: c4f1 7ebc 0890 7bbd faaa 4c3d 5448 723d
000001c0: 7b07 ffbc ac00 383d 8cf9 a63a 1f8f ab3d
000001d0: c2b1 aa3d d507 3bbd 7061 003c 1a8a 96bd
000001e0: c00f 2cbc a120 6cbd 974f a53d bde8 743d
000001f0: 24b8 55bd dbbb 86bd bfe3 9c3d 8723 68bd
00000200: 7faf debc 5a71 34bc 541b 79bd ff6e ca3a
00000210: f656 ad3d 0c9b 23bc 2155 6e3d a7a2 9dbd
00000220: eae0 32bc 0c47 7ebd f1cb aa3d dcfd 99bd
00000230: 0fe8 b63d 902d 923d 5ad8 373d 83c5 bd3d
00000240: 7a4e 803d 57d4 07bc d91c 0b3d e6ff 4c3d
00000250: e786 5d3d b6fa 833d 2ba6 dbbc b2ac 4c3c
00000260: d549 ef3c e3c9 0a3d 0a8e 053c e88b 98bd
00000270: 8a2d adbc 9eeb 15ba 0cf5 803d 9b28 c2bc
00000280: 0c89 de3b 7da2 0f3c e163 0fbd 697b 92bc
00000290: cdcc 96bb 3ac0 473c 0244 c43d 1990 223d
000002a0: 5a7b 4abd 2b10 4abd 7268 8ebc 25dd 713d
000002b0: 7843 cf3c 19ee 813c f482 6dbb 0046 82bd
000002c0: d780 da3a bc16 90bd 1ed0 9a3d 83e6 44bd
000002d0: 161e 47bd ce6b 83bd e811 49bc 16e7 633d
000002e0: 9b61 8b3d 012f 043d 247d ca3d f7ef b33c
000002f0: 25dc 313d d2a1 3f3d b12b 0cbd a106 f03b
00000300: 726e 3b3c fb3d 8cbd a14c 9e3d c0de 023d
00000310: 4249 803d 0c36 283d 048b 1e3c 21c9 80bd
00000320: 22f0 533d 4337 363c d3e5 293d c25c 4bbc
00000330: 3551 1abd ee78 d5bc d0ef 9b3d 0d1d 8d3d
00000340: 65de 953d de42 8e3d 88b3 833d 7e52 bd3d
00000350: 6db3 9abd 7f67 9cbd d15b 6f3c 9297 0cbd
00000360: bef4 1f3d 95f5 e23c 528e 0a3d 157e 4d3d
00000370: 8905 ca3c 905e b5bc 4445 a9bd 2b7a 063d
00000380: 7618 c5ba dd16 2abd 431d e5bc 2765 0abd
00000390: 7d14 2d3d 6233 18bd ce97 ab3d 979c b1bc
000003a0: 35e8 933d f145 a93c 3954 683d 1c45 44bd
000003b0: 18db d2bc cf33 503d 159c 08bd fe5b 9fbd
000003c0: 9706 933d d0ab 7d3d 5746 263d aefd 113d
000003d0: 747c a1bc c533 65bd 5cd8 10bc 595b ddbb
000003e0: b423 32bd 93fa 0cbd 3a16 aa3c 0d3e dbbb
000003f0: 6bbf 25bd cfbc f7bc b122 d53c 7670 d2bc

layer4.0.bias f4 [64]
0.07648958 0.060855992 0.00043445476 0.02223702 -0.08092328 0.07501344 0.07387974 -0.032376986
0.06356107 -0.0034323116 -0.052511506 -0.009893615 -0.039123032 -0.06713355 0.041802473 -0.027813783
0.04876905 0.013851765 0.02264707 0.064178124 0.078316905 0.07049729 0.056214057 0.051840495
-0.020433413 -0.06473196 0.027148854 0.014382246 0.013084439 -0.0039162766 0.03968264 -0.022463508
0.0054261866 -0.056943025 -0.014981926 0.06693916 0.05202854 0.0077219848 0.01868674 0.04438661
-0.053774014 -0.0799014 -0.012215892 0.03802009 -0.049602356 0.0005626718 0.06627066 0.03969406
-0.076588236 0.051558588 0.049851675 0.013680686 -0.049742587 -0.05221879 0.031827547 0.0047851377
0.0018860291 0.05703871 0.06778676 -0.0034233306 -0.021162713 0.05097545 -0.033941135 0.069186635
00000000: 92a6 9c3d 2244 793d 88c7 e339 692a b63c
00000010: 1bbb a5bd a5a0 993d 434e 973d bb9d 04bd
00000020: 4e2c 823d a2f0 60bb 4e16 57bd d418 22bc
00000030: 793f 20bd 517d 89bd 1239 2b3d bbd9 e3bc
00000040: 0ec2 473d 83f2 623c 5986 b93c d26f 833d
00000050: 9d64 a03d e260 903d b640 663d b356 543d
00000060: f963 a7bc 3192 84bd 4667 de3c 83a3 6b3c
00000070: 1d60 563c 1c54 80bb 448a 223d 6405 b8bc
00000080: 27ce b13b 173d 69bd c176 75bc 6617 893d
00000090: e11b 553d b408 fd3b ef14 993c bcce 353d
000000a0: 2442 5cbd 58a3 a3bd 2a25 48bc f4ba 1b3d
000000b0: d72b 4bbd 4480 133a e9b8 873d 3d96 223d
000000c0: 4bda 9cbd 192f 533d 4531 4c3d f524 603c
000000d0: e2be 4bbd 5fe3 55bd 9a5d 023d a5cc 9c3b
000000e0: a334 f73a 6ca1 693d c9d3 8a3d f559 60bb
000000f0: 6d5d adbc a2cb 503d dc05 0bbd b9b1 8d3d

layer4.1.weight f4 [64]
1.0017636 1.0237116 1.0045371 1.0241405 1.0001729 1.0174074 1.0187407 1.0162685
0.9981761 1.0015813 1.0157168 1.006159 1.006308 1.003443 1.008391 1.018108
1.0170037 1.010249 1.0239046 0.98826915 1.0292242 1.0114172 1.0196947 1.0140593
1.0096079 1.0180519 1.0205312 1.0083078 1.020627 1.0215704 1.031288 1.0214498
1.0259689 1.0182933 1.015919 1.0066175 1.0071335 1.0094113 1.0139624 1.0030313
1.0303226 1.0116867 1.0099816 1.0187062 1.0153542 1.0161477 1.0447553 1.0195147
1.0129985 1.0156717 1.0135778 1.0019375 1.0203936 1.0060809 1.0181235 1.0075877
1.0088655 1.009056 1.0155019 1.0231719 1.0102865 1.017254 1.0118489 1.0129697
00000000: ca39 803f fb08 833f ac94 803f 0917 833f
00000010: aa05 803f 683a 823f 1866 823f 1615 823f
00000020: 7888 7f3f d133 803f 0203 823f d1c9 803f
00000030: b3ce 803f d270 803f f512 813f 5d51 823f
00000040: 2d2d 823f d74f 813f 4e0f 833f 35ff 7c3f
00000050: 9ebd 833f 1e76 813f 5b85 823f b2cc 813f
00000060: d53a 813f 864f 823f c4a0 823f 3b10 813f
00000070: e8a3 823f d2c2 823f 3f01 843f debe 823f
00000080: f352 833f 6f57 823f a209 823f d8d8 803f
00000090: c0e9 803f 6434 813f 85c9 813f 5463 803f
000000a0: 9ce1 833f f37e 813f 1447 813f f764 823f
000000b0: 20f7 813f 2111 823f 8bba 853f 757f 823f
000000c0: efa9 813f 8801 823f ebbc 813f 7d3f 803f
000000d0: 429c 823f 42c7 803f df51 823f a2f8 803f
000000e0: 8122 813f bf28 813f f7fb 813f 4cf7 823f
000000f0: 1151 813f 6135 823f 4484 813f fea8 813f

layer4.1.bias f4 [64]
-0.0014239385 0.012760593 -0.000624288 0.0027131634 0.006249752 -0.00016208582 0.009800492 -0.005807192
-0.0066277147 -0.011144192 -0.0005186939 0.0039587603 -0.0004662588 -0.0005600885 -0.007744088 0.00046023104
0.008506196 -0.0017532381 0.0056889844 -0.0059532155 -0.004645473 0.0039342386 -0.0046444666 0.0014161309
0.0012413303 0.005538095 -0.00038019096 2.0131303e-05 0.0074324766 0.00088214414 0.0132081555 0.0052123754
0.005237288 0.009859531 -0.012952137 -0.008678611 0.0026554824 0.0038758495 0.0036397148 0.00035718293
-0.014751743 0.0048817224 0.0028632637 0.0028463732 0.005046693 0.014021806 -0.0062789773 0.004774037
0.0015432553 0.013775233 -0.007228911 -0.003514525 0.008165078 -0.00066626986 -0.0038237632 -0.0040916735
-0.0005925938 0.0013820307 0.00057071674 0.013847487 0.0033799047 0.00038969677 -0.004176674 0.007853633
00000000: 73a3 baba ce11 513c 42a7 23ba 54cf 313b
00000010: b8ca cc3b 95f5 29b9 3e92 203c 424a bebb
00000020: 4d2d d9bb 2196 36bc f5f8 07ba 7db8 813b
00000030: 3274 f4b9 e7d2 12ba 1ec2 fdbb 2a4b f139
00000040: 925d 0b3c e9cc e5ba a96a ba3b 3113 c3bb
00000050: 0d39 98bb c9ea 803b 9c30 98bb 789d b93a
00000060: 22b4 a23a e878 b53b 5e54 c7b9 a5df a837
00000070: 228c f33b b13f 673a 0567 583c 93cc aa3b
00000080: 8e9d ab3b df89 213c 3335 54bc bc30 0ebc
00000090: 9a07 2e3b f701 7e3b 4888 6e3b 4844 bb39
000000a0: 4bb1 71bc dbf6 9f3b 98a5 3b3b 388a 3a3b
000000b0: bb5e a53b b8bb 653c e1bf cdbb 866f 9c3b
000000c0: 0e47 ca3a 84b1 613c 80e0 ecbb f253 66bb
000000d0: d2c6 053c 9da8 2eba 1a98 7abb 7213 86bb
000000e0: 4c58 1bba 4125 b53a 279c 153a 92e0 623c
000000f0: 6481 5d3b 3750 cc39 7bdc 88bb 86ac 003c

layer4.1.running_mean f4 [64]
0.5108842 1.0228087 -0.65827215 0.22857958 -0.22066095 -0.1655859 0.41831893 0.6638551
0.28588977 -0.7068365 0.7148986 -0.21966389 -0.8436815 -0.055961706 0.3976465 0.5077544
-0.7131657 -1.0458297 0.3056365 -0.7817157 0.31577018 0.3329572 -0.6716627 0.22554342
0.19267221 -0.3491297 0.71773064 0.13136476 0.72134674 -0.8016375 -1.0761958 -1.2017691
0.81766534 -1.3737772 0.87172264 0.06308205 -0.108412474 0.030695911 0.70071214 -0.39072952
0.3972737 -0.054504104 0.2296308 -1.0875251 -0.077134304 0.28131136 0.3286295 0.27435362
-1.0860326 -0.55160505 0.45234615 0.4734528 -0.7777104 -0.11914333 -0.43719825 -0.13641831
-0.32807496 0.3830705 -0.14177957 0.57100093 -0.43421853 -0.8737687 0.4636389 0.47333395
00000000: 4fc9 023f 65eb 823f 8684 28bf c410 6a3e
00000010: f2f4 61be 5a8f 29be e62d d63e 68f2 293f
00000020: 2560 923e 3df3 34bf 9803 373f 92ef 60be
00000030: 83fb 57bf 1a38 65bd 5298 cb3e 31fc 013f
00000040: 0792 36bf bfdd 85bf 637c 9c3e 851e 48bf
00000050: a1ac a13e 5e79 aa3e 16f2 2bbf dbf4 663e
00000060: dd4b 453e 21c1 b2be 32bd 373f 7c84 063e
00000070: 2eaa 383f 1d38 4dbf c9c0 89bf 92d3 99bf
00000080: 8452 513f eed7 afbf 3729 5f3f 2931 813d
00000090: 5c07 debd fe75 fb3c df61 333f b30d c8be
000000a0: 7567 cb3e b23f 5fbd 5624 6b3e 0634 8bbf
000000b0: 97f8 9dbd 0b08 903e 2042 a83e 1478 8c3e
000000c0: 1e03 8bbf fd35 0dbf ea99 e73e 6868 f23e
000000d0: 0718 47bf 6b01 f4bd 73d8 dfbe 3eb1 0bbe
000000e0: 71f9 a7be d121 c43e aa2e 11be 1e2d 123f
000000f0: e451 debe 4eaf 5fbf 1462 ed3e d458 f23e

layer4.1.running_var f4 [64]
0.24211825 0.2106396 0.6326958 0.46143225 0.21261436 0.44468328 0.2459902 0.40783313
0.27837437 0.23135361 0.20428859 0.33603472 0.4458001 0.16675761 0.21930106 0.2882229
0.43813053 0.7847162 0.38706213 0.61668825 0.35233003 0.2821774 0.44635227 0.60289407
0.36424574 0.31278595 0.30486417 0.24037209 0.32505125 0.63430935 0.84477895 0.47163126
0.42912248 0.7234134 0.6201875 0.28212887 0.25358865 0.3135709 0.25075272 0.26752657
0.35630918 0.43099967 0.28465605 0.5160383 0.24617386 0.293868 0.54205763 0.23655592
0.8289565 0.28611284 0.63309103 0.29142976 0.55766714 0.35108528 0.5536469 0.23020524
0.55467427 0.24338274 0.4827023 0.461064 0.48314738 0.42327228 0.40645722 0.45595318
00000000: d9ed 773e e8b1 573e 5af8 213f d940 ec3e
00000010: 94b7 593e 87ad e33e dbe4 7b3e 81cf d03e
00000020: 1687 8e3e f6e7 6c3e 0731 513e be0c ac3e
00000030: e93f e43e 82c2 2a3e 7590 603e f491 933e
00000040: a552 e03e 29e3 483f 022d c63e 48df 1d3f
00000050: 9a64 b43e 8e79 903e 4988 e43e 4457 1a3f
00000060: 6b7e ba3e 7b25 a03e 2817 9c3e 1a24 763e
00000070: 1e6d a63e 1962 223f 6f43 583f a779 f13e
00000080: f1b5 db3e 9f31 393f 9cc4 1e3f 3273 903e
00000090: 5fd6 813e 5d8c a03e a962 803e 3ef9 883e
000000a0: 286e b63e fdab dc3e 70be 913e 161b 043f
000000b0: 0015 7c3e de75 963e 4ac4 0a3f b73b 723e
000000c0: 7e36 543f 627d 923e 4112 223f 4836 953e
000000d0: 46c3 0e3f 73c1 b33e cebb 0d3f ecba 6b3e
000000e0: 22ff 0d3f 5339 793e c224 f73e 9510 ec3e
000000f0: 185f f73e 25b7 d83e 291b d03e b272 e93e

layer5.0.weight f4 [64, 64, 3, 3]
-0.034798846 -0.022174438 0.014577482 -0.03339559 0.03212491 0.00235321 -0.0027266033 0.025893819
-0.0022159554 -0.031639453 0.01745215 -0.00791809 -0.013654456 0.023110617 -0.016764915 -0.016085654
0.019533288 0.018841077 -0.029197922 0.03681617 -0.0013060234 -0.041145127 -0.0034063421 0.028161515
0.026137833 0.039479468 0.029264364 6.970391e-05 -0.01650547 -0.007879 -0.0064215697 0.034173433
0.023084331 0.00057015195 -0.03593771 0.0379341 0.022632573 0.019943919 -0.026863929 0.016079288
0.037491452 -0.029780641 0.022885147 0.033128638 -0.025334701 -0.032806765 0.009769801 -0.002940055
-0.030638188 0.0284344 -0.0018455498 0.009847518 -0.01750661 -0.024733827 -0.024732783 -0.040563002
-0.03679014 -0.037311934 -0.004555583 -0.0038953088 -0.0037663728 0.016154248 -0.00783309 -0.02634446
-0.00027897954 0.008612707 -0.03434843 -0.0146682225 0.02933376 -0.018859094 -0.03795193 -0.025865342
0.031904142 0.0183664 -0.02915521 0.024998378 0.040778454 -0.010316297 0.011647716 -0.036421712
-0.008029789 -0.03532129 -0.02504394 0.017212894 0.008536443 -0.016423892 -0.037835687 -0.02568536
0.039604235 -0.005657334 -0.01845779 -0.04088096 0.039664846 -0.01794294 -0.0044727214 0.02536555
0.018576533 -0.022061225 -0.008915883 0.0044672154 -0.009391114 0.036220517 0.03217985 0.039380584
0.037918348 -0.024782136 0.034935903 -0.036341812 0.029459152 0.032511357 -0.0030774325 0.014228836
-0.033495527 -0.030477896 -0.015993327 0.020302728 0.009469222 -0.03395317 -0.040145703 0.026065897
0.021136586 0.030866962 0.008260131 0.04030207 0.028263118 0.005364388 0.005637586 -0.03349529
0.017662916 0.03385615 -0.010163289 0.010260012 0.0074036755 0.036850456 -0.005532179 0.012787014
-0.003806308 -0.007746149 -0.024332598 -0.0055926144 0.011422768 0.006627675 -0.01905407 -0.015621945
0.03716935 0.04133274 -0.03966154 0.009329502 0.027268242 0.0025018118 -0.0038693808 -0.030505236
-0.024074938 -6.131455e-05 0.007678885 0.040703688 -0.024674505 0.033791367 -0.0089785755 0.0034249574
0.00019327179 0.038943935 -0.003119886 -0.00015962496 -0.01041925 -0.0025056638 -0.032637253 -0.03263825
-0.031994637 -0.02651766 0.009914175 0.04163168 -0.014353454 -0.003744796 0.03400449 0.021853637
-0.022278782 0.034445245 0.012151331 0.0077112354 -0.008860003 -0.009717885 -0.018382683 0.02621949
-0.035072293 -0.020566598 -0.027991107 -0.013336521 0.016856402 0.0045023523 -0.035509896 0.018335361
0.034908686 0.040802073 0.006964136 0.021328408 0.024016667 0.021792825 -0.04059499 -0.0034650005
-0.022448987 0.02270681 0.034794968 -0.014168128 0.020547096 -0.013961822 -0.010067403 0.035413835
0.012690529 -0.005847413 -0.014829811 -0.021525806 -0.03934922 0.03158218 0.031012852 0.034587745
-0.011332408 0.022121351 0.027167205 -0.013261389 -0.03822703 0.030688282 -0.028960234 0.0051333867
-0.038672462 -0.03652239 -0.016375136 -0.01601858 -0.025514316 0.02860162 -0.0007341169 0.025390197
0.036413807 0.01530841 0.024361286 0.0371419 0.030657139 -0.039089777 0.03828988 -0.016890517
-0.033711925 -0.02949084 -0.003895346 -0.033319186 -0.016365599 -0.023261964 0.038913187 -0.008970171
-0.04113349 0.041273747 -0.03404098 0.004200246 0.008538123 -0.0013819784 -0.028004479 0.029833768
00000000: 3c89 0ebd 2ba7 b5bc 64d6 6e3c d0c9 08bd
00000010: 6995 033d 5038 1a3b d0b0 32bb 461f d43c
00000020: 9039 11bb 5f98 01bd d0f7 8e3c e0ba 01bc
00000030: f0b6 5fbc 7a52 bd3c 9356 89bc 10c6 83bc
00000040: 4604 a03c 9a58 9a3c 7b30 efbc 8dcc 163d
00000050: e02e abba cb87 28bd f03c 5fbb fab2 e63c
00000060: 021f d63c 39b5 213d d2bb ef3c 002e 9238
00000070: 7b36 87bc ec16 01bc 086c d2bb 71f9 0b3d
00000080: 5a1b bd3c 4076 153a 6c33 13bd c960 1b3d
00000090: f267 b93c 6e61 a33c be11 dcbc b6b8 833c
000000a0: a390 193d 88f6 f3bc a279 bb3c e5b1 073d
000000b0: b88a cfbc 6360 06bd 8411 203c f0ad 40bb
000000c0: f0fc fabc 42ef e83c 60e6 f1ba 7c57 213c
000000d0: 066a 8fbc 989e cabc 689c cabc 6425 26bd
000000e0: 42b1 16bd 66d4 18bd 0047 95bb 7048 7fbb
000000f0: 40d5 76bb ea55 843c 5c56 00bc 56d0 d7bc
00000100: 0044 92b9 501c 0d3c f0b0 0cbd fc52 70bc
00000110: 5a4d f03c 637e 9abc 7c73 1bbd 8ee3 d3bc
00000120: ebad 023d 2275 963c e8d6 eebc 66c9 cc3c
00000130: 4f07 273d b005 29bc 10d6 3e3c ef2e 15bd
00000140: 608f 03bc 0fad 10bd f328 cdbc 0e02 8d3c
00000150: 70dc 0b3c 668b 86bc 98f9 1abd 1b6a d2bc
00000160: 0d38 223d 2861 b9bb cb34 97bc cb72 27bd
00000170: 9b77 223d 13fd 92bc e88f 92bb 6acb cf3c
00000180: d02d 983c beb9 b4bc ec13 12bc b861 923b
00000190: 30dd 19bc f75b 143d 05cf 033d 894d 213d
000001a0: 4550 1b3d e803 cbbc f318 0f3d 27db 14bd
000001b0: 5254 f13c a12a 053d c0ae 49bb 1020 693c
000001c0: 9b32 09bd c8ac f9bc 7004 83bc e851 a63c
000001d0: cc24 1b3c 7b12 0bbd d26f 24bd 2688 d53c
000001e0: a226 ad3c b6dc fc3c 8055 073c c913 253d
000001f0: 0e88 e73c c0c7 af3b 80bb b83b 5b32 09bd
00000200: d2b1 903c bfac 0a3d ec83 26bc 9c19 283c
00000210: 889a f23b 81f0 163d 4847 b5bb a080 513c
00000220: 4073 79bb 68d3 fdbb 2855 c7bc 4042 b7bb
00000230: 9026 3b3c f82c d93b 4817 9cbc 30f3 7fbc
00000240: e33e 183d 854c 293d 2474 22bd c4da 183c
00000250: a661 df3c 70f5 233b 7095 7dbb 1ee6 f9bc
00000260: ce38 c5bc 0096 80b8 289f fb3b e9b8 263d
00000270: 3022 cabc d168 0a3d e01a 13bc 4075 603b
00000280: 00a9 4a39 ad83 1f3d 0077 4cbb 0061 27b9
00000290: 80b5 2abc 1036 24bb a4ae 05bd b0af 05bd
000002a0: cf0c 03bd 903b d9bc 106f 223c fb85 2a3d
000002b0: c02a 6bbc 406b 75bb 4b48 0b3d 6606 b33c
000002c0: fe81 b6bc 7516 0d3d 6016 473c 88ae fc3b
000002d0: 8c29 11bc c437 1fbc 4897 96bc 42ca d63c
000002e0: f7a7 0fbd 487b a8bc 9b4d e5bc 6c81 5abc
000002f0: 7016 8a3c 7888 933b d372 11bd 0a34 963c
00000300: 69fc 0e3d 1320 273d 6833 e43b eab8 ae3c
00000310: 9abe c43c de86 b23c ef46 26bd 1015 63bb
00000320: f0e6 b7bc a203 ba3c 2b85 0e3d 7021 68bc
00000330: 6252 a83c 20c0 64bc c0f1 24bc 190e 113d
00000340: f0eb 4f3c a89b bfbb bcf8 72bc e356 b0bc
00000350: a62c 21bd 515c 013d aa0e fe3c e1ab 0d3d
00000360: 90ab 39bc d637 b53c c28d de3c 4c46 59bc
00000370: f293 1cbd fe65 fb3c 033e edbc f835 a83b
00000380: 0467 1ebd 8098 15bd 2625 86bc 6639 83bc
00000390: 6603 d1bc f24d ea3c c071 40ba 1aff cf3c
000003a0: a526 153d 20d0 7a3c 5291 c73c 1b22 183d
000003b0: ae24 fb3c 9a1c 20bd d9d5 1c3d fb5d 8abc
000003c0: 8415 0abd c696 f1bc 1049 7fbb b379 08bd
000003d0: 2611 86bc e08f bebc 6f63 1f3d a0f7 12bc
000003e0: 977b 28bd a90e 293d 8e6e 0bbd 38a2 893b
000003f0: 7ce3 0b3c 8023 b5ba a669 e5bc f265 f43c

layer5.0.bias f4 [64]
-0.021752253 -0.033992022 -0.023771312 -0.020251408 -0.0022988208 0.0031573474 0.026590023 -0.006124813
-0.028857049 -0.028016945 0.03291243 -0.014684483 0.0035869665 0.015303995 -0.019744571 0.026331741
-0.009093881 -0.024897352 -0.011696156 -0.021628406 0.019553974 0.024830442 0.010732014 -0.018290505
0.0360828 -0.038216412 -0.036043786 -0.02137674 -0.03843854 -0.034928784 -0.031675346 -0.041578542
0.00457941 -0.038740613 0.031908307 -0.018726468 0.019229144 0.017806496 0.018132761 0.014421355
-0.016597982 -0.024502214 -0.023317143 -0.023361504 -0.016597956 -0.011666533 0.026965853 0.036763374
0.03740925 -0.010480842 -0.024043923 0.028822813 0.02991927 0.022562232 -0.0011981577 -0.03688813
0.02663016 -0.0028868914 0.041127738 0.009763997 -0.04020823 0.01183252 0.0038168542 -0.010394115
00000000: c831 b2bc 383b 0bbd 0ebc c2bc 48e6 a5bc
00000010: d0a7 16bb 80eb 4e3b 52d3 d93c a8b2 c8bb
00000020: 9e65 ecbc cb83 e5bc 2fcf 063d 3097 70bc
00000030: 5013 6b3b 9cbd 7a3c 5ebf a1bc aab5 d73c
00000040: 80fe 14bc 88f5 cbbc 3ca1 3fbc 0e2e b1bc
00000050: a82f a03c 3669 cb3c 54d5 2f3c f8d5 95bc
00000060: 8fcb 133d d088 1cbd a6a2 13bd 461e afbc
00000070: bb71 1dbd 7c11 0fbd 02be 01bd 434e 2abd
00000080: e00e 963b 7aae 1ebd 49b2 023d 4068 99bc
00000090: 7086 9d3c eede 913c 288b 943c 8c47 6c3c
000000a0: 7ef8 87bc deb8 c8bc 9803 bfbc a060 bfbc
000000b0: 70f8 87bc fc24 3fbc 7ee7 dc3c 3195 163d
000000c0: 713a 193d d6b7 2bbc c3f7 c4bc d21d ec3c
000000d0: 4219 f53c 6ed4 b83c 800b 9dba 0218 17bd
000000e0: 7e27 da3c 0032 3dbb 8f75 283d 2cf9 1f3c
000000f0: 63b1 24bd 30dd 413c 3024 7a3b 144c 2abc

layer5.1.weight f4 [64]
1.0 1.0 1.0 1.0 1.0 1.0 1.0 1.0
1.0 1.0 1.0 1.0 1.0 1.0 1.0 1.0
1.0 1.0 1.0 1.0 1.0 1.0 1.0 1.0
1.0 1.0 1.0 1.0 1.0 1.0 1.0 1.0
1.0 1.0 1.0 1.0 1.0 1.0 1.0 1.0
1.0 1.0 1.0 1.0 1.0 1.0 1.0 1.0
1.0 1.0 1.0 1.0 1.0 1.0 1.0 1.0
1.0 1.0 1.0 1.0 1.0 1.0 1.0 1.0
00000000: 0000 803f 0000 803f 0000 803f 0000 803f
00000010: 0000 803f 0000 803f 0000 803f 0000 803f
00000020: 0000 803f 0000 803f 0000 803f 0000 803f
00000030: 0000 803f 0000 803f 0000 803f 0000 803f
00000040: 0000 803f 0000 803f 0000 803f 0000 803f
00000050: 0000 803f 0000 803f 0000 803f 0000 803f
00000060: 0000 803f 0000 803f 0000 803f 0000 803f
00000070: 0000 803f 0000 803f 0000 803f 0000 803f
00000080: 0000 803f 0000 803f 0000 803f 0000 803f
00000090: 0000 803f 0000 803f 0000 803f 0000 803f
000000a0: 0000 803f 0000 803f 0000 803f 0000 803f
000000b0: 0000 803f 0000 803f 0000 803f 0000 803f
000000c0: 0000 803f 0000 803f 0000 803f 0000 803f
000000d0: 0000 803f 0000 803f 0000 803f 0000 803f
000000e0: 0000 803f 0000 803f 0000 803f 0000 803f
000000f0: 0000 803f 0000 803f 0000 803f 0000 803f

layer5.1.bias f4 [64]
0.0 0.0 0.0 0.0 0.0 0.0 0.0 0.0
0.0 0.0 0.0 0.0 0.0 0.0 0.0 0.0
0.0 0.0 0.0 0.0 0.0 0.0 0.0 0.0
0.0 0.0 0.0 0.0 0.0 0.0 0.0 0.0
0.0 0.0 0.0 0.0 0.0 0.0 0.0 0.0
0.0 0.0 0.0 0.0 0.0 0.0 0.0 0.0
0.0 0.0 0.0 0.0 0.0 0.0 0.0 0.0
0.0 0.0 0.0 0.0 0.0 0.0 0.0 0.0
00000000: 0000 0000 0000 0000 0000 0000 0000 0000
00000010: 0000 0000 0000 0000 0000 0000 0000 0000
00000020: 0000 0000 0000 0000 0000 0000 0000 0000
00000030: 0000 0000 0000 0000 0000 0000 0000 0000
00000040: 0000 0000 0000 0000 0000 0000 0000 0000
00000050: 0000 0000 0000 0000 0000 0000 0000 0000
00000060: 0000 0000 0000 0000 0000 0000 0000 0000
00000070: 0000 0000 0000 0000 0000 0000 0000 0000
00000080: 0000 0000 0000 0000 0000 0000 0000 0000
00000090: 0000 0000 0000 0000 0000 0000 0000 0000
000000a0: 0000 0000 0000 0000 0000 0000 0000 0000
000000b0: 0000 0000 0000 0000 0000 0000 0000 0000
000000c0: 0000 0000 0000 0000 0000 0000 0000 0000
000000d0: 0000 0000 0000 0000 0000 0000 0000 0000
000000e0: 0000 0000 0000 0000 0000 0000 0000 0000
000000f0: 0000 0000 0000 0000 0000 0000 0000 0000

layer5.1.running_mean f4 [64]
0.0 0.0 0.0 0.0 0.0 0.0 0.0 0.0
0.0 0.0 0.0 0.0 0.0 0.0 0.0 0.0
0.0 0.0 0.0 0.0 0.0 0.0 0.0 0.0
0.0 0.0 0.0 0.0 0.0 0.0 0.0 0.0
0.0 0.0 0.0 0.0 0.0 0.0 0.0 0.0
0.0 0.0 0.0 0.0 0.0 0.0 0.0 0.0
0.0 0.0 0.0 0.0 0.0 0.0 0.0 0.0
0.0 0.0 0.0 0.0 0.0 0.0 0.0 0.0
00000000: 0000 0000 0000 0000 0000 0000 0000 0000
00000010: 0000 0000 0000 0000 0000 0000 0000 0000
00000020: 0000 0000 0000 0000 0000 0000 0000 0000
00000030: 0000 0000 0000 0000 0000 0000 0000 0000
00000040: 0000 0000 0000 0000 0000 0000 0000 0000
00000050: 0000 0000 0000 0000 0000 0000 0000 0000
00000060: 0000 0000 0000 0000 0000 0000 0000 0000
00000070: 0000 0000 0000 0000 0000 0000 0000 0000
00000080: 0000 0000 0000 0000 0000 0000 0000 0000
00000090: 0000 0000 0000 0000 0000 0000 0000 0000
000000a0: 0000 0000 0000 0000 0000 0000 0000 0000
000000b0: 0000 0000 0000 0000 0000 0000 0000 0000
000000c0: 0000 0000 0000 0000 0000 0000 0000 0000
000000d0: 0000 0000 0000 0000 0000 0000 0000 0000
000000e0: 0000 0000 0000 0000 0000 0000 0000 0000
000000f0: 0000 0000 0000 0000 0000 0000 0000 0000

layer5.1.running_var f4 [64]
1.0 1.0 1.0 1.0 1.0 1.0 1.0 1.0
1.0 1.0 1.0 1.0 1.0 1.0 1.0 1.0
1.0 1.0 1.0 1.0 1.0 1.0 1.0 1.0
1.0 1.0 1.0 1.0 1.0 1.0 1.0 1.0
1.0 1.0 1.0 1.0 1.0 1.0 1.0 1.0
1.0 1.0 1.0 1.0 1.0 1.0 1.0 1.0
1.0 1.0 1.0 1.0 1.0 1.0 1.0 1.0
1.0 1.0 1.0 1.0 1.0 1.0 1.0 1.0
00000000: 0000 803f 0000 803f 0000 803f 0000 803f
00000010: 0000 803f 0000 803f 0000 803f 0000 803f
00000020: 0000 803f 0000 803f 0000 803f 0000 803f
00000030: 0000 803f 0000 803f 0000 803f 0000 803f
00000040: 0000 803f 0000 803f 0000 803f 0000 803f
00000050: 0000 803f 0000 803f 0000 803f 0000 803f
00000060: 0000 803f 0000 803f 0000 803f 0000 803f
00000070: 0000 803f 0000 803f 0000 803f 0000 803f
00000080: 0000 803f 0000 803f 0000 803f 0000 803f
00000090: 0000 803f 0000 803f 0000 803f 0000 803f
000000a0: 0000 803f 0000 803f 0000 803f 0000 803f
000000b0: 0000 803f 0000 803f 0000 803f 0000 803f
000000c0: 0000 803f 0000 803f 0000 803f 0000 803f
000000d0: 0000 803f 0000 803f 0000 803f 0000 803f
000000e0: 0000 803f 0000 803f 0000 803f 0000 803f
000000f0: 0000 803f 0000 803f 0000 803f 0000 803f

fc.weight f4 [1, 9216]
-0.004117191 -0.0026171315 -0.007885215 0.011584766 0.007976822 -0.007897879 -0.0006223319 -0.007009773
-0.00289896 0.005664519 -0.0004013809 7.194637e-05 -0.004405826 -0.0012054208 -0.009553154 0.0039055415
0.004145123 -0.0071342033 -0.000345606 -0.00023834765 0.00040845753 -0.007056103 0.0045973225 -0.007815737
-0.0065923007 -0.00643936 -0.000629404 -0.0061857593 -0.00089243054 -0.005658612 -0.0064894157 -0.00874827
-0.016370611 0.0065849726 -0.0011614235 0.0011846179 0.010011118 -0.004015631 0.005583993 0.007536555
-0.0055721994 -0.007024749 0.007938504 0.0006546308 -5.0709452e-05 -0.009768597 -0.004336852 0.0025418773
0.0051636347 0.0006777554 -0.008563558 -0.0077391337 -0.010522669 -0.0062930663 -0.010027119 -0.013730127
-0.013382378 0.002003063 0.006093599 0.0034228733 0.010826899 0.002029324 0.0062276977 -0.005191054
-0.006345022 -0.006226637 -0.016070433 -0.005832293 -0.015187456 0.0021381748 -0.008356813 -0.007966318
0.0029320053 0.0032942614 0.0059516076 -0.016117256 0.005199666 -0.0103064 -0.0005188877 -0.00051395514
-0.00927846 -0.007779918 0.006077083 -0.00089621387 0.008500671 0.006433107 0.006987391 -0.010853397
-0.0017730762 -0.004354368 -0.014273326 -0.011102948 0.0026449643 0.0139201945 0.007342975 -0.006169187
0.007366881 -0.008402358 0.0075021284 -0.0067753713 -0.0031438195 -0.0111771785 -0.010994312 0.007251732
0.0028054677 0.006609299 0.0025758075 -0.0013961622 0.012149105 -0.0062300595 -0.0064481827 -0.011775334
0.0060629193 -0.0074269646 -0.0074044764 -0.0016886714 0.0039916425 0.009343234 -0.007350427 0.0012910303
-0.006079756 -0.0011503204 -0.00038543608 -0.013170714 0.0055951807 -0.007845752 -0.0016828133 0.006781371
0.004905663 0.0015634525 0.0057768356 0.007123936 -0.0013180594 0.0024002611 -0.008477493 0.0073484466
-0.002073292 -0.0026427445 -0.0026088124 -0.0052053244 0.0049670464 0.0036907527 -0.0041908957 -0.006536134
0.0008932911 0.0025881247 0.008376675 0.00875305 -0.0054820115 0.0065745204 0.0058230283 -0.0061754393
0.012073974 -0.0060785073 -0.003077942 0.0044700257 0.00087869616 -0.004807644 0.0047506248 0.007696357
0.0016670714 0.00031280375 -0.0076853023 -0.009550456 -0.00087781256 -0.00063780684 -0.0015893895 0.0037763799
0.0020569237 -0.0006787121 0.008306641 0.0031180764 -0.0048908284 -0.0044858716 0.0088671725 -0.003299967
0.0086170165 0.001982342 0.0029825885 -0.0023282391 0.00659389 0.0009975947 0.0056394553 0.015284809
-0.006640892 -0.011442405 0.003988868 -0.010035464 0.016662018 0.0060711303 -0.009520201 0.0027943705
0.0005437517 -0.0006001092 0.00973836 -0.0015613656 -0.015792567 -0.01890918 -0.022132063 -0.0048974953
-0.0068982095 0.0045917663 -0.0014504544 0.0048808814 -0.0043306435 0.006293563 0.0070352512 -0.018640576
-0.023349587 -0.0114435535 -0.01591324 -0.017601976 -0.009427376 0.0006003583 -0.011534776 -0.0019296597
-0.005602825 0.0070480187 0.0019790432 -0.00065995497 -0.022312962 -0.013233765 -0.017043585 -0.012440234
-0.016227636 0.00507754 -0.0037259231 0.0050453283 0.0030365977 0.0017938815 -0.0022838176 -0.0065271524
-0.010607328 -0.02382423 -0.015001411 -0.01385893 -0.0158458 0.00646942 -0.013251345 0.004382306
0.0064360485 -0.009893629 -0.009095599 0.0067959796 -0.0018495515 -0.01209857 -0.018388368 -0.011235926
-0.00066579634 -0.0040284568 0.0028004781 -0.004947493 0.006580417 -0.008054707 -0.0035532017 0.0067707975
00000000: 80e9 86bb 2e84 2bbb fd30 01bc 08ce 3d3c
00000010: 37b1 023c 1b66 01bc fd23 23ba 3db2 e5bb
00000020: 7afc 3dbb 6e9d b93b 6f70 d2b9 eae1 9638
00000030: bf5e 90bb 36ff 9dba d584 1cbc 1df4 7f3b
00000040: d0d3 873b 09c6 e9bb 7432 b5b9 f6ec 79b9
00000050: 3e26 d639 e236 e7bb 23a5 963b 940d 00bc
00000060: 3a04 d8bb 4401 d3bb 96fe 24ba e9b1 cabb
00000070: 00f2 69ba e16b b9bb 2aa5 d4bb e754 0fbc
00000080: a91b 86bc c1c6 d73b e83a 98ba 2e45 9b3a
00000090: ac05 243c 8e95 83bb eef9 b63b 35f5 f63b
000000a0: ff96 b6bb de2f e6bb 8010 023c 889b 2b3a
000000b0: dcb0 54b8 770c 20bc 271c 8ebb a095 263b
000000c0: b533 a93b 65ab 313a 2a4e 0cbc 8f98 fdbb
000000d0: 4667 2cbc 1136 cebb c948 24bc 54f4 60bc
000000e0: c341 5bbc d245 033b d0ac c73b 4952 603b
000000f0: 4e63 313c 68fe 043b b711 cc3b b819 aabb
00000100: e7e9 cfbb d108 ccbb 24a6 83bc d21c bfbb
00000110: cfd4 78bc 9f20 0c3b 04eb 08bc 2985 02bc
00000120: e326 403b 89e4 573b b405 c33b 5608 84bc
00000130: f661 aa3b 2ddc 28bc f705 08ba f2ba 06ba
00000140: af04 18bc afee febb 4422 c73b e5ef 6aba
00000150: 6646 0b3c d0cc d23b 7cf6 e43b 72d2 31bc
00000160: 9166 e8ba 16af 8ebb abda 69bc 24e9 35bc
00000170: 2357 2d3b 8711 643c 579d f03b e426 cabb
00000180: e065 f13b 0baa 09bc 6ad4 f53b ef03 debb
00000190: 8a08 4ebb 7c20 37bc 7d21 34bc f09f ed3b
000001a0: f0db 373b d292 d83b e1ce 283b 6eff b6ba
000001b0: 0a0d 473c 8725 ccbb 474b d3bb 55ed 40bc
000001c0: 74ab c63b e55d f3bb 40a1 f2bb 6956 ddba
000001d0: 53cc 823b 5d14 193c dadb f0bb ca37 a93a
000001e0: b138 c7bb 59c6 96ba 5b14 cab9 fac9 57bc
000001f0: c757 b73b 788b 00bc d891 dcba 4336 de3b
00000200: afbf a03b c3ec cc3a 9c4b bd3b e86f e93b
00000210: bcc2 acba b34d 1d3b 2fe5 0abc 3dcb f03b
00000220: 11e0 07bb e531 2dbb 9cf8 2abb 6d91 aabb
00000230: 9bc2 a23b 8ee0 713b c853 89bb 112d d6bb
00000240: c02b 6a3a 879d 293b 523e 093c f468 0f3c
00000250: 72a2 b3bb 136f d73b 1acf be3b 575b cabb
00000260: ebd1 453c 372e c7bb 4cb7 49bb 4b79 923b
00000270: 4d58 663a 7189 9dbb 21ab 9b3b b931 fc3b
00000280: a281 da3a cfff a339 fdd4 fbbb 8479 1cbc
00000290: 011d 66ba 7e32 27ba 1053 d0ba 247d 773b
000002a0: 74cd 063b 99eb 31ba 9418 083c a458 4c3b
000002b0: 3e43 a0bb 38fe 92bb 9e47 113c 4244 58bb
000002c0: 632e 0d3c 2eea 013b 8877 433b 5f95 18bb
000002d0: 8f11 d83b b9c1 823a 2ecb b83b 236d 7a3c
000002e0: d79b d9bb ed78 3bbc 0db5 823b c96b 24bc
000002f0: c97e 883c 55f0 c63b 9efa 1bbc c221 373b
00000300: 8f8a 0e3a a650 1dba a48d 1f3c bca6 ccba
00000310: 6a5f 81bc 6de7 9abc 4d4e b5bc 2b7b a0bb
00000320: 600a e2bb 8776 963b 2c1d beba cdef 9f3b
00000330: 12e8 8dbb 3c3a ce3b f787 e63b 1fb4 98bc
00000340: a247 bfbc be7d 3bbc 7c5c 82bc 0532 90bc
00000350: 4875 1abc 5d61 1d3a 5bfc 3cbc a3ec fcba
00000360: e797 b7bb 11f3 e63b d6b2 013b d400 2dba
00000370: acc9 b6bc 6fd2 58bc fd9e 8bbc 20d2 4bbc
00000380: d2ef 84bc 7e61 a63b 9e2e 74bb 4853 a53b
00000390: a801 473b ad20 eb3a 1aac 15bb b9e1 d5bb
000003a0: 5cca 2dbc 082b c3bc 7ac8 75bc 9110 63bc
000003b0: 0dcf 81bc 6efd d33b 2b1c 59bc 7299 8f3b
000003c0: 7de5 d23b e318 22bc b505 15bc cfb0 de3b
000003d0: a66c f2ba 1539 46bc 34a3 96bc e416 38bc
000003e0: d688 2eba 2501 84bb 3a88 373b 941e a2bb
000003f0: 8aa0 d73b e4f7 03bc d5dc 68bb 91dd dd3b
