data/chkbox_models/chkbox_rnd9_2_bestVal.pt (torch_old, 236310 bytes, 31 tensors)

layer1.0.weight f4 [4, 1, 3, 3]
000000 08 54 fe bd 8f b1 66 bc ff 6e 08 be f2 cb 65 3e
       -0.124183714 -0.014080419 -0.13323592 0.2244108
000010 22 af 04 3e 8a 14 10 bd 0f 07 45 be 5f dc ad be
       0.12957433 -0.035175838 -0.19240974 -0.33957192
000020 65 d9 34 be 65 cb 6a 3e 51 aa 8a be 68 7f 95 be
       -0.17661054 0.22929151 -0.27083066 -0.29198766
000030 de 62 58 3e 57 85 cd bd 96 b0 13 3d 77 9f a9 3d
       0.21131465 -0.10035198 0.036057077 0.08282369
000040 b0 ab 9c bd 5f d7 7e be 22 58 06 be ed dd 95 be
       -0.07649934 -0.24886845 -0.13119557 -0.29270878
000050 b0 95 92 be c8 db 8a be 7b 1a 4e 3e 04 26 b6 be
       -0.28629827 -0.27120805 0.20127289 -0.3557588
000060 c5 81 47 3e e4 27 58 be 19 a8 34 3d 4a 6d c2 3c
       0.19483097 -0.21108967 0.044105623 0.023733754
000070 8d 7f 36 3e 69 cd e5 bd 81 4b 98 3d a3 6e 47 3e
       0.17822094 -0.112208195 0.07436276 0.19475798
000080 9a 22 ab 3d f4 f2 23 3e 80 1b 08 3d 97 01 c0 3d
       0.08356209 0.16010648 0.03322935 0.09375303

layer1.0.bias f4 [4]
000000 e2 f9 52 be 87 60 96 be b1 42 a3 3e cd f9 b6 bd
       -0.20603135 -0.2937052 0.3188682 -0.089343645

layer1.1.weight f4 [4]
000000 a7 7a 7d 3f b0 6a 74 3f ac 0f 86 3f 93 67 80 3f
       0.9901528 0.9547529 1.0473533 1.0031608

layer1.1.bias f4 [4]
000000 43 fc 22 3c 06 49 5e 3c 8a ec 34 3d 19 d1 54 bd
       0.009947839 0.013567215 0.044170894 -0.051957224

layer1.1.running_mean f4 [4]
000000 c7 19 6c bf ba b8 43 bf 69 74 65 bf 0d 26 37 3f
       -0.92226833 -0.76453745 -0.8963075 0.71542436

layer1.1.running_var f4 [4]
000000 d9 5f 1a 3f 2a 67 c6 3e d8 b3 d5 3f 82 a2 34 3f
       0.603025 0.38750583 1.6695509 0.7056047

layer2.0.weight f4 [8, 4, 3, 3]
000000 bb 0b e9 3d 85 0f 4d bc fa ea 3a bd 0f 1a a8 3d
       0.113791905 -0.012515907 -0.045634247 0.08208095
000010 14 09 82 bd 1d 27 bb 3c a5 c3 27 be 77 bc c4 bd
       -0.06349388 0.0228458 -0.16383226 -0.09606259
000020 aa 0b 01 3e 84 68 04 3e 6a 9e 0b 3e a0 43 d3 bd
       0.12602106 0.12930495 0.13634649 -0.10315633
000030 fc dd ef bd b6 1f 1f be db 0d bb 3d 32 44 4b bc
       -0.11712262 -0.1553944 0.09133502 -0.012406396
000040 c6 e9 a2 3d a3 53 c1 3c 14 77 f9 bd 3d a6 a2 3d
       0.07954745 0.023599451 -0.121809155 0.07941864
000050 18 30 11 3d e9 ec 15 3d 69 4e be 3d dc 94 0a 3e
       0.035446256 0.03660289 0.09292299 0.13533348
000060 c8 b2 f7 3d 83 14 71 bd 9e c8 b6 3d da a8 e7 3d
       0.12094647 -0.058857452 0.089249834 0.11311503
000070 8c 1d 6d bd 1f 13 88 3d b5 48 4b bc e8 20 46 3d
       -0.057889506 0.06644272 -0.012407471 0.048371226
000080 91 24 1b be 6b 20 57 be 46 14 43 be 8c ea c8 3c
       -0.15150668 -0.2100846 -0.19050702 0.024525903
000090 10 0f 34 3d bb ae 3e bb 70 1b b4 bd a1 c2 89 bc
       0.043959677 -0.0029095847 -0.08794296 -0.01681644
0000a0 2f c1 9c 3d 3b 75 d1 3d d3 98 81 3d 14 4a 38 3d
       0.07654034 0.10227438 0.06327977 0.04499252
0000b0 45 ed a8 3c 4c b4 53 bd 52 e7 cb 3d 7d 61 c2 3c
       0.020620951 -0.051685616 0.0995623 0.023728127
0000c0 2a 0c 9a 3d a1 8a 1c 3d 40 31 37 3b 48 e6 e5 3d
       0.07521851 0.038218144 0.002795294 0.11225563
0000d0 f7 53 f2 3d 50 1f 81 bd 32 4c d6 bd d4 6c cb 3c
       0.11832421 -0.063048005 -0.10463752 0.024832167
0000e0 e6 60 cc 3d a8 57 2c 3c 17 84 1f 3d 48 0c 6e 3d
       0.099794194 0.010518946 0.03894433 0.05811718
0000f0 79 54 07 3e cf 52 d8 3d 18 50 cc 3d 20 41 8e bd
       0.13215818 0.105626695 0.09976214 -0.06946015
000100 1f 49 01 3e c5 65 b8 bd 7b df 4d bb 55 07 ee 3d
       0.1262555 -0.09003786 -0.0031413722 0.11622492
000110 f6 fa aa bd 65 ad 95 3d fb e2 af bd a3 7d 20 3e
       -0.08348648 0.07308463 -0.08588215 0.15672927
000120 05 dd 16 be 0a 66 d0 bd 93 97 2c be 96 c4 25 be
       -0.1473275 -0.101757124 -0.16854696 -0.16188273
000130 86 b9 6c bd 6e 38 d3 bd dc ff f4 bc 44 15 5c 3d
       -0.057794116 -0.103134975 -0.02990716 0.053731218
000140 a3 9c 34 be 2b a6 a1 3c c3 4f 85 bc 6e c6 ea 3c
       -0.17637877 0.019732555 -0.016273385 0.028659072
000150 61 17 88 bd fd 13 73 3c a5 0b 87 bd b5 89 4d 3d
       -0.06645084 0.014836309 -0.06594018 0.050180156
000160 b9 d1 9f bd 96 8a 02 3e c8 d9 1d bd fc 96 21 bb
       -0.07803673 0.12748179 -0.03853777 -0.0024656644
000170 1e 0b e8 bd 46 bd b4 bc cf 0b 20 be 6f 4c 66 be
       -0.113302454 -0.022062909 -0.15629505 -0.22490095
000180 cb a6 06 be 21 0e 48 be 7a 58 fa bd 87 cb 11 3d
       -0.13149564 -0.1953664 -0.12223907 0.03559449
000190 ed a2 b5 bd 95 c1 92 bd 17 40 37 bd 14 aa 0f 3e
       -0.08868966 -0.07165829 -0.044738855 0.14029723
0001a0 9f b4 fd bd 1e 56 1b 3e ea 8d 94 bc c5 62 0e 3e
       -0.12387966 0.1516957 -0.018134076 0.13904865
0001b0 d9 3f 00 bd 24 d7 ce bd 14 23 cb 3d 50 da ce 3d
       -0.03131089 -0.100996286 0.099188 0.101002336
0001c0 56 ea 01 3e 15 15 e3 3d 81 b2 b8 bc d7 ef 13 3e
       0.12687048 0.110880055 -0.022546055 0.1444696
0001d0 51 e6 ca bd 7c e4 03 be b4 46 dd bd c7 50 11 be
       -0.099072106 -0.12880129 -0.10804501 -0.1419097
0001e0 65 55 0f 3e 37 b6 25 be d6 ff 17 3e 99 9e a4 3d
       0.13997419 -0.1618279 0.14843687 0.080380626
0001f0 b2 bd 62 bc 27 b1 e4 3d f2 e5 5d 3c 0e 27 35 3d
       -0.013839172 0.11166602 0.013543593 0.0442267
000200 69 00 bd bd 12 32 32 bd 56 06 2b 3d 02 cb f2 bd
       -0.09228594 -0.043504782 0.04175409 -0.11855127
000210 b3 36 2f be c9 dc 47 bd 70 5e 80 bd ba 4f 37 bc
       -0.1711071 -0.04879454 -0.062680125 -0.011188442
000220 a0 e4 e3 bd c5 bb ec 3d b3 54 1e be 28 6d a6 bb
       -0.11127591 0.11559252 -0.15461998 -0.0050789304
000230 93 2c 03 3e 22 9d 8a bd fd 12 1b 3e f3 28 8f bc
       0.12809972 -0.06768252 0.15143962 -0.01747558
000240 e1 6e 00 3e 0b 56 20 bd 42 c1 ee 3d ff b6 f6 3d
       0.12542297 -0.039144557 0.11657955 0.120466225
000250 4f 83 09 3e 61 78 13 3e 99 d3 12 3d 6d 74 64 bc
       0.13428997 0.1440139 0.035846327 -0.013943774
000260 89 dc 29 3e 0e 91 b1 bd c0 f7 26 bd 5b a0 c2 bd
       0.16588034 -0.08670245 -0.040763617 -0.09503242
000270 65 a8 0d 3d 67 f1 0d 3d fc 2d 12 3e 3b 86 e0 bd
       0.03458442 0.034654047 0.14275354 -0.109631024
000280 10 17 ef 3d 74 63 58 3d cb fd 0f 3e 6d e0 b1 3d
       0.11674321 0.05282922 0.14061658 0.08685384
000290 36 7f bf bd 7d 2f 0f 3e e9 5b 9c bd 41 11 ca 3d
       -0.093504354 0.13982959 -0.07634718 0.09866572
0002a0 73 f5 bd bc c1 fb 89 3d 49 16 24 be 09 f0 40 3d
       -0.023188328 0.06737471 -0.16024126 0.047103915
0002b0 54 6b 1b 3e e9 04 0f bd c5 6e b9 bd ad 18 77 3d
       0.15177661 -0.034916792 -0.09054331 0.060326267
0002c0 d0 7d fe 3d 13 b8 34 bc 88 58 e1 3d 23 b9 05 bc
       0.124263406 -0.011030215 0.11003214 -0.008161816
0002d0 18 39 10 be 86 29 70 3c e7 01 74 bd 41 2f 10 bc
       -0.1408428 0.014658337 -0.059572127 -0.008800329
0002e0 0c d3 bc 3c 6f b4 73 3d 45 6b a9 bd 28 3c 26 be
       0.023049854 0.059498247 -0.08272413 -0.16233885
0002f0 29 81 0f be 81 ad 78 3d 20 45 c6 bd 16 34 04 3e
       -0.14014114 0.06071234 -0.09681153 0.12910494
000300 b3 3b 82 bd e8 b1 c7 bd 2f 94 cd bc 41 35 57 bd
       -0.06359043 -0.0975073 -0.025095074 -0.05254102
000310 10 f9 34 be f4 6e 8d bc 90 3c 90 bd 14 b1 d3 bd
       -0.17673135 -0.01726482 -0.070428014 -0.10336509
000320 eb b3 cf bc 8f db 9a bd 74 a7 81 bd e4 fa 6f 3d
       -0.025354346 -0.07561409 -0.06330767 0.058588877
000330 eb 38 df bd 09 7f a1 3c e6 10 e3 bb 13 c5 13 bd
       -0.10899528 0.019713895 -0.0069295047 -0.036076616
000340 c6 e9 c3 bd a9 96 88 bd 72 13 3c 3d 70 f5 d9 bd
       -0.09566073 -0.06669361 0.045916982 -0.106425166
000350 9b 26 e6 3c 80 8b 02 be 81 4c 93 3c 4e 5d b7 bd
       0.02809458 -0.12748528 0.017980816 -0.08953343
000360 70 74 a0 bd 6d 72 26 3e bd 94 d9 bd 3d 19 a5 bd
       -0.07834709 0.16254587 -0.10624073 -0.080614544
000370 ec c5 e3 bd d1 71 fa bd 2b 82 90 bc d2 30 23 3e
       -0.11121735 -0.1222874 -0.017640194 0.15936592
000380 65 ec db bc 1d 36 1c be 3e a0 6a 3d 28 26 ac bc
       -0.02684612 -0.15255018 0.057281725 -0.021014288
000390 41 a9 2e 3e 3b b7 6f bd d0 92 92 bd 2d 2b 26 bd
       0.17056753 -0.05852435 -0.071569085 -0.04056852
0003a0 0a be a9 3d e8 d4 f2 bc e1 ac 80 3d b3 77 15 bc
       0.082882 -0.029642537 0.06282974 -0.009122777
0003b0 d8 07 03 be 27 d0 98 bd 18 ee ee 3c 53 d4 29 bc
       -0.12795961 -0.07461577 0.029166266 -0.010365563
0003c0 ad a0 25 3e 2c dc 2e 3d f3 90 93 bd e0 16 0f 3e
       0.16174574 0.04269044 -0.07205381 0.1397357
0003d0 95 e3 40 3d 2b 65 5a bd d1 d5 ad bc 67 cb 5b 3d
       0.04709204 -0.053319138 -0.02122012 0.053660776
0003e0 ae 78 11 3d 84 93 e4 3d 54 03 fa 3d eb fc 6a 3d
       0.03551548 0.11160949 0.12207666 0.057370108
0003f0 28 35 5b bd a1 a9 14 be 08 7c 29 3c 17 36 a9 bd
       -0.05351749 -0.14517833 0.010344513 -0.0826227

layer2.0.bias f4 [8]
000000 95 80 23 be 3b ef 0d 3e 3e 8d 40 3c 44 6c 0a 3e
       -0.15967019 0.1386079 0.011752425 0.13517863
000010 c6 db f5 bc 82 59 65 bc c8 df 18 be 5c 38 45 3d
       -0.030012023 -0.013998391 -0.14929116 0.04814945

layer2.1.weight f4 [8]
000000 d1 f8 70 3f 4e f3 7d 3f 69 cc 85 3f 84 4e 79 3f
       0.94129664 0.9919938 1.0453006 0.9738543
000010 8d a3 7d 3f 41 14 83 3f 2a 03 80 3f e7 be 74 3f
       0.99077684 1.0240556 1.0000966 0.95603794

layer2.1.bias f4 [8]
000000 ef 61 81 3c 0c 6e 14 3b 9c 21 e1 3c 72 fa 74 bc
       0.015793769 0.00226486 0.027481847 -0.014952289
000010 0f 28 e4 bc 83 4b 6a 3d 0b 27 a6 3a aa ab 72 3c
       -0.027851133 0.05720092 0.0012676431 0.014811436

layer2.1.running_mean f4 [8]
000000 f1 ed eb bd a3 ba 1b 3f 16 e9 33 bf 35 7c 85 3d
       -0.11519993 0.6083166 -0.70277536 0.06517831
000010 74 20 00 3f 3c 35 24 bf fa 35 91 bd 6d 09 3a 3e
       0.5004952 -0.6414373 -0.07090373 0.18167658

layer2.1.running_var f4 [8]
000000 6d 7e 45 3e 73 81 1e 3e 1d 56 28 3f ec c6 a0 3d
       0.19286509 0.15479068 0.657564 0.07850441
000010 02 ac 0f 3e 83 90 2d 3e a8 bf 3c 3e 9b 35 c2 3d
       0.1403046 0.16949658 0.18432486 0.09482881

layer3.0.weight f4 [16, 8, 3, 3]
000000 42 41 95 3d fa 65 3c 3d 62 82 5e bd 95 f5 a7 bd
       0.072878376 0.04599569 -0.05432356 -0.08201138
000010 06 8e 12 3c 2d 68 d5 ba c3 73 05 bd 11 c4 81 3b
       0.008944994 -0.0016281657 -0.032581102 0.0039601405
000020 6d c1 a1 ba 85 03 a6 bd 9f 38 a2 3d e8 91 7d bd
       -0.001234097 -0.0810614 0.07920956 -0.061906725
000030 9b 64 4c bd 1a d8 d7 bd 83 1a e3 bb 6e 9d c1 3d
       -0.049900632 -0.10539265 -0.0069306507 0.094538555
000040 9d f5 bb 3d 91 17 ca 3c b0 53 6a 3d 21 e7 e8 3b
       0.091777064 0.02466944 0.057208717 0.007107631
000050 df 6e 7c 3d b3 5f 9a bd 6f e3 91 3d 21 f4 9b 3d
       0.061629172 -0.075377844 0.07123458 0.07614923
000060 b4 4a be bd e8 e8 1f bd 9b 39 d0 3d 8c 63 d9 3c
       -0.09291592 -0.039040476 0.10167237 0.026536725
000070 bd 9a bf 3d 04 40 55 3d cf dc ae 3d e2 3c ae bc
       0.09355686 0.052063003 0.0853821 -0.021269266
000080 f0 b4 65 bc 06 7b 66 3d 96 b6 57 3d cf 62 18 3d
       -0.01402019 0.056269668 0.052664362 0.037203606
000090 bd e0 86 bc 9f 91 75 3d eb 7c a7 bd e4 02 d3 3c
       -0.016464585 0.05995333 -0.08178123 0.025758214
0000a0 9e c4 4b bd b9 af 87 bd be d3 72 bd f3 b7 a1 bd
       -0.049748056 -0.06625313 -0.059283964 -0.07896414
0000b0 42 c8 87 3c de d8 6d 3c de 14 64 bc e0 cc 9d bd
       0.016574983 0.014517037 -0.013920991 -0.077050924
0000c0 23 47 ca 3d 83 23 91 bb cc 40 c5 bd 76 dd a5 3c
       0.098768495 -0.004429282 -0.096315 0.020247202
0000d0 8e d1 24 bb 5d 98 79 bd 31 02 e4 bd 99 cb c3 bc
       -0.0025149318 -0.06093632 -0.111332305 -0.023900794
0000e0 ff 19 89 3d 50 e9 97 bd 96 cb 73 3d ad 5f 41 bd
       0.066944115 -0.07417548 0.059520327 -0.047210384
0000f0 31 5e 02 be eb 0e 70 3d 64 23 a1 bd 81 16 fc bd
       -0.12731244 0.058607977 -0.07868078 -0.1230898
000100 34 38 ce bd ad 28 9c bc 41 b7 e5 bc 48 52 a7 bd
       -0.10069314 -0.019062364 -0.028041484 -0.08169991
000110 cf e1 ac 3c 93 05 ad bd 08 f0 4c bd 70 85 84 3c
       0.021103768 -0.08448329 -0.0500336 0.01617691
000120 48 f8 0f 3d 6e be 1f bd ae 5f 6f bd d1 aa 3b 39
       0.03514889 -0.038999967 -0.058440857 0.00017897344
000130 05 04 75 3c a0 8f 7d bc d0 57 0d 3c 11 c5 93 bd
       0.014954572 -0.015476137 0.008626893 -0.07215322
000140 53 a0 c5 bd 05 4e 96 3a a1 1d 21 bd 74 13 53 bd
       -0.0964972 0.0011467343 -0.039334897 -0.051532224
000150 48 f0 d7 bd 51 40 a9 bd f9 f9 05 bd f7 d6 2c bd
       -0.10543877 -0.082642205 -0.032709096 -0.042197194
000160 1f 81 46 bc e1 cc c9 bc 17 a0 ce 3d fc 0b 6d bc
       -0.012115746 -0.024633827 0.100891285 -0.014468189
000170 db 95 32 3e 2e ea f7 3d 07 e6 b5 3d 44 d0 b7 3d
       0.17439978 0.12105213 0.08881765 0.089752704
000180 58 82 c1 3d 20 e2 15 3e 5f 47 cf 3d 4f 13 66 3d
       0.09448689 0.14637041 0.10121035 0.056170758
000190 64 31 d4 bc 87 9a 7b 3d a7 d1 ec bc 3d 7f 81 3d
       -0.025902458 0.061426666 -0.028908564 0.06323097
0001a0 2d 00 93 3c 96 0e 9b bd e7 17 8e bd 18 ba 4b 3d
       0.01794442 -0.075711414 -0.06938153 0.04973802
0001b0 d0 7b 04 3d 03 71 96 bd 30 2e 32 3b b1 d7 61 3d
       0.03234464 -0.07345774 0.0027188174 0.05513734
0001c0 61 46 8b bd 88 40 dd bd d4 dc 99 3c f4 14 f5 b9
       -0.06800533 -0.10803324 0.018782057 -0.00046745653
0001d0 d5 74 b2 bd ed 34 62 3d b9 f8 da bc ec 7e fd bd
       -0.0871369 0.055226255 -0.026729928 -0.12377724
0001e0 e9 8c 44 bd c3 85 93 3d 00 6c 53 bd 6f c0 b2 3d
       -0.047985945 0.072032474 -0.05161667 0.0872811
0001f0 be f8 98 bd ae 89 cd bd 3e 68 89 bd 76 e6 c4 bd
       -0.07469319 -0.10036026 -0.06709336 -0.096142694
000200 ce 08 1e bd 90 bd 75 bd ba 06 97 bd 09 05 ac 3c
       -0.038582616 -0.059995234 -0.0737433 0.020998495
000210 7f 3e 1e 3d 42 37 f9 bc de 64 84 bd 82 92 7a bd
       0.03863382 -0.030421857 -0.064645514 -0.061174877
000220 f7 32 63 3d f3 69 ac 3d 9b 60 0b 3d 33 0c 74 bd
       0.055468526 0.08418646 0.034027677 -0.059581947
000230 3f b1 a0 3d c3 02 94 3d 54 8d 0e bd 30 37 92 bb
       0.07846307 0.07227089 -0.03480275 -0.0044621453
000240 86 c6 9f bd 10 28 a8 bc 38 83 e5 3d b7 71 4f bd
       -0.07801537 -0.020526916 0.112066686 -0.050645556
000250 25 38 ec 3b df 40 a0 3d 0e 86 62 3d 56 96 c9 3d
       0.0072088414 0.07824873 0.055303626 0.098431274
000260 2c c7 b7 bd 00 ba f5 3c 2a 82 04 bc 88 f6 93 3d
       -0.08973536 0.029995918 -0.008087674 0.072247565
000270 3a 2c d9 bd a6 f8 c7 3d 0c 63 f0 3d 9d 97 10 bd
       -0.10604139 0.09764223 0.11737642 -0.03530084
000280 cb 01 8c bd f6 49 b3 3d 20 3b 52 bd 9d a0 0d be
       -0.068362795 0.08754341 -0.051325917 -0.138308
000290 59 d9 7f 3d 49 60 91 3d 2e 80 02 be 59 fa 81 bd
       0.06246314 0.07098443 -0.12744209 -0.06346578
0002a0 7d b6 84 3d 50 a7 9a 3d 28 91 11 bd ad 9c 41 3c
       0.064801194 0.075514436 -0.035538822 0.01181714
0002b0 97 7d b0 bd c6 a1 26 bd ce 23 1f bd ea b0 51 bd
       -0.08617704 -0.040681623 -0.038852505 -0.05119411
0002c0 cf a7 3d 3d f2 14 cf 3c 69 89 8c 3d e6 43 52 3d
       0.046302613 0.025278542 0.068621464 0.051334284
0002d0 41 a5 86 3b 03 a8 86 3d 3e d1 d7 3d 1c 0b 0d 3e
       0.0041090553 0.065750144 0.10537957 0.13773769
0002e0 11 ee a9 bc 03 bc 93 3c 02 c6 12 3d c1 b4 37 bd
       -0.020743402 0.018033987 0.035833366 -0.044850115
0002f0 de 35 1c 3e b2 b1 73 3d 0d 03 94 3d 16 fa 07 3e
       0.15254924 0.059495635 0.072271444 0.13278994
000300 2f 3c 8e bc 70 c9 0e bd 59 84 48 3c d8 85 cf 3d
       -0.017362682 -0.034860075 0.012238585 0.101329505
000310 e2 0c a4 bb b8 10 ab 3d 56 7f 7a 3d 94 a7 9f 3c
       -0.0050064186 0.08352798 0.061156593 0.019489087
000320 64 4f ea bc 3e 0f d0 3d 72 49 ab bd fd 43 7e bd
       -0.02860231 0.10159157 -0.08363618 -0.062076557
000330 e1 d8 8a 3d cd 17 cb ba 85 70 d6 3d 66 a0 47 bc
       0.067796476 -0.0015494764 0.1047068 -0.012184238
000340 36 6f 88 3d f2 00 ec 3c 3c 4c 7d 3d a4 83 0e bd
       0.06661837 0.028809045 0.06184028 -0.03479351
000350 4c 28 9e bc 93 fc 9f 3d ab ac 99 bd 19 3e 62 3d
       -0.019306324 0.078118466 -0.07503637 0.055235002
000360 db 88 c0 bc cd 53 c1 bc d7 2a 3d bc f1 9d 0f 3d
       -0.023502758 -0.02359953 -0.011545858 0.035062734
000370 0d b3 a3 bc 4c e2 a5 bd 61 22 27 3d b1 b3 ea 3d
       -0.019982839 -0.08099803 0.04080427 0.11460055
000380 d5 6c f2 bc 98 e2 96 3c 2d ee 95 3a 5e 32 d4 bd
       -0.02959291 0.018418595 0.001143878 -0.10361169
000390 3b 57 3e bd e9 31 a2 3d b6 90 ac bd 46 fb c5 bd
       -0.04646991 0.07919676 -0.08426039 -0.09667067
0003a0 17 75 ec bc b5 8b 61 3d 32 be ce 3c c1 c8 38 3d
       -0.028864427 0.055064876 0.025237177 0.04511333
0003b0 8b 01 5c 3d f0 6d 27 bd 56 ca 1b bd 62 37 2f 3c
       0.05371241 -0.04087633 -0.03803476 0.010694357
0003c0 ba 9b 28 bd dd 58 75 bd 6f 7c a1 bd e9 92 28 bd
       -0.041164137 -0.0598992 -0.07885062 -0.04115573
0003d0 51 08 e2 bc fd e9 c9 bd f6 cd c2 3d 1e a0 bf bd
       -0.027591856 -0.09859083 0.0951194 -0.09356712
0003e0 0f ad e1 bd 62 61 d7 bc 7e 09 c4 bd 3e 83 02 be
       -0.110193364 -0.026291553 -0.09572123 -0.12745377
0003f0 f1 8e ed bb 36 be 95 3d 1e 18 c1 3d 08 3a 9f 3d
       -0.007249706 0.073116705 0.09428428 0.077747405

layer3.0.bias f4 [16]
000000 67 8d 40 bd 3e 11 c6 3d 5f 01 27 3b bc 4a b9 bd
       -0.04700985 0.096712574 0.0025482995 -0.090474576
000010 3d ad a4 bd 96 6c 08 3d 8c f0 49 bb ee 2a 24 3d
       -0.08040855 0.03330668 -0.0030813543 0.040080003
000020 87 d9 c7 bd 6a a6 08 bd 7a 1b dc bd 1c 6d 69 bd
       -0.09758287 -0.03336183 -0.10747428 -0.05698882
000030 33 a8 cc bd e9 5b 6a bd 0c f3 2a bd 21 b7 ff bc
       -0.09993019 -0.05721656 -0.041735694 -0.031215252

layer3.1.weight f4 [16]
000000 6f ea 7d 3f 58 5f 86 3f 77 99 7c 3f cb 54 78 3f
       0.9918584 1.0497847 0.9867167 0.97004384
000010 4e 47 80 3f 05 b4 7c 3f 60 b1 81 3f 51 42 82 3f
       1.002176 0.9871219 1.0132256 1.0176488
000020 7e a1 7d 3f b6 70 7d 3f c3 30 80 3f 37 3d 79 3f
       0.9907454 0.9900011 1.0014881 0.9735903
000030 6f 12 7d 3f 14 33 82 3f 52 75 83 3f 5f d2 82 3f
       0.9885625 1.0171838 1.0270178 1.022045

layer3.1.bias f4 [16]
000000 d7 f1 95 bd 0d 28 6f bd 16 5b 59 bd a1 30 79 bd
       -0.07321518 -0.058387805 -0.053065382 -0.06083739
000010 e2 24 21 bd 6e 74 53 bd 5c 6d 62 bd 32 fc 80 3b
       -0.039341815 -0.051624708 -0.055280074 0.003936314
000020 99 40 15 bd df 5a 11 bd f2 48 26 bd 8f a9 8a bd
       -0.03643856 -0.035487052 -0.04059691 -0.06770622
000030 da 88 26 bd 84 ec ee bc 49 94 86 bd 7e 57 b5 bc
       -0.040657856 -0.029165514 -0.06571252 -0.022136446

layer3.1.running_mean f4 [16]
000000 2f 7e 89 be af de 08 3d 88 0e 01 3f 62 06 3b be
       -0.26854083 0.033415493 0.504128 -0.18264154
000010 ca 83 1e 3f f6 88 87 3e 4e 98 16 bf 54 67 ab 3e
       0.61919844 0.2647168 -0.5882615 0.3347727
000020 06 e8 58 bd 70 05 0e be 96 16 9c 3e ed d6 da bd
       -0.05295565 -0.13869262 0.30485982 -0.10685525
000030 93 4e d7 be cc 75 0c bf f8 03 d4 be 27 7d 7f be
       -0.42052135 -0.54867244 -0.41409278 -0.24950086

layer3.1.running_var f4 [16]
000000 2c d2 1a 3e 28 b7 9e 3e 68 da 12 3e 0a 1f 8c 3d
       0.15119237 0.30999112 0.14341128 0.06841858
000010 d0 89 21 3e bb 93 e8 3d 5f 3c b7 3d 13 f7 ea 3d
       0.15775228 0.11356302 0.08947062 0.11472907
000020 95 c3 16 3e b3 3a 70 3e c2 d3 11 3f 75 c6 19 3e
       0.14723046 0.23459892 0.5696374 0.15017112
000030 bf 14 f7 3d 7b 8a 25 3e 60 32 a7 3d a9 ff 0d 3e
       0.12064504 0.16166107 0.08163905 0.13867058

layer4.0.weight f4 [64, 16, 3, 3]
000000 3b 0a 35 ba e5 14 e8 bc fd d8 6b bd 06 43 83 bc
       -0.00069061265 -0.028330276 -0.057579983 -0.01602317
000010 f7 a9 f7 bb 71 db ba bc 50 5f 69 3d b1 f5 e4 bc
       -0.007558103 -0.022809716 0.056975663 -0.027949186
000020 4b 9c b0 bc e1 21 11 3d da 0c 73 3d 55 0f 26 3b
       -0.021558901 0.0354327 0.059338428 0.0025338728
000030 63 f8 8a 3c 30 a4 b9 3d de 33 dd 3c dd d7 cc 3b
       0.016964143 0.090645194 0.027002271 0.006251319
000040 4c 79 0c 3d 61 34 81 3c 66 0d 2f bc 45 a0 8e bd
       0.034295365 0.015772047 -0.010684347 -0.06964163
000050 95 94 af bd 47 d1 13 bb cd 66 10 bd 85 6b 8d 3c
       -0.08573262 -0.002255516 -0.03525429 0.017263183
000060 c6 9c 90 3d 76 e0 9a bd b1 65 ad bb 8b ab 8c bd
       0.07061152 -0.07562344 -0.0052916636 -0.06868657
000070 fd bb ce bc be bb 15 3c 1e 60 38 3d de 29 64 bd
       -0.025236124 0.0091389995 0.04501354 -0.05570399
000080 7e 15 92 bd ca a2 72 bd 14 64 ec bc 5b 87 29 3d
       -0.071330056 -0.05923728 -0.028856315 0.04138885
000090 5f 4b 5d bd 7a 97 8a bd 4f 31 fc bc 6f 4c 46 bd
       -0.054026958 -0.06767173 -0.03078523 -0.048412737
0000a0 98 6b 8a bb c1 32 1d 3c 15 14 68 3d ec df 56 3d
       -0.004224252 0.00959462 0.056659777 0.052459642
0000b0 51 26 43 bd 7d f6 87 bd a2 86 21 bd 3c 64 e1 3c
       -0.047643963 -0.06638811 -0.039435036 0.027513616
0000c0 28 e8 0c 3d e1 cd 4e bd 85 ae ec 3c de 32 54 3d
       0.03440109 -0.05048931 0.028891811 0.051806323
0000d0 e2 6b 87 3c 87 35 f8 bc d4 54 09 3e cc f1 4c 3d
       0.016530935 -0.030298961 0.13411266 0.050035283
0000e0 58 40 4d 3d 57 c4 8b bc ea da b8 3d ee 8d ef bb
       0.05011019 -0.017061396 0.090261295 -0.0073106205
0000f0 04 f3 b1 bd d5 1c 10 3d d8 71 b9 3d bc 68 1e bd
       -0.0868893 0.035183746 0.09054917 -0.0386741
000100 55 09 36 3d 25 ca a4 bb 93 17 a3 3c 7f 3b 63 3d
       0.044442493 -0.0050289803 0.019908702 0.05547666
000110 32 84 12 bd 53 41 48 3d 14 48 87 3d 9d 68 9c 3d
       -0.035770603 0.048890423 0.06605545 0.07637141
000120 c2 f7 d2 bc 4b 93 d4 bc 82 93 aa bd c3 41 d8 3b
       -0.025752906 -0.025949141 -0.08328916 0.0065996363
000130 fb 11 bd bc 6f 29 bf bc 46 5d 92 bc 97 e8 28 3c
       -0.023079863 -0.023335187 -0.017866742 0.01030936
000140 30 c5 a4 bd 77 8f 03 bc 00 11 83 3d 84 92 bb 3c
       -0.08045423 -0.00802981 0.06399727 0.022897013
000150 fd db 75 3d 62 7a e6 3c c3 de 17 3d a4 05 39 bd
       0.06002425 0.028134529 0.037077677 -0.045171395
000160 fc 7d 86 3d 3d 06 8d 3c 5f b2 95 3b fc 6b 2d bc
       0.06566998 0.017214889 0.0045683826 -0.0105848275
000170 69 8d b2 3c 75 ea 12 3d 0b f2 84 bd 51 f4 69 3d
       0.021795945 0.035868127 -0.064914785 0.057117764
000180 b3 76 c1 3c 96 9c 26 3d 01 08 b3 bb 72 b7 f6 3c
       0.02361617 0.040676676 -0.0054636006 0.03011677
000190 10 54 08 3d 78 63 80 3d e7 c2 5e bd 99 49 68 3d
       0.033283293 0.06268972 -0.054385092 0.056710813
0001a0 4c 2f 9a bb 8c 8a 93 3d 8d ed 76 bd b8 0a 4c bd
       -0.0047053453 0.0720416 -0.06028514 -0.04981491
0001b0 6b 54 6c 3d a2 a1 8d 3c f3 b1 4f 3d 74 24 c9 3c
       0.057697695 0.017288987 0.050706815 0.024553515
0001c0 ec 3c 43 bc 3b 12 14 bd 39 61 2a bd 02 1f 1b bc
       -0.01191638 -0.0361502 -0.041596625 -0.009467842
0001d0 9a c4 dd bc f2 03 71 bd 38 c3 ba bc a3 fa 0d bd
       -0.027071286 -0.058841653 -0.022798166 -0.034662854
0001e0 56 bf 76 3d 87 05 83 bc 10 b2 84 bd 4a e4 ac 3b
       0.060241066 -0.015993847 -0.06479275 0.0052762376
0001f0 61 b7 ca bd 78 9b 56 ba f8 04 a3 bd 89 63 7b 3d
       -0.09898258 -0.0008186619 -0.07959932 0.06137422
000200 de aa 80 bb 93 7b 84 bd 39 52 91 bc 91 a8 ca 3d
       -0.003926619 -0.064688824 -0.017739402 0.09895433
000210 58 6f 69 bc 3e a9 76 bd d7 38 fb 3c 9d 39 61 3d
       -0.014247738 -0.060219996 0.030666752 0.054986585
000220 64 a9 22 bd d6 46 8d bd 1b 4f 44 3d cc 68 ec bc
       -0.039712325 -0.068982765 0.047927003 -0.028858565
000230 41 bd 92 ba 60 60 4d bd 4a e0 40 3c e5 e9 a5 3c
       -0.0011195318 -0.05014074 0.011772225 0.020253131
000240 f3 77 0c 3c 42 0a 1b bd da 1a e8 bc c0 52 8d 3c
       0.00857352 -0.03785158 -0.028333116 0.017251372
000250 02 8b 21 bb 77 cc 68 3d b4 4a 9a 3c 5d e7 f9 3c
       -0.0024649506 0.056835618 0.01883445 0.03050583
000260 78 e0 78 bd 05 45 14 3b 0f 58 8c 3d 99 dd 5f bd
       -0.060760945 0.0022624147 0.06852733 -0.05465469
000270 65 6f 10 bd 1a 05 2d bd d3 fd 4a 3d aa a8 cb bb
       -0.035262484 -0.042241193 0.049558472 -0.0062151747
000280 a6 f1 2d 3d b8 d3 0c bd da 4a 81 bd 38 12 20 3d
       0.042466782 -0.0343816 -0.06313105 0.039079875
000290 74 17 28 bc 87 6d e7 bc e3 be 2b 3d 29 87 90 bd
       -0.010259498 -0.028250469 0.04193009 -0.0705703
0002a0 1b 9b fd bb 2a 77 09 3d 03 05 84 bb 9b 2c 8c bd
       -0.0077394373 0.03356091 -0.0040289178 -0.06844445
0002b0 4e 31 4e bc 12 f5 04 bd 6a ef 9d bd 35 f5 a2 3d
       -0.012584997 -0.03246028 -0.0771168 0.07956926
0002c0 59 50 50 3d f9 bf 7b 3c 19 d3 4e 3d 25 93 0f 3d
       0.050857875 0.015365594 0.050494287 0.035052437
0002d0 49 d9 85 ba c9 c5 41 3d b8 23 3a 3d ea c2 70 bc
       -0.0010211851 0.047307763 0.04544422 -0.014694909
0002e0 31 81 93 3d 26 9e 41 bd 06 4d ed 3c 20 a9 3d 3d
       0.07202376 -0.047269963 0.028967392 0.04630387
0002f0 60 1b 4b 3b da b1 a0 3d 78 aa a3 3c 03 90 47 3d
       0.0030991659 0.078464225 0.019978747 0.048721325
000300 3a 67 8c 3c 41 60 74 bd d0 9e 87 bd fc e0 4c 3c
       0.017139066 -0.059662107 -0.06622088 0.012504812
000310 3c 62 4d 3d ec 8b 0e 3d fb c0 a7 bc 41 60 1f bd
       0.05014251 0.03480141 -0.020477762 -0.038910154
000320 77 f0 3f 3d 5b 50 0d bc 7c e4 08 bd 53 1f 50 3d
       0.046860185 -0.008625115 -0.033421025 0.050811123
000330 f9 86 8a 3d db 24 80 3c fd be 99 3d 21 41 aa bd
       0.06764025 0.015642574 0.07507131 -0.083132036
000340 1f aa 85 bd de 70 54 bd 29 8d 0a bd bc 49 3a bd
       -0.06526589 -0.05186545 -0.033826027 -0.045480475
000350 77 17 62 bb 05 02 c2 bd 67 b0 7c bd a9 4a ce bd
       -0.003449885 -0.094730414 -0.061691668 -0.10072834
000360 7a c7 c4 3c 87 bb 0b 3d b1 67 73 3d 31 d4 3b 3d
       0.0240209 0.034114387 0.05942506 0.04585666
000370 f2 ca b2 3d e4 b6 44 3d b5 0e 67 bc 5e 33 e3 bc
       0.08730115 0.04802598 -0.0141026275 -0.027734455
000380 37 2a 59 bc c2 58 80 3c a4 0d 1f bd 6a ba 1f bd
       -0.013254694 0.015667323 -0.038831368 -0.038996138
000390 6f 8b 16 bd 82 05 c9 3c d6 45 d9 bc 73 64 5b 3d
       -0.036754068 0.02453876 -0.026522558 0.053562593
0003a0 e5 d8 a6 bc f4 ad 74 bd 12 89 9c bc 71 ed eb bc
       -0.020367095 -0.059736207 -0.019108329 -0.028799744
0003b0 d2 bf a9 bd 36 9c bf bc ad 00 3b bd 45 b0 92 bd
       -0.0828854 -0.023389917 -0.04565494 -0.07162527
0003c0 56 39 24 3d 3e ac 90 3b b3 98 fe 3c ae b3 98 bd
       0.040093742 0.004415064 0.031078672 -0.07456146
0003d0 a6 b2 03 bd ab 9d a4 bd 30 d4 b4 bc 44 0f b1 bc
       -0.032152794 -0.08037885 -0.022073835 -0.021613725
0003e0 3b f2 3c 3c e0 a2 9a bd 45 3e a8 bb 60 c2 1e 3d
       0.011532362 -0.07550597 -0.005134376 0.03875959
0003f0 66 0d 5b 3c a6 70 f6 3c 30 bd 53 3d 48 48 4d 3d
       0.013369894 0.030083012 0.051694095 0.05011776

layer4.0.bias f4 [64]
000000 2d 45 69 3c 21 d5 89 3b 1e 22 8f 3c 07 ff 9f bd
       0.014237684 0.004206315 0.017472323 -0.078123145
000010 64 f2 a7 bd ad dc 41 bd 07 f8 74 bc 0f 2e 8b bd
       -0.08200529 -0.047329593 -0.014951712 -0.06795894
000020 12 56 67 bd 2f c6 fd bc 9d 5a e8 39 40 03 8d bd
       -0.056478567 -0.03097829 0.00044318 -0.068853855
000030 af 0d 25 bd cf a8 4a 3d dd f1 68 bd 90 0b a5 3c
       -0.040296253 0.049477395 -0.056871284 0.020147115
000040 5b 5d 78 3d 62 cb 76 3d 25 42 cf 3b 85 1f 7b bd
       0.060635906 0.060252555 0.0063250237 -0.061309356
000050 a5 5c 26 bd 0c 5f 85 3d 5c e2 95 bd f1 ad 9a 3c
       -0.040615696 0.065122694 -0.07318565 0.01888177
000060 dd ae 7b 3c e5 1c de bc fe 5d 2f bd fe fd 5d 3d
       0.015361515 -0.027113387 -0.042814247 0.054197304
000070 0e ed 93 bd c9 1e 3a 3d 68 69 a3 3d 04 a5 6f 3d
       -0.07222949 0.045439515 0.07979089 0.05850698
000080 de 7e a3 bd 6d e7 d2 bc 24 9f d0 3c 3c 83 39 bd
       -0.07983182 -0.025745118 0.02546651 -0.04529117
000090 79 16 82 bb d1 25 43 bb 0f 7e 3c 3c 02 e9 98 bd
       -0.003969964 -0.002977718 0.011504664 -0.07466318
0000a0 63 80 b7 bc 7f 48 21 3d 1a e5 a3 bd fc a2 de 3c
       -0.022400087 0.03937578 -0.08002682 0.027177326
0000b0 a0 2a 30 bc 51 38 9a bd d2 62 4e 3d 9d d7 f0 bc
       -0.01075235 -0.07530273 0.05038721 -0.029399687
0000c0 42 17 95 3d 53 00 ea 3b 49 6f 11 bd 86 bc 81 bd
       0.07279827 0.007141152 -0.03550652 -0.06334786
0000d0 e1 ec 26 3d 92 a9 a1 3d fa 92 3d bd 35 bb 85 3d
       0.04075325 0.07893671 -0.046282746 0.065298475
0000e0 89 f3 9d 3b e2 3e 63 bd f7 c7 21 3d a9 fc 60 3d
       0.0048202914 -0.05547989 0.039497342 0.054928456
0000f0 7e 30 2b 3d 67 c7 7f bd d7 ae 74 bc a8 86 d5 3c
       0.041794293 -0.062446024 -0.014934263 0.026065186

layer4.1.weight f4 [64]
000000 2d 7c 81 3f c6 aa 81 3f e0 b3 82 3f 2a f2 81 3f
       1.011602 1.0130241 1.0211143 1.0152028
000010 66 1f 81 3f a8 e4 81 3f 1e 91 81 3f f4 d2 7a 3f
       1.0087707 1.0147905 1.0122411 0.9797814
000020 81 3d 81 3f 98 ef 80 3f 86 7b 84 3f 25 32 84 3f
       1.0096895 1.0073118 1.0350196 1.0327803
000030 47 94 82 3f 09 d8 81 3f 3a 9b 83 3f dd 74 82 3f
       1.0201501 1.0144054 1.0281746 1.0191914
000040 96 36 83 3f 47 de 80 3f 76 0e 85 3f 1c 6e 85 3f
       1.0251033 1.0067834 1.0395038 1.0424228
000050 36 a7 81 3f 01 09 82 3f 1f 77 80 3f b1 46 82 3f
       1.0129154 1.0158998 1.0036353 1.0177823
000060 80 5c 7e 3f 73 4b 81 3f 3b ec 82 3f 6c 4d 82 3f
       0.99359894 1.010115 1.0228342 1.0179877
000070 ae 62 81 3f f2 44 83 3f ac 40 80 3f fa db 82 3f
       1.010824 1.0255415 1.0019736 1.0223382
000080 1e 0a 81 3f 1e f3 81 3f 33 36 81 3f 83 7f 84 3f
       1.0081213 1.0152318 1.0094665 1.0351413
000090 54 19 80 3f af 1b 82 3f b9 66 85 3f 56 0d 82 3f
       1.000773 1.0164698 1.0421973 1.016032
0000a0 de 53 82 3f b7 47 81 3f 39 b1 84 3f 55 aa 82 3f
       1.0181844 1.0100011 1.0366584 1.0208231
0000b0 4d d0 87 3f 8a 09 82 3f f5 e3 80 3f 27 fd 81 3f
       1.0610443 1.0159161 1.0069567 1.0155381
0000c0 c5 43 81 3f 97 99 81 3f 0c a4 83 3f 4c 37 83 3f
       1.0098807 1.0124997 1.0284438 1.025125
0000d0 a7 75 82 3f f9 43 81 3f 0f 41 82 3f 4d 8f 82 3f
       1.0192155 1.0098869 1.0176104 1.0199982
0000e0 59 3c 81 3f 46 38 83 3f ef 78 82 3f 92 83 84 3f
       1.0096542 1.0251548 1.0193156 1.0352652
0000f0 39 2a 84 3f 44 ae 81 3f 3a 6b 82 3f 94 3e 7f 3f
       1.0325385 1.0131307 1.0188973 0.9970486

layer4.1.bias f4 [64]
000000 9e 79 15 bc 66 7e a1 bb a6 29 b3 bc 10 a0 b2 3a
       -0.009123234 -0.004928398 -0.021870445 0.0013628025
000010 31 e8 c2 bc f2 4b e5 bc a2 bc 7d bd ca 66 28 bc
       -0.023792358 -0.027990315 -0.061947472 -0.010278413
000020 1b 26 9f bc 33 64 5c bb d0 6f 9d bc c6 b8 f4 3b
       -0.01942735 -0.003362906 -0.019218355 0.007468316
000030 80 61 23 bb 83 d1 f0 bc 18 b6 62 bc bd 22 53 3b
       -0.002492994 -0.029396778 -0.01383736 0.003221675
000040 3a 1f 36 bc 1b 54 2a bc 65 1c b4 bb 15 e4 1e bd
       -0.011115843 -0.010396029 -0.005496549 -0.038791735
000050 aa 24 09 3c bc e8 55 bc ba 19 96 3a 4f 40 95 bc
       0.008370558 -0.0130559765 0.0011451759 -0.018219141
000060 2c 3c 3a bd 93 cf c5 bc c9 33 c3 bc b2 bb 0a bc
       -0.04546754 -0.02414683 -0.023828404 -0.008467602
000070 9e 2a 1e ba d8 c6 50 bb af 7f 2d bc 92 95 d5 39
       -0.0006033572 -0.0031856801 -0.010589524 0.00040737964
000080 78 19 59 bb ec 4c 3b bb 06 30 37 3a 26 a9 d3 3b
       -0.0033126753 -0.0028579785 0.0006988052 0.006459373
000090 b8 7c e7 bc 16 c3 c2 3a 2d 5a 03 3b a5 95 be bb
       -0.028257713 0.0014859166 0.0020042763 -0.005816179
0000a0 0c 1c bb bb d3 28 6f bc 81 e7 a6 bb e2 77 62 bb
       -0.0057101306 -0.014597136 -0.0050935154 -0.003455632
0000b0 cf 59 cc bc 3b 8f ab 3b e2 ed 9a bc 97 65 f1 ba
       -0.024945168 0.0052355803 -0.01891226 -0.0018417117
0000c0 eb 0e a0 bb 2c 1d c7 bb 1b f7 ea bb 4c e2 ff bc
       -0.004884591 -0.0060764756 -0.0071705705 -0.031235836
0000d0 82 8d 33 bc 18 39 2b b8 81 48 0d bc 37 1a c4 bc
       -0.010959031 -4.082275e-05 -0.008623243 -0.023938281
0000e0 9e c2 d5 bb a9 49 41 bb b8 14 d1 3b 9a 55 ef 38
       -0.0065234443 -0.0029493368 0.0063806437 0.000114123526
0000f0 9b e2 66 ba bb 3a 53 bc ab a7 19 bb f9 ff 39 bc
       -0.00088075706 -0.01289242 -0.0023445885 -0.011352533

layer4.1.running_mean f4 [64]
000000 f5 6a 20 3d e8 c5 1c be 0d a5 62 bd 43 04 e6 be
       0.039164502 -0.1530987 -0.055333186 -0.44925126
000010 c0 d9 a3 bd a0 c3 39 3e 9a bb 58 3c 51 0d 31 bf
       -0.08000517 0.18141031 0.013228321 -0.69160944
000020 10 9f 9a 3e d8 07 4f 3e f8 da 26 3e e6 34 59 be
       0.3019948 0.20217836 0.16294467 -0.21211585
000030 87 17 94 be 3d 0b 3c 3f a9 2c 59 bf 18 98 ad be
       -0.289242 0.7345465 -0.8483377 -0.339051
000040 30 c4 95 3d 64 59 8b bd 40 0e e6 be 13 48 c5 bd
       0.073128104 -0.06804159 -0.44932747 -0.09632888
000050 5d 13 4f be 6f b4 82 3f b7 0b 8d bb 5d f1 a5 3e
       -0.2022223 1.0211314 -0.004304375 0.32410708
000060 ac cf 3b 3e 92 d0 b2 3e 9c 41 c5 bd 39 cc 49 3c
       0.1834094 0.34924752 -0.096316546 0.012316757
000070 ea 7b b9 be 50 c4 06 bf 2c a9 c4 bd 21 30 1f 3e
       -0.3622735 -0.526433 -0.096025795 0.15545703
000080 4e 22 9b 3f ec 95 60 be b6 d8 4e be 56 3f 9a bd
       1.2119844 -0.2193219 -0.20199856 -0.075316116
000090 2a 19 b0 bc f1 67 c5 bc af 73 31 be 33 46 77 be
       -0.021496374 -0.024097415 -0.17329286 -0.24147873
0000a0 84 d1 0d be 8d 8f b3 be 78 71 b8 3e 10 6b 9f 3e
       -0.13849455 -0.35070458 0.3602407 0.3113637
0000b0 e7 a7 3b 3e 11 96 ba be 38 17 a9 3e 5b 34 db be
       0.18325768 -0.36442617 0.33025527 -0.42813382
0000c0 8e aa e1 3d 3a bb 5b bf 67 d2 1e 3f eb 5e 89 bd
       0.11018859 -0.8583256 0.620398 -0.06707557
0000d0 d3 65 16 be c3 78 ae 3b f7 10 0f be 0d 13 02 3f
       -0.1468728 0.0053244545 -0.13971315 0.5081032
0000e0 72 47 83 bd 3b 3a df be 87 cf 20 3e 5b a5 48 be
       -0.064101115 -0.43599114 0.15704165 -0.19594328
0000f0 ad 7e 90 bd 97 71 11 bf 62 2c 6a bc 6a ad 13 3d
       -0.070554115 -0.5681395 -0.014292808 0.036054052

layer4.1.running_var f4 [64]
000000 cb 98 a1 3e 44 09 a8 3e 4d 04 af 3e a1 eb 92 3e
       0.31561884 0.3281957 0.3418297 0.28695396
000010 84 61 db 3e 6b 7a 00 3f 0f 52 ae 3e 15 0f 09 3f
       0.42847836 0.50186795 0.3404698 0.5353864
000020 ce dc 01 3f 97 b3 cc 3e 7f 07 e2 3e 1b c7 84 3e
       0.50727546 0.39980766 0.44146344 0.25933155
000030 34 47 8a 3e 9f c2 2b 3f 54 e4 cb 3e a4 ef b5 3e
       0.2700745 0.67093843 0.39822638 0.35534394
000040 b1 dd 89 3e 30 41 80 3e 18 e4 a9 3e 8b 1f 2b 3f
       0.2692695 0.25049734 0.33181834 0.66845006
000050 38 4a bb 3e 36 1e cd 3e c6 7a bb 3e eb 90 1f 3f
       0.36580062 0.40062112 0.36617106 0.623305
000060 ba 1c f5 3e 73 da c1 3e 41 6e 0f 3f 2b 34 1b 3f
       0.4787348 0.37861976 0.5602761 0.60626477
000070 41 97 a6 3e 55 23 d4 3e 1e f5 85 3e 41 59 02 3f
       0.32537273 0.41433206 0.26163572 0.5091744
000080 40 d1 bf 3e 8b ea 09 3f 2f 3d a3 3e 30 6e f0 3e
       0.37464333 0.5387351 0.31882617 0.46959066
000090 33 95 60 3e 72 67 00 3f c2 ec e0 3e c2 d1 a8 3e
       0.21931915 0.50157845 0.43930632 0.32972533
0000a0 28 4e 04 3f 48 e7 f7 3e 83 1f ee 3e 9f 0f 48 3f
       0.51681757 0.4841864 0.46508417 0.78148836
0000b0 22 b7 f9 3e bf 14 a6 3e b1 bd ce 3e 62 fc 0d 3f
       0.48772532 0.32437703 0.40379098 0.5546323
0000c0 f1 6d 9d 3e 7f ab ee 3e e4 67 84 3e c0 3a 3e 3f
       0.3074794 0.46615216 0.25860512 0.74308395
0000d0 21 c4 ad 3e 47 50 cb 3e 43 79 90 3e d2 47 be 3e
       0.33938697 0.39709684 0.28217515 0.3716417
0000e0 81 27 b0 3e 67 00 f1 3e 77 3b 00 3f c1 92 04 3f
       0.3440514 0.4707062 0.50090736 0.5178643
0000f0 ef 38 db 3e 17 4d 14 3f f4 df 93 3e 50 73 81 3e
       0.42816874 0.5793013 0.288818 0.2528329

layer5.0.weight f4 [64, 64, 3, 3]
000000 c5 0b 07 3d 13 1a e0 bc 7c f3 11 bc 88 24 9a bb
       0.03297021 -0.027356183 -0.008908149 -0.004704062
000010 c6 92 9c bc 57 46 23 bd 22 be f2 3c 40 26 be bc
       -0.019112956 -0.039862003 0.029631678 -0.023211598
000020 60 15 a3 ba c4 c2 64 3c 40 a0 6e 3c 0a 35 bf 3c
       -0.0012442283 0.013962451 0.014564574 0.02334072
000030 18 9d f6 bc 02 0a 20 bd 0e 77 86 3c 20 e0 2e bc
       -0.030104205 -0.039072044 0.016414192 -0.010673553
000040 aa 33 fd 3c d2 6f 93 3c 78 bf 81 3b 42 10 a7 3c
       0.030908424 0.017997656 0.0039595924 0.020393495
000050 dc 51 25 bc b0 44 00 bc e2 89 ec 3c f3 8a 8e bc
       -0.010090318 -0.007828876 0.028874341 -0.01740024
000060 00 e6 60 3b b0 5d 12 bc 36 df ec 3c 90 b7 43 bb
       0.0034316778 -0.00893347 0.028915029 -0.002986405
000070 ce f1 d4 3c 44 43 26 bd c0 38 89 bb 0e b8 e6 bc
       0.025994208 -0.040591493 -0.0041876733 -0.028163936
000080 80 6c 10 bd 00 2e cf ba 16 8a fd 3c 08 7b af 3b
       -0.035259724 -0.0015806556 0.030949634 0.0053552426
000090 a2 e8 c4 3c b6 92 6d bc ab b8 1c 3d b8 31 0a bd
       0.02403671 -0.014500311 0.03826205 -0.03373882
0000a0 a8 1c 80 3c a8 67 93 bc 19 2f 1f 3d 0a 55 10 bd
       0.015638664 -0.017993763 0.038863275 -0.03523735
0000b0 3c 41 28 bd 3e a6 09 bd 9b 2d 1d 3d c8 b5 83 3b
       -0.041077837 -0.033605807 0.03837357 0.0040194727
0000c0 33 02 11 3d 30 9d 6c 3c e0 88 99 bb e4 3f 1c bd
       0.035402488 0.014441773 -0.004685506 -0.03814687
0000d0 04 84 1b bd 72 e1 c2 3c f8 c6 ff 3b 74 9d 42 3c
       -0.037967697 0.023789141 0.0078057013 0.01187836
0000e0 bb ce 23 bd bc 76 2c 3c 49 27 0b 3d 4e 95 b8 3c
       -0.039992075 0.010526355 0.033973012 0.022532132
0000f0 b3 0c 18 3d 70 22 04 bb 90 f8 60 bb c0 57 40 3a
       0.037121486 -0.0020162128 -0.0034327842 0.00073372945
000100 61 47 0d 3d 49 08 28 3d 30 13 51 3c a6 f4 c1 3c
       0.0344919 0.041023526 0.012760922 0.023676228
000110 32 b9 a7 3c c0 cb e7 3b ec 91 16 3c 06 9d 53 bc
       0.02047405 0.0070738494 0.009190064 -0.012915855
000120 a4 46 27 3c c1 17 28 3d d0 4b 56 3b fb 71 d3 bc
       0.010209713 0.04103828 0.0032698996 -0.025811186
000130 08 f8 fe bb b3 60 0c bd 06 5c 91 3c 94 9c 58 3c
       -0.0077810325 -0.034271907 0.017744076 0.013220925
000140 9c 57 18 bd 00 ca ad b8 4b a0 fb bc 50 94 83 bc
       -0.037192926 -8.286908e-05 -0.030716082 -0.016061932
000150 30 36 4b bb 2c 69 6b 3c ee 94 a5 bc ac 9e 0b bc
       -0.003100764 0.014368337 -0.020212617 -0.008521717
000160 c3 dd 93 bc 00 ce 8c 3b b0 cb 56 bc c8 f3 b7 3b
       -0.01805008 0.004297018 -0.013110086 0.005613778
000170 c1 50 22 3d 36 2e 76 bc 23 23 00 3d 17 7e 04 bd
       0.039627794 -0.015025666 0.03128351 -0.03234681
000180 cc dd 4d bc 50 d3 0c bb 1c ae 16 bd 50 8d 7a bc
       -0.0125650875 -0.0021488257 -0.036787137 -0.015292481
000190 eb 3c c6 bc 54 d1 17 bd 1c 93 53 3c 08 af a0 3b
       -0.02419897 -0.037064865 0.012913492 0.004903678
0001a0 29 9b 07 3d 90 26 09 3b 6e b7 f1 bc e8 a3 8b 3c
       0.033106957 0.0020927526 -0.029506411 0.01704593
0001b0 5b 54 87 bc 64 98 0d 3c c0 c0 d0 bc 60 08 9c 3b
       -0.016519716 0.00864229 -0.025482535 0.0047617406
0001c0 34 6c 26 bd 20 00 04 bd 84 e2 0f bc 10 7d 31 3c
       -0.040630534 -0.03222668 -0.008782033 0.01083304
0001d0 48 18 9f bb 52 5d a8 3c a6 8d fd bc 00 c8 09 bc
       -0.0048551895 0.020552311 -0.030951332 -0.0084095
0001e0 40 4b 87 3c 06 2c fe 3c 50 17 57 bb 10 6a 72 bb
       0.016515374 0.031026851 -0.0032820292 -0.0036989488
0001f0 20 07 8e 3c 40 ef 3c 3a c0 19 15 bb a0 d2 96 3b
       0.017337382 0.0007207282 -0.0022750944 0.004602745
000200 b4 43 16 bc cd 54 17 3d 80 6e 23 bc 68 35 99 3b
       -0.009171415 0.036946107 -0.009975076 0.004675556
000210 93 c6 ff bc 6b f6 e6 bc 55 6d 22 3d 1e 86 cc bc
       -0.031222617 -0.028193673 0.03965505 -0.024966296
000220 f0 06 8e bc e0 37 49 bc cd 8a 25 3d 30 88 09 3b
       -0.017337292 -0.012281388 0.040415574 0.0020985715
000230 80 57 11 3c 13 f1 f0 bc f0 bc 40 bb 7e 92 bd 3c
       0.008870959 -0.029411828 -0.002940949 0.023141142
000240 a8 4a ae bc 40 cb 2c bb 50 4d 11 bd 54 cf 0c bd
       -0.021275833 -0.0026366264 -0.03547412 -0.03437741
000250 40 d9 e0 3b d2 6f d2 3c 7b ab 84 bc 84 13 61 3c
       0.0068618357 0.025688086 -0.01619505 0.013737563
000260 66 15 d9 3c 12 da f9 3c 90 fe 43 bb f7 44 04 bd
       0.026499461 0.030499492 -0.002990637 -0.032292333
000270 1c f6 36 3c 66 33 90 bc d4 ca 42 3c 1c 02 00 bc
       0.0111670755 -0.017602634 0.011889178 -0.007813003
000280 e0 f1 8d 3a 57 ee 23 3d a0 39 dc 3b 16 21 d3 bc
       0.0010829531 0.04002222 0.0067207366 -0.025772613
000290 10 52 05 3c f7 bd 27 3d 7c 31 3f 3c 6c a5 40 3c
       0.008137241 0.04095265 0.011669513 0.01175819
0002a0 50 ff 25 3b 87 c0 04 3d 1a 75 9e 3c 72 12 15 bd
       0.002532918 0.03241017 0.019342948 -0.036394544
0002b0 d6 60 fe 3c 14 63 0a 3c 16 47 d7 3c 87 46 0b bd
       0.031052034 0.008446474 0.026279014 -0.034002807
0002c0 a3 c0 00 3d 00 98 4f bb f4 d1 34 3c c0 2c 73 bc
       0.031433713 -0.0031676292 0.011036385 -0.014842212
0002d0 f0 4c 8b 3c 3e fc bf bc e0 39 e1 bc 6c 9a 54 bc
       0.01700446 -0.023435708 -0.027493417 -0.01297627
0002e0 96 7f 83 bc b8 47 90 3b 10 e1 46 bb 9b ef d7 bc
       -0.016052049 0.004403081 -0.003034655 -0.02635937
0002f0 6e e6 07 bd 36 69 0a bd cc 9a 0d bd 2c 76 21 bc
       -0.03317874 -0.033791743 -0.034571454 -0.0098548345
000300 7e b3 88 bc 16 d7 f0 bc f3 84 cc bc 38 a5 98 3b
       -0.016687151 -0.029399436 -0.024965739 0.0046583675
000310 48 b8 db bb 00 41 49 3c c2 7f f8 3c 00 7c 4b bc
       -0.0067053176 0.012283564 0.030334357 -0.012419701
000320 e0 40 da 3a 80 44 9e ba 40 a5 b9 bc 7d 92 28 3d
       0.0016651414 -0.0012074858 -0.022661805 0.041155327
000330 08 32 e4 bc c8 d6 03 bd 00 07 37 b9 d7 b0 15 3d
       -0.027855888 -0.032187253 -0.00017454848 0.0365456
000340 06 fc 9e bc 7b 3c a3 bc c0 0e ee bc 70 24 db bc
       -0.019407284 -0.0199263 -0.029059768 -0.026750773
000350 4e fb 26 bd 2a 40 a4 3c ae 97 c9 3c 78 da 89 bc
       -0.040767007 0.020050127 0.02460846 -0.016827807
000360 ed 5d 14 3d be e8 ea 3c 18 32 93 3c 30 03 37 bc
       0.036222387 0.028675433 0.017968222 -0.011170194
000370 00 82 0c 3a be 94 c8 bc 67 0f 15 bd e1 da 1e 3d
       0.00053599477 -0.024484988 -0.036391642 0.038782958
000380 69 7b 03 3d 30 f7 6f 3c b5 be 27 3d d5 5e 0c 3d
       0.032100115 0.014646336 0.040953357 0.034270126
000390 a4 f3 5d 3c d6 17 98 3c 82 95 df 3c 78 3c f8 3b
       0.013546858 0.018566053 0.02729297 0.007575568
0003a0 1a ae 08 bd 09 8f 26 3d 6c 4f 10 3c c2 1b 1d bd
       -0.03336916 0.040663753 0.008807998 -0.03835655
0003b0 99 a1 05 3d 00 df 53 3a b9 8b 01 3d 4c 8a 63 3c
       0.032624815 0.0008082241 0.03162739 0.013887953
0003c0 f6 7a 17 bd e8 04 f1 bb 28 0a 99 3b 11 3a 23 3d
       -0.0369825 -0.007355321 0.0046704 0.0398503
0003d0 1c 45 78 bc 1e 2b 8f bc 26 ca ca 3c 60 5b e9 bc
       -0.015153196 -0.017476615 0.024754595 -0.028485954
0003e0 fb 3c 99 bc c2 11 c0 3c e8 31 9d 3c 30 6c 22 bc
       -0.018705836 0.023445968 0.019188836 -0.009913489
0003f0 02 d9 bf 3c 4a 1d d1 3c 09 9c 21 3d 36 23 97 3c
       0.023418907 0.025526661 0.039455447 0.018449407

layer5.0.bias f4 [64]
000000 a4 c0 69 3c b0 ed 0f bd 02 2c e4 3c 44 1e 13 bd
       0.0142671205 -0.035138786 0.027853016 -0.035917535
000010 88 0d 9c bb 94 a2 12 bd f6 db b2 bc 80 3d 94 39
       -0.0047623552 -0.035799578 -0.021833401 0.0002827458
000020 ea 99 c2 3c 08 44 9f bb 00 01 4a b9 0c 24 2e bc
       0.023755033 -0.004860405 -0.00019264594 -0.010628711
000030 f3 70 23 bd 58 c8 80 3b 4e 88 15 bd f6 d5 9a bc
       -0.03990264 0.003930133 -0.036506943 -0.018900853
000040 46 63 80 bc dc 4f 06 3c 7c 8d 55 bc d6 dc ea 3c
       -0.015672337 0.008197751 -0.013034221 0.028669756
000050 f6 06 aa bc ab 08 c0 bc 6e 79 e0 3c 6b 2a 81 bc
       -0.020755272 -0.023441633 0.027401652 -0.015767297
000060 95 8f 00 3d 30 3a 6e bc 33 0f 29 3d 1b ff 0b bd
       0.03138693 -0.01454024 0.04127426 -0.034178834
000070 46 d9 01 bd 90 3f 28 bd 56 a6 85 3c 20 60 9f 3a
       -0.03170135 -0.041076243 0.016314667 0.0012159385
000080 48 b1 a1 3b 9f ad 0f bd 2b e5 dd bc 50 25 53 bb
       0.0049344636 -0.035077687 -0.027086815 -0.0032218285
000090 98 81 c1 bc f0 0c 12 bc e1 91 01 3d 30 8f 9f bc
       -0.023621365 -0.008914217 0.03163326 -0.019477457
0000a0 a6 b1 ef bc 76 13 b8 bc 1e 5c 19 bd 45 09 26 3d
       -0.029259514 -0.022470217 -0.037441365 0.040536184
0000b0 1b 2a 95 bc 80 f3 7c 3c a8 12 b5 bb 8c 71 1c 3c
       -0.018208554 0.015438914 -0.0055259056 0.009548556
0000c0 3b 39 fb bc d0 b3 7a bb 90 dd 28 3c ba be d8 3c
       -0.030666938 -0.003825415 0.010306731 0.026458133
0000d0 3c 1b 62 bc 38 06 9e 3c 90 5b 27 bb 5a a4 13 bd
       -0.0138004385 0.019290075 -0.0025536753 -0.03604541
0000e0 8e 47 a6 bc 58 33 a8 3c 74 4d 2f 3c e1 8d 26 3d
       -0.020297792 0.020532295 0.010699619 0.04066265
0000f0 6f 1f 05 3d f8 a8 eb bc 87 7c 06 bd c2 74 e3 3c
       0.03250068 -0.028767094 -0.032833602 0.027765635

layer5.1.weight f4 [64]
000000 00 00 80 3f 00 00 80 3f 00 00 80 3f 00 00 80 3f
       1.0 1.0 1.0 1.0
000010 00 00 80 3f 00 00 80 3f 00 00 80 3f 00 00 80 3f
       1.0 1.0 1.0 1.0
000020 00 00 80 3f 00 00 80 3f 00 00 80 3f 00 00 80 3f
       1.0 1.0 1.0 1.0
000030 00 00 80 3f 00 00 80 3f 00 00 80 3f 00 00 80 3f
       1.0 1.0 1.0 1.0
000040 00 00 80 3f 00 00 80 3f 00 00 80 3f 00 00 80 3f
       1.0 1.0 1.0 1.0
000050 00 00 80 3f 00 00 80 3f 00 00 80 3f 00 00 80 3f
       1.0 1.0 1.0 1.0
000060 00 00 80 3f 00 00 80 3f 00 00 80 3f 00 00 80 3f
       1.0 1.0 1.0 1.0
000070 00 00 80 3f 00 00 80 3f 00 00 80 3f 00 00 80 3f
       1.0 1.0 1.0 1.0
000080 00 00 80 3f 00 00 80 3f 00 00 80 3f 00 00 80 3f
       1.0 1.0 1.0 1.0
000090 00 00 80 3f 00 00 80 3f 00 00 80 3f 00 00 80 3f
       1.0 1.0 1.0 1.0
0000a0 00 00 80 3f 00 00 80 3f 00 00 80 3f 00 00 80 3f
       1.0 1.0 1.0 1.0
0000b0 00 00 80 3f 00 00 80 3f 00 00 80 3f 00 00 80 3f
       1.0 1.0 1.0 1.0
0000c0 00 00 80 3f 00 00 80 3f 00 00 80 3f 00 00 80 3f
       1.0 1.0 1.0 1.0
0000d0 00 00 80 3f 00 00 80 3f 00 00 80 3f 00 00 80 3f
       1.0 1.0 1.0 1.0
0000e0 00 00 80 3f 00 00 80 3f 00 00 80 3f 00 00 80 3f
       1.0 1.0 1.0 1.0
0000f0 00 00 80 3f 00 00 80 3f 00 00 80 3f 00 00 80 3f
       1.0 1.0 1.0 1.0

layer5.1.bias f4 [64]
000000 00 00 00 00 00 00 00 00 00 00 00 00 00 00 00 00
       0.0 0.0 0.0 0.0
000010 00 00 00 00 00 00 00 00 00 00 00 00 00 00 00 00
       0.0 0.0 0.0 0.0
000020 00 00 00 00 00 00 00 00 00 00 00 00 00 00 00 00
       0.0 0.0 0.0 0.0
000030 00 00 00 00 00 00 00 00 00 00 00 00 00 00 00 00
       0.0 0.0 0.0 0.0
000040 00 00 00 00 00 00 00 00 00 00 00 00 00 00 00 00
       0.0 0.0 0.0 0.0
000050 00 00 00 00 00 00 00 00 00 00 00 00 00 00 00 00
       0.0 0.0 0.0 0.0
000060 00 00 00 00 00 00 00 00 00 00 00 00 00 00 00 00
       0.0 0.0 0.0 0.0
000070 00 00 00 00 00 00 00 00 00 00 00 00 00 00 00 00
       0.0 0.0 0.0 0.0
000080 00 00 00 00 00 00 00 00 00 00 00 00 00 00 00 00
       0.0 0.0 0.0 0.0
000090 00 00 00 00 00 00 00 00 00 00 00 00 00 00 00 00
       0.0 0.0 0.0 0.0
0000a0 00 00 00 00 00 00 00 00 00 00 00 00 00 00 00 00
       0.0 0.0 0.0 0.0
0000b0 00 00 00 00 00 00 00 00 00 00 00 00 00 00 00 00
       0.0 0.0 0.0 0.0
0000c0 00 00 00 00 00 00 00 00 00 00 00 00 00 00 00 00
       0.0 0.0 0.0 0.0
0000d0 00 00 00 00 00 00 00 00 00 00 00 00 00 00 00 00
       0.0 0.0 0.0 0.0
0000e0 00 00 00 00 00 00 00 00 00 00 00 00 00 00 00 00
       0.0 0.0 0.0 0.0
0000f0 00 00 00 00 00 00 00 00 00 00 00 00 00 00 00 00
       0.0 0.0 0.0 0.0

layer5.1.running_mean f4 [64]
000000 00 00 00 00 00 00 00 00 00 00 00 00 00 00 00 00
       0.0 0.0 0.0 0.0
000010 00 00 00 00 00 00 00 00 00 00 00 00 00 00 00 00
       0.0 0.0 0.0 0.0
000020 00 00 00 00 00 00 00 00 00 00 00 00 00 00 00 00
       0.0 0.0 0.0 0.0
000030 00 00 00 00 00 00 00 00 00 00 00 00 00 00 00 00
       0.0 0.0 0.0 0.0
000040 00 00 00 00 00 00 00 00 00 00 00 00 00 00 00 00
       0.0 0.0 0.0 0.0
000050 00 00 00 00 00 00 00 00 00 00 00 00 00 00 00 00
       0.0 0.0 0.0 0.0
000060 00 00 00 00 00 00 00 00 00 00 00 00 00 00 00 00
       0.0 0.0 0.0 0.0
000070 00 00 00 00 00 00 00 00 00 00 00 00 00 00 00 00
       0.0 0.0 0.0 0.0
000080 00 00 00 00 00 00 00 00 00 00 00 00 00 00 00 00
       0.0 0.0 0.0 0.0
000090 00 00 00 00 00 00 00 00 00 00 00 00 00 00 00 00
       0.0 0.0 0.0 0.0
0000a0 00 00 00 00 00 00 00 00 00 00 00 00 00 00 00 00
       0.0 0.0 0.0 0.0
0000b0 00 00 00 00 00 00 00 00 00 00 00 00 00 00 00 00
       0.0 0.0 0.0 0.0
0000c0 00 00 00 00 00 00 00 00 00 00 00 00 00 00 00 00
       0.0 0.0 0.0 0.0
0000d0 00 00 00 00 00 00 00 00 00 00 00 00 00 00 00 00
       0.0 0.0 0.0 0.0
0000e0 00 00 00 00 00 00 00 00 00 00 00 00 00 00 00 00
       0.0 0.0 0.0 0.0
0000f0 00 00 00 00 00 00 00 00 00 00 00 00 00 00 00 00
       0.0 0.0 0.0 0.0

layer5.1.running_var f4 [64]
000000 00 00 80 3f 00 00 80 3f 00 00 80 3f 00 00 80 3f
       1.0 1.0 1.0 1.0
000010 00 00 80 3f 00 00 80 3f 00 00 80 3f 00 00 80 3f
       1.0 1.0 1.0 1.0
000020 00 00 80 3f 00 00 80 3f 00 00 80 3f 00 00 80 3f
       1.0 1.0 1.0 1.0
000030 00 00 80 3f 00 00 80 3f 00 00 80 3f 00 00 80 3f
       1.0 1.0 1.0 1.0
000040 00 00 80 3f 00 00 80 3f 00 00 80 3f 00 00 80 3f
       1.0 1.0 1.0 1.0
000050 00 00 80 3f 00 00 80 3f 00 00 80 3f 00 00 80 3f
       1.0 1.0 1.0 1.0
000060 00 00 80 3f 00 00 80 3f 00 00 80 3f 00 00 80 3f
       1.0 1.0 1.0 1.0
000070 00 00 80 3f 00 00 80 3f 00 00 80 3f 00 00 80 3f
       1.0 1.0 1.0 1.0
000080 00 00 80 3f 00 00 80 3f 00 00 80 3f 00 00 80 3f
       1.0 1.0 1.0 1.0
000090 00 00 80 3f 00 00 80 3f 00 00 80 3f 00 00 80 3f
       1.0 1.0 1.0 1.0
0000a0 00 00 80 3f 00 00 80 3f 00 00 80 3f 00 00 80 3f
       1.0 1.0 1.0 1.0
0000b0 00 00 80 3f 00 00 80 3f 00 00 80 3f 00 00 80 3f
       1.0 1.0 1.0 1.0
0000c0 00 00 80 3f 00 00 80 3f 00 00 80 3f 00 00 80 3f
       1.0 1.0 1.0 1.0
0000d0 00 00 80 3f 00 00 80 3f 00 00 80 3f 00 00 80 3f
       1.0 1.0 1.0 1.0
0000e0 00 00 80 3f 00 00 80 3f 00 00 80 3f 00 00 80 3f
       1.0 1.0 1.0 1.0
0000f0 00 00 80 3f 00 00 80 3f 00 00 80 3f 00 00 80 3f
       1.0 1.0 1.0 1.0
