data/chkbox_models/chkbox_rnd10_4_bestVal.pt (torch_old, 35085 bytes, 25 tensors)

layer1.0.weight f4 [4, 1, 3, 3]
0	0xbea8191f	-0.32831666
1	0xbe816564	-0.25272667
2	0x3e0da8c2	0.13833907
3	0xbe6450d6	-0.22296461
4	0xbe84b4fc	-0.2591933
5	0x3dcf7926	0.10130529
6	0x3e4b6cbd	0.19865699
7	0xbdbbd27f	-0.09171008
8	0xbea89601	-0.32926944
9	0xbd710f70	-0.058852613
10	0x3e501548	0.20320618
11	0x3eba5ed8	0.36400485
12	0x3e21fea3	0.15819792
13	0x3e155979	0.14584912
14	0x3e9ba5f6	0.30400056
15	0xbb89e18b	-0.004207795
16	0xbe385af6	-0.18003449
17	0x3ee42dde	0.44566244
18	0xbe849d51	-0.25901273
19	0xbe8032df	-0.25038812
20	0xbe6874ba	-0.22700778
21	0xbe5b5ad1	-0.21421362
22	0x3e1e2a84	0.15445906
23	0xbe480f91	-0.19537188
24	0x3c4288df	0.011873453
25	0x3cee20c5	0.02906836
26	0xbe171b51	-0.14756514
27	0xbd73c312	-0.059512205
28	0x3d6d25cd	0.057897378
29	0x3e372241	0.1788416
30	0x3d7e8b35	0.062144477
31	0xbd9d484e	-0.07679807
32	0x3f1e7419	0.618959
33	0xbd10941f	-0.03529751
34	0x3e072938	0.13199317
35	0xbc32f377	-0.010922304

layer1.0.bias f4 [4]
0	0xbe99fd27	-0.30075952
1	0xbe77fbb8	-0.24217117
2	0x3d064b82	0.032786854
3	0x3e776f25	0.24163492

layer1.1.weight f4 [4]
0	0x3f6ea609	0.932221
1	0x3f817ac0	1.0115585
2	0x3f7c5e66	0.9858154
3	0x3f84524b	1.0337614

layer1.1.bias f4 [4]
0	0x3d882d2d	0.066492416
1	0xbc621784	-0.013799552
2	0x3d18326b	0.037157457
3	0x3d2e3a77	0.042536225

layer1.1.running_mean f4 [4]
0	0xbfa7bab0	-1.3103848
1	0x3f8a82e1	1.0821191
2	0xbf82591e	-1.0183446
3	0x3f8a16d8	1.0788221

layer1.1.running_var f4 [4]
0	0x3f903597	1.1266354
1	0x3ff6ccfc	1.9281306
2	0x3f973a46	1.1814659
3	0x3f561d68	0.8363862

layer2.0.weight f4 [8, 4, 3, 3]
0	0xbd949f7f	-0.07256984
1	0x3dfc116a	0.12308009
2	0xbdc7e118	-0.0975973
3	0xbe01aec8	-0.1266433
4	0xbd3c3fbb	-0.045959216
5	0x3c60a839	0.013711982
6	0xbe241b7b	-0.16026108
7	0xbda162de	-0.078801855
8	0x3def8f98	0.1169731
9	0xbe030505	-0.12794884
10	0xbe133016	-0.14373812
11	0xbd81a2ca	-0.06329878
12	0xbdbd5a9a	-0.092457965
13	0x3e114ad3	0.141887
14	0xbe33e797	-0.17568813
15	0xbd82ac24	-0.063804895
16	0x3dfed159	0.12442274
17	0xbb801098	-0.003908228
18	0xbd8162b1	-0.06317652
19	0xbdf6075a	-0.12013121
20	0x3d81ba5c	0.06334373
21	0x3d10a869	0.03531686
22	0x3ce84542	0.028353337
23	0xbd3e8e6f	-0.046522554
24	0xbdd1a7ce	-0.10237084
25	0x3de6d681	0.11271382
26	0xbdd88ff8	-0.10574335
27	0x3d957dc0	0.072993755
28	0x3e26bceb	0.16283004
29	0xbe3f8fdc	-0.18707222
30	0x3c3175bc	0.010831293
31	0x3d2ba7e6	0.041908167
32	0x3dc26dec	0.09493622
33	0xbcf648d5	-0.030064026
34	0x3d21fdbf	0.03954863
35	0x3d3f7aa2	0.04674781
36	0x3cb4f8a1	0.022091212
37	0x3e04e6e0	0.12978697
38	0x3e0e9899	0.13925399
39	0xbe2d6e6c	-0.16936654
40	0xbe495b0f	-0.19663642
41	0xbde2fe12	-0.11083616
42	0xbdb8727a	-0.0900621
43	0xbcf01094	-0.02930478
44	0x3d2470e9	0.040146742
45	0x3e040ce0	0.12895536
46	0x3d5b633b	0.05356143
47	0x3a94b431	0.0011345205
48	0x3e034240	0.12818241
49	0x3d75644a	0.059910096
50	0xbd14104c	-0.036148354
51	0x3d2ea42b	0.04263703
52	0x3e268a2a	0.16263643
53	0x3dde067b	0.1084108
54	0xbd66322c	-0.05620019
55	0xbd9f8685	-0.077893294
56	0x3dc0f142	0.09421016
57	0x3d6e5fdb	0.058196884
58	0x3d7bc594	0.061467722
59	0xbdc32d49	-0.09530122
60	0x3d913f2e	0.07092129
61	0x3d73d3aa	0.05952803
62	0x3dd88c37	0.10573619
63	0x3e15f7ad	0.14645262
64	0xbd5f4229	-0.054506455
65	0xbdb291d3	-0.0871922
66	0xbcb439f0	-0.022000283
67	0x3e0d7a36	0.13816151
68	0xbae2a647	-0.0017291986
69	0x3de367a4	0.11103752
70	0x3d03e5a6	0.03220143
71	0x3b98d547	0.0046640965
72	0x3ddcd63c	0.107830495
73	0x3de64730	0.11244047
74	0xbd9a1b84	-0.075247794
75	0xbdf74454	-0.120735794
76	0xbcb1e53a	-0.021715749
77	0xbc02e30a	-0.007988701
78	0xbd9f1d74	-0.077692896
79	0xbdfed943	-0.12443783
80	0xbda221e9	-0.07916624
81	0xbdd41255	-0.10355059
82	0x3dd763e0	0.105170965
83	0x3e020382	0.1269665
84	0x3dbec6ab	0.09315237
85	0x3d010b1f	0.031504747
86	0x3dcd2d1b	0.10018369
87	0xbb1077dd	-0.00220441
88	0xbdf02ae7	-0.11726933
89	0xbd808c88	-0.06276804
90	0x3dda285c	0.10652229
91	0xbdf120eb	-0.11773857
92	0xbd72a1a2	-0.059236176
93	0xbdc5292f	-0.09626996
94	0x3db4671d	0.0880873
95	0xbddb9b8f	-0.1072303
96	0xbe0bad7d	-0.136404
97	0xbda6dd6f	-0.08147704
98	0xbd048656	-0.032354675
99	0xbb4bcb70	-0.00310966
100	0xbd0f7570	-0.035024107
101	0x3d8c1282	0.068394676
102	0xbd55bfea	-0.052184977
103	0x3ddaab6b	0.10677227
104	0xbd4cb8b4	-0.049980834
105	0xbc30e44a	-0.010796616
106	0x3e3a99a2	0.18222669
107	0x3e00bd4d	0.12572213
108	0xbd24728f	-0.040148314
109	0x3d688055	0.056763012
110	0x3d349596	0.04408797
111	0x3dc36049	0.09539849
112	0xbe2323fb	-0.15931694
113	0xbcdee707	-0.027209772
114	0x3ca40cdc	0.020025663
115	0x3d9f33d2	0.07773556
116	0x3e194e7f	0.1497135
117	0x3e201c79	0.15635861
118	0x3d5d19dd	0.053979743
119	0x3c6a5cea	0.014304379
120	0xbe126a1f	-0.14298294
121	0xbd577fcf	-0.052612122
122	0xbdd86abb	-0.10567232
123	0x3c829141	0.015938403
124	0x3d014523	0.031560075
125	0xbe23a622	-0.15981343
126	0x3e08455b	0.13307707
127	0x3da8bf0f	0.082395665
128	0x3d3d2378	0.046176404
129	0x3d45303c	0.048141703
130	0xbde2a7da	-0.110671714
131	0xbd4a3ddb	-0.049375396
132	0xbdfe885d	-0.12428353
133	0xba83ca47	-0.001005479
134	0xbdf955fe	-0.12174605
135	0x3e29c360	0.16578436
136	0x3dc49bd1	0.09600032
137	0xbd1740b6	-0.036926948
138	0xbd22b231	-0.039720718
139	0xbdf8ded9	-0.1215188
140	0xbe1ec2b9	-0.15503968
141	0x3d5edb34	0.054408267
142	0xbd615044	-0.055008188
143	0x3dd23623	0.10264232
144	0x3dfa5b83	0.12224486
145	0x3da7a974	0.081866175
146	0xbe385a3c	-0.18003172
147	0x3c281e80	0.010261178
148	0x3d999f5d	0.07501099
149	0x3c289572	0.010289537
150	0x3b899049	0.0041981083
151	0xbce391a6	-0.027779412
152	0xbdfc1de5	-0.123103894
153	0xbdb39462	-0.08768536
154	0xbdd499f7	-0.10380929
155	0xbdd45619	-0.10367984
156	0xbc213058	-0.009838186
157	0xbc6ce8be	-0.014459787
158	0xbcc785a8	-0.024355724
159	0xbe11a360	-0.14222479
160	0x3df3bb20	0.11900926
161	0x3e22eb75	0.15910132
162	0x3ddbd635	0.10734216
163	0x3d47d88a	0.048790492
164	0xbc82a931	-0.015949817
165	0x3db8cd08	0.090234816
166	0xbd93d67a	-0.072186425
167	0x3dbcaa9a	0.09212227
168	0xbd2c57b2	-0.04207582
169	0xbe11845b	-0.14210646
170	0x3e0cb318	0.13740194
171	0xbcafb939	-0.021450626
172	0x3e35a1c1	0.17737485
173	0x3df633cf	0.120216005
174	0xbe08e01a	-0.13366738
175	0xbd2253c5	-0.03963067
176	0xbe16bdcd	-0.14720841
177	0xbdda96bc	-0.106732816
178	0x3e1134df	0.14180325
179	0x3d37d8cd	0.04488449
180	0xbde57ea9	-0.11205799
181	0xbd661e4f	-0.05618125
182	0xbd81ff6a	-0.063475445
183	0xbd85af8b	-0.06527623
184	0xbd51f6cc	-0.051260754
185	0x3d9ebe63	0.07751157
186	0xbdd5d3fc	-0.104408234
187	0xbd8f4b42	-0.06996776
188	0x3db89910	0.09013569
189	0x3e0b882c	0.13626164
190	0xbe1c7201	-0.15277864
191	0x3ca6792a	0.020321447
192	0xbd025e81	-0.031828407
193	0xbe10d139	-0.14142312
194	0x3e013aec	0.12620133
195	0xbd59e73d	-0.05319904
196	0xbe04f8ad	-0.12985487
197	0xbc1011ef	-0.008793338
198	0xbd9d35b5	-0.076762594
199	0xbbc7c6dc	-0.006096704
200	0xbd37924d	-0.044817258
201	0x3e2700c6	0.16308889
202	0x3d8c9130	0.0686363
203	0xbe088463	-0.13331752
204	0xbd956b79	-0.072958894
205	0xbe1cea0b	-0.15323655
206	0xbd325926	-0.04354205
207	0x3d4b50e4	0.04963769
208	0xbd1a23bf	-0.037631746
209	0x3df32a5b	0.11873313
210	0xbd20f156	-0.039292656
211	0xbd19c429	-0.03754059
212	0xbcd6e498	-0.026232049
213	0x3d634b93	0.055491995
214	0xbde335a7	-0.11094218
215	0x3d2fea9f	0.04294836
216	0xbbabff05	-0.0052489066
217	0x3ddb13b9	0.10697121
218	0xbe067af6	-0.13132843
219	0x3e10a2f5	0.14124663
220	0xbe05218a	-0.13001075
221	0xbd2188c5	-0.039437074
222	0x3c19d102	0.00938821
223	0x3c9111ce	0.017708685
224	0x3de584ce	0.11206971
225	0xbd81095c	-0.06300613
226	0xbdba43f9	-0.09094996
227	0x3d9a6180	0.07538128
228	0xbdfda1c4	-0.1238437
229	0x3c42fdc6	0.011901325
230	0x3e01b17a	0.12665358
231	0x3d91c8ba	0.07118364
232	0xbd894d3d	-0.06704185
233	0xbe09678e	-0.13418409
234	0x3e1969f1	0.1498182
235	0x3c7a0990	0.015261069
236	0xbe255d1a	-0.16148797
237	0xbddfb208	-0.10922629
238	0xbe16d20a	-0.14728561
239	0xbe4c3cd9	-0.19945087
240	0xbc5fe215	-0.013664742
241	0xbdc6f35b	-0.09714385
242	0xbd86f0e2	-0.065889135
243	0x3c42f3e3	0.011898967
244	0x3d1719b5	0.03688975
245	0x3d31330a	0.043261565
246	0xbd40177d	-0.0468974
247	0x3c838ea9	0.016059237
248	0x3cc0a98c	0.023518346
249	0x3d6dc6b1	0.058050815
250	0x3c85c2a7	0.016328169
251	0x3d24c942	0.040230997
252	0xbd41338c	-0.0471683
253	0x3e0fb55d	0.14034028
254	0x3e297adc	0.16550773
255	0xbc90ee97	-0.017691894

layer2.0.bias f4 [8]
0	0xbd5f4b08	-0.054514915
1	0xbdfb8657	-0.12281483
2	0xbd8dce35	-0.069240965
3	0xbe0c7167	-0.13715135
4	0xbcc1386c	-0.023586474
5	0xbe2427c0	-0.16030788
6	0x3d620999	0.055184934
7	0x3cc54896	0.024082463

layer2.1.weight f4 [8]
0	0x3f768740	0.96300125
1	0x3f67e1be	0.9057883
2	0x3f792d24	0.97334504
3	0x3f812b03	1.0091251
4	0x3f876996	1.0579097
5	0x3f80c97b	1.0061487
6	0x3f835f67	1.026349
7	0x3f89501f	1.0727576

layer2.1.bias f4 [8]
0	0xbc9c152c	-0.019053064
1	0xbba0dbb9	-0.0049090055
2	0x3d0f0e0c	0.034925506
3	0x3d3d070d	0.046149302
4	0x3e0284aa	0.1274592
5	0x3c9d22bb	0.0191816
6	0xbc22ac6e	-0.009928806
7	0x3dac4b5a	0.0841281

layer2.1.running_mean f4 [8]
0	0xbeb85ff7	-0.36010715
1	0x3ea73760	0.32659435
2	0xbe0827cf	-0.13296436
3	0xbe3ddd1f	-0.18541382
4	0xbcdea362	-0.027177516
5	0xbf15f15a	-0.585714
6	0xbe4d9a57	-0.20078407
7	0xbe9e03c6	-0.30862254

layer2.1.running_var f4 [8]
0	0x3d8cdbad	0.06877837
1	0x3efbeb4f	0.49202964
2	0x3ebf394a	0.37348396
3	0x3ddb4630	0.107067466
4	0x3df11362	0.11771275
5	0x3da63599	0.08115692
6	0x3dc8780b	0.097885214
7	0x3de3f0c6	0.11129908

layer3.0.weight f4 [16, 8, 3, 3]
0	0x3db48dda	0.088161185
1	0xbd1d2e40	-0.038374186
2	0xbde2b410	-0.110695004
3	0xbd5f7cd5	-0.05456241
4	0xbde43a6f	-0.11143958
5	0xbdb4c7e0	-0.08827186
6	0xbd5bbca2	-0.05364669
7	0x3d0c8610	0.03430754
8	0xbc8d35a9	-0.017237501
9	0x3d1befcb	0.03807048
10	0xbd35545b	-0.0442699
11	0xbd9900f2	-0.074708834
12	0xbc490e86	-0.012271529
13	0x3d47d329	0.048785362
14	0xbd32fc2a	-0.043697514
15	0xbcd68541	-0.026186587
16	0x3d1fab19	0.03898153
17	0xbd201ba7	-0.03908887
18	0xbdcc7af9	-0.09984393
19	0x3d9a1a29	0.07524521
20	0x3d7df2fa	0.0619993
21	0x3db64e52	0.08901657
22	0x3c133a1b	0.008986021
23	0xbd2ab27e	-0.04167413
24	0x3db88d98	0.09011382
25	0x3d0f92e9	0.035052214
26	0x3cb0fc9d	0.02160483
27	0x3ba7726e	0.0051100766
28	0xbd5048bc	-0.050850615
29	0xbdd099f2	-0.10185613
30	0xbc863a9e	-0.016385373
31	0xbdce4610	-0.10071957
32	0x3d98f5f6	0.07468788
33	0xbb29b5eb	-0.0025895785
34	0xbd95efff	-0.07321166
35	0x3db83471	0.089943774
36	0xbcd3e956	-0.0258681
37	0x3d90a3a6	0.070624635
38	0x3cb7a026	0.022415232
39	0xbdc7af0c	-0.097501844
40	0xbde2381e	-0.1104586
41	0xbe3eb001	-0.18621828
42	0xbd4777af	-0.048698124
43	0xbe24994d	-0.16074105
44	0xbd34cb65	-0.044139285
45	0xbd1788f6	-0.03699585
46	0xbd485da0	-0.048917413
47	0xbcd49fbc	-0.025955074
48	0xbd8fb8fb	-0.07017704
49	0xbd886f6a	-0.066618755
50	0xbcd48bac	-0.025945507
51	0xbdd39f28	-0.10333091
52	0xbde6a922	-0.11262728
53	0xbda39f3b	-0.07989355
54	0xbda0cc4f	-0.07851469
55	0x3dbdfe32	0.092769995
56	0x3de67b71	0.11254013
57	0x3d0ee492	0.03488595
58	0xbd4c76e4	-0.04991807
59	0x3dd502e1	0.1040094
60	0x3d94d683	0.07267477
61	0x3d5df7d2	0.054191418
62	0xbd1b8327	-0.037966873
63	0x3a7458f2	0.0009321115
64	0x3b8be58b	0.004269307
65	0xbdb5829a	-0.08862801
66	0x3da0e337	0.07855838
67	0x3d50c33d	0.050967444
68	0xbc10f44a	-0.008847306
69	0x3d3d41f1	0.046205465
70	0xbd45fc72	-0.048336454
71	0x3db20c2a	0.08693726
72	0xbcd8d499	-0.026468562
73	0x3c7cf17c	0.015438434
74	0xbdc60764	-0.096693784
75	0x39abcaf7	0.00032766882
76	0xbda3233d	-0.079657055
77	0xbdd3589f	-0.103196375
78	0xbc1a935c	-0.009434547
79	0xbe081f1f	-0.13293122
80	0xbdc742bf	-0.09729528
81	0x3c874c61	0.016515912
82	0x3d52d1e7	0.05146971
83	0x3d9a7fea	0.07543929
84	0x3cb0458f	0.021517543
85	0xbcd6ad96	-0.02620582
86	0x3d0f659c	0.03500901
87	0x3d35909d	0.044327367
88	0xbcaea783	-0.02132011
89	0xbd8f8be5	-0.07009105
90	0x3c8f60e3	0.017502254
91	0x3d5f55f7	0.05452534
92	0xbd71eb5f	-0.059062358
93	0x3cd3e2ce	0.025864985
94	0x3dc3102c	0.09524569
95	0xbc802fdd	-0.015647823
96	0x3d452b95	0.048137266
97	0x3dbdabb2	0.09261264
98	0xbd127631	-0.035757247
99	0xbda763b7	-0.08173316
100	0xbd4a84d5	-0.049443085
101	0xbcd7dfbe	-0.026351806
102	0x3d1af7ff	0.037834164
103	0xbd7c2127	-0.061555054
104	0xbd36188e	-0.04445701
105	0xbe02f57a	-0.12788954
106	0xbac019a7	-0.0014656082
107	0xbd8e15b0	-0.0693773
108	0xbe00f6e4	-0.12594181
109	0xbda67750	-0.08128226
110	0x3d5fb053	0.054611515
111	0x3d30e79e	0.043189637
112	0x3cfbe99f	0.030751048
113	0xbcc43709	-0.023952024
114	0xbcb98b18	-0.022649333
115	0xbd18c18c	-0.037293956
116	0xbdbf4652	-0.093395844
117	0x3d246e61	0.040144328
118	0xbd62cedc	-0.055373058
119	0xbd677663	-0.056509387
120	0xbd9dcdaa	-0.07705243
121	0xbe04b15b	-0.1295828
122	0xbe0c8f89	-0.1372663
123	0xbc53fced	-0.01293872
124	0x3cf3b49d	0.029749209
125	0x3d93f707	0.07224851
126	0x3daabd11	0.08336843
127	0xbdb226f2	-0.086988345
128	0x3d9faa35	0.07796136
129	0x3ae5ec12	0.0017541668
130	0x3d11f119	0.03563032
131	0x3c9fa094	0.01948575
132	0xbdac49f0	-0.0841254
133	0x3dcc4887	0.09974771
134	0x3cdd57e8	0.027019456
135	0x3c7b1e1b	0.015327002
136	0xbd2645cf	-0.04059392
137	0x3dad8eae	0.084744796
138	0xbd922916	-0.07136743
139	0x3d471c62	0.048611052
140	0x3dc6f171	0.0971402
141	0x3e074f25	0.13213785
142	0x3c59a444	0.013283793
143	0xbe0effb1	-0.13964726
144	0x3d6c051d	0.057622064
145	0xbd2e3cb9	-0.04253838
146	0xbc674ceb	-0.01411746
147	0x3e0dae22	0.13835958
148	0x3e0a1b16	0.13486895
149	0x3c41b968	0.011823989
150	0xbda863b9	-0.082221456
151	0xbd799b52	-0.06093914
152	0xbbf5da30	-0.0075028166
153	0x3d65fb62	0.05614794
154	0xbdcd0db1	-0.10012377
155	0x3dc2bbc5	0.095084704
156	0xbcb289fe	-0.021794315
157	0xbdc5e380	-0.09662533
158	0x3dae63d2	0.08515133
159	0x3ce8db4d	0.028424883
160	0xbd95a29f	-0.07306408
161	0xbdb52354	-0.08844629
162	0xbd84c701	-0.064832695
163	0x3c4f9b19	0.0126712555
164	0xbc7b6b19	-0.015345358
165	0x3c3fffae	0.011718674
166	0xbcc4ceb4	-0.024024345
167	0xbd4fd0fc	-0.050736412
168	0xbbeddeb1	-0.007259213
169	0x3d5172bf	0.05113482
170	0x3dc50bd9	0.096214004
171	0x3dd36a23	0.10322978
172	0xbd9dc62e	-0.077038154
173	0x3df60ab1	0.12013758
174	0xbe004a9c	-0.12528461
175	0x3a144f9b	0.0005657614
176	0xbd868cb8	-0.06569809
177	0x3db51131	0.088411696
178	0xbd2bf947	-0.041985776
179	0x3cdaea32	0.026723001
180	0x3de032be	0.10947178
181	0x3dca9b99	0.09892959
182	0x3dc64108	0.096803725
183	0x3c61b6a4	0.013776455
184	0xbdc4906b	-0.09597858
185	0x3d477e04	0.048704162
186	0x3d0a46f4	0.033759072
187	0x3d1da479	0.03848693
188	0xbd482b37	-0.048869338
189	0xbd95cb73	-0.073141955
190	0x3d7b9143	0.06141783
191	0x3d580c29	0.05274597
192	0xbe01b701	-0.12667467
193	0xbd000cb3	-0.03126211
194	0xbd7c0096	-0.061523996
195	0x3d72886c	0.059212133
196	0x3d39487f	0.045235153
197	0x3d7aa84c	0.061195657
198	0xbe1c399e	-0.15256354
199	0x3c0daae6	0.008646702
200	0xbdad16ae	-0.084515914
201	0xbe23c8d5	-0.1599458
202	0xbdcf38cc	-0.10118255
203	0x3c840a08	0.016118065
204	0xbddf73a2	-0.10910727
205	0xbd0fb5b9	-0.035085414
206	0x3bf35bc9	0.007426713
207	0x3c93a1f1	0.018021556
208	0xbcbed89f	-0.023296652
209	0xbd65362a	-0.055959858
210	0xbd4e414d	-0.050355244
211	0xbd3ce805	-0.04611971
212	0xbd25b7c9	-0.040458474
213	0xbcd2c594	-0.025728978
214	0xbe3c3f92	-0.18383625
215	0xbe191511	-0.14949442
216	0x3d972601	0.073802955
217	0xbc273d23	-0.010207447
218	0xbdc0d122	-0.09414889
219	0x3c543749	0.012952634
220	0xbb370f93	-0.0027932867
221	0xbcdfae65	-0.027304837
222	0xbdf7958f	-0.12089073
223	0xbd6a52b0	-0.057207763
224	0x3c0c6ad5	0.008570393
225	0xbb66ff50	-0.0035247393
226	0xbd0d6203	-0.0345173
227	0x3cea1c91	0.028578075
228	0x3d9fa772	0.077956095
229	0xbd0e4806	-0.034736656
230	0x3d20b5bc	0.039235815
231	0xbd9a7555	-0.075419106
232	0xb74233aa	-1.157533e-05
233	0x3e0d6e5f	0.13811634
234	0xbbe55963	-0.006999181
235	0x3d8cddb7	0.06878226
236	0x3cc53930	0.02407512
237	0x3d402e40	0.046919107
238	0x3dc13695	0.09434239
239	0x3cc106ee	0.023562875
240	0x3c92a128	0.01789911
241	0xbd751f4e	-0.059844308
242	0xbda78c06	-0.08181004
243	0x3c5afdd6	0.013366183
244	0x3d9a6bb6	0.075400755
245	0xbcb47051	-0.022026213
246	0xbe2f5594	-0.17122489
247	0x3cc4a443	0.024004107
248	0xbd30220a	-0.043001212
249	0xbd10da4c	-0.035364434
250	0xbe5b3984	-0.21408659
251	0xbcfc69b4	-0.030812122
252	0xbdd015bb	-0.10160395
253	0xbd448e76	-0.047987424
254	0xbba34dd5	-0.0049836435
255	0xbe0fad5d	-0.14030977

layer3.0.bias f4 [16]
0	0xbdad4cc5	-0.08461908
1	0x3de5a646	0.11213355
2	0xbdaaf297	-0.083470516
3	0xbdb92ba6	-0.090415284
4	0x3d15b511	0.03654963
5	0x3d12133f	0.035662886
6	0xbdb62e1a	-0.08895512
7	0x3dd146dd	0.10218594
8	0xbdc4c224	-0.09607342
9	0xbdc6d565	-0.097086705
10	0xbcb8f4dc	-0.022577696
11	0x3dbb5423	0.09146907
12	0x3accd9ad	0.0015628837
13	0x3d25c07e	0.040466778
14	0x3dc91e6b	0.09820255
15	0x3d244025	0.040100235

layer3.1.weight f4 [16]
0	0x3f8080af	1.0039271
1	0x3f73d0d7	0.9524054
2	0x3f801d15	1.0008875
3	0x3f818a63	1.0120357
4	0x3f7654dc	0.96223235
5	0x3f746211	0.9546214
6	0x3f81c1ee	1.0137308
7	0x3f809101	1.0044252
8	0x3f72c943	0.9483835
9	0x3f810ee4	1.0082669
10	0x3f78d516	0.97200143
11	0x3f81a8bb	1.0129617
12	0x3f812d5b	1.0091966
13	0x3f7ff54d	0.99983674
14	0x3f803288	1.0015421
15	0x3f7128e5	0.94203025

layer3.1.bias f4 [16]
0	0xbe8a67cf	-0.27032325
1	0xbe43bdc8	-0.19115365
2	0xbdb09313	-0.08621802
3	0xbe023e6e	-0.12719128
4	0xbe0f9322	-0.1402097
5	0xbe445abe	-0.1917524
6	0xbe4f550d	-0.20247288
7	0xbd246a78	-0.0401406
8	0xbde241d5	-0.11047713
9	0xbe285dd6	-0.16442046
10	0xbe16d054	-0.14727908
11	0xbddf68b1	-0.1090864
12	0xbdda7718	-0.106672466
13	0xbe7ab415	-0.24482758
14	0xbe40a841	-0.18814184
15	0xbe0edeca	-0.13952175

layer3.1.running_mean f4 [16]
0	0xbf45357d	-0.7703474
1	0xbec5a04c	-0.3859886
2	0xbf14c255	-0.5810903
3	0xbf1857f8	-0.5950923
4	0x3d0e8506	0.03479483
5	0xbeebf6ba	-0.46086675
6	0xbf7a40f8	-0.97755384
7	0xbea86066	-0.32886046
8	0xbf0bc405	-0.5459598
9	0xbef3b486	-0.47598666
10	0xbe61bb9f	-0.22044228
11	0xbebd302b	-0.36950812
12	0xbeb3dd43	-0.35129747
13	0xbec10e41	-0.37706187
14	0xbee4b09c	-0.44665992
15	0xbd2eb1cf	-0.04265004

layer3.1.running_var f4 [16]
0	0x3e38e38b	0.18055551
1	0x3e07a052	0.13244751
2	0x3eab4397	0.33450004
3	0x3de8717e	0.11349772
4	0x3e631585	0.22176178
5	0x3dd9f26b	0.10641941
6	0x3e5c2107	0.21496974
7	0x3e33cc58	0.1755842
8	0x3e4d67cb	0.20059125
9	0x3df4da2d	0.11955676
10	0x3e92f319	0.28701094
11	0x3e771a7d	0.24131198
12	0x3e16dade	0.14731929
13	0x3d90938a	0.07059391
14	0x3e02cdbe	0.12773797
15	0x3e5e5dc2	0.21715453

layer4.0.weight f4 [32, 16, 3, 3]
0	0x3ddbee54	0.10738817
1	0xbc71516d	-0.014728886
2	0xbd9c2de4	-0.076259404
3	0xbbe56099	-0.0070000407
4	0xbd96d380	-0.07364559
5	0xbd46b5d0	-0.048513234
6	0xbdca12b0	-0.098668456
7	0xbd45f2ea	-0.048327364
8	0xbd0653ae	-0.032794647
9	0x3bb3ff0d	0.005493051
10	0x3bfec7af	0.007775269
11	0x3c4e8d07	0.012606866
12	0xbd7e89e1	-0.06214321
13	0xbc608a98	-0.013704918
14	0xbdcc64f6	-0.09980194
15	0x3ca85338	0.020547494
16	0xbd6a663e	-0.057226412
17	0xbd146798	-0.036231607
18	0xbcf3764e	-0.029719498
19	0x3b12c536	0.002239538
20	0x3d9d2e0d	0.07674799
21	0xbcd5dd68	-0.026106551
22	0x3cb81990	0.022473127
23	0xbc03eae6	-0.00805161
24	0x3d02720d	0.03184705
25	0x3cbb63cb	0.022874733
26	0x3d875020	0.066070795
27	0xbc35b21f	-0.011089831
28	0x3c8364a7	0.016039206
29	0xbd1477ac	-0.03624694
30	0x3dad4a56	0.08461444
31	0xbc754750	-0.0149706155
32	0xbd7d2575	-0.0618033
33	0x3cb28080	0.02178979
34	0xbcc62972	-0.024189685
35	0xbd4a9fee	-0.049468927
36	0x3ceaa86f	0.028644769
37	0x3ca8df0e	0.020614173
38	0x3d327120	0.043564916
39	0x3d3407cd	0.043952752
40	0x3da4b2d6	0.08041923
41	0x3cfaf076	0.030632239
42	0xbcf04978	-0.029331908
43	0x3d70b395	0.058765013
44	0x3c930b81	0.017949821
45	0x3b51832a	0.003196905
46	0x3d1679d2	0.03673727
47	0x3c9c6642	0.01909173
48	0x3d4fe562	0.050755866
49	0xbcb856d7	-0.022502346
50	0xbdba639f	-0.091010325
51	0x3d624bd8	0.05524811
52	0x3d0e6d3a	0.034772135
53	0xbcf4ae83	-0.02986837
54	0xbd7aea27	-0.06125846
55	0xbd7f7cfd	-0.062375057
56	0xbd8bd1ae	-0.068271026
57	0x3b6f3b49	0.0036503843
58	0xba80e228	-0.0009833025
59	0xbc47fe43	-0.012206617
60	0x3c07cb50	0.00828822
61	0xbc2495d6	-0.010045489
62	0x3c52fbb4	0.0128773935
63	0xbd7eb1c8	-0.062181264
64	0x3c50c7af	0.012742921
65	0xbbf1d20c	-0.007379776
66	0xbc30b347	-0.010784931
67	0x3d927299	0.07150764
68	0x3d54f8f1	0.05199522
69	0xbc56ed8d	-0.01311816
70	0x3c2050e2	0.009784909
71	0x3d90d8e9	0.07072622
72	0xbc8c6206	-0.017136585
73	0x3c817da2	0.015806977
74	0x3d8fd905	0.07023815
75	0xbc62290d	-0.013803733
76	0x3d3ef2a3	0.046618115
77	0xbd25eeb0	-0.040510833
78	0xbd8c4d49	-0.068506785
79	0x3c47d150	0.0121959
80	0xbbfda46c	-0.007740548
81	0x3dbb6a0d	0.09151087
82	0x3cbee3e6	0.02330203
83	0xbc6ad39f	-0.014332681
84	0x3d95766f	0.0729798
85	0x3d0ac4b1	0.033878986
86	0xbd0fa3af	-0.03506821
87	0x3cbda1a3	0.023148363
88	0xbd0afc95	-0.033932287
89	0xbd6abdc4	-0.05730988
90	0x3d502c0c	0.050823256
91	0xbcb0e5ab	-0.02159389
92	0x3d57c8dd	0.052681793
93	0xbc95e2d6	-0.01829664
94	0x3d52ef5e	0.05149781
95	0x3daea303	0.08527186
96	0x3c1e0623	0.009645018
97	0x3c876ee4	0.016532369
98	0x3e097238	0.13422477
99	0x3d5e7011	0.054306094
100	0xbcede427	-0.029039456
101	0x3d054501	0.03253651
102	0x3bb4c444	0.0055165607
103	0x3ba2f6ff	0.004973292
104	0x3d668ac8	0.056284696
105	0xbd05ddba	-0.032682158
106	0x3d192936	0.037392817
107	0x3caa589c	0.020794205
108	0xbd4b4032	-0.04962177
109	0xbcdfb3fe	-0.027307507
110	0x3d1d8973	0.03846116
111	0xbdaa5623	-0.083172105
112	0x3d2d707c	0.0423436
113	0xbc815773	-0.01578877
114	0xbd0e28b9	-0.034706805
115	0x3c896375	0.016771058
116	0x3dd7d26a	0.1053818
117	0x3cf9de5a	0.030501533
118	0xbcb1c506	-0.021700393
119	0x3c559d42	0.013037981
120	0x3d3f3bfe	0.046688072
121	0xbd68e299	-0.056856725
122	0xbd82a9df	-0.063800566
123	0x3d40a7af	0.047034916
124	0xbcdee1a2	-0.0272072
125	0xbd707225	-0.058702607
126	0x3ddceb2b	0.10787042
127	0x3d5301ef	0.051515516
128	0xbbe5da2f	-0.007014535
129	0xbbfd7b4d	-0.007735646
130	0xbd1fee33	-0.039045524
131	0xbca0a515	-0.019609967
132	0xbcb54fe5	-0.022132823
133	0xbd98c5fa	-0.07459636
134	0xbdef8e3d	-0.11697052
135	0xbc1cb175	-0.009563793
136	0xbd24c31a	-0.040225126
137	0xbd16d041	-0.0368197
138	0xbcd27662	-0.025691215
139	0x3be5e672	0.0070159966
140	0x3ca488e1	0.0200848
141	0x3d045a9c	0.032312974
142	0x3d61ab47	0.055094983
143	0x3d7a4a94	0.06110628
144	0x3db40fbc	0.087920636
145	0x3c904449	0.017610686
146	0x3d63bcb7	0.055599894
147	0x3dce18f2	0.10063352
148	0x3d4957c9	0.049155984
149	0x3d889174	0.06668368
150	0xbcfe7844	-0.031063206
151	0x3ce54e74	0.02799151
152	0xba8d72ad	-0.0010791622
153	0x3c335289	0.010944971
154	0x3d2aee26	0.041731022
155	0x3cd58202	0.02606297
156	0x3b5c5d22	0.0033624847
157	0xbb9f18a0	-0.0048552305
158	0x3cc6e5d1	0.024279507
159	0x3cee576d	0.029094422
160	0x3d7c686e	0.06162303
161	0x3d90f4cf	0.070779435
162	0xbd6fa9e1	-0.05851162
163	0xbd3115f7	-0.043233838
164	0x3d354427	0.04425445
165	0xbd31f8b4	-0.043450072
166	0xbcc323e6	-0.023820829
167	0x3d2f44ce	0.042790227
168	0xbd20fb3a	-0.03930209
169	0xbd772cfa	-0.060345627
170	0xbd7d6df8	-0.061872452
171	0xbbc403e5	-0.0059819096
172	0x3c06fe0c	0.00823928
173	0x3d3c16be	0.045920126
174	0x3d1357c9	0.03597239
175	0x3ccf128a	0.025277395
176	0xba8fd7b6	-0.0010974321
177	0x3d00181a	0.031272985
178	0x3c641279	0.01392042
179	0x3ddfb590	0.10923302
180	0xbcc8d4a0	-0.02451545
181	0x3aba378e	0.001420723
182	0xbccbbac0	-0.024869323
183	0xbd63eef7	-0.055647817
184	0xbd75a6cc	-0.059973523
185	0xbaea3142	-0.0017867463
186	0xbda4b983	-0.08043196
187	0xbd2cc9c1	-0.042184595
188	0xbca0ac83	-0.01961351
189	0x3da22cbb	0.07918688
190	0x3b6b9f26	0.0035953014
191	0x3d6d18af	0.05788487
192	0x3d3098e6	0.043114565
193	0x3d080b38	0.033213824
194	0x3b887ff0	0.004165642
195	0x3dad3e42	0.0845914
196	0x3dbe7428	0.09299499
197	0x3ca07455	0.019586721
198	0x3dac1f92	0.08404459
199	0x3d06b181	0.032884125
200	0x3c60a1f8	0.013710491
201	0x3d0649af	0.032785114
202	0x3de6f6b0	0.11277521
203	0x3ca232d2	0.019799624
204	0x3dcfd7ff	0.1014862
205	0x3ceb1e09	0.028700845
206	0x3dba5895	0.09098927
207	0xbd977fa1	-0.0739739
208	0x3b6b1b1d	0.0035874315
209	0xbb42e4ac	-0.002973835
210	0x3bd5c59f	0.0065238024
211	0xbd86d0e1	-0.06582809
212	0x3b93635e	0.0044979295
213	0xbd43267a	-0.047644116
214	0xbd7ac8b0	-0.061226547
215	0xbcb8fb3e	-0.02258074
216	0xbcb657ac	-0.022258602
217	0x3cbd7f80	0.023132086
218	0xbb3bcdae	-0.002865653
219	0xbd18f96c	-0.037347242
220	0xbb3d98b2	-0.0028930125
221	0xbcfa48df	-0.030552326
222	0xbc636f8e	-0.013881577
223	0x3c99f077	0.01879142
224	0x3a36fe75	0.0006980666
225	0xbd4f5d0d	-0.05062585
226	0x3da180ee	0.078859195
227	0x3baa6c8d	0.0052009285
228	0x3d98a87f	0.07454013
229	0x3d4239ef	0.04741853
230	0xbd2916e8	-0.04128161
231	0x3cf6dcfb	0.030134669
232	0xbd0ed2bb	-0.034868937
233	0x3d891226	0.06692915
234	0xbcdeecec	-0.027212583
235	0x3cd00ac8	0.025395766
236	0x3c9dd370	0.01926586
237	0xbd4bd302	-0.04976178
238	0x3be94033	0.007118249
239	0xbc393a7f	-0.01130545
240	0x3c02e63b	0.0079894615
241	0x3ce1c5c8	0.02756013
242	0xbc9f00a1	-0.01940948
243	0xbd80a3b5	-0.06281225
244	0xbd4e43cc	-0.050357625
245	0xbb421cbd	-0.002961918
246	0xbc1fdb57	-0.009756885
247	0xbda12e98	-0.07870215
248	0xbd8c51f7	-0.06851571
249	0xbd7de4a0	-0.061985612
250	0xbd8f4de2	-0.06997277
251	0xbd2024d0	-0.039097607
252	0xbcb9f121	-0.022697987
253	0x3c112269	0.008858302
254	0xbc831702	-0.016002182
255	0xbc81ccaa	-0.015844662

layer4.0.bias f4 [32]
0	0x3c0f4680	0.008744836
1	0xbd55af8c	-0.052169368
2	0x3bd4c586	0.006493273
3	0xbd881e31	-0.066463836
4	0x3d941337	0.072302274
5	0x3ccd1ff8	0.025039658
6	0x3d5ab616	0.053396307
7	0x3d5b0f11	0.053481165
8	0xbda4daa2	-0.080495134
9	0xbd25f196	-0.040513597
10	0x39b5a570	0.0003464627
11	0xbd18563d	-0.03719162
12	0x3d99110a	0.07473953
13	0xbd23f895	-0.04003199
14	0xbd06d84f	-0.03292113
15	0xbd306fe4	-0.043075457
16	0xbd9bf49c	-0.07615015
17	0xbd773710	-0.060355246
18	0x3c4b71ac	0.012417238
19	0x3d5554dd	0.052082885
20	0x3d7cd6eb	0.0617284
21	0x3d866498	0.065621555
22	0x3aed10b1	0.001808664
23	0xbcdd87b0	-0.02704224
24	0xbce54b33	-0.02798996
25	0x3d844e9f	0.06460308
26	0x3c7e0c7b	0.015505905
27	0xbd1a4c61	-0.037670497
28	0xbd9f10bd	-0.077668644
29	0x3d5d0346	0.0539582
30	0xbd70e451	-0.05881149
31	0x3c888633	0.016665554

layer4.1.weight f4 [32]
0	0x3f8bf417	1.0933865
1	0x3f8ee3e6	1.1163299
2	0x3f8a140f	1.0787371
3	0x3f8b4b47	1.0882348
4	0x3f8dea03	1.108704
5	0x3f8adb2e	1.0848138
6	0x3f8d616d	1.1045357
7	0x3f8c11d3	1.094294
8	0x3f880e07	1.0629281
9	0x3f87217a	1.0557091
10	0x3f87e682	1.061722
11	0x3f8eb01c	1.1147494
12	0x3f8801fb	1.0625604
13	0x3f8b2763	1.0871395
14	0x3f888c3a	1.0667794
15	0x3f84aaba	1.0364602
16	0x3f8bcec6	1.0922477
17	0x3f8c20e4	1.0947537
18	0x3f85abd7	1.0443066
19	0x3f8a387c	1.0798488
20	0x3f8a7e50	1.0819798
21	0x3f89a3dd	1.0753132
22	0x3f8c5f41	1.0966569
23	0x3f8b154b	1.0865873
24	0x3f8d7f02	1.1054385
25	0x3f8650e9	1.0493442
26	0x3f847c7b	1.0350488
27	0x3f8bdfa3	1.0927624
28	0x3f89f239	1.0777045
29	0x3f871e36	1.0556095
30	0x3f863271	1.0484143
31	0x3f8b9877	1.0905904

layer4.1.bias f4 [32]
0	0x3d745455	0.059650738
1	0x3d1a7512	0.037709303
2	0x3db4d5ef	0.08829867
3	0x3dc106b8	0.094251096
4	0x3c901173	0.017586445
5	0x3db8356d	0.08994565
6	0x3d5bc8f3	0.053658437
7	0x3c9fd18e	0.019509103
8	0x3bde4900	0.0067836046
9	0xbbcebd58	-0.0063091926
10	0x3d7c7a54	0.0616401
11	0x3dd77489	0.10520274
12	0x3cc5e29a	0.024155904
13	0x3d8b6c72	0.06807794
14	0x3d2b2e58	0.041792244
15	0xbbdf1971	-0.006808453
16	0x3d88c200	0.066776276
17	0x3bf00501	0.0073248153
18	0x3c6f8d1f	0.014621048
19	0x3dab1ae8	0.08354741
20	0x3d50458d	0.05084758
21	0x3d99f64e	0.07517682
22	0x3d123591	0.035695616
23	0x3daf1ed0	0.08550799
24	0x3ccdaa2a	0.025105555
25	0x3d86f2e2	0.06589295
26	0x3d010858	0.031502098
27	0x3de27261	0.11056972
28	0x3d0c99a8	0.034326226
29	0x3da21a01	0.07915116
30	0x3cf79281	0.030221226
31	0x3d27380b	0.04082493

layer4.1.running_mean f4 [32]
0	0x3e2b8fcd	0.16754074
1	0x3e9d44b3	0.30716476
2	0xbea91399	-0.33022764
3	0xbf67dd27	-0.90571827
4	0x3e8e6f47	0.27819273
5	0xbf1a6ed5	-0.60325366
6	0x3e03dc96	0.12877116
7	0x3edc4da0	0.43027973
8	0x3eb39a4a	0.3507865
9	0xbe1817a7	-0.14852773
10	0x3e9678f0	0.29389143
11	0xbf67c18f	-0.9052972
12	0x3eee74de	0.46573538
13	0xbed5f3c2	-0.41787535
14	0x3d2571a1	0.040391568
15	0x3f2e88da	0.6817757
16	0x3f2d2ec1	0.67649466
17	0x3e6a6caa	0.22893015
18	0x3edc83fd	0.4306945
19	0xbf8cf26b	-1.101148
20	0x3e85391c	0.26020133
21	0xbdfb9755	-0.12284724
22	0x3e59319d	0.21210332
23	0xbf8beab3	-1.0931
24	0x3e3bd08f	0.18341278
25	0xbeef59da	-0.4674824
26	0x3e3572a3	0.17719512
27	0xbf8810ed	-1.0630165
28	0x3f0333df	0.51251024
29	0xbeb0846f	-0.3447604
30	0xbddf4f69	-0.10903818
31	0x3ee093b0	0.43862677

layer4.1.running_var f4 [32]
0	0x3f61447c	0.87995124
1	0x3fc83fd4	1.5644479
2	0x3f4afbc1	0.79290396
3	0x3f8bfd4a	1.0936673
4	0x3fe85544	1.8151021
5	0x3f86b065	1.0522581
6	0x3f6d4c9c	0.9269502
7	0x3f2e258a	0.6802603
8	0x3f9a5266	1.2056396
9	0x3f3ceb14	0.737962
10	0x3f0e44b8	0.55573606
11	0x3f81844a	1.0118496
12	0x3f1152d2	0.56767
13	0x3f7f1285	0.99637634
14	0x3f2c94ca	0.67414534
15	0x3f0cee4d	0.5505112
16	0x3f6fe321	0.93705946
17	0x3ff3655c	1.9015307
18	0x3f0c9f86	0.54930913
19	0x3f709d8a	0.93990386
20	0x3f76435e	0.96196544
21	0x3f838407	1.0274667
22	0x3f2f5d8f	0.68502134
23	0x3f8ffec3	1.1249622
24	0x3fa9bbad	1.3260399
25	0x3f44889b	0.76770943
26	0x3efdb6a8	0.49553418
27	0x3f9fac32	1.2474425
28	0x3f099beb	0.53753537
29	0x3f54a74b	0.8306777
30	0x3f44b76b	0.76842374
31	0x3f9668b2	1.17507

fc.weight f4 [1, 1152]
0	0x3c4f8ae3	0.0126673905
1	0x3bd8dcea	0.006618132
2	0x3cf27210	0.029595405
3	0x3cd13595	0.025538245
4	0x3c3e58bc	0.011617836
5	0x3c4d1b06	0.01251865
6	0x3c9b5dbd	0.018965596
7	0xbcdee85a	-0.027210403
8	0xbcc36d36	-0.023855787
9	0x3d07d8f0	0.033165872
10	0x3d1a6201	0.03769112
11	0xbd017f9d	-0.031615842
12	0x3caf3622	0.021388117
13	0xbd7c5fab	-0.061614674
14	0xbd88882e	-0.06666599
15	0x3a2e00d4	0.00066376966
16	0x3d5265ef	0.051366743
17	0xbc4b24aa	-0.012398878
18	0x3c929093	0.017891204
19	0xbd227325	-0.03966059
20	0xbd3f78c3	-0.046746027
21	0x3d01f53d	0.031728018
22	0x3d29124d	0.04127722
23	0x3c86830f	0.016419915
24	0x3d3a3608	0.045461684
25	0x3c00666f	0.007836922
26	0x3d34e465	0.044163126
27	0x3d97fda4	0.07421425
28	0x3ba4db14	0.005030999
29	0xbc87fb03	-0.016599184
30	0x3c879795	0.016551772
31	0x3aa2ded8	0.0012426032
32	0x3b12aef3	0.002238211
33	0x3d30b3a7	0.04314008
34	0xbb3ae131	-0.0028515572
35	0xbd09abb9	-0.033611033
36	0x3b73bad7	0.0037190223
37	0x3d0a8946	0.03382232
38	0x3d4b954c	0.049702927
39	0x3c8fce70	0.017554492
40	0x3c80edaf	0.015738336
41	0x3d15d876	0.036583386
42	0x3d4af5de	0.049550883
43	0x3da738fa	0.08165164
44	0x3d89f2bb	0.0673575
45	0x3d39b270	0.045336187
46	0x3d105691	0.035238806
47	0x3d0ea2d5	0.034823257
48	0x3d033faa	0.032043137
49	0x3dac6830	0.0841831
50	0x3d566c8f	0.052349623
51	0x3db8287b	0.08992096
52	0x3dd29a10	0.10283291
53	0x3d94c1da	0.07263537
54	0x3ccdeaf9	0.025136458
55	0x3d7c8342	0.061648615
56	0x3d40c8f5	0.047066648
57	0x3d64eb39	0.05588839
58	0x3d8be059	0.068299
59	0x3d8a5280	0.06754017
60	0x3d19b138	0.037522525
61	0x3d366a4d	0.04453497
62	0x3d7289fb	0.05921362
63	0x3d81f8ce	0.06346284
64	0x3c978591	0.018496307
65	0x3bd27b26	0.006423372
66	0xbbd7086f	-0.0065622847
67	0x3c0cc9ad	0.008593005
68	0x3d05f034	0.03269978
69	0x3bd0190f	0.0063506435
70	0x3c5d7060	0.013515562
71	0xbbbe11cf	-0.005800463
72	0xbc8334f5	-0.016016463
73	0x3cb7bdc8	0.022429362
74	0x3cb53894	0.022121705
75	0x3c429b1f	0.011877804
76	0xbb512c9b	-0.0031917456
77	0x3c98c41c	0.0186482
78	0x3b2dae2f	0.0026501527
79	0xbbbb35ca	-0.0057131993
80	0xbd0440d9	-0.032288406
81	0xbd0ae6d7	-0.033911552
82	0xbd021fe7	-0.031768706
83	0xbc952107	-0.018204225
84	0xbc933d62	-0.017973606
85	0xbd7bdd07	-0.061490085
86	0xbd80156a	-0.062540844
87	0xbd5d7d15	-0.054074366
88	0xbd4fe6e0	-0.05075729
89	0x3bee72cf	0.00727687
90	0xbd5ee1af	-0.054414447
91	0xbd0d48c7	-0.034493234
92	0xbcc1d18a	-0.023659486
93	0x3d429f17	0.047515
94	0xbc4cf4ff	-0.0125095835
95	0xb97eaf30	-0.0002428859
96	0xbd56c4d9	-0.052433822
97	0xbd26b0ec	-0.04069607
98	0xbc3b52fe	-0.011433361
99	0x3d9bc65a	0.07606192
100	0x3d3b5a98	0.045740694
101	0xbb2c85cb	-0.0026324864
102	0xbce402be	-0.027833339
103	0xbcb0b972	-0.021572802
104	0xbb883c8e	-0.0041576093
105	0xbc597c75	-0.013274302
106	0xbab85eb6	-0.0014066312
107	0x3c4525d7	0.0120329475
108	0x3c2ccead	0.010547322
109	0xbbcdc937	-0.00628009
110	0x3b3c99cf	0.00287782
111	0x3bbeb3d5	0.0058197775
112	0x3cca66e2	0.024707261
113	0x3c6109f3	0.013735282
114	0xbc74d862	-0.014944168
115	0xbc79bfc7	-0.015243477
116	0xbd975ab3	-0.073903464
117	0xbd68d462	-0.05684317
118	0x3cc3c737	0.023898704
119	0xbb7ba057	-0.003839513
120	0x3c1008fd	0.0087912055
121	0xbd536a7c	-0.051615223
122	0xbdb434de	-0.08799146
123	0xbd9f1c22	-0.07769038
124	0x3d259055	0.04042085
125	0x3c190162	0.009338709
126	0xbc59797c	-0.013273593
127	0xbd641090	-0.055679858
128	0xbdaac95d	-0.08339188
129	0xbd77faaa	-0.060541786
130	0x3c862231	0.016373726
131	0x3c9dfbd6	0.019285124
132	0x3ca2fb16	0.019895118
133	0xbcebc311	-0.028779538
134	0xbc844300	-0.01614523
135	0xbc7cd2fd	-0.015431163
136	0x3ca1bef9	0.019744383
137	0x3bcb7dbf	0.0062100585
138	0xbc97ce7b	-0.018531075
139	0xbce0dbbf	-0.027448533
140	0xbc4806a7	-0.012208617
141	0x3b353b37	0.0027653703
142	0x3be4992e	0.0069762683
143	0xbc8d7973	-0.017269826
144	0x3d3094d0	0.04311067
145	0x3d955a8f	0.07292663
146	0x3d55e938	0.052224368
147	0x3d4cf122	0.05003465
148	0x3d19ed65	0.037579913
149	0x3cf73c6b	0.030180177
150	0x3ca2c13c	0.019867532
151	0x3d8bf56a	0.068339184
152	0x3daae5ba	0.08344598
153	0x3d5602b7	0.052248683
154	0x3d391005	0.045181293
155	0x3d26359b	0.040578466
156	0x3d101bf1	0.035182897
157	0x3d6c8bd1	0.057750527
158	0x3dd3ba79	0.10338301
159	0x3d9ce828	0.07661468
160	0x3dc37afd	0.095449425
161	0x3da03e5c	0.07824394
162	0x3d4a04c0	0.049320936
163	0x3da71aa7	0.081593804
164	0x3dcaa2d4	0.09894338
165	0x3d77e9a0	0.060525537
166	0x3da7f0d7	0.082002334
167	0x3d92e03d	0.07171676
168	0x3d8fd046	0.07022147
169	0x3da83ffd	0.0821533
170	0x3d9f69ed	0.077838756
171	0x3cca4d43	0.024695044
172	0x3d02de79	0.031950448
173	0x3d4e59a6	0.050378464
174	0x3d2d5f27	0.042327072
175	0x3d2c889d	0.042122472
176	0x3d784312	0.06061084
177	0x3c554faa	0.013019482
178	0xbb11bf9e	-0.0022239457
179	0x3d1c4ad4	0.0381573
180	0xbcd7b9c4	-0.026333697
181	0xbd3e00f1	-0.046387617
182	0xbca25ac3	-0.01981867
183	0xbc32cb66	-0.010912752
184	0x3cebd762	0.028789226
185	0xbc822dd3	-0.015890991
186	0x3b7ac3ba	0.0038263635
187	0xbd19e729	-0.037573967
188	0xbd5a07e6	-0.05323019
189	0xbc040f1f	-0.008060246
190	0x3cb97b2d	0.022641743
191	0xbccd63f7	-0.025072081
192	0x3ca4efab	0.020133814
193	0xbc9c037b	-0.019044628
194	0xbd98ea53	-0.07466569
195	0xbd393f24	-0.04522623
196	0x3d10d8be	0.03536295
197	0xbcd3aaec	-0.025838338
198	0x3ce63fa4	0.028106518
199	0xbd953723	-0.07285907
200	0xbdd5f739	-0.104475446
201	0xbcf3dae1	-0.029767456
202	0x3d86774d	0.065657236
203	0x3bb54d7c	0.0055329185
204	0x3d183aee	0.037165575
205	0xbd2a85f6	-0.04163166
206	0xbd8e578b	-0.06950291
207	0xbcac5a33	-0.021039104
208	0x3d01d0ad	0.03169315
209	0x39844c96	0.00025234063
210	0x3ca6c31f	0.020356713
211	0x3c5566c9	0.013024994
212	0xbc59ea12	-0.013300436
213	0x3c4f5c9c	0.012656357
214	0x3c459067	0.012058354
215	0xbca7caf1	-0.020482512
216	0x3c2669b6	0.010157039
217	0x3c46b508	0.012128122
218	0x3cdfacd3	0.027304089
219	0x3c8a4c05	0.016881952
220	0x3ca1c0d5	0.01974527
221	0x3cb22c18	0.021749541
222	0xbcd088d7	-0.025455875
223	0xbc98c265	-0.018647382
224	0xbd93d29b	-0.07217904
225	0xbd92c5af	-0.071666114
226	0xbd5957bc	-0.053062186
227	0xbbc637d0	-0.006049134
228	0x3c9fd1a6	0.019509148
229	0xbc025d0a	-0.007956753
230	0xbd9b952c	-0.07596812
231	0xbd6238c4	-0.055229917
232	0xbcedf19e	-0.029045876
233	0x3bb1d440	0.0054269135
234	0xbc851dd1	-0.01624957
235	0x3d2ff458	0.042957634
236	0x3d7d0e20	0.06178105
237	0x3ccb1ebd	0.02479493
238	0x3d3fd479	0.04683349
239	0xbb097ee8	-0.0020980183
240	0xbc8f9f1e	-0.017531928
241	0xbb222aa0	-0.0024744645
242	0x3c0308a4	0.007997666
243	0x3c8b0a01	0.016972544
244	0x3d1c8861	0.038216
245	0xbc9d0c06	-0.019170772
246	0x3d002eee	0.031294756
247	0x3a87e73f	0.0010368599
248	0xbc86a5f3	-0.016436553
249	0x3cb83d70	0.022490233
250	0x3cf3bdfb	0.029753676
251	0x3b0dfc23	0.0021665178
252	0x3ca29af5	0.01984928
253	0x3d01c2ce	0.03167992
254	0x3cbac916	0.022800963
255	0x3cc18823	0.023624485
