data/chkbox_models/chkbox_rnd9_3_bestVal.pt (torch_old, 236310 bytes, 31 tensors)

layer1.0.weight f4 [4, 1, 3, 3]
-0.19491659 -0.21687701 0.08293176 -0.15625297 -0.11197848 -0.18988298 -0.25162494 0.31414846
-0.28628126 -0.2671175 0.27523676 -0.32210436 0.12996663 -0.29635778 0.17803144 0.21172053
-0.05479321 0.09584333 -0.268421 -0.05379598 0.33048218 -0.24626218 0.05494078 0.15481006
-0.17983194 -0.0629327 0.26837698 0.06831359 -0.103817664 -0.32169667 0.09093602 -0.05971819
-0.2128115 0.20913307 -0.16784674 0.021826198
00000000: 3798 47be 0215 5ebe 20d8 a93d c700 20be
00000010: f954 e5bd af70 42be fcd4 80be 11d8 a03e
00000020: 7593 92be a0c3 88be d5eb 8c3e ddea a4be
00000030: f915 053e 35bc 97be e04d 363e 44cd 583e
00000040: d86e 60bd 8249 c43d 7a6e 89be 2c59 5cbd
00000050: f634 a93e 272c 7cbe 9509 613d 8786 1e3e
00000060: dd25 38be dce2 80bd b568 893e ffe7 8b3d
00000070: 5b9e d4bd 6db5 a4be aa3c ba3d 109b 74bd
00000080: 42eb 59be fb26 563e 04e0 2bbe dbcc b23c

layer1.0.bias f4 [4]
0.2918667 0.18724486 -0.28959095 -0.32270238
00000000: 8d6f 953e 1ebd 3f3e 4445 94be 3f39 a5be

layer1.1.weight f4 [4]
1.0170178 0.97493315 1.000743 1.0116231
00000000: a42d 823f 3895 793f 5918 803f de7c 813f

layer1.1.bias f4 [4]
0.027815208 -0.019131584 -0.014896341 0.023335371
00000000: b8dc e33c d7b9 9cbc c80f 74bc d229 bf3c

layer1.1.running_mean f4 [4]
-0.82526594 0.13232572 -0.29242098 -0.85304075
00000000: a144 53bf 6580 073e 34b8 95be e160 5abf

layer1.1.running_var f4 [4]
1.2828362 0.09392354 0.24340042 0.4024585
00000000: fa33 a43f fc5a c03d f63d 793e 0a0f ce3e

layer2.0.weight f4 [8, 4, 3, 3]
-0.15636331 -0.1583653 -0.09864508 0.09358386 -0.07748504 0.091084085 -0.06739276 -0.03702586
-0.13173467 -0.044148862 0.11936283 -0.09381125 0.12157275 0.02000517 0.02117075 -0.07016963
-0.01216002 -0.005870444 0.018193768 0.010682069 0.008306353 0.09728495 0.12257112 0.1546493
0.00123594 -0.03984475 0.08168221 0.015440735 0.1262902 0.13559785 -0.12132286 -0.12586689
-0.07318208 -0.03791563 0.021961354 -0.1398844 -0.12469454 -0.12086745 -0.060549114 -0.08733932
-0.016488122 -0.13666403 0.13499585 -0.15269479 -0.13567542 0.033434957 0.13399522 0.045565583
-0.09420846 0.0020642278 0.030733196 0.07828202 0.053509403 0.07724164 0.0846118 -0.043966595
0.08144673 -0.011844598 -0.10793146 0.037394643 -0.0898187 0.030276008 0.023915473 -0.031409543
-0.13870099 -0.07375289 0.105944745 -0.00064551027 -0.004738422 -0.06392724 -0.08006364 -0.14003268
-0.108237006 0.061041113 0.062047765 -0.04260689 0.0065117544 0.15827724 -0.12781073 -0.07613407
0.10919734 -0.091778636 -0.093768775 0.025817847 -0.13299693 0.10582576 0.06485568 0.06980441
-0.16683522 -0.13326848 0.16052732 0.0072590327 0.04445017 0.041869164 0.04302241 0.0012611692
-0.09380385 -0.12561573 0.10902505 0.035232976 0.009910591 -0.032527506 -0.16042928 0.052528635
-0.097052984 0.13495469 0.11445482 -0.1306622 -0.0030524272 0.0009661387 0.105566904 -0.10466808
0.165104 0.004718793 0.15888388 -0.11956901 0.1379636 -0.054441627 0.077610545 0.1029571
-0.07411532 -0.13139501 0.09083484 0.10796924 0.041248523 -0.07053463 0.060435463 -0.089172564
0.1180932 0.09526677 0.13799138 0.0081146285 -0.038105484 -0.15864667 -0.08714361 0.11256026
0.18294099 0.079986006 -0.014668481 0.009837884 -0.04769912 -0.022415174 0.15857497 0.12788703
-0.0268206 0.0040690517 0.14828824 0.074542455 0.054209746 0.08853442 -0.11504986 -0.074193776
0.100780904 -0.033393357 -0.014017715 0.089044146 -0.12327722 -0.09319247 -0.138238 -0.10245481
-0.16416565 -0.06755895 -0.0080118505 0.036981594 -0.011018244 0.14878824 0.039249413 -0.09979893
0.13807358 0.10905627 -0.06833466 -0.05094767 0.08208485 -0.036754645 -0.013641327 0.077766806
-0.12833665 -0.13273522 -0.112816654 -0.12154729 0.116709836 -0.10731397 -0.025105063 -0.0668531
0.053728163 0.14193112 -0.008029631 0.06147858 0.030014487 0.04321368 0.11859111 -0.03310467
-0.1261132 -0.1404261 -0.14389889 0.10499845 -0.09410317 -0.091559514 0.06998006 0.121237814
-0.13978761 -0.012035105 -0.02758934 -0.118942946 -0.006613463 -0.04430153 -0.074627414 0.102669284
-0.09183974 0.15843196 -0.08840747 0.037050456 0.10890278 -0.06270805 -0.026602097 0.003079589
0.07690073 -0.16472282 0.022805067 -0.0757014 0.13612846 -0.022567615 0.12442779 -0.097482406
0.10965809 -0.012510603 0.10114716 -0.070150174 -0.068146616 0.09877888 0.015232945 -0.078282416
0.15145053 -0.11533514 -0.13760364 -0.030102223 -0.17540269 -0.003805046 -0.13436632 0.13601902
-0.05894072 0.016372306 -0.12010657 0.07906329 -0.10669832 -0.09781969 -0.08507622 0.14678288
0.07625091 -0.01637486 0.02667631 0.033299416 0.15517558 -0.13003704 0.11769903 0.020931842
00000000: b41d 20be 832a 22be 6f06 cabd e5a8 bf3d
00000010: 7ab0 9ebd 4b8a ba3d 3705 8abd 6ea8 17bd
00000020: 74e5 06be 70d5 34bd 8074 f43d 1d20 c0bd
00000030: 22fb f83d e2e1 a33c 486e ad3c 18b5 8fbd
00000040: d23a 47bc da5c c0bb 190b 953c d803 2f3c
00000050: 5f17 083c 553d c73d 9106 fb3d 635c 1e3e
00000060: 44ff a13a 4034 23bd 0149 a73d 23fb 7c3c
00000070: 3852 013e 2ada 0a3e 1f78 f8bd 40e3 00be
00000080: 7de0 95bd 6b4d 1bbd 4ce8 b33c db3d 0fbe
00000090: da5f ffbd 5b89 f7bd 5902 78bd f5de b2bd
000000a0: 1912 87bc a8f1 0bbe 5a3c 0a3e 065c 1cbe
000000b0: 7fee 0abe 18f3 083d 0b36 093e faa2 3a3d
000000c0: 5df0 c0bd ff47 073b 2fc4 fb3c 5352 a03d
000000d0: ad2c 5b3d dd30 9e3d f448 ad3d 5116 34bd
000000e0: 8bcd a63d d80f 42bc 2b0b ddbd 202b 193d
000000f0: def2 b7bd 6405 f83c 62ea c33c 4ba7 00bd
00000100: a207 0ebe c10b 97bd 8ff9 d83d 7637 29ba
00000110: c444 9bbb 49ec 82bd 68f8 a3bd ba64 0fbe
00000120: 5dab ddbd 3f06 7a3d cc25 7e3d 9084 2ebd
00000130: 8e60 d53b 6e13 223e d1e0 02be 2eec 9bbd
00000140: dba2 df3d 70f6 bbbd d809 c0bd f37f d33c
00000150: 5930 08be 2dbb d83d 0ed3 843d 9df5 8e3d
00000160: dad6 2abe 8877 08be 4661 243e 2edd ed3b
00000170: 6211 363d 007f 2b3d 4438 303d d14d a53a
00000180: 3c1c c0bd 69a1 00be 8748 df3d 7450 103d
00000190: 0860 223c 903b 05bd 9347 24be 4428 573d
000001a0: b7c3 c6bd 9031 0a3e 4a67 ea3d 50cc 05be
000001b0: 3b0b 48bb 7844 7d3a 7633 d83d 385c d6bd
000001c0: 0611 293e 1ba0 9a3b 75b2 223e 99e0 f4bd
000001d0: 5446 0d3e 2ffe 5ebd 47f2 9e3d 2cdb d23d
000001e0: c6c9 97bd 6a8c 06be 9e07 ba3d fa1e dd3d
000001f0: 36f4 283d 7674 90bd 2d8b 773d 1ba0 b6bd
00000200: d9da f13d 391b c33d 9d4d 0d3e 38f3 043c
00000210: 7f14 1cbd 4674 22be 5978 b2bd fe85 e63d
00000220: e254 3b3e b4cf a33d 1254 70bc 142f 213c
00000230: 2760 43bd 07a0 b7bc 7a61 223e d1f4 023e
00000240: e0b6 dbbc ae55 853b dfd8 173e b7a9 983d
00000250: 0a0b 5e3d 8951 b53d 439f ebbd e8f2 97bd
00000260: 3866 ce3d 79c7 08bd 8faa 65bc c75c b63d
00000270: c478 fcbd b2db bebd 438e 0dbe d4d3 d1bd
00000280: 0a1b 28be 595c 8abd 2344 03bc 037a 173d
00000290: dd85 34bc f25b 183e fec3 203d 6263 ccbd
000002a0: 2963 0d3e e558 df3d 0bf3 8bbd 81ae 50bd
000002b0: 1a1c a83d 0a8c 16bd df7f 5fbc 3444 9f3d
000002c0: af6a 03be beeb 07be 6b0c e7bd c9ed f8bd
000002d0: 9105 ef3d 6dc7 dbbd 22a9 cdbc 47ea 88bd
000002e0: 1012 5c3d 6456 113e b78e 03bc f7d0 7b3d
000002f0: f1e0 f53c d400 313d e5df f23d c398 07bd
00000300: d223 01be dccb 0fbe 3b5a 13be 6d09 d73d
00000310: 2ab9 c0bd 8e83 bbbd b551 8f3d 884b f83d
00000320: 7c24 0fbe e42e 45bc 0a03 e2bc 5c98 f3bd
00000330: c0b5 d8bb 8575 35bd 42d6 98bd 4644 d23d
00000340: 7916 bcbd fd3b 223e fa0e b5bd 38c2 173d
00000350: 6c08 df3d 146d 80bd a4ec d9bc eed2 493b
00000360: 217e 9d3d 19ad 28be b1d1 ba3c 5609 9bbd
00000370: 4265 0b3e b8df b8bc ffd3 fe3d dba4 c7bd
00000380: 6c94 e03d 46f9 4cbc 3e26 cf3d e5aa 8fbd
00000390: 7490 8bbd 954c ca3d 9a93 793c 8852 a0bd
000003a0: d915 1b3e d434 ecbd f8e7 0cbe f098 f6bc
000003b0: c39c 33be 145e 79bb 5397 09be 9248 0b3e
000003c0: d36b 71bd 371f 863c 6ffa f5bd efeb a13d
000003d0: a684 dabd b155 c8bd 713c aebd 404e 163e
000003e0: 7029 9c3d 9224 86bc 4788 da3c f864 083d
000003f0: 59e6 1e3e 6e28 05be 300c f13d 4179 ab3c

layer2.0.bias f4 [8]
-0.10876515 0.07280278 -0.15657061 -0.0008243547 0.14261779 0.012032812 -0.01876097 -0.065166965
00000000: 43c0 debd a019 953d 0c54 20be 8219 58ba
00000010: 660a 123e 4625 453c 9bb0 99bc 4276 85bd

layer2.1.weight f4 [8]
1.0006431 1.0001978 0.9879099 1.0023711 0.9941786 1.0156144 0.98801076 1.0107142
00000000: 1315 803f 7b06 803f aae7 7c3f b24d 803f
00000010: 7d82 7e3f a7ff 813f 46ee 7c3f 155f 813f

layer2.1.bias f4 [8]
0.008937562 -0.007610178 -0.008315659 0.015121503 -0.017411372 0.018151067 0.022781784 0.0114533715
00000000: da6e 123c cd5e f9bb 673e 08bc 2ec0 773c
00000010: 4ba2 8ebc 8cb1 943c dda0 ba3c eca6 3b3c

layer2.1.running_mean f4 [8]
-0.2725454 -0.27991635 -0.2148576 0.39760602 -0.016119799 -0.004403883 -0.07064622 0.11758165
00000000: 128b 8bbe 3251 8fbe a103 5cbe 0493 cb3e
00000010: ab0d 84bc 734e 90bb f7ae 90bd a6ce f03d

layer2.1.running_var f4 [8]
0.2007043 0.21724173 0.08457118 0.18061398 0.1748345 0.12672755 0.12057835 0.3056497
00000000: 6e85 4d3e 9e74 5e3e a833 ad3d dff2 383e
00000010: d107 333e dec4 013e c8f1 f63d 1e7e 9c3e

layer3.0.weight f4 [16, 8, 3, 3]
0.07070679 0.059037562 -0.056611262 -0.011822358 0.045821033 0.07318032 -0.09085071 0.047554776
-0.07282293 -0.059919756 -0.040029537 0.046627894 -0.06748143 0.07549941 -0.07153909 -0.023449007
0.008741548 -0.09019015 0.020112444 -0.035487436 0.059301496 0.033338312 -0.045694113 -0.041982044
0.00033027487 0.090144016 0.06047827 0.105081655 0.003195981 0.079067424 0.053222656 0.10740362
0.016950315 -0.06844926 0.09581727 -0.0007170642 0.06741196 -0.046679713 0.034029603 0.0968963
0.09811902 0.017173043 -0.0034813243 -0.10379705 -0.01807306 0.019240476 0.1250894 0.0396872
0.01830643 0.08659017 -0.030081073 0.10996367 0.003339631 0.033708762 -0.10266079 0.00213226
0.07202891 0.06271726 0.051454984 0.10394645 0.023905875 -0.07523065 0.056953598 -0.03613456
-0.05966482 -0.004107606 -0.030268744 0.06504781 -0.006144901 -0.05359589 0.080394395 0.005537737
0.11397264 0.046971083 -0.078746125 -0.080863275 0.041617267 0.0062502534 -0.004464371 -0.056769297
0.076341264 0.09361285 -0.005197237 -0.06196713 0.094374105 -0.08738843 -0.10261672 0.110758126
-0.10301946 -0.035375535 0.10913606 -0.09700385 0.017642034 -0.051959958 -0.032426067 0.049071986
-0.11593776 0.0026911236 -0.028021533 0.09399695 0.070378914 0.12455976 0.084440924 0.07720633
-0.035995536 -0.060105667 -0.03211696 -0.05263876 0.05859312 -0.058024053 0.045285318 0.08187829
-0.061551254 -0.07800757 0.012930394 0.0132995 0.06864812 -0.031879548 -0.03630947 0.12511352
-0.111050315 -0.0016631878 0.08156468 0.0502524 0.084122695 0.10359273 -0.107408494 -0.069447644
-0.11469014 -0.013448462 0.09643959 0.08454263 -0.042630136 0.013816854 0.03401415 0.1039332
-0.10358466 0.059143297 -0.09346409 0.101450734 -0.005948324 0.016030509 0.045140132 -9.6903896e-05
-0.08322949 0.11935211 0.11986054 0.062084652 0.056450885 -0.07550375 0.1235813 -0.069809474
0.084663965 -0.0010490303 -0.09961902 0.11228453 -0.029526066 -0.09578792 0.1229948 0.03702475
0.11455103 -0.0722963 -0.02439657 -0.10924682 -0.095981136 -0.07286019 -0.033852633 0.06265923
-0.11304126 0.029856043 -0.0640862 0.026539505 0.10341829 0.06384587 -0.090711825 -0.043218
-0.04504927 0.098385446 -0.10869562 0.07866283 -0.03253342 0.06621778 0.0014519945 -0.05212914
-0.01795699 -0.05249493 -0.043470766 0.08216518 0.10688246 -0.08298034 0.03935612 0.0373498
0.07229595 -0.10927459 -0.11907657 0.07062907 0.028583758 0.061180368 0.08791186 0.102842346
0.0025436513 -0.083239086 0.040405214 -0.12465245 -0.1083356 -0.00884943 -0.04958687 -0.081168786
-0.11116926 -0.10609134 0.098754235 0.059221234 -0.06856976 -0.08385782 -0.08711138 0.076907195
0.07054153 0.03760177 -0.06795805 -0.08834907 -0.0045743305 0.049016915 -0.053201213 -0.09891469
-0.11175652 -0.015196926 0.06131251 0.020951882 -0.059999436 -0.098562725 -0.0951074 0.07360702
0.021964364 -0.107381605 -0.06252218 -0.112764575 -0.016759295 0.09043627 -0.035164207 -0.06957846
-0.1173658 0.05594046 -0.038202543 -0.120973974 -0.05112366 -0.09969796 0.015367342 -0.09046344
-0.1058412 0.029296424 0.032341085 -0.0048539997 0.013362747 0.07616227 -0.11160966 0.06598767
00000000: b9ce 903d 5fd1 713d 36e1 67bd 90b2 41bc
00000010: d6ae 3b3d 90df 953d f00f babd ccc8 423d
00000020: 3024 95bd 6b6e 75bd 03f6 23bd e4fc 3e3d
00000030: b433 8abd 6f9f 9a3d 1683 92bd 2218 c0bc
00000040: b638 0f3c 9db5 b8bd dac2 a43c 465b 11bd
00000050: 20e6 723d c18d 083d c029 3bbd 5df5 2bbd
00000060: be28 ad39 6d9d b83d 10b8 773d 0d35 d73d
00000070: aa73 513b 1aee a13d 0000 5a3d 6ef6 db3d
00000080: 63db 8a3c 202f 8cbd d83b c43d 5df9 3bba
00000090: 480f 8a3d 3a33 3fbd a062 0b3d 9171 c63d
000000a0: a0f2 c83d 7bae 8c3c ee26 64bb 8c93 d4bd
000000b0: f40d 94bc 349e 9d3c 7017 003e 0c8f 223d
000000c0: 5ef7 953c 3056 b13d 956c f6bc a234 e13d
000000d0: b6dd 5a3b 3312 0a3d d23f d2bd 63bd 0b3b
000000e0: e583 933d e871 803d 76c2 523d e0e1 d43d
000000f0: 41d6 c33c 8712 9abd 2d48 693d d501 14bd
00000100: 1963 74bd 1999 86bb 28f6 f7bc c937 853d
00000110: 2a5b c9bb 5d87 5bbd d1a5 a43d e875 b53b
00000120: 7d6a e93d c064 403d a645 a1bd a59b a5bd
00000130: de76 2a3d edce cc3b dc49 92bb ec86 68bd
00000140: cf58 9c3d 18b8 bf3d 954d aabb 3fd1 7dbd
00000150: 3647 c13d b5f8 b2bd b728 d2bd 28d5 e23d
00000160: defb d2bd f0e5 10bd ba82 df3d f4a9 c6bd
00000170: 0786 903c f7d3 54bd 32d1 04bd b5ff 483d
00000180: c770 edbd 905d 303b 6a8d e5bc 7981 c03d
00000190: d222 903d 3019 ff3d 5def ac3d 5a1e 9e3d
000001a0: 0e70 13bd 5c31 76bd 138d 03bd be9b 57bd
000001b0: 57ff 6f3d a1aa 6dbd 197d 393d ceaf a73d
000001c0: 2b1d 7cbd 6fc2 9fbd 01da 533c 25e6 593c
000001d0: 6397 8c3d 2194 02bd 3db9 14bd c21d 003e
000001e0: 596e e3bd 52ff d9ba 620b a73d 76d5 4d3d
000001f0: 8548 ac3d 6d28 d43d fcf8 dbbd 913a 8ebd
00000200: aae2 eabd f056 5cbc 1f82 c53d b024 ad3d
00000210: f09c 2ebd 1660 623c 6c52 0b3d eeda d43d
00000220: 3224 d4bd 3e40 723d 1a6a bfbd 67c5 cf3d
00000230: 29ea c2bb 6a52 833c dce4 383d e238 cbb8
00000240: 3974 aabd e16e f43d 7179 f53d 7a4c 7e3d
00000250: 0b39 673d b6a1 9abd 3118 fd3d 45f8 8ebd
00000260: 4d64 ad3d 9e7f 89ba 0f05 ccbd 6ff5 e53d
00000270: a6e0 f1bc 752c c4bd b3e4 fb3d 44a7 173d
00000280: bb99 ea3d 1510 94bd 51db c7bc ccbc dfbd
00000290: c291 c4bd b937 95bd 0fa9 0abd 7b53 803d
000002a0: 2d82 e7bd a994 f43c a03f 83bd 6069 d93c
000002b0: f8cc d33d a0c1 823d 1fc7 b9bd 5c05 31bd
000002c0: 9585 38bd 4f7e c93d cf9b debd fa19 a13d
000002d0: c341 05bd 309d 873d da50 be3a 5d85 55bd
000002e0: 8a1a 93bc ec04 57bd 670e 32bd 3846 a83d
000002f0: 31e5 da3d 99f1 a9bd e233 213d 1bfc 183d
00000300: e60f 943d 5bcb dfbd 6bde f3bd f9a5 903d
00000310: 7c28 ea3c 4498 7a3d 220b b43d 029f d23d
00000320: 63b3 263b 4179 aabd f07f 253d c949 ffbd
00000330: 0edf ddbd 33fd 10bc 9a1b 4bbd d23b a6bd
00000340: b6ac e3bd 6b46 d9bd a93f ca3d f791 723d
00000350: 4d6e 8cbd a6bd abbd 7467 b2bd 8581 9d3d
00000360: 1478 903d 5004 1a3d 972d 8bbd 5bf0 b4bd
00000370: 44e4 95bb f6c5 483d 84e9 59bd c993 cabd
00000380: 9ae0 e4bd 87fc 78bc d422 7b3d 48a3 ab3c
00000390: f8c1 75bd 41db c9bd abc7 c2bd 47bf 963d
000003a0: 9cee b33c e3ea dbbd a10b 80bd 1df1 e6bd
000003b0: ca4a 89bc a736 b93d 5808 10bd 277f 8ebd
000003c0: 7b5d f0bd d321 653d 457a 1cbd 34c1 f7bd
000003d0: 0b67 51bd 722e ccbd 4ec7 7b3c e544 b9bd
000003e0: 45c3 d8bd 0eff ef3c 1678 043d 4d0e 9fbb
000003f0: 6cef 5a3c f7fa 9b3d 9b93 e4bd 8b24 873d

layer3.0.bias f4 [16]
-0.10841775 -0.09216926 0.10822399 0.11121593 0.11210795 -0.083331354 0.018116793 0.09831479
0.10703951 0.011160977 0.02403127 -0.028924048 0.057425138 -0.065499745 0.052439336 -0.05083314
00000000: 200a debd 3dc3 bcbd 8aa4 dd3d 2dc5 e33d
00000010: da98 e53d a1a9 aabd ab69 943c 4459 c93d
00000020: 8837 db3d 88dc 363c 3add c43c 20f2 ecbc
00000030: 9f36 6b3d bb24 86bd a1ca 563d 6936 50bd

layer3.1.weight f4 [16]
1.002666 0.9864942 0.9896894 1.0180987 0.9807272 0.9906127 0.98873085 0.97834647
1.0209086 1.0158486 1.0017278 1.0090547 1.0216979 0.99785286 0.9990663 0.9990561
00000000: 5c57 803f e28a 7c3f 495c 7d3f 0f51 823f
00000010: f010 7b3f cb98 7d3f 771d 7d3f ea74 7a3f
00000020: 22ad 823f 5407 823f 9e38 803f b428 813f
00000030: ffc6 823f 4973 7f3f cfc2 7f3f 24c2 7f3f

layer3.1.bias f4 [16]
-0.01235351 -0.014793565 -0.0017007316 0.0121531645 -0.012319625 -0.007699443 -0.01922141 -0.008308927
0.0038995726 0.01653518 0.005218973 -0.017409032 0.0063730795 0.0011292465 0.0014681987 0.0025185118
00000000: 6066 4abc b560 72bc 15eb deba 111e 473c
00000010: 41d8 49bc 9c4b fcbb 3876 9dbc 2a22 08bc
00000020: f98f 7f3b c974 873c eb03 ab3b 639d 8ebc
00000030: 44d5 d03b 3a03 943a 9370 c03a 9e0d 253b

layer3.1.running_mean f4 [16]
0.25755355 0.07112143 0.03358674 -0.20456505 -0.20104134 -0.3115439 -0.24530748 0.03997656
-0.3777567 -0.20020926 0.04826695 -0.2057229 0.5291653 -0.12807086 -0.34232634 -0.16762853
00000000: 0fde 833e 1da8 913d 4092 093d 8079 51be
00000010: c8dd 4dbe af82 9fbe e231 7bbe 76be 233d
00000020: 5469 c1be a803 4dbe 91b3 453d 06a9 52be
00000030: 6177 073f 0225 03be 6645 afbe d0a6 2bbe

layer3.1.running_var f4 [16]
0.17008694 0.110838644 0.14419079 0.122372426 0.09952775 0.08246595 0.26226583 0.065478936
0.10935187 0.06890573 0.06960531 0.24928005 0.19308569 0.115562275 0.11146882 0.21763608
00000000: 452b 2e3e 5fff e23d c0a6 133e 659e fa3d
00000010: 34d5 cb3d e8e3 a83d b547 863e d219 863d
00000020: e0f3 df3d 731e 8d3d 3b8d 8e3d 4543 7f3e
00000030: 41b8 453e eaab ec3d c449 e43d fedb 5e3e

layer4.0.weight f4 [64, 16, 3, 3]
0.068920605 -0.057434782 -0.080990896 -0.0008550598 0.05087919 -0.068153866 -0.022826182 -0.080123685
0.075701386 0.051773936 -0.06320264 -0.047924995 0.012217513 0.066857405 -0.07338058 -0.04202174
-0.00230728 -0.024687858 -0.05315173 0.07256544 0.02620853 -0.0101899095 0.045060843 -0.012675636
-0.07526807 0.00038664008 0.01441097 0.057462975 0.08645733 -0.046742182 0.044323683 0.07342786
-0.0061269044 0.068338834 -0.050937988 0.018548997 0.045823377 -0.0447804 -0.0012341142 -0.033263817
-0.012459396 0.002836548 0.077911176 0.06263785 -0.023184946 -0.0015772713 -0.020713016 -0.02298622
0.061894435 -0.035803325 -0.028416334 0.028541297 0.028087556 -0.046728197 0.06922918 0.04307649
0.07643688 -0.07362432 -0.017544806 -0.076416664 -0.05114167 -0.022508949 0.06491807 0.02311115
0.06932548 0.01676185 0.05095335 0.048670996 0.0052401866 -0.0023773771 -0.00866658 -0.053543407
-0.031632707 -0.02964492 -0.06393828 0.07734508 0.020584973 -0.0054402524 0.061335113 0.016812572
-0.04836908 -0.07402753 -0.015000609 0.07682557 0.04808157 0.04868807 -0.02129968 0.04315835
-0.025293836 -0.061057642 0.020292329 0.0555183 0.054028384 -0.0141183585 -0.0075945645 0.0419341
-0.05703254 0.04390481 0.040594913 0.065066375 -0.021675343 -0.0010797407 0.003517932 0.060902234
0.014097716 0.048946768 0.057678815 -0.066887595 -0.064534 -0.023357706 -0.04803925 0.06665153
-0.040155735 -0.03852805 -0.025542604 -0.052875016 -0.063672476 0.015359261 -0.07154877 -0.0034965584
0.02759707 0.05956095 -0.041038103 -0.035179228 -0.021674676 -0.02472211 0.051418528 0.08012832
0.001485495 -0.020392224 -0.020793166 0.0028915333 0.070269145 -0.065960236 0.011477618 -0.06584601
-0.06558168 -0.08192048 0.013086332 0.06850677 0.031795222 0.04389819 0.073316716 0.02214828
-0.05891279 0.038582146 -0.016059289 -0.0014099287 -0.07116875 -0.010017933 -0.025081761 0.05860946
-0.013924843 -0.054054465 0.03392096 -0.03907286 0.049735222 -0.035286352 0.06841275 0.058402624
-0.056392148 0.018171437 0.04153999 -0.05202476 -0.051629275 0.009866938 0.01428491 -0.048418354
0.065054506 0.03922928 0.040493593 0.046811663 -0.011846653 -0.08792933 0.00046226205 0.014152046
-0.042772714 -0.08940533 0.04610449 -0.08488189 -0.004152333 0.07253002 0.03019301 0.054437786
-0.029531544 -0.06315268 -0.029982964 -0.057976745 0.040667538 -0.07414685 -0.015503637 -0.06484299
0.04980081 -0.052186146 0.0784561 -0.025621314 -0.07519539 0.03045791 -0.015332349 0.010036398
-0.004356613 -0.08101538 -0.060163535 -0.037657585 -0.01875252 0.008139999 9.1608556e-05 -0.07044342
0.038328752 0.041127354 -0.0048046485 -0.0011396668 -0.07999138 -0.042889316 -0.029736428 -0.021971758
-0.068747915 -0.0030388033 -0.050912816 0.007567203 -0.05202332 0.063992985 0.03451269 0.05439553
-0.049675774 0.016518792 -0.07656454 -0.042270653 -0.028433066 -0.09030659 -0.0866289 -0.049152203
0.016444119 0.034051657 -0.032289725 -0.037148934 0.06681472 -0.07384857 0.06519377 -0.06990953
0.06984702 -0.031442884 -0.067209594 -0.057686813 0.083254844 0.0801579 0.05659719 0.023298891
0.009651428 -0.0636538 -0.061808076 0.083403565 -0.004388451 0.07039221 -0.07941002 0.073539294
00000000: 3f26 8d3d bc40 6bbd 8ede a5bd 1826 60ba
00000010: b366 503d 4194 8bbd f9fd babc e317 a4bd
00000020: 5409 9b3d e810 543d 6370 81bd 004d 44bd
00000030: f72b 483c 89ec 883d 8f48 96bd fd1e 2cbd
00000040: bc35 17bb 313e cabc a1b5 59bd 309d 943d
00000050: 45b3 d63c 94f3 26bc b891 383d 79ad 4fbc
00000060: 2526 9abd f4b5 ca39 fd1b 6c3c 4c5e 6b3d
00000070: 8a10 b13d bb74 3fbd c08c 353d 5961 963d
00000080: 33c4 c8bb 3bf5 8b3d 5aa4 50bd 11f4 973c
00000090: 4bb1 3b3d a76b 37bd 00c2 a1ba a43f 08bd
000000a0: 7f22 4cbc 61e5 393b e58f 9f3d 4648 803d
000000b0: 5bee bdbc 71bc ceba 58ae a9bc 994d bcbc
000000c0: 0585 7d3d 82a6 12bd 5fc9 e8bc 70cf e93c
000000d0: e017 e63c 1166 3fbd 07c8 8d3d f970 303d
000000e0: f08a 9c3d 59c8 96bd 20ba 8fbc 5780 9cbd
000000f0: ee79 51bd b064 b8bc c4f3 843d 9853 bd3c
00000100: 84fa 8d3d 2650 893c 76b4 503d 3d5b 473d
00000110: dfb5 ab3b c5cd 1bbb 45fe 0dbc 5550 5bbd
00000120: 4c91 01bd e7d9 f2bc 13f2 82bd 1967 9e3d
00000130: d1a1 a83c 2544 b2bb 873a 7b3d 85ba 893c
00000140: a81e 46bd bf9b 97bd 1dc5 75bc b956 9d3d
00000150: 2ef1 443d 246d 473d ab7c aebc cfc6 303d
00000160: 0535 cfbc 9417 7abd 193c a63c 2867 633d
00000170: de4c 5d3d b050 67bc d3db f8bb 17c3 2b3d
00000180: f49a 69bd 88d5 333d da46 263d 8541 853d
00000190: 7d90 b1bc 1686 8dba 1b8d 663b 9f74 793d
000001a0: 1bfa 663c 687c 483d 9f40 6c3d 5dfc 88bd
000001b0: 672a 84bd a958 bfbc cec4 44bd 9980 883d
000001c0: 577a 24bd 97cf 1dbd b93e d1bc 7993 58bd
000001d0: b766 82bd 69a5 7b3c 2988 92bd 8426 65bb
000001e0: 4013 e23c 2ff6 733d 9217 28bd 1818 10bd
000001f0: 178f b1bc 0686 cabc 3c9c 523d 511a a43d
00000200: f1b4 c23a 980d a7bc 6e56 aabc e17f 3d3b
00000210: 45e9 8f3d 2916 87bd 9e0c 3c3c 46da 86bd
00000220: b04f 86bd edc5 a7bd 0e68 563c 474d 8c3d
00000230: b53b 023d 97ce 333d 1327 963d 4f70 b53c
00000240: 8a4e 71bd 5008 1e3d c58e 83bc 5bcd b8ba
00000250: ecc0 91bd 4222 24bc 4478 cdbc 7910 703d
00000260: 0625 64bc 3768 5dbd b4f0 0a3d dd0a 20bd
00000270: 29b7 4b3d 6c88 10bd fc1b 8c3d 9737 6f3d
00000280: 74fb 66bd 44dc 943c d625 2a3d ea17 55bd
00000290: 3879 53bd f0a8 213c 410b 6a3c 5352 46bd
000002a0: 4c3b 853d e2ae 203d 9cdc 253d 96bd 3f3d
000002b0: 7718 42bc 4b14 b4bd c35b f239 fcdd 673c
000002c0: 7132 2fbd 241a b7bd 10d8 3c3d 8ed6 adbd
000002d0: 4b10 88bb 9e8a 943d 5557 f73c 28fa 5e3d
000002e0: 23ec f1bc 3156 81bd d59e f5bc 0679 6dbd
000002f0: 0193 263d 4eda 97bd f702 7ebc 67cc 84bd
00000300: effb 4b3d 24c1 55bd 97ad a03d cae3 d1bc
00000310: 0a00 9abd de82 f93c 8834 7bbc b46f 243c
00000320: ebc1 8ebb 64eb a5bd 0a6e 76bd d73e 1abd
00000330: e39e 99bc a15d 053c f81d c038 a444 90bd
00000340: 9cfe 1c3d 2875 283d 5070 9dbb df60 95ba
00000350: 85d2 a3bd b5ac 2fbd cf99 f3bc 1efe b3bc
00000360: b5cb 8cbd a926 47bb f589 50bd 4df6 f73b
00000370: 6816 55bd c10e 833d 2e5d 0d3d d9cd 5e3d
00000380: d378 4bbd 6b52 873c dfcd 9cbd fe23 2dbd
00000390: 76ec e8bc a9f2 b8bd 7e6a b1bd d253 49bd
000003a0: d1b5 863c c079 0b3d 3b42 04bd 7b29 18bd
000003b0: 28d6 883d eb3d 97bd 5084 853d ba2c 8fbd
000003c0: f40b 8f3d 41ca 00bd 2fa5 89bd 0249 6cbd
000003d0: 8481 aa3d d329 a43d 75d2 673d 51dd be3c
000003e0: 0621 1e3c ec5c 82bd 772a 7dbd 7dcf aa3d
000003f0: ffcc 8fbb ca29 903d b8a1 a2bd c59b 963d

layer4.0.bias f4 [64]
-0.07803644 0.07366033 0.07085025 -0.06139429 0.0022104785 -0.009980871 0.01028451 0.001475009
0.043266848 0.049288798 -0.07818055 -0.035394993 0.044301562 -0.037008416 -0.0033807687 -0.0763814
-0.009137115 0.054747183 -0.079229325 -0.02866309 0.024417412 -0.071532644 -0.02658528 0.015609493
0.03624672 0.022263825 -0.072226845 -0.009981715 -0.08230733 -0.030055542 -0.007081665 -0.07102054
-0.036065698 -0.07758049 0.0536129 0.077230014 -0.0035100875 -0.003116743 -0.0090182945 -0.05484477
0.04366378 -0.014939991 0.078929685 -0.057785403 0.08211912 0.05125655 0.051235825 0.0019758542
-0.055360936 -0.055021547 0.06274003 -0.012954734 -0.07311452 0.033054363 -0.042775884 -0.023363877
-0.007318306 -0.0070769372 -0.00847323 0.00944286 0.050767634 0.06766419 0.041281797 -0.019327598
00000000: 92d1 9fbd 3adb 963d f019 913d 9478 7bbd
00000010: addd 103b cf86 23bc 5d80 283c 1755 c13a
00000020: 9438 313d 0de3 493d 201d a0bd 57fa 10bd
00000030: 8e75 353d 2396 17bd e38f 5dbb da6d 9cbd
00000040: d7b3 15bc 953e 603d fc42 a2bd dbce eabc
00000050: 0607 c83c b57f 92bd 60c9 d9bc f5be 7f3c
00000060: 7177 143d a062 b63c abeb 93bd 598a 23bc
00000070: bf90 a8bd 0a37 f6bc 500d e8bb 3873 91bd
00000080: a0b9 13bd 85e2 9ebd 3399 5b3d c52a 9e3d
00000090: 7f09 66bb 4542 4cbb 78c1 13bc e9a4 60bd
000000a0: cbd8 323d ddc6 74bc e3a5 a13d 63b0 6cbd
000000b0: 122e a83d 63f2 513d a8dc 513d 557d 013b
000000c0: 26c2 62bd 465e 61bd d87d 803d 1840 54bc
000000d0: 11bd 95bd 0364 073d c435 2fbd 9a65 bfbc
000000e0: 66ce efbb a7e5 e7bb 4dd3 0abc 3ab6 1a3c
000000f0: b9f1 4f3d 8693 8a3d 1a17 293d e954 9ebc

layer4.1.weight f4 [64]
1.002744 1.009451 1.0052426 1.0052284 0.99525005 1.0196068 1.0043246 1.0057828
1.0001109 1.001578 1.0010588 1.0064439 1.0098917 1.0108069 1.0080392 1.0147729
1.0002315 1.0130835 1.0206463 1.0136256 1.0180179 1.0096432 0.9988907 1.0004053
1.0191306 1.0131651 1.0096858 1.0015321 1.0275024 1.0028256 1.0140872 1.0043492
1.0009087 1.0083804 1.0152578 0.9943093 1.0133264 0.9978032 1.0053116 1.0081456
1.0044292 0.9967766 1.0162723 1.0065768 1.0124652 1.0108403 0.9940816 1.0156548
1.0136122 1.015034 1.0153341 1.0104702 1.0089461 1.005142 1.0086741 1.0002604
1.0093645 1.0065801 1.0084956 1.0155996 1.0119032 1.0028265 1.0035803 1.0176322
00000000: ea59 803f b135 813f caab 803f 53ab 803f
00000010: b5c8 7e3f 7a82 823f b58d 803f 7ebd 803f
00000020: a203 803f b533 803f b222 803f 27d3 803f
00000030: 2244 813f 1f62 813f 6e07 813f 14e4 813f
00000040: 9607 803f b8ac 813f 8aa4 823f 7cbe 813f
00000050: 694e 823f fd3b 813f 4db7 7f3f 480d 803f
00000060: df72 823f 65af 813f 623d 813f 3432 803f
00000070: 3385 833f 975c 803f 9ccd 813f 848e 803f
00000080: c71d 803f 9c12 813f f8f3 813f 0e8b 7e3f
00000090: aeb4 813f 0870 7f3f 0dae 803f ea0a 813f
000000a0: 2391 803f c02c 7f3f 3615 823f 82d7 803f
000000b0: 7698 813f 3763 813f 227c 7e3f fa00 823f
000000c0: 0bbe 813f a2ec 813f 78f6 813f 1657 813f
000000d0: 2525 813f 7ea8 803f 3c1c 813f 8808 803f
000000e0: db32 813f 9ed7 803f 6216 813f 2bff 813f
000000f0: 0b86 813f 9e5c 803f 5275 803f c641 823f

layer4.1.bias f4 [64]
0.0016757734 -0.0006341883 0.00184206 -0.0026205513 0.00019532676 0.012001723 0.0002961552 0.0016260999
-0.0017424007 -0.0010172392 -0.0051067597 0.0016803568 0.007276144 0.006717068 0.0011287404 0.00670804
-0.0026332093 0.001033973 0.014201931 0.012186632 0.0054752124 0.003356818 -0.0012847596 -0.0004095897
0.013334409 0.007235859 0.0032198837 -0.0027246487 0.014739416 0.00026240014 0.012117194 -0.00049828057
0.0018841567 -6.251055e-07 0.012776582 -0.0004732246 0.0029678002 -0.0028147907 0.0036624628 -0.0014569978
0.0034632448 0.0023063866 0.0069310674 0.0021278095 0.0051613958 0.007530125 -0.0037709123 0.003562284
0.0053788335 0.006993382 0.012821336 0.0016243515 0.008639369 0.002615098 -0.00040728823 -0.0030699128
0.0008756506 0.0019834056 0.0017170989 0.0024339284 0.010183416 0.0015848775 0.00085068616 0.012891814
00000000: a0a5 db3a a83f 26ba 4771 f13a 8ebd 2bbb
00000010: a1d0 4c39 e0a2 443c 4745 9b39 dc22 d53a
00000020: 4461 e4ba e254 85ba 9b56 a7bb 6b3f dc3a
00000030: b86c ee3b da1a dc3b 3ef2 933a 1ecf db3b
00000040: ec91 2cbb 6086 873a 37af 683c 70aa 473c
00000050: 6969 b33b 10fe 5b3b 6165 a8ba 33be d6b9
00000060: 9178 5a3c c91a ed3b af04 533b 0590 32bb
00000070: 977d 713c c092 8939 3287 463c 0b9f 02ba
00000080: cff5 f63a eccc 27b5 de54 513c 211b f8b9
00000090: 6d7f 423b 5a78 38bb ee05 703b bcf8 beba
000000a0: 9bf7 623b bf26 173b 021e e33b b872 0b3b
000000b0: ed20 a93b 44bf f63b 6921 77bb 3575 693b
000000c0: ed40 b03b bd28 e53b 9510 523c 31e8 d43a
000000d0: 248c 0d3c 1062 2b3b 4d89 d5b9 9730 49bb
000000e0: eb8b 653a 06fc 013b 4710 e13a 8b82 1f3b
000000f0: 58d8 263c aabb cf3a 9500 5f3a 3038 533c

layer4.1.running_mean f4 [64]
0.14651972 -0.68091077 0.021728337 -0.81807184 0.041985407 0.2982759 -0.21869989 -0.10676643
0.39268008 -0.33742642 0.21356729 -0.39820835 -0.022817813 -0.24958426 -0.475284 0.16091795
-0.12820718 -0.8879949 0.44794065 0.1508003 0.3640818 0.03521832 0.12243535 -0.2306606
0.12404321 -0.21991014 -0.57321656 -0.15246186 -0.030652292 0.4898273 0.336051 -0.3723951
0.03146971 0.32108438 0.23455642 0.5019765 0.044936404 0.23751542 -0.11102234 0.22587648
-0.004811808 -0.16703051 -0.5321679 -0.23636468 0.3201518 0.084178254 -0.84467405 0.35647964
0.008633322 -0.46480393 0.20001362 -0.8054723 -0.11541542 0.24005157 0.6068585 -0.1325954
-0.65297276 -0.38121894 0.23595694 -0.5561588 -0.3887001 -0.20444934 -0.16943586 0.59285665
00000000: 4409 163e 2b50 2ebf a0ff b13c 286d 51bf
00000010: e4f8 2b3d 9eb7 983e ddf2 5fbe 5ca8 dabd
00000020: 5d0d c93e 28c3 acbe 62b1 5a3e f7e1 cbbe
00000030: 6cec babc 0493 7fbe 6d58 f3be adc7 243e
00000040: be48 03be a253 63bf 7a58 e53e 656b 1a3e
00000050: ee68 ba3e 1641 103d 63bf fa3d 4b32 6cbe
00000060: 5e0a fe3d 2030 61be 52be 12bf f61e 1cbe
00000070: 841a fbbc a5ca fa3e e00e ac3e 92aa bebe
00000080: 62e6 003d 2c65 a43e 8f2f 703e 8881 003f
00000090: 3c0f 383d 3e37 733e ae5f e3bd 2a4c 673e
000000a0: 5fac 9dbb 0c0a 2bbe 283c 08bf 9509 72be
000000b0: f0ea a33e a665 ac3d 8f3c 58bf 8084 b63e
000000c0: c772 0d3c c8fa edbe 5fd0 4c3e 6f33 4ebf
000000d0: eb5e ecbd 14d0 753e 145b 1b3f 17c7 07be
000000e0: 3929 27bf 212f c3be b29e 713e 6c60 0ebf
000000f0: b303 c7be 2b5b 51be 9880 2dbe 74c5 173f

layer4.1.running_var f4 [64]
0.27316865 0.23979491 0.22548303 0.50661933 0.21540706 0.36944115 0.40324768 0.39361048
0.24700302 0.29570678 0.3062799 0.29072168 0.281029 0.27975258 0.2907451 0.51762617
0.20430714 0.36381066 0.43902025 0.27183554 0.4029308 0.223631 0.270706 0.4050847
0.3631692 0.48529935 0.429193 0.24013795 0.37060195 0.3203179 0.3026393 0.31832913
0.28616884 0.41665697 0.24987228 0.36760214 0.41490623 0.26494136 0.4323897 0.22818322
0.43005195 0.18900894 0.3361403 0.45270798 0.33331707 0.26909325 0.34371716 0.405302
0.3043471 0.6065293 0.29551545 0.4797014 0.29682374 0.23148622 0.5790101 0.29430786
0.36902046 0.3312504 0.46756196 0.3485662 0.5808197 0.32227314 0.38836837 0.33784413
00000000: c3dc 8b3e cc8c 753e 06e5 663e ceb1 013f
00000010: ab93 5c3e 6427 bd3e 7b76 ce3e 5087 c93e
00000020: 5cee 7c3e e166 973e b8d0 9c3e 79d9 943e
00000030: 08e3 8f3e bb3b 8f3e 8bdc 943e 2683 043f
00000040: e435 513e 6445 ba3e 43c7 e03e 072e 8b3e
00000050: f24c ce3e 86ff 643e fa99 8a3e 4367 cf3e
00000060: 50f1 b93e 2879 f83e 2fbf db3e b9e6 753e
00000070: 8abf bd3e b500 a43e 8af3 9a3e 09fc a23e
00000080: b984 923e 1054 d53e 85de 7f3e 5936 bc3e
00000090: 976e d43e 65a6 873e 2f62 dd3e dda8 693e
000000a0: c52f dc3e 8f8b 413e 951a ac3e 57c9 e73e
000000b0: 89a8 aa3e 97c6 893e b2fb af3e be83 cf3e
000000c0: 62d3 9b3e 8145 1b3f cd4d 973e 6c9b f53e
000000d0: 48f9 973e b90a 6d3e 023a 143f 85af 963e
000000e0: 40f0 bc3e a799 a93e 4864 ef3e 4577 b23e
000000f0: 9ab0 143f fc00 a53e 38d8 c63e e8f9 ac3e

layer5.0.weight f4 [64, 64, 3, 3]
-0.015787955 -0.0065514296 0.03217637 0.0123850405 -0.04108222 -0.006338168 0.03500249 0.011181835
-0.0044024438 -0.00062398985 -0.008293185 0.039346386 -0.0213826 0.037688207 0.025040876 -0.0013768636
0.024278153 -0.010918012 -0.018540278 -0.0027368031 0.0132161565 -0.025319576 0.014302384 0.004160594
0.010562584 -0.030201763 0.02052641 -0.0032806657 -0.0017655939 -0.0024487488 -0.01025939 -0.03704504
-0.009307995 0.00019749999 -0.030524474 -0.02517206 0.002556894 0.0002501905 0.034350555 0.018333629
0.016837303 0.005230788 0.025159959 -0.0041156113 -0.012797888 0.0066379793 -0.02141739 -0.033988833
0.032830853 0.020701636 0.0306567 0.032427464 -0.009444747 0.00070677325 -0.035603754 0.0032980926
-0.023126384 0.014511034 -0.006308917 0.021204446 -0.028362816 -0.001187861 -0.026723009 -0.019771248
-0.009592261 -0.0027933829 0.039956857 -0.030083131 -0.019708406 0.014912356 -0.041345328 0.03804223
0.041406695 -0.027480956 -0.013260853 0.02224334 -0.025120284 -0.03944274 -0.002247274 0.027683694
0.03361253 -0.0043415427 -0.0030727424 -0.014228564 -0.019497469 -0.0072493106 -0.010008752 -0.016372096
0.026065249 -0.011367789 0.040729765 -0.029992303 0.010878187 0.034429032 -0.017469471 0.031038266
-0.038334437 0.020304576 0.0068511404 0.029218402 -0.009903073 -0.0062897652 0.039272275 -0.03423828
-0.017138284 -0.023742374 -0.015106048 -0.022638863 0.020574015 -0.024024248 -0.018770954 -0.006855663
-0.014665078 -0.037286025 0.017272979 0.00335617 0.019942988 0.025735851 0.007707443 0.013092056
0.016555835 -0.039110012 -0.013990408 0.0029335357 0.019177888 -0.03769345 -0.019769117 -0.02970764
-0.033230197 0.024203245 0.019728128 -0.021326706 -0.009632383 -0.031450585 0.017260391 0.029313523
0.010596629 -0.021344354 -0.009289708 -0.017308503 -0.02585434 0.035800178 0.011456873 0.016422749
0.024905745 0.02692772 0.014314238 -0.019912627 -0.039850987 0.040754218 -0.020384317 0.02550495
0.03450829 0.03242499 -0.03418043 0.020808753 -0.00070774555 -0.03816089 0.007595256 -0.019380432
0.012499426 0.01598781 -0.02957352 0.0057597905 0.0026968978 0.009409789 0.022989955 -0.028099865
0.01978581 -0.024502065 -0.026799059 -0.007745996 -0.0059565566 0.00978056 -0.038235556 -0.0030193143
0.0070463605 -0.031878367 0.031901468 -0.040242832 0.016440231 0.032606166 0.023235578 -0.008176133
0.021403719 -0.019036537 0.023191836 0.022662614 0.02680089 -0.0335278 -0.024917668 0.025870021
-0.0119749755 0.0037462115 0.01345497 -0.025288086 0.014558684 -0.040790707 0.026677523 0.01267143
-0.0153584685 0.035006557 0.012500305 0.016821548 0.021446388 0.0013663433 -0.02372992 0.01069228
0.02652086 0.021370064 0.03878947 -0.022758683 -0.0072071664 0.03392898 -0.019711858 0.027252633
-0.017372211 0.021529559 0.0202871 -0.01434226 0.04086796 0.022526283 -0.008249775 -0.03766128
0.0073686875 0.019369353 0.034777995 0.0138669945 -0.0029746145 0.019598767 0.0013629235 0.03479938
-0.015475612 0.015189286 -0.035557337 0.041455556 0.02918667 0.031227816 0.03368399 -0.036736336
0.009574849 -0.009059027 -0.037469517 0.025858376 0.00023639575 0.034571785 0.0411014 0.0067324974
-0.02790985 0.015758183 0.028282125 -0.026889196 0.038653415 0.0049486943 0.010034878 -0.0057832785
00000000: be55 81bc 60ad d6bb 5fcb 033d a0ea 4a3c
00000010: d445 28bd 68b0 cfbb c55e 0f3d 0434 373c
00000020: 6042 90bb 4093 23ba 24e0 07bc ad29 213d
00000030: 902a afbc f35e 1a3d 8622 cd3c e077 b4ba
00000040: fae2 c63c 76e1 32bc c8e1 97bc f05b 33bb
00000050: 9488 583c 006b cfbc 8c54 6a3c 9855 883b
00000060: b00e 2d3c b069 f7bc 0027 a83c 7000 57bb
00000070: 806b e7ba 307b 20bb 0017 28bc 8abc 17bd
00000080: 9080 18bc 0018 4f39 760e fabc a335 cebc
00000090: 9091 273b 002c 8339 2bb3 0c3d 6830 963c
000000a0: 62ee 893c 0867 ab3b 421c ce3c 40dc 86bb
000000b0: 3cae 51bc 6883 d93b 8673 afbc e037 0bbd
000000c0: a579 063d 7a96 a93c c223 fb3c a9d2 043d
000000d0: 24be 1abc c046 393a 3ed5 11bd d024 583b
000000e0: 8b73 bdbc b0bf 6d3c 08bb cebb f2b4 ad3c
000000f0: 2359 e8bc 00b2 9bba 36ea dabc 50f7 a1bc
00000100: dc28 1dbc 3011 37bb cda9 233d e670 f6bc
00000110: 8673 a1bc f452 743c b859 29bd 2bd2 1b3d
00000120: 119a 293d be1f e1bc 0c44 59bc aa37 b63c
00000130: 0ec9 cdbc b68e 21bd 0047 13bb eac8 e23c
00000140: 4bad 093d 8043 8ebb 1060 49bb ec1e 69bc
00000150: 28b9 9fbc a08b edbb c0fb 23bc c61e 86bc
00000160: ca86 d53c f63f 3abc 41d4 263d 6bb2 f5bc
00000170: 6c3a 323c 7505 0d3d 231c 8fbc f643 fe3c
00000180: 9204 1dbd c855 a63c 887f e03b 6e5b ef3c
00000190: 8040 22bc 601a cebb f7db 203d 703d 0cbd
000001a0: 9665 8cbc 5e7f c2bc 5c7f 77bc 2375 b9bc
000001b0: d68a a83c 80ce c4bc 8bc5 99bc 78a5 e0bb
000001c0: cc45 70bc 3bb9 18bd 1080 8d3c 30f3 5b3b
000001d0: 7a5f a33c fed3 d23c b88e fc3b 1080 563c
000001e0: 1aa0 873c d231 20bd 0638 65bc 9040 403b
000001f0: f21a 9d3c 7264 1abd d8f2 a1bc 705d f3bc
00000200: 631c 08bd e245 c63c e29c a13c 58b5 aebc
00000210: 24d1 1dbc 54d2 00bd aa65 8d3c ea22 f03c
00000220: 7c9d 2d3c 5bda aebc dc33 18bc 90ca 8dbc
00000230: 7bcc d3bc 35a3 123d 9cb5 3b3c 0089 863c
00000240: 2207 cc3c 8697 dc3c 4486 6a3c ce1f a3bc
00000250: ca3a 23bd e5ed 263d 03fd a6bc c2ef d03c
00000260: 9158 0d3d 11d0 043d c700 0cbd 1e77 aa3c
00000270: 0088 39ba 984e 1cbd a0e1 f83b b6c3 9ebc
00000280: 64ca 4c3c def8 823c 2b44 f2bc a0bc bc3b
00000290: 70be 303b 842b 1a3c 6e55 bc3c b031 e6bc
000002a0: da15 a23c 8eb8 c8bc b389 dbbc 20d2 fdbb
000002b0: 382f c3bb a43e 203c e39c 1cbd b0df 45bb
000002c0: 28e5 e63b e492 02bd 1dab 023d abd5 24bd
000002d0: aaad 863c 0b8e 053d 8a58 be3c 30f5 05bc
000002e0: da56 af3c 83f2 9bbc cefc bd3c f2a6 b93c
000002f0: 8a8d db3c 7254 09bd 2320 ccbc 5eed d33c
00000300: b032 44bc 0083 753b 3c72 5c3c f628 cfbc
00000310: 8c87 6e3c 2814 27bd d28a da3c d49b 4f3c
00000320: 16a2 7bbc 0963 0f3d 14ce 4c3c 58cd 893c
00000330: 56b0 af3c e016 b33a 4065 c2bc ac2e 2f3c
00000340: 4642 d93c 4610 af3c b5e1 1e3d 6b70 babc
00000350: 182a ecbb 1df9 0a3d c37a a1bc ea40 df3c
00000360: 2b50 8ebc c25e b03c 2231 a63c ccfb 6abc
00000370: 2965 273d 0a89 b83c 102a 07bc b742 1abd
00000380: 0875 f13b 7aac 9e3c 5f73 0e3d 6432 633c
00000390: c0f1 42bb 988d a03c 20a4 b23a cb89 0e3d
000003a0: 6c8d 7dbc 7cdc 783c 92a4 11bd 4dcd 293d
000003b0: e218 ef3c 7ad1 ff3c 39f8 093d d778 16bd
000003c0: d4df 1c3c 506c 14bc a379 19bd f2d4 d33c
000003d0: 00e1 7739 259b 0d3d f159 283d 489c dc3b
000003e0: 33a3 e4bc 4e17 813c eaaf e73c bb46 dcbc
000003f0: 0b53 1e3d a828 a23b 5469 243c a881 bdbb

layer5.0.bias f4 [64]
-0.025161352 0.03919806 0.01891553 -0.0260445 -0.010117158 0.016510848 -0.04085019 -0.009473994
-0.021135028 0.034190986 0.026864085 -0.027847167 -0.012339827 0.019820515 -0.020101678 0.02056231
0.03849153 0.03341498 -0.016298559 0.01041102 0.032072786 0.023665253 -0.0017003007 0.008503854
0.0383765 0.01577903 -0.02969424 0.03963546 -0.029626053 -0.03914704 -0.025245652 0.008274522
-0.0098489635 0.03895397 0.022118751 -0.03283391 0.012462456 0.021901954 0.031489756 -0.00053546205
0.0009325184 0.013678689 -0.035381198 0.040259827 -0.01133075 0.036615398 -0.00055877864 0.021973524
0.022893492 -0.031678423 0.030623231 0.033858795 -0.03125769 -0.017095959 -0.038953684 0.029672388
0.012284797 0.04105537 0.03099591 0.012579113 -0.021761328 -0.03671248 0.024190936 -0.011864826
00000000: 2e1f cebc 258e 203d bef4 9a3c 465b d5bc
00000010: 70c2 25bc c241 873c 8752 27bd d038 1bbc
00000020: 5e23 adbc d90b 0c3d 1212 dc3c be1f e4bc
00000030: fc2c 4abc a25e a23c 46ac a4bc 4a72 a83c
00000040: 4ba9 1d3d 25de 083d 8e84 85bc fc92 2a3c
00000050: c15e 033d a2dd c13c a0dc deba c053 0b3c
00000060: ad30 1d3d 0643 813c 5641 f3bc cb58 223d
00000070: 56b2 f2bc a658 20bd f8cf cebc dc91 073c
00000080: 8c5d 21bc 338e 1f3d 6232 b53c da7c 06bd
00000090: 542f 4c3c ba6b b33c 67fb 003d 405e 0cba
000000a0: 4074 743a 941c 603c e0eb 10bd 7de7 243d
000000b0: 9ca4 39bc 07fa 153d 007b 12ba d201 b43c
000000c0: 228b bb3c 3cc1 01bd 92dd fa3c 85af 0a3d
000000d0: 1008 00bd d30c 8cbc e68d 1fbd 8213 f33c
000000e0: 2c46 493c ad29 283d 22eb fd3c a018 4e3c
000000f0: d044 b2bc d35f 16bd 122c c63c b064 42bc

layer5.1.weight f4 [64]
1.0 1.0 1.0 1.0 1.0 1.0 1.0 1.0
1.0 1.0 1.0 1.0 1.0 1.0 1.0 1.0
1.0 1.0 1.0 1.0 1.0 1.0 1.0 1.0
1.0 1.0 1.0 1.0 1.0 1.0 1.0 1.0
1.0 1.0 1.0 1.0 1.0 1.0 1.0 1.0
1.0 1.0 1.0 1.0 1.0 1.0 1.0 1.0
1.0 1.0 1.0 1.0 1.0 1.0 1.0 1.0
1.0 1.0 1.0 1.0 1.0 1.0 1.0 1.0
00000000: 0000 803f 0000 803f 0000 803f 0000 803f
00000010: 0000 803f 0000 803f 0000 803f 0000 803f
00000020: 0000 803f 0000 803f 0000 803f 0000 803f
00000030: 0000 803f 0000 803f 0000 803f 0000 803f
00000040: 0000 803f 0000 803f 0000 803f 0000 803f
00000050: 0000 803f 0000 803f 0000 803f 0000 803f
00000060: 0000 803f 0000 803f 0000 803f 0000 803f
00000070: 0000 803f 0000 803f 0000 803f 0000 803f
00000080: 0000 803f 0000 803f 0000 803f 0000 803f
00000090: 0000 803f 0000 803f 0000 803f 0000 803f
000000a0: 0000 803f 0000 803f 0000 803f 0000 803f
000000b0: 0000 803f 0000 803f 0000 803f 0000 803f
000000c0: 0000 803f 0000 803f 0000 803f 0000 803f
000000d0: 0000 803f 0000 803f 0000 803f 0000 803f
000000e0: 0000 803f 0000 803f 0000 803f 0000 803f
000000f0: 0000 803f 0000 803f 0000 803f 0000 803f

layer5.1.bias f4 [64]
0.0 0.0 0.0 0.0 0.0 0.0 0.0 0.0
0.0 0.0 0.0 0.0 0.0 0.0 0.0 0.0
0.0 0.0 0.0 0.0 0.0 0.0 0.0 0.0
0.0 0.0 0.0 0.0 0.0 0.0 0.0 0.0
0.0 0.0 0.0 0.0 0.0 0.0 0.0 0.0
0.0 0.0 0.0 0.0 0.0 0.0 0.0 0.0
0.0 0.0 0.0 0.0 0.0 0.0 0.0 0.0
0.0 0.0 0.0 0.0 0.0 0.0 0.0 0.0
00000000: 0000 0000 0000 0000 0000 0000 0000 0000
00000010: 0000 0000 0000 0000 0000 0000 0000 0000
00000020: 0000 0000 0000 0000 0000 0000 0000 0000
00000030: 0000 0000 0000 0000 0000 0000 0000 0000
00000040: 0000 0000 0000 0000 0000 0000 0000 0000
00000050: 0000 0000 0000 0000 0000 0000 0000 0000
00000060: 0000 0000 0000 0000 0000 0000 0000 0000
00000070: 0000 0000 0000 0000 0000 0000 0000 0000
00000080: 0000 0000 0000 0000 0000 0000 0000 0000
00000090: 0000 0000 0000 0000 0000 0000 0000 0000
000000a0: 0000 0000 0000 0000 0000 0000 0000 0000
000000b0: 0000 0000 0000 0000 0000 0000 0000 0000
000000c0: 0000 0000 0000 0000 0000 0000 0000 0000
000000d0: 0000 0000 0000 0000 0000 0000 0000 0000
000000e0: 0000 0000 0000 0000 0000 0000 0000 0000
000000f0: 0000 0000 0000 0000 0000 0000 0000 0000

layer5.1.running_mean f4 [64]
0.0 0.0 0.0 0.0 0.0 0.0 0.0 0.0
0.0 0.0 0.0 0.0 0.0 0.0 0.0 0.0
0.0 0.0 0.0 0.0 0.0 0.0 0.0 0.0
0.0 0.0 0.0 0.0 0.0 0.0 0.0 0.0
0.0 0.0 0.0 0.0 0.0 0.0 0.0 0.0
0.0 0.0 0.0 0.0 0.0 0.0 0.0 0.0
0.0 0.0 0.0 0.0 0.0 0.0 0.0 0.0
0.0 0.0 0.0 0.0 0.0 0.0 0.0 0.0
00000000: 0000 0000 0000 0000 0000 0000 0000 0000
00000010: 0000 0000 0000 0000 0000 0000 0000 0000
00000020: 0000 0000 0000 0000 0000 0000 0000 0000
00000030: 0000 0000 0000 0000 0000 0000 0000 0000
00000040: 0000 0000 0000 0000 0000 0000 0000 0000
00000050: 0000 0000 0000 0000 0000 0000 0000 0000
00000060: 0000 0000 0000 0000 0000 0000 0000 0000
00000070: 0000 0000 0000 0000 0000 0000 0000 0000
00000080: 0000 0000 0000 0000 0000 0000 0000 0000
00000090: 0000 0000 0000 0000 0000 0000 0000 0000
000000a0: 0000 0000 0000 0000 0000 0000 0000 0000
000000b0: 0000 0000 0000 0000 0000 0000 0000 0000
000000c0: 0000 0000 0000 0000 0000 0000 0000 0000
000000d0: 0000 0000 0000 0000 0000 0000 0000 0000
000000e0: 0000 0000 0000 0000 0000 0000 0000 0000
000000f0: 0000 0000 0000 0000 0000 0000 0000 0000

layer5.1.running_var f4 [64]
1.0 1.0 1.0 1.0 1.0 1.0 1.0 1.0
1.0 1.0 1.0 1.0 1.0 1.0 1.0 1.0
1.0 1.0 1.0 1.0 1.0 1.0 1.0 1.0
1.0 1.0 1.0 1.0 1.0 1.0 1.0 1.0
1.0 1.0 1.0 1.0 1.0 1.0 1.0 1.0
1.0 1.0 1.0 1.0 1.0 1.0 1.0 1.0
1.0 1.0 1.0 1.0 1.0 1.0 1.0 1.0
1.0 1.0 1.0 1.0 1.0 1.0 1.0 1.0
00000000: 0000 803f 0000 803f 0000 803f 0000 803f
00000010: 0000 803f 0000 803f 0000 803f 0000 803f
00000020: 0000 803f 0000 803f 0000 803f 0000 803f
00000030: 0000 803f 0000 803f 0000 803f 0000 803f
00000040: 0000 803f 0000 803f 0000 803f 0000 803f
00000050: 0000 803f 0000 803f 0000 803f 0000 803f
00000060: 0000 803f 0000 803f 0000 803f 0000 803f
00000070: 0000 803f 0000 803f 0000 803f 0000 803f
00000080: 0000 803f 0000 803f 0000 803f 0000 803f
00000090: 0000 803f 0000 803f 0000 803f 0000 803f
000000a0: 0000 803f 0000 803f 0000 803f 0000 803f
000000b0: 0000 803f 0000 803f 0000 803f 0000 803f
000000c0: 0000 803f 0000 803f 0000 803f 0000 803f
000000d0: 0000 803f 0000 803f 0000 803f 0000 803f
000000e0: 0000 803f 0000 803f 0000 803f 0000 803f
000000f0: 0000 803f 0000 803f 0000 803f 0000 803f

fc.weight f4 [1, 9216]
0.010191055 0.0059159123 0.0007845509 0.008646471 0.0019060649 -0.0068371613 -0.0041920966 -0.0027906485
-0.0032806916 0.007862804 0.0005640336 -0.004878171 -0.002846826 -0.0040085283 0.0018082594 -0.005527904
-0.007116908 -0.011865777 0.0022926617 0.0054576728 -0.004154589 0.005785503 0.0010444099 -0.0016588632
-0.009662696 -0.0081614135 0.0029974221 -0.013543125 0.0045056012 0.0027529073 -0.0055945273 -0.014061212
-0.0074087935 -0.011820033 0.0007594145 0.0058839708 -0.012294576 0.0026283844 -0.005205223 -0.002820658
0.008842724 -0.009644922 -0.0071301768 -0.009203518 -0.007529122 -0.001138282 -0.0040982114 -0.00012877994
0.0064524426 -0.006513838 -0.0024023138 0.008904079 -0.0015402646 -0.0067000333 -0.0030512735 -0.0052579837
0.004207884 0.00605561 -0.002677956 -0.00044563026 -0.008318028 -0.00824156 0.0027111757 0.013308018
0.005350097 -0.0037743296 -0.00084658334 0.0020124272 0.0012928303 0.00282849 -0.00034429543 -0.0055706664
-0.0074533885 9.884629e-05 -0.0060659535 0.006716571 0.004213028 -0.0008405439 0.0063690436 0.005894734
4.8583715e-05 -0.0035325969 -0.013801634 -0.004185284 0.007089436 -0.009239427 -0.0050850166 -8.605038e-05
-0.00013520078 -0.00129295 0.0070283315 -0.00020509378 -0.012165989 0.0034892557 0.0059460155 -0.003881628
-0.008980115 0.0024454822 -0.011535737 -0.0045828777 -0.003693417 0.0067722066 -0.010349511 0.0025745472
0.0016747442 -0.0033063453 -0.013920811 -0.0036751952 0.00789166 -0.012009412 0.0015109103 -0.0033187035
-0.0061774976 0.0010714809 -0.0071735852 -0.014275153 0.0031046597 0.0020558885 -0.008457129 -0.008674669
0.0075702914 -0.006215962 -0.0034644073 -0.0024962684 0.0035057734 0.0026514716 -0.004977913 0.002857496
-0.0051867147 -1.7904484e-05 -0.0062482175 -0.0066099763 -0.0061173714 -0.011003888 0.0062118173 -0.005288611
0.0029320095 -0.0026902498 -0.0019958639 -0.010099756 -0.012778551 -0.0036319748 -0.011503585 -0.0016799611
-0.0095524695 -0.0070170113 0.008869683 -0.003986974 -0.0015524045 -0.00217242 -0.0034207639 0.0031493423
0.0035331664 -0.009176555 -0.007601731 -0.006873356 0.0021721397 0.0055848625 -0.001099006 -0.0028321294
0.0060350955 0.0081923455 0.00423325 0.0027385107 0.0024181746 0.0075404127 -0.002046986 0.0008718643
-0.0063969255 -5.23064e-05 0.0071181967 0.0012056221 0.0013936281 0.00053302443 0.0084101055 0.011272609
-0.0050543994 0.008988106 0.0026160097 -0.003367525 0.00897675 0.0001844959 -0.009098251 -0.0013615505
0.009256234 0.010101204 0.0010661739 -0.0021025972 -0.009763031 -0.00021618871 -0.0023261101 -0.0055567203
-0.0057811313 0.011147032 0.005881018 0.0038643938 -0.000713992 0.003996509 0.0077576838 -0.005274097
-0.011829171 0.0068801646 0.00604097 0.00930002 0.004635058 -0.0022273255 -0.0005462077 0.014710494
0.016214328 0.009144336 0.00734151 -0.004394698 -0.0111268265 -0.003462663 -0.009217385 0.0033485254
0.009158404 0.012704373 -0.007105811 0.013335498 0.017635355 0.0012968687 0.0047896206 -0.0055398745
-0.0014596004 0.0017380965 -0.005855698 -0.0063196556 -0.00091385515 -0.00087701663 0.005189085 -0.0006322801
-0.0036314372 0.008478065 0.012561254 0.005180416 -0.0020599891 0.00080084323 -0.0036883822 0.009596122
0.0026203485 -0.0032138713 0.005292886 0.007361199 0.013784399 0.0035999827 0.005393719 -0.002527483
-0.009904824 -0.0019196762 -0.0034077794 -0.006343389 -0.007094536 0.012232654 0.0011913081 0.010685734
00000000: 62f8 263c 45da c13b 52aa 4d3a eea9 0d3c
00000010: edd4 f93a 440a e0bb db5d 89bb 50e3 36bb
00000020: df00 57bb fed2 003c a7db 133a 10d9 9fbb
00000030: d191 3abb f959 83bb 1e03 ed3a 6b23 b5bb
00000040: f434 e9bb ad68 42bc 7b40 163b 47d6 b23b
00000050: 3823 88bb 5194 bd3b 95e4 883a 366e d9ba
00000060: 4950 1ebc 73b7 05bc 6670 443b fce3 5dbc
00000070: b9a3 933b 1f6a 343b 4c52 b7bb ff60 66bc
00000080: 77c5 f2bb d0a8 41bc 7213 473a 53ce c03b
00000090: 306f 49bc f940 2c3b 9390 aabb cada 38bb
000000a0: 13e1 103c bc05 1ebc 42a4 e9bb 5aca 16bc
000000b0: dab6 f6bb 6832 95ba 4a4a 86bb 1a09 07b9
000000c0: 036f d33b 0972 d5bb 2370 1dbb 6ae2 113c
000000d0: b4e2 c9ba f48b dbbb e0f7 47bb 2a4b acbb
000000e0: 4ae2 893b 236e c63b a580 2fbb 7ba3 e9b9
000000f0: 5748 08bc 9c07 07bc fbad 313b e009 5a3c
00000100: de4f af3b be5a 77bb 3fed 5dba ede2 033b
00000110: 3074 a93a 305e 393b 8d82 b4b9 238a b6bb
00000120: 8e3b f4bb b34b cf38 e8c4 c6bb ae16 dc3b
00000130: 710d 8a3b f257 5cba 69b3 d03b 9d28 c13b
00000140: 5ec6 4b38 2483 67bb 4020 62bc b524 89bb
00000150: 804e e83b f760 17bc 36a0 a6bb f275 b4b8
00000160: afc4 0db9 3478 a9ba eb4d e63b 710e 57b9
00000170: db53 47bc ffab 643b cbd6 c23b e962 7ebb
00000180: 5521 13bc 6244 203b 6300 3dbc f72b 96bb
00000190: 410d 72bb 63e9 dd3b ff90 29bc bcb9 283b
000001a0: 1783 db3a 45af 58bb 1d14 64bc 8bdb 70bb
000001b0: 054c 013c 20c3 44bc bd09 c63a 9b7e 59bb
000001c0: 9b6c cabb ef70 8c3a 6510 ebbb 55e2 69bc
000001d0: 8c77 4b3b 16bc 063b c58f 0abc 3320 0ebc
000001e0: 3510 f83b 45af cbbb 1c0b 63bb 6f98 23bb
000001f0: 1ec1 653b 50c4 2d3b c31d a3bb d444 3b3b
00000200: 51f5 a9bb 9631 96b7 d9bd ccbb 8098 d8bb
00000210: 3b74 c8bb a749 34bc 808c cb3b 164c adbb
00000220: f526 403b e74e 30bb 0acd 02bb 7279 25bc
00000230: 215d 51bc 6d06 6ebb 8879 3cbc 2432 dcba
00000240: f681 1cbc f5ee e5bb 2652 113c 29a5 82bb
00000250: 0d7a cbba 295f 0ebb e52e 60bb 3265 4e3b
00000260: b28c 673b 4359 16bc f117 f9bb e439 e1bb
00000270: 755a 0e3b 3901 b73b 860c 90ba 3f9b 39bb
00000280: 0dc2 c53b 3039 063c 13b7 8a3b 9678 333b
00000290: 3d7a 1e3b 9115 f73b ba26 06bb d38d 643a
000002a0: 4d9d d1bb 9263 5bb8 c33f e93b f705 9e3a
000002b0: 66aa b63a aaba 0b3a 8aca 093c c0b0 383c
000002c0: 609f a5bb d942 133c 5c71 2b3b b2b1 5cbb
000002d0: 3813 133c 3e75 4139 d510 15bc 0e76 b2ba
000002e0: 76a7 173c 857f 253c dcbe 8b3a bacb 09bb
000002f0: 1ff5 1fbc b7b0 62b9 a771 18bb 2615 b6bb
00000300: a56f bdbb 0aa2 363c 8eb5 c03b c541 7d3b
00000310: 312b 3bba 26f5 823b 2b34 fe3b 55d2 acbb
00000320: 24cf 41bc 0173 e13b 54f3 c53b 1c5f 183c
00000330: afe1 973b 52f8 11bb 612f 0fba 4904 713c
00000340: e9d3 843c 20d2 153c 0d91 f03b 6601 90bb
00000350: 4b4d 36bc d8ed 62bb 8404 17bc ef72 5b3b
00000360: 210d 163c 0126 503c ddd7 e8bb 227d 5a3c
00000370: 0578 903c b1fb a93a 40f2 9c3b d687 b5bb
00000380: 1050 bfba d7d0 e33a 28e1 bfbb 1d15 cfbb
00000390: c88f 6fba 97e7 65ba 3309 aa3b 99bf 25ba
000003a0: 68fd 6dbb 95e7 0a3c b8cd 4d3c 7bc0 a93b
000003b0: e200 07bb aeef 513a c9b8 71bb 0e39 1d3c
000003c0: 27ba 2b3b d09f 52bb f26f ad3b 3636 f13b
000003d0: f6d7 613c b0ed 6b3b cbbd b03b 21a4 25bb
000003e0: d847 22bc a59d fbba 0d55 5fbb 34dc cfbb
000003f0: 4879 e8bb 786b 483c ab25 9c3a 3813 2f3c
