data/chkbox_models/chkbox_rnd11_1_bestVal.pt (torch_old, 35085 bytes, 25 tensors)

layer1.0.weight f4 [4, 1, 3, 3]
00000000: 4a3f 5abe 31ed 783d 3310 aebe 69c4 98be
00000010: 5003 8bbd b332 92be 92e4 6f3e 1c0a de3d
00000020: 525a a7be a8a8 f8bd aaa9 98be b30a 0dbd
00000030: 2572 1fbe 78e8 d2bd bb30 623e 4cd6 583b
00000040: f0ce 5f3d 9073 65be 13ac 33be 435f ca3e
00000050: 414c 72bd 6e11 263e 5f24 503e 01c7 a33e
00000060: 95c2 603c 35e0 903d 5949 b63d f7ec b9be
00000070: 4a9b da3d 609e 8d3c 80cc 50be d0a1 a93d
00000080: e962 91be efbb 75be 0c14 a7bd 859e 09be
-0.21313205 0.06077308 -0.33996734 -0.2983735 -0.06787741 -0.28554305 0.23427036 0.10841772
-0.32686096 -0.121415436 -0.29816943 -0.03443403 -0.15570886 -0.10298246 0.22088902 0.0033086715
0.05464071 -0.22407365 -0.1754611 0.39525804 -0.059154753 0.16217586 0.20326374 0.31987765
0.013718267 0.07074014 0.08900709 -0.36313602 0.1067415 0.017287433 -0.2039051 0.082828164
-0.28395775 -0.23997472 -0.081581205 -0.13439377

layer1.0.bias f4 [4]
00000000: d4d5 a83d 7b59 a9be cd1b de3d 8dc0 063d
0.082439095 -0.3307608 0.10845146 0.032898474

layer1.1.weight f4 [4]
00000000: f5de 753f 5b96 653f 1e30 9c3f 3c62 633f
0.9604333 0.8968255 1.2202184 0.8882177

layer1.1.bias f4 [4]
00000000: ccf3 bf3b 5298 ac3d 3fbb 053d e3ab ecbc
0.0058579203 0.0842749 0.032649275 -0.028890556

layer1.1.running_mean f4 [4]
00000000: a3f5 36bf 6d96 4bbf f654 553f fe04 3ebf
-0.7146856 -0.79526407 0.83332765 -0.7422637

layer1.1.running_var f4 [4]
00000000: 9191 6a3f a4e6 9f3e ae6b 423f d8a5 533f
0.91628367 0.31230652 0.75945556 0.8267493

layer2.0.weight f4 [8, 4, 3, 3]
00000000: 0003 2bbc 161a 0cbe 465a 023d 440f dc3c
00000010: d966 5c3d 4b49 fb3d 7156 94bd 1341 d93d
00000020: d86f 15bd aaae 05be eaa0 f8bc 6d83 39bd
00000030: 7fac c03d 6351 5bbd b6b6 d43d b3c7 023d
00000040: 520b a4bd 8b34 e4bd 88bf 123e f81d 17be
00000050: 3cec d63d a686 18be 4c50 bb3d dfb0 e2bd
00000060: 09b8 17be 2b39 b5bd b810 8f3c 511b a33d
00000070: ce1c bfbd a757 b9bb d669 41bd 9f56 173c
00000080: 44c6 d53d f9ea 173e 389b 413e 53b1 953d
00000090: 92fe 023e 87b1 f0bd 5481 183e 3889 16bd
000000a0: d63e 91bd 22be f03c 5b61 023e d213 823d
000000b0: e7e9 7dbd 4767 57bb 9807 ebbd 8302 cd3d
000000c0: 9a76 1ebb d7ba bb3d c739 43bd 9f98 89bd
000000d0: 484c e93d f443 23bd 789a 11bd 08ad 8c3d
000000e0: dca9 213e c5b2 d13d c71a fa3d 0a9a 373e
000000f0: 920c 313e 96a6 383c 39f6 c33d 45fe 18be
00000100: 5e53 553d d5d3 61bc 1be5 9fbd 5bfe 97bd
00000110: 6098 bb3d dbd1 093e fe77 29bd 398f c13c
00000120: f51d 64bd fd39 da3d 1ec9 95bd 8f5e d03d
00000130: 3313 db39 e95b 703d 4fb3 953d fefc c13d
00000140: 94c8 34bd 0681 92bc f669 613d 2a15 11bd
00000150: 8df6 0ebc f8bf 1cbe 49ee 483d eb74 9b3a
00000160: fdd3 0f3d 8cd2 a03d 3a34 d63c f86b 133e
00000170: 76f6 333e eef2 d5bd 474f 31be 9237 d43d
00000180: 2a34 dbbd b9d8 4ebe 6647 b13d d581 cabd
00000190: 0736 b8bd 6a0b f5bd be7d 1abe 2452 2abd
000001a0: d0d3 7cbd 7835 fa3d 4752 e3bd 84a0 23bd
000001b0: 828c d4bd 4c21 183e 657f fe3d 419d c9bd
000001c0: 3c13 e53c 5d05 493d a380 cb3c 73eb 2f3d
000001d0: cc46 063d 3429 943d 5b15 07be 9c35 c3bd
000001e0: e1d2 dfbc 3559 863d e1c8 10be dd88 02bd
000001f0: 2ada 9a3d 245e bbbd f6ed dabd 9aca 1e3e
00000200: 03e0 343e 2f88 4b3e 207a c23d 39d7 cbbd
00000210: 2582 0b3c 761c 8c3d a0cc 1bbc 93e3 d43d
00000220: 17d6 48ba 5807 47bd 8a73 0cbe fb13 1bbe
00000230: 764f a43d 9749 d73d 211e 00be 46a4 623d
00000240: 7989 d33c a3ec c2bc 16ff e13d 9dc7 03be
00000250: 6354 0a3d cf59 fa3d 5908 483d b7e0 103e
00000260: 98b6 0bbe c12f 94bd e798 533c 8be0 a93d
00000270: 7e2a 9c3d 7933 f0bd 9323 803c 0954 9cbd
00000280: 8c27 1cbd 67f7 a43d b0f7 4e3e 7a29 3a3c
00000290: 0f55 51bd cd88 ac3d d5d0 f3bc cb95 46bd
000002a0: 835b 0dbe 6589 273d 6365 303e 3bf9 f33c
000002b0: 0e25 e23c ae7d 92bb e81d 1abe 7a4c 9abd
000002c0: 5c86 06be 49e4 febb 6844 633d b3c7 e83d
000002d0: 11e3 01be a131 0b3e 6388 853c fd66 a63d
000002e0: 8b2b 6bbc b638 c33d a964 54bd ebe8 363e
000002f0: faea 20bd 36c2 e1bd 98c8 83ba 1c99 d3bd
00000300: 2bed 96bd 3665 febd 52bf 013c 15a0 f4bc
00000310: 0fb1 fdbd 72e6 c3bd 489e 8bbd 7781 623c
00000320: f82c 51be c59d b33c 4afd ecbd 1ebe 63bd
00000330: f2d4 98bd df1d ae3b d799 01be d391 22be
00000340: 91e4 b0bd c465 1b3e c23f aa3d 8e4a 82bd
00000350: 2cbd 80bd f8ee e43d 283a 14be 34aa 9bbd
00000360: 5287 10be 9ee7 7c3d f14c 12be f253 3f3d
00000370: ac76 acbd cc86 cd3d 1be7 403d 7514 cfbd
00000380: 0254 b13d fe02 7abd ec01 af3c 047d 913d
00000390: d7d2 013e 972e bc3c 487c 713d b36c 463d
000003a0: ccc2 aebd 9116 e83d cfea 1d3e 071f cb3d
000003b0: b52a 183d 1a73 433c f0e1 1fbe 6d82 17be
000003c0: 8f62 4e3d 498a 4bbd 6b81 403c 3e56 863d
000003d0: 6e14 263d efcf 053e b279 f5bc c9e1 bbbd
000003e0: 8183 d73c 1a76 f3bd c730 e7bd 9433 ec3d
000003f0: 909b 7c3c 3f25 3bbd 6520 debc ed1a 353e
-0.010437727 -0.13681826 0.031824373 0.026862748 0.05380902 0.12269839 -0.0724305 0.10608115
-0.036483616 -0.1305491 -0.030350167 -0.045291353 0.09407901 -0.053544413 0.10386412 0.03192873
-0.08009972 -0.11142834 0.14330876 -0.14757526 0.10494277 -0.14895114 0.09146175 -0.11068892
-0.14816298 -0.088487945 0.017464027 0.079641946 -0.09331666 -0.005656201 -0.047220074 0.009236961
0.10438207 0.14835729 0.18906868 0.073092125 0.12792423 -0.11752611 0.14893085 -0.036751956
-0.07092063 0.029387537 0.1273245 0.06351437 -0.061990645 -0.0032867955 -0.11476058 0.10010245
-0.0024179579 0.09166496 -0.047662523 -0.06718563 0.113915026 -0.039859727 -0.035547704 0.068689406
0.15787452 0.10239176 0.122121386 0.17929855 0.17289951 0.011270186 0.095684476 -0.14940746
0.05208146 -0.013783415 -0.0780737 -0.07421561 0.091599226 0.1345896 -0.0413742 0.023627864
-0.05569263 0.10655592 -0.07313751 0.101742856 0.0004178524 0.058681402 0.07309591 0.094720826
-0.0441366 -0.017883789 0.055032693 -0.035420574 -0.0087257745 -0.15307605 0.04905537 0.0011860406
0.035114277 0.07852659 0.02614795 0.14396656 0.17574486 -0.10446726 -0.17315398 0.10362162
-0.10703309 -0.2019986 0.08656196 -0.09888045 -0.0899468 -0.11965068 -0.1508703 -0.04158224
-0.061725438 0.122172296 -0.110996775 -0.039948 -0.10378362 0.14856452 0.12426642 -0.09844447
0.027963273 0.04907738 0.024841612 0.04294915 0.03278236 0.07234421 -0.1319174 -0.095317096
-0.027322235 0.06559984 -0.14139129 -0.031868804 0.07561143 -0.09148815 -0.10689919 0.15506974
0.17663579 0.19876169 0.0949595 -0.0995316 0.008514916 0.06841366 -0.009509236 0.10394969
-0.00076612964 -0.048590988 -0.1371595 -0.1514434 0.080229685 0.10512083 -0.12511493 0.055332445
0.025822388 -0.023794478 0.11034982 -0.12869115 0.033771884 0.12224161 0.048836086 0.14148222
-0.13643873 -0.07235671 0.012914873 0.08294781 0.07625292 -0.11728568 0.015641963 -0.07633216
-0.038123652 0.08055001 0.20211673 0.011362428 -0.05110651 0.0842453 -0.029762665 -0.048482697
-0.1380444 0.040902514 0.17226176 0.029781928 0.02760556 -0.0044705486 -0.15050471 -0.07534118
-0.13137192 -0.0077786786 0.05548516 0.113662146 -0.12684275 0.1359315 0.016300386 0.08125112
-0.014353643 0.09532301 -0.05185381 0.17862289 -0.03928659 -0.11023371 -0.0010054288 -0.10331938
-0.07369455 -0.12421648 0.0079191495 -0.02986149 -0.12387287 -0.09565438 -0.06817299 0.013824812
-0.2042731 0.021925816 -0.115717486 -0.05560123 -0.07462491 0.0053136195 -0.12656341 -0.1587594
-0.086373456 0.1517554 0.08312942 -0.063618764 -0.06286082 0.11178392 -0.1447531 -0.07600823
-0.1411412 0.061744325 -0.14287163 0.046710916 -0.08421072 0.10035476 0.0470954 -0.10111324
0.08658601 -0.06103801 0.021363221 0.07103923 0.12678085 0.022971435 0.058956414 0.048443507
-0.08533248 0.11332429 0.15421604 0.09918027 0.037150104 0.011929298 -0.15613532 -0.14795847
0.05038696 -0.049692426 0.011749606 0.06559418 0.040546827 0.13067602 -0.029965255 -0.091739245
0.026307823 -0.118877605 -0.112886004 0.11533275 0.015417948 -0.045689818 -0.027115056 0.17686053

layer2.0.bias f4 [8]
00000000: 6e45 a43c a227 2aba b47d 923b 3e76 26bd
00000010: 8964 b53d 0c27 f23d 386d 2cbe 6d79 78bd
0.020052638 -0.0006490891 0.0044705514 -0.04064011 0.08857066 0.11823854 -0.16838539 -0.060662676

layer2.1.weight f4 [8]
00000000: 3884 733f 307d 853f f428 883f 14f8 863f
00000010: 4667 7f3f e66e 793f 2316 783f e0e9 713f
0.95123625 1.0428829 1.0637498 1.0544457 0.9976696 0.9743484 0.9690878 0.9449749

layer2.1.bias f4 [8]
00000000: 8845 3dbc 6f0a 0d3d 19dd e93c d6ef 4c3d
00000010: 0e80 2abc 198f 883c bd6a 50bc 00e6 a4bc
-0.011552222 0.03443378 0.02854781 0.050033413 -0.010406507 0.016669797 -0.012720761 -0.020129204

layer2.1.running_mean f4 [8]
00000000: 8ca9 5ebd 8efe 223f 6373 10be e5c1 443e
00000010: 1435 7f3e 9dc0 09bf 2050 99bd 45e3 8a3b
-0.05436091 0.6366967 -0.14106517 0.1921459 0.24922591 -0.5380953 -0.07485986 0.0042385184

layer2.1.running_var f4 [8]
00000000: e947 173e 04b2 e93e 9344 ee3d c6c6 6b3e
00000010: febd 7b3d 58aa 2c3e 11be 803d 0269 9e3e
0.14773525 0.45643628 0.11634173 0.23025045 0.061460488 0.16861856 0.06286252 0.3093949

layer3.0.weight f4 [16, 8, 3, 3]
00000000: 1e6b 5abd fcc0 733b ac45 a6bd b49a a73d
00000010: 9fb0 953c fbd9 bb3d 5fa1 1f3d 821f b43c
00000020: ff6f c73b 3752 c33c 599d 92bd 0c72 0abd
00000030: 620d 033d d4b3 4f3d 880d e1bc b494 e93c
00000040: afa1 76bd 3b86 0b3d a8ae 9b3d d9f8 51bc
00000050: 0b42 4abb f691 42bc 9af1 f03c 7103 4fbd
00000060: 6481 0bbe e7e7 92bc a14c c73d 678d d3bc
00000070: e8d5 b83d 08c0 0c3d 818f ae3d d5ba 393d
00000080: 5f56 69bc 6f50 133d d403 2039 8510 a03d
00000090: f054 633d fa98 673d 1732 a1bc 716b aebd
000000a0: 1d77 803d 08a6 823d 617b 1dbd dffc bbbd
000000b0: 2fbe 31bc 2d68 a73b 0972 383d 15f1 023e
000000c0: 9f2a 9e3d a286 59bc 3927 d23b fd4c c03a
000000d0: fc65 0fbd 428e 58bc 2c1c d1bc edc2 56bc
000000e0: ad8e 9b3d 6d62 b6bc 0da9 2bbd fec5 16bc
000000f0: 9a2e a53b d279 64bd 3c32 debd f2d1 183d
00000100: ec4e ae3d 3f9a 1ebd 38c1 9cbd db50 f6bc
00000110: 0753 b43d 0ae5 b23d 8c81 b93d 6f8b 003d
00000120: 8ec4 023e 170a 34bd ba4e abbb 277f 96bd
00000130: 2b55 323c ef51 c33d 5fb4 2cbd fefb f63c
00000140: f90f 283c f665 a0bc dff4 ba3d eafe e43d
00000150: 72a9 8f3d e33c bf3d edb0 cfbd a6c2 a03d
00000160: 34d0 7ebd 6b9c 623c 399c 97bd 3341 0abd
00000170: 4585 37bc 9cd2 42bd 7c7b 7ebd 4038 923d
00000180: 1f71 aabc f984 e73c 2820 b7bd 5bca 2bbd
00000190: 2cff 65bd ce48 e13d 85d7 f7bd 014b 28bb
000001a0: 7480 d4bc cf7c 03bd 2f08 b13d bb95 b8bd
000001b0: 9a3b 9d3d bdf3 9bbd 0eb3 143d 6a22 293d
000001c0: 1d16 eb3b f0f1 73bd 0252 6abd 739c c33d
000001d0: bab2 fabc 457a cf3d 0037 ad3c dcf5 b3bd
000001e0: d918 71bd 141b 31bd 74b8 0ebd d208 a4bd
000001f0: c2ff b03d 70f6 d63d 894a 4e3c 422f adbc
00000200: 4def c03c a31f a1bd c5d9 03bc 2410 98bd
00000210: ad1c cd3c 745a dabc 592a 683c 2e38 803d
00000220: fad7 dc3b af07 52bd eefc 82bd 8a47 423d
00000230: 2e72 f8bc bb52 1dbd a67d 2ebd 72ce 403c
00000240: 7459 8d3d 49b1 a33d 0ffc 013d ca14 af3d
00000250: c77d a9bd 2e04 58bd 7e73 183d 0c3e b03d
00000260: 3fa2 81bd 0563 cb3d 432b b23d 80a3 d23d
00000270: ad05 8bbc 33ae 843c d188 823d f2ef 5a3d
00000280: a705 ab3b 9321 82bd 7d60 c3bd d7e4 c8bd
00000290: 59de 9bbc 36d0 cd3d d82a 96bd a48d 6dbb
000002a0: ef28 d5bc abd7 6fbd 4c6d 463d bc2b cebd
000002b0: de65 373d 7094 f73c 57c2 c33c 0946 bfbd
000002c0: 5681 b03d 5f15 7f3c a87e d93b e691 d3bd
000002d0: 37a6 343c 05a3 1b3e b802 b9ba 4493 d13d
000002e0: 8e0f 5f3d 8a98 873b 9a46 52bd 031f 94bd
000002f0: c08d b83d eec8 b13d 776e 053e 4dbf d83c
00000300: d8e0 ab3d e928 893d d0ee 87bd 3fa8 2c3d
00000310: 4a5e b4bd 2197 733c 7328 9f3d 945a a3bd
00000320: aea3 c1bd 073a b4bd 6067 eebd 1640 a33c
00000330: c638 163c 3eb4 52bc b2c5 853d 6350 92bd
00000340: ab2a fb3d 1747 593d 07ec e4bd 8f33 22bd
00000350: fb67 dfbd 45b2 92bd 664e 503d c7f1 8d3d
00000360: 43d8 52bc 9c0c 983d 7012 31bd 722b d8bc
00000370: 68fe 693d c3a7 08bd 8e49 ae3c 6b26 0d3d
00000380: 8089 2b3d f688 40bd 593e 6abb 13e6 17be
00000390: dd04 c2bd 7f47 bd3d 3d0d acbd 90e0 07bd
000003a0: 4917 8f3d a725 85bd 3b88 c13d 0180 5dbd
000003b0: 3265 6c3c b259 9f3d 3381 28bd 1f5e 8d3c
000003c0: d027 023e b440 74bc 4daf 40bd 5775 eb3a
000003d0: 6e1b 013d 8633 81bd 0a63 1d3d 1908 f13d
000003e0: d807 fdbd b995 743c d075 b9bc db28 74bd
000003f0: 63ab e9bd 3578 a13d f0a3 4f3d 3d18 cabd
-0.05332481 0.0037193885 -0.081187576 0.08183804 0.018272696 0.09172436 0.038972255 0.02198768
0.006086349 0.023842914 -0.07158918 -0.03380017 0.031995185 0.050708607 -0.027472273 0.02851329
-0.060212787 0.03406356 0.076016724 -0.012815678 -0.0030862119 -0.01187562 0.02941208 -0.05054039
-0.13623577 -0.017932845 0.09731413 -0.025824262 0.090251744 0.034362823 0.08523465 0.045344193
-0.014241784 0.03596538 0.00015260215 0.07815651 0.055500925 0.056542374 -0.019677205 -0.085165866
0.06272719 0.06379324 -0.03844774 -0.09179091 -0.010848566 0.0051088543 0.045030627 0.12787278
0.07722973 -0.013276728 0.006413367 0.0014671382 -0.03500937 -0.013217511 -0.025526129 -0.013107997
0.075955726 -0.02226373 -0.041909266 -0.009202478 0.0050409557 -0.05578024 -0.10849425 0.037309594
0.08511147 -0.03872132 -0.07654041 -0.030067852 0.08804899 0.08735092 0.09057912 0.031382974
0.12770292 -0.043954935 -0.005227891 -0.07348471 0.010884563 0.09537112 -0.042164203 0.030149456
0.010257714 -0.019579869 0.09128737 0.111814335 0.07014741 0.09337785 -0.10141168 0.07849626
-0.062210277 0.013831238 -0.07402844 -0.033753585 -0.0112012075 -0.047564134 -0.062129483 0.07139635
-0.020805893 0.028261648 -0.0894168 -0.041941028 -0.056151554 0.110002145 -0.12101654 -0.0025679471
-0.025940157 -0.03210145 0.08644139 -0.09012934 0.07677384 -0.07614849 0.036303572 0.041292585
0.007174267 -0.0595569 -0.057207115 0.09551325 -0.030602802 0.10130743 0.02114439 -0.08787128
-0.058861587 -0.043238714 -0.034843877 -0.08009495 0.08642532 0.10496223 0.012591013 -0.021140698
0.023551608 -0.07867362 -0.008047526 -0.074249536 0.025038088 -0.02665446 0.014170253 0.062607154
0.0067396136 -0.05127686 -0.06395899 0.047431506 -0.030327883 -0.038408976 -0.042600296 0.01176797
0.069018275 0.07992799 0.031734522 0.08548887 -0.08275943 -0.05273836 0.037219517 0.086055845
-0.06329774 0.09930996 0.08699658 0.102850914 -0.01697048 0.016196346 0.06373752 0.053451486
0.0052191797 -0.0635406 -0.09539888 -0.09809273 -0.019026922 0.10049479 -0.073323905 -0.0036247754
-0.026020495 -0.058555286 0.048444077 -0.100669354 0.044774882 0.030222148 0.02389638 -0.0933953
0.08618419 0.01556906 0.006637413 -0.10330562 0.011025957 0.15198906 -0.001411519 0.10233167
0.054458193 0.004138057 -0.051336862 -0.072324775 0.09011412 0.086809024 0.1303042 0.026458407
0.08392495 0.06697256 -0.06637347 0.04215264 -0.08807047 0.014867575 0.07771387 -0.07976261
-0.094550475 -0.0880013 -0.11640811 0.01992802 0.009168809 -0.012860356 0.06531848 -0.07144239
0.12263998 0.053046312 -0.11177831 -0.03959995 -0.109085046 -0.071629085 0.050856017 0.06930881
-0.012868944 0.0742428 -0.043230474 -0.026387904 0.057127386 -0.033363115 0.021275308 0.034460466
0.041879177 -0.047005616 -0.0035742729 -0.1483386 -0.09473584 0.092421524 -0.084009625 -0.033173144
0.06986863 -0.06501322 0.09449812 -0.054077152 0.014428424 0.0778078 -0.04113884 0.017256794
0.127105 -0.014908005 -0.04704218 0.0017964047 0.0315203 -0.063086554 0.03842453 0.11769123
-0.12355012 0.014928275 -0.022639185 -0.059609275 -0.114096425 0.07884256 0.050693452 -0.09867904

layer3.0.bias f4 [16]
00000000: e91b b23d e920 823d a98f 923d 10d5 ebbd
00000010: 1ddd de3c 704d 3c3d a308 c13d 00d1 9bbc
00000020: d3af 343d d592 c1bd c852 ea3d 63ef 9fbc
00000030: a8dc 833d 53e5 c33d 052d 6ebd 7000 1fbc
0.0869673 0.06353933 0.07156307 -0.11515248 0.027205044 0.045972288 0.094254754 -0.019020557
0.04411299 -0.09451834 0.114415705 -0.019523328 0.06438571 0.095652245 -0.058148403 -0.009704694

layer3.1.weight f4 [16]
00000000: f03d 723f fe50 7b3f 06e2 733f 2d06 7b3f
00000010: 34b9 873f 5ecf 7b3f 2cb7 7f3f 463c 6f3f
00000020: 3a39 663f 5538 813f 3876 753f 6c16 763f
00000030: 63a3 873f 7f7a 833f 8c83 783f a5f1 7a3f
0.9462576 0.9817046 0.9526676 0.980563 1.0603395 0.9836329 0.99888873 0.93451345
0.8993107 1.0095316 0.9588351 0.96127963 1.0596737 1.0271758 0.97075725 0.9802497

layer3.1.bias f4 [16]
00000000: a2a8 e8bd 1a61 55be cf16 14be 4fde 2fbe
00000010: ddae 86be 8341 17be d596 37bd 4b0a 22be
00000020: a1b9 1fbe 9433 f3bd a45a 22be 22e2 c8bd
00000030: 0a17 80be ca14 44be e47d dabd 3de0 36be
-0.11360289 -0.20837823 -0.14461826 -0.17174648 -0.26305285 -0.14771084 -0.04482158 -0.15824239
-0.15598156 -0.11875072 -0.15854889 -0.098087564 -0.25017577 -0.19148555 -0.10668543 -0.17858978

layer3.1.running_mean f4 [16]
00000000: 47c8 d73e 221e 8cbd e25d 9e3e 6c61 aabe
00000010: 8a72 983d 5248 bfbe aaa6 1cbf 5b85 613c
00000020: 7aac e33e ab35 f5be cbb5 10be d8b8 b13e
00000030: 199a 3dbc 6082 4e3d 903d 0abe 2373 93bd
0.42144987 -0.06841685 0.30931002 -0.33277452 0.074437216 -0.37359864 -0.6119181 0.013764705
0.44467527 -0.47892508 -0.14131849 0.34711337 -0.011572384 0.050417304 -0.13500047 -0.07199695

layer3.1.running_var f4 [16]
00000000: 91b9 7f3d 4a95 8b3d 2ff8 113e ce83 433e
00000010: 1983 f63d b247 943e bbfb 7c3e bb3a 3c3e
00000020: d81d f33e d192 5b3e 638e 183e 15f8 843e
00000030: dcc1 b13d 00ff db3d ad38 983e edd3 a53d
0.06243283 0.06815584 0.14254831 0.19093248 0.12036724 0.2896095 0.24705403 0.18381779
0.47483706 0.21442725 0.14898066 0.25970522 0.08679554 0.10741997 0.2973074 0.08097062

layer4.0.weight f4 [32, 16, 3, 3]
00000000: fe3f 53bd 358d a33c 2045 b53d e681 0fbd
00000010: 7582 c03c 376f 8ebc d007 5b3d 3dcd 1cbd
00000020: f515 3fbd 66e6 933d 8b35 b53d e156 8c3d
00000030: 156f 563d cdd5 2f3b 6b2d 62bd d91d de3d
00000040: 79f7 783d 407e 57bd 5982 bfbc 9c14 bc3d
00000050: 7aaa 293c 1596 25bd 6807 c73c 0741 17bd
00000060: 45b7 a1bc 8650 423c 444d 1ebc eaee 82bd
00000070: 528c 60ba 84ea 0abd 46fb 01bd 844d 18bd
00000080: cd04 393d e98e 583d c8dd 3bbd a683 f03c
00000090: 493c c9bc 23cc 343d d7a3 f23c 0497 553d
000000a0: ce47 213d b721 65bc 5177 a33d 2dd4 193d
000000b0: ba4a 9bbd 8e77 debc 8860 7d3d 92d6 623c
000000c0: 5a8d 06bd 7d99 5f3d a91e a43d ec7f d63c
000000d0: cf69 10bd 0875 583d a778 df3c b880 9bbb
000000e0: 36e3 babc 19b7 333b cf5f e63c 64e0 d5bc
000000f0: 909d 6c3a 1948 6cba 7cc7 a23d 1d2e a5bc
00000100: b81c 6dbc 6843 973b 8600 03bc 9942 493d
00000110: edf4 cdbc e5b6 a53c d7a7 89bb e9e4 16bd
00000120: cee5 df3c 9a7b 45bb 669d 2abc 8a69 ec3c
00000130: 6dfa b03c 8089 99bd 491e e53c ad81 60bd
00000140: 63c7 c23c dc74 c3bc d2f6 82bc 1239 833c
00000150: a8a7 85bd 578c a5bb 9bda c63b b31b 8fbd
00000160: 24a7 09bd 8ff7 823d eaf2 9dbd c9d0 6dbd
00000170: 41cc aa3c e671 92bc 1321 52bd baa7 363d
00000180: fd73 24bd b582 163d 1ee7 c83c 91d6 2abd
00000190: 2748 2a3d 02c2 2dbc 2f5b 25bd 3ccd bd3c
000001a0: 4afb e5bc d9dc a23c d1b8 aebc b2b0 efbb
000001b0: b099 82bd 9a87 2bbb 98f0 9ebd 6d01 f73d
000001c0: cf70 8f3c 0b9c e1bc 76dd f53d c70d a6bb
000001d0: 4d95 45bd 069d 8a3d 79da 053c e02a 2abd
000001e0: a4ed 543d ee34 8b3d 12e9 64bd 3d57 cd3d
000001f0: 1736 173c 0368 52bd ca44 4b3d cae4 55bd
00000200: 765e b83b be37 8a3d 7006 c13c 3088 263c
00000210: 6548 b7bc 2b64 043b 3399 4eba 9f19 babc
00000220: 632a 823b 5b07 0f3c f379 4c3d 64d6 8ebc
00000230: d87a 5abd e5db 9e3d 742a bd3c c7e6 1dbd
00000240: edb2 4dbc 645e 3cbc cb7f 7d3c 49ac e9b9
00000250: 4262 443d 7200 823c 4bd6 603d 7447 c0bc
00000260: 23c5 d5bc e221 5e3c 3363 903b cc59 7b3c
00000270: 9703 93bc d4b2 463c c931 a63d 7891 af3d
00000280: 8ced ae3d b84a 523d 2bfa 5ebd 08c3 3f3d
00000290: 135f 2d3d 99f0 e6bb c11c 48bd aa5f 843d
000002a0: 1738 1bbd 761b 653d 4b09 13bd e3fc 33bd
000002b0: 60c6 82bd e527 bcbc 9ffb 3c3c ffb7 dcbc
000002c0: b834 f5bc 8efa 553d dc29 cf3b 13d5 02bd
000002d0: 19c7 ca3d 4dc1 dbbc 9246 52bd 86d6 853d
000002e0: 414b a83d 2d36 9039 1aad 013e 5f83 333c
000002f0: ce15 ca3b a450 59bd 3212 fc3c 95e2 53bd
00000300: 1d6a 0fbd bf44 8dbd 83d7 7cbd 0610 cc3c
00000310: d8fe e1bc 5293 5d3d 24fa 1c3d bd8e 1dbd
00000320: fef7 46bd 9113 0fbc f982 52bd 03b8 31bc
00000330: 6c49 bcbd d3bc a83b 1be3 083c 57b8 ddbb
00000340: 596d 313d a275 903c 4655 293d de9c 693d
00000350: f2cf 6d3d 8e86 c2bb a701 4bbd 94ce 1e3c
00000360: 7296 4ebd fdce febc cd84 6b3c f41b 91bd
00000370: 2ea8 8b3d b69a 2bbc d138 733d 6a9b cdbb
00000380: c3c9 56bc 8e76 19bd ef6f 303d 2d9c 4fbb
00000390: 3462 dabc 7cbb 44bd 0928 85bd d531 c4bd
000003a0: 2911 9dbd 69b1 623d 2585 8cbc d88d 93bd
000003b0: ca45 93bd dd49 8cbd fd3b 6ebc 0dc3 41bc
000003c0: e358 bd3c c2ce 86bd ecd0 043c be0a adb9
000003d0: e85b 1137 635c 773d 1170 87bb 1d0c 19bd
000003e0: 3f6d 28bd bd2e 8f3b e70f ecbc 9a61 9bbd
000003f0: 2190 e13c 31f1 f83d 8c66 f13c c31f b2bb
-0.0515747 0.019964794 0.08851075 -0.03503599 0.023499707 -0.017387016 0.053474247 -0.038281668
-0.0466518 0.072216794 0.08848103 0.06852508 0.05235203 0.0026830316 -0.055219095 0.10845537
0.060782883 -0.052610636 -0.023377584 0.091836184 0.010355586 -0.040426333 0.024295524 -0.03692725
-0.01974071 0.011860019 -0.009661976 -0.063932255 -0.0008565831 -0.033915058 -0.031733774 -0.0371833
0.045170594 0.052870665 -0.045865804 0.02935965 -0.024564879 0.044139992 0.02961914 0.052145973
0.03937512 -0.013985089 0.07981742 0.037555862 -0.07582612 -0.027156617 0.061859637 0.013845103
-0.032849647 0.054589737 0.080136605 0.026184045 -0.035257157 0.052845985 0.027279211 -0.004745569
-0.02281342 0.0027422367 0.028121857 -0.026107974 0.0009026164 -0.0009013429 0.07948205 -0.02016359
-0.014472179 0.0046161897 -0.00799573 0.049135778 -0.025141204 0.020228812 -0.0042009163 -0.0368394
0.02733126 -0.0030133487 -0.010413503 0.028858919 0.021603787 -0.07496929 0.027968543 -0.05481117
0.023776716 -0.023859434 -0.015986834 0.016018424 -0.065261185 -0.00505213 0.0060685403 -0.06987705
-0.033606663 0.06394874 -0.07712348 -0.05806044 0.020849349 -0.017876577 -0.051301073 0.04459355
-0.040149678 0.036745746 0.024524268 -0.041708533 0.041572716 -0.010605337 -0.040370163 0.023169152
-0.028073926 0.019880699 -0.021328362 -0.007314765 -0.0637697 -0.0026173354 -0.07760733 0.12060819
0.017509846 -0.027540227 0.12005131 -0.0050675604 -0.048238087 0.06768231 0.008169764 -0.041544795
0.051984444 0.06797205 -0.055886336 0.10026405 0.009229205 -0.051368725 0.04962615 -0.052220143
0.005626495 0.06748913 0.02356264 0.010164306 -0.022373388 0.0020201306 -0.0007881105 -0.022717295
0.003972338 0.008729781 0.049920987 -0.017436214 -0.05333981 0.07756785 0.023091532 -0.038550165
-0.012554866 -0.011497114 0.015472363 -0.00044569586 0.04794527 0.015869353 0.054891866 -0.023471572
-0.026094979 0.013557883 0.0044063567 0.015341233 -0.017946048 0.012127597 0.081149645 0.08572668
0.08541402 0.05134079 -0.054437798 0.046816856 0.042326998 -0.0070477244 -0.048855547 0.06463559
-0.03789529 0.055934392 -0.035897534 -0.043942343 -0.06385493 -0.022968242 0.0115346005 -0.026943205
-0.029932365 0.0522409 0.0063221287 -0.031941485 0.09901256 -0.026825571 -0.051336832 0.06535058
0.082174785 0.00027506184 0.1266369 0.010956614 0.00616715 -0.05305542 0.030770395 -0.051729757
-0.035013307 -0.06897878 -0.061728965 0.024909984 -0.02758734 0.054095574 0.03832449 -0.038466204
-0.048576348 -0.008732692 -0.051394437 -0.0108470945 -0.091936916 0.0051494627 0.008354927 -0.00676636
0.043317173 0.017634217 0.04134109 0.057034366 0.05805964 -0.0059364503 -0.049562123 0.009692807
-0.050436445 -0.03110456 0.014374924 -0.0708541 0.06819187 -0.010473898 0.059380356 -0.0062746303
-0.013109627 -0.03746658 0.0430755 -0.0031678781 -0.026658155 -0.04803036 -0.06501777 -0.09579817
-0.07669289 0.055344973 -0.017153332 -0.07204789 -0.071910456 -0.06850026 -0.0145406695 -0.011826289
0.023113674 -0.06582405 0.0081064515 -0.00033005135 8.664072e-06 0.06039084 -0.0041332324 -0.037365068
-0.04111981 0.0043695853 -0.028816177 -0.075869754 0.027534546 0.121553786 0.029467843 -0.005435915

layer4.0.bias f4 [32]
00000000: 665c 813c 266d 16bd 5b73 013c aa74 9c3d
00000010: c442 8e3d b66e 6cbc c27a 61bd 3e7a 2bbd
00000020: 4ff2 3fbd 0818 9c3d 3c0f 87bd a7e5 8b3b
00000030: b8b9 53bd 4e74 543c 4238 153d 04e5 73bd
00000040: baaa 593d 587d 95bd afc3 85bd ce69 213d
00000050: dd24 713d 3721 0dbd 10d0 0bbd 76d7 1ebd
00000060: 1da9 6a3d 1515 77bd af75 ca3c fd1f a53d
00000070: 2fd4 613d be33 1e3c 1846 6b3d 1f8f cc3c
0.01579113 -0.036725186 0.007901038 0.076394394 0.06946328 -0.014430692 -0.05504871 -0.041864626
-0.046861943 0.07621771 -0.065947026 0.00426932 -0.051690787 0.012967182 0.036430605 -0.05954458
0.053141333 -0.07299298 -0.06531464 0.039407544 0.058873046 -0.034455504 -0.03413397 -0.0387797
0.057290185 -0.06032284 0.024714319 0.08062742 0.055133995 0.009655891 0.057439893 0.02497059

layer4.1.weight f4 [32]
00000000: c3a3 8b3f 961b 8e3f c793 8c3f 30a0 873f
00000010: c1da 893f 2aa7 8d3f 0e69 893f f728 8c3f
00000020: fdf6 863f 1058 8d3f 737a 893f 9c07 8a3f
00000030: e126 8e3f 992c 883f 34d6 893f 8fc5 8a3f
00000040: 15b7 8a3f 8a30 8d3f dc41 8c3f e72b 8d3f
00000050: a2f6 8a3f 62ba 863f 8767 8a3f 9283 8b3f
00000060: c356 8b3f 38a5 8c3f b978 8a3f c652 833f
00000070: 0be2 8b3f b73d 8a3f 89a8 8e3f 5c2a 8e3f
1.0909351 1.1102169 1.0982598 1.059576 1.0769883 1.106664 1.0735185 1.0950001
1.0544125 1.10425 1.0740494 1.0783572 1.1105615 1.063861 1.0768495 1.084154
1.0837122 1.1030438 1.0957599 1.1029023 1.0856516 1.052563 1.0812844 1.0899527
1.0885853 1.0987921 1.0818092 1.0259635 1.0928358 1.0800084 1.1145183 1.1106677

layer4.1.bias f4 [32]
00000000: 2198 5f3d a7fd 9b3d b24e 6c3d ea63 213d
00000010: de26 623d d11b 993d 2f1a 583d d5d1 173d
00000020: fee0 673d 3bba c23d 4082 623d 3120 673d
00000030: dc3c a13d 65bc 5f3d 9afe 543d c329 893d
00000040: 21fc a13d a330 c83d e68e 083d edf2 903d
00000050: faf8 283c 9a4e 553d 558f 863d f152 e23c
00000060: d00c 333d b739 9f3d 2a4d 433d 3564 1d3d
00000070: f3c1 713d 51a3 483d 5cb8 be3d a924 9f3d
0.05458844 0.0761674 0.057692237 0.039401926 0.055212848 0.07476009 0.052759346 0.037065346
0.056611054 0.09508177 0.055299997 0.056427184 0.07872936 0.054623026 0.05200062 0.066974185
0.07909418 0.09774902 0.033339404 0.070775844 0.010313267 0.052076913 0.06570307 0.02762744
0.04371339 0.0777468 0.04768101 0.038425643 0.059022855 0.048983876 0.093125075 0.07770664

layer4.1.running_mean f4 [32]
00000000: 466a 983e 6ab0 883d de09 953e 359f 293f
00000010: 5bff a33d 814e e53e 7170 f23e 52db ccbd
00000020: a3c8 c6be 967c c4bf 8d88 7abe f95a 563e
00000030: 92a6 f23e d333 bcbe 66ed 903e d1a5 25bf
00000040: 52b1 84bf 1129 b83e 5f7d 18be aae5 f43d
00000050: db97 abbd 1354 5abe 79c6 17bf 402e 03be
00000060: 5950 c83e 1eee fc3d f29b a93c cd84 5dbf
00000070: 4329 8b3e 0b78 ba3e 9f9c aabf 7d4d b13e
0.2976858 0.06674273 0.2910909 0.66258556 0.080076896 0.44786456 0.4735141 -0.100027695
-0.3882495 -1.5350521 -0.24466152 0.20933141 0.47392708 -0.3675829 0.2830612 -0.6470614
-1.0366614 0.3596883 -0.14891575 0.119578674 -0.083785735 -0.21321134 -0.5928722 -0.12810612
0.391238 0.12350105 0.020704243 -0.8653076 0.27179918 0.3641971 -1.3329047 0.3462943

layer4.1.running_var f4 [32]
00000000: a3b9 1e3f c58e 633f 913e 493f fe78 623f
00000010: 4b2f 873f fb5d 553f c6f7 473f 292e 893f
00000020: d7da 6c3f 7942 cd3f 80fc 8c3f 81f4 833f
00000030: ce7e 803f 7aae 673f 6339 4a3f 3742 9b3f
00000040: 7d59 a13f 3e78 603f 0bb3 be3f 2881 5f3f
00000050: 2900 a83f 613a 353f 5529 a63f d736 be3f
00000060: 9b9f 353f c5e7 2f3f 8a20 7f3f adea 743f
00000070: 6cb9 713f a22e 323f 2a1a b73f 9cf6 423f
0.6200201 0.88889724 0.78611094 0.8846587 1.0561308 0.8334653 0.7811245 1.0717212
0.92521423 1.6035911 1.1014557 1.0308992 1.0038698 0.90500605 0.78993815 1.2129582
1.2605435 0.87683475 1.489839 0.8730645 1.3125049 0.70792204 1.2981364 1.4860486
0.70946664 0.6871303 0.99659026 0.95670587 0.94423556 0.69602406 1.430486 0.76157546

fc.weight f4 [1, 1152]
00000000: 6139 6cbc 0654 583c 7b9c 373b bd7c 843d
00000010: ba7d f83c 5de8 a8bc 8c04 0cbd dfc3 f3bb
00000020: 6177 05bd a08d 5d3d a2c2 883d 9728 22bc
00000030: 4c10 17bd 3bcf 3dbc 3a82 8ebc 6c4e 803d
00000040: 310b 983d 8b65 7b3d 1301 eb3c 1e83 fcbc
00000050: dce5 b6bc 893a 2e3d 4e53 113d 7437 d13c
00000060: 2123 b63c 6c8f 8b3c c06b 533d ca42 603d
00000070: f318 f03c cc3c 653c 3a63 a638 8bcc c4bc
00000080: d80e 6abc de0c 4139 7cb3 1d3d dc29 243c
00000090: 5e5c 1abc cb8d dabc f79a 003d 02b7 823b
000000a0: 345f 9a3c 295a abbc 07d2 fabb 014a 85bc
000000b0: 898b 6cbc b3b9 1a3c 4990 8c3d 2182 bf3c
000000c0: e2b9 0a3d 9541 b7bc 2402 283d 7463 d63d
000000d0: 4171 c63d 9b73 83bc 8280 813d 8a2d 843d
000000e0: 26e0 5c3d 13b6 d03c 5414 c43c 2613 1b3c
000000f0: 39a5 62bb d72d b13a af62 033c 8032 743d
00000100: ab12 9c3c 3118 1fbb b321 09bc 5df5 99bc
00000110: 64e6 543c 1940 3e3d 5c6c db3c 9655 8abc
00000120: 5f94 0b3c d576 b0bc 1bb1 d03b 256c 243c
00000130: ff1e 3fbc 86f1 b8bc c1c3 cebb 4693 fbbb
00000140: cad6 9e3c fa4e f43c c58d 4f3c 4d0d 9fbb
00000150: ee2f 6c3c aef9 cd3c 9234 c0bc 3df8 833b
00000160: b9d9 89bc 1384 c43b fda4 363c 9baa 1a3c
00000170: 0336 2d3d 2123 f23d 91d2 ef3c 1fbe 13bc
00000180: d413 323d a26c 153d 23a1 8f3d c49c ad3d
00000190: eb5d 703d 9ee2 993b e1e0 98bc ddd6 e23b
000001a0: 43db 453c 5d47 95bb a0e1 d0bc e0d3 543c
000001b0: 524b ab3c ff70 0c3c eb1e f8bc f16f 903b
000001c0: d1f9 cfbc 5681 3ebd 8695 f53b 7f57 0ebc
000001d0: 7c78 06bd eb4a 70bc 118a 88bc f349 afbc
000001e0: 39f4 08bc 980c 17b9 84c3 51bd f53b 82bd
000001f0: ca20 99bc 9f12 e4bc 527e 1cbc 85c6 083c
00000200: 4515 eb3c 053b 193d 7605 813d 4df6 52bc
00000210: aee1 d3bb eee3 4e3d 1cdf 113d 0e12 ea3c
00000220: 74ba 303c e67a babc ede9 d2bc d981 2c3b
00000230: 4f55 67b9 c059 073c 4b64 00bd 5892 36bd
00000240: ba69 3a3c 79c8 ca3b 96b5 21bc 424a 71bd
00000250: ffce 8b3c 3f49 b8bc 3ba6 52bb 1494 bf3c
00000260: a03d a6bb ba55 3cbd 3d7a d5bc e380 7a3c
00000270: 32d7 aabc 638c 09bd 5eac 62bd 9643 75bd
00000280: 1ee9 2bbd dc57 05bd 66af bf3c 974c 9d3a
00000290: 2e3b c4bd 317d 97bd 2681 ccbc fa2b c5bb
000002a0: 93dd 59bc b1b8 4cbc e6cf fe3c f1f5 cc3b
000002b0: ddfc 103d 3e6f d63c 3385 f03b 4f16 1cbd
000002c0: 0fe7 8ebc 653c 99bc 9b9f 41bc fb85 61bd
000002d0: 1d20 c2ba 59e7 1ebc 97e8 90bc 8c61 ec3c
000002e0: 6f0f b73b 861e 17bc a146 f1bb c875 b6bc
000002f0: 2603 41bd 8486 5c3c e16b f2bc c676 acbb
00000300: ac9d a93b 1ff9 7d3c 0854 c73d 14ef d53d
00000310: 1fde a53c 74f7 953c 4acc 943c bcb4 24bb
00000320: 2292 b5ba 21b6 0bbd da3f a33b 205a da3c
00000330: 35b4 10bc a665 20bd b861 52bd 5963 9dbd
00000340: a541 5bbd a969 0bbd 14f1 c5bc 91ac 2cbd
00000350: 292e 3cbd d186 7dbd 8f85 15bc e104 53bd
00000360: d4d0 993c d513 c23c 310b ce3a ddb0 b23c
00000370: 23b6 2ebc 28f6 03bc 58c3 9f3b 64bc 773b
00000380: d39a 8a3c 73cf 083d 2dc6 2b3a 9478 f6bc
00000390: ecf8 de3c ac0a dabc c837 2a3c 5d97 d53d
000003a0: 0824 433d d3f4 903c 14d2 133c 5839 94bb
000003b0: 907f 05bd 9f59 b03b b401 9ebb e45e acbb
000003c0: 3f11 ef3b e832 4abc 87dd 4dbd c95d 04bd
000003d0: 9e73 b9bb c627 efbc e0e8 0bbd cf32 0abd
000003e0: 543c c8bc 5065 813c 729f 5dbc 6826 26bd
000003f0: 3b89 1bbd 224b ef3b 24f0 02bd cb96 4fba
-0.014417977 0.0132036265 0.0028016854 0.064691044 0.030333389 -0.020618612 -0.034184024 -0.007439121
-0.03258455 0.054090142 0.06677748 -0.009897373 -0.036880776 -0.011585052 -0.017396081 0.06264958
0.074240096 0.061376136 0.028687036 -0.03082424 -0.022326402 0.042536292 0.035479836 0.025539137
0.022233548 0.017036162 0.05161643 0.054751195 0.029308772 0.013991546 7.933979e-05 -0.024023315
-0.014285766 0.00018410708 0.038501248 0.010019746 -0.009421436 -0.02667894 0.031397786 0.0039891014
0.018844225 -0.020917015 -0.0076544317 -0.01627064 -0.014437565 0.009443688 0.06863458 0.02337748
0.033868678 -0.02237014 0.041017666 0.10468188 0.0968957 -0.016046336 0.06323339 0.064539984
0.053924702 0.025477445 0.023935474 0.009465015 -0.0034583344 0.001351769 0.0080191335 0.059618473
0.01905187 -0.0024275894 -0.008369851 -0.018793756 0.0129943825 0.046447847 0.026785068 -0.016886514
0.008519261 -0.021541039 0.006368769 0.010035549 -0.011665105 -0.022576105 -0.006309957 -0.0076774685
0.019389529 0.029822815 0.012668078 -0.0048538805 0.014415724 0.02514347 -0.023462567 0.004027395
-0.016827451 0.00599719 0.011147735 0.00944009 0.042287838 0.118231066 0.02927521 -0.009017496
0.04347594 0.036480553 0.07013156 0.08477166 0.058683317 0.0046962043 -0.018661918 0.0069225864
0.012076202 -0.0045556263 -0.025498211 0.012989968 0.020909939 0.008571862 -0.03028818 0.0044078757
-0.025387676 -0.046510063 0.007494631 -0.008687853 -0.032829747 -0.014666299 -0.016667398 -0.021397566
-0.0083590085 -0.00014405174 -0.05121185 -0.06359092 -0.018692393 -0.02784091 -0.0095516015 0.008348112
0.028696666 0.0374098 0.0629987 -0.0128761055 -0.006466112 0.05051034 0.035613164 0.028573062
0.010786641 -0.02276368 -0.02574631 0.0026322512 -0.00022061657 0.008261144 -0.031345647 -0.044573158
0.011377746 0.006188449 -0.009869954 -0.05890871 0.017066477 -0.022495864 -0.0032142538 0.023386039
-0.0050732642 -0.045980193 -0.026059264 0.015289518 -0.020854566 -0.03358115 -0.055340163 -0.059878908
-0.041970365 -0.032554492 0.023399066 0.0012000975 -0.095816 -0.07396925 -0.024963927 -0.0060172053
-0.013297456 -0.012495206 0.031104993 0.0062549044 0.0353974 0.026176091 0.0073400973 -0.038107213
-0.017444162 -0.018705556 -0.011817838 -0.055059414 -0.0014810596 -0.009698712 -0.017689032 0.028855108
0.0055865566 -0.009223586 -0.007363156 -0.02227296 -0.047122143 0.013459805 -0.029592456 -0.0052631823
0.0051762667 0.01550129 0.097328246 0.10445991 0.020247517 0.018306471 0.018163819 -0.002513214
-0.0013852755 -0.03410924 0.004981977 0.026654303 -0.008832027 -0.03915944 -0.051362723 -0.07684965
-0.0535294 -0.034036312 -0.024162807 -0.04215676 -0.04594246 -0.06189615 -0.009126081 -0.051518325
0.018776335 0.023691097 0.0015719888 0.02181285 -0.010663542 -0.008054294 0.0048755817 0.0037801499
0.016919529 0.033400964 0.0006552663 -0.030086793 0.027218305 -0.026616417 0.010389276 0.10429261
0.047641784 0.017694866 0.0090222545 -0.0045234375 -0.032592356 0.0053817774 -0.0048219804 -0.0052603353
0.007295757 -0.012341239 -0.050260093 -0.032316003 -0.0056595346 -0.02919377 -0.034157634 -0.03373986
-0.02444283 0.01579538 -0.013526784 -0.04056397 -0.03797267 0.0073026577 -0.031967297 -0.0007918893
