data/chkbox_models/chkbox_rnd13_3_bestVal.pt (torch_old, 35085 bytes, 25 tensors)

layer1.0.weight f4 [4, 1, 3, 3]
0	0x3e6bb4a4	0.23018128
1	0x3e9e42b4	0.30910265
2	0x3f041944	0.5160105
3	0x3ea614ea	0.3243783
4	0x3d1b7e11	0.037962023
5	0xbb1f7462	-0.0024330844
6	0x3e7076e3	0.23482852
7	0xbe65698e	-0.22403547
8	0x3e74f379	0.23921002
9	0x3f1fa535	0.6236146
10	0xbd87c5f2	-0.06629552
11	0xbce9b7f4	-0.028530098
12	0x3dd79142	0.105257526
13	0x3e4b8443	0.19874673
14	0x3e0891d7	0.13336883
15	0x3eb97dd6	0.36228818
16	0xbde6d1a6	-0.11270456
17	0xbd1f1729	-0.038840447
18	0xbd7ee554	-0.062230423
19	0xbe07a764	-0.13247448
20	0xbe2a0394	-0.16602927
21	0xbe57005f	-0.20996235
22	0xbe5da856	-0.21646246
23	0x3e871a5e	0.26387304
24	0xbe537854	-0.2065137
25	0xbe0520b6	-0.1300076
26	0xbe258e89	-0.16167654
27	0xbe5c56cb	-0.21517484
28	0x3e07ec9e	0.13273856
29	0x3ef275f5	0.4735562
30	0xbdc174af	-0.09446084
31	0x3d574808	0.05255893
32	0xbd0fd7da	-0.03511796
33	0x3dbffc5f	0.09374308
34	0x3e76cb53	0.24101
35	0x3e13c594	0.14430839

layer1.0.bias f4 [4]
0	0x3e697563	0.22798686
1	0xbe25fbc7	-0.16209327
2	0x3d0a4bb7	0.033763614
3	0xbe497541	-0.19673635

layer1.1.weight f4 [4]
0	0x3f812956	1.009074
1	0x3f809ebc	1.0048442
2	0x3f751f92	0.957513
3	0x3f7eeb27	0.99577564

layer1.1.bias f4 [4]
0	0x3daa14cf	0.0830475
1	0x3c7bdf32	0.015373038
2	0x3cc7e841	0.02440274
3	0x3da38ef4	0.079862505

layer1.1.running_mean f4 [4]
0	0x3fe56752	1.7922156
1	0x3f71cd0e	0.94453514
2	0xbf6d8e0d	-0.9279488
3	0x3f0c773b	0.5486943

layer1.1.running_var f4 [4]
0	0x406108c1	3.5161593
1	0x3ff02b07	1.8763131
2	0x3fac9eca	1.3485959
3	0x3f635623	0.8880331

layer2.0.weight f4 [8, 4, 3, 3]
0	0x3d0d3858	0.03447756
1	0x3d36dc1c	0.044643506
2	0x3d74454a	0.05963639
3	0xbd198bd6	-0.037486874
4	0xbdfb8355	-0.12280909
5	0xbdc6335a	-0.09677763
6	0xbdd5a578	-0.10431951
7	0x3d83754c	0.06418857
8	0x3cb71627	0.02234943
9	0x3ddf19ee	0.108936176
10	0xbcb2a96f	-0.021809308
11	0xbd04d37e	-0.032428257
12	0x3e06a233	0.13147812
13	0xbde19c97	-0.11016195
14	0x3dcca8e5	0.099931516
15	0x3da44adf	0.08022093
16	0xbd425d06	-0.047451995
17	0x3dd4a001	0.10382081
18	0x3b9b8e3a	0.0047471793
19	0x3dd12feb	0.10214218
20	0x3d3a2abf	0.045450922
21	0xbb388f2f	-0.0028161516
22	0x3d973937	0.0738396
23	0xbda27c4b	-0.07933863
24	0xbdc87d90	-0.09789574
25	0x3df1839a	0.11792679
26	0xbc68fe68	-0.014220811
27	0xbda4d1c2	-0.08047821
28	0x3d6c0184	0.057618633
29	0x3e20390d	0.15646763
30	0xbd349122	-0.044083722
31	0xbcf7dfaa	-0.030258019
32	0xbe19371a	-0.14962426
33	0xbd68d43b	-0.056843024
34	0xbc0ffa74	-0.00878774
35	0x3d5ceea0	0.053938508
36	0x3da9d9d6	0.08293502
37	0x3bd19947	0.006396446
38	0x3daab6e9	0.083356686
39	0xbd91ba85	-0.07115654
40	0x3d78f7f8	0.060783356
41	0x3cbe4cc7	0.02322997
42	0x3de5828d	0.11206541
43	0x3ddde5fc	0.10834882
44	0x3d2d3ec7	0.042296197
45	0x3de6bb09	0.11266143
46	0xbdce9700	-0.10087395
47	0x3defd866	0.117111966
48	0xbdb6316f	-0.088961475
49	0x3d9149d0	0.07094157
50	0x3e1e2edf	0.15447567
51	0xbdb4f952	-0.088366166
52	0x3ccef59d	0.025263602
53	0x3d221a55	0.039575893
54	0x3d66f189	0.05638269
55	0x3e311c68	0.17295992
56	0x3de86041	0.11346484
57	0xbc22c053	-0.009933549
58	0x3dd94e99	0.106106944
59	0xbd3561b9	-0.04428265
60	0x3e314629	0.1731192
61	0x3d18a782	0.037269123
62	0x3e2a5395	0.16633447
63	0xbdd2cd83	-0.102931045
64	0xbd34c5f2	-0.044134088
65	0x3e0715e9	0.13191952
66	0x3dc3d2d0	0.09561694
67	0x3d81b0fd	0.06332586
68	0x3d3480cb	0.04406814
69	0x3e178e90	0.14800477
70	0x3d9b1338	0.07572025
71	0x3dc6b50d	0.097025014
72	0x3d185864	0.03719367
73	0xbd055615	-0.032552797
74	0xbd8224bb	-0.06354662
75	0x3c5c9c33	0.013464975
76	0x3e20b34c	0.15693396
77	0x3d7b553d	0.061360586
78	0x3c166f92	0.009181874
79	0x3d56d294	0.052446917
80	0xbd8eeef4	-0.069791704
81	0x3cdd2fdb	0.027000358
82	0xbd60addd	-0.05485331
83	0x3d125bbb	0.035732012
84	0x3d87fe8f	0.0664035
85	0x3ea20ce6	0.31650466
86	0x3d0f6506	0.035008453
87	0x3cb24f15	0.021766225
88	0x3e440f12	0.19146374
89	0xbdaf7d8c	-0.08568868
90	0xbcc2ad2b	-0.023764214
91	0xbd82f18b	-0.06393727
92	0xbe00017d	-0.12500568
93	0xbda38331	-0.07984007
94	0xbdec8bd1	-0.11550105
95	0x3b934a5c	0.0044949483
96	0x3cc3661b	0.023852399
97	0xbd9e2fc8	-0.07723957
98	0xbd9ee1d0	-0.07757914
99	0x3e02162d	0.12703772
100	0xbd9809cb	-0.07423743
101	0x3d86a46f	0.06574332
102	0x3e0306f6	0.12795624
103	0xbcef7867	-0.029232217
104	0x3d6b80a3	0.057495724
105	0xbd6b5756	-0.057456337
106	0x3d962d74	0.07332888
107	0x3c464a87	0.01210273
108	0xbe00ba3f	-0.12571047
109	0x3dbf25af	0.093333595
110	0xbdc8aacb	-0.09798201
111	0xbe02131f	-0.12702607
112	0x3dc71ea4	0.09722641
113	0xbe23c4f6	-0.15993103
114	0x3cca9ba3	0.024732416
115	0x3d9917c4	0.07475236
116	0x3d9b0420	0.07569146
117	0xbd905b02	-0.07048608
118	0x3dc36ddd	0.09542439
119	0xbc407083	-0.011745575
120	0x3e294c32	0.16532972
121	0x3df00a88	0.11720759
122	0xbd9505b5	-0.07276479
123	0x3c85ab3b	0.016317
124	0xb9a09653	-0.00030629578
125	0x3e2221bd	0.15833183
126	0xbd3093b3	-0.043109607
127	0xbd71df50	-0.059050858
128	0x3da3b3bc	0.07993266
129	0x3cc5bbe9	0.024137454
130	0xbe242b77	-0.16032206
131	0x3dc94f8a	0.09829624
132	0x3dc2cd71	0.09511841
133	0xbd259675	-0.04042669
134	0xbc8b81b7	-0.017029626
135	0x3d902faa	0.07040341
136	0xbe44a079	-0.1920184
137	0xbe0ad4f1	-0.13557793
138	0xbdc99368	-0.09842569
139	0xbdc21738	-0.09477085
140	0xbdb5b64f	-0.08872663
141	0xbd486f54	-0.048934296
142	0x3e06933b	0.13142101
143	0x3e5c21d4	0.2149728
144	0xbd6a59ca	-0.057214536
145	0xbd65565d	-0.055990566
146	0x39b44a90	0.0003438783
147	0x3e0f62ac	0.14002484
148	0x3cbc878e	0.023013856
149	0xbdc1bd3d	-0.094599225
150	0xbd02e27e	-0.03195428
151	0xbd6d17ff	-0.057884213
152	0x3e185c38	0.14878929
153	0xbe0f4e48	-0.13994706
154	0xbbabe1c3	-0.0052454188
155	0xbe0f0ad1	-0.1396897
156	0xbc8c04dc	-0.01709216
157	0xbdebf7ea	-0.11521895
158	0x3d590dc5	0.052991647
159	0x3d3c3512	0.04594905
160	0xbd85065d	-0.06495354
161	0x3d0fb717	0.035086717
162	0xbd52e823	-0.051490914
163	0xbd63c34f	-0.055606183
164	0x3e0b2bea	0.1359097
165	0x3b3ed006	0.002911569
166	0x3dafd4ea	0.08585532
167	0xbdbda5fb	-0.09260174
168	0xbd97bcab	-0.074090324
169	0xbd5e47c5	-0.054267664
170	0x3e3245ae	0.17409393
171	0x3e02c0df	0.12768887
172	0x3d8aeaf3	0.06783094
173	0xbca82a8f	-0.020528106
174	0x3e10b758	0.1413244
175	0x3dd41ff1	0.10357655
176	0xbdb1ee20	-0.08687997
177	0x3e3f665d	0.18691392
178	0x3db15720	0.08659196
179	0x3e2366d9	0.15957202
180	0xbd3541ce	-0.04425221
181	0x3dd439bf	0.10362577
182	0x3d47a152	0.04873783
183	0x3b3e575d	0.0029043772
184	0x3dac2a25	0.08406476
185	0xbdf494c2	-0.11942436
186	0x3dc53210	0.09628689
187	0x3e1c0ba9	0.15238823
188	0xbcb1add6	-0.021689337
189	0xbe416626	-0.18886623
190	0x3de856fa	0.113447145
191	0xbc8c20ee	-0.017105546
192	0x3d9e0dbc	0.077174634
193	0xbe16c97b	-0.14725296
194	0x3de79b92	0.113089696
195	0x3dbdc34f	0.09265768
196	0xbda9558a	-0.082682684
197	0xbe3905cf	-0.18068622
198	0x3c7c6832	0.0154057015
199	0x3dd0ec8b	0.10201367
200	0xbd8134b5	-0.06308881
201	0xbe07a482	-0.13246349
202	0x3e0308c6	0.12796316
203	0x3e0aebc5	0.13566501
204	0xbe50eb3e	-0.20402238
205	0x3dbd7a48	0.09251839
206	0x3d327aaa	0.043574013
207	0xbdaa0c3b	-0.08303114
208	0x3e09da8f	0.1346228
209	0x3d5793e9	0.052631292
210	0x3da82dff	0.08211898
211	0xbdc98bea	-0.098411396
212	0xbd656bef	-0.056011137
213	0xbde865dd	-0.11347554
214	0xbd9fdb1a	-0.07805462
215	0xbcd1d4f9	-0.025614249
216	0x3e43c893	0.19119482
217	0x3e36497c	0.1780147
218	0xbdbe9fb5	-0.093078054
219	0xbe267e16	-0.16259035
220	0x3bdf6999	0.006818008
221	0xbdf30e26	-0.11867933
222	0x3dd94d79	0.1061048
223	0x3d98a41b	0.07453176
224	0xbdc50217	-0.09619539
225	0xbe1b475a	-0.15163937
226	0x3c9560b6	0.018234592
227	0x3e2b38d5	0.16720898
228	0xbd53e73a	-0.051734187
229	0x3e02ac95	0.12761147
230	0xbe0cb457	-0.13740669
231	0xbd8a5c3c	-0.067558736
232	0x3d4a2338	0.049349993
233	0x3dca69db	0.098834716
234	0x3d4a54b3	0.04939718
235	0xbcaf4882	-0.02139688
236	0x3d6e140f	0.058124598
237	0x3c8c4e9e	0.017127331
238	0x3dbcd20a	0.09219749
239	0xbe0f85b1	-0.14015843
240	0x3cfd15a0	0.0308941
241	0x3b98e693	0.0046661585
242	0x3d9d37fc	0.07676694
243	0xbdae4339	-0.085089155
244	0x3b53b48b	0.0032303657
245	0xbcd9800c	-0.026550315
246	0xbd8dd533	-0.0692543
247	0xbe08d24b	-0.1336147
248	0xbdd80b3f	-0.1054902
249	0x3db86fd4	0.090057045
250	0x3e179076	0.14801201
251	0xbdabea5d	-0.083943106
252	0x3d36f011	0.04466254
253	0x3df123c0	0.11774397
254	0xbe6bb36a	-0.2301766
255	0x3e31e995	0.1737426

layer2.0.bias f4 [8]
0	0xbd84aea4	-0.064786226
1	0xbce61b04	-0.028089054
2	0x3e234de0	0.15947676
3	0x3e02a6fc	0.12759012
4	0xbe2cc745	-0.1687289
5	0xbe0d68bd	-0.13809486
6	0xbdd18c2b	-0.10231813
7	0xbdbcce19	-0.092189975

layer2.1.weight f4 [8]
0	0x3f71d035	0.94458324
1	0x3f83fa7c	1.0310817
2	0x3f8d70ff	1.1050109
3	0x3f6f4886	0.93470037
4	0x3f74ad74	0.9557717
5	0x3f80e027	1.0068406
6	0x3f800df5	1.0004259
7	0x3f884617	1.064639

layer2.1.bias f4 [8]
0	0xbe0329fd	-0.12808986
1	0x3d624ed0	0.055250943
2	0x3e205317	0.15656696
3	0xbc961eb8	-0.018325195
4	0x3d62aef4	0.05534263
5	0x3d9346fc	0.071912736
6	0xbd873185	-0.06601242
7	0xbd53ee9f	-0.05174124

layer2.1.running_mean f4 [8]
0	0x3cf64e86	0.03006674
1	0x3f72892b	0.9474055
2	0x3ef63f03	0.4809495
3	0x3dd1d7dd	0.10246251
4	0x3de72830	0.11286962
5	0xbe056b9d	-0.13029332
6	0xbdd96ea0	-0.10616803
7	0xbe0323a4	-0.12806565

layer2.1.running_var f4 [8]
0	0x3d0550a7	0.03254762
1	0x3f0cd626	0.55014265
2	0x3f4e86fb	0.80674714
3	0x3de77c89	0.1130305
4	0x3e2463e9	0.16053738
5	0x3d5c76db	0.053824287
6	0x3d879813	0.06620803
7	0x3e3f6f42	0.18694785

layer3.0.weight f4 [16, 8, 3, 3]
0	0xbcfe89e4	-0.03107161
1	0xbda9b7eb	-0.08287033
2	0xbd3ebda4	-0.046567574
3	0xbd3ebe46	-0.046568178
4	0x3af7feff	0.0018920599
5	0xbd975a06	-0.073902175
6	0xbdd630f6	-0.10458557
7	0xbe07ef46	-0.1327487
8	0xbd3e1853	-0.046409916
9	0x3ad06a0f	0.0015900749
10	0x3d06f525	0.03294863
11	0x3dadfa82	0.08495046
12	0xbdb5fa44	-0.08885625
13	0x3d9e0260	0.07715297
14	0x3e042e60	0.12908316
15	0xbd762ae5	-0.0600995
16	0x3d6e60c1	0.05819774
17	0xbd858ba0	-0.06520772
18	0xbd06c666	-0.03290405
19	0x3b08ac2d	0.0020854578
20	0xbda24300	-0.079229355
21	0xbd959c64	-0.0730522
22	0x3ddb0374	0.10694018
23	0x3c2d2680	0.010568261
24	0x3d9d1443	0.0766988
25	0x3d51194e	0.051049523
26	0x3d20bbc5	0.03924157
27	0xbc870bf2	-0.016485188
28	0xbd2ed0a1	-0.042679433
29	0x39242b28	0.00015656336
30	0x3be36547	0.0069395634
31	0x3c4bec72	0.01244651
32	0xbd1f8541	-0.03894544
33	0x3dcde51f	0.10053467
34	0xbd3fa05d	-0.046783794
35	0xbd8b70a1	-0.06808592
36	0xbdc6188d	-0.096726514
37	0xbc8852de	-0.016641077
38	0x3d6174d9	0.055043075
39	0x3c7a19a8	0.015264906
40	0xbdd1b9d2	-0.102405205
41	0x3d14b702	0.036307342
42	0x3c77212e	0.015083594
43	0x3d1c3bbc	0.038142905
44	0xbddd41bb	-0.10803553
45	0x3d8d8112	0.06909384
46	0xbae51bd6	-0.0017479609
47	0x3be3aa63	0.006947802
48	0x3d57a39d	0.05264627
49	0x3abc96cc	0.0014388203
50	0x3db8aa7b	0.090168916
51	0x3c8f074b	0.017459532
52	0x3e03a5ae	0.1285617
53	0x3dfea46d	0.124337055
54	0xbcf2b4a5	-0.029627154
55	0x3d0185ed	0.031621862
56	0x3d661728	0.056174427
57	0x3d7d977b	0.06191204
58	0x3d903ca0	0.07042813
59	0xbd6f445d	-0.058414806
60	0x3d25f825	0.040519852
61	0x3ce57b53	0.028012907
62	0xbd4bd118	-0.049759954
63	0xbcf38c90	-0.029730111
64	0xbd71d900	-0.059044838
65	0xbcf680ba	-0.030090678
66	0x3d9ef795	0.07762066
67	0xbe03f86d	-0.12887736
68	0x3d8e6abd	0.069539525
69	0xbd1d4799	-0.03839836
70	0x3db78098	0.08960074
71	0xbd19788e	-0.037468486
72	0xbc0bac31	-0.00852494
73	0xbd47f3f7	-0.048816647
74	0x3d0c899a	0.034310915
75	0xbb9b25ed	-0.0047347457
76	0x3dbf2dd2	0.093349114
77	0x3c36cf6a	0.01115785
78	0x3dc33834	0.09532204
79	0x3d8539e2	0.06505181
80	0x3da36abc	0.07979342
81	0x3d158789	0.03650621
82	0x3d6cac17	0.057781305
83	0xbc703805	-0.014661794
84	0xbc9cd84a	-0.019146103
85	0xbd1258e1	-0.035729293
86	0x3dde550b	0.108560644
87	0x3d341a91	0.04397065
88	0xbd70f2f4	-0.05882545
89	0x3e0b4bfe	0.13603207
90	0xbdc2a33e	-0.09503792
91	0x3d806822	0.06269862
92	0xbddb24c3	-0.10700371
93	0xbe09f56f	-0.13472532
94	0xbd083094	-0.033249453
95	0xbe0cff99	-0.13769378
96	0xbd3dd77a	-0.046348073
97	0xbd8035c5	-0.06260256
98	0xbd81cb1e	-0.0633757
99	0x3ceaa109	0.02864124
100	0xbd5426df	-0.051794883
101	0xbd64edc4	-0.055890813
102	0xbd87c5e7	-0.06629544
103	0xbda979d5	-0.08275191
104	0xbdfad467	-0.12247544
105	0xbdba0fcd	-0.09085045
106	0xbd71c8cd	-0.05902939
107	0xbcc43efe	-0.023955818
108	0x3ca7f7f3	0.020503974
109	0xbdc34f74	-0.09536639
110	0xbd05ed8f	-0.032697257
111	0xbb583eb8	-0.0032996368
112	0x3d8ac9ae	0.067767486
113	0x3c7e75a7	0.01553098
114	0x3d0a8c3f	0.033825155
115	0x3d84101f	0.06448387
116	0xbd98f3f3	-0.074684046
117	0xbd4c86c7	-0.04993322
118	0xbcdd0ac3	-0.02698267
119	0x3b847a06	0.0040428666
120	0xbd7d5e18	-0.061857313
121	0xbda3c030	-0.07995641
122	0xbd0940bb	-0.033508997
123	0xbe0edd54	-0.13951617
124	0xbdc07b7e	-0.09398554
125	0xbd621f7b	-0.055205803
126	0x3d92453f	0.07142114
127	0x3d30c1c6	0.043153547
128	0x3cdd0737	0.02698098
129	0x3d271477	0.040791
130	0x3d34200c	0.043975875
131	0x3d1d1783	0.0383525
132	0xbc16a413	-0.009194392
133	0x3d385829	0.04500595
134	0x3da3db2a	0.080007866
135	0x3c5c7467	0.013455487
136	0xbcd48307	-0.025941385
137	0x3e055639	0.13021173
138	0xbd387b58	-0.045039505
139	0xbce1ec2a	-0.027578432
140	0x3d95a604	0.073070556
141	0xbd024d43	-0.031811964
142	0xbad46faf	-0.0016207601
143	0x3db1f97e	0.08690165
144	0xbcadd3d5	-0.021219173
145	0xbda70e43	-0.08157017
146	0xbd3a5d31	-0.04549903
147	0xbd033036	-0.0320284
148	0x3be15b01	0.0068773036
149	0xbd8f438b	-0.06995305
150	0xbd4c15cf	-0.049825486
151	0xbe01870b	-0.12649171
152	0xbd389025	-0.045059342
153	0x3dbf5612	0.093425885
154	0xbe07518d	-0.13214703
155	0x3d5bd340	0.05366826
156	0x3d879bc5	0.066215076
157	0xbdc858fb	-0.09782597
158	0xbd763646	-0.060110353
159	0xbe37a806	-0.1793519
160	0x3e089b36	0.13340458
161	0x3cf18770	0.029483527
162	0x3ca5b224	0.020226546
163	0xbba31f56	-0.004978101
164	0xbd95c086	-0.073121116
165	0x3d4d830b	0.0501738
166	0x3dea224c	0.11432323
167	0x3c15e568	0.009148933
168	0xbd04934a	-0.03236703
169	0xbd7464cc	-0.05966644
170	0x3e3948fc	0.18094248
171	0x3d226834	0.039650157
172	0x3bb28cf0	0.00544893
173	0xbc991d24	-0.018690653
174	0xbc3dafba	-0.011577541
175	0x3bbc1109	0.0057393354
176	0xbd0c44cc	-0.034245297
177	0x3d00708a	0.031357326
178	0xbc72b5e2	-0.014813872
179	0x3d3756a9	0.04476038
180	0xbd443ca5	-0.047909398
181	0xba850fe2	-0.0010151828
182	0xbe0cf3bb	-0.13764851
183	0x3ab01e72	0.0013436808
184	0xbd97a83e	-0.074051365
185	0x3cf65825	0.030071327
186	0xbd867188	-0.06564623
187	0xbdc440b4	-0.09582654
188	0x3dbd3fd2	0.092406884
189	0x3d4cd7e1	0.050010566
190	0x3e20b87e	0.15695378
191	0x3c34c885	0.011034136
192	0x3db32fc6	0.087493464
193	0x3ddbfe40	0.10741854
194	0xbd1080ea	-0.035279192
195	0x3da0e360	0.07855868
196	0xbd2280bc	-0.039673552
197	0x3da19119	0.07889003
198	0xbdb9b7ef	-0.09068286
199	0x3c2d1778	0.010564677
200	0xbbe39426	-0.006945151
201	0xbdd2651a	-0.1027319
202	0xbd035de3	-0.03207196
203	0xbaec3feb	-0.001802442
204	0xbe04d3e8	-0.12971461
205	0xbc567ca9	-0.013091245
206	0x3c9b2d49	0.018942492
207	0x3d2cf525	0.042225976
208	0x3dd9fc23	0.106437944
209	0x3c56bf63	0.013107154
210	0xbcd305cd	-0.025759602
211	0x3ddf34b8	0.10898727
212	0xbb6fac93	-0.0036571368
213	0xbd0163a9	-0.031589184
214	0xbd8ca626	-0.06867628
215	0x3d30157f	0.04298925
216	0xbd8286ec	-0.063733906
217	0xbd8b2e3a	-0.067959264
218	0xbcf7c761	-0.030246438
219	0xbd956ecf	-0.07296526
220	0xbda9f2ef	-0.08298289
221	0xbd23e78e	-0.04001575
222	0xbb09c17a	-0.0021019862
223	0xbd022e5d	-0.031782497
224	0xbd3bbc7b	-0.045834046
225	0x3d837eaa	0.06420644
226	0xbd13370f	-0.03594118
227	0xbda84d7f	-0.08217906
228	0x3cee5ceb	0.029097041
229	0xbcb30377	-0.021852238
230	0xbdaf0ac4	-0.08546975
231	0x3d4d4088	0.05011037
232	0x3dc49f41	0.09600688
233	0x3e034b29	0.1282164
234	0x3dc904f2	0.09815396
235	0xbd6bf837	-0.057609763
236	0xbd1b733b	-0.03795169
237	0x3b4167b0	0.0029511265
238	0xbd2488bb	-0.04016946
239	0x3daea647	0.08527809
240	0xbd5de279	-0.05417106
241	0xbd54b583	-0.051930916
242	0x3d75a490	0.059971392
243	0x3de8d5ee	0.11368929
244	0xbda67f61	-0.08129764
245	0xbdd6286a	-0.10456927
246	0xbd8a9c5b	-0.06768104
247	0x3de55496	0.11197774
248	0x3d1a83e7	0.037723448
249	0xbd3a9cc7	-0.04555967
250	0x3dd46b40	0.10372019
251	0x3d141043	0.03614832
252	0x3d458353	0.048220944
253	0xbcf3088d	-0.029667163
254	0x3c294b5b	0.010332908
255	0xbda4325e	-0.08017419

layer3.0.bias f4 [16]
0	0xbd7326bc	-0.05936311
1	0x3d6340ee	0.055481844
2	0xbbec454c	-0.0072104093
3	0xbdd502da	-0.104009345
4	0xbce7c3ea	-0.028291661
5	0xbd48b6c3	-0.04900242
6	0xbdedbb78	-0.116080225
7	0xbd939e1d	-0.07207892
8	0x3daa647d	0.08319948
9	0x3d09afdd	0.033614982
10	0x3d1ae738	0.037818164
11	0xbdc27d9c	-0.09496614
12	0xbd0ae220	-0.033907056
13	0xbd8eb3ee	-0.069679126
14	0xbdef25c7	-0.11677127
15	0xbd89ed4a	-0.067347124

layer3.1.weight f4 [16]
0	0x3f792f7c	0.9733808
1	0x3f85240e	1.0401628
2	0x3f7cec47	0.9879803
3	0x3f7b1dc8	0.9809232
4	0x3f633166	0.8874725
5	0x3f709a4f	0.93985456
6	0x3f7c6808	0.9859624
7	0x3f720f57	0.94554657
8	0x3f83157b	1.024093
9	0x3f814c75	1.0101458
10	0x3f662294	0.8989651
11	0x3f6ef537	0.9334292
12	0x3f75ef5c	0.9606836
13	0x3f84a58c	1.0363021
14	0x3f85fa82	1.0467074
15	0x3f78b2c1	0.97147757

layer3.1.bias f4 [16]
0	0xbe39e09a	-0.18152085
1	0xbe80bc17	-0.251435
2	0xbe6343ca	-0.22193828
3	0xbe59e9a5	-0.21280535
4	0xbe4adccb	-0.19810788
5	0xbe87c395	-0.26516405
6	0xbe1d10eb	-0.15338485
7	0xbe580b8c	-0.21098155
8	0xbe3ba1be	-0.18323418
9	0xbe7d6f71	-0.24749543
10	0xbe5bab21	-0.21451999
11	0xbe4246b2	-0.1897228
12	0xbe505c5c	-0.20347732
13	0xbe37ad06	-0.17937097
14	0xbe87a760	-0.26494884
15	0xbe7b62a1	-0.24549343

layer3.1.running_mean f4 [16]
0	0x3c9e9c28	0.01936157
1	0xbeb8d512	-0.3610006
2	0xbd94436b	-0.072394215
3	0xbe2439a6	-0.16037616
4	0x3ea29966	0.3175766
5	0xbd91a0b5	-0.071107306
6	0xbe046219	-0.12928046
7	0xbe39e187	-0.18152438
8	0x3d335734	0.043784335
9	0xbec8e676	-0.39238328
10	0xb9e30d05	-0.00043306514
11	0xbdb91049	-0.09036309
12	0xbea565c2	-0.32304198
13	0xbeb2f431	-0.34951928
14	0xbe49a2e3	-0.19691043
15	0xbe1731a7	-0.14765035

layer3.1.running_var f4 [16]
0	0x3e33e50b	0.17567842
1	0x3e41a8fa	0.18912116
2	0x3e482ae0	0.19547606
3	0x3e60a880	0.21939278
4	0x3e7194af	0.23591875
5	0x3e84f6a7	0.2596943
6	0x3ea32380	0.31863022
7	0x3e324b8e	0.17411634
8	0x3ea116d9	0.31462744
9	0x3ea294e9	0.31754234
10	0x3e3e0eb8	0.18560302
11	0x3e24a5cd	0.16078873
12	0x3e9396b0	0.28825903
13	0x3e2cbd6b	0.16869132
14	0x3e29ae9f	0.16570519
15	0x3e863566	0.26212615

layer4.0.weight f4 [32, 16, 3, 3]
0	0xbd5c45ab	-0.053777378
1	0xbd90e56c	-0.07075009
2	0xbd38c24e	-0.04510718
3	0xbd87d15c	-0.06631729
4	0xbdc44150	-0.0958277
5	0xbda472f4	-0.08029738
6	0xbd1694a4	-0.03676285
7	0xbd8c71d0	-0.068576455
8	0xbe098851	-0.13430907
9	0x3cd244d0	0.025667578
10	0xbd5cdacf	-0.05391961
11	0x3b77ef29	0.003783176
12	0xbcdda58b	-0.027056476
13	0xbd992f37	-0.07479709
14	0xbd8c7e07	-0.06859975
15	0xbd1d4255	-0.038393337
16	0x3cb5097a	0.022099245
17	0x3d9df26a	0.077122524
18	0xbd8cf21a	-0.06882115
19	0xbb8ab146	-0.0042325584
20	0xbd23221b	-0.039827447
21	0xbdf03b03	-0.117300056
22	0xbd93ba29	-0.072132416
23	0xbdc71b08	-0.09721953
24	0xbd87e9bb	-0.066363774
25	0xbca3389d	-0.019924456
26	0xbdba110d	-0.090852834
27	0xbd3dab6e	-0.046306066
28	0xbb1a040d	-0.002350095
29	0xbd516550	-0.05112201
30	0xbd7fa0a1	-0.062409047
31	0xbb7539f8	-0.0037418585
32	0xbd8f8f84	-0.07009795
33	0xbdca5e73	-0.09881296
34	0xbd156f87	-0.036483314
35	0xbd8cd24f	-0.06876051
36	0x3cfa6b8f	0.030568866
37	0xbcdf0f9b	-0.027229121
38	0xbd6c2910	-0.057656348
39	0x3b807748	0.0039204694
40	0x3b3476df	0.0027536673
41	0xbce6bae3	-0.028165286
42	0xbd27d565	-0.040974993
43	0xbc236de2	-0.009974929
44	0xbd8130f4	-0.06308165
45	0x3abd61d0	0.0014448706
46	0xbcab1111	-0.020882161
47	0x3cd91c52	0.026502762
48	0xbd17642c	-0.036960766
49	0xbd0c7a5e	-0.034296386
50	0xbce45b80	-0.027875662
51	0xbd606ff6	-0.054794274
52	0x3d1c0015	0.038086016
53	0xbcba6030	-0.022750944
54	0xbd7f3c3e	-0.06231331
55	0xbda2a35c	-0.079413146
56	0xbd46b7a4	-0.048514977
57	0xbcc32715	-0.023822347
58	0xbd0f1119	-0.034928415
59	0xbb964fef	-0.0045871655
60	0xbd1c8c75	-0.038219888
61	0xbbc28a4f	-0.005936898
62	0xbbf82feb	-0.0075740716
63	0xbc9c8f97	-0.019111438
64	0x3cc47d40	0.023985505
65	0xbcd7a3ef	-0.026323287
66	0xbd15b281	-0.036547188
67	0x3b338a33	0.0027395606
68	0xbb810a57	-0.003938
69	0xbd9131e3	-0.07089593
70	0x3cb6d417	0.02231793
71	0xbd1ff312	-0.03905017
72	0xbcb4abd0	-0.022054583
73	0x3d23c466	0.039982222
74	0x3d292e67	0.04130402
75	0xbd99406e	-0.07482992
76	0xbd9b7060	-0.07589793
77	0xbcaa9dbf	-0.020827172
78	0xbd0cedcc	-0.03440647
79	0xbc623329	-0.013806143
80	0x3c006132	0.007835673
81	0x39efd5f7	0.0004574505
82	0x3c142c96	0.009043833
83	0x3d37be20	0.04485905
84	0x3c0d1494	0.008610863
85	0x3d09ac3c	0.03361152
86	0x3d82beb0	0.06384027
87	0x3c8f8ee1	0.017524185
88	0x3d23c6f5	0.039984662
89	0xbd22f46e	-0.039783888
90	0x3b88a2a1	0.0041697775
91	0xbcc10c12	-0.023565326
92	0xbd776862	-0.06040228
93	0xbd082300	-0.033236504
94	0xbcd4cdd4	-0.025977053
95	0x3c96e15d	0.018418008
96	0x3ca09aec	0.019605123
97	0xbd2ab591	-0.04167706
98	0xbd3dc68f	-0.04633194
99	0xbdcd5db7	-0.1002764
100	0xbc74b3e4	-0.014935467
101	0xbd63d77e	-0.05562543
102	0xbdbe207c	-0.0928354
103	0xbd1d3aa3	-0.038386
104	0xbda51c79	-0.08062071
105	0xbd844fed	-0.06460557
106	0xbd36abe8	-0.044597536
107	0xbdb35758	-0.08756894
108	0xbbc00f7f	-0.0058612223
109	0xbcdabaf2	-0.02670047
110	0xbce29bfd	-0.027662272
111	0x3d69061e	0.0568906
112	0xbd2921c7	-0.04129198
113	0x3d1026b5	0.035193164
114	0x3cf17d44	0.029478677
115	0xbdfca8bd	-0.12336872
116	0xba8b42c5	-0.0010624757
117	0xbda0f9e6	-0.07860164
118	0xbce2d877	-0.02769111
119	0x3d3d9f40	0.04629445
120	0xbd7a0dec	-0.061048433
121	0x3cd99af0	0.026563138
122	0x3d5a6438	0.053318232
123	0xbd37f51a	-0.04491148
124	0x3d8c3c5c	0.0684745
125	0x3d42b748	0.047538072
126	0xbcaf4307	-0.021394266
127	0xbd632bcf	-0.0554617
128	0xbdc817aa	-0.097701386
129	0xbd9e0804	-0.077163726
130	0xbda73b0a	-0.08165558
131	0xbd26eef1	-0.040755216
132	0xbd829d56	-0.06377666
133	0xbd8e15aa	-0.06937726
134	0xbd82cf41	-0.06387187
135	0xbc8f3ba5	-0.017484495
136	0xbd59f3ad	-0.053210903
137	0xbdbe5da9	-0.09295208
138	0x3ad3c3e6	0.0016156405
139	0xbcf88b2c	-0.0303398
140	0xbcd16740	-0.025561929
141	0xbcfd418e	-0.030915048
142	0xbd752c0c	-0.05985646
143	0xbdf9d539	-0.12198872
144	0xbdc5204e	-0.09625302
145	0xbdbdd998	-0.09270018
146	0xbbfa6951	-0.007641949
147	0xbd3d8cbc	-0.046276793
148	0xbc13a81f	-0.009012251
149	0x3dacb7c4	0.08433488
150	0x3b410f01	0.0029458406
151	0x3d548e15	0.051893312
152	0x3d96e662	0.07368161
153	0x3d06b761	0.032889728
154	0x3da0f0d0	0.07858431
155	0x3d79803d	0.060913313
156	0x3da73efb	0.081663094
157	0x3dc251e9	0.09488279
158	0xbc668229	-0.014069119
159	0xbbc127c3	-0.0058946325
160	0x3d65e0b6	0.056122504
161	0x3dbaa7f5	0.091140665
162	0xbd0aced9	-0.03388867
163	0xbb10354e	-0.0022004428
164	0x3d96c518	0.073618114
165	0x3ced9526	0.029001784
166	0xbd9ef390	-0.077612996
167	0x3c864a0b	0.016392728
168	0x3d9cc336	0.07654421
169	0xbd7c9bd8	-0.06167206
170	0x3990f22a	0.00027646247
171	0xbd4be5be	-0.049779646
172	0xbd04e9c9	-0.032449517
173	0x3b9dfd6e	0.004821471
174	0x3da3dbca	0.08000906
175	0xbd5836d8	-0.052786678
176	0x3cbeef64	0.02330751
177	0xbc40ed10	-0.01177527
178	0xbdc5b300	-0.09653282
179	0xbb394e24	-0.0028275335
180	0xbd5dedba	-0.05418179
181	0xbd6ef585	-0.058339614
182	0xbbd8c090	-0.006614752
183	0x3d10ba7d	0.0353341
184	0xbd729ffe	-0.05923461
185	0x3d030583	0.03198768
186	0x3b40e0b2	0.0029430804
187	0xbc92b915	-0.01791052
188	0x3cc6c922	0.02426583
189	0x3c63d58a	0.013905892
190	0xbd9ee549	-0.077585764
191	0xbd7e1419	-0.062030885
192	0xbd48d642	-0.049032457
193	0xbdc3c2b8	-0.09558624
194	0xbd8a39bd	-0.06749294
195	0x3c10b610	0.00883247
196	0xbd8a424a	-0.06750925
197	0xbd0bdb04	-0.034144416
198	0x3dbdda52	0.09270157
199	0xbcde1f23	-0.027114457
200	0xbd062594	-0.03275068
201	0xbd8ed689	-0.06974513
202	0xbdbf4f1f	-0.09341263
203	0xbdba38fe	-0.09092902
204	0x3d8aed3d	0.06783531
205	0x3d6c82d7	0.057741966
206	0x3d365cd5	0.044522125
207	0x3d8c5995	0.06853024
208	0xbd2c5632	-0.04207439
209	0x3a8a33a7	0.0010543958
210	0x3d40ae8a	0.047041453
211	0xbce7142c	-0.02820786
212	0xbbf273d0	-0.00739906
213	0x3b53f6e1	0.0032343196
214	0xbdb480a5	-0.088135995
215	0xbb5ee443	-0.0034010566
216	0x3dcd80c7	0.10034328
217	0x3d257f75	0.040404756
218	0xbbe868d1	-0.007092573
219	0xbc78145d	-0.015141574
220	0xbcf1be3c	-0.029509656
221	0xbd1e9284	-0.038713947
222	0xbcdf3b00	-0.027249813
223	0x3d31122d	0.043230224
224	0x3c671dfb	0.014106269
225	0x3cb0c061	0.021576108
226	0xbcd323c1	-0.025773885
227	0x3d8c70da	0.06857462
228	0x3ca59fd7	0.02021782
229	0xbcdf2220	-0.027237952
230	0x3d8bfa9c	0.06834909
231	0xbd7011e9	-0.05861083
232	0x3ccce225	0.025010178
233	0xbcf99c7c	-0.030470125
234	0x3d3aafd6	0.045577846
235	0xbdedfcc0	-0.11620474
236	0xbd5a5e05	-0.05331232
237	0xbc20729c	-0.00979295
238	0xbd6d3232	-0.057909198
239	0xbd36f061	-0.044662837
240	0x3d2885f5	0.041143376
241	0xbc6ab745	-0.014325921
242	0x3cbc9a86	0.023022901
243	0x3dbcb91c	0.09214994
244	0xbd7c470f	-0.061591204
245	0xbc98e604	-0.018664367
246	0xbcfb6740	-0.030688882
247	0xbd4492dc	-0.04799162
248	0x3cc5ecfd	0.024160856
249	0x3ce42552	0.027849827
250	0x3cb67f7e	0.02227759
251	0x3bfa73a2	0.007643179
252	0xbd2bbab9	-0.04192612
253	0x3ca9f664	0.020747371
254	0x3d3147f3	0.043281507
255	0xbd352bae	-0.04423111

layer4.0.bias f4 [32]
0	0x3d6cfc18	0.057857603
1	0x3d87ec97	0.06636923
2	0xbd7c1659	-0.06154475
3	0x3c928837	0.017887218
4	0xbcdaf068	-0.026725963
5	0xbd3935fb	-0.045217495
6	0x3c885206	0.016640674
7	0xbd08e6cb	-0.033423226
8	0xbc4d190a	-0.012518177
9	0x3d85b4fa	0.06528659
10	0xbb4ac7f2	-0.003094193
11	0x3d9a413c	0.07531974
12	0x3d89e99d	0.06734011
13	0xbbe2509f	-0.0069065834
14	0x3d4dd090	0.05024773
15	0x3d56d8eb	0.052452963
16	0xbd6423ae	-0.05569809
17	0x3da5c740	0.080946445
18	0x3a7ee4f0	0.00097234454
19	0x3ca53acb	0.020169636
20	0x3d9c573d	0.07633827
21	0xbd8bcbbc	-0.068259686
22	0x3c7b2e42	0.015330853
23	0xbd7c9bfb	-0.061672192
24	0x3d155bec	0.036464617
25	0xbc891588	-0.0167339
26	0x3ca90908	0.02063419
27	0x3d13ce6c	0.03608553
28	0xbd2c9680	-0.042135715
29	0xbbd4b64d	-0.0064914585
30	0xbd34858b	-0.04407267
31	0x3d5b8dec	0.053602144

layer4.1.weight f4 [32]
0	0x3f8c78fd	1.0974423
1	0x3f8fc842	1.1232989
2	0x3f94b0d6	1.1616466
3	0x3f958d31	1.1683713
4	0x3f93b3d4	1.1539254
5	0x3f8e91c3	1.1138233
6	0x3f97391b	1.1814302
7	0x3f8ffa57	1.1248273
8	0x3f9150ff	1.1352843
9	0x3f94ea5b	1.163402
10	0x3f94cf9e	1.162586
11	0x3f8ad008	1.0844736
12	0x3f91ec8f	1.1400317
13	0x3f8dc4be	1.1075666
14	0x3f910ac4	1.133141
15	0x3f9a5c31	1.2059385
16	0x3f90b849	1.1306239
17	0x3f8c2530	1.0948849
18	0x3f976d0e	1.1830156
19	0x3f9159fd	1.1355587
20	0x3f8ffd93	1.124926
21	0x3f928e9b	1.144977
22	0x3f9353aa	1.1509907
23	0x3f965ae8	1.1746492
24	0x3f91504f	1.1352633
25	0x3f8f74b6	1.1207492
26	0x3f8c3ae9	1.0955478
27	0x3f8d954c	1.1061187
28	0x3f8ec0ea	1.1152623
29	0x3f932f9b	1.1498903
30	0x3f93f8f5	1.1560351
31	0x3f8fb10e	1.1225908

layer4.1.bias f4 [32]
0	0x3d3ca86a	0.04605905
1	0x3bff272b	0.0077866516
2	0x3d50e407	0.050998714
3	0x3d30a77b	0.04312847
4	0x3d1061ea	0.035249628
5	0xbc26f9ef	-0.010191425
6	0x3db4cd33	0.08828201
7	0x3d3919f4	0.045190766
8	0x3d3d0517	0.046147432
9	0x3dda4f6f	0.10659682
10	0x3d86795d	0.06566117
11	0x3cb00213	0.021485364
12	0x3d75ae59	0.059980724
13	0x3d3b4f07	0.045729663
14	0x3d7d119f	0.061784383
15	0x3d93f862	0.0722511
16	0x3c48c2f9	0.012253516
17	0x3c9d4b26	0.019200873
18	0x3d529fd8	0.05142197
19	0x3d6ac305	0.05731489
20	0x3ce8e815	0.028430978
21	0x3d0ce0dc	0.03439413
22	0x3d141d42	0.036160715
23	0x3d2ed01f	0.04267895
24	0x3d17de47	0.037077215
25	0x3d04cd22	0.032422192
26	0xbc3a580b	-0.01137353
27	0x3d39451e	0.04523193
28	0xbc8f4d10	-0.017492801
29	0x3db3749d	0.087624766
30	0xbc61b06c	-0.013774972
31	0x3d40dbec	0.047084734

layer4.1.running_mean f4 [32]
0	0xbfdc9a25	-1.7234541
1	0xbe87ed6d	-0.2654833
2	0x3ea0ce07	0.31407186
3	0x3f160ace	0.58610237
4	0x3e97e7d6	0.29669064
5	0x3ed66033	0.4187027
6	0x3eb4926d	0.35267964
7	0xbfef449a	-1.869281
8	0x3cb7da0b	0.022442838
9	0xbdfbc1d0	-0.12292826
10	0x3df5e22e	0.12006031
11	0xbdf4ce8a	-0.11953457
12	0x3e4eb68f	0.20186828
13	0xbe4102c3	-0.1884871
14	0x3dd959bf	0.10612821
15	0x3d9563a4	0.072943956
16	0x3eaedc3b	0.34152398
17	0x3e15a49a	0.14613572
18	0x3e0d49dc	0.13797706
19	0xbe6d30d1	-0.23163153
20	0xbe81ef06	-0.25377673
21	0x3de2d2b4	0.11075345
22	0x3d49e000	0.04928589
23	0x3ea55c55	0.32297006
24	0xbd3bd498	-0.045857042
25	0xbff03daf	-1.8768824
26	0x3eee9189	0.4659541
27	0xbcc0e5a1	-0.023546996
28	0x3f00ee88	0.5036397
29	0xbe193003	-0.14959721
30	0x3ed41159	0.41419485
31	0xbf9cb3fa	-1.2242424

layer4.1.running_var f4 [32]
0	0x401e4bb5	2.4733708
1	0x3fa6eb4b	1.3040556
2	0x3f436975	0.7633279
3	0x3f3bdf0b	0.7338721
4	0x3f7268c9	0.9469114
5	0x3f4d583a	0.8021275
6	0x3f4b9725	0.79527503
7	0x4036fcd1	2.8591807
8	0x3f8fb1a0	1.1226082
9	0x3f494c9e	0.78632534
10	0x3f885be2	1.065304
11	0x3fa253cf	1.2681826
12	0x3f64e48e	0.89411247
13	0x3f82d1b9	1.0220252
14	0x3f992a98	1.1966124
15	0x3f78806d	0.9707096
16	0x3f5c70d3	0.86109656
17	0x3f719396	0.94365823
18	0x3f84d98c	1.037889
19	0x3f67263c	0.90292716
20	0x3f82d8b0	1.0222378
21	0x3f43900f	0.7639169
22	0x3f7b4a6a	0.9816042
23	0x3f50b325	0.8152335
24	0x3f8fc12d	1.1230828
25	0x40346c16	2.819097
26	0x3f4db7e0	0.80358696
27	0x3f9fb2ea	1.2476475
28	0x3f66de7e	0.90183246
29	0x3f51ade0	0.8190594
30	0x3f782c7f	0.96942896
31	0x4004dea3	2.0760887

fc.weight f4 [1, 1152]
0	0x3c4eada3	0.01261464
1	0xbc8b2ebe	-0.016990062
2	0xbcd0a972	-0.025471423
3	0xbcbe5941	-0.023235919
4	0xbcc47f86	-0.02398659
5	0xbbcb1b57	-0.0061983275
6	0xbc35d452	-0.011097984
7	0xbd8f4a2c	-0.06996569
8	0xbdb7d470	-0.08976066
9	0xbdb518ea	-0.088426426
10	0xbd71a5a7	-0.05899587
11	0xbc86bf83	-0.016448742
12	0xbd10572d	-0.035239387
13	0xbd67d2e3	-0.0565976
14	0xbdc30ae0	-0.095235586
15	0xbdea89b6	-0.114520475
16	0xbd9af72e	-0.07566677
17	0xbd45f252	-0.048326798
18	0xbc71b831	-0.014753387
19	0xbdba65f9	-0.09101481
20	0xbdb685aa	-0.08912213
21	0xbdbbed77	-0.09176152
22	0xbdc008d0	-0.09376681
23	0xbd2908ee	-0.04126828
24	0xbc1880f1	-0.009308086
25	0xbd8a3b49	-0.06749589
26	0xbdaf0a49	-0.085468836
27	0xbd5ee21e	-0.05441486
28	0xbd1516a9	-0.036398564
29	0xbc2598ad	-0.0101072015
30	0x3bd6ca00	0.006554842
31	0xbccfc991	-0.025364669
32	0xbc13446b	-0.00898848
33	0xbc8925b0	-0.016741604
34	0xbc99463e	-0.018710252
35	0xbc16d779	-0.009206646
36	0x3c5250ff	0.012836694
37	0xba6ba566	-0.0008989185
38	0xbc5d6fa3	-0.013515386
39	0x3bb37777	0.005476888
40	0x3d104d34	0.035229877
41	0x3b7dcd2b	0.0038727026
42	0xbc5f6e74	-0.013637174
43	0xbccdcbfb	-0.02512168
44	0xbce8f09e	-0.028435048
45	0xbc148b3b	-0.009066398
46	0x3d67503c	0.056473
47	0x3d0af7ea	0.033927836
48	0x3ba9eb68	0.0051855333
49	0x3ce78000	0.028259277
50	0xbd84c647	-0.06483131
51	0xbda3ec86	-0.08004098
52	0x3d19d165	0.03755321
53	0xbb2610e2	-0.0025339653
54	0x3c8767b5	0.016528944
55	0xbb590d61	-0.0033119547
56	0xbdb82867	-0.08992081
57	0xbe075746	-0.13216886
58	0xbd39272e	-0.04520338
59	0x3c959a37	0.018262012
60	0x3cc1b45a	0.023645569
61	0x3ccdd5e6	0.025126409
62	0xbd17ac72	-0.03702969
63	0xbd7a01d6	-0.061036907
64	0x3c8246e0	0.015902936
65	0xbcc43097	-0.02394895
66	0x3c9175e2	0.017756406
67	0x3d0ad33c	0.033892855
68	0xbc3bb91c	-0.011457708
69	0xbc77d0c8	-0.015125461
70	0xbc587c38	-0.01321321
71	0xbc45a4a3	-0.012063178
72	0xbba44f14	-0.0050143097
73	0xbd8a4079	-0.067505784
74	0xbcf63064	-0.030052371
75	0xbcea1356	-0.028573673
76	0xbcd7fb3d	-0.026364917
77	0xbbe6607c	-0.007030545
78	0xbcf05f85	-0.029342422
79	0x3d2300a3	0.03979553
80	0x3d8d5290	0.06900513
81	0x3d477296	0.048693262
82	0xbc54ecfd	-0.0129959555
83	0x3d079089	0.033096824
84	0x3c9202de	0.017823633
85	0x3d8918ed	0.06694207
86	0xbc811a4b	-0.015759608
87	0x3cb43f64	0.022002883
88	0x3d403055	0.046921093
89	0x3d2a86a5	0.041632313
90	0xb99417df	-0.00028246545
91	0x3bfeee95	0.007779906
92	0xbcf85bb2	-0.030317161
93	0x3ce5e766	0.028064441
94	0x3e0f0b58	0.13969171
95	0x3d9321bf	0.07184171
96	0x3ca1c3e1	0.019746723
97	0x3d869d15	0.0657293
98	0x3d2a7eca	0.04162482
99	0x3e01c6a7	0.12673436
100	0x3c87fdae	0.016600456
101	0x3bd6aea8	0.0065515824
102	0x3c2cafdf	0.010539978
103	0x3cecd2af	0.028909056
104	0x3d044415	0.03229149
105	0xbcd4d250	-0.025979191
106	0xbd5b91dd	-0.053605903
107	0xbca1e010	-0.019760162
108	0x3d376658	0.044775337
109	0xbb2bf49b	-0.0026238326
110	0xbd432c1e	-0.047649495
111	0x3d32ca41	0.043649916
112	0xbd062b40	-0.03275609
113	0xbd60a0c3	-0.054840814
114	0xba4d06a5	-0.00078211195
115	0xbd14e6b5	-0.036352832
116	0x3cd96272	0.0265362
117	0x3d323155	0.043504078
118	0x3d9ee186	0.07757859
119	0xbd0cd033	-0.03437824
120	0xbd128b9e	-0.03577768
121	0xbbcfc6fb	-0.006340859
122	0xbcdf4d23	-0.027258461
123	0xbd177db0	-0.0369851
124	0x3dcb3b0f	0.09923374
125	0x3ca959c9	0.020672696
126	0x3d2e6797	0.04257926
127	0x3d69cd2c	0.057080433
128	0xbb66524f	-0.0035144275
129	0xbd34a2c4	-0.044100538
130	0x3d10284a	0.035194673
131	0x3cd2ad37	0.02571736
132	0xbc1268a0	-0.008936077
133	0x3b515d89	0.003194662
134	0x3da5810b	0.080812536
135	0x3daae519	0.08344478
136	0x3d95a111	0.073061116
137	0x3c4e4c92	0.012591498
138	0xbd1aa0b6	-0.037750922
139	0xbd8a209f	-0.06744503
140	0xbd4350e3	-0.04768456
141	0xbbf43176	-0.0074521853
142	0xbd71a0e8	-0.058991343
143	0xbcd5d480	-0.026102304
144	0xbc5c7b80	-0.013457179
145	0x3d19100b	0.037368815
146	0x3d518a45	0.051157255
147	0x3d98e9db	0.074664794
148	0xbb0548bb	-0.002033754
149	0xbbd20498	-0.006409239
150	0xbcbe9eaf	-0.023269026
151	0xbcd6e8a8	-0.026233986
152	0xbd106b3b	-0.035258513
153	0x3d27acf0	0.04093641
154	0x3dcba457	0.09943455
155	0x396ac41c	0.00022389035
156	0xbd3012c6	-0.042986654
157	0xbd901e86	-0.07037072
158	0xbdb7ad13	-0.08968558
159	0xbcf53966	-0.029934596
160	0x3db82a8d	0.08992491
161	0x3c11f127	0.008907593
162	0xbcdc1ece	-0.026870158
163	0xbd60f6fd	-0.054923046
164	0xbd488e8a	-0.04896406
165	0x3caa0d7d	0.020758385
166	0x3d9e3d1b	0.07726499
167	0xbcaf887d	-0.021427387
168	0x3c57f021	0.01317981
169	0x3ccae053	0.02476517
170	0x3cddc965	0.027073571
171	0x3d241f9f	0.04006922
172	0x3d010568	0.031499296
173	0x3c2c9a23	0.010534796
174	0x3d47593e	0.048669092
175	0xbc8ac04f	-0.016937403
176	0xbc0d0174	-0.0086063035
177	0xbd1c3787	-0.038138893
178	0xba999e3a	-0.0011720129
179	0xbcabd5fa	-0.020976055
180	0x3cebb21a	0.028771449
181	0x3d3e0bbe	0.046397917
182	0x3d9a49e5	0.075336255
183	0xbc534b5a	-0.012896383
184	0x3d7fa709	0.062415157
185	0x3d464877	0.04840895
186	0x3b92c9a7	0.0044796052
187	0x3d38f99b	0.045159917
188	0x3d01307e	0.031540386
189	0xbca106a3	-0.019656485
190	0xbcdadd40	-0.026716828
191	0x3bf5c871	0.007500701
192	0xbbd4032d	-0.006470105
193	0x3a9252aa	0.0011163552
194	0xbd84266a	-0.064526394
195	0x3df0bcd8	0.11754769
196	0x3d357e41	0.04430986
197	0xbc8c7051	-0.0171434
198	0xbd0819fb	-0.033227902
199	0xbc226fdf	-0.009914367
200	0xbd6d821b	-0.057985406
201	0x3d13a715	0.036048014
202	0xbbecb9f6	-0.0072243167
203	0xbd30193a	-0.042992808
204	0xbcddd418	-0.027078673
205	0xbb48fb13	-0.003066723
206	0xbd5386bc	-0.051642165
207	0x3a4d98e3	0.0007842911
208	0xbd8ba9e5	-0.06819514
209	0xbd35f81c	-0.04442607
210	0x3c5bc37b	0.013413305
211	0x3c6c3bda	0.014418567
212	0x3c0200dc	0.007934775
213	0x3cc2f375	0.02379773
214	0xbc89cefc	-0.01682233
215	0xbc3b6c82	-0.0114394445
216	0xbd384d8a	-0.044995822
217	0xbc0de426	-0.008660352
218	0x3d57a2d6	0.052645527
219	0x3da7d561	0.08194996
220	0x3d0b8346	0.03406074
221	0xbb4a74ec	-0.0030892445
222	0x3bbf25fe	0.0058333864
223	0x3cc7cc49	0.024389403
224	0xb91e9cab	-0.00015126418
225	0x3c3b0aa7	0.011416114
226	0x3e0a7b87	0.13523684
227	0xbcdc3c72	-0.026884291
228	0xba121628	-0.00055727595
229	0x3c37db0d	0.011221659
230	0xbd5f8ab8	-0.054575652
231	0xbd5a7527	-0.05333438
232	0x3e1075a6	0.1410738
233	0x3d162963	0.036660563
234	0x3d0c4aa0	0.034250855
235	0x3b15bd92	0.0022848588
236	0x3b828679	0.0039833155
237	0x3c8364ce	0.016039278
238	0x3dc1e3f6	0.09467308
239	0xbd166390	-0.036716044
240	0x3d0cd767	0.03438511
241	0x3c870a25	0.01648433
242	0x3c6aa816	0.014322301
243	0x3cd190e3	0.025581783
244	0x3d2882b0	0.04114026
245	0xbc60d1dc	-0.013721909
246	0x3d0ce6ad	0.034399677
247	0x3bcd5221	0.006265894
248	0x3cdbfa54	0.026852764
249	0x3d0c282e	0.034218006
250	0x3d267272	0.040636487
251	0x3ad69af7	0.0016373087
252	0x3c132f60	0.008983463
253	0xbba70c18	-0.0050978772
254	0xbc9955ec	-0.018717729
255	0xbcb4b1e9	-0.02205749
