data/chkbox_models/chkbox_rnd11_2_bestVal.pt (torch_old, 35085 bytes, 25 tensors)

layer1.0.weight f4 [4, 1, 3, 3]
0.020574255 0.24640544 -0.08824229 0.037717722 -0.08011063 0.037483525 0.083046325 -0.00438316
0.13976477 -0.053520925 -0.048511077 0.06798608 -0.02145604 0.13705638 0.13061857 0.2581096
0.23545994 0.033231717 0.16851269 0.32300517 0.10356125 0.20506987 0.005207499 0.078126505
-0.19893692 0.2426701 -0.19982393 0.23823152 -0.114565305 0.33675453 0.22576721 -0.149117
0.33590296 0.29690498 -0.16254245 0.37802345
00000000: 578b a83c b551 7c3e 60b8 b4bd e67d 1a3d
00000010: 0b11 a4bd 5388 193d 3114 aa3d 9ca0 8fbb
00000020: 7f1e 0f3e c238 5bbd 8db3 46bd 493c 8b3d
00000030: 94c4 afbc 8258 0c3e e0c0 053e f126 843e
00000040: 691c 713e fb1d 083d 978e 2c3e ef60 a53e
00000050: ec17 d43d d6fd 513e aba3 aa3b ca00 a03d
00000060: 1fb6 4bbe 837e 783e a59e 4cbe f7f2 733e
00000070: 37a1 eabd 176b ac3e 852f 673e 20b2 18be
00000080: 79fb ab3e ee03 983e 8771 26be 4a8c c13e

layer1.0.bias f4 [4]
0.043864224 0.16919507 0.04160701 0.0394193
00000000: f9aa 333d 7941 2d3e 1d6c 2a3d 2276 213d

layer1.1.weight f4 [4]
0.9782202 1.0267327 1.014031 0.97963494
00000000: a46c 7a3f fa6b 833f c5cb 813f 5bc9 7a3f

layer1.1.bias f4 [4]
-0.005534488 0.0149532845 -0.036949135 0.007336064
00000000: a65a b5bb 9ffe 743c fa57 17bd 5d63 f03b

layer1.1.running_mean f4 [4]
0.31874502 0.6873442 0.55347604 1.0067564
00000000: 8c32 a33e caf5 2f3f 9bb0 0d3f 65dd 803f

layer1.1.running_var f4 [4]
0.11288231 0.41279626 0.4378969 1.3391907
00000000: d72e e73d 085a d33e 0634 e03e 9a6a ab3f

layer2.0.weight f4 [8, 4, 3, 3]
0.11212451 0.063729435 -0.035230853 0.12821467 0.060011886 0.13364522 0.16362269 -0.046829373
-0.13924223 0.1012464 -0.106039844 -0.13883154 0.18271498 0.046587393 -0.16681753 0.073851064
0.1461796 -0.12904364 -0.04662486 -0.13438801 0.07378294 -0.053107075 -0.030853376 0.027214706
0.0925625 0.060107708 0.030164378 0.06485595 0.14490797 0.1776865 0.10704623 -0.121723585
-0.16758192 -0.009701649 0.1656647 0.09282988 0.16684313 0.082129814 0.10840564 -0.023423962
-0.07591142 -0.055646963 0.04006548 0.07213991 -0.055463843 0.06134215 -0.12532197 -0.060278397
0.047816657 0.101369224 0.11227753 0.09221341 -0.1257304 -0.042086937 0.0184399 -0.09110057
0.024373539 -0.08525393 0.05009326 -0.15598188 -0.038226996 -0.16434886 -0.1514431 0.053199954
-0.16058032 0.097591124 -0.08776133 -0.11867492 0.08526148 0.1357839 0.04783281 0.16458842
-0.07674069 -0.10088041 -0.1023594 0.0046147956 0.029335385 0.028124794 0.02051004 -0.08386917
0.17708781 -0.11514393 0.08842407 -0.08637213 0.15705252 -0.021642575 0.12870117 -0.09886978
0.09018814 -0.10598845 0.0100459885 -0.05658008 -0.14829275 -0.09002464 -0.1723415 0.030930772
-0.109359235 -0.10672038 0.16577443 -0.005555704 -0.099112675 0.0038349333 -0.11835143 0.17187339
0.031372074 0.12312735 -0.06676446 -0.06322152 0.074224606 -0.020360421 -0.024461858 -0.12424137
-0.04343497 0.14993756 -0.066204 0.119058505 -0.10726466 0.061749246 0.031229863 0.20263922
0.16514575 -0.076858744 0.15327217 0.17949125 0.15746874 0.014640789 0.17732477 -0.12392234
0.079395644 -0.089467764 0.14472711 0.11318096 -0.020147411 0.16239037 -0.09258277 0.008844007
-0.12122907 -0.026353944 0.019171804 0.08261425 -0.080674954 0.052200723 -0.010918727 0.07576132
0.08778031 -0.015293408 0.08817052 0.05628153 0.016918462 -0.015044707 -0.07653175 -0.16054292
-0.08666657 -0.03834013 0.109687835 0.018629787 0.06557596 -0.02430347 0.03427947 -0.09092106
-0.022763828 -0.042817794 0.010384096 0.14802487 -0.15563059 0.17055823 0.10682858 0.13508068
0.035821706 0.03450528 -0.042452075 -0.09866573 0.05034254 -0.07012068 0.16983216 0.042060006
-0.07457994 -0.08985072 0.0073845177 -0.05228306 0.18568887 -0.074723445 0.024297137 0.11711817
-0.01788994 0.07193964 0.11202412 -0.098161645 0.14539763 -0.11573939 -0.16260597 -0.0039658863
-0.07815681 -0.03658732 -0.14380129 -0.09251415 -0.111802086 -0.09607579 0.104561284 0.1300002
0.04935557 0.092162095 -0.041149013 0.07221472 0.1653052 -0.14073537 -0.12323164 0.04606936
0.02255452 -0.13082752 -0.06301666 -0.09844285 -0.16383028 0.09221534 -0.07489607 0.0848212
0.022130918 -0.113231696 0.054624084 -0.11425456 0.040325653 0.113587566 0.1425752 -0.05732131
-0.052560676 -0.052910965 -0.071614884 0.077953696 -0.0027366707 -0.14238153 0.09190913 0.20089877
0.07604305 0.0018664697 0.038764093 0.049786966 0.05659883 -0.1446634 0.023100587 -0.093667075
-0.11858104 -0.087959364 -0.0965999 0.006300109 -0.04441569 -0.023210388 -0.027173495 0.06084652
-0.037550036 0.17202196 -0.03763254 -0.09949834 -0.15767659 0.015849551 -0.02077893 0.03465832
00000000: 89a1 e53d 9484 823d 3a4e 10bd b54a 033e
00000010: 06cf 753d 4bda 083e b58c 273e 28d0 3fbd
00000020: 8495 0ebe 465a cf3d 6b2b d9bd db29 0ebe
00000030: a319 3b3e 6cd2 3e3d 37d2 2abe 3a3f 973d
00000040: 1bb0 153e 0424 04be b6f9 3ebd 039d 09be
00000050: 831b 973d ce86 59bd 38c0 fcbc 60f1 de3c
00000060: 6891 bd3d 8033 763d 491b f73c 32d3 843d
00000070: c162 143e 73f3 353e 0e3b db3d 374a f9bd
00000080: 989a 2bbe aaf3 1ebc 02a4 293e 981d be3d
00000090: edd8 2a3e ad33 a83d c703 de3d 9ce3 bfbc
000000a0: 7277 9bbd 12ee 63bd b31b 243d 17be 933d
000000b0: 0e2e 63bd e841 7b3d 6754 00be 7be6 76bd
000000c0: 66db 433d ab9a cf3d c3f1 e53d 62da bc3d
000000d0: 78bf 00be 5a63 2cbd 460f 973c f092 babd
000000e0: 04ab c73c 9d99 aebd 972e 4d3d b7b9 1fbe
000000f0: e993 1cbd 114b 28be e613 1bbe 32e8 593d
00000100: 2b6f 24be dbdd c73d 36bc b3bd d60b f3bd
00000110: 929d ae3d ef0a 0b3e 56ec 433d de89 283e
00000120: 392a 9dbd 639a cebd cea1 d1bd b637 973b
00000130: c350 f03c f865 e63c ac04 a83c 99c3 abbd
00000140: 8256 353e 95d0 ebbd ae17 b53d dfe3 b0bd
00000150: 60d2 203e c54b b1bc 3dca 033e 3d7c cabd
00000160: 8fb4 b83d 7910 d9bd ee97 243c 84c0 67bd
00000170: 0eda 17be d75e b8bd 4a7a 30be 8862 fd3c
00000180: bcf7 dfbd 3790 dabd c6c0 293e 9f0c b6bb
00000190: 96fb cabd 8153 7b3b 3c62 f2bd 94ff 2f3e
000001a0: 0180 003d 312a fc3d cebb 88bd 497a 81bd
000001b0: 1203 983d e6ca a6bc 3c64 c8bc 4272 febd
000001c0: dee8 31bd 3b89 193e f695 87bd f2d4 f33d
000001d0: 93ad dbbd c7ec 7c3d c5d5 ff3c a880 4f3e
000001e0: f81b 293e 1e68 9dbd 61f3 1c3e 8ecc 373e
000001f0: 7c3f 213e ebdf 6f3c a094 353e ffca fdbd
00000200: 2f9a a23d e03a b7bd 5833 143e 6bcb e73d
00000210: 2f0c a5bc a949 263e 099c bdbd 74e6 103c
00000220: f246 f8bd 3ae4 d7bc 300e 9d3c a931 a93d
00000230: e938 a5bd 6dd0 553d 76e4 32bc c028 9b3d
00000240: 2ac6 b33d 3491 7abc bf92 b43d 7687 663d
00000250: 9698 8a3c 137e 76bc aebc 9cbd 5d65 24be
00000260: 3e7e b1bd 8a0a 1dbd 04a4 e03d 7f9d 983c
00000270: b04c 863d 1218 c7bc a168 0c3d d234 babd
00000280: 357b babc b661 2fbd 0e22 2a3c d593 173e
00000290: a05d 1fbe d1a6 2e3e f1c8 da3d 9752 0a3e
000002a0: c8b9 123d 6955 0d3d 3ae2 2dbd 4211 cabd
000002b0: fb33 4e3d 6e9b 8fbd 7be8 2d3e 1d47 2c3d
000002c0: 5ebd 98bd a703 b8bd d3f9 f13b c326 56bd
000002d0: 3925 3e3e 9b08 99bd ca0a c73c a7db ef3d
000002e0: ec8d 92bc 1755 933d e76c e53d f908 c9bd
000002f0: 1ee3 143e c608 edbd 2e82 26be 44f4 81bb
00000300: ad10 a0bd 96dc 15bd a540 13be 0f78 bdbd
00000310: 7ef8 e4bd 62c3 c4bd 3a24 d63d c61e 053e
00000320: 1129 4a3d 7bbf bc3d de8b 28bd 50e5 933d
00000330: c445 293e ef1c 10be df60 fcbd 3ab3 3c3d
00000340: 42c4 b83c a6f7 05be e10e 81bd 689c c9bd
00000350: 20c3 27be 65db bc3d 1c63 99bd bdb6 ad3d
00000360: e64b b53c 05e6 e7bd 81bd 5f3d 4bfe e9bd
00000370: 832c 253d 99a0 e83d 3cff 113e c0c9 6abd
00000380: dd49 57bd 2bb9 58bd d3aa 92bd 30a6 9f3d
00000390: b759 33bb 77cc 11be db3a bc3d 68b8 4d3e
000003a0: 75bc 9b3d 55a4 f43a 19c7 1e3d 6bed 4b3d
000003b0: 2dd4 673d a422 14be 713d bd3c 86d4 bfbd
000003c0: 9eda f2bd 0a24 b4bd 2bd6 c5bd 2571 ce3b
000003d0: 3aed 35bd b623 bebc f39a debc 333a 793d
000003e0: 11ce 19bd 8626 303e 9424 1abd c9c5 cbbd
000003f0: f975 21be ebd6 813c 9338 aabc e2f5 0d3d

layer2.0.bias f4 [8]
0.1566264 0.027867127 0.07922074 0.0062051876 -0.04774802 0.14204809 0.0481473 -0.019681837
00000000: ac62 203e 9a49 e43c 7c3e a23d e354 cb3b
00000010: 6e93 43bd 0e75 113e 1a36 453d ce3b a1bc

layer2.1.weight f4 [8]
1.0044776 0.9846843 0.98463625 1.0184681 0.9763741 1.0027858 0.9947518 1.0147252
00000000: b992 803f 4514 7c3f 1f11 7c3f 2a5d 823f
00000010: a7f3 793f 495b 803f 0ea8 7e3f 84e2 813f

layer2.1.bias f4 [8]
0.0022918116 0.038263395 0.037888512 0.0085149165 -0.028216364 -0.051709417 0.024661995 0.030779148
00000000: 3832 163b 14ba 1c3d fc30 1b3d 2682 0b3c
00000010: 0126 e7bc 41cd 53bd f407 ca3c 8d24 fc3c

layer2.1.running_mean f4 [8]
0.6256583 -0.008612234 -0.20930165 0.63128656 0.079837024 -0.056959413 -0.051451948 -0.1775777
00000000: 242b 203f 541a 0dbc 2c53 56be ff9b 213f
00000010: 9881 a33d 464e 69bd 47bf 52bd eed6 35be

layer2.1.running_var f4 [8]
0.47466114 0.03875751 0.21757717 0.6136289 0.1703257 0.21723242 0.06341094 0.063584484
00000000: c906 f33e 32c0 1e3d 8dcc 5e3e c916 1d3f
00000010: dc69 2e3e 2d72 5e3e 98dd 813d 9538 823d

layer3.0.weight f4 [16, 8, 3, 3]
0.14892736 -0.09925416 0.0075108353 -0.025931831 0.07643545 0.052182022 -0.017486226 -0.051279716
0.00588228 0.033755783 0.0036392186 0.037313405 -0.0355149 0.042791713 -0.058451395 0.022427997
-0.08514477 -0.015871251 -0.066018514 -0.053400468 -0.05803548 0.028650587 -0.069299795 0.058280993
-0.07886534 0.023229923 0.025105493 -0.005881173 0.011123981 0.0009092727 0.033813596 -0.10233982
-0.04533467 -0.08120816 0.0076699103 0.041633092 0.013514952 0.060733467 -0.08746174 0.10694038
-0.14091179 0.022328148 0.0047475793 0.106418125 -0.05864855 -0.014251835 -0.05157359 0.035370518
-0.007412919 0.0187769 0.0187891 -0.052688755 -0.11329342 0.05353432 0.0021537594 0.028784927
-0.12850156 -0.14969744 0.034458414 0.07905392 -0.011610448 0.019939102 0.055054463 0.15215929
0.09391955 0.023750808 -0.03306078 -0.047348887 -0.04162916 -0.0653594 -0.11692841 0.0111173205
0.102009006 -0.050432634 -0.027187778 0.05581648 0.021336896 -0.098578475 -0.022840722 0.020011565
-0.13191438 0.015165037 -0.051884938 -0.04841244 0.02884469 -0.051230937 0.033168323 0.11458031
-0.0028842674 0.025928462 0.10251493 0.10649382 0.11913644 0.03174198 0.14078535 0.09025489
0.01962897 0.041560516 -0.0059188856 -0.091214456 0.0005612568 0.0852646 -0.014577229 0.016788466
0.050630223 -0.01282364 -0.101489976 0.05801775 0.06678708 -0.15402898 0.013183774 0.094764695
0.05885417 0.011443108 -0.10994976 -0.028010095 -0.0038773252 0.037791792 -0.09344214 -0.05657902
0.0053500296 0.0659139 -0.021015981 0.063023664 0.031686988 -0.0069508073 0.054853372 0.09924467
0.05731124 0.027121136 -0.008496217 0.06467576 0.03628259 0.009739237 0.087724864 -0.07433914
0.053432092 0.018758843 0.009256944 -0.004755975 -0.048582274 -0.11335337 0.008959483 -0.04713014
-0.08065903 0.094859324 -0.08077395 -0.105500326 0.11910267 -0.0023826596 0.0018389829 -0.04982484
-0.0012389529 -0.050869692 -0.11482056 -0.059218273 0.12074115 -0.060552824 0.012757874 -0.014642703
-0.11220202 -0.0233465 -0.0341821 -0.07458758 0.07237413 -0.063935935 -0.09400531 -0.00066194625
0.04623244 0.061108388 0.0456749 -0.1309173 -0.0890059 0.024140159 -0.0291924 -0.014221149
-0.10497355 -0.027406855 -0.0092638675 -0.070894964 0.08644804 0.08520268 0.030787734 -0.031334683
-0.07748803 0.0013147987 0.06382403 0.044255666 0.027789412 0.0825025 -0.12852727 0.13374637
0.04739694 -0.12662792 0.08035512 0.059702024 -0.0010014192 -0.043139283 -0.048790835 -0.056439873
-0.024851426 -0.009657284 0.046644855 -0.033695407 -0.13862182 -0.14901559 -0.15380734 0.053144004
0.06630508 0.07889559 -0.010333967 0.015718814 -0.016190853 -0.09811539 -0.11899268 0.0761959
-0.019577093 0.03551814 0.069001056 0.0127122905 -0.082095146 -0.02697108 0.10643504 0.005413587
-0.12261546 -0.0149631975 -0.044811636 -0.05066829 0.005517065 -0.010262567 -0.035656154 0.03433418
-0.0067030187 0.026320532 -0.06187986 -0.0063499557 -0.16346468 -0.07187785 -0.0023177061 0.08001125
0.026927872 0.00994838 -0.0018584031 -0.027821805 0.07173773 -0.011082412 -0.05545903 0.093103886
0.00082269387 0.024120783 -0.055259675 -0.10109946 -0.09301969 -0.054544665 0.1119576 0.0682773
00000000: 6a80 183e c445 cbbd 741d f63b fe6e d4bc
00000010: 308a 9c3d d1bc 553d 463f 8fbc ae0a 52bd
00000020: 24c0 c03b 8143 0a3d f57f 6e3b f1d5 183d
00000030: 1278 11bd 5d46 2f3d bb6a 6fbd ebba b73c
00000040: 6260 aebd 6d04 82bc b734 87bd 73ba 5abd
00000050: 9db6 6dbd a3b4 ea3c 0ded 8dbd 0db8 6e3d
00000060: 2784 a1bd ae4c be3c 09aa cd3c dbb6 c0bb
00000070: 5c41 363c 425c 6e3a 2080 0a3d 8a97 d1bd
00000080: d9b0 39bd 7750 a6bd df53 fb3b 7687 2a3d
00000090: d16d 5d3c a8c3 783d 241f b3bd 8f03 db3d
000000a0: 2e4b 10be 85e9 b63c 9591 9b3b bff1 d93d
000000b0: 7639 70bd 8780 69bc d43e 53bd ade0 103d
000000c0: 12e8 f2bb 03d2 993c 99eb 993c 2ad0 57bd
000000d0: 6106 e8bd ce46 5b3d 1626 0d3b 5ece eb3c
000000e0: ea95 03be 494a 19be 4424 0d3d 06e7 a13d
000000f0: c039 3ebc 5457 a33c ca80 613d a5cf 1b3e
00000100: e558 c03d 0e91 c23c be6a 07bd e8f0 41bd
00000110: 5783 2abd 26db 85bd 2a78 efbd 6c25 363c
00000120: 19ea d03d 7392 4ebd e7b8 debc d29f 643d
00000130: b7ca ae3c 83e3 c9bd 771c bbbc 4bef a33c
00000140: 9014 07be c676 783c 4d85 54bd 1f4c 46bd
00000150: b34b ec3c 88d7 51bd 82db 073d 15a9 ea3d
00000160: fa05 3dbb ed67 d43c 59f3 d13d 6f19 da3d
00000170: cefd f33d e103 023d 092a 103e 8ed7 b83d
00000180: efcc a03c 5c3b 2a3d 36f3 c1bb a5ce babd
00000190: 4e21 133a 359f ae3d 54d5 6ebc f787 893c
000001a0: a361 4f3d 3f1a 52bc fad9 cfbd 05a4 6d3d
000001b0: aac7 883d c6b9 1dbe c200 583c fe13 c23d
000001c0: 1211 713d e07b 3b3c 572d e1bd 6d75 e5bc
000001d0: b91a 7ebb 91cb 1a3d 985e bfbd 67bf 67bd
000001e0: 4d4f af3b defd 863d b529 acbc 8d12 813d
000001f0: 37ca 013d 99c3 e3bb eead 603d ca40 cb3d
00000200: 31bf 6a3d 252d de3c b833 0bbc ba74 843d
00000210: 0e9d 143d 5291 1f3c 18a9 b33d 1e3f 98bd
00000220: 9cdb 5a3d 25ac 993c 70aa 173c 03d8 9bbb
00000230: 35fe 46bd d025 e8bd ccca 123c 890b 41bd
00000240: 9030 a5bd 9b45 c23d d06c a5bd 8e10 d8bd
00000250: 1aec f33d 6526 1cbb 070a f13a 2215 4cbd
00000260: 5c64 a2ba bd5c 50bd 0b27 ebbd dc8e 72bd
00000270: 2347 f73d 3d06 78bd 6706 513c f3e7 6fbc
00000280: 2cca e5bd 2941 bfbc 8802 0cbd 60c1 98bd
00000290: e338 943d d8f0 82bd db85 c0bd 7686 2dba
000002a0: 3a5e 3d3d ca4c 7a3d 9b15 3b3d 2f0f 06be
000002b0: ba48 b6bd 95c1 c53c e624 efbc d2ff 68bc
000002c0: 5ffc d6bd 5784 e0bc 7ac7 17bc 6131 91bd
000002d0: ac0b b13d be7e ae3d 8f36 fc3c cc58 00bd
000002e0: 0bb2 9ebd 5355 ac3a 2cb6 823d 6e45 353d
000002f0: 9fa6 e33c 12f7 a83d a79c 03be cff4 083e
00000300: 4b23 423d c0aa 01be 3a91 a43d 1c8a 743d
00000310: 0d42 83ba d1b2 30bd e6d8 47bd 7f2d 67bd
00000320: 3895 cbbc 9639 1ebc ad0e 3f3d 3204 0abd
00000330: e1f2 0dbe 8b97 18be ac7f 1dbe 87ad 593d
00000340: f5ca 873d 0394 a13d cd4f 29bc bec4 803c
00000350: aea2 84bc b9f0 c8bd 6fb2 f3bd 990c 9c3d
00000360: 2460 a0bc 787b 113d 6d50 8d3d 3647 503c
00000370: 8021 a8bd 74f2 dcbc 9dfa d93d 7664 b13b
00000380: d01d fbbd 3328 75bc 688c 37bd 8e89 4fbd
00000390: 7fc8 b43b 5324 28bc 300c 12bd ffa1 0c3d
000003a0: ffa4 dbbb 289e d73c bc75 7dbd 4a13 d0bb
000003b0: 4963 27be b234 93bd a8e4 17bb f0dc a33d
000003c0: d797 dc3c 88fe 223c a995 f3ba 8eea e3bc
000003d0: 3beb 923d 0193 35bc 0229 63bd 40ad be3d
000003e0: 0daa 573a f398 c53c f857 62bd 3c0d cfbd
000003f0: 1b81 bebd 3a6a 5fbd 074a e53d f8d4 8b3d

layer3.0.bias f4 [16]
0.115073554 -0.10108581 0.013546063 -0.07004513 -0.028130267 -0.04301548 0.061444245 0.01883506
-0.0823114 0.03044575 -0.0661578 -0.046332534 0.0051198546 -0.026749318 0.0953022 0.088908404
00000000: afab eb3d 1406 cfbd 4ef0 5d3c d273 8fbd
00000010: 7271 e6bc 0031 30bd f6ac 7b3d fc4b 9a3c
00000020: e192 a8bd 5e69 f93c be7d 87bd 2fc7 3dbd
00000030: 74c4 a73b 6321 dbbc cd2d c33d 9c15 b63d

layer3.1.weight f4 [16]
1.0043614 0.9529318 1.0059575 0.9905611 1.0004547 0.9823314 1.021843 1.0069864
0.9936453 0.97896945 1.0190089 0.9655003 0.9580256 1.0247694 1.0007287 0.9821089
00000000: ea8e 803f 57f3 733f 37c3 803f 6a95 7d3f
00000010: e60e 803f 127a 7b3f c0cb 823f eee4 803f
00000020: 8a5f 7e3f be9d 7a3f e26e 823f 072b 773f
00000030: 2a41 753f a52b 833f e117 803f 7d6b 7b3f

layer3.1.bias f4 [16]
-0.110269725 -0.14517213 -0.05568561 -0.06743896 -0.015738811 -0.061658803 -0.19453958 -0.12606479
-0.059189435 -0.12525354 -0.033727255 -0.08167912 -0.12017962 -0.13577501 -0.037227698 -0.14392212
00000000: 18d5 e1bd 01a8 14be 9816 64bd 701d 8abd
00000010: aeee 80bc f18d 7cbd 6235 47be 2117 01be
00000020: 9f70 72bd 7742 00be 9725 0abd 6247 a7bd
00000030: bc20 f6bd 9b08 0bbe 127c 18bd 5260 13be

layer3.1.running_mean f4 [16]
-0.12500615 0.2562288 -0.62490696 -0.13833258 -0.61004496 -0.56000704 0.045183945 0.07094191
0.12653853 0.055117723 -0.58650583 -0.6350978 -0.0029604414 0.011339512 -0.56161827 0.7890788
00000000: 9d01 00be 6c30 833e e7f9 1fbf 0ea7 0dbe
00000010: e82b 1cbf 9f5c 0fbf cd12 393d fe49 913d
00000020: 5193 013e 1fc3 613d 3f25 16bf c595 22bf
00000030: f703 42bb 5cc9 393c 37c6 0fbf 1101 4a3f

layer3.1.running_var f4 [16]
0.08686275 0.18402426 0.3083524 0.083850764 0.23706399 0.341083 0.09876992 0.07955513
0.14516594 0.20938464 0.2815379 0.3365241 0.08321616 0.09002314 0.24118128 0.19434164
00000000: 19e5 b13d db70 3c3e 5ee0 9d3e f3b9 ab3d
00000010: e7c0 723e 6ea2 ae3e e247 ca3d cded a23d
00000020: 61a6 143e ed68 563e bc25 903e e34c ac3e
00000030: 3c6d aa3d 0d5e b83d 3af8 763e 7f01 473e

layer4.0.weight f4 [32, 16, 3, 3]
-0.023176648 0.055518713 0.11037135 -0.020916186 -0.040029947 0.044014182 -0.03090397 0.10923767
0.058537308 0.019817445 0.041110013 -0.044077907 -0.0006702535 -0.04663142 0.052621257 -0.03325174
0.05390294 0.05786774 -0.0671197 0.08002093 -0.04276769 -0.0333234 -0.008709199 -0.04770951
-0.026870515 0.032643206 0.00245376 0.003497193 0.037325554 0.023725975 -0.02537528 -0.01356457
0.022569103 -0.06992121 0.11145002 0.06509715 0.038290415 -0.034116168 -0.010963535 0.028892467
-0.064562954 -0.08076766 -0.023957353 0.053571228 -0.07103678 0.006773491 0.044593856 -0.060660478
0.0112407245 -0.003945194 -0.03339294 0.023990724 0.031848405 0.035780832 -0.013851933 0.03861754
-0.021797111 -0.011745941 0.005290909 -0.058083493 0.067575425 0.10763644 -0.014998172 -0.024187943
0.0763631 -0.033153456 -0.0037373449 -0.009845235 0.025967494 -0.039526038 0.006386654 -0.04136552
0.07581319 0.09759531 0.04146091 -0.034818206 0.033832274 0.0069526765 0.048982546 -0.019952485
0.08756766 -0.0002964539 -0.0997952 -0.04108628 0.062351435 0.051177137 0.023093775 -0.02372937
-0.06713401 -0.09065836 0.019678818 -0.026874928 0.021569675 -0.042599313 -0.020313205 -0.045321677
0.049727403 -0.013192206 -0.04188313 0.07130429 0.05018747 -0.0025565417 -0.07651051 -0.008398317
-0.034583967 0.05040831 -0.038791183 -0.012412474 -0.05912724 -0.006574799 0.045253534 0.05452839
0.0005599366 0.08041193 -0.06211804 0.10336185 -0.05977827 0.038268838 -0.0593684 -0.06798985
-0.056770705 0.05287181 -0.012682627 0.08140728 -0.03577024 0.07872634 0.039526664 0.03659915
0.076673426 -0.028175307 -0.0010178089 -0.016360791 -0.052452367 0.016113775 -0.06425952 0.080007546
-0.017986137 0.010282156 0.008492914 -0.012708119 0.0649581 -0.0035229013 -0.010592328 -0.061020926
0.016059833 -0.026644014 -0.04161723 0.052960366 -0.027812965 -0.0022540656 0.031292543 -0.006464587
0.054300785 0.012686638 0.023793573 -0.026116038 0.030078243 0.045855876 -0.001048356 -0.0005105814
-0.0055957586 0.038429383 0.04574212 -0.016823908 -0.011652996 0.012857959 0.056193724 -0.016701732
-0.00617603 0.04983618 0.08342243 -0.051510215 -0.01861712 0.06966315 -0.04563429 -0.020632619
0.046715956 -0.036050558 0.084309265 -0.013899965 -0.026817005 0.030171549 0.039342597 0.010091103
-0.05534978 -0.012053178 0.042079963 -0.026849734 0.10495708 -0.0195898 -0.028728228 0.081631795
0.066373445 0.01580375 0.0449119 0.047148123 -0.021986619 -0.027366467 -0.04965791 -0.012436617
-0.008908535 -0.020074269 -0.03127148 -0.050901268 0.08234952 -0.06548239 0.00720746 -0.053547006
-0.08513301 -0.014256827 -0.073324636 -0.01914111 0.0095025925 0.07405198 0.07356255 0.008086585
-0.06380364 0.023085957 0.035441745 -0.038685262 0.0010877738 0.0014400051 0.04378983 0.077528454
0.05496558 -0.054287113 0.012577027 -0.022619909 0.03812706 0.025538988 0.029768627 0.028650105
-0.062032036 -0.0435186 -0.03917728 0.026342968 -0.040243078 0.032348648 -0.00020015969 0.0072200038
-0.06953116 -0.077687405 -0.026859224 -0.023070497 0.055526603 -0.0023513108 -0.01937349 0.01998374
-0.06975414 0.012635981 -0.052048955 -0.032047164 0.029937606 -0.076090634 -0.0009744393 -0.041427866
00000000: f4dc bdbc 9767 633d 600a e23d 6c58 abbc
00000010: 71f6 23bd 3748 343d 532a fdbc 00b8 df3d
00000020: d1c4 6f3d 3258 a23c f962 283d 098b 34bd
00000030: f3b3 2fba 9600 3fbd 6389 573d fa32 08bd
00000040: 54c9 5c3d b906 6d3d 0e76 89bd 03e2 a33d
00000050: 2c2d 2fbd 1e7e 08bd 07b1 0ebc 0c6b 43bd
00000060: 8e1f dcbc e2b4 053d 43cf 203b 2a31 653b
00000070: aee2 183d fa5c c23c d2df cfbc ee3d 5ebc
00000080: d7e2 b83c da32 8fbd e83f e43d a851 853d
00000090: 69d6 1c3d 65bd 0bbd 66a0 33bc e5af ec3c
000000a0: 9539 84bd 8469 a5bd 3642 c4bc 816d 5b3d
000000b0: bb7b 91bd 29f4 dd3b 0ca8 363d 1f77 78bd
000000c0: 042b 383c b046 81bb 09c7 08bd 3288 c43c
000000d0: 7973 023d ec8e 123d 38f3 62bc 6d2d 1e3d
000000e0: db8f b2bc 0c72 40bc 5d5f ad3b f5e8 6dbd
000000f0: fc64 8a3d 7e70 dc3d e5ba 75bc cb25 c6bc
00000100: 4264 9c3d ebcb 07bd 3eee 74bb e94d 21bc
00000110: c8b9 d43c 0ee6 21bd 2347 d13b e46e 29bd
00000120: f243 9b3d 0de0 c73d ead2 293d 899d 0ebd
00000130: b693 0a3d 47d3 e33b eca1 483d 6573 a3bc
00000140: ac56 b33d 5e6d 9bb9 6d61 ccbd 164a 28bd
00000150: 3864 7f3d 1e9f 513d 282f bd3c 1964 c2bc
00000160: 8e7d 89bd 17ab b9bd 7935 a13c cf28 dcbc
00000170: e3b2 b03c 9e7c 2ebd e167 a6bc 39a3 39bd
00000180: f6ae 4b3d 1f24 58bc a58d 2bbd fc07 923d
00000190: 6091 4d3d a78b 27bb 8bb1 9cbd 1899 09bc
000001a0: eba7 0dbd f278 4e3d 81e3 1ebd b05d 4bbc
000001b0: 682f 72bd 6971 d7bb c55b 393d 2959 5f3d
000001c0: b6c8 123a 03af a43d 7c6f 7ebd 61af d33d
000001d0: 0fda 74bd c9bf 1c3d 482c 73bd 433e 8bbd
000001e0: 6688 68bd 1c90 583d cbca 4fbc dcb8 a63d
000001f0: d183 12bd 463b a13d b6e6 213d fee8 153d
00000200: f506 9d3d e7cf e6bc 0068 85ba 1107 86bc
00000210: 4bd8 56bd 0901 843c 7f9a 83bd ffda a33d
00000220: aa57 93bc 7d76 283c dd25 0b3c b735 50bc
00000230: c108 853d 7ae0 66bb 728b 2dbc 14f1 79bd
00000240: e98f 833c 8c44 dabc d476 2abd f8ec 583d
00000250: 04d8 e3bc f2b8 13bb 9c2c 003d e3d4 d3bb
00000260: 806a 5e3d 9edb 4f3c bdea c23c 4df1 d5bc
00000270: a666 f63c 5fd3 3b3d fd68 89ba 8ad8 05ba
00000280: a05c b7bb 2168 1d3d 175c 3b3d 4bd2 89bc
00000290: 35ec 3ebc 30aa 523c 642b 663d 12d2 88bc
000002a0: 4b60 cabb 0621 4c3d 61d9 aa3d 60fc 52bd
000002b0: ee82 98bc 8eab 8e3d 05eb 3abd bd05 a9bc
000002c0: 3b59 3f3d c0a9 13bd 56aa ac3d aebc 63bc
000002d0: 56af dbbc 532a f73c b425 213d 2755 253c
000002e0: 73b6 62bd b17a 45bc 0a5c 2c3d f9f3 dbbc
000002f0: bdf3 d63d ca7a a0bc 7657 ebbc 922e a73d
00000300: cdee 873d de76 813c 8af5 373d 641e 413d
00000310: 481d b4bc a42f e0bc 1866 4bbd f4c2 4bbc
00000320: 1bf5 11bc cb72 a4bc 8616 00bd d97d 50bd
00000330: dda6 a83d a21b 86bd 8e2c ec3b 1b54 5bbd
00000340: 375a aebd 7795 69bc 3a2b 96bd d1cd 9cbc
00000350: c3b0 1b3c 91a8 973d f6a7 963d 997d 043c
00000360: 7cab 82bd c31e bd3c 5d2b 113d 7074 1ebd
00000370: a293 8e3a 8ebe bc3a f75c 333d 3dc7 9e3d
00000380: 9723 613d 2a5c 5ebd e00f 4e3c 634d b9bc
00000390: 1f2b 1c3d 2437 d13c 56dd f33c a0b3 ea3c
000003a0: 4e15 7ebd 8f40 32bd 5b78 20bd 35cd d73c
000003b0: edd5 24bd 0480 043d f5e1 51b9 c895 ec3b
000003c0: 5a66 8ebd 931a 9fbd e007 dcbc 57fe bcbc
000003d0: dd6f 633d 7318 1abb 27b5 9ebc f1b4 a33c
000003e0: 42db 8ebd 2507 4f3c 4931 55bd e343 03bd
000003f0: b63f f53c 68d5 9bbd 8471 7fba 44b0 29bd

layer4.0.bias f4 [32]
-0.04725952 -0.028732447 0.0422722 0.05756972 0.0018438549 -0.03325274 -0.053970467 0.0006976784
0.05359856 0.0029802858 -0.041970164 -0.07418675 -0.007212182 0.07680442 -0.07850417 -0.0037205028
-0.07690654 0.0753576 -0.02063515 -0.064110614 -0.024405207 -0.066409715 -0.060484227 0.04862313
0.08207686 -0.04693412 0.064891905 0.040455 -0.043341104 0.03987814 -0.038661543 -0.04802892
00000000: 3393 41bd 4f60 ebbc 9d25 2d3d 3ace 6b3d
00000010: 81ad f13a 0634 08bd 2310 5dbd 68e4 363a
00000020: 2a8a 5b3d e650 433b e8e8 2bbd 39ef 97bd
00000030: 2b54 ecbb a34b 9d3d cbc6 a0bd aed3 73bb
00000040: 2d81 9dbd 1655 9a3d 0c0b a9bc 6d4c 83bd
00000050: 6eed c7bc d101 88bd 4fbe 77bd 0c29 473d
00000060: ea17 a83d fe3d 40bd 0ce6 843d 24b4 253d
00000070: 7186 31bd 4357 233d 915b 1ebd f9b9 44bd

layer4.1.weight f4 [32]
1.0527892 1.0780975 1.0867982 1.0618913 1.0841913 1.0734242 1.0666698 1.0786495
1.0920058 1.0805455 1.0576878 1.112526 1.0728507 1.087803 1.0892624 1.0551931
1.1061529 1.0549213 1.0807744 1.0844065 1.076805 1.0501947 1.0817574 1.1067991
1.0694097 1.0825845 1.1010082 1.0952312 1.0694857 1.0633637 1.0834466 1.0467849
00000000: ccc1 863f 19ff 893f 341c 8b3f 0eec 873f
00000010: c8c6 8a3f f765 893f a388 883f 3011 8a3f
00000020: d9c6 8b3f 514f 8a3f 5062 873f 4167 8e3f
00000030: 2c53 893f 213d 8b3f f36c 8b3f 9110 873f
00000040: 6b96 8d3f a907 873f d156 8a3f d5cd 8a3f
00000050: bfd4 893f c86c 863f 0777 8a3f 98ab 8d3f
00000060: 6be2 883f 2192 8a3f d6ed 8c3f 8930 8c3f
00000070: e8e4 883f 4d1c 883f 61ae 8a3f 0cfd 853f

layer4.1.bias f4 [32]
0.030452497 0.03715456 0.054213118 0.061314847 0.023730377 0.05476404 0.04582021 0.06746067
0.074117824 0.07183632 0.056991372 0.080522016 0.049344122 0.08692077 0.053162787 0.03311556
0.08085668 0.058885098 0.07273392 0.08248375 0.074609205 0.05818386 0.051031794 0.08568494
0.066442296 0.04837649 0.06293492 0.056289174 0.0589693 0.03752669 0.058824264 0.0477063
00000000: 8477 f93c 612f 183d 930e 5e3d 4725 7b3d
00000010: 3566 c23c 4250 603d f9ad 3b3d d228 8a3d
00000020: 16cb 973d ec1e 933d c96f 693d bae8 a43d
00000030: 101d 4a3d 8403 b23d 39c1 593d 2ea4 073d
00000040: 3098 a53d 8031 713d 85f5 943d 3eed a83d
00000050: b6cc 983d 3352 6e3d b706 513d 967b af3d
00000060: e612 883d 6d26 463d 06e4 803d 7a8f 663d
00000070: cb89 713d 96b5 193d b6f1 703d ae67 433d

layer4.1.running_mean f4 [32]
0.2579114 0.247535 0.6091245 -0.29720572 -0.42510924 -0.25419492 0.15156496 0.3941083
0.2945783 -0.19702004 -0.06329969 0.10740884 0.049079567 -1.0456878 -0.6067143 -0.022018403
0.053204846 -0.78956723 0.28272206 -1.2087553 -0.40236244 -0.19333476 -0.11935817 -0.12433826
-0.45987186 0.007508625 -0.22375922 -0.23796906 -0.7310829 0.38297614 0.6121626 0.29825953
00000000: f70c 843e d179 7d3e 95ef 1b3f 592b 98be
00000010: eba7 d9be d625 82be d833 1b3e 90c8 c93e
00000020: f8d2 963e 9fbf 49be 45a3 81bd 2af9 db3d
00000030: a807 493d 19d9 85bf a151 1bbf f05f b4bc
00000040: 53ed 593d 1421 4abf f2c0 903e 7eb8 9abf
00000050: 7302 cebe 8cf9 45be 0e72 f4bd 0fa5 febd
00000060: 5374 ebbe e90a f63b 2321 65be 29ae 73be
00000070: 4028 3bbf 7315 c43e b0b6 1c3f 79b5 983e

layer4.1.running_var f4 [32]
0.73835015 0.7352355 0.739664 1.1158851 1.3058158 0.83627594 0.8440375 1.089216
1.0836552 0.8741569 0.80617857 0.7100092 0.8577853 1.4893984 1.4584194 0.8523495
0.808616 1.3969434 0.9454445 1.9415394 1.2069861 0.8323044 1.170737 1.2864094
1.231441 0.8793243 1.056882 1.3044605 1.1340498 0.8650669 0.89932644 0.9562206
00000000: 8404 3d3f 6538 3c3f 9f5a 3d3f 53d5 8e3f
00000010: f924 a73f 2e16 563f d712 583f 6e6b 8b3f
00000020: 37b5 8a3f bfc8 5f3f b861 4e3f 2ac3 353f
00000030: d197 5b3f 9ba4 be3f 7dad ba3f 9433 5a3f
00000040: 7501 4f3f 0bcf b23f a708 723f 5d84 f83f
00000050: 857e 9a3f e711 553f b6da 953f 10a9 a43f
00000060: dc9f 9d3f 661b 613f e947 873f 90f8 a63f
00000070: 8b28 913f 0675 5d3f 423a 663f e0ca 743f

fc.weight f4 [1, 1152]
-0.013860163 -0.0016238759 -0.00840058 0.0496284 0.0015535556 0.0061278725 0.028469853 -0.003446992
-0.0388288 0.038549498 -0.020854149 -0.02451261 0.0074565206 0.03584088 0.057507966 0.06464782
0.00055323954 -0.025763376 -0.010543261 -0.016878799 -0.020540262 0.0036607562 -0.037484936 -0.034390517
-0.017470704 -0.009705193 0.0421081 0.04419707 0.008022766 -0.025396094 0.01151792 0.0006287096
0.00045571278 -0.0045229667 -0.012796095 -0.018931061 -0.019959342 -0.021097356 -0.0089669265 -0.024686111
0.014401151 -0.00822406 -0.023632165 -0.047087688 -0.057950877 0.009377836 0.0339016 0.04290185
-0.025958816 -0.03640602 0.0609297 0.085319765 0.048037685 0.016247423 -0.014299812 -0.030164177
0.008441885 -0.04781967 -0.035728242 -0.03499665 0.0051318333 -0.012958851 0.0008251834 -0.05216333
-0.01570572 -0.003350719 -0.021903167 0.001982097 -0.0007007239 -0.019577596 -0.015880236 -0.022359122
0.0018888845 -0.007838825 -0.045440253 -0.022431208 0.018662345 -0.033459 -0.002152727 0.017454693
0.0036041995 -0.006177709 0.059488665 0.017993765 -0.0052570854 0.014324293 -0.00090207846 0.021985745
0.08053864 0.04454708 -0.014541293 -0.0019243187 -0.049080566 -0.040762145 0.003296498 -0.016506547
-0.01653917 0.031058734 0.035359073 0.06906839 0.05125411 0.014199788 -0.030907005 -0.009270761
-0.0062897815 0.017782561 0.024312722 -0.0025452492 -0.009158408 -0.019577228 -0.024953522 -0.022883313
-0.0091043385 -0.016332773 0.012845156 0.007682696 -0.07140347 -0.028042998 0.0141004175 0.01459323
-0.020508397 -0.019166918 -0.081109025 -0.098010816 -0.010682416 0.008782234 0.014196654 -0.04745991
-0.08182197 -0.017830117 0.008960113 -0.0246541 -0.011923667 -0.012268316 -0.022492327 0.0050181667
0.055208217 -0.023817958 -0.016745096 -0.010822036 -0.03631636 0.016375797 0.0013352613 -0.02610813
0.018768242 0.011333087 0.018047916 0.015000609 0.010534694 -0.029160043 0.001937212 0.051039703
0.062306214 0.040964454 0.042757083 0.021921234 0.03160134 0.033007536 0.038432002 0.07890843
0.031166239 0.05398685 0.022091953 0.028781183 0.02331759 0.04888165 0.027893616 0.06694043
0.024404485 0.07452974 0.08686032 0.07914239 0.050173283 0.038416013 0.0325757 -0.008937461
0.049350105 0.012262007 0.005653431 0.018604714 0.0013298161 -0.0072289365 0.013928169 -0.006728792
0.012907025 0.0037772565 -0.043174308 0.02333223 -0.025579277 -0.019738466 0.008878113 0.031252827
-0.00025271182 0.034633674 0.01851233 0.039582916 0.07621314 0.062091164 -0.004506681 0.00966585
0.045830145 0.051808603 0.078960754 0.054993525 0.014301033 0.015636798 0.030237906 0.021417448
-0.010556503 5.2480747e-05 -0.017452916 0.0049116886 -0.010587202 0.0037490374 0.022330992 -0.024795657
-0.02740754 -0.01674335 -0.0032158995 -0.037249412 0.0026670329 -5.3004587e-05 -0.028742632 -0.04658752
-0.051234137 -0.03557881 -0.017710317 0.023785302 -0.014717057 -0.025429145 -0.015506052 -0.015971739
0.008297832 0.014739467 0.018340424 0.020954678 -0.014651166 -0.069108136 0.0318142 0.0019745294
-0.027215078 -0.013763273 -0.061610647 -0.08163432 -0.002679396 0.013311168 -0.03529096 -0.014266735
-0.023341008 -0.058414966 0.002979132 -0.011515018 -0.014939187 -0.011158101 -0.027884483 -0.035195254
00000000: bd15 63bc 3cd8 d4ba 96a2 09bc 2647 4b3d
00000010: ada0 cb3a 52cc c83b 9c39 e93c eee6 61bb
00000020: f30a 1fbd 14e6 1d3d 52d6 aabc abce c8bc
00000030: d455 f43b e3cd 123d 798d 6b3d 1466 843d
00000040: 4707 113a b70d d3bc a4bd 2cbc 6845 8abc
00000050: 0d44 a8bc 4ce9 6f3b ce89 19bd 12dd 0cbd
00000060: b91e 8fbc 8802 1fbc 8b79 2c3d fd07 353d
00000070: eb71 033c 780b d0bc a8b5 3c3c fdcf 243a
00000080: bcec ee39 6535 94bb b6a6 51bc 5015 9bbc
00000090: c681 a3bc 5dd4 acbc 04ea 12bc 873a cabc
000000a0: cef2 6b3c 35be 06bc 3e98 c1bc 05df 40bd
000000b0: e65d 6dbd 7fa5 193c 67dc 0a3d dab9 2f3d
000000c0: 95a7 d4bc 7b1e 15bd 6c91 793d 21bc ae3d
000000d0: 2ac3 443d 5119 853c c249 6abc dd1a f7bc
000000e0: d54f 0a3c 8fde 43bd c757 12bd a658 0fbd
000000f0: f028 a83b 5c51 54bc 1f51 583a 37a9 55bd
00000100: 48a9 80bc bd97 5bbb 456e b3bc 12e6 013b
00000110: c9b0 37ba 3261 a0bc 4517 82bc 7a2a b7bc
00000120: 7294 f73a 6a6e 00bc 8f1f 3abd a7c1 b7bc
00000130: c6e1 983c 4e0c 09bd c414 0dbb 25fd 8e3c
00000140: 6f34 6c3b 616e cabb 63aa 733d a967 933c
00000150: a143 acbb 70b0 6a3c 7679 6cba 731b b43c
00000160: 71f1 a43d 0077 363d 9a3e 6ebc 6c39 fcba
00000170: b408 49bd 35f6 26bd 0f0a 583b bd38 87bc
00000180: 277d 87bc e36e fe3c add4 103d ba73 8d3d
00000190: d4ef 513d 3aa6 683c b030 fdbc 64e4 17bc
000001a0: 831a cebb bcac 913c 792b c73c 32ce 26bb
000001b0: 260d 16bc 6c60 a0bc 546b ccbc c975 bbbc
000001c0: 5d2a 15bc 4fcc 85bc 7d74 523c 20bf fb3b
000001d0: fc3b 92bd 6eba e5bc 7005 673c 7118 6f3c
000001e0: 3a01 a8bc f103 9dbc 7d1c a6bd e5b9 c8bd
000001f0: 4d05 2fbc 5ce3 0f3c 1599 683c 5365 42bd
00000200: 4792 a7bd 7710 92bc 70cd 123c 65f7 c9bc
00000210: 7c5b 43bc 0c01 49bc d441 b8bc 6f6f a43b
00000220: 0322 623d e11d c3bc 032d 89bc e94e 31bc
00000230: 77c0 14bd 8926 863c ef03 af3a b8e0 d5bc
00000240: dbbf 993c 6aae 393c 39d9 933c 1dc5 753c
00000250: b699 2c3c 0be1 eebc 0cea fd3a 020f 513d
00000260: cd34 7f3d 58ca 273d 0d22 2f3d 2994 b33c
00000270: 6870 013d e932 073d e06a 1d3d be9a a13d
00000280: 5750 ff3c 5121 5d3d 2ffa b43c 84c6 eb3c
00000290: 8804 bf3c 2038 483d 2781 e43c 1018 893d
000002a0: eaeb c73c 0ca3 983d d3e3 b13d 6815 a23d
000002b0: 8082 4d3d 1c5a 1d3d 196e 053d 6e6e 12bc
000002c0: 5623 4a3d 96e6 483c 6b40 b93b ea68 983c
000002d0: 394d ae3a b7e0 ecbb fa32 643c 337d dcbb
000002e0: fd77 533c d98b 773b 8bd7 30bd 3c23 bf3c
000002f0: a28b d1bc 90b2 a1bc 8175 113c f702 003d
00000300: 687e 84b9 0adc 0d3d 2ba7 973c b221 223d
00000310: a215 9c3d 4e53 7e3d c8ac 93bb 835d 1e3c
00000320: 64b8 3b3d 4235 543d 2db6 a13d e440 613d
00000330: e14e 6a3c be18 803c 7cb5 f73c a573 af3c
00000340: 2ff5 2cbc c61e 5c38 6bf9 8ebc 3bf2 a03b
00000350: f275 2dbc 69b2 753b 7cef b63c 4320 cbbc
00000360: c785 e0bc 5a29 89bc d7c1 52bb d792 18bd
00000370: 63c9 2e3b 3e51 5eb8 ab75 ebbc 8ed2 3ebd
00000380: e3da 51bd 16bb 11bd 3a15 91bc 65d9 c23c
00000390: d01f 71bc c850 d0bc 190d 7ebc 2ad7 82bc
000003a0: a1f3 073c ce7d 713c a83e 963c 25a9 ab3c
000003b0: 720b 70bc 9188 8dbd 9b4f 023d 1b67 013b
000003c0: 28f2 debc 5a7f 61bc 725b 7cbd e52f a7bd
000003d0: ce98 2fbb 1617 5a3c 418d 10bd 06bf 69bc
000003e0: a435 bfbc 8844 6fbd 8b3d 433b 7ca9 3cbc
000003f0: 7ec3 74bc 78d0 36bc 006e e4bc e628 10bd
