data/chkbox_models/chkbox_rnd7_1_bestVal.pt (torch_old, 236310 bytes, 31 tensors)

layer1.0.weight f4 [4, 1, 3, 3]
-0.12076324 -0.0071847695 0.25551647 0.0777694 0.15979072 0.13547465 -0.15687212 -0.10483438
0.010143879 0.29055437 -0.25940117 0.20805234 0.0048021385 0.11379423 0.16282545 -0.14934404
0.3400788 -0.129695 0.13243121 0.29231724 -0.12106434 -0.2543119 -0.12515683 -0.024478804
0.15085183 -0.010125835 -0.24934718 0.007268245 0.21250793 0.15509821 0.03823674 0.098498195
0.06806058 -0.21757278 0.130444 -0.3491652
00000000: b852 f7bd 376e ebbb 0ed3 823e 9045 9f3d
00000010: 2ea0 233e deb9 0a3e 16a3 20be 68b3 d6bd
00000020: 8332 263c 8bc3 943e 3bd0 84be ac0b 553e
00000030: 425b 9d3b f30c e93d b7bb 263e a5ed 18be
00000040: cf1e ae3e c4ce 04be 0c9c 073e 9baa 953e
00000050: 95f0 f7bd 2b35 82be 1d29 00be c687 c8bc
00000060: e778 1a3e d5e6 25bc de54 7fbe 752a ee3b
00000070: ae9b 593e 11d2 1e3e 219e 1c3d 6cb9 c93d
00000080: 5863 8b3d 66cb 5ebe 1d93 053e c8c5 b2be

layer1.0.bias f4 [4]
-0.21182345 -0.28210765 -0.1660526 -0.051715583
00000000: 3fe8 58be 6a70 90be b109 2abe b8d3 53bd

layer1.1.weight f4 [4]
0.9699225 1.0100126 1.0120887 0.99724734
00000000: d74c 783f 1848 813f 1f8c 813f 9a4b 7f3f

layer1.1.bias f4 [4]
0.0027571684 -0.0045176693 0.009247725 -0.004386748
00000000: 9cb1 343b f508 94bb c583 173c b6be 8fbb

layer1.1.running_mean f4 [4]
-0.081351854 0.017255833 -0.27577072 0.026594048
00000000: cd9b a6bd 1b5c 8d3c d231 8dbe c3db d93c

layer1.1.running_var f4 [4]
0.09072211 0.276988 0.06708999 0.07462697
00000000: 83cc b93d 5fd1 8d3e 7a66 893d 06d6 983d

layer2.0.weight f4 [8, 4, 3, 3]
-0.17016308 0.106884524 0.09590156 -0.11144606 -0.044675697 0.005873083 0.027217505 -0.06428372
-0.14064734 -0.083627485 -0.03232296 -0.07230577 -0.1679383 -0.17163676 -0.16118401 0.0048131435
-0.13437963 -0.15883265 -0.021764565 0.12836777 -0.06773694 -0.15507194 -0.05613909 -0.09156604
-0.09031018 -0.044705924 0.10175517 -0.1778542 0.011236633 0.0100798085 -0.13490836 -0.027464518
0.0030994632 -0.08394445 -0.07884025 0.020324502 -0.011192143 0.04006438 0.112097494 -0.08703073
-0.13063979 -0.1554317 0.08401729 -0.08467062 0.058431007 0.1585518 0.13360144 0.124243245
0.014753718 0.16564706 -0.13308129 0.11039955 -0.018722963 -0.01646087 0.06999715 0.007841228
-0.01933947 -0.049005307 -0.081616975 -0.07085236 0.046683315 -0.10291751 -0.13628386 0.09816093
-0.14292447 -0.1603199 -0.1195028 -0.12380729 0.09862654 -0.08939876 -0.13472731 0.058762297
-0.13280192 -0.053156585 -0.17501673 0.111276336 -0.11890801 0.10004336 0.09569801 -0.09820568
0.09279064 0.13525757 -0.09699901 0.099653505 0.042481873 -0.114195995 -0.0933701 0.075836726
0.15880735 0.119414665 0.044202957 -0.05562718 -0.07411346 -0.06096745 0.037259128 0.13441788
0.020398073 0.12893514 0.12535208 -0.021172022 -0.069349125 0.05525506 -0.124102496 -0.11276442
-0.102843955 0.109115265 -0.14710963 0.1393014 -0.044745564 -0.06750004 0.1194951 -0.13880208
-0.13989788 0.14460264 0.13226876 -0.065744184 -0.10044871 0.13695225 0.03215435 0.13906442
0.14480689 -0.12664406 0.16471942 0.049290035 -0.113594875 -0.017119491 -0.09699771 0.008050839
-0.06256414 -0.18250617 -0.16693272 -0.16311282 -0.110551775 -0.011926353 -0.07796992 0.14969744
0.13065356 -0.041003678 -0.13634677 0.114069216 -0.1197362 -0.030013995 -0.067065656 0.078171596
0.1653233 0.12600274 0.124642685 -0.04150078 0.12479442 0.07232187 -0.053294692 -0.08441984
-0.029545924 -0.0096758995 0.03665703 0.048238453 0.15747966 -0.059612133 0.1619646 -0.13770394
-0.037999414 -0.10474433 0.0988213 -0.10464345 -0.12587477 -0.059828285 0.008622328 0.09743232
0.11924444 -0.1412821 -0.025220675 0.12058225 0.13682207 0.078980245 0.14405623 0.16126528
0.10371622 0.07575079 0.0040452615 0.14417516 -0.03535995 0.107531466 -0.045766283 -0.13370031
0.15496945 -0.14803717 0.074594 0.045344137 0.10666997 0.12242804 0.03387356 -0.06389228
0.0077404194 0.15403812 -0.017040757 0.14767288 0.004826958 -0.023461148 -0.14225069 0.004786365
0.067543335 -0.11540917 -0.010797132 -0.06921353 -0.010881488 0.14802282 0.092726246 0.058049154
0.05155275 0.07732162 0.1479494 0.03387063 -0.11728666 0.09977446 0.041525837 -0.15275611
-0.02730945 0.114749424 -0.05801653 -0.10204746 0.1652662 -0.10105631 -0.0047987695 0.15960756
-0.06488435 0.13264893 0.058520265 0.0077394918 0.033840414 0.054073203 0.113869436 0.112737924
0.054132335 0.117025934 -0.01758422 -0.04773103 0.08941584 0.15286185 0.06535915 -0.09769463
-0.024869272 0.043357607 -0.1688926 -0.13797052 0.11512698 0.15421854 -0.12593998 -0.07441715
-0.124325596 -0.01844206 -0.043594506 0.15855666 0.15022732 0.022623928 0.12716751 0.09043675
00000000: 3b3f 2ebe 46e6 da3d 0968 c43d d53d e4bd
00000010: ddfd 36bd fe72 c03b 3ff7 de3c 2fa7 83bd
00000020: db05 10be e344 abbd 1565 04bd 0c15 94bd
00000030: 05f8 2bbe 8cc1 2fbe 6c0d 25be 93b7 9d3b
00000040: d09a 09be 07a5 22be 9a4b b2bc d772 033e
00000050: aab9 8abd 2ecb 1ebe 1af2 65bd fa86 bbbd
00000060: 8bf4 b8bd 8f1d 37bd 0465 d03d 691f 36be
00000070: db19 383c c825 253c 6b25 0abe 45fd e0bc
00000080: 5d20 4b3b 11eb abbd ff76 a1bd 927f a63c
00000090: 405f 37bc 8c1a 243d 5f93 e53d 2b3d b2bd
000000a0: 70c6 05be 7d29 1fbe 4211 ac3d ca67 adbd
000000b0: 5a55 6f3d 675b 223e d1ce 083e 3e73 fe3d
000000c0: 94b9 713c 629f 293e 7646 08be 2919 e23d
000000d0: e660 99bc f2d8 86bc aa5a 8f3d 7e78 003c
000000e0: cf6d 9ebc cab9 48bd cd26 a7bd 0b1b 91bd
000000f0: 0137 3f3d 6ac6 d2bd ff8d 0bbe 9908 c93d
00000100: cb5a 12be e62a 24be e2bd f4bd ad8e fdbd
00000110: b6fc c93d b216 b7bd f5f5 09be bcb0 703d
00000120: 3afd 07be b8ba 59bd 9637 33be d9e4 e33d
00000130: 0b86 f3bd 88e3 cc3d 51fd c33d 0f20 c9bd
00000140: 0509 be3d f680 0a3e 6ba7 c6bd 2317 cc3d
00000150: 7901 2e3d 97df e9bd d338 bfbd 4950 9b3d
00000160: 659e 223e ad8f f43d 290e 353d 53d9 63bd
00000170: ccc8 97bd 01b9 79bd 079d 183d d7a4 093e
00000180: dc19 a73c 9307 043e 4c5c 003e f370 adbc
00000190: ea06 8ebd 2153 623d 7329 febd 08f1 e6bd
000001a0: da9f d2bd d377 df3d e8a3 16be 07a5 0e3e
000001b0: 2047 37bd 763d 8abd d9b9 f43d 2222 0ebe
000001c0: 6441 0fbe b712 143e 7671 073e e3a4 86bd
000001d0: 0eb8 cdbd 363d 0c3e 48b4 033d e766 0e3e
000001e0: 4248 143e fbae 01be 35ac 283e 59e4 493d
000001f0: 6ea4 e8bd 2d3e 8cbc bca6 c6bd abe7 033c
00000200: a121 80bd e6e2 3abe 69f0 2abe 0c07 27be
00000210: f868 e2bd c066 43bc b2ae 9fbd 494a 193e
00000220: 0cca 053e 79f3 27bd 7d9e 0bbe 1f9d e93d
00000230: 4138 f5bd e9df f5bc b859 89bd 6e18 a03d
00000240: 834a 293e dd06 013e aa44 ff3d b9fc 29bd
00000250: 3894 ff3d 7d1d 943d 894b 5abd 4fe4 acbd
00000260: 4b0a f2bc aa87 1ebc af25 163d af95 453d
00000270: 5942 213e da2b 74bd 0cda 253e 4302 0dbe
00000280: 46a5 1bbd 3284 d6bd d262 ca3d 4e4f d6bd
00000290: 51e5 00be 810e 75bd aa44 0d3c 998a c73d
000002a0: 6e36 f43d 41ac 10be 979b cebc d4f3 f63d
000002b0: 161b 0c3e 65c0 a13d 7a83 133e ba22 253e
000002c0: 2b69 d43d 3b23 9b3d 1d8e 843b a7a2 133e
000002d0: 98d5 10bd 7539 dc3d 6d75 3bbd bce8 08be
000002e0: 50b0 1e3e 0e97 17be bdc4 983d c6ba 393d
000002f0: c975 da3d 8dbb fa3d 01bf 0a3d f5d9 82bd
00000300: 58a3 fd3b 2bbc 1d3e 0f99 8bbc 8f37 173e
00000310: 752b 9e3b 9831 c0bc 2aaa 11be f1d6 9c3b
00000320: 2954 8a3d a55b ecbd 74e6 30bc d3bf 8dbd
00000330: 4548 32bc 4b93 173e 42e7 bd3d f3c4 6d3d
00000340: fa28 533d cc5a 9e3d 0c80 173e eebb 0a3d
00000350: fd33 f0bd 8d56 cc3d ff16 2a3d 196c 1cbe
00000360: 11b8 dfbc bf01 eb3d bea2 6dbd 42fe d0bd
00000370: 8b3b 293e 9cf6 cebd ff3e 9dbb 2a70 233e
00000380: 16e2 84bd 1fd5 073e f2b2 6f3d 909b fd3b
00000390: 3f9c 0a3d dd7b 5d3d 6134 e93d 24e3 e63d
000003a0: deb9 5d3d 4bab ef3d c80c 90bc 9d81 43bd
000003b0: a71f b73d d187 1c3e 05db 853d 1f14 c8bd
000003c0: a5ba cbbc bf97 313d 2ff2 2cbe 2548 0dbe
000003d0: b2c7 eb3d 77eb 1d3e 69f6 00be 0568 98bd
000003e0: 6b9e febd ce13 97bc 2790 32bd ad5c 223e
000003f0: 31d5 193e d155 b93c 3338 023e e736 b93d

layer2.0.bias f4 [8]
0.020356003 0.15252191 -0.15501145 -0.14120658 -0.05028048 0.06912459 -0.033113267 0.043618485
00000000: a2c1 a63c b42e 1c3e 52bb 1ebe 7598 10be
00000010: e8f2 4dbd 3191 8d3d c7a1 07bd 4ca9 323d

layer2.1.weight f4 [8]
1.0259913 0.97276974 0.9904952 0.99798197 1.0185734 1.0014274 1.0062839 0.99725586
00000000: af53 833f 7007 793f 1891 7d3f bf7b 7f3f
00000010: 9d60 823f c62e 803f e9cd 803f 294c 7f3f

layer2.1.bias f4 [8]
0.037019394 -0.0218034 -0.007050706 0.024240512 0.023778737 0.011839197 -0.015979404 0.01929871
00000000: a6a1 173d 0b9d b2bc 9c09 e7bb 0a94 c63c
00000010: a0cb c23c 31f9 413c 3de7 82bc 5418 9e3c

layer2.1.running_mean f4 [8]
-0.718284 -5.300701e-05 -0.07464928 -0.33888718 0.37889558 0.31971505 0.22262691 0.08471128
00000000: 76e1 37bf d853 5eb8 b9e1 98bd 9f82 adbe
00000010: 9afe c13e b1b1 a33e 4ff8 633e 1c7d ad3d

layer2.1.running_var f4 [8]
1.3336824 0.13068146 0.17474592 0.18518162 1.0584571 0.30727828 0.34105563 0.37747315
00000000: 1bb6 aa3f 5cd1 053e 98f0 323e 40a0 3d3e
00000010: 867b 873f 9453 9d3e d89e ae3e 2944 c13e

layer3.0.weight f4 [16, 8, 3, 3]
-0.12863007 -0.057730585 0.02279468 -0.028075587 -0.06668018 -0.11249912 0.056202855 0.02602502
-0.008114813 -0.10748583 -0.065130696 -0.10649334 0.07086106 -0.036781307 -0.009403573 0.0138795385
0.023950107 -0.071192496 -0.108477466 -0.024917586 -0.11765471 0.08416965 -0.05538288 -0.028424194
0.011268072 0.06780945 -0.098598994 -0.01541662 0.030447738 -0.04608893 0.064678535 0.094276376
0.05682192 -0.06700145 -0.05916712 -0.016688231 0.07852223 -0.06972421 -0.07532391 0.047067128
-0.049472697 0.0626269 0.0050725597 0.0058200383 -0.10879524 0.07580745 0.1016373 -0.00751311
-0.014899882 -0.032379106 0.09791382 -0.1014302 0.11103034 0.07361323 0.038530536 0.060242284
-0.013496904 -0.052731354 0.0048328093 -0.10972423 -0.08159492 -0.07786472 -0.076805525 -0.029775849
0.054171845 0.020262444 0.10835634 0.10426485 0.08547578 -0.10902111 -0.012651562 0.08244746
0.04681808 -0.058851697 -0.038292922 -0.0947946 0.06656338 -0.021204447 -0.07911376 -0.122085206
-0.009451758 -0.081974275 -0.038728345 -0.09063163 -0.00023168932 0.059436515 -0.076104 0.0544637
0.053058807 -0.11192245 -0.057933588 -0.06550303 0.04013162 -0.032120816 -0.07240602 -0.09707014
-0.09949947 -0.018650884 -0.1071691 -0.035048746 0.12108587 0.053811997 0.051803783 -0.028730396
0.09904587 0.06486113 -0.060607597 0.031194998 0.12369583 0.009775531 0.13089138 0.12183222
0.08258056 -0.0057458277 0.009345711 -0.033389945 -0.066690065 0.056140132 -0.07987277 0.10502066
0.011414747 -0.101204954 -0.00942034 0.09627919 -0.08261096 0.038179986 -0.08280681 0.04118851
-0.056609392 -0.042850778 -0.046050034 0.00998144 -0.03207368 -0.107830204 -0.06815191 -0.046577375
-0.08153118 -0.043671276 -0.020368462 0.0026815743 0.07019801 0.01924476 -0.08528628 0.014319133
0.052028123 -0.12934718 0.080722444 -0.07235761 -0.0056309574 -0.017930554 -0.09956411 -0.0060789497
-0.055695076 0.031519014 -0.025281006 -0.0054315766 0.11143193 -0.044502154 -0.0079859225 -0.027718082
-0.027061587 -0.020250605 -0.032184415 -0.05908564 0.05312508 0.10116005 -0.009422575 -0.06578144
0.08921235 -0.056175984 0.0013767616 0.02155927 0.084632926 -0.0027589074 -0.021204839 -0.05086324
0.08346642 -0.014919111 -0.0017145696 0.09088336 0.030785501 0.062382344 0.045591366 0.08173011
0.03238078 0.085315846 -0.066825785 -0.027225431 0.07070098 -0.110318266 -0.043729637 -0.010091596
-0.05968527 0.049784604 0.010834428 0.07487418 -0.022467142 -0.0094871055 -0.012757756 0.087673225
-0.06397407 -0.11138018 0.04657247 -0.08391479 0.019724851 -0.067331776 -0.06627975 0.042179305
0.035473388 0.07480869 -0.01922222 0.080121815 -0.04839259 -0.040390514 -0.06785844 0.07777079
-0.011852575 -0.10651431 0.017855195 -0.11121157 0.05137709 0.062587686 0.0024219204 0.03180984
0.034501996 -0.06548037 0.074210435 0.06929053 -0.064502545 -0.043247882 0.12296128 -0.037661202
-0.078170024 -0.039312292 0.061747357 0.09194006 -0.009561322 0.03232511 0.03017918 -0.046152506
-0.07811982 0.022301117 0.068336226 0.0053380094 0.036071073 -0.07200606 -0.06927808 0.016805455
0.09669343 -0.013794327 0.030397868 0.07187692 -0.012713515 -0.05472027 -0.09662211 0.087910056
00000000: 9ab7 03be e876 6cbd e9bb ba3c c6fe e5bc
00000010: 9e8f 88bd f065 e6bd f734 663d 6c32 d53c
00000020: fef3 04bc 8821 dcbd 3e63 85bd 2e19 dabd
00000030: 9a1f 913d ffa7 16bd 7211 1abc 0167 633c
00000040: 0433 c43c 5fcd 91bd 6f29 debd f71f ccbc
00000050: f4f4 f0bd 2361 ac3d 29d9 62bd dbd9 e8bc
00000060: b89d 383c aedf 8a3d 45ee c9bd fe95 7cbc
00000070: 896d f93c bfc7 3cbd 2e76 843d f913 c13d
00000080: 1abe 683d 0e38 89bd 3959 72bd c2b5 88bc
00000090: 43d0 a03d 91cb 8ebd 6c43 9abd 76c9 403d
000000a0: e2a3 4abd 8842 803d b737 a63b 05b6 be3b
000000b0: 0ad0 debd f040 9b3d 3727 d03d 8930 f6bb
000000c0: a21e 74bc f49f 04bd 0a87 c83d a3ba cfbd
000000d0: e063 e33d 88c2 963d 32d2 1d3d 9dc0 763d
000000e0: 1e22 5dbc d5fc 57bd 8b5c 9e3b 19b7 e0bd
000000f0: 3d1b a7bd 8a77 9fbd 374c 9dbd 7bec f3bc
00000100: 4ce3 5d3d 6dfd a53c eee9 dd3d cf88 d53d
00000110: ed0d af3d 7646 dfbd 7f48 4fbc 37da a83d
00000120: 51c4 3f3d 7a0e 71bd 0ad9 1cbd ac23 c2bd
00000130: 6252 883d f3b4 adbc 6506 a2bd cf07 fabd
00000140: 8cdb 1abc 21e2 a7bd 9da1 1ebd 139d b9bd
00000150: a1f1 72b9 b473 733d 6adc 9bbd 5415 5f3d
00000160: 3154 593d 9937 e5bd c54b 6dbd 7426 86bd
00000170: 0e61 243d 1e91 03bd 9b49 94bd b6cc c6bd
00000180: 61c6 cbbd bdc9 98bc 797b dbbd 468f 0fbd
00000190: defb f73d f869 5c3d 3430 543d 025c ebbc
000001a0: 90d8 ca3d ead5 843d ac3f 78bd a78c ff3c
000001b0: 3d54 fd3d 8c29 203c 6408 063e 2c83 f93d
000001c0: ff1f a93d 7f47 bcbb c11e 193c e5c3 08bd
000001d0: cd94 88bd 32f3 653d 5694 a3bd 1215 d73d
000001e0: eb04 3b3c 8b44 cfbd c557 1abc 062e c53d
000001f0: ef2f a9bd 9e62 1c3d 9e96 a9bd 48b5 283d
00000200: 40df 67bd 4c84 2fbd f69e 3cbd 3289 233c
00000210: b15f 03bd 15d6 dcbd 3b93 8bbd ebc7 3ebd
00000220: d2f9 a6bd a7e0 32bd c3db a6bc 5abd 2f3b
00000230: f9c3 8f3d 30a7 9d3c 93aa aebd cc9a 6a3c
00000240: 711b 553d 9673 04be cf51 a53d 3a30 94bd
00000250: e583 b8bb 19e3 92bc 45e8 cbbd ed31 c7bb
00000260: 8520 64bd 151a 013d 1d1a cfbc 5efb b1bb
00000270: 6c36 e43d e447 36bd 63d7 02bc 0811 e3bc
00000280: 43b0 ddbc 99e4 a5bc ced3 03bd c903 72bd
00000290: af99 593d 002d cf3d 2561 1abc 6bb8 86bd
000002a0: f7b4 b63d ca18 66bd 7474 b43a 119d b03c
000002b0: 0754 ad3d c9ce 34bb c5b5 adbc f955 50bd
000002c0: 71f0 aa3d 496f 74bc 69bb e0ba 0e21 ba3d
000002d0: e031 fc3c a184 7f3d 03be 3a3d 1e62 a73d
000002e0: b5a1 043d 13ba ae3d f5db 88bd de07 dfbc
000002f0: adcb 903d 8bee e1bd d91d 33bd 3957 25bc
00000300: 8b78 74bd f1ea 4b3d e282 313c a257 993d
00000310: 030d b8bc ce6f 1bbc e805 51bc 058e b33d
00000320: d604 83bd 4b1b e4bd c6c2 3e3d 84db abbd
00000330: 0396 a13c 3ee5 89bd adbd 87bd 35c4 2c3d
00000340: 8b4c 113d 4c35 993d eb77 9dbc e816 a43d
00000350: 4f37 46bd 8670 25bd 5ef9 8abd 4b46 9f3d
00000360: 4d31 42bc 2d24 dabd 0f45 923c e4c2 e3bd
00000370: c970 523d f92d 803d 15b9 1e3b 094b 023d
00000380: f751 0d3d 921a 86bd a4fb 973d 32e8 8d3d
00000390: e919 84bd b124 31bd 20d3 fb3d a242 1abd
000003a0: 9b17 a0bd ed05 21bd ccea 7c3d 124b bc3d
000003b0: 17a7 1cbc 5667 043d 543a f73c 690a 3dbd
000003c0: 49fd 9fbd d5b0 b63c ddf3 8b3d 78ea ae3b
000003d0: 43bf 133d ea77 93bd aae1 8dbd 98ab 893c
000003e0: 3407 c63d 9a01 62bc f304 f93c 3534 933d
000003f0: 594c 50bc 5d22 60bd d0e1 c5bd 300a b43d

layer3.0.bias f4 [16]
0.10934834 0.10269888 0.013387722 -0.10698591 -0.100833654 -0.093477644 -0.030493373 -0.06793693
-0.088893056 -0.04887081 0.043214697 0.04845989 -0.059890248 0.034251235 0.06703686 -0.08878883
00000000: 06f2 df3d ca53 d23d 2d58 5b3c 6e1b dbbd
00000010: e081 cebd 3571 bfbd 3dcd f9bc 8422 8bbd
00000020: 900d b6bd c22c 48bd e501 313d e17d 463d
00000030: 7a4f 75bd 064b 0c3d 9f4a 893d ebd6 b5bd

layer3.1.weight f4 [16]
0.9903101 1.0230925 1.0031315 0.9980729 0.99612814 0.9946422 1.0067636 1.0039346
1.0021868 0.99052876 0.9932358 1.005487 0.98304325 1.0115669 0.9961319 0.9994029
00000000: f684 7d3f b2f4 823f 9d66 803f b581 7f3f
00000010: 4102 7f3f dfa0 7e3f a1dd 803f ee80 803f
00000020: a847 803f 4b93 7d3f b444 7e3f ccb3 803f
00000030: b9a8 7b3f 067b 813f 8002 7f3f ded8 7f3f

layer3.1.bias f4 [16]
-0.01837868 -0.0030524074 0.00031518744 0.0033493633 0.010835711 -0.0054504764 -5.6077235e-05 -0.021093609
-0.008454871 -0.010115671 -0.014734714 0.009336007 -0.009949539 0.0016521879 0.010488467 -0.009172899
00000000: e38e 96bc e60a 48bb be3f a539 fe80 5b3b
00000010: 4488 313c e999 b2bb 7934 6bb8 81cc acbc
00000020: 4d86 0abc 33bc 25bc df69 71bc 0df6 183c
00000030: 6403 23bc 3a8e d83a d2d7 2b3c ed49 16bc

layer3.1.running_mean f4 [16]
-0.06624953 -0.15060648 0.01227384 0.025948634 -0.09829905 -0.32350537 -0.2492437 -0.2936021
-0.47505084 -0.17665677 -0.17498331 0.057943203 0.24900995 -0.022604346 0.13009278 -0.06633418
00000000: d5ad 87bd 9638 1abe 3718 493c 3b92 d43c
00000010: 0351 c9bd 7fa2 a5be be39 7fbe 0453 96be
00000020: dd39 f3be 83e5 34be d32e 33be da55 6d3d
00000030: 77fc 7e3e c02c b9bc 0b37 053e 37da 87bd

layer3.1.running_var f4 [16]
0.14826818 0.24543229 0.14779799 0.17797127 0.4350915 0.35047817 0.07414342 0.13376063
0.12578812 0.088112354 0.09936883 0.063999824 0.4534997 0.17675479 0.12471097 0.074525096
00000000: 9dd3 173e 9a52 7b3e 5b58 173e 1a3e 363e
00000010: 50c4 de3e e071 b33e 81d8 973d 8cf8 083e
00000020: 9ace 003e 4074 b43d e381 cb3d 5712 833d
00000030: 1d31 e83e 35ff 343e 7768 ff3d 9da0 983d

layer4.0.weight f4 [64, 16, 3, 3]
0.010614007 0.013367363 -0.037103202 0.027097171 -0.048192088 -0.06450914 0.04233577 -0.0024110014
-0.05858438 0.0839288 -0.02880429 0.0054457323 -0.029676458 -0.011358625 0.081509866 -0.03833473
0.054632775 0.06696075 0.023595445 -0.013237518 0.027884701 0.025967339 0.0026807834 0.08754511
0.0650064 0.08132349 -0.06386562 0.06769774 0.02374992 -0.020886857 0.051816054 -0.07856172
0.04357021 0.06528166 0.028944617 0.06847094 0.08343625 0.05819406 -0.04629489 -0.01902619
0.04947969 -0.027625773 -0.034909032 -0.0010119819 0.033723965 -0.08230578 0.011136156 0.042212542
0.04389709 -0.032429557 -0.0031533719 0.0012383199 0.0369516 -0.063491195 -0.026590228 0.053108063
-0.026873307 -0.073696226 -0.025654148 0.060041618 -0.08043238 -0.03654397 0.06701083 0.080208674
-0.04997666 0.08433297 -0.016087158 0.047299407 -0.014857107 -0.009443854 0.037335884 -0.0019961272
0.08088997 0.07370255 -0.037568912 -0.005873943 0.04002642 0.072021924 -0.08150757 0.07031663
0.07281519 0.021708904 -0.06244049 0.040460985 0.058539722 -0.03201759 -0.0078085433 0.07136356
0.032781996 -0.076615565 0.06852215 0.061779518 -0.014859618 0.06364289 0.0629843 -0.039424744
0.035889566 -0.001857162 -0.05069019 -0.04302113 0.05572038 -0.024252268 -0.0332124 -0.063181594
-0.073616415 0.008310614 -0.059723414 0.05054494 0.0019575164 0.02001664 -0.041224826 -0.02238165
-0.075687 -0.037363585 0.0741387 0.025204446 0.050153587 0.013342904 -0.0207947 0.089170955
0.016302306 -0.06442527 -0.046147812 0.03201578 0.0024188168 0.048246823 0.008252132 0.05935339
0.06886925 0.060886912 0.054665994 -0.023314403 -0.043540414 0.060074013 0.0016275884 -0.06399807
-0.07963196 -0.0587698 0.047536 0.027890231 -0.057789136 -0.07741361 0.055505726 -0.08707669
0.023909066 0.07873108 -0.0012893159 -0.0022630708 -0.08187011 -0.06848982 0.06808768 0.015353081
-0.031482212 0.0059546684 0.016850933 0.0017842101 0.0074444576 -0.013004682 -0.034798145 0.0007808362
0.027473623 0.053512268 0.025655586 -0.027289052 -0.018214999 -0.007234596 0.022607775 0.021016967
0.040940147 0.02908608 0.05609998 0.030701052 -0.047467098 -0.07693364 -0.025277697 -0.049702782
-0.022118034 -0.023707738 -0.018491844 0.016270213 -0.0271443 0.012123235 0.058881957 0.014750151
-9.288458e-05 0.051411618 -0.016904537 -0.028474983 -0.070175424 -0.06473344 0.05033678 -0.011927017
0.0132303815 0.046726797 -0.078882135 -0.043617137 -0.0018486853 -0.010588168 0.080511205 -0.04811944
0.08657598 0.022225799 -0.04464493 -0.07818025 -0.06528751 -0.067542456 0.06027783 0.09153782
-0.05978456 0.0070051006 -0.0026510248 0.010181587 -0.052674543 -0.057626322 0.056089625 0.050789617
-0.052561995 0.092363015 -0.06692984 -0.029254291 0.08395679 0.02922713 0.015660603 -0.049230892
0.0019897157 0.056745432 0.014099996 0.04459885 -0.0016730295 -0.076918766 0.049421303 0.020635199
0.031625234 -0.06576651 -0.031711914 0.07062032 -0.04711917 0.05017473 0.034150418 0.015570207
0.022527859 -0.058326375 0.039441478 -0.07865309 -0.02895786 0.051076435 -0.027592134 0.0027453087
0.0022167598 0.049410578 -0.076957054 0.051248964 0.066311546 0.011646585 -0.030550638 0.022127764
00000000: 5fe6 2d3c c902 5b3c 87f9 17bd e3fa dd3c
00000010: 1165 45bd 5e1d 84bd 4668 2d3d e401 1ebb
00000020: 2df6 6fbd dde2 ab3d f9f6 ebbc 1d72 b23b
00000030: 0b1c f3bc 8719 3abc a5ee a63d e104 1dbd
00000040: 9ec6 5f3d b822 893d 3c4b c13c 2de2 58bc
00000050: 756e e43c 75b9 d43c 15b0 2f3b da4a b33d
00000060: 1322 853d ee8c a63d facb 82bd 1da5 8a3d
00000070: 318f c23c ea1a abbc 123d 543d f8e4 a0bd
00000080: ad76 323d 64b2 853d 431d ed3c 7e3a 8c3d
00000090: a0e0 aa3d e55c 6e3d b69f 3dbd d0dc 9bbc
000000a0: 37ab 4a3d 724f e2bc c6fc 0ebd 7aa4 84ba
000000b0: 2422 0a3d ef8f a8bd 6c74 363c 0fe7 2c3d
000000c0: 6fcd 333d dbd4 04bd cda8 4ebb 1f4f a23a
000000d0: 905a 173d ac07 82bd c0d3 d9bc d787 593d
000000e0: 6925 dcbc 0cee 96bd a628 d2bc 33ee 753d
000000f0: bbb9 a4bd 21af 15bd f93c 893d 7244 a43d
00000100: 54b4 4cbd c4b6 ac3d 37c9 83bc 06bd 413d
00000110: 396b 73bc 65ba 1abc 83ed 183d 75d1 02bb
00000120: a4a9 a53d 5df1 963d dce1 19bd 357a c0bb
00000130: bef2 233d 3b80 933d 71ed a6bd 2a02 903d
00000140: 2120 953d dfd6 b13c 99c1 7fbd 6bba 253d
00000150: 59c7 6f3d e024 03bd cfde ffbb 0f27 923d
00000160: 6a46 063d 9fe8 9cbd 5755 8c3d 850c 7d3d
00000170: c175 73bc 3457 823d eafd 803d d77b 21bd
00000180: f000 133d 046c f3ba 84a0 4fbd ed36 30bd
00000190: 0e3b 643d b1ac c6bc ba09 08bd 5a65 81bd
000001a0: 34c4 96bd 3e29 083c 8aa0 74bd 3608 4f3d
000001b0: ad49 003b f0f9 a33c 5ddb 28bd b959 b7bc
000001c0: c901 9bbd 8f0a 19bd 08d6 973d 8e79 ce3c
000001d0: d96d 4d3d 329c 5a3c a659 aabc 439f b63d
000001e0: 6a8c 853c 65f1 83bd 7d05 3dbd fb22 033d
000001f0: 0385 1e3b 769e 453d f333 073c 8a1c 733d
00000200: 520b 8d3d 8e64 793d 73e9 5f3d d9fd bebc
00000210: 6f57 32bd 2b10 763d ce54 d53a 6c11 83bd
00000220: 1516 a3bd 9ab8 70bd 1cb5 423d 0e7a e43c
00000230: 4db4 6cbd 078b 9ebd f959 633d 4355 b2bd
00000240: f2dc c33c c33d a13d 43fe a8ba 0750 14bb
00000250: 84ab a7bd 6444 8cbd 8e71 8b3d 7d8b 7b3c
00000260: 7ef3 00bd 611f c33b f80a 8a3c 28dc e93a
00000270: a3f0 f33b 9711 55bc 8088 0ebd 08b1 4c3a
00000280: 5d10 e13c ae2f 5b3d aa2b d23c 4a8d dfbc
00000290: 9f37 95bc 3110 edbb f133 b93c c62b ac3c
000002a0: dbb0 273d ee45 ee3c 18c9 653d c680 fb3c
000002b0: dc6c 42bd 628f 9dbd 2c13 cfbc 2595 4bbd
000002c0: e130 b5bc bb36 c2bc 357c 97bc 1c49 853c
000002d0: b95d debc 88a0 463c 352e 713d 9eaa 713c
000002e0: 07cb c2b8 fd94 523d 627b 8abc 5e44 e9bc
000002f0: 22b8 8fbd f792 84bd f02d 4e3d 8969 43bc
00000300: 3ec4 583c 9964 3f3d f58c a1bd e2a7 32bd
00000310: 964f f2ba ff79 2dbc 0fe3 a43d e418 45bd
00000320: bf4e b13d e112 b63c 9add 36bd f81c a0bd
00000330: 75b5 85bd b353 8abd e3e5 763d 2e78 bb3d
00000340: a8e0 74bd 0b8b e53b d1bc 2dbb acd0 263c
00000350: 43c1 57bd 9409 6cbd 3cbe 653d c608 503d
00000360: 3f4b 57bd d228 bd3d 8312 89bd b2a6 efbc
00000370: 8af1 ab3d bc6d ef3c aa4a 803c 55a6 49bd
00000380: e465 023b e66d 683d ab03 673c 49ad 363d
00000390: 8e49 dbba 9687 9dbd fe6d 4a3d 260b a93c
000003a0: 7689 013d 98b0 86bd 5ae4 01bd 63a1 903d
000003b0: 0800 41bd 0584 4d3d 4fe1 0b3d 2e1a 7f3c
000003c0: 588c b83c a3e7 6ebd 638d 213d df14 a1bd
000003d0: 0939 edbc 8635 513d e608 e2bc a3ea 333b
000003e0: 0f47 113b bf62 4a3d a99b 9dbd 6fea 513d
000003f0: 59ce 873d 51d1 3e3c 5545 fabc 4945 b53c

layer4.0.bias f4 [64]
-0.07879725 0.0334616 0.016428791 -0.075999886 0.06964602 0.061848324 -0.065497376 0.027075773
-0.0025572008 0.050180465 -0.022538846 0.05242698 0.0680646 -0.054193523 0.06227761 -0.045587122
-0.075372145 -0.07940095 0.04181093 -0.04335456 -0.07819728 0.0017349978 0.0044360324 -0.0008926471
0.075904086 -0.046083406 -0.061635166 -0.002668971 -0.015953984 0.027126497 0.072234884 0.08130945
0.020879751 -0.06055473 0.057551384 0.016653217 0.07891798 0.07722808 0.045694534 -0.026702613
0.022984501 0.029578645 0.07193094 0.014237613 -0.045055535 0.03276069 0.06083085 0.054124445
0.02578819 -0.037426274 0.02108881 -0.021277437 0.043889463 -0.03481257 -0.046906207 0.04665742
0.014051291 0.019445099 0.059870776 -0.037177254 0.065422304 -0.06782106 0.00025651435 -0.08032055
00000000: 7460 a1bd 080f 093d ac95 863c d4a5 9bbd
00000010: 93a2 8e3d ab54 7d3d 7d23 86bd 03ce dd3c
00000020: b696 27bb 088a 4d3d 63a3 b8bc acbd 563d
00000030: 7465 8b3d 07fa 5dbd cf16 7f3d 90b9 3abd
00000040: b65c 9abd f79c a2bd f041 2b3d 8d94 31bd
00000050: e525 a0bd de68 e33a 235c 913b 8800 6aba
00000060: 9a73 9b3d f4c1 3cbd 2875 7cbd e7e9 2ebb
00000070: eeb1 82bc 6338 de3c e2ef 933d 9285 a63d
00000080: 030c ab3c 3d08 78bd 00bb 6b3d 546c 883c
00000090: c09f a13d c129 9e3d 312a 3b3d 70bf dabc
000000a0: fe49 bc3c ea4e f23c 8750 933d e144 693c
000000b0: 278c 38bd 1330 063d c529 793d 98b1 5d3d
000000c0: c141 d33c 4b4c 19bd 71c2 ac3c 054e aebc
000000d0: 70c5 333d a097 0ebd b920 40bd da1b 3f3d
000000e0: 6337 663c 544b 9f3c 0f3b 753d 2d47 18bd
000000f0: 21fc 853d c5e5 8abd c67c 8639 1a7f a4bd

layer4.1.weight f4 [64]
0.98739004 0.996296 1.0067387 0.98870647 0.99185765 1.0055684 0.98859537 0.9893292
0.9855545 0.99387777 1.0017058 0.99653363 1.0095506 0.9952708 1.0043219 1.0078465
0.9916101 1.0154557 1.0014836 1.004361 1.0056882 1.0006484 0.9998246 0.9877277
1.0108992 0.98848814 1.0039724 0.99401516 0.9982058 0.99351954 1.005605 0.99169403
0.9901693 0.999552 0.99784034 0.9985824 1.0276616 0.99755067 0.9976796 0.9909371
1.0171493 0.9990373 0.99968594 1.0140315 0.9975607 0.9955577 1.0037436 1.0045252
0.9965422 1.0063316 0.9934699 1.0039941 0.9924814 0.9970568 1.0035322 1.0023658
1.0176082 0.99646336 1.000668 1.0026633 0.99809825 0.9988093 0.98829925 0.99541503
00000000: 98c5 7c3f 410d 7f3f d0dc 803f de1b 7d3f
00000010: 62ea 7d3f 77b6 803f 9614 7d3f ae44 7d3f
00000020: 4d4d 7c3f c66e 7e3f e537 803f d41c 7f3f
00000030: f438 813f 11ca 7e3f 9f8d 803f 1d01 813f
00000040: 29da 7d3f 74fa 813f 9d30 803f e78e 803f
00000050: 64ba 803f 3f15 803f 81f4 7f3f b9db 7c3f
00000060: 2565 813f 8f0d 7d3f 2b82 803f c777 7e3f
00000070: 6a8a 7f3f 4c57 7e3f aab7 803f a9df 7d3f
00000080: bc7b 7d3f a4e2 7f3f 7772 7f3f 19a3 7f3f
00000090: 6a8a 833f 7b5f 7f3f ee67 7f3f 0eae 7d3f
000000a0: f331 823f e9c0 7f3f 6beb 7f3f c9cb 813f
000000b0: 2360 7f3f dfdc 7e3f ac7a 803f 4894 803f
000000c0: 641d 7f3f 79cf 803f 0b54 7e3f e182 803f
000000d0: 4313 7e3f 1d3f 7f3f be73 803f 864d 803f
000000e0: fc40 823f 3918 7f3f e415 803f 4557 803f
000000f0: 5e83 7f3f f7b1 7f3f 2e01 7d3f 85d3 7e3f

layer4.1.bias f4 [64]
0.009640941 0.010345397 -0.0043015983 -0.0023142062 -0.007664841 -0.0011064948 -0.0162249 -0.0066717756
-0.003990778 0.0035490638 0.005229475 0.0026424264 0.006463229 0.0005602146 -0.01025829 0.0038421499
-0.003618206 0.013596036 0.0068071843 0.0024576704 -0.0046969843 0.00017377181 -0.005741492 -0.021821933
0.0064829653 -0.000421704 -0.009632551 -0.0076213344 0.0063597225 -0.004482265 -0.0069139437 -0.018194659
-0.00062219176 0.002001939 -0.006101995 -0.0019080645 0.00040742513 -0.007364884 -0.004167932 -0.016658679
-0.0052945167 -0.009505541 0.010218081 -0.013867137 -0.015040745 -0.01113145 0.002818373 -0.009206348
0.0025111989 0.007967309 0.003910333 -0.008662507 0.0052526025 0.0030355365 0.0019848202 -0.021505538
-0.008355283 -0.008187489 -0.014995489 0.004989576 0.005400176 -0.0016371133 -0.007460703 -0.0058110342
00000000: 0af5 1d3c bd7f 293c 6cf4 8cbb f0a9 17bb
00000010: 5929 fbbb ce07 91ba 15ea 84bc e99e dabb
00000020: 12c5 82bb 6997 683b 045c ab3b 8f2c 2d3b
00000030: 7fc9 d33b 5edb 123a 6312 28bc 94cc 7b3b
00000040: 6c1f 6dbb e8c1 5e3c cd0e df3b de10 213b
00000050: 29e9 99bb 8436 3639 2023 bcbb e9c3 b2bc
00000060: 0e6f d43b 2718 ddb9 d9d1 1dbc 63bc f9bb
00000070: 3865 d03b f7df 92bb 5d8e e2bb f70c 95bc
00000080: 951a 23ba f732 033b 3ef3 c7bb 0518 faba
00000090: ad9b d539 2055 f1bb 2693 88bb c877 88bc
000000a0: a07d adbb 21bd 1bbc bd69 273c fd32 63bc
000000b0: 756d 76bc af60 36bc 74b4 383b 39d6 16bc
000000c0: ed92 243b 5189 023c 4022 803b 30ed 0dbc
000000d0: 061e ac3b daef 463b c213 023b 622c b0bc
000000e0: 99e4 08bc d124 06bc a4af 75bc 997f a33b
000000f0: f6f3 b03b 6894 d6ba ea78 f4bb 7d6a bebb

layer4.1.running_mean f4 [64]
0.38539895 0.3259867 0.4045093 0.13759601 -0.15189506 0.24329492 -0.31985208 -0.10347508
0.5326827 0.25447693 -0.07037312 -0.042219058 -0.31999388 0.25964466 0.28681454 -0.1447955
-0.6315324 -0.20128304 0.38105226 -0.15341221 -0.37705782 -0.196285 -0.16838147 -0.3318295
-0.18963961 -0.06660154 -0.06716352 -0.16212149 0.4884095 0.08461226 0.24589372 -0.08131485
0.27898684 -0.12349904 0.30800277 0.06360872 -0.20503753 -0.29027376 0.17428957 0.08342488
0.42279777 -0.17672111 0.09658411 0.14075397 -0.25375083 0.073120125 0.3484704 -0.26762104
0.1787644 -0.010983222 0.5493479 0.07750593 0.88006234 -0.5857011 -0.6667789 -0.22763191
-0.28320903 -0.028134424 0.1409123 0.06321006 0.3207326 -0.2349722 -0.12101476 -0.31039736
00000000: 0353 c53e bbe7 a63e d81b cf3e f8e5 0c3e
00000010: 618a 1bbe 4e22 793e a7c3 a3be beea d3bd
00000020: e55d 083f cd4a 823e c81f 90bd e4ed 2cbd
00000030: 3dd6 a3be 25f0 843e 5bd9 923e 4645 14be
00000040: 1bac 21bf 241d 4ebe 4819 c33e 1718 1dbe
00000050: b90d c1be effe 48be 316c 2cbe 8ee5 a9be
00000060: e330 42be 6366 88bd 078d 89bd 2d03 26be
00000070: cf10 fa3e 3149 ad3d 90cb 7b3e 6688 a6bd
00000080: 5dd7 8e3e 11ed fcbd 8ab2 9d3e 4a45 823d
00000090: 5cf5 51be c39e 94be f778 323e aada aa3d
000000a0: f378 d83e 61f6 34be e4cd c53d cf21 103e
000000b0: a1eb 81be 01c0 953d b66a b23e a005 89be
000000c0: 040e 373e f9f2 33bc 10a2 0c3f 6ebb 9e3d
000000d0: c44b 613f 82f0 15bf 06b2 2abf 5718 69be
000000e0: c600 91be 2a7a e6bc 504b 103e 4774 813d
000000f0: 1037 a43e 8d9c 70be 96d6 f7bd 67ec 9ebe

layer4.1.running_var f4 [64]
0.48225492 0.235082 0.41564286 0.2541329 0.31164736 0.4741236 0.2999289 0.18039535
0.72551656 0.2933348 0.27784228 0.1973845 0.5688206 0.26307338 0.4472229 0.19855401
0.3254171 0.30474758 0.28555813 0.20740314 0.4829911 0.19862382 0.23464379 0.2566914
0.29373118 0.31282136 0.2699016 0.5000153 0.8692217 0.44704312 0.5449229 0.19507252
0.40206438 0.25081885 0.40543982 0.31575927 0.26428378 0.85833985 0.47531927 0.2803808
0.39666513 0.30336836 0.26438534 0.30271643 0.5391233 0.2929998 0.44313332 0.34555495
0.22907737 0.43163162 0.48232305 0.31434786 0.8931091 0.60025007 1.0734483 0.30732715
0.20955943 0.21864413 0.23313275 0.33900222 0.36361894 0.40918702 0.22301471 0.4074035
00000000: 1eea f63e 56b9 703e 24cf d43e b51d 823e
00000010: 3e90 9f3e 54c0 f23e 4890 993e 8fb9 383e
00000020: 74bb 393f fb2f 963e 5841 8e3e 2a1f 4a3e
00000030: 3a9e 113f 8eb1 863e 66fa e43e be51 4b3e
00000040: 129d a63e e007 9c3e ad34 923e 7d61 543e
00000050: 9c4a f73e 0b64 4b3e 7646 703e 0e6d 833e
00000060: ef63 963e 1f2a a03e 8b30 8a3e 0101 003f
00000070: 5085 5e3f d6e2 e43e 1180 0b3f 17c1 473e
00000080: 62db cd3e 546b 803e cf95 cf3e 33ab a13e
00000090: 3450 873e 29bc 5b3f 0c5d f33e 128e 8f3e
000000a0: b117 cb3e 1953 9b3e 845d 873e a6fd 9a3e
000000b0: fc03 0a3f 1204 963e 5fe2 e23e 94ec b03e
000000c0: 4293 6a3e d2fe dc3e 0cf3 f63e 34f2 a03e
000000d0: cca2 643f fda9 193f c166 893f fc59 9d3e
000000e0: bf96 563e 3fe4 5f3e 5aba 6e3e b391 ad3e
000000f0: 432c ba3e f680 d13e f85d 643e 3197 d03e

layer5.0.weight f4 [64, 64, 3, 3]
0.043346133 -0.011134911 -0.021307103 0.006206188 0.013264511 0.029064724 -0.012993379 0.006919969
-0.035329584 0.043832764 0.03879679 -0.0011202513 0.009610835 0.028781513 0.011835865 0.026912201
-0.033744745 0.013700695 0.01052799 0.028733192 -4.378366e-05 0.007929583 -0.021243803 0.029506544
0.029988768 0.039571192 0.031350765 0.02789987 -0.019173475 0.004524495 -0.03203566 0.04144455
0.043786034 0.03281115 -0.029549198 -0.022355603 0.0411531 0.028178228 -0.0154295275 0.007806209
-0.01022639 -0.01073917 0.005129585 0.0011034921 0.03580941 0.033785306 0.03769256 -0.025949864
0.00067946257 -0.02614179 0.017650718 -0.015016932 -0.0010129864 -0.00057552557 0.022824481 -0.028005004
-0.011309762 0.012544251 0.0421918 0.046459056 0.010263733 -0.00062414154 0.0013395081 -0.009145589
0.0018569893 -0.008707961 0.009647623 0.018864468 0.005618737 -0.0060559176 -0.01813238 -0.009966441
0.03134289 -0.015822371 -0.036084324 -0.029842172 0.030726543 0.0018692694 0.019341042 -0.034979824
-0.035515603 0.033911586 0.004032945 0.035595942 -0.023055037 0.024875456 0.009593719 0.012157091
0.025994636 0.006658522 -0.023376064 -0.019030474 0.02643965 0.028855596 -0.03610482 0.029288908
-0.02621883 -0.041995343 0.0028708018 0.02604791 -0.015576258 -0.023909545 -0.03465054 0.010812873
-0.010471366 0.035569634 0.031528294 -0.00903021 0.00734951 -0.0445158 -0.01829025 -0.02836833
0.0142105725 0.029318474 -0.0034304247 -0.029770765 -0.027564153 0.025046244 0.037944056 0.014006197
-0.009953058 -0.023837095 -0.025743961 0.018228468 -0.015056236 0.039603587 0.025699336 -0.006284094
0.0016239831 0.039322115 -0.01651299 -0.00045409476 0.02570258 -0.02035287 -0.012930906 0.0026962871
0.030774659 0.004842566 0.008136135 0.029374663 -0.03120094 -0.040682185 0.028331652 -0.004152331
0.011052418 0.0022162728 0.038007658 -0.039808847 -0.019327367 0.02101143 -0.036384173 0.0035619433
0.00337143 0.023459429 -0.03667706 0.0046404293 0.018529959 0.008836793 -0.00081619975 -0.013779379
-0.020259917 0.013259387 0.029583901 0.011474765 -0.032611005 0.037015587 0.03549867 0.024558358
0.03698979 0.022745712 0.042519722 -0.031027649 0.029838808 -0.027299654 0.016643979 -0.017291747
0.021650832 0.019532574 0.022153473 -0.01940634 -0.0045039337 0.008964957 0.044518527 0.024702467
-0.0007315084 -0.0200149 0.03240087 0.0074483436 -0.01883121 -0.011327786 0.008452424 -0.02479763
-0.034138076 0.031599697 0.016118782 0.020015165 -0.01887128 0.0013966092 0.012390032 0.002202939
0.039383277 -0.00368656 0.025885351 0.018835621 -0.034679648 -0.03133227 -0.0069028703 -0.0037875518
-0.005475611 0.0289505 -0.008335076 -0.03280061 0.027847447 -0.03162211 -0.012267034 -0.025042688
0.02594314 0.017547315 0.0038335614 0.017644892 -0.021420078 -0.011329948 -0.0213414 -0.029137341
-0.024869042 0.016787216 -0.036211684 0.009676325 0.022081617 0.025603514 0.020903677 0.0012211123
0.00083031296 0.0029104531 -0.013124984 -0.013946716 0.033217147 -0.027232068 0.025878279 -0.021013992
-0.0042757937 0.0013625119 0.04667333 0.012049427 -0.013947008 0.0015746574 0.0300614 -0.022617338
-0.008013547 -0.036443353 0.015867487 -0.0002857802 -0.016709331 -0.017603032 0.018909039 -0.008486783
00000000: b78b 313d 346f 36bc 3c8c aebc 475d cb3b
00000010: 6453 593c 2519 ee3c 2ee2 54bc e8c0 e23b
00000020: c1b5 10bd fc89 333d 62e9 1e3d 65d5 92ba
00000030: c476 1d3c 35c7 eb3c 37eb 413c fa76 dc3c
00000040: ee37 0abd e178 603c 977d 2c3c df61 eb3c
00000050: 59a4 37b8 15eb 013c 7c07 aebc b5b7 f13c
00000060: 01ab f53c 6715 223d a969 003d 458e e43c
00000070: b111 9dbc 3742 943b d337 03bd c3c1 293d
00000080: fc58 333d fc64 063d 2911 f2bc 1923 b7bc
00000090: 2790 283d 07d6 e63c 21cc 7cbc 3acb ff3b
000000a0: 978c 27bc 58f3 2fbc 1416 a83b 0da3 903a
000000b0: e3ac 123d 7662 0a3d 8463 1a3d cf94 d4bc
000000c0: f61d 323a 4f27 d6bc 3d98 903c 9409 76bc
000000d0: 2fc6 84ba dede 16ba 68fa ba3c c06a e5bc
000000e0: 944c 39bc 6786 4d3c 4fd1 2c3d da4b 3e3d
000000f0: 3729 283c 6e9d 23ba 6f92 af3a 61d7 15bc
00000100: 3966 f33a d6ab 0ebc 1011 1e3c a889 9a3c
00000110: 621d b83b b870 c6bb 5b8a 94bc 494a 23bc
00000120: 6761 003d eb9d 81bc 28cd 13bd 9277 f4bc
00000130: 3bb6 fb3c 4602 f53a 1b71 9e3c 0147 0fbd
00000140: cf78 11bd e0e6 0a3d cb26 843b 0dcd 113d
00000150: ebdd bcbc 9dc7 cb3c f92e 1d3c 892e 473c
00000160: b4f2 d43c bb2f da3b 297f bfbc cce5 9bbc
00000170: f797 d83c 9262 ec3c a6e2 13bd 4bef ef3c
00000180: dfc8 d6bc 4f03 2cbd 1024 3c3b 6d62 d53c
00000190: 9033 7fbc f3dd c3bc baed 0dbd 7a28 313c
000001a0: 1890 2bbc 77b1 113d d023 013d 72f3 13bc
000001b0: 29d4 f03b 3356 36bd 6fd5 95bc b364 e8bc
000001c0: 76d3 683c 4c2d f03c fad0 60bb d2e1 f3bc
000001d0: 38ce e1bc c82d cd3c 3a6b 1b3d 407a 653c
000001e0: 2712 23bc 0346 c3bc 00e5 d2bc de53 953c
000001f0: 6eae 76bc 5f37 223d 6a87 d23c cdea cdbb
00000200: d5db d43a 3a10 213d 4046 87bc 9113 eeb9
00000210: 388e d23c 10bb a6bc 27dc 53bc 31b4 303b
00000220: 231b fc3c 63ae 9e3b 6c4d 053c 22a3 f03c
00000230: 1d99 ffbc 5da2 26bd c817 e83c 4710 88bb
00000240: 3315 353c e33e 113b ebad 1b3d 9a0e 23bd
00000250: 6d54 9ebc 2a20 ac3c 9207 15bd 7e6f 693b
00000260: 36f3 5c3b fd2d c03c af3a 16bd be0e 983b
00000270: 24cc 973c 32c8 103c 3df6 55ba e8c2 61bc
00000280: 20f8 a5bc e63d 593c f059 f23c a700 3c3c
00000290: 1e93 05bd a89d 173d 0e67 113d 9c2e c93c
000002a0: 9b82 173d 3755 ba3c 2929 2e3d b22d febc
000002b0: 8470 f43c 86a3 dfbc f458 883c 6ca7 8dbc
000002c0: 165d b13c c702 a03c 337b b53c 0bfa 9ebc
000002d0: bc95 93bb c1e1 123c 0f59 363d d45c ca3c
000002e0: b3c2 3fba 4af6 a3bc c6b6 043d 3c11 f43b
000002f0: e943 9abc 2e98 39bc 097c 0a3c 6624 cbbc
00000300: 5ed4 0bbd af6e 013d 890b 843c d8f6 a33c
00000310: f197 9abc 6e0e b73a 90ff 4a3c 2f5f 103b
00000320: 5c50 213d 379a 71bb 840d d43c 294d 9a3c
00000330: 3f0c 0ebd 4456 00bd 7931 e2bb 9338 78bb
00000340: c16c b3bb 9929 ed3c d88f 08bc ef59 06bd
00000350: 5420 e43c 3086 01bd abfb 48bc 5326 cdbc
00000360: b586 d43c 63bf 8f3c 7d3c 7b3b 058c 903c
00000370: 2979 afbc 3fa1 39bc 29d4 aebc 6fb1 eebc
00000380: 29ba cbbc 5885 893c b452 14bd 7389 1e3c
00000390: 82e4 b43c 76be d13c 303e ab3c bb0d a03a
000003a0: 5ca9 593a 4dbd 3e3b 2c0a 57bc c480 64bc
000003b0: b40e 083d c915 dfbc affe d33c 8925 acbc
000003c0: f51b 8cbb 5096 b23a 892c 3f3d f66a 453c
000003d0: fe81 64bc bc64 ce3a 5343 f63c ff47 b9bc
000003e0: 414b 03bc a045 15bd 88fc 813c c5d4 95b9
000003f0: 02e2 88bc 3c34 90bc 21e7 9a3c 260c 0bbc

layer5.0.bias f4 [64]
0.030365577 -0.00011872298 0.00022022282 -0.0347049 -0.013035232 -0.017977796 -0.0007927775 0.03882637
0.020843614 0.005847205 0.035169218 0.009482272 -0.0070174895 0.030993896 -0.013472701 0.010960374
0.035955805 -0.030437918 -0.0023882946 0.038762957 0.03107158 -0.03542067 0.027328119 0.035576817
0.03479611 0.010540656 -0.034315407 -0.018319894 0.016612392 -0.024931591 -0.031373356 0.023365004
0.030321207 0.028846052 -0.0353821 0.027166482 -0.03046326 -0.031369302 -0.014413563 0.014624201
-0.0321651 -0.0018520406 0.029798677 0.040621527 0.034073263 -0.038700707 0.041270137 0.03580538
0.032166436 0.008331276 0.037903033 0.02281315 -0.03406195 0.033242237 0.0033953923 -0.0012336817
-0.0006199047 -0.011072412 -0.031680956 0.015039346 0.037828717 0.030622419 0.032272115 -0.011619509
00000000: 3bc1 f83c eafa f8b8 9deb 6639 ba26 0ebd
00000010: ba91 55bc 2c46 93bc 66d2 4fba 6608 1f3d
00000020: 3ac0 aa3c e999 bf3b 990d 103d 885b 1b3c
00000030: f8f2 e5bb e9e6 fd3c 9bbc 5cbc 2493 333c
00000040: 6546 133d f158 f9bc ef84 1cbb e8c5 1e3d
00000050: d389 fe3c 4415 11bd 38df df3c ffb8 113d
00000060: 5e86 0e3d b7b2 2c3c 508e 0cbd 9a13 96bc
00000070: b616 883c 563d ccbc 5981 00bd f767 bf3c
00000080: 2e64 f83c 8e4e ec3c d2ec 10bd 3e8c de3c
00000090: 168e f9bc 197d 00bd dd26 6cbc 589a 6f3c
000000a0: 8dbf 03bd 2cc0 f2ba 5b1c f43c c262 263d
000000b0: 6890 0b3d a284 1ebd e00a 293d aaa8 123d
000000c0: f4c0 033d e77f 083c 3640 1b3d a5e2 ba3c
000000d0: 8b84 0bbd 0329 083d 3b85 5e3b 7db3 a1ba
000000e0: 1a81 22ba 1069 35bc e4c3 01bd 9767 763c
000000f0: 49f2 1a3d dedb fa3c c42f 043d c15f 3ebc

layer5.1.weight f4 [64]
1.0176605 1.0203938 1.0190407 1.0181732 1.0159603 1.0222521 1.0212517 1.0204442
1.0145321 1.0191548 1.019547 1.023995 1.0165913 1.0142576 1.021652 1.0217898
1.0206141 1.019241 1.0214725 1.0227697 1.0234609 1.0129714 1.0132109 1.0170673
1.0214149 1.019187 1.0159662 1.0190833 1.0265476 1.0211514 1.0184948 1.0215589
1.0216907 1.0197914 1.0191483 1.0186666 1.017429 1.0211834 1.0186698 1.0216981
1.0159277 1.0121609 1.0148793 1.0231901 1.0218663 1.0228055 1.0209848 1.0152776
1.0214337 1.0169492 1.0222538 1.018525 1.0215378 1.020516 1.0143256 1.0163623
1.0179226 1.0230072 1.026224 1.0160742 1.0192188 1.0170116 1.0170687 1.019751
00000000: b342 823f 449c 823f ed6f 823f 8053 823f
00000010: fd0a 823f 28d9 823f 60b8 823f ea9d 823f
00000020: 30dc 813f aa73 823f 8480 823f 4512 833f
00000030: aa1f 823f 31d3 813f 7ec5 823f 02ca 823f
00000040: 7ca3 823f 7d76 823f 9cbf 823f 1eea 823f
00000050: c400 833f 0ca9 813f e5b0 813f 432f 823f
00000060: b9bd 823f b874 823f 2e0b 823f 5271 823f
00000070: e965 833f 17b5 823f 0a5e 823f 71c2 823f
00000080: c3c6 823f 8688 823f 7473 823f ab63 823f
00000090: 1d3b 823f 23b6 823f c663 823f 01c7 823f
000000a0: eb09 823f 7d8e 813f 91e7 813f e5f7 823f
000000b0: 84cc 823f 4aeb 823f a1af 823f 9ef4 813f
000000c0: 57be 823f 642b 823f 36d9 823f 075f 823f
000000d0: c0c1 823f 45a0 823f 6cd5 813f 2918 823f
000000e0: 4a4b 823f e6f1 823f 4f5b 833f b80e 823f
000000f0: c375 823f 702d 823f 4f2f 823f 3387 823f

layer5.1.bias f4 [64]
0.01822197 0.017464405 0.012052541 0.018206395 0.013817164 0.018358918 0.017691942 0.017376086
0.017263232 0.020390682 0.00616943 0.022096926 0.010234455 0.011031971 0.016605167 0.013335158
0.015892781 0.015986722 0.015803415 0.011929322 0.015890328 0.005346055 0.009389639 0.01602108
0.018753953 0.023904596 0.012262247 0.010782277 0.021925384 0.014433151 0.014678908 0.017532447
0.019442435 0.015536788 0.015523293 0.020714639 0.014242927 0.016813345 0.013839018 0.018831374
0.011702323 0.010329711 0.013496187 0.013601652 0.011190436 0.020505207 0.013815458 0.016770385
0.019007696 0.01258158 0.015904143 0.013284863 0.018209148 0.012952063 0.021447131 0.0140162865
0.011395725 0.016451607 0.02081352 0.011259773 0.019082312 0.0078093596 0.014754673 0.014819264
00000000: 3e46 953c 8311 8f3c 0578 453c 9425 953c
00000010: 6361 623c 7165 963c b1ee 903c 4b58 8e3c
00000020: 9f6b 8d3c 5c0a a73c ee28 ca3b 9d04 b53c
00000030: 6aae 273c 71bf 343c 8f07 883c b57b 5a3c
00000040: 9431 823c 96f6 823c 2a76 813c 3473 433c
00000050: 6f2c 823c f62d af3b 00d7 193c a43e 833c
00000060: e4a1 993c 92d3 c33c 97e7 483c 26a8 303c
00000070: dd9c b33c 0679 6c3c cd7f 703c 35a0 8f3c
00000080: be45 9f3c 038e 7e3c 6955 7e3c bfb1 a93c
00000090: 2a5b 693c 24bc 893c 0cbd 623c 4144 9a3c
000000a0: 1abb 3f3c f33d 293c 1c1f 5d3c 77d9 5e3c
000000b0: 1758 373c 89fa a73c 3b5a 623c 0c62 893c
000000c0: 07b6 9b3c f922 4e3c 6849 823c c1a8 593c
000000d0: 5a2b 953c e434 543c e5b1 af3c 91a4 653c
000000e0: 23b5 3a3c 85c5 863c 1d81 aa3c e97a 383c
000000f0: 8252 9c3c a8e5 ff3b 95bd 713c 80cc 723c

layer5.1.running_mean f4 [64]
0.9563545 0.236867 -0.068555675 0.86196506 -0.81966275 0.4867144 0.38270754 0.6681125
0.59434754 0.78601557 0.622508 -0.6408093 0.23728007 -0.50471014 0.30688122 0.5685722
-0.9925431 0.5931327 0.49180615 0.16247189 0.5418652 0.34515765 -1.0494528 0.17346066
-0.093776576 0.7767151 0.56849784 0.2058284 0.6517252 0.3298561 -0.4397916 -0.46165463
0.3658235 1.0114988 -0.6935824 0.8574434 0.43362206 0.7537134 0.63592786 -0.8598531
0.39829358 -0.7912313 0.31545293 0.5921575 0.71665084 0.48860076 0.3260643 0.46802503
0.6485836 -0.4369476 0.43681926 0.5981385 0.303236 0.39103252 1.2058096 -0.53579086
0.032381188 0.5962062 0.26135635 -1.3716707 0.55249554 0.31221142 0.7366776 -0.22944544
00000000: a6d3 743f 438d 723e eb66 8cbd bea9 5c3f
00000010: 6bd5 51bf a132 f93e 3ef2 c33e 6c09 2b3f
00000020: 2927 183f 5138 493f af5c 1f3f 140c 24bf
00000030: 8cf9 723e af34 01bf 891f 9d3e f38d 113f
00000040: 4e17 7ebf 8bd7 173f 04ce fb3e 085f 263e
00000050: aeb7 0a3f 81b8 b03e 7854 86bf ac9f 313e
00000060: ef0d c0bd cdd6 463f 1389 113f aec4 523e
00000070: 76d7 263f e6e2 a83e 5d2c e1be ff5d ecbe
00000080: 384d bb3e cb78 813f 9e8e 31bf 6981 5b3f
00000090: b603 de3e 5df3 403f 2bcc 223f 551f 5cbf
000000a0: 23ed cb3e 228e 4abf 0c83 a13e a297 173f
000000b0: 6e76 373f e129 fa3e e6f1 a63e faa0 ef3e
000000c0: 9309 263f 99b7 dfbe c6a6 df3e 9b1f 193f
000000d0: c041 9b3e 6a35 c83e f857 9a3f 9729 09bf
000000e0: 23a2 043d f8a0 183f 80d0 853e e892 afbf
000000f0: 5970 0d3f 2dda 9f3e e796 3c3f bff3 6abe

layer5.1.running_var f4 [64]
1.2581481 1.0539154 0.85288745 0.764279 0.9108215 0.5384747 0.33954555 0.57834804
0.56302863 0.7241103 0.8219168 0.88029665 0.7793268 0.9835478 0.4689093 0.5561364
1.3561276 0.6001674 0.61287063 0.5693173 0.5373671 0.7128111 1.0773535 0.7388446
0.766189 0.46857628 0.64447206 0.41686735 0.86478865 0.5115212 0.83919275 0.7432606
0.39800957 0.63397944 0.84843665 0.77020884 0.46240386 0.8921737 1.035822 1.3121169
0.56567967 0.910158 0.419313 1.070698 0.6654905 0.73646533 0.57239723 0.6428793
0.6901727 0.62397784 0.52858025 0.5440112 0.5198091 0.4091048 1.09839 0.8630403
0.7922381 0.85435766 0.4973257 1.6204071 0.89338475 0.4034895 0.6962375 0.58363116
00000000: ff0a a13f b3e6 863f d556 5a3f caa7 433f
00000010: 992b 693f 7ad9 093f ead8 ad3e 9e0e 143f
00000020: a522 103f 4b5f 393f 2469 523f 1f5b 613f
00000030: f681 473f cac9 7b3f e114 f03e f55e 0e3f
00000040: 9795 ad3f 92a4 193f 17e5 1c3f c7be 113f
00000050: e490 093f ca7a 363f b8e6 893f eb24 3d3f
00000060: f624 443f 3be9 ef3e 1ffc 243f a36f d53e
00000070: ca62 5d3f 0ef3 023f 56d5 563f 5446 3e3f
00000080: e9c7 cb3e 7a4c 223f 2533 593f 682c 453f
00000090: 33c0 ec3e 7f65 643f d195 843f 72f3 a73f
000000a0: 62d0 103f 1d00 693f 32b0 d63e a20c 893f
000000b0: 965d 2a3f fe88 3c3f a088 123f bd93 243f
000000c0: 28af 303f 03bd 1f3f 0951 073f 5144 0b3f
000000d0: 3612 053f 2f76 d13e 0b98 8c3f 36f0 5c3f
000000e0: 1ed0 4a3f 2fb7 5a3f 79a1 fe3e 8069 cf3f
000000f0: ddb4 643f 2d96 ce3e 9f3c 323f da68 153f
