data/chkbox_models/chkbox_rnd9_0_bestVal.pt (torch_old, 35085 bytes, 25 tensors)

layer1.0.weight f4 [4, 1, 3, 3]
000000 90 57 63 3e 1a a7 fc bd 5a 9c 47 be 51 58 92 3e
       0.22201371 -0.123365596 -0.19493237 0.28583005
000010 98 f8 7e be bd b6 b8 bd e2 cd 7d 3e 53 33 37 bc
       -0.24899518 -0.090192296 0.2478557 -0.01118167
000020 dd 08 60 be b6 70 9c bd 87 bd 0b 3e 3a df 1c 3e
       -0.21878381 -0.076386854 0.13646518 0.15319529
000030 f1 9c b6 bd 3c ba 87 3e 34 6e 5c 3c c8 94 a4 3e
       -0.08916653 0.26509273 0.013454009 0.3214476
000040 86 cc a3 3e 86 ce 6a be 38 7e 50 3d 74 ef 3f be
       0.31991976 -0.22930345 0.05090162 -0.18743688
000050 b1 f0 79 be 23 54 a2 be 92 18 ee 3d a0 73 4a 3e
       -0.24408223 -0.31704816 0.1162578 0.1977067
000060 4d af ce bd 3d d6 a8 be 6b 21 1f 3d 95 04 9b 3d
       -0.1009203 -0.3297595 0.03885023 0.07569233
000070 5c bb 9c be b8 8d 91 3d 82 6a 55 3e 53 68 76 be
       -0.30611694 0.07107109 0.20841411 -0.24063234
000080 1e 44 95 3e f8 37 71 bd d2 f0 e2 bd e2 46 8b be
       0.29153532 -0.058891267 -0.11081089 -0.27202517

layer1.0.bias f4 [4]
000000 3e 4c 95 3c 48 d3 eb 3d 9a 78 5c be a0 72 cd 3d
       0.018224832 0.11514908 -0.21530381 0.100316286

layer1.1.weight f4 [4]
000000 a2 b9 76 3f 69 23 92 3f 9f 64 73 3f df 81 6e 3f
       0.96377003 1.1417056 0.9507541 0.9316692

layer1.1.bias f4 [4]
000000 10 16 41 3a 05 0c 08 bc c4 c8 8f bc 6a a1 68 3d
       0.00073656533 -0.008303647 -0.017551787 0.05679456

layer1.1.running_mean f4 [4]
000000 13 ef d5 bd 20 e2 5c 3f 07 93 6c bf 49 53 58 be
       -0.104459904 0.8628254 -0.92411846 -0.21125521

layer1.1.running_var f4 [4]
000000 b1 2e 05 3e fa 64 2c 3f 7f 13 17 3f 78 00 0e 3e
       0.13006093 0.6734158 0.59014124 0.13867366

layer2.0.weight f4 [8, 4, 3, 3]
000000 b7 9a 7c bd a8 4b 13 be 5e f5 f1 3d 99 31 f0 3d
       -0.061670985 -0.1438433 0.11814378 0.1172821
000010 45 37 30 be 74 49 c4 bd 77 f3 d4 bd 4e 63 bf bd
       -0.17208584 -0.095843226 -0.10398 -0.09345113
000020 9e 83 02 3e b8 30 de bd c5 8a 14 be 15 9f 4f bd
       0.1274552 -0.10849136 -0.14506061 -0.05068882
000030 a0 f8 2e bd 65 11 12 be 4b 69 14 3d cf 40 2b 3e
       -0.042717576 -0.14264448 0.036233228 0.16723941
000040 30 eb f9 3d 23 d1 c4 3c d3 c5 a8 3d 80 3b 97 3d
       0.122030616 0.024025505 0.08240857 0.073843956
000050 0e dd 89 bd 71 7b ed bd b5 26 e0 bc a5 68 8d 3d
       -0.06731616 -0.1159581 -0.027362207 0.06904725
000060 c4 eb 01 3e 95 4f c7 bd 15 45 b4 3d f0 e9 c6 bd
       0.12687594 -0.09731976 0.08802239 -0.09712589
000070 36 20 17 3e 68 93 fe bd a2 71 97 3d aa b3 0f be
       0.14758381 -0.12430459 0.073947206 -0.1403338
000080 95 4b 18 3e 8f 3b 68 3d f7 3e 0e be d8 67 24 be
       0.14872582 0.056697425 -0.13891207 -0.16055238
000090 b4 3b ca 3d 25 20 11 be e2 83 32 3a 69 c5 02 be
       0.09874669 -0.14172418 0.0006809813 -0.12770618
0000a0 0c 19 04 be 98 04 6b bc b0 68 11 be f6 ad c0 3d
       -0.1290018 -0.014344357 -0.14200091 0.094081804
0000b0 e0 c2 d5 bd 38 25 ea bd 7d 55 14 be 47 ba fe bd
       -0.1043756 -0.1143288 -0.14485736 -0.12437873
0000c0 90 74 e9 3d 84 f9 84 bd 88 d6 91 3d d7 0f dc 3c
       0.11399186 -0.06492904 0.07120997 0.026863022
0000d0 b5 8d d0 3d b5 b1 b1 3d 73 8f 9e bc 85 1e 1f 3e
       0.101832785 0.08676473 -0.019355511 0.15538986
0000e0 cc 7e 98 ba 11 bd a7 bd cb 25 6d 3d 74 6d 54 3d
       -0.0011634468 -0.081903584 0.05789737 0.051862195
0000f0 c8 d0 84 3d 6a c1 3e 3d d5 9c 08 3d 92 d8 b2 3c
       0.06485134 0.046571173 0.03335269 0.021831784
000100 98 03 b4 bd 50 57 86 3d 6f 2b f2 3d 9c a2 ae bd
       -0.08789748 0.06559622 0.118246906 -0.08527109
000110 af 55 10 3e 00 9b 5c 3b 81 a7 a9 3c c4 b1 3f bd
       0.14095186 0.0033661723 0.020709755 -0.04680039
000120 3a e7 b9 3d 66 fd a7 3d 32 02 74 3d ff 6c fe bd
       0.09077306 0.08202629 0.059572406 -0.12423133
000130 99 75 0e 3e 79 98 9e 3c 17 64 8d 3d 58 97 15 be
       0.13912047 0.019359814 0.06903856 -0.14608514
000140 fa 77 07 3e 06 56 3a 3e 6d 31 fe 3c f7 27 7d bc
       0.13229361 0.18196878 0.031029427 -0.015451423
000150 bc ca 83 3c 1f 03 0d 3e 5a 24 9e bd 91 cb 29 bd
       0.016087882 0.13770722 -0.07721777 -0.0414539
000160 86 0a 7a bd 85 fb 69 3c 22 c7 eb 3d 16 63 25 3c
       -0.061045192 0.014281158 0.11512591 0.010094425
000170 57 f4 31 ba 75 2f 92 3d 4f 7c f4 bd ba d5 ed bd
       -0.00067884236 0.07137958 -0.119377725 -0.11613031
000180 62 85 da 3d 0f 19 0d be 60 4c e4 3d 6d 12 61 bd
       0.10669972 -0.1377909 0.1114738 -0.054949213
000190 7a 5a d6 bd 4e 26 da bc a7 46 16 be 40 e5 68 3c
       -0.10466476 -0.026629593 -0.14675389 0.014214814
0001a0 76 f1 af bc 20 ff 27 3d 21 07 32 3d f5 24 2c be
       -0.021477442 0.04101479 0.04346383 -0.16810973
0001b0 0a c0 b0 bd ea 4f 0a 3e 05 e9 f4 3d 89 f1 4a bc
       -0.086303785 0.13507047 0.119585074 -0.012386688
0001c0 39 4c 9e 3d b3 a0 27 be c7 a7 20 be 16 21 4b 3d
       0.07729382 -0.16369896 -0.15689002 0.0495921
0001d0 4a 79 35 bc 53 9c 84 bb 39 81 19 be 45 78 94 bd
       -0.011076281 -0.0040469556 -0.14990701 -0.07249502
0001e0 74 4a 13 be e2 04 9b 3d 67 95 b8 bd 64 eb 38 be
       -0.1438387 0.07569291 -0.09012871 -0.18058544
0001f0 53 f7 5a 3d 6a 1f a7 3d 13 8a 3c bd 46 fd 30 3e
       0.053458523 0.08160289 -0.046030115 0.17284116
000200 0e c9 b7 3d 1f a9 89 bd 05 20 34 bc 7f fc c4 bd
       0.08973895 -0.067217104 -0.010993962 -0.09618472
000210 9e e0 af 3d 13 9a 95 3d 0d 3c b9 bd 42 2d b4 bd
       0.08587764 0.07304778 -0.09044657 -0.08797695
000220 a0 20 6a bd 4e 1e c9 bd de ec 1d 3d d2 23 98 bd
       -0.05716002 -0.09820233 0.038555972 -0.07428707
000230 b5 54 06 3e 2a 7d 6a 3d 8a d2 20 be 99 4f 70 3d
       0.1311825 0.057248272 -0.15705314 0.05866966
000240 f3 21 42 3e a5 d1 87 3d 5d 4e 5f bd 46 14 e7 bd
       0.18958263 0.066317834 -0.054518092 -0.11283164
000250 66 9b 97 3d c3 41 ca bd 32 d6 89 3d 6c 63 3f 3d
       0.07402687 -0.09875824 0.06730308 0.046725675
000260 12 32 11 be f4 8a fd bd 41 7e cb bd c1 ec 28 3e
       -0.14179257 -0.12380019 -0.099361904 0.16496564
000270 ef e1 01 3e 43 0a 37 be 26 28 f0 bd 53 46 ff bd
       0.12683843 -0.17875008 -0.11726408 -0.12464585
000280 e1 1d db bc 5e 3b 03 3e 27 1c cc 3d 21 d6 59 bb
       -0.026747646 0.12815616 0.09966307 -0.0033239203
000290 79 8a d8 bb 52 2a 4a 3c 7a 7c c6 3d d5 4b f2 bd
       -0.006608304 0.0123391915 0.09691711 -0.1183087
0002a0 56 5d 23 be d2 9b d6 bd 42 9b d0 bd 38 d7 e6 bd
       -0.15953574 -0.10478939 -0.10185863 -0.112715185
0002b0 00 0e fa bc 07 73 c0 3d 8b 6a 50 3d 92 40 ff 3d
       -0.030524254 0.0939694 0.050882857 0.12463488
0002c0 3c 51 c4 bd b2 89 c4 3d e3 41 e4 3d 30 f5 1f be
       -0.09585807 0.09596576 0.111453794 -0.15620875
0002d0 9c d9 c4 bd 5a 53 bd bd e5 62 1c 3e f2 9c cd 3d
       -0.09611818 -0.09244414 0.152721 0.100397006
0002e0 93 17 c0 3c b4 e2 f0 bd 69 4e 01 3e 4b e3 16 3e
       0.023448741 -0.1176199 0.12627567 0.14735143
0002f0 37 fc 99 3c 67 92 18 be 16 52 33 bc 3e 57 16 be
       0.018797023 -0.14899598 -0.010944864 -0.14681718
000300 d5 29 54 3d e8 89 ea bc a2 d8 4b bd 7a 11 fb bd
       0.051797707 -0.028630212 -0.049767144 -0.12259193
000310 6e 1a 5d 3d b1 6e b9 bb fe ed c6 3d fc 8a da 3d
       0.053980283 -0.0056589474 0.09713362 0.106710404
000320 a3 6b e2 3d 36 db 24 3e 21 aa 2d 3e cc cd ed bd
       0.11055686 0.16099247 0.1695943 -0.11611518
000330 6e b4 7e 3c f0 9c c7 3c c0 ef 14 be 3d 1f 88 3d
       0.0155459475 0.024366826 -0.14544582 0.06646583
000340 b4 d9 1a bc 5b d8 05 be c8 f9 dc 3d 79 98 13 be
       -0.0094513185 -0.13070814 0.107898295 -0.14413632
000350 bd 04 ff bc c3 ae f0 bd 9e f9 a2 3d 10 6c 64 3d
       -0.03113019 -0.11752083 0.07957767 0.05576712
000360 82 af de 3d ba d2 d7 3d 26 99 ec 3d b4 57 1f 3c
       0.10873319 0.1053824 0.11552648 0.0097255
000370 76 7b ab bd a3 7a 7b 3d d8 69 73 bd a4 41 52 3d
       -0.08373158 0.061396252 -0.059427112 0.05133213
000380 27 60 39 3c 94 36 8f 3d ba 59 22 3e cc 19 ff 3d
       0.011314428 0.06992832 0.1585454 0.12456092
000390 e6 16 1d bc 06 bd e5 bd af 3d f9 bd 0c f0 ab bc
       -0.009587979 -0.11217694 -0.12169968 -0.020988487
0003a0 e4 b6 b6 3d 4e fc 04 be 79 c9 6e 3d 61 f2 ea 3d
       0.08921602 -0.12986872 0.058297608 0.11472011
0003b0 e3 06 85 bc ab 06 7e bd 1e 54 19 be c6 b8 d3 3d
       -0.016238635 -0.062018078 -0.14973494 0.10337977
0003c0 26 df be bb f4 b5 cb 3d f9 b5 12 bd 42 fb 0a bd
       -0.005824941 0.09946814 -0.035818074 -0.033931024
0003d0 37 1d 72 bb c3 87 0e be ea c4 93 3d 22 5c c9 3d
       -0.0036943683 -0.13918976 0.07215293 0.09832026
0003e0 ec cf 31 bd 68 84 aa 3c 9b ff b7 3d 6b f4 27 bb
       -0.04341118 0.02081509 0.089843 -0.0025627862
0003f0 42 f0 a2 bd 2c 6a 1a be 22 8a 11 bd e8 da 4d bd
       -0.07955982 -0.15079564 -0.035532124 -0.050257593

layer2.0.bias f4 [8]
000000 5d 16 30 3d e9 3e 1d be ae 70 ad ba 3b b0 88 bd
       0.042990077 -0.1535603 -0.0013232434 -0.06674238
000010 a2 4c 56 bb 95 cc bc bc 61 a5 14 bd 53 29 81 3d
       -0.0032699485 -0.023046771 -0.03629053 0.0630671

layer2.1.weight f4 [8]
000000 c9 05 77 3f ec 35 73 3f 80 56 89 3f 45 8e 7b 3f
       0.964932 0.95004153 1.0729523 0.9826396
000010 5d 1b 73 3f c7 3d 81 3f f6 1e 6e 3f 3e eb 86 3f
       0.9496363 1.0096978 0.9301599 1.054054

layer2.1.bias f4 [8]
000000 95 8c 94 3d 72 f8 19 bd e2 ae 19 3d 47 2d 05 3c
       0.072533764 -0.03759045 0.037520297 0.008128471
000010 05 ee 81 3d c4 37 dc 3c 94 b3 a0 3d 68 e6 03 3d
       0.06344227 0.02688206 0.07846752 0.032202154

layer2.1.running_mean f4 [8]
000000 34 29 7a be 3c 02 38 be ea a4 2a 3d 4e 05 c0 be
       -0.2442978 -0.17969602 0.04166118 -0.37504047
000010 a7 60 4b be 80 33 e7 bc c3 e2 52 3e dd b0 8c 3e
       -0.19861089 -0.0282228 0.20594315 0.27478686

layer2.1.running_var f4 [8]
000000 b7 cf 11 3e f1 83 e4 3d c8 d6 0a 3e 0d 88 eb 3d
       0.14239393 0.11157978 0.13558495 0.11500559
000010 1f 36 0c 3e e5 00 3f 3e 3f d2 8e 3d 05 c7 ee 3e
       0.1369252 0.18652685 0.06973695 0.46636215

layer3.0.weight f4 [16, 8, 3, 3]
000000 ba c6 a7 bd 14 23 f2 bd 2b f2 48 3d 53 25 6b 3c
       -0.08192201 -0.11823097 0.049059074 0.0143521605
000010 3d d2 52 3d ad f1 26 bd f3 27 b7 3d 47 a3 2d bd
       0.05147003 -0.040757824 0.089431666 -0.04239204
000020 ce e4 37 3d 3c 64 2e bd 17 6c 46 bc 3d 45 be 3d
       0.04489594 -0.04257606 -0.012110732 0.0929055
000030 7f bf 86 3d 7a 04 76 3d e3 1c 1b 3d 6d da ab 3d
       0.06579494 0.060062863 0.037869345 0.08391271
000040 62 81 cb 3c b1 91 93 3b c7 b0 55 bd 58 32 20 bd
       0.024841968 0.0045034518 -0.05217054 -0.03911051
000050 9d 84 dc bd 7d 15 84 3d f3 73 56 3c 1f 1b 10 3d
       -0.107674815 0.06449411 0.013089168 0.035182115
000060 c2 7d f0 bd 58 2d bc bd bf e1 87 bd 89 ef c1 bd
       -0.117427364 -0.09188336 -0.066348545 -0.09469516
000070 c4 48 c6 bd 89 3b 13 3d 36 14 4f 3b b1 29 f1 bc
       -0.09681848 0.03594545 0.003159774 -0.029438825
000080 f5 9e 02 3d f9 3c d1 bb 7e bb a7 bd 10 c4 0e 3c
       0.031889874 -0.0063854423 -0.08190058 0.008713737
000090 7d 2b ca 3d c2 a2 0d be 5a af 39 3d 3d 80 6e bd
       0.09871576 -0.13831618 0.045333244 -0.058227766
0000a0 d5 4e 09 be 9a a9 c1 3a 29 ca 2a bc 42 90 73 3d
       -0.13408978 0.0014775277 -0.010424175 0.059463747
0000b0 91 e6 37 3d 2d 18 e6 3d f7 3d aa 3d 05 5b a1 3c
       0.04489762 0.1123508 0.083126 0.019696722
0000c0 10 3d a1 3b 58 5d 8f 3d ce 9a d8 bd 74 07 5c bd
       0.0049206093 0.07000226 -0.10576402 -0.053718045
0000d0 a4 e7 22 bd 2a bb d9 bc d7 e9 26 bd 2e e6 f6 bd
       -0.03977169 -0.026578505 -0.04075035 -0.12055622
0000e0 12 fb 59 3d a5 e8 32 bd 7f 8d 8d 3d c7 43 f1 3c
       0.053217955 -0.0436789 0.06911754 0.029451264
0000f0 7c e0 09 3d 80 23 10 bd e3 8a a4 bd 08 31 00 bc
       0.03366135 -0.035190105 -0.08034303 -0.00782419
000100 75 86 2e 3d 8a 2b 39 bd 0d ee 94 3d d4 e8 b7 3d
       0.042608697 -0.045207538 0.07271967 0.08979955
000110 67 48 ac bd 7b ad ab bd 7a fa 3c ba 24 a2 bd bd
       -0.08412247 -0.08382698 -0.0007208955 -0.092594415
000120 9d b9 2c 3d 43 73 44 3d 8d 24 98 bc 4b 73 9f bd
       0.042169202 0.047961485 -0.018572116 -0.07785662
000130 d7 17 11 be ed 3b 24 be 87 14 74 3d 1a dc 98 3c
       -0.1416925 -0.16038485 0.05958989 0.01865964
000140 90 9b f0 bb 52 ba 91 bd 76 f9 f9 bc fb 4b 58 bd
       -0.0073427632 -0.07115616 -0.03051446 -0.052806836
000150 c1 be 4e 3c ff 34 08 bd a4 df ea 3d ab 64 8c 3d
       0.012618721 -0.033253666 0.11468437 0.068551384
000160 6c 48 4e 3d d6 c1 f0 bc 0d f4 d6 bd 03 f1 03 be
       0.050362036 -0.029389303 -0.10495768 -0.12884907
000170 1d 43 80 3d 07 c0 06 3b 7b 8f 04 3d cd ca aa 3d
       0.06262801 0.0020561235 0.032363396 0.083394624
000180 4a 2e e6 bd db 40 23 bc 1a 70 71 3d 19 66 8f bc
       -0.11239298 -0.009964193 0.0589448 -0.017504739
000190 b0 5d e4 bd a6 a5 04 3d 0f 91 71 bd 4b 17 80 3d
       -0.11150682 0.032384537 -0.05897623 0.06254443
0001a0 87 7b a5 bc 28 09 94 bd fc 44 36 bd a4 02 8d 3c
       -0.020200504 -0.07228309 -0.044499382 0.017213173
0001b0 ba 0c b3 bd c7 e4 6a 3d d7 65 2a bd 6b 99 33 3d
       -0.08742662 0.057347085 -0.04160103 0.043847483
0001c0 03 8a 9a bd ba 27 ef bd 1c d6 b9 3d f4 ea 13 bc
       -0.07545855 -0.11677499 0.09074041 -0.009028185
0001d0 6f cb fd bd 57 49 b0 3d 4d 4a 2c 3b 38 b7 66 3d
       -0.123923175 0.086077385 0.0026289404 0.056327075
0001e0 44 3f 03 bd 01 24 a3 3d b5 a4 b6 bd 78 65 04 bc
       -0.032042757 0.079658516 -0.08918134 -0.008080833
0001f0 f6 ee 85 3c e2 eb 43 3d c7 67 bc 3d 5c da 0b 3d
       0.016349297 0.047832377 0.091994815 0.03414379
000200 85 1a c2 bb f9 30 25 bd 31 55 ce bd 77 c4 03 bd
       -0.0059235715 -0.040329907 -0.10074843 -0.032169785
000210 66 12 2c bd d6 dc a5 bb 34 a5 fa 3c 45 4c 47 bd
       -0.042009734 -0.005061726 0.030596353 -0.04865672
000220 d7 36 c8 bc f3 70 16 3d e4 3c ae 3c d7 30 1c bd
       -0.024440212 0.03672881 0.02126927 -0.038132515
000230 0d 97 06 be db ae 57 bc b6 df 83 bd a2 42 8c bd
       -0.13143559 -0.013164247 -0.06439154 -0.06848647
000240 47 ef bf bc 5a ad 84 3d 90 66 94 3d c3 46 a5 3d
       -0.023429526 0.06478377 0.07246125 0.08070137
000250 13 65 ca bd 7a a4 63 bd f0 6a c1 3c c1 c8 b1 3b
       -0.098825596 -0.05557678 0.023610562 0.005425543
000260 f5 fd 99 3d 4e ca d2 bd e4 cb 83 bd 35 eb 4f bd
       0.075191416 -0.10292493 -0.064353734 -0.05076142
000270 34 60 c3 bd c0 c9 0c bd 71 da d2 3d f2 9b a2 3d
       -0.09539834 -0.03437209 0.10295571 0.079399005
000280 20 36 14 be 04 21 ec bd d1 fd fc 3d 0c c7 aa bc
       -0.14473772 -0.11529735 0.12353099 -0.020846866
000290 a7 71 17 3d c5 eb de 3c 01 0f 8a 3d 47 e0 bf bd
       0.03697362 0.027212033 0.06741143 -0.093689494
0002a0 a9 7c af bd 37 60 e6 bc 8e 6c ba ba 95 d1 09 3c
       -0.08568699 -0.02812205 -0.0014223026 0.008411785
0002b0 c9 3b 98 3d 1c 75 be 3d 33 04 32 bd 74 fb 2a bd
       0.07433278 0.092996806 -0.043461036 -0.04174371
0002c0 25 22 a6 3c f6 58 3c bd b1 5c bd 3d 27 7f 90 bd
       0.020279953 -0.045983277 0.09246195 -0.070555024
0002d0 9c a2 d7 bd 5c f7 3c bb c6 ed 94 bd 7c 8a ea 3c
       -0.10529062 -0.002883396 -0.07271914 0.028630488
0002e0 d8 ba 04 3d 4a 6b a7 bc 97 e1 8e bd ac 3e 08 be
       0.03240475 -0.020436902 -0.069766216 -0.13305157
0002f0 e3 89 f9 3c 64 fd 4e 3d 88 79 8e 3d 52 9d 18 bd
       0.030461257 0.05053462 0.06956774 -0.037259407
000300 c1 c1 5f bd 10 24 99 bb da a7 d0 bb e9 86 6b 3d
       -0.054628137 -0.0046734884 -0.0063676657 0.057501707
000310 f7 c9 93 3d c9 4d d2 3c 0b 95 0f bb 2e 95 ab bd
       0.07216256 0.025671856 -0.0021908905 -0.08378063
000320 42 9e 4a bd 6e bd 64 3c f1 a1 0b be 0f 99 01 3d
       -0.049467333 0.013961179 -0.13635994 0.03164011
000330 05 37 34 bc 8d ca ea 3d 6a 77 92 bd d7 ff 38 bd
       -0.010999446 0.11464415 -0.07151683 -0.045165863
000340 24 b8 87 3b e4 50 cc 3d 63 ac 3d bd a8 aa 85 3d
       0.0041418243 0.09976366 -0.04630698 0.06526691
000350 0a 49 14 bb 7a 4c 78 3d 5c 88 87 3d 40 fc db 3d
       -0.0022626542 0.06061981 0.06617805 0.10741472
000360 82 6e fc bd 9d ef 01 bd 69 af 31 3d de d6 c6 3b
       -0.12325765 -0.031722654 0.043380175 0.0060680946
000370 79 96 2e bc 69 d7 ce bd 79 a1 03 bc e7 a1 7c bd
       -0.010655993 -0.1009968 -0.008034104 -0.06167784
000380 5a 07 a3 3d 67 0b 03 3c 5b 3d 8e bd 2d de ad bd
       0.079603866 0.007998324 -0.069452964 -0.08489642
000390 f5 50 15 3d a1 94 73 3d 87 61 a4 ba 90 b7 d5 bb
       0.03645416 0.059467915 -0.0012541272 -0.0065221265
0003a0 31 3f 33 bd ab 90 20 3d c9 1a e0 bd 0b 90 08 3d
       -0.043761436 0.039200466 -0.10942609 0.033340495
0003b0 72 6a fe bc ae 26 96 bd 81 28 54 bd 72 7f fa 3d
       -0.031056616 -0.07331596 -0.05179644 0.122313395
0003c0 da a2 19 3e fc 0b d3 3b a0 c5 be bd ef 91 79 3d
       0.15003529 0.0064406376 -0.09315038 0.06093019
0003d0 97 58 11 3c fd 43 1a bc 95 d3 55 3c 75 ff 30 3b
       0.008871219 -0.009415624 0.013050933 0.0027007733
0003e0 0b 58 02 bc 42 42 00 be d2 ba a8 bd 57 8d c6 3d
       -0.007955561 -0.12525275 -0.08238758 0.09694927
0003f0 66 d8 b2 3d 4a f3 82 bc e2 cc 39 bd 73 db ce ba
       0.08732681 -0.01598515 -0.045361407 -0.0015781954

layer3.0.bias f4 [16]
000000 eb 16 da bd a5 81 c6 3d 13 ed 67 3c 31 ff 86 bd
       -0.106489025 0.096926965 0.014155644 -0.06591643
000010 41 77 94 3d 7f f6 88 3d 69 60 84 bd da 31 84 3b
       0.072493084 0.066876404 -0.06463701 0.004034263
000020 3e 4a db 3c 13 92 e5 bd 92 f5 9e 3c 42 c7 32 bd
       0.0267688 -0.11209502 0.019404206 -0.04364706
000030 01 38 28 3a 92 ee fb 3c 6d d3 dc bd f1 e3 0c 3d
       0.00064170366 0.030753408 -0.10782514 0.03439707

layer3.1.weight f4 [16]
000000 04 a1 78 3f 9c 03 7d 3f a2 ee 6f 3f 17 91 82 3f
       0.9712069 0.9883363 0.937235 1.0200528
000010 08 f2 72 3f 27 58 80 3f 22 09 83 3f 45 23 78 3f
       0.9490056 1.0026902 1.0237162 0.9692882
000020 aa 54 82 3f 6c 91 80 3f ea 8f 82 3f cd a1 7c 3f
       1.0182087 1.0044379 1.0200169 0.9868439
000030 40 be 75 3f fc 5b 82 3f a1 86 71 3f d9 cc 80 3f
       0.95993423 1.0184321 0.9434605 1.0062515

layer3.1.bias f4 [16]
000000 6c 3d 82 bd b0 c7 5d bd 00 fb fd bd 74 4c 24 be
       -0.063593715 -0.054145515 -0.1240139 -0.1604479
000010 9f 50 0a be 59 b8 89 bd ea de 2f be e1 9b 59 bd
       -0.13507317 -0.06724615 -0.17174879 -0.053127173
000020 65 bf 0a be 71 54 4d be 38 9f 3e be 15 43 a1 bd
       -0.13549574 -0.20051743 -0.18615425 -0.07874123
000030 c5 0f ce bd e2 35 20 be a4 8d c1 bd 03 5d 28 be
       -0.100616015 -0.15645555 -0.09450844 -0.16441731

layer3.1.running_mean f4 [16]
000000 78 40 f5 be dd 7c fb be 16 a0 de bc 8d 5a 99 bd
       -0.47900748 -0.491187 -0.027175944 -0.07487974
000010 ce 54 f6 3d a0 df 27 bf fb 22 32 bd 08 5c 0b bf
       0.12027894 -0.655756 -0.04349039 -0.54437304
000020 d3 47 da bd 78 e8 06 be 28 14 79 3d 94 e1 18 bf
       -0.10658231 -0.13174617 0.060810238 -0.59719205
000030 c1 c9 c4 be 6c ed a8 3d 4a 13 bc 3e 1b 5c b6 3d
       -0.38435176 0.0824841 0.36733466 0.089042865

layer3.1.running_var f4 [16]
000000 ed 13 28 3e 61 50 31 3e c9 f8 a0 3d ff 6d e9 3d
       0.16413851 0.17315818 0.07859952 0.11397933
000010 05 12 07 3e 28 e7 26 3e 76 f7 9a 3d 40 e5 7a 3e
       0.13190468 0.16299117 0.07566731 0.24501514
000020 52 ed 8b 3d a2 11 f5 3d 0a d3 ff 3d 70 f3 6c 3e
       0.06832375 0.11966254 0.124914244 0.23139739
000030 81 b8 a1 3e cf 50 cd 3d 87 74 87 3e dd b3 d7 3d
       0.31586078 0.10025179 0.2645609 0.10532353

layer4.0.weight f4 [32, 16, 3, 3]
000000 01 20 bc bc c3 45 58 bd 23 29 1d 3d 44 e7 3e 3d
       -0.02296448 -0.052800905 0.03836931 0.04660727
000010 15 44 5d bd 5d 9b 93 bd 5d b9 ac 3c 97 05 15 bd
       -0.054020006 -0.072073676 0.021084482 -0.036382284
000020 30 86 ae bb 94 c9 57 3c 24 2c cb bb 24 1e 40 bc
       -0.005326055 0.013170619 -0.0062003303 -0.011725936
000030 00 fb 71 bd 5c 07 23 3d 69 07 86 bd 82 f3 e6 3c
       -0.059077263 0.03980194 -0.06544382 0.028192285
000040 ff 9d ac 3c dc de b7 bd 9e 23 72 3d b4 bc 8a 3c
       0.021071432 -0.08978054 0.059116 0.016935684
000050 60 55 6b bc 1d b6 0f 3c b8 2b 01 bd 81 b7 f4 bb
       -0.014363617 0.0087714465 -0.031535834 -0.0074681644
000060 90 f3 8a 3d 2a 9a 81 3c 64 06 29 3d a2 b4 03 3c
       0.06784737 0.015820581 0.04126586 0.008038672
000070 6e 20 29 3d d8 6f 13 3d fe 8a 80 bc d6 13 a7 3d
       0.041290693 0.035995334 -0.015691277 0.0815808
000080 66 51 94 3a 54 a5 27 bd 4d 5e e6 3d 17 ba 99 3d
       0.0011315763 -0.040929154 0.11248455 0.07506197
000090 79 71 cd bc bb df 8c bd 0d fb 58 bd 65 f1 9b 3d
       -0.025078522 -0.06878611 -0.052973796 0.07614402
0000a0 24 6f 86 bd 61 ec 4f 3a 43 46 5b bd d2 00 52 3c
       -0.06564167 0.00079316465 -0.053533804 0.012817578
0000b0 79 ec 80 3d a2 70 ca 3a 0a 0f fb bc 8f 84 2c bc
       0.062951036 0.0015444944 -0.03064682 -0.010529651
0000c0 36 a5 71 bd 7e ba 85 bd b6 e4 c6 bd b7 25 eb bc
       -0.058995448 -0.06529711 -0.09711592 -0.028704507
0000d0 0c 33 52 bd 0f 7e ed bd b0 29 75 3d 05 bb a9 3d
       -0.051318213 -0.115963094 0.05985421 0.08287624
0000e0 ef 2c b2 3d 45 fc 40 bd 12 8e 97 3d 35 4f 9f 3c
       0.08699977 -0.047115583 0.07400145 0.019446949
0000f0 e1 aa a0 bc 06 35 b6 3d 60 22 e9 3d 64 f6 6b 3c
       -0.019612731 0.08896832 0.1138351 0.014402006
000100 26 3b 39 bd 6f 45 df bc 05 00 93 bc e1 04 40 3d
       -0.045222424 -0.027254788 -0.017944345 0.046879653
000110 a0 19 8d bd de e9 15 3d 43 92 0e 3d d6 b3 0d bd
       -0.06889653 0.036599986 0.034807455 -0.034595333
000120 40 7e ba 3d c0 b3 4f bc a3 47 11 3d 00 fa 60 3d
       0.091061115 -0.012677133 0.03546871 0.05492592
000130 9a 95 d8 3d 6a 70 85 3d ad 4c 14 bd 78 c9 54 3d
       0.10575409 0.06515582 -0.036205936 0.051949948
000140 71 26 16 3c a5 19 f8 bc fd cb a3 3d 26 09 82 bc
       0.009164439 -0.030285666 0.07997892 -0.015873503
000150 5a fd 5a bc 1f af e0 bc 8d 74 82 3c 3c c8 23 bd
       -0.013366068 -0.027427254 0.015924716 -0.03998588
000160 b3 5b 08 3d c6 aa 25 3d 6b 5c 0b 3d 7c e2 cf 3c
       0.033290576 0.040446065 0.034023684 0.02537655
000170 5f be bb 3d 06 b6 89 3d 44 a4 5b 3d b4 cf aa 3d
       0.0916717 0.06724171 0.053623453 0.083403975
000180 a6 64 a8 bb f6 e7 bb 3d 7f f1 f2 bc 96 31 24 3d
       -0.0051389514 0.091751024 -0.02965617 0.04008635
000190 7a f2 63 bd ee b3 a3 3a 8f bb 28 3d 3d e0 a0 bc
       -0.055651166 0.0012489536 0.041194495 -0.019638175
0001a0 65 db c1 bd 07 52 81 3d 12 83 ee bc 2b 22 3c bd
       -0.09465674 0.063144736 -0.029115234 -0.045931023
0001b0 23 bb 2a bd be a1 f6 bc 93 ac 32 3c 9c 74 c5 bc
       -0.041682374 -0.030106422 0.010905403 -0.024103455
0001c0 bc 6b e4 bc 47 ad a8 bd a5 77 08 bd 8e 6a fe bb
       -0.027883403 -0.08236175 -0.033317227 -0.007764167
0001d0 ae 4d 9b bc 1c a0 a0 3d fb fd c3 3c 53 94 85 3d
       -0.018957939 0.078430384 0.023924818 0.06522431
0001e0 51 d7 06 3d 90 2e f8 3c 72 7b d3 bc e7 4e 3d bd
       0.032920185 0.03029564 -0.0258157 -0.046217825
0001f0 f8 5d bc 3c a8 ad 87 3c 0a 49 de bc 0e 22 43 bd
       0.022994027 0.016562298 -0.027134437 -0.0476399
000200 15 71 0a bd 06 4c fb 3c ed 52 91 3c c3 6a 8d bd
       -0.03379925 0.0306759 0.017739737 -0.06905129
000210 71 46 07 bd 27 ed 97 3b e5 7c 07 ba eb eb 03 3c
       -0.033026163 0.004636425 -0.0005168452 0.008051853
000220 1f 76 81 bb f5 10 3e bc bb 67 fe 3c 53 3f cc bc
       -0.0039508487 -0.011600723 0.031055322 -0.02493254
000230 ac 15 1c bc f1 fd b6 3d 53 85 94 3d a5 64 ea 3c
       -0.009526651 0.08935154 0.07251992 0.028612444
000240 f7 08 9c bb 55 b1 8f bb de 08 cd 3c 34 91 04 3d
       -0.004761811 -0.0043851533 0.025028642 0.03236504
000250 ca 5b e6 3c 5c 27 a4 bd e4 47 02 3d 6d 9b 3e bd
       0.02811994 -0.0801532 0.03180684 -0.046534944
000260 fe 11 7e 3c 6c f6 4d 3d 22 20 3a 3d 7b 9d 5a bd
       0.015507219 0.050283834 0.0454408 -0.05337284
000270 89 9b ba bd 25 53 9b bd 8d 84 73 ba 5a 83 23 bd
       -0.09111697 -0.07584218 -0.0009289466 -0.03992019
000280 c6 c8 0d bd 19 c2 42 bc 68 fc 1f 3d c7 8e 28 3c
       -0.0346153 -0.011887097 0.039059073 0.010287947
000290 27 1e 6f 3d 8c 81 14 3d 4c 6f 99 3d e9 7c 1e bb
       0.058378365 0.036256358 0.07491931 -0.002418334
0002a0 10 63 0b bd 90 ad 2e 3d 1d 34 b4 3d 60 87 2c bd
       -0.03403002 0.04264599 0.08799002 -0.04212129
0002b0 90 10 b4 3d d1 a3 d3 bc 14 2a 77 3d b0 a7 52 3d
       0.087922215 -0.02583495 0.060342863 0.05142945
0002c0 4d dd a7 3d 12 68 04 3b 0a 9c c3 3d 73 4d 77 3d
       0.08196507 0.0020203632 0.095512465 0.060376596
0002d0 13 0e ff bc e1 d9 0b bd ef 04 ce bc 5b 76 3c 3d
       -0.03113464 -0.034143332 -0.025148837 0.04601131
0002e0 20 09 b5 bc 18 7e bf bc be e2 eb bc 74 67 38 3c
       -0.022099078 -0.023375556 -0.028794643 0.011255134
0002f0 41 af 9e 3c 5d 4c 35 3c 8f 3e 9d bd 17 54 da bc
       0.019370677 0.01106557 -0.07677948 -0.026651425
000300 7b 7b 01 3d b3 5b 9f 3c 79 56 22 bd e5 7c 17 3b
       0.0316119 0.019452905 -0.039633248 0.0023115214
000310 82 f3 9b 3c 16 28 27 bd cc 53 98 3c e2 93 b9 3d
       0.019037012 -0.040809713 0.018594645 0.090614095
000320 9e 0e 23 3d 03 34 8d 3c 6c 12 b8 ba 2d 87 b5 3d
       0.039808862 0.017236715 -0.0014043576 0.08863673
000330 ef 88 9f bc 38 a2 e5 3c 1f 8d 8a 3d 9e cb 40 3d
       -0.019474475 0.028031453 0.06765198 0.047069184
000340 30 d6 0d bd 47 45 1a 3d 58 ae 3c bd 76 b8 68 bd
       -0.034628093 0.037663724 -0.046064705 -0.05681654
000350 46 e6 03 bd b0 60 6d bd fe eb 2d bc b1 4f 73 3c
       -0.032202028 -0.057953537 -0.010615347 0.014850543
000360 a5 b9 2b bd 83 21 5c 3d 51 8c a4 3d c1 12 71 3c
       -0.04192509 0.053742897 0.08034576 0.014713944
000370 ee b1 a6 3c 92 d4 03 3d bf 7d 79 3c 7e b8 5a 3c
       0.020348515 0.032185145 0.015227734 0.01334965
000380 11 ae 81 3c de 4e af 3d 4c 8f d6 ba cf bf 72 3d
       0.015830072 0.085599646 -0.001636961 0.059264954
000390 d9 9b 43 3d 3d 4f 15 3d 37 ac 22 3d 4e 8b 08 3b
       0.04775605 0.03645252 0.039715018 0.0020834985
0003a0 01 41 08 3e c2 4d d8 bb 9a 4b fe bc 1e 0e 6b 3c
       0.13306047 -0.0066010663 -0.031041909 0.0143466275
0003b0 cc fd fd 3c 22 0b 22 3d bd 0b a0 bc 41 6a b6 3d
       0.031004809 0.0395614 -0.019536847 0.08906985
0003c0 89 bd 7b bc 45 7d b9 3d 86 5f bf 3d d1 03 e3 bb
       -0.015365013 0.090570964 0.093443915 -0.006927945
0003d0 e5 3f 83 bd 7a df 7c bd 47 89 10 bc c4 20 28 bc
       -0.06408671 -0.06173656 -0.008821792 -0.010261718
0003e0 a5 86 e8 bb 30 2e 98 bd 6f 7a 29 bd f8 87 65 bd
       -0.007096129 -0.074306846 -0.041376527 -0.056037873
0003f0 f1 97 98 3c a5 92 7c bc 98 78 49 3d 1e d5 00 bd
       0.018627139 -0.015415822 0.049187273 -0.031453244

layer4.0.bias f4 [32]
000000 86 88 4d bd ee b6 92 3d 05 cc 76 bd e1 d0 e5 bc
       -0.050179027 0.07163797 -0.060253162 -0.028053703
000010 46 df d3 bc 58 b5 6f 3d fe bb d8 3c 72 3d 53 3d
       -0.025863301 0.058522552 0.02645683 0.05157227
000020 8f f7 1a bc 08 2d 80 3c d8 a7 8a bd 73 d3 c9 bc
       -0.009458437 0.015646473 -0.06770295 -0.02463696
000030 4f 6e 19 3d 6a 1e fb 3c b2 d1 27 bd 9b 91 77 bd
       0.037458714 0.030654151 -0.040971465 -0.060441595
000040 d0 49 34 3d aa 85 fa 3b 48 43 4d bd 72 94 56 3d
       0.044015706 0.0076453285 -0.050112993 0.052387662
000050 0a e4 8a 3d 7b ea 57 ba bf 37 44 bd 7f 85 94 bd
       0.06781776 -0.00082365394 -0.047904726 -0.07252025
000060 29 2f 7f 3c fb f9 db bc d2 61 37 bd aa 86 b2 3c
       0.015575209 -0.026852598 -0.044771023 0.021792728
000070 45 6d 3c bd 38 43 e2 bb 82 d4 91 3d bb 0a 9a 3d
       -0.046002645 -0.0069049858 0.07120611 0.07521578

layer4.1.weight f4 [32]
000000 02 08 8b 3f 7b 67 8c 3f fe 08 89 3f be c1 84 3f
       1.0861819 1.096908 1.0705869 1.0371625
000010 6e 3b 83 3f 7e ad 88 3f 2b 87 87 3f 5b 8e 87 3f
       1.0252512 1.0677946 1.0588125 1.0590318
000020 25 a2 8e 3f 7c 8e 86 3f 8c 8f 8a 3f 8d 02 88 3f
       1.1143233 1.0512233 1.0825057 1.0625778
000030 83 14 8b 3f 68 99 83 3f 33 33 8b 3f 5b 01 8e 3f
       1.0865635 1.0281191 1.0875 1.1094164
000040 ff b5 8a 3f f3 3f 88 3f 05 2e 8c 3f a3 47 84 3f
       1.0836791 1.0644516 1.0951544 1.0334362
000050 f3 fe 89 3f c3 99 89 3f 85 14 88 3f 37 ae 8a 3f
       1.0780929 1.0750049 1.0631262 1.0834416
000060 01 b8 8a 3f 08 4c 88 3f 31 95 8a 3f eb ab 8c 3f
       1.0837404 1.0648203 1.082678 1.0989965
000070 e4 94 8f 3f 11 c2 8c 3f 43 69 8c 3f e6 93 8c 3f
       1.1217313 1.0996724 1.0969623 1.0982635

layer4.1.bias f4 [32]
000000 84 73 0d 3d b2 16 4b 3d 3c ce 98 3d 97 95 38 3d
       0.034533992 0.04958219 0.07461211 0.045064535
000010 76 42 40 3d ad 60 90 3d 70 7f 81 3d ad 1c bc 3c
       0.046938382 0.070496894 0.06323135 0.022962892
000020 b3 c8 9d 3d f7 95 61 bb 43 37 27 3d d0 1d 94 3d
       0.07704296 -0.0034421661 0.040824186 0.07232249
000030 12 ab de 3c 3a 22 d0 3c 40 21 91 3d 62 c6 53 3d
       0.027181182 0.025406945 0.0708642 0.051702864
000040 db 42 33 3d fb 2d 80 3d 05 b1 93 3c 34 de 25 3d
       0.04376493 0.0625877 0.018028745 0.040495113
000050 b8 be 69 3d b8 02 66 3d 7f 3b 86 3d ae 32 aa 3d
       0.05706665 0.056154937 0.06554317 0.08310448
000060 05 7a 78 3d e7 fb 8c 3d 9b 02 29 3d b3 14 69 3d
       0.060663242 0.06883984 0.04126225 0.056904506
000070 e7 e7 3a 3d 84 eb 98 3c 74 c6 14 3d 54 3f 44 3d
       0.045631316 0.01866699 0.036322072 0.047911957

layer4.1.running_mean f4 [32]
000000 44 f7 9d 3e 65 9d 41 3f 89 8e 78 bf ce 58 32 bf
       0.3085271 0.7563079 -0.9709249 -0.69666755
000010 53 81 88 bf cd 0b b0 bf e4 61 18 be 9b 38 d8 3e
       -1.0664467 -1.3753601 -0.14881092 0.42230687
000020 9b 22 2f 3f e6 d2 04 3f 35 2a 17 bd 88 85 a2 bf
       0.6841218 0.51884305 -0.036905486 -1.2697
000030 3c 9c f8 3e 02 19 7d be 6e c8 a4 be 84 a4 dc 3e
       0.48556697 -0.24716571 -0.32184166 0.43094265
000040 08 2e 67 3d bf dc a1 3d e2 49 99 3e 89 7a 20 be
       0.056440383 0.07903432 0.2993918 -0.15671743
000050 3d 32 9a 3d a7 e1 52 3f b9 17 77 be e3 75 d3 be
       0.075291134 0.8237557 -0.24130143 -0.41300878
000060 3e 77 aa be cc 44 1c bf d1 b1 e4 3e e6 11 f8 3e
       -0.332941 -0.61042476 0.44666913 0.48451155
000070 48 ed 80 3e 2c 92 69 3e ff 9c e2 3e ff 31 58 3f
       0.2518103 0.22809666 0.44260404 0.8445129

layer4.1.running_var f4 [32]
000000 6b c4 99 3f 87 00 9f 3f 8a bf b3 3f 49 3d 05 3f
       1.2013067 1.2422036 1.4042828 0.5204664
000010 c4 dc 83 3f f9 b8 b0 3f 23 f3 52 3f 7f 41 24 3f
       1.0301747 1.3806449 0.8240225 0.6416244
000020 64 23 69 3f 08 9a ab 3f cc 01 73 3f 5b e3 85 3f
       0.91069627 1.3406382 0.94924617 1.0460008
000030 69 2b c0 3f eb 4f 14 3f 8c 3f 77 3f 04 a9 60 3f
       1.5013248 0.57934445 0.9658134 0.877579
000040 89 22 2e 3f 3d 8b 52 3f cb 57 da 3f 75 7a 21 3f
       0.68021446 0.8224371 1.7058042 0.6307748
000050 9f 75 4b 3f bb e1 82 3f 10 97 2f 3f a2 7d 8f 3f
       0.7947635 1.0225137 0.6858988 1.1210215
000060 ba cf 7d 3f cd 19 74 3f 76 22 79 3f 43 63 94 3f
       0.9914509 0.9535187 0.9731821 1.1592792
000070 f1 47 1b 3f 56 40 b3 3f 33 a5 a8 3f 14 a6 88 3f
       0.6065665 1.4004009 1.3175415 1.0675683

fc.weight f4 [1, 1152]
000000 d8 8b bf bc 7b ec 20 bc c2 b4 10 bc d0 b2 70 3d
       -0.023382112 -0.009822006 -0.0088321585 0.05876428
000010 df 8b b8 bc 2c eb f6 bc 22 7c 2a 3c c1 ab 99 3c
       -0.022527633 -0.030141436 0.010405572 0.018758656
000020 28 27 6a 3d 10 24 c7 3d 57 59 b4 3c 6f 9a 0a bd
       0.05716625 0.09723675 0.022015257 -0.033838686
000030 4f 84 68 3d d7 0b 8e 3d 0a c8 c5 3c e7 b1 76 3d
       0.056766804 0.06935852 0.024143238 0.060228255
000040 d4 27 01 bc aa 6e f7 bc dc de 34 3d 72 18 3c 3d
       -0.007883031 -0.030204136 0.044157848 0.04592175
000050 4a 9d d3 3c 26 bc b0 3d 17 99 dc 3c e8 df 00 bc
       0.025831837 0.086296365 0.026928468 -0.007865883
000060 88 7d 42 3d f9 84 1a 3c ed ab 88 3d 67 9c 22 3d
       0.047482997 0.009431117 0.06673417 0.03969994
000070 82 43 57 3d 37 9f ab 3b 68 d7 64 3c f9 b2 7b bc
       0.052554615 0.0052374857 0.0139673725 -0.015362495
000080 57 58 42 3d ff 24 72 bb 19 77 ea 3c b3 5c 82 bb
       0.04744753 -0.003694832 0.028621243 -0.0039783358
000090 ff 72 11 3c 8c 2b 06 bd 56 85 9e 3c c2 c1 61 3c
       0.008877515 -0.032756373 0.019350689 0.013779106
0000a0 3c 78 ec bc 65 2a 06 bc 82 09 8f bb 43 50 29 3c
       -0.028865926 -0.008188819 -0.004365147 0.010334077
0000b0 76 ab ca 3c 5c 41 3c 3d c1 b6 92 3b 9c 8d ac bc
       0.024739962 0.04596077 0.0044773524 -0.021063618
0000c0 98 d5 fd 3c 26 ca 58 3d 98 69 b4 3d b3 6d b7 3d
       0.030985638 0.05292716 0.08809203 0.0895647
0000d0 6a 49 38 3d 7c bb 45 3c 8b a2 48 3d 60 c1 e0 3c
       0.044991888 0.012068626 0.048983138 0.027435958
0000e0 98 cf 3d 3d 33 8f d7 3d 34 43 a5 3d 18 38 85 bc
       0.046340555 0.1052536 0.080694586 -0.0162621
0000f0 e4 04 70 bb d2 75 fa 3b f2 25 7f 3d cb e1 6e 3b
       -0.0036624009 0.00764344 0.062292047 0.00364505
000100 5b 35 f8 bc 68 ba 89 3c 0c db e7 3c ce 81 cd bc
       -0.03029888 0.016812518 0.028302692 -0.02508631
000110 46 48 62 3d da 0c 60 bc 27 d6 42 bc cd c8 5f 3c
       0.055244707 -0.013674939 -0.011891878 0.0136587145
000120 9f 8f 3a bc 56 92 07 bd 46 5f cc bc 02 c8 f5 bc
       -0.011386781 -0.03309854 -0.024947774 -0.030002598
000130 ef bb 8c 3b ec 3e 46 3b bc 05 dd bb 10 9d 23 bb
       0.0042948644 0.0030249907 -0.0067450684 -0.0024965443
000140 13 58 8d bd a3 3b 75 bd 0f a6 51 bd ee f0 33 bc
       -0.069015644 -0.059871327 -0.051183756 -0.010982735
000150 f7 33 1b bc 51 50 57 bd 9a b6 71 bd a6 83 a8 bd
       -0.009472839 -0.05256683 -0.059012033 -0.08228235
000160 e0 b4 74 bd ca a4 be bb 5b 80 9d bc 6c 99 35 bd
       -0.05974281 -0.005817984 -0.019226244 -0.044335768
000170 c5 6e 9a bd 9a 33 91 bd 71 24 a9 bc f2 69 12 3c
       -0.07540659 -0.0708992 -0.02064726 0.008936392
000180 f0 c4 f6 bc 82 b5 4a bd f8 c2 08 bd d8 14 10 bd
       -0.030123204 -0.049489506 -0.03338906 -0.03517613
000190 42 0f 6d 3c 9c 78 2f 3b 49 c8 92 bc b9 7e 69 3c
       0.01446897 0.002677477 -0.017917769 0.014251404
0001a0 56 c8 c5 bc 67 a2 ff bc b9 f9 0f bd d7 cd 41 bd
       -0.02414338 -0.03120537 -0.035150263 -0.047315445
0001b0 0e 3e 00 bd f6 a4 1f 3c f8 81 a9 3b 8c 5a 22 bd
       -0.03130918 0.00974392 0.005172964 -0.039637133
0001c0 e1 e0 3e bd 9c be 06 bd 5f f3 08 3a 7e 86 5a bc
       -0.04660118 -0.032896623 0.00052242534 -0.0133377295
0001d0 f7 7c a8 39 5b 93 4a bd 3a 40 02 bd f6 77 e9 bc
       0.00032136563 -0.049456935 -0.031799532 -0.028499585
0001e0 48 7b 47 bd 81 e9 0c bd ae f9 92 bc 69 a5 e0 3b
       -0.048701555 -0.034402374 -0.017941322 0.006855656
0001f0 78 1c 1f 3c aa a1 90 bc 17 63 93 bc 6c 4d 7b 3c
       0.009711377 -0.017655212 -0.017991586 0.015338283
000200 69 cf 87 3b 97 7b f1 bc 64 34 a1 3a 3f 8d fe bc
       0.0041445983 -0.029477878 0.0012298939 -0.03107321
000210 db b1 1a bd 73 44 39 bd ca 74 f7 bc 76 a8 4a 3d
       -0.037767272 -0.045231294 -0.030207057 0.049477063
000220 2f 61 2a 3d 12 de fd 3b a8 7f b7 bc e7 db 1b bd
       0.041596588 0.00774742 -0.022399738 -0.038051512
000230 e1 76 3d bd 2d 23 b2 bc 6c 08 61 bb 64 4d c0 bb
       -0.04625595 -0.021745289 -0.0034337295 -0.0058686007
000240 05 df e1 bc a5 df 84 bc e9 0e a3 bc d9 24 1f bd
       -0.027572164 -0.016219923 -0.01990457 -0.0388535
000250 74 dc f1 bc 7f 6c 19 bd 42 f2 86 bb 19 aa ca 38
       -0.029524066 -0.037456986 -0.004118235 9.663794e-05
000260 14 43 20 38 2c 1a e3 bc e2 a1 c3 bc f9 4a c1 bc
       3.8209444e-05 -0.02772244 -0.023880903 -0.02359532
000270 4b cc ed bc 9f 29 61 3c b3 b4 e6 bc d8 2b 82 bd
       -0.029028079 0.013742833 -0.028162336 -0.06356019
000280 ae b9 22 bd 84 a1 01 3c 28 26 b6 bc d2 d2 cd 3b
       -0.03972786 0.0079120435 -0.022234991 0.0062812353
000290 e7 13 bd 3c 8d 6f 36 bd 63 5f 77 bd ae b8 e7 bc
       0.02308078 -0.044539977 -0.060393702 -0.028286304
0002a0 28 5e 2c bc cd c6 36 3c ba f6 2f 3c 74 39 f2 bc
       -0.0105204955 0.011155796 0.010739977 -0.029568411
0002b0 0e d3 f3 bc 1e 5f 31 bd dd c9 99 bc e7 ef 53 3b
       -0.029763725 -0.0433036 -0.018773014 0.0032339038
0002c0 3f cf fb bc 39 c9 a5 bc d5 d8 58 3b 58 e2 cd bc
       -0.030738471 -0.020237552 0.0033088226 -0.025132343
0002d0 32 50 4f bb 41 70 0a 3c 0a 94 0a bd bf f0 3b bd
       -0.0031633493 0.008449615 -0.033832587 -0.04588389
0002e0 a8 05 4e bd b0 b3 15 bd 79 98 f8 bb 33 e8 0e bb
       -0.050298363 -0.036548316 -0.0075865355 -0.0021805882
0002f0 1d f6 50 bd 7c 3f 5e bd 38 2a 41 bd 4b 05 cd bc
       -0.051015962 -0.054259762 -0.047159404 -0.025026938
000300 f3 e5 32 bc 03 09 e6 3b 02 0a 54 bd d8 b5 ae bd
       -0.010919082 0.0070201172 -0.051767357 -0.08530778
000310 41 01 13 bd 79 d4 85 bc f4 b3 a2 bc 72 0e b1 3c
       -0.035889868 -0.016336666 -0.019861199 0.021613333
000320 25 3a e8 bc 8d 06 a6 bd 95 a0 91 bd 8e af 07 bd
       -0.028348038 -0.08106718 -0.07110707 -0.033126406
000330 21 14 3c bc 77 22 22 3c 39 da e9 bc 4e 59 2f bd
       -0.0114794085 0.009895912 -0.02854644 -0.042809777
000340 dc 42 2c bd 03 4d 32 bd 9e 5c af bc 82 f3 06 bd
       -0.04205595 -0.043530475 -0.021406468 -0.03294707
000350 fe 01 33 bd 00 b2 12 bd b4 3c d2 bc d3 a7 0c bd
       -0.04370307 -0.035814285 -0.025663711 -0.034339737
000360 9a 9b 8a 3a ac 7d 9c 3a ee 02 e7 bc ab 8b 12 bd
       0.0010574937 0.0011939309 -0.02819964 -0.03577773
000370 35 75 2d 3c 77 02 df 3c f0 d9 21 3c ce 90 27 bd
       0.010587026 0.027222855 0.0098786205 -0.04090958
000380 2e 89 ff bc 26 23 71 bd 93 1a c7 3c 51 e4 2b 3b
       -0.031193342 -0.05887141 0.024304664 0.0026228616
000390 f9 52 d7 bc e7 08 08 bd c3 2e b5 bc 67 9c e4 39
       -0.026284682 -0.033211615 -0.022117024 0.00043604078
0003a0 dc 30 e4 bb 8c 3f e7 bb 47 45 49 3c b2 bf 39 3d
       -0.0069638323 -0.007057136 0.012284583 0.04534883
0003b0 0e 55 a2 3c f5 cf 83 bd ef 35 79 bd c5 ac bd bc
       0.019815948 -0.06436149 -0.06084245 -0.023153672
0003c0 af 6b 3e bb d2 d0 72 bc 45 fc c2 bc 66 9b 93 bd
       -0.0029055884 -0.014820294 -0.023801932 -0.07207374
0003d0 27 43 96 bc 70 88 5f 3c 7a 95 28 bc 43 b3 6c 3c
       -0.018342568 0.013643369 -0.010289544 0.014447036
0003e0 9b e5 6f bc 1d 95 bc bc 18 ce d8 bc c6 59 c8 bc
       -0.014642145 -0.023020322 -0.02646546 -0.02445687
0003f0 3d 7a 46 b9 6e 29 94 bc d8 26 8c bc cf cf 78 3c
       -0.00018928289 -0.018086161 -0.017108366 0.015186264
