data/chkbox_models/chkbox_rnd7_0_bestVal.pt (torch_old, 236310 bytes, 31 tensors)

layer1.0.weight f4 [4, 1, 3, 3]
0	0x3e9bb180	0.3040886
1	0x3d069e9e	0.032866113
2	0x3cd0e8ec	0.02550169
3	0xbc5af9fb	-0.013365264
4	0x3e401175	0.1875666
5	0x3e846ccb	0.25864252
6	0x3e303cea	0.17210737
7	0x3e8433d4	0.25820792
8	0xbe6379b7	-0.222144
9	0xbe05f676	-0.13082299
10	0xbe8a3502	-0.26993567
11	0x3e2c67ca	0.16836467
12	0xbe3c3df5	-0.1838301
13	0x3ea2719a	0.31727296
14	0xbd3c3766	-0.04595127
15	0xbd326f87	-0.043563392
16	0xbdbd07a8	-0.09229976
17	0x3dd937e9	0.10606367
18	0xbe9b4c95	-0.30331865
19	0x3e6b5621	0.22982074
20	0x3ea8ee7c	0.3299445
21	0x3eaf6d50	0.34263086
22	0x3e986967	0.29767916
23	0xbea5457b	-0.32279572
24	0xbe630aef	-0.2217214
25	0x3e89a810	0.26886034
26	0xbe57cccb	-0.21074216
27	0x3ce4818a	0.0278938
28	0x3e61fe04	0.22069556
29	0xbe968d97	-0.294049
30	0xbe35fbb5	-0.177718
31	0x3e2f7c1b	0.17137186
32	0xbdf26b51	-0.11836875
33	0xbea49a17	-0.3214881
34	0x3e9cf24a	0.30653602
35	0xbe8664e7	-0.26248857

layer1.0.bias f4 [4]
0	0xbe83be84	-0.2573129
1	0xbe80ff39	-0.2519472
2	0x3da089b9	0.078387685
3	0xbe062fea	-0.13104215

layer1.1.weight f4 [4]
0	0x3f823586	1.0172584
1	0x3f7e60e6	0.99366605
2	0x3f820173	1.0156692
3	0x3f7b23a3	0.9810125

layer1.1.bias f4 [4]
0	0xbc57a33d	-0.013161478
1	0x3bde71e9	0.0067884815
2	0x3c315e71	0.010825739
3	0xbcb9d440	-0.022684216

layer1.1.running_mean f4 [4]
0	0x3ed1edd4	0.4100176
1	0xbebb3323	-0.36562452
2	0x3eb69de1	0.35667327
3	0xbed8a725	-0.4231502

layer1.1.running_var f4 [4]
0	0x3f827b89	1.019395
1	0x3d820835	0.063492216
2	0x3e6f1b19	0.2335018
3	0x3e467dce	0.19383928

layer2.0.weight f4 [8, 4, 3, 3]
0	0x3c414625	0.011796509
1	0x3d70ac4d	0.05875807
2	0xb9bda9dc	-0.00036175444
3	0xbddfba0b	-0.10924157
4	0x3dc958b7	0.09831374
5	0x3e097f3c	0.13427442
6	0xbe108330	-0.14112544
7	0x3dbba924	0.091631204
8	0x3d2ea712	0.0426398
9	0xbda00043	-0.0781255
10	0x3e39fb39	0.1816224
11	0x3d7b3a04	0.061334625
12	0x3ca31333	0.019906616
13	0x3d812db6	0.06307547
14	0xbd4549a1	-0.04816592
15	0x3d8fdc31	0.0702442
16	0x3e234b50	0.15946698
17	0xbd93da70	-0.07219398
18	0x3daa7cd1	0.08324588
19	0xbc50150e	-0.012700332
20	0xbd175f16	-0.036955915
21	0xbe1b215c	-0.15149444
22	0x3d12c6ed	0.03583424
23	0xbc83edb1	-0.016104551
24	0xbde79d2c	-0.11309275
25	0xbd0831fc	-0.033250794
26	0x3e1403ab	0.14454524
27	0x3e0dc887	0.13846026
28	0x3dfb3a87	0.122670226
29	0xb9b67a69	-0.00034804948
30	0x3bd5c582	0.006523789
31	0xbdd25cef	-0.10271632
32	0x3e0bc59d	0.13649602
33	0xbd8a9324	-0.06766346
34	0x3e06709b	0.13128893
35	0x3e06800d	0.13134785
36	0xbd973855	-0.07383791
37	0xbe066db8	-0.13127792
38	0x3dc05d60	0.0939281
39	0x3d0d3897	0.034477796
40	0x3d78d9b5	0.060754497
41	0x3ceb590b	0.028728982
42	0x3d05c174	0.032655194
43	0x3cbfb1ba	0.023400176
44	0xbb4b8546	-0.003105478
45	0xbca2fe78	-0.01989673
46	0x3dfac57e	0.122447
47	0x3df8fa10	0.12157071
48	0xbe17db3d	-0.14829727
49	0x3d369097	0.044571485
50	0xbdb45d5f	-0.088068716
51	0x3db1d93e	0.08684014
52	0xbdf36378	-0.118842065
53	0xbe3c8d2a	-0.18413225
54	0x3df317a1	0.11869741
55	0x3d2bc64b	0.041937154
56	0xbc6a98ef	-0.014318689
57	0x3df2ba48	0.118519366
58	0x3d4f3844	0.05059077
59	0xbcaf4836	-0.021396738
60	0x3e1c7777	0.15279947
61	0x3dce9c7c	0.10088441
62	0x3e019922	0.12656072
63	0x3d4eeb9e	0.05051767
64	0xbdaecba7	-0.08534937
65	0x3ca75006	0.0204239
66	0x3e00553d	0.12532516
67	0xbacec70e	-0.0015775876
68	0x3de5cfe5	0.11221293
69	0xbd31e22c	-0.043428585
70	0xbe11f4bb	-0.14253514
71	0x3e0fb723	0.14034705
72	0xbdaf8697	-0.08570593
73	0x3c1e7033	0.009670305
74	0xbdcb73f4	-0.09934226
75	0xbd46ceea	-0.048537172
76	0xbe120bd0	-0.14262319
77	0x3d85b312	0.065282956
78	0x3d367687	0.04454663
79	0xbc447f5a	-0.011993254
80	0x3d39c798	0.045356363
81	0x3e1a5fbf	0.15075587
82	0xbdda16c7	-0.10648876
83	0x3c01e03b	0.007926996
84	0xbe0006a7	-0.12502538
85	0xba8a920d	-0.0010572091
86	0xbc68fad0	-0.014219955
87	0x3de7fcc7	0.1132751
88	0xbcc22e10	-0.023703605
89	0xbd286a25	-0.041116852
90	0x3c8f78bd	0.017513627
91	0xbe3e0e7a	-0.1856021
92	0xbd9759c8	-0.07390171
93	0x3d05adfe	0.032636635
94	0xbdb68659	-0.089123435
95	0xbb0339b7	-0.0020023414
96	0x3dc21622	0.09476878
97	0x3e30f0fd	0.1727943
98	0x3d1d52a4	0.03840889
99	0x3e1e90d0	0.15484929
100	0xbe1816e9	-0.1485249
101	0x3e146eee	0.14495441
102	0xbd33bc21	-0.043880586
103	0xbb9c64ba	-0.0047727497
104	0xbd4bc185	-0.0497451
105	0xbde0334e	-0.109472856
106	0x3d95992b	0.07304605
107	0xbd6ef7b5	-0.0583417
108	0x3cd0220c	0.02540686
109	0x3dda7236	0.10666315
110	0x3e1462f2	0.1449087
111	0xbd63605e	-0.055511825
112	0x3d63fcfa	0.05566118
113	0xbc38420c	-0.011246216
114	0x3dbf924d	0.093540765
115	0xbe006016	-0.12536654
116	0xbc21674f	-0.009851291
117	0x3ddb7a7a	0.1071672
118	0x3b3b3865	0.002856755
119	0x3dc87d81	0.09789563
120	0x3daf8d00	0.085718155
121	0x3e2230c3	0.15838914
122	0x3c8cf71a	0.017207671
123	0xbd0e9aa4	-0.034815446
124	0xbd912e12	-0.07088865
125	0xbd650d86	-0.0559211
126	0x3d8f5a75	0.06999675
127	0x3e265464	0.1624313
128	0x3dccac71	0.09993828
129	0x3ba43282	0.005010904
130	0xbe1cf98f	-0.15329574
131	0x3e02c79c	0.12771457
132	0x3de5c350	0.112188935
133	0x3c29b9b3	0.010359216
134	0x3d80c495	0.06287495
135	0x3e02c1b6	0.12769207
136	0x3e31d30e	0.17365667
137	0x3cf2cfeb	0.029640159
138	0xbdd824c6	-0.10553889
139	0xbc81b9b2	-0.015835617
140	0x3deab87c	0.11460969
141	0xbd9db26f	-0.07700049
142	0x3dc2e8b2	0.09517039
143	0x3da4a115	0.080385365
144	0xbc4355da	-0.011922324
145	0xbd7c7f61	-0.061644915
146	0xbde09899	-0.10966606
147	0xbe0cf0e4	-0.13763767
148	0x3c6cebaf	0.014460488
149	0xbe0334d2	-0.12813118
150	0xbe0e6784	-0.13906676
151	0xbe3e23c0	-0.18568325
152	0xbe1293b7	-0.14314161
153	0xbe0e9db3	-0.13927345
154	0x3d3a37d8	0.045463413
155	0xbe1f57f6	-0.15560898
156	0x3d83dc11	0.06438459
157	0xbd9a071a	-0.07520886
158	0xbe05988b	-0.13046472
159	0x3dd834d2	0.1055695
160	0xbe289f7c	-0.16467088
161	0x3d8ca9d2	0.06868328
162	0xbe1635d1	-0.14668967
163	0xbdbd61f1	-0.092471965
164	0xbe240cb0	-0.16020465
165	0x3d875d37	0.06609576
166	0x3d845988	0.06462389
167	0x3e082393	0.1329482
168	0x3b9b0c90	0.004731722
169	0x3e15cec1	0.14629652
170	0x3db1611b	0.086610995
171	0x3def5d9e	0.11687778
172	0x3ce4fd0a	0.02795269
173	0x3d8731cb	0.06601294
174	0x3d2ee25c	0.042696342
175	0x3d450c76	0.048107587
176	0xbdb0d35a	-0.08634062
177	0x3dea57fe	0.114425644
178	0xbdc3dcc4	-0.09563592
179	0x3e015017	0.12628208
180	0xbdaca5de	-0.08430074
181	0x3d726244	0.059175745
182	0x3de6d405	0.11270908
183	0x3e1cb7f6	0.1530455
184	0x3e097264	0.13422543
185	0x3e1333cb	0.14375226
186	0x3cb301d0	0.02185145
187	0x3da8d8db	0.08244487
188	0xbe116abe	-0.14200875
189	0xbd220046	-0.039551042
190	0x3de724f8	0.11286348
191	0xbe2e50d4	-0.17023021
192	0xbd1ba50f	-0.03799921
193	0xbbf3786c	-0.007430127
194	0xbd75940d	-0.059955645
195	0xbdc49017	-0.095977955
196	0xbd790c2e	-0.06080263
197	0xbe3463b0	-0.17616153
198	0x3ce5aca1	0.028036417
199	0x3de7b13b	0.11313101
200	0xbd95c784	-0.07313445
201	0x3dc48096	0.09594838
202	0xbd972d35	-0.073816694
203	0xbd28ca9d	-0.041208852
204	0xbd938305	-0.07202724
205	0x3e076740	0.1322298
206	0xbd010634	-0.031500056
207	0xbd36ecdf	-0.04465949
208	0xbd3131ef	-0.04326051
209	0xbdd9fd2b	-0.10643991
210	0x3daa76c3	0.08323433
211	0xbdd0c277	-0.10193341
212	0x3dae513e	0.085115895
213	0x3df16825	0.11787442
214	0x3de36c42	0.11104633
215	0x3d9c1943	0.07622006
216	0x3e00036b	0.12501304
217	0x3df37585	0.118876494
218	0xbd2cce2d	-0.042188812
219	0x3d43348d	0.04765754
220	0xbddb008a	-0.10693462
221	0x3d9ee882	0.07759191
222	0xbe24840f	-0.16066001
223	0xbdc68951	-0.0969416
224	0xbe04b384	-0.12959105
225	0xbe27e8d2	-0.16397408
226	0xbe0789e8	-0.13236201
227	0xbdc2820e	-0.09497462
228	0xbd13412f	-0.035950836
229	0x3d7bd60f	0.06148344
230	0xbdc82d99	-0.09774322
231	0x3dfe6bbc	0.124228925
232	0xbe251d54	-0.16124469
233	0x3e150af8	0.14554965
234	0xbe4264e8	-0.18983805
235	0x3ca69865	0.02033634
236	0xbe21005f	-0.15722798
237	0xbd5cd1a8	-0.05391088
238	0xbe2aad20	-0.16667604
239	0xbbede8ff	-0.0072604413
240	0xbd2c2259	-0.042024944
241	0x3d7e2e7f	0.06205606
242	0xbc437769	-0.011930325
243	0x3e01a37d	0.12660022
244	0x3dd5f79b	0.104476176
245	0x3dab76ab	0.083722435
246	0xbde900f2	-0.113771334
247	0x3d2f0cd5	0.042736847
248	0x3daab7be	0.08335827
249	0x3d6622e4	0.056185618
250	0x3ccd41ab	0.025055727
251	0x3e1d727a	0.153757
252	0x3e04e7ea	0.12979093
253	0xbd2452ad	-0.04011791
254	0x3da21f06	0.079160735
255	0x3df1ef98	0.11813277

layer2.0.bias f4 [8]
0	0x3dda751c	0.10666868
1	0xbdd143a2	-0.10217978
2	0xbe2b5ae3	-0.1673389
3	0xbd59182e	-0.053001575
4	0x3d8a539f	0.06754231
5	0xbd84e27c	-0.06488511
6	0x3dd68d1f	0.104761355
7	0xbdef3151	-0.11679328

layer2.1.weight f4 [8]
0	0x3f7ebe58	0.9950919
1	0x3f80845c	1.0040393
2	0x3f7b6b42	0.9821054
3	0x3f7fd943	0.9994089
4	0x3f8051e2	1.0024989
5	0x3f819230	1.0122738
6	0x3f7f028c	0.9961326
7	0x3f804c98	1.0023375

layer2.1.bias f4 [8]
0	0xbb4973de	-0.0030739228
1	0x3ce5a4ea	0.028032739
2	0xbb1f44f2	-0.002430257
3	0xbc496534	-0.012292195
4	0x3cfedf92	0.031112466
5	0x3cfe592b	0.031048378
6	0x3c94ff7c	0.01818823
7	0xbac8bfae	-0.0015315914

layer2.1.running_mean f4 [8]
0	0x3ee5d0a0	0.4488573
1	0x3e387ff3	0.18017559
2	0xbe91d744	-0.28484547
3	0x3ef99eeb	0.48754057
4	0xbe821c0a	-0.25412017
5	0x3cee3c26	0.029081415
6	0xbdcd8a19	-0.10036106
7	0x3d2482d1	0.04016382

layer2.1.running_var f4 [8]
0	0x3df3c218	0.11902255
1	0x3e9e4995	0.30915514
2	0x3dc122bf	0.094304554
3	0x3e67004f	0.22558711
4	0x3ec583d0	0.38577127
5	0x3e946ac0	0.28987694
6	0x3ec121d0	0.3772111
7	0x3e2f3da9	0.17113365

layer3.0.weight f4 [16, 8, 3, 3]
0	0xbd2eab46	-0.042643808
1	0xbd5c0ab5	-0.05372115
2	0xbdb0a888	-0.08625895
3	0x3d91f59c	0.071269244
4	0x3dc71407	0.09720617
5	0x3d56db6b	0.052455347
6	0xbc3d2482	-0.011544349
7	0xbcb69a00	-0.02229023
8	0xbc987015	-0.018608132
9	0xbdeade94	-0.11468235
10	0xbe036c70	-0.12834334
11	0x3da798cc	0.081834406
12	0x3d22d971	0.03975815
13	0xbdf54619	-0.11976261
14	0xbcfb93be	-0.030710097
15	0x3d8c36cf	0.068463914
16	0x3cf113a0	0.029428303
17	0xbdb1f5eb	-0.08689483
18	0x3d7ffb51	0.062495533
19	0xbcdb1fa1	-0.02674848
20	0x3d54f3ae	0.051990204
21	0xbdf1d6b1	-0.11808527
22	0x3dbb3c3c	0.09142348
23	0x3d09f3ef	0.0336799
24	0x3dd3a902	0.1033497
25	0xbdbf7629	-0.09348709
26	0x3dcc083c	0.09962508
27	0xbd85fae0	-0.06541991
28	0xbd10ba72	-0.035334058
29	0xbdc443e7	-0.09583264
30	0x3da9e154	0.08294931
31	0x3d3b517e	0.045732014
32	0x3caa63ed	0.020799601
33	0x3bd16b70	0.0063909814
34	0xbdd07c82	-0.10179998
35	0x3d87a237	0.06622737
36	0x3d88b2ce	0.06674729
37	0x3dae70dd	0.08517621
38	0x3d8a3595	0.06748501
39	0x3dbc944b	0.09207972
40	0xbcf97308	-0.030450359
41	0x3c7df3da	0.015500033
42	0xbda0924a	-0.078404024
43	0xbd02e05f	-0.03195226
44	0x3de4e8bd	0.11177204
45	0x3c250074	0.010070909
46	0x3c35a7f0	0.011087403
47	0xbd3f6ec2	-0.046736486
48	0x3d66ff3a	0.056395747
49	0xbddacc20	-0.10683465
50	0x3dbeb620	0.09312081
51	0xbc18b92c	-0.009321492
52	0x3ad4aaa1	0.0016225168
53	0xbd39037c	-0.04516934
54	0x3cf9b0a5	0.030479738
55	0x3dc0a0f2	0.09405698
56	0xbc8f1d1c	-0.017469935
57	0xbd3d0f56	-0.046157204
58	0xbd651e70	-0.05593723
59	0x3dec604a	0.11541803
60	0xbda25d4a	-0.0792795
61	0xbd8c1eb8	-0.06841797
62	0x3d5b13ea	0.05348579
63	0x3d070a17	0.032968607
64	0xbd8cbd9d	-0.06872103
65	0xbd2f97cb	-0.04286937
66	0x3c8480bd	0.016174668
67	0x3db68103	0.08911326
68	0xbdaac4ed	-0.08338342
69	0xbde19406	-0.11014561
70	0xbda12b39	-0.07869572
71	0x3d236277	0.039888825
72	0xbda25260	-0.07925868
73	0xbd8b4ec7	-0.06802135
74	0xbccf195f	-0.025280653
75	0xbd8f305c	-0.06991646
76	0x3c1030b1	0.008800671
77	0xbda57d96	-0.08080594
78	0x3dc94233	0.098270796
79	0xbb9294de	-0.0044733128
80	0x3da58d56	0.08083598
81	0x3daf354e	0.08555089
82	0x3d4e1389	0.0503116
83	0xbdd3d4ba	-0.10343309
84	0xbcd58027	-0.026062084
85	0xbddb3136	-0.107027456
86	0x3d8571c4	0.0651584
87	0x3da01036	0.07815592
88	0x3dc1cfbc	0.0946345
89	0xbdb52c5c	-0.088463515
90	0x3dc0e181	0.094180115
91	0xbd55666a	-0.052099623
92	0x3cb039ae	0.021511879
93	0x3c84f631	0.016230674
94	0xbc736816	-0.014856359
95	0xbb8a6696	-0.004223655
96	0xbd5bb017	-0.05363473
97	0xbde6f098	-0.11276358
98	0x3d4d3b1f	0.05010521
99	0xba171d1a	-0.00057645293
100	0x3d4968ee	0.049172334
101	0x3d828f7a	0.06375022
102	0x3da17a53	0.078846596
103	0x3d40ee3b	0.047102194
104	0xbdc844f3	-0.09778776
105	0xbcb92faa	-0.022605736
106	0xbd5da976	-0.05411669
107	0x3d3d2784	0.046180263
108	0x3ccfcc8c	0.02536609
109	0xbdf96af2	-0.12178601
110	0xbdd025cd	-0.1016346
111	0xbd0ae4c9	-0.033909593
112	0xbdc1016c	-0.09424099
113	0x3d28d8b6	0.041222297
114	0x3d4a7020	0.049423337
115	0xbb88c43d	-0.004173784
116	0xbcdebed0	-0.027190596
117	0x3de6fa2a	0.11278184
118	0xbcef3aef	-0.029202906
119	0x3d6ef53c	0.058339342
120	0xbdb785ec	-0.089610904
121	0x3db75040	0.08950853
122	0xbdde5276	-0.10855572
123	0xbdf4a178	-0.1194486
124	0xbdbdf968	-0.09276086
125	0xbbff5a86	-0.0077927737
126	0xbdb18930	-0.086687446
127	0x3c84fb8a	0.016233224
128	0xbb7dbf6b	-0.003871883
129	0xbcaf779a	-0.021419335
130	0xbccdef9e	-0.025138672
131	0xbdd002ff	-0.101568215
132	0x3d972b9a	0.07381363
133	0xbda9962f	-0.08280598
134	0x3db3e9d2	0.08784832
135	0xbde4f208	-0.11178976
136	0xbd0a53a8	-0.033771187
137	0x3db62506	0.088937804
138	0xbdfaa7d6	-0.122390434
139	0xbb9c9729	-0.004778762
140	0xbdb99f04	-0.09063533
141	0x3ca39afb	0.019971361
142	0xbc0af073	-0.008480179
143	0x3cd8796f	0.026425092
144	0x3de99145	0.11404661
145	0x3db7dae3	0.08977296
146	0xbd560339	-0.052249167
147	0x3c9f0c4d	0.019415045
148	0x3d938088	0.0720225
149	0xbdb92769	-0.0904072
150	0x3d22b540	0.039723635
151	0x3d63cec5	0.055617113
152	0xbd924a2e	-0.07143055
153	0xbde3d6d6	-0.11124961
154	0xbd158f91	-0.03651387
155	0xbd3be4b0	-0.04587239
156	0x3c495df3	0.012290466
157	0x3d8562be	0.06512974
158	0x3cc1aa39	0.023640739
159	0xbce1abb2	-0.027547691
160	0xbd8c30f6	-0.06845276
161	0x3d91dfb5	0.07122747
162	0x3dd2a247	0.10284858
163	0x3db81a3c	0.08989379
164	0xbd87aef2	-0.06625165
165	0xbdfa10b1	-0.12210215
166	0xbdc2252f	-0.094797485
167	0xbdaecc7f	-0.08535098
168	0xbdd0260e	-0.10163508
169	0xbba0d50b	-0.004908209
170	0xbddb4d9f	-0.107081644
171	0xbcb019e9	-0.02149673
172	0xbd29d3e5	-0.041461844
173	0xbd7b7abe	-0.061396353
174	0xbd62c196	-0.0553604
175	0x3cddb755	0.027064959
176	0x3daadbf7	0.08342736
177	0xbdeec3b5	-0.11658422
178	0x3cc4433c	0.023957841
179	0xbce29ebf	-0.027663587
180	0x3dcd71f4	0.100315005
181	0x3d2f114b	0.0427411
182	0xbda6ca16	-0.081440136
183	0x3dce7d3d	0.10082481
184	0x3dd3f7e9	0.103500195
185	0x3aeaf1a6	0.00179248
186	0x3dccee21	0.10006357
187	0xbd5c2650	-0.053747475
188	0xbdbf049a	-0.093270496
189	0xbc013dc8	-0.007888265
190	0xbd71f800	-0.0590744
191	0x3c025e86	0.007957106
192	0xbde15691	-0.11002839
193	0xbde0864f	-0.10963117
194	0xbd4b5ac2	-0.0496471
195	0x3c54b023	0.012981447
196	0xbd040ff7	-0.032241788
197	0xbdbd31b6	-0.09237997
198	0x3d0984aa	0.033573784
199	0x3c7b5d9c	0.015342142
200	0xbdb0d600	-0.08634567
201	0xbd6c964d	-0.057760525
202	0x3d6ae8bd	0.057350863
203	0x3d90b22f	0.07065236
204	0xbd5f2f68	-0.05448857
205	0x3d415d3c	0.047208056
206	0xbd1c6e6b	-0.03819124
207	0x3debf2af	0.115208976
208	0x3dc5fb10	0.09667027
209	0xbd0c4be9	-0.03425208
210	0x3ca0ed88	0.019644514
211	0xbd258dd9	-0.04041848
212	0x3d000abd	0.03126024
213	0x3d0b5bca	0.034023084
214	0x3da80a72	0.08205117
215	0xbc4baf4b	-0.01243193
216	0xbc8ffb0d	-0.017575765
217	0xbdb8cdbb	-0.09023615
218	0x3cf8e449	0.030382292
219	0x3d001da7	0.03127828
220	0x3c4ed315	0.012623568
221	0x3c618542	0.013764681
222	0xb9cb8bc9	-0.00038823325
223	0xbad02758	-0.0015880866
224	0x3d7faa8b	0.0624185
225	0x3df6c7ac	0.12049803
226	0xbc72719f	-0.014797597
227	0xbd9f03a7	-0.077643685
228	0x3c572907	0.01313234
229	0xbce3b34d	-0.027795458
230	0xbdc8c998	-0.09804076
231	0x3d7cccfd	0.06171893
232	0x3cc1eea1	0.023673357
233	0xbb450ee2	-0.0030068685
234	0xbdb627c5	-0.08894304
235	0xbd735caa	-0.059414543
236	0xbd9a50b0	-0.07534921
237	0xbdd91f3d	-0.10601661
238	0xbd508bc8	-0.050914556
239	0x3d84e943	0.06489804
240	0xbd81bc58	-0.06334752
241	0x3d8c61be	0.0685458
242	0xbdcb5345	-0.09927992
243	0x3dc34afa	0.09535785
244	0x3de0631c	0.109564036
245	0xbc092066	-0.008369541
246	0xbde27d55	-0.110590614
247	0xbdc89163	-0.09793355
248	0xbd95a890	-0.07307541
249	0x3c3f3083	0.011669281
250	0x3da7da6d	0.08195958
251	0xbdef8c92	-0.116967335
252	0xbd90996f	-0.07060515
253	0x3d74a2e3	0.059725653
254	0xbcd45f68	-0.0259244
255	0xbcc2903b	-0.023750415

layer3.0.bias f4 [16]
0	0xbd291fe2	-0.04129017
1	0x3d96e332	0.07367553
2	0x3cb0c592	0.021578584
3	0xbdad7314	-0.08469215
4	0x3c3eee2b	0.011653463
5	0xbdc35ee3	-0.095395826
6	0xbd6cdeb8	-0.05782959
7	0xbdb50ca5	-0.088403024
8	0xbd62d58d	-0.05537944
9	0x3db8096d	0.08986173
10	0xbd83c5c3	-0.064342044
11	0x3dc073aa	0.09397061
12	0x3d6b8b8f	0.05750614
13	0xbd690763	-0.05689181
14	0x3dde85ba	0.1086535
15	0x3d2487c5	0.040168542

layer3.1.weight f4 [16]
0	0x3f7d305a	0.98901904
1	0x3f7b40e3	0.98145884
2	0x3f80c2cf	1.0059451
3	0x3f81608d	1.010759
4	0x3f818d0e	1.0121171
5	0x3f8095ad	1.0045677
6	0x3f7d0a78	0.988441
7	0x3f7f1154	0.99635816
8	0x3f80c737	1.0060796
9	0x3f814939	1.0100471
10	0x3f7d2dd0	0.9889803
11	0x3f7d39da	0.989164
12	0x3f80f329	1.0074207
13	0x3f8090a9	1.0044147
14	0x3f7ffc74	0.9999459
15	0x3f7f55f2	0.9974052

layer3.1.bias f4 [16]
0	0x3b643a19	0.0034824668
1	0xbcb990ae	-0.022651996
2	0x3c378846	0.011201924
3	0x395d974e	0.00021132568
4	0x3be6910b	0.0070363334
5	0x3ba285de	0.004959806
6	0xbc96ad2e	-0.018393125
7	0xbba1646f	-0.0049253027
8	0x3b99a35e	0.0046886643
9	0x3ba9e16e	0.005184344
10	0xbbf84797	-0.0075768935
11	0xbc15bbc2	-0.009139003
12	0xbc9573f0	-0.01824376
13	0x3b4f5e7d	0.0031642013
14	0x3c35aa65	0.0110879885
15	0xbc185a84	-0.009298924

layer3.1.running_mean f4 [16]
0	0xbd859fc0	-0.065246105
1	0xbe80956a	-0.25113994
2	0xbded1cf4	-0.11577788
3	0xbda4d93c	-0.08049247
4	0xbd9a4978	-0.07533544
5	0xbe9272a1	-0.2860308
6	0xbec2574b	-0.37957224
7	0x3dae5b67	0.08513527
8	0xbd81804e	-0.063233
9	0x3e34bdf2	0.17650583
10	0xbd978bf9	-0.073997445
11	0x3ec71952	0.38886505
12	0xbe31c3c2	-0.17359832
13	0xbde76ac9	-0.112996645
14	0x3eb865a2	0.3601504
15	0xbdd55b7e	-0.104178414

layer3.1.running_var f4 [16]
0	0x3e71b96f	0.23605894
1	0x3d8e9985	0.06962875
2	0x3e207c3a	0.15672389
3	0x3dd97567	0.10618096
4	0x3dfd6311	0.12372411
5	0x3dcfcf1d	0.101469256
6	0x3dba4f50	0.09097159
7	0x3db1a43a	0.08673902
8	0x3dfe8d6e	0.12429319
9	0x3de6974a	0.11259325
10	0x3d94c2c8	0.07263714
11	0x3d880cb0	0.06643045
12	0x3d5d7562	0.054067023
13	0x3e58bb65	0.21165235
14	0x3e1faf71	0.1559427
15	0x3db03151	0.08603156

layer4.0.weight f4 [64, 16, 3, 3]
0	0xbd5d14e5	-0.053975005
1	0x3c1a1104	0.009403471
2	0x3da15f2d	0.078794815
3	0x3d7f8888	0.062386066
4	0x3d9fa63f	0.07795381
5	0xbd8b588d	-0.06803999
6	0x3dacc474	0.08435908
7	0x3bb2ed1f	0.005460396
8	0x3d122df2	0.035688348
9	0x3d41d5aa	0.047322907
10	0x3af79da0	0.001889158
11	0xbd375edd	-0.044768203
12	0x3cccc331	0.024995418
13	0x3d830f37	0.063993864
14	0xbc0bb92b	-0.008528034
15	0x3d6c3c98	0.057674974
16	0xbcb12688	-0.021624818
17	0xbd30030c	-0.042971656
18	0x3d8bb618	0.06821841
19	0x3d61d33d	0.055133093
20	0x3da30282	0.07959463
21	0x3d832031	0.064026244
22	0xbc7e72b2	-0.015530275
23	0xbd8ab08b	-0.06771954
24	0xbd873a5d	-0.06602929
25	0xbda0b3cf	-0.07846796
26	0x3d53ad83	0.051679146
27	0x3d96bcdd	0.073602416
28	0x3d924d48	0.071436465
29	0xbad2bf38	-0.0016078716
30	0x3b86fedd	0.0041197375
31	0x3b937b54	0.004500786
32	0x3d957d1e	0.07299255
33	0x3d8b5b48	0.0680452
34	0x3d614d7a	0.055005528
35	0xbd360e82	-0.04444743
36	0xbd5144d9	-0.05109105
37	0xbd34c5f7	-0.044134106
38	0xbd8e1ae9	-0.069387265
39	0xbd96a698	-0.07355994
40	0xbbab4060	-0.00522618
41	0xbc32d872	-0.010915862
42	0x3bedff50	0.0072631016
43	0xbd21dcbb	-0.039517146
44	0x3cbb6747	0.022876395
45	0xbd80211d	-0.06256316
46	0x3c1421cd	0.009041262
47	0xbb94ef84	-0.004545154
48	0x3d511847	0.051048543
49	0x3d6c80aa	0.05773989
50	0xbd284b45	-0.041087408
51	0x3c8c5fbd	0.017135495
52	0x3cb1046a	0.02160855
53	0xbdab3944	-0.08360532
54	0xbccfc130	-0.025360674
55	0x3d9216a6	0.07133226
56	0xbc6d5cc0	-0.014487445
57	0xbcb78dcf	-0.022406487
58	0xbd92f419	-0.07175464
59	0x3d48d19f	0.049028035
60	0xbd98e74d	-0.07465992
61	0x3d66aa99	0.05631504
62	0x3b448f94	0.0029992806
63	0x3d818524	0.06324223
64	0x3d905362	0.07047154
65	0xbda95256	-0.082676575
66	0xbd015745	-0.031577367
67	0xbd3c41be	-0.045961134
68	0xbdb83d8f	-0.08996116
69	0xbcf435ce	-0.029810812
70	0x3bc06132	0.0058709616
71	0x3c81faa4	0.015866585
72	0xbd0af541	-0.0339253
73	0x3d926c91	0.07149614
74	0x3b897279	0.0041945544
75	0x3cb6d950	0.02232042
76	0xbd7b11aa	-0.061296143
77	0x3d454005	0.048156757
78	0xbccb9bc1	-0.024854543
79	0xbc3eb201	-0.011639119
80	0x3ccfe881	0.025379421
81	0x3ca5eb32	0.020253751
82	0x3d0e3a36	0.034723483
83	0xbcff956d	-0.031199181
84	0x3bd54f9b	0.006509734
85	0x3d542bac	0.05179946
86	0x3d640ae1	0.055674437
87	0xbcfd35cb	-0.03090944
88	0x3d0c24c7	0.03421476
89	0x3d3104e1	0.043217544
90	0xbd107e69	-0.035276804
91	0xbd8cdf54	-0.06878534
92	0xbd533fb5	-0.051574428
93	0x3d812052	0.06304993
94	0x3cd051a9	0.025429564
95	0x3d8d7f9e	0.06909107
96	0x3d91f886	0.0712748
97	0xbd886988	-0.066607535
98	0x3d73bba6	0.059505127
99	0xbd255cdd	-0.040371764
100	0xbbe7edfe	-0.0070779314
101	0xbcbd22a6	-0.02308781
102	0xbcc1ebc1	-0.023671987
103	0x3d37ae26	0.044843815
104	0x3d8a28b3	0.06746044
105	0x3c792ba5	0.01520816
106	0xb90bbcb1	-0.00013326366
107	0x3d06f90a	0.032952346
108	0xbd768f90	-0.060195506
109	0xbd568b6f	-0.052379068
110	0x3d8cb759	0.06870908
111	0xbd90beba	-0.07067628
112	0xbb6402e5	-0.0034791764
113	0xbda14d1b	-0.07876035
114	0xbd263a62	-0.040583022
115	0xbd37ae9a	-0.044844247
116	0xbb248dad	-0.002510886
117	0xbd1114d7	-0.035420265
118	0x3cf0c0b3	0.029388761
119	0xbda39cef	-0.07988917
120	0xbc9e1bd8	-0.019300386
121	0x3bbc3ce7	0.005744565
122	0x3d9ae50c	0.075632185
123	0xbd7272c6	-0.059191488
124	0x3d9eee1f	0.07760262
125	0x3d518cda	0.051159717
126	0x3d45c803	0.04828645
127	0xbc89a69c	-0.016803078
128	0xbdab5864	-0.083664685
129	0x3d9330b5	0.071870245
130	0x3d80b9df	0.06285452
131	0x3d278a7f	0.040903565
132	0xbd511976	-0.051049672
133	0x3d96bad9	0.07359857
134	0xbd3f7710	-0.046744406
135	0xbcb3ca59	-0.021947073
136	0x3d06097b	0.032723885
137	0xbd2c62df	-0.04208648
138	0x3b21fb9a	0.0024716617
139	0x3b4dbdfd	0.003139376
140	0x3d6d98d2	0.05800707
141	0xbdaed7bb	-0.08537241
142	0xbbd4041b	-0.006470216
143	0x3d83e9b7	0.06441062
144	0x3d0847c1	0.033271555
145	0xbdaf1096	-0.085480854
146	0xbd38e75e	-0.045142524
147	0x3c45e78b	0.01207913
148	0x3cff0ec8	0.031134978
149	0xbd567994	-0.05236204
150	0x3b426d1e	0.002966709
151	0x3d79e284	0.061007038
152	0xbd2f5fce	-0.042815976
153	0xbd420a50	-0.047373116
154	0x3d14999c	0.036279306
155	0xbd924a3b	-0.071430646
156	0x3d44d2ad	0.04805248
157	0xba9cae1d	-0.0011953745
158	0xbd4167ea	-0.04721824
159	0xbcb651e9	-0.022255855
160	0xbd955d9f	-0.072932474
161	0x3d1cee75	0.038313348
162	0x3bf7c97c	0.0075618606
163	0x3d176c87	0.036968734
164	0x3d8e7360	0.069556
165	0x3d8b8239	0.068119474
166	0x3d65b5c1	0.056081537
167	0xbd928736	-0.07154696
168	0x3ad670cd	0.0016360522
169	0xbdaad0b5	-0.08340589
170	0x3a9c811d	0.0011940334
171	0xbd0b9db5	-0.034085948
172	0x3daa31c5	0.08310274
173	0x3d37e83e	0.044899218
174	0x3ca79566	0.02045698
175	0xbd6572c8	-0.056017667
176	0xbb5f7d70	-0.0034101866
177	0xbd44a470	-0.048008382
178	0xbd16711f	-0.036728974
179	0x3d269b32	0.04067535
180	0xbb237e6d	-0.0024947182
181	0x3c848ece	0.016181376
182	0x3d739413	0.059467386
183	0x3d2625a3	0.040563237
184	0xbc3afebb	-0.011413272
185	0xbc607441	-0.013699592
186	0x3c81f5be	0.01586425
187	0xbd59c8ff	-0.0531702
188	0x3d1f4d32	0.03889198
189	0xbd282689	-0.041052375
190	0x3d203aa9	0.039118443
191	0xbd883224	-0.066501886
192	0x3d1a9dff	0.037748333
193	0x3cb05af3	0.021527743
194	0xbc8f5013	-0.017494237
195	0xbd50b2a0	-0.0509516
196	0x3da16df5	0.07882301
197	0x3c9a81e6	0.018860769
198	0x3cf79b71	0.030225487
199	0x3d064401	0.032779697
200	0xbd75c3f2	-0.06000132
201	0x3da2f381	0.07956601
202	0x3d5b4555	0.053532917
203	0xbcf60747	-0.030032767
204	0x3d5ec4c5	0.054386873
205	0xbd22612c	-0.03964345
206	0xbda904a0	-0.08252835
207	0xbce4a8ef	-0.027912585
208	0xbda766a7	-0.08173876
209	0x3d52e9de	0.051492564
210	0xbc325d66	-0.010886526
211	0xbc8322a3	-0.016007727
212	0x3c560e67	0.013064957
213	0xbd9dedb3	-0.07711353
214	0xbc3b5d1e	-0.011435775
215	0xbc9bb179	-0.019005524
216	0x3d8d659f	0.06904148
217	0xbcbf73dc	-0.023370676
218	0xbd4788d1	-0.048714463
219	0x3db016ca	0.08598097
220	0x3cdab582	0.026697878
221	0x3d9959e9	0.07487852
222	0x3dab68ef	0.08369624
223	0xbd3cdc31	-0.04610843
224	0x3ca626cf	0.020282177
225	0x3c927d19	0.017881917
226	0x3d1fbed3	0.039000344
227	0xbc79a223	-0.01523641
228	0xbdab7db6	-0.08373587
229	0xbd5ff026	-0.054672383
230	0x3c0d33c6	0.008618301
231	0xbc16bd9f	-0.009200483
232	0x3ba047d5	0.0048913755
233	0x3bdfea58	0.006833356
234	0xbda784d6	-0.08179633
235	0xbd5cd870	-0.05391735
236	0x3d9515d4	0.07279554
237	0xbba28eca	-0.0049608694
238	0x3d92cfed	0.07168565
239	0xbd4c28fe	-0.04984378
240	0x3d68a97a	0.05680225
241	0xbc303421	-0.010754616
242	0xbda9d63b	-0.08292814
243	0xbd80d756	-0.06291072
244	0xbd2e932b	-0.04262082
245	0xbc03a5f4	-0.008035172
246	0x3d2b8aaf	0.041880306
247	0xb9af584b	-0.00033444384
248	0xbc3b9517	-0.01144912
249	0xbc4d5cf9	-0.012534373
250	0xbc546241	-0.012962879
251	0xbdb0c499	-0.08631248
252	0xbc3bab21	-0.0114543745
253	0xbcbfb05a	-0.02339952
254	0xbc6198a4	-0.0137693025
255	0xbcc94312	-0.024568114

layer4.0.bias f4 [64]
0	0xba95e2d8	-0.0011435403
1	0x3da22f00	0.07919121
2	0x3d176669	0.0369629
3	0x3d69ceb3	0.05708189
4	0x3cdac87b	0.026706925
5	0xbd88048e	-0.06641494
6	0xbc7d260c	-0.015450966
7	0x3cc110e9	0.023567634
8	0x3d1f672f	0.038916763
9	0x3d8f57fb	0.06999203
10	0xbd60d79b	-0.054893117
11	0xbce3a361	-0.027787866
12	0x3c0207d4	0.007936437
13	0x3d034182	0.032044895
14	0xbcfc4757	-0.030795736
15	0x3d608305	0.05481245
16	0xbd9e60c7	-0.077333026
17	0x3d6e70e7	0.05821314
18	0x3a421887	0.00074041676
19	0xbd7b5e33	-0.061369132
20	0x3c5a315f	0.013317435
21	0xbda8aed2	-0.08236469
22	0xbcb5f9c7	-0.02221383
23	0xbcc9b44d	-0.024622107
24	0x3d12d057	0.03584322
25	0xbc7a47c5	-0.0152759
26	0xbd9eac01	-0.07747651
27	0x3be095f0	0.0068538114
28	0xbd43552b	-0.047688644
29	0xbd7ec107	-0.062195804
30	0xbd5d4e29	-0.054029617
31	0xbce5986a	-0.028026778
32	0x3d8744d3	0.06604924
33	0xbd2a0787	-0.041511085
34	0xbc1b2ebc	-0.009471592
35	0xbcbcb033	-0.023033237
36	0x3cca9e86	0.024733793
37	0xbd61b81b	-0.055107217
38	0xbbde2d65	-0.006780314
39	0xbd098c8d	-0.033581305
40	0xbd137790	-0.036002696
41	0xbd6791a8	-0.056535393
42	0xbd8f416f	-0.06994902
43	0x3cd2e397	0.025743289
44	0x3c3b213f	0.011421501
45	0x3cab468e	0.020907667
46	0x3c74ed0e	0.014949096
47	0x3c59e47f	0.013299107
48	0xbd964355	-0.07337061
49	0x3c57cbb3	0.013171124
50	0xbbde9301	-0.0067924266
51	0xbcc2bd28	-0.023771837
52	0xbc1e69e6	-0.009668803
53	0xbd91ff1c	-0.071287364
54	0x3d802bc8	0.062583506
55	0x3d77d161	0.060502414
56	0xbd8de3be	-0.06928204
57	0x3d5639a2	0.052301057
58	0xbc10eee2	-0.008846017
59	0xbd4525ee	-0.048131876
60	0x3d91fe26	0.07128553
61	0x3d1bece6	0.03806772
62	0x3b9797e8	0.004626263
63	0xbd3ba621	-0.04581273

layer4.1.weight f4 [64]
0	0x3f7dc0c6	0.99122274
1	0x3f7d5f83	0.98973864
2	0x3f818e54	1.012156
3	0x3f7c3253	0.9851429
4	0x3f8069db	1.0032305
5	0x3f8034cd	1.0016114
6	0x3f801430	1.0006161
7	0x3f7d7f69	0.9902254
8	0x3f7e6eb7	0.9938769
9	0x3f8039b5	1.0017611
10	0x3f802b4c	1.0013213
11	0x3f811a84	1.0086217
12	0x3f8195c0	1.0123825
13	0x3f81232b	1.0088857
14	0x3f80b25b	1.005443
15	0x3f80fab5	1.007651
16	0x3f7d2c2e	0.9889554
17	0x3f801016	1.0004909
18	0x3f81c93f	1.013954
19	0x3f805c27	1.0028123
20	0x3f7b3c28	0.98138666
21	0x3f80cdec	1.0062842
22	0x3f7dff13	0.9921734
23	0x3f7e4ab8	0.9933276
24	0x3f819220	1.0122719
25	0x3f80d2cd	1.0064331
26	0x3f810b2c	1.0081534
27	0x3f81c3c3	1.0137867
28	0x3f80271e	1.0011938
29	0x3f82118c	1.0161605
30	0x3f806cde	1.0033224
31	0x3f8023cc	1.0010924
32	0x3f81f494	1.0152764
33	0x3f7f1719	0.9964462
34	0x3f7cbe9f	0.98728365
35	0x3f7eb0a9	0.9948831
36	0x3f7ebd59	0.9950767
37	0x3f8042e5	1.0020415
38	0x3f80bf64	1.0058408
39	0x3f7d0a3e	0.98843753
40	0x3f802c2b	1.0013479
41	0x3f8133ba	1.0093911
42	0x3f80e6b1	1.0070401
43	0x3f7f77f6	0.9979242
44	0x3f80764d	1.0036103
45	0x3f7def18	0.99192953
46	0x3f800ceb	1.0003942
47	0x3f7cef1c	0.9880235
48	0x3f7f786b	0.9979312
49	0x3f7e98eb	0.99452084
50	0x3f7d927c	0.9905164
51	0x3f8006d4	1.0002084
52	0x3f80aa2b	1.0051931
53	0x3f7d8c9c	0.9904268
54	0x3f80f9e7	1.0076264
55	0x3f7c577d	0.98570997
56	0x3f7fd6cb	0.99937123
57	0x3f7db368	0.9910188
58	0x3f7e8c76	0.99433076
59	0x3f7e27c0	0.99279404
60	0x3f7daf7b	0.99095887
61	0x3f807161	1.00346
62	0x3f8047a1	1.002186
63	0x3f7ef29b	0.99588937

layer4.1.bias f4 [64]
0	0xbc22d848	-0.009939261
1	0xbc3e9750	-0.011632755
2	0x3c167cc9	0.009185025
3	0xbc81a32d	-0.015824879
4	0xbac4972a	-0.0014998664
5	0xbbcfae4e	-0.0063379174
6	0x3b9b0e97	0.004731964
7	0xbc2bfa64	-0.0104967095
8	0xbc6c1045	-0.014408176
9	0xbb4ef495	-0.0031578888
10	0x387cabcf	6.024149e-05
11	0xbbe7469d	-0.0070579783
12	0x3bfbe74d	0.0076874853
13	0xbb85636a	-0.004070689
14	0xbc77de03	-0.015128615
15	0x3bfb12a7	0.0076621356
16	0xbc658afc	-0.014010187
17	0xbbc05de0	-0.005870566
18	0x3bf9da49	0.0076248986
19	0xba6979c1	-0.00089063874
20	0xbc97bdf4	-0.018523194
21	0x38cae34b	9.674447e-05
22	0xbc96521e	-0.018349703
23	0xbab7c90a	-0.0014021706
24	0xba9330a0	-0.0011229701
25	0x39d19390	0.0003997353
26	0x3bbec87f	0.005822241
27	0xbbd567c0	-0.006512612
28	0x3af7ea00	0.0018914342
29	0xbbeff132	-0.007322454
30	0xbbcc4fee	-0.0062351143
31	0xbc268536	-0.010163596
32	0xbb9c56da	-0.0047710957
33	0xbc6e1bb4	-0.014532972
34	0xbc754532	-0.014970111
35	0xbc8a1a06	-0.016858112
36	0xbc9be3f1	-0.01902959
37	0x3b8838be	0.004157155
38	0xbc4683cc	-0.012116384
39	0xbbbf3500	-0.0058351755
40	0xbc183ada	-0.009291375
41	0x3bbb3e01	0.0057141786
42	0xbab6add1	-0.0013937299
43	0xbb5fc6ec	-0.0034145666
44	0x3ba22264	0.0049479473
45	0xbc085985	-0.008322124
46	0xbc5097a0	-0.012731463
47	0xbc3ee1e4	-0.011650536
48	0xbbacb6bc	-0.005270807
49	0xbc6ee0a2	-0.014579924
50	0xbc68bee1	-0.014205665
51	0xbc6bab1b	-0.014384056
52	0x3b28a653	0.0025733903
53	0xbc1e2614	-0.009652633
54	0x39eaac3b	0.0004476028
55	0xbbc976d4	-0.0061481986
56	0xbc106193	-0.008812326
57	0x3aa38916	0.0012476768
58	0xb8212931	-3.8423754e-05
59	0xbc2edaa9	-0.01067225
60	0xbb229191	-0.0024806003
61	0xba309b72	-0.00067370303
62	0xbc485cdc	-0.012229171
63	0xbb82a935	-0.003987456

layer4.1.running_mean f4 [64]
0	0x3e8242d4	0.2544161
1	0xbe1556aa	-0.14583841
2	0xbf0362bf	-0.5132255
3	0xbd0264b6	-0.031834327
4	0xbdc9bf7a	-0.098509744
5	0x3e13ae8f	0.14422058
6	0xbdaa9555	-0.08329264
7	0x3ebfe429	0.3747876
8	0xbe690bee	-0.22758457
9	0x3de99403	0.11405184
10	0xbe839692	-0.25700814
11	0xbebb744e	-0.3661217
12	0xbf4e519d	-0.8059328
13	0xbeca4deb	-0.39512572
14	0xbeb32783	-0.34991083
15	0xbec4e5f0	-0.38456678
16	0xbe797509	-0.24361052
17	0xbdd82691	-0.10554231
18	0x3e8d6d1f	0.27622315
19	0x3d3ec542	0.04657484
20	0x3e827814	0.25482237
21	0x3d2bb691	0.041922156
22	0xbf0f77d8	-0.5604224
23	0x3e233162	0.15936807
24	0xbe5c65fc	-0.21523279
25	0xbf9ea676	-1.239455
26	0xbe585508	-0.21126187
27	0xbf628b8b	-0.88494176
28	0xbec38969	-0.38190773
29	0x3e46fa4b	0.19431417
30	0x3da7c49e	0.081917986
31	0xbea4e061	-0.32202438
32	0x3edc6daf	0.43052432
33	0x3d1d2646	0.03836658
34	0xbed17a38	-0.40913558
35	0xbd8302a4	-0.06396988
36	0xbeb7d1bd	-0.35902205
37	0xbf152359	-0.5825706
38	0x3e7d4fcb	0.2473747
39	0xbcd4624b	-0.025925776
40	0xbf152fa5	-0.58275825
41	0xbec335fa	-0.38127118
42	0xbe137cb7	-0.14403044
43	0x3e42baa3	0.19016509
44	0xbe04e04a	-0.12976184
45	0x3d1d5def	0.03841966
46	0x3db4ec8c	0.0883418
47	0xbd2e3077	-0.04252669
48	0x3daa4847	0.08314567
49	0x3eb169fd	0.34651175
50	0x3d45130b	0.048113864
51	0xbe1c9cdd	-0.15294214
52	0xbc1d3c19	-0.009596848
53	0x3df46051	0.119324334
54	0xbece3988	-0.40278268
55	0x3e860459	0.26175192
56	0xbe2916d1	-0.1651261
57	0x3e83b5db	0.25724682
58	0xbc887ed7	-0.016662044
59	0xbde4bd43	-0.11168911
60	0x3eba4a90	0.36385012
61	0xbedd7e3d	-0.43260375
62	0xbea1754b	-0.315348
63	0x3dba8ea0	0.09109235

layer4.1.running_var f4 [64]
0	0x3e7ead39	0.24870767
1	0x3e8e3313	0.27773342
2	0x3f511cf3	0.816848
3	0x3e8b2825	0.27179065
4	0x3ed8092d	0.421945
5	0x3ef47a9e	0.477498
6	0x3eb9b862	0.36273485
7	0x3e921797	0.28533623
8	0x3edad7f6	0.4274289
9	0x3ecc7ebf	0.3994045
10	0x3ea7d569	0.32780007
11	0x3e931050	0.28723383
12	0x3f43841d	0.76373464
13	0x3ee42940	0.4456272
14	0x3ef56a36	0.47932595
15	0x3f0cab48	0.54948854
16	0x3e8cfd72	0.27537113
17	0x3ef9f693	0.48820934
18	0x3f15aaf5	0.58463985
19	0x3ec26e11	0.379746
20	0x3e498dde	0.19683024
21	0x3ef2ff4a	0.47460395
22	0x3ed87b02	0.42281348
23	0x3f5a217a	0.8520733
24	0x3e83ac11	0.25717214
25	0x3f759ac7	0.95939296
26	0x3eb9bdfc	0.3627776
27	0x3ea70fc4	0.32629216
28	0x3f48064b	0.781346
29	0x3f0a4383	0.54009265
30	0x3f0801e0	0.5312786
31	0x3e9164ff	0.28397366
32	0x3ee4b551	0.44669583
33	0x3e9acd2e	0.30234665
34	0x3ec22690	0.37920046
35	0x3e8faf95	0.28063646
36	0x3ebe65b1	0.3718696
37	0x3eff4c4e	0.49862903
38	0x3ecfb0f7	0.405647
39	0x3eafaf4e	0.34313434
40	0x3ecdb267	0.40175173
41	0x3f0dce7a	0.55393183
42	0x3ed8119f	0.42200944
43	0x3f2fe14d	0.68703157
44	0x3ed731c2	0.4203015
45	0x3e8dc27f	0.2768745
46	0x3ed362e7	0.41286394
47	0x3f3601d6	0.7109655
48	0x3f05bbd9	0.5223976
49	0x3ea63f13	0.32469997
50	0x3e8f45d4	0.27982962
51	0x3ebaba1b	0.36470112
52	0x3eca6bab	0.3953527
53	0x3eb586e7	0.35454485
54	0x3ef5969a	0.47966462
55	0x3ed207f7	0.41021702
56	0x3ed67bd4	0.41891348
57	0x3ec8a4e8	0.39188313
58	0x3ea12c81	0.31479266
59	0x3e894ba9	0.26815537
60	0x3f1cce75	0.6125253
61	0x3f5f5d5e	0.8725184
62	0x3ef8b636	0.48576516
63	0x3ed59835	0.41717687

layer5.0.weight f4 [64, 64, 3, 3]
0	0x3c445ea9	0.011985459
1	0xbd149319	-0.036273096
2	0x3d0c21ca	0.03421191
3	0xbc5229e1	-0.0128273675
4	0x3b0b3019	0.0021238385
5	0x3cde96ce	0.027171519
6	0x3d07ef2b	0.033187073
7	0x3cfa054d	0.030520106
8	0xbc9254f8	-0.017862782
9	0xbb9daff8	-0.004812237
10	0xbd1d1bca	-0.03835658
11	0x3d1617b8	0.036643714
12	0x3ac34c7d	0.0014900115
13	0x3c0705f0	0.008241162
14	0x3c263d4e	0.010146452
15	0xbd0e8e85	-0.034803886
16	0x3cb3f0a6	0.021965336
17	0x3cc08fea	0.023506124
18	0x3b339b7a	0.0027405904
19	0x3d3f7c71	0.046749536
20	0x3c216a5d	0.009852019
21	0x3cf57c33	0.02996645
22	0x3cb5d2f2	0.022195313
23	0x3cae1be4	0.021253534
24	0x3cd1559e	0.02555352
25	0x3cc179e7	0.023617698
26	0x3bcf4bda	0.006326181
27	0xbc8fbeb5	-0.01754699
28	0xbcd3113b	-0.025765052
29	0xbc0bdc6c	-0.008536439
30	0x3d224f7b	0.03962658
31	0xbc0e3c96	-0.008681437
32	0x3d054835	0.032539565
33	0x3d1b9d1c	0.037991628
34	0xbcfd2d65	-0.030905435
35	0x3d2f938b	0.042865317
36	0x3cc85d99	0.024458693
37	0x3b6c4512	0.0036051911
38	0x3cfb9abd	0.030713433
39	0xbcd54aab	-0.026036581
40	0xbc29d1e6	-0.010364985
41	0x3ceb84f9	0.02874993
42	0xbd068f28	-0.03285137
43	0xbd25a44b	-0.040439885
44	0xbab32787	-0.0013668396
45	0x3c8391e5	0.016060779
46	0xbcf5e5c8	-0.030016795
47	0x3c1669ba	0.009180481
48	0xbcd98400	-0.0265522
49	0xbc27e250	-0.010246828
50	0x3d1f2c63	0.03886069
51	0x3cf42f36	0.029807668
52	0xbcc12cb6	-0.02358089
53	0xbc27c0a4	-0.0102388
54	0xbc836b48	-0.016042367
55	0xbd273453	-0.040821385
56	0xbc9b8245	-0.018983016
57	0xbc5e5a94	-0.0135714
58	0xbd43d5e1	-0.047811393
59	0x3ca05ef1	0.019576522
60	0xbcdd4b94	-0.027013578
61	0xbcacf264	-0.021111675
62	0xbd146b72	-0.03623528
63	0x3bff4690	0.007790394
64	0xbc9f37ee	-0.019435849
65	0xbc887da7	-0.016661478
66	0xbd0eb812	-0.034843512
67	0x3bd2d8a1	0.0064345156
68	0xbc732fb9	-0.014842921
69	0x3d08e7f8	0.033424348
70	0xbc8bc83c	-0.017063253
71	0xbcf22549	-0.029558795
72	0xba917d23	-0.0011099916
73	0x3cebf8a1	0.028805079
74	0xbcb174c5	-0.021662125
75	0x3ce7c094	0.02829007
76	0xbc166d5e	-0.009181349
77	0xbcf07428	-0.029352263
78	0x3d3479b8	0.044061393
79	0x3cf276cb	0.02959766
80	0x3d328144	0.04358031
81	0xbd057741	-0.032584433
82	0x3acd6d97	0.0015672919
83	0xbc8b582c	-0.017009817
84	0x3b2a8ea8	0.002602497
85	0xbcc0e058	-0.023544475
86	0x3c545ce7	0.012961603
87	0xbd266991	-0.04062802
88	0xbcd43fb6	-0.025909286
89	0x3c4ded05	0.012568717
90	0xbcb0de90	-0.021590501
91	0xbb5c8d23	-0.003365346
92	0x3d4c11d6	0.049821697
93	0x3c98a75f	0.018634496
94	0x3b8deedd	0.0043314532
95	0x3c655e2e	0.013999505
96	0xbc12a3d7	-0.008950195
97	0x3cf3e94f	0.029774336
98	0x3b373650	0.0027955957
99	0xbd044a26	-0.032297276
100	0x3bc4eb62	0.006009505
101	0x3d0afefb	0.033934575
102	0xbc851a0b	-0.01624777
103	0x3ce1cf4b	0.027564665
104	0xbc9dbe60	-0.019255817
105	0xbc67980f	-0.014135375
106	0xbcf63dec	-0.030058824
107	0x3cc843c7	0.024446381
108	0x3d1abf5b	0.037780147
109	0xbc70724e	-0.01467569
110	0xbc999958	-0.018749878
111	0xbce39d11	-0.027784856
112	0xbcb30dc2	-0.021857146
113	0x3d22b7be	0.03972601
114	0xbccb0a73	-0.024785256
115	0x3cf92285	0.030411968
116	0xbcef78d2	-0.029232416
117	0x3a29f747	0.00064836856
118	0xbad9983b	-0.0016601154
119	0xbd052acf	-0.03251153
120	0xbce0aa08	-0.027424827
121	0xbae093ae	-0.0017133856
122	0xbc2b902d	-0.010471386
123	0x3d270ee4	0.040785685
124	0xbc616ea3	-0.013759288
125	0xbc67b19d	-0.014141467
126	0x3d27c63e	0.040960543
127	0x3c4b1fc5	0.012397711
128	0x399db72f	0.00030081856
129	0xbd07c42a	-0.03314606
130	0xbc830ec1	-0.015998246
131	0xbc54da5e	-0.012991516
132	0xbc5d55ae	-0.013509197
133	0xbbb4bcf0	-0.005515687
134	0xbcbbf487	-0.022943748
135	0xbc5efff3	-0.013610828
136	0x3cb53d8a	0.02212407
137	0xbc8938f1	-0.016750785
138	0xbc9fcce4	-0.01950688
139	0xbb46fcdc	-0.0030363118
140	0x3cebef22	0.02880055
141	0xb98498ef	-0.00025290946
142	0x3c8cca20	0.017186224
143	0xbcc426cf	-0.023944287
144	0x3d094ca4	0.033520356
145	0xbb593054	-0.0033140378
146	0x3cb5f461	0.022211256
147	0x3be86738	0.0070923828
148	0x3c9284a8	0.017885521
149	0xbd1087ef	-0.035285886
150	0x3ccdedfb	0.025137892
151	0xbd0687f5	-0.032844502
152	0x3cf594ba	0.029978145
153	0xbada1347	-0.0016637825
154	0x3c821aca	0.015881915
155	0x3cedf2ce	0.029046442
156	0x3cbd7f96	0.023132127
157	0xbc18315b	-0.009289111
158	0xbcc849dc	-0.024449281
159	0x3caa0d96	0.020758431
160	0x3cfb30d4	0.030662932
161	0xbc3c05be	-0.011475978
162	0xbb0226e1	-0.00198596
163	0x3d1f044f	0.03882247
164	0x3cdc311a	0.026878882
165	0xbc9ac9ed	-0.018895114
166	0x3c627340	0.013821423
167	0xbc8f6b7f	-0.017507313
168	0xbc85dfbf	-0.016342042
169	0x3cef7363	0.029229825
170	0x3d01b7c3	0.03166939
171	0xbcb1937f	-0.021676777
172	0x3c44ccad	0.012011689
173	0x3a963f0c	0.0011462881
174	0xbc82e743	-0.015979415
175	0xbd327a44	-0.043573633
176	0xbce5f6eb	-0.028071841
177	0xbd0dca86	-0.03461697
178	0xbd0fcbf1	-0.035106603
179	0x3d1e784a	0.038688935
180	0x3d1b5d98	0.037931055
181	0xbd196258	-0.037447304
182	0x3b88fa4f	0.0041802297
183	0xbbc37ba0	-0.005965665
184	0x3ce8cb27	0.028417183
185	0x3cc02de3	0.02345938
186	0xbd0dc23d	-0.03460907
187	0x3cbb9a83	0.022900825
188	0x3d1bf88c	0.03807883
189	0xbd1ff378	-0.03905055
190	0x3d11f251	0.03563148
191	0x3b38d917	0.0028205568
192	0x3d1de6c2	0.038550146
193	0xbcd4afae	-0.025962677
194	0xbcd32703	-0.025775438
195	0xbcdbd717	-0.026835961
196	0xbd07912f	-0.033097442
197	0x3ce1c8f7	0.027561648
198	0x391dab07	0.000150364
199	0xbc341d96	-0.010993382
200	0xbc20bdd7	-0.009810886
201	0x3ce31536	0.027720075
202	0x3d140c25	0.036144394
203	0x3afc422e	0.0019245797
204	0xbc842fb0	-0.01613602
205	0x3abd4c59	0.0014442309
206	0xbc57abc6	-0.013163513
207	0x3cfb4796	0.030673783
208	0xbceaf686	-0.028682005
209	0xbcbe9795	-0.02326564
210	0x3bcefe8f	0.006316967
211	0xbbc7b2d5	-0.0060943165
212	0xb73c2487	-1.1214178e-05
213	0xbca857c8	-0.02054967
214	0xbc8fbd7c	-0.017546408
215	0x3d230c3c	0.03980659
216	0x3c93dd93	0.01804999
217	0x3ca57e75	0.020201901
218	0x3cf5e262	0.030015174
219	0xbd1a44f0	-0.0376634
220	0x3d12093b	0.035653334
221	0x3cddc99f	0.02707368
222	0x3c99e100	0.018784046
223	0xbc2740d6	-0.010208329
224	0xbc98489f	-0.018589316
225	0x3d1a2157	0.03762945
226	0x3d37f5a2	0.044911988
227	0xbcfb26c2	-0.03065813
228	0xbbf1aa31	-0.0073750247
229	0x3c5fee13	0.013667601
230	0xbbdb326f	-0.0066893618
231	0x3cb87e05	0.022521028
232	0x3c8da9e9	0.017292934
233	0x3d276c41	0.040874723
234	0x3d4d478b	0.050117057
235	0x3c409b12	0.011755722
236	0xbb70dd10	-0.0036752857
237	0xbc8c8b0c	-0.017156146
238	0x3b591557	0.0033124292
239	0x3d13a0bd	0.036041964
240	0x3d1543f0	0.036441743
241	0x3caadd46	0.020857465
242	0x3b733e3a	0.0037115947
243	0xbd0aa29d	-0.033846486
244	0xbcd7f3e9	-0.026361423
245	0xbcee267c	-0.029071085
246	0xbd2e4d01	-0.042553905
247	0xbd506ff8	-0.05088803
248	0xbd2b6a14	-0.04184921
249	0xbbfde602	-0.0077483663
250	0x3c8d8ddc	0.017279558
251	0xbd140954	-0.03614171
252	0x3d21ef3d	0.039534796
253	0x3cb1ca43	0.021702891
254	0xbc1757bc	-0.009237226
255	0xbc1273a4	-0.008938704

layer5.0.bias f4 [64]
0	0x3cb2fe8e	0.021849897
1	0xbcc2c18d	-0.023773933
2	0xbd0f423f	-0.034975287
3	0x3cd6d5bd	0.026224965
4	0xbc12cbb7	-0.008959702
5	0xbd210d72	-0.039319463
6	0x3c714bba	0.014727527
7	0x3cab15ea	0.020884473
8	0xbcd0104a	-0.025398392
9	0x3aeaee3c	0.0017923783
10	0x3d0f014c	0.034913346
11	0xbcdcf09e	-0.026970204
12	0xb8fed6be	-0.00012151663
13	0x3cab18e2	0.020885888
14	0x3c3481e7	0.011017299
15	0xbd282a31	-0.04105586
16	0xbcd3e0a1	-0.025863947
17	0x3c939588	0.018015638
18	0xbc050dbf	-0.008120953
19	0x3cd34446	0.025789391
20	0xb94b739a	-0.00019402654
21	0x3cc0890f	0.023502855
22	0x3ceb31df	0.028710304
23	0xbcb1dff8	-0.021713242
24	0x3d037aa9	0.0320994
25	0x3ba94e80	0.0051668286
26	0x3c92c371	0.01791546
27	0xbd15dbb0	-0.036586463
28	0x3ce9cc39	0.028539764
29	0xbcc32003	-0.023818975
30	0x3d11e44e	0.03561812
31	0x3cb1cce8	0.021704152
32	0x3d090a18	0.03345689
33	0xbca19ced	-0.019728148
34	0x3c60b751	0.013715581
35	0xbcdd84b5	-0.027040819
36	0x3bb99af1	0.0056642224
37	0xbb509ca9	-0.0031831658
38	0xbcd4e68d	-0.025988841
39	0xbce6893f	-0.028141616
40	0x3c86eac2	0.016469363
41	0xba2226ae	-0.00061855733
42	0xbc9a1874	-0.018810488
43	0xbc3c3770	-0.011487827
44	0x3a27a5d4	0.0006395255
45	0xbb6bd6a7	-0.0035986097
46	0x3afed79a	0.0019442916
47	0x3d01cdcf	0.031690415
48	0x3bea2b8a	0.0071463035
49	0xbc2ee2b2	-0.010674166
50	0xbd14c06c	-0.03631632
51	0xbcdd8a6f	-0.02704355
52	0xbce7f16f	-0.028313367
53	0xbcaa35d7	-0.020777626
54	0x3b8680ef	0.0041047256
55	0xbc16284e	-0.009164883
56	0xbc36260a	-0.011117468
57	0x3d24cce9	0.04023448
58	0x3cb144f8	0.021639332
59	0xbd02ed6f	-0.031964716
60	0x3c1a730e	0.009426845
61	0x3c5e4b51	0.0135677615
62	0xbcf10201	-0.0294199
63	0xbd04b950	-0.03240329

layer5.1.weight f4 [64]
0	0x3f826372	1.0186598
1	0x3f82b1f7	1.021056
2	0x3f81e92f	1.0149287
3	0x3f835d7e	1.0262907
4	0x3f82445b	1.017711
5	0x3f8432f9	1.0328056
6	0x3f835f7e	1.0263517
7	0x3f8423b7	1.0323399
8	0x3f849b1d	1.0359837
9	0x3f83db6e	1.030134
10	0x3f834a7d	1.0257107
11	0x3f837b0d	1.0271927
12	0x3f833e42	1.0253375
13	0x3f8573ad	1.0425926
14	0x3f832791	1.024645
15	0x3f838918	1.0276213
16	0x3f829e44	1.0204549
17	0x3f8460a5	1.0341994
18	0x3f839214	1.0278955
19	0x3f82c849	1.0217372
20	0x3f838866	1.0276
21	0x3f82df3a	1.0224373
22	0x3f82463a	1.0177681
23	0x3f84130b	1.0318311
24	0x3f84669c	1.0343814
25	0x3f83e412	1.0303977
26	0x3f81a01d	1.0126988
27	0x3f82a9a2	1.0208018
28	0x3f82a408	1.0206308
29	0x3f81abb8	1.0130529
30	0x3f841eb8	1.0321875
31	0x3f825e35	1.0185
32	0x3f822edf	1.0170554
33	0x3f82e2c4	1.0225453
34	0x3f82843c	1.0196605
35	0x3f824f69	1.0180484
36	0x3f830035	1.0234438
37	0x3f840ae4	1.0315824
38	0x3f83ca79	1.0296165
39	0x3f843083	1.0327305
40	0x3f839633	1.0280212
41	0x3f81cbc0	1.0140305
42	0x3f81cb9e	1.0140264
43	0x3f82e3a6	1.0225723
44	0x3f83ee0c	1.0307021
45	0x3f839ebb	1.0282816
46	0x3f82832c	1.019628
47	0x3f8302ea	1.0235264
48	0x3f831efe	1.0243833
49	0x3f81be76	1.0136249
50	0x3f82b65c	1.0211902
51	0x3f8307aa	1.0236714
52	0x3f82f3a7	1.0230607
53	0x3f828034	1.0195374
54	0x3f82008e	1.0156419
55	0x3f830d6c	1.0238471
56	0x3f8279dc	1.0193439
57	0x3f82e0c7	1.0224847
58	0x3f83af0c	1.0287795
59	0x3f83e8e6	1.030545
60	0x3f82f720	1.0231667
61	0x3f83614b	1.0264066
62	0x3f83e7c1	1.0305101
63	0x3f81ea41	1.0149614

layer5.1.bias f4 [64]
0	0x3c295a7e	0.010336516
1	0x3c9587d5	0.018253246
2	0x3c587d5d	0.013213483
3	0x3cac1b8e	0.021009233
4	0x3c461f2c	0.012092393
5	0x3c9cf3e0	0.019159257
6	0x3c78db86	0.015189057
7	0x3c860bff	0.016363142
8	0x3c9ea8f4	0.019367673
9	0x3cbb4ec6	0.02286471
10	0x3c6ed000	0.014575958
11	0x3c890b70	0.016729087
12	0x3ca14597	0.019686503
13	0x3d0323c2	0.032016523
14	0x3cbeb3fc	0.023279183
15	0x3cb4b044	0.022056706
16	0x3c3af0d6	0.011409959
17	0x3cd8772c	0.026424013
18	0x3c743ee4	0.014907572
19	0x3c7897fd	0.015172956
20	0x3cc0f17d	0.02355265
21	0x3c5af9a2	0.013365181
22	0x3c5a3dda	0.013320411
23	0x3ca2ddec	0.019881211
24	0x3c6ae22d	0.014336151
25	0x3c59be4f	0.013290002
26	0x3c1063cd	0.008812857
27	0x3c8223e4	0.015886255
28	0x3c2f2ba4	0.010691557
29	0x3c0cc4b7	0.008591822
30	0x3c98ff9d	0.018676573
31	0x3c576638	0.013146929
32	0x3c3a533f	0.0113723865
33	0x3c45bee2	0.012069436
34	0x3c32cde6	0.010913348
35	0x3c521e0a	0.012824545
36	0x3c970d8c	0.018439077
37	0x3cdd0a31	0.026982399
38	0x3c368b18	0.011141561
39	0x3ca28024	0.019836493
40	0x3cb8528e	0.022500303
41	0x3c660d97	0.014041326
42	0x3be6abd4	0.0070395265
43	0x3cc5d413	0.024148976
44	0x3ca4f367	0.020135595
45	0x3c874f18	0.016517207
46	0x3c0a78c1	0.008451642
47	0x3c8bc9fe	0.01706409
48	0x3c8b523e	0.01700699
49	0x3c0928f2	0.0083715785
50	0x3c84c6af	0.016208021
51	0x3c99d831	0.018779846
52	0x3c82437e	0.015901323
53	0x3c2ce7c0	0.0105533
54	0x3c0ade97	0.008475921
55	0x3c7bf3eb	0.015377979
56	0x3c8b9316	0.01703791
57	0x3c62dd57	0.013846717
58	0x3cb32cb5	0.021871904
59	0x3c7b1634	0.015325118
60	0x3c4c6067	0.012474156
61	0x3cd491f9	0.025948511
62	0x3c60f9a4	0.013731394
63	0x3c2ff64c	0.010739874

layer5.1.running_mean f4 [64]
0	0x3f32a855	0.69788104
1	0xbe8a6295	-0.27028337
2	0xbe9b6ad2	-0.30354935
3	0xbe501994	-0.20322257
4	0xbe335cad	-0.17515822
5	0xbd5fd88c	-0.054649875
6	0x3dd86ab2	0.105672255
7	0x3f7ac3d8	0.97955084
8	0x3deee5b0	0.11664903
9	0x3f0d8ca5	0.5529273
10	0xbf12a492	-0.57282364
11	0x3e0a238d	0.13490124
12	0x3cbe3b88	0.023221746
13	0x3ebc0451	0.36722043
14	0x3d245fea	0.040130533
15	0x3e54d10d	0.20782872
16	0xbf464326	-0.7744621
17	0x3e0773dd	0.13227792
18	0x3eb90428	0.36135983
19	0x3eeade2a	0.45872623
20	0x3ee76013	0.45190486
21	0x3e35fcbc	0.17772192
22	0xbe6be2ef	-0.23035787
23	0x3e12fe91	0.14354922
24	0x3e779c9c	0.24180835
25	0x3f00b997	0.5028319
26	0x3f06686d	0.5250309
27	0xbdd86706	-0.10566525
28	0xbe5a1341	-0.21296407
29	0xbefa9f70	-0.48949766
30	0x3e6f7e53	0.23388033
31	0x3d38bc22	0.045101292
32	0x3f3493ea	0.705382
33	0x3f421ef7	0.758285
34	0x3f271557	0.65266937
35	0xbf1d860e	-0.61532676
36	0x3eba20f0	0.36353254
37	0x3e741c7f	0.23838995
38	0x3eac0ded	0.33604375
39	0x3e80752b	0.25089392
40	0xbd6e5fff	-0.058197018
41	0xbda78549	-0.08179719
42	0xbe037325	-0.12836893
43	0x3ebe4764	0.37163842
44	0x3d98beb0	0.07458246
45	0xbe75a017	-0.2398685
46	0x3f6e0d1b	0.9298875
47	0x3e8d40e9	0.27588585
48	0xbec2f38e	-0.38076442
49	0x3eea8c64	0.45810235
50	0x3e8bcc9b	0.2730454
51	0x3e60350f	0.2189524
52	0x3f6a4dda	0.9152504
53	0x3f813e0f	1.0097064
54	0x3ee03f09	0.43798092
55	0xbd22fd29	-0.039792214
56	0xbea9b9a2	-0.3314944
57	0xbeb5238e	-0.3537869
58	0x3f0cc4ff	0.5498809
59	0x3f0c51cd	0.5481232
60	0x3f42a5d3	0.7603428
61	0x3e7132b1	0.23554493
62	0xbf0f10d0	-0.5588503
63	0xbe367e74	-0.17821676

layer5.1.running_var f4 [64]
0	0x3f29fd24	0.66401887
1	0x3f3d2f5b	0.73900384
2	0x3f8f2d90	1.118578
3	0x3f1b9a2a	0.6078211
4	0x3f872c2b	1.0560354
5	0x3f988350	1.1915073
6	0x3f6c7c37	0.92377037
7	0x3f8dd901	1.1081849
8	0x3f0f9152	0.56081116
9	0x3f5a2ab4	0.8522141
10	0x3f214b2e	0.6300534
11	0x3f365a26	0.71231306
12	0x3ec2f399	0.38076475
13	0x3f62b2ac	0.8855388
14	0x3f05be2e	0.52243316
15	0x3f90c51e	1.1310155
16	0x3f011624	0.5042441
17	0x3f639a7a	0.8890759
18	0x3f248f5d	0.64281255
19	0x3f5dfdeb	0.86715573
20	0x3f255191	0.64577585
21	0x3f2b1c0d	0.6683968
22	0x3f836ddc	1.0267901
23	0x3f350f10	0.7072611
24	0x3f0f3b6f	0.55950063
25	0x3f47f862	0.7811338
26	0x3f091bb7	0.53557914
27	0x3f29cf02	0.66331494
28	0x3eca45f9	0.3950651
29	0x3f92626e	1.1436288
30	0x3f248dce	0.64278877
31	0x3f1696ba	0.5882374
32	0x3f10ebc6	0.5660976
33	0x3f096513	0.5366985
34	0x3f33c98d	0.7022942
35	0x3f99d482	1.2017977
36	0x3f21bff6	0.63183534
37	0x3f25ee7f	0.6481704
38	0x3f37e1c3	0.7182886
39	0x3f4edc65	0.80805045
40	0x3f35c35f	0.7100124
41	0x3f0089a5	0.5021003
42	0x3f35d714	0.7103131
43	0x3f0aca57	0.54214996
44	0x3f37536b	0.7161166
45	0x3f363204	0.7117007
46	0x3f29823d	0.6621435
47	0x3f0e2aee	0.55534256
48	0x3edb737b	0.42861542
49	0x3ed5e845	0.4177877
50	0x3f48cf4d	0.78441316
51	0x3f5ae918	0.8551192
52	0x3f5b5c08	0.85687304
53	0x3f08e457	0.5347342
54	0x3f2865a9	0.6578012
55	0x3f8a7639	1.0817329
56	0x3f4e0b3c	0.8048589
57	0x3ec71478	0.38882804
58	0x3f12e33a	0.5737797
59	0x3f5ede70	0.8705816
60	0x3f15ccd2	0.58515656
61	0x3f164536	0.5869936
62	0x3f548e21	0.8302937
63	0x3f093100	0.53590393
