data/chkbox_models/chkbox_rnd11_3_bestVal.pt (torch_old, 35085 bytes, 25 tensors)

layer1.0.weight f4 [4, 1, 3, 3]
000000 78 36 8d bd 9d 53 c6 3e 92 85 ce 3e f1 f7 8e bd
       -0.06895155 0.38735667 0.4033628 -0.06980885
000010 68 48 de bd a5 27 a5 3e c1 4b 6b 3e 06 bb 52 be
       -0.10853654 0.3225681 0.22978117 -0.20579156
000020 9c d8 08 ba 45 f0 69 be 6a a4 18 3e 3e a7 a9 3e
       -0.00052202656 -0.22845562 0.14906469 0.33135408
000030 58 87 5b be e4 5c 3b be 5a 9f 03 be a4 63 29 be
       -0.21438348 -0.18297154 -0.12853757 -0.16541916
000040 17 eb 03 be 0a 5e 27 3e fc df 2a 3e 1c 2f 9a 3d
       -0.12882648 0.16344467 0.16687006 0.07528517
000050 ec 57 1d be 52 fa 88 3d 88 8e 0e 3e ea e0 3c 3e
       -0.15365571 0.0668837 0.13921559 0.18445173
000060 44 00 d8 3e 27 5e 51 bb 65 83 1c 3e 98 9d 86 bd
       0.42187703 -0.0031946988 0.15284498 -0.06573027
000070 84 f7 91 3e 6b d6 fa bc 3c 5c b9 3d ac 4a 86 3c
       0.28509152 -0.03061982 0.090507954 0.016393028
000080 f1 fe c3 3d 95 0d 17 3d ad e0 99 3d 7b ee 10 3e
       0.095701106 0.036878187 0.07513557 0.14153473

layer1.0.bias f4 [4]
000000 53 db 67 3d fb 5b a2 be 8a 3a c0 3d 49 bc 53 bd
       0.05660565 -0.317108 0.093861654 -0.051693235

layer1.1.weight f4 [4]
000000 28 39 83 3f fb 06 71 3f 2a 4b 8a 3f da 4e 81 3f
       1.0251818 0.94151276 1.0804188 1.0102189

layer1.1.bias f4 [4]
000000 8d ff 12 bd 9b ca 64 bc c8 4c 2f 3c 53 5a 9d bd
       -0.035888243 -0.0139643205 0.010699458 -0.076832436

layer1.1.running_mean f4 [4]
000000 44 42 74 3f bc 4c 3b bf b8 fd 93 3f 25 36 1a 3f
       0.95413613 -0.7316396 1.1561804 0.6023887

layer1.1.running_var f4 [4]
000000 89 25 87 3f 4f 4d bb 3e c4 9a ab 3f b4 c9 00 3f
       1.055833 0.3658242 1.3406606 0.50307775

layer2.0.weight f4 [8, 4, 3, 3]
000000 a7 dd e8 3c ee 5a 8b 3d cd 7e 3a be c0 46 26 3c
       0.028426005 0.06804453 -0.18212433 0.010148704
000010 38 7b dc 3d 96 ee 84 3d 7f c2 2e be 36 43 e3 bd
       0.107656896 0.06490819 -0.17066382 -0.11096804
000020 3b 2e b7 3c 71 2e b0 3d 63 62 8f 3d ec f8 0d 3c
       0.022360912 0.08602608 0.07001188 0.008665305
000030 cf 83 45 bd 7f 29 6e 3c 4d de d0 bd 9c 03 b8 3d
       -0.048221406 0.014536261 -0.101986505 0.089850634
000040 78 7e 26 3e a0 0b 2d 3d 8a 8a 8e bd 4a c2 0d 3e
       0.16259181 0.042247415 -0.06960018 0.13843647
000050 b4 69 2f 3e 9f 91 a8 bc 7e e8 83 3d 40 52 17 3e
       0.17130166 -0.02057725 0.06440829 0.1477747
000060 d7 6a 46 be 3d 4c 04 bd d4 5f a3 bc 49 b9 b8 3d
       -0.19376694 -0.03229927 -0.019943155 0.09019715
000070 0a 97 26 bd 6d 81 a4 3d 67 0d f9 3d 16 6a 4f 3b
       -0.040671386 0.080324985 0.121607594 0.0031648926
000080 89 0f 10 bd 45 b2 81 bd 89 f2 25 3c a8 27 9e bd
       -0.035171065 -0.0633283 0.010128626 -0.077224076
000090 31 6f 1f bd cf 5a d6 3d cf d8 d4 3c b6 56 a5 3d
       -0.0389244 0.10466539 0.025982289 0.080731794
0000a0 f1 6d ae bd b4 57 fa 3c c3 3b 60 bd 00 50 a4 bd
       -0.085170634 0.030559398 -0.054744493 -0.08023071
0000b0 ba 11 2e be 51 d6 93 bd e2 0e a9 bd 8b 57 9b 3b
       -0.1699895 -0.07218612 -0.08254792 0.0047406605
0000c0 17 77 34 be 10 c0 01 be bc ae 2f 3d 96 9b 40 be
       -0.17623554 -0.12670922 0.04289125 -0.18809351
0000d0 07 8e 46 3c f0 c5 4e bc b6 6f 19 3b d5 2b c1 bd
       0.012118823 -0.012620434 0.0023412532 -0.094321884
0000e0 a9 75 99 3d 53 18 5c bd 5b 03 bc 3d c5 75 3e bd
       0.07493145 -0.053734135 0.091803275 -0.046499033
0000f0 e1 4e 02 3e 2a 7c ad 3d 53 9f d1 bd 34 24 6b 3d
       0.12725402 0.08470948 -0.10235467 0.057407573
000100 dc de b6 bd 62 ef 43 bd bc 60 54 bd 6a 9b 31 be
       -0.08929226 -0.047835715 -0.051850066 -0.17344442
000110 24 95 06 be 34 8d e6 bd cf 84 74 3d 14 74 fc bd
       -0.1314283 -0.11257401 0.05969697 -0.12326828
000120 f5 27 61 3d 36 41 08 3c 78 74 69 bd 46 c2 de 3d
       0.054969747 0.008316329 -0.05699584 0.108768985
000130 5e e0 03 be e1 70 c2 bc 6f fe 84 3d 04 fc e7 bd
       -0.12878558 -0.023735465 0.06493842 -0.11327365
000140 9e aa a2 bc 89 d4 01 3d ce 2b c2 bd ba 41 81 3d
       -0.019856747 0.03169683 -0.09481011 0.063113645
000150 9e 63 79 3d 79 87 8b bd 20 1d c3 3d 8a a5 2a be
       0.060886018 -0.06812949 0.095270395 -0.1666471
000160 70 03 c5 3d cf a7 03 be 3b bb c9 3d 37 ab 91 bd
       0.09619796 -0.12856983 0.098501645 -0.07112735
000170 ee 47 b4 bc 99 1a 6b 3d b8 31 f8 bd 86 31 45 be
       -0.022006955 0.057398412 -0.12118858 -0.19257173
000180 c2 37 f1 3d 03 bd e2 bd 32 4d c7 3c d1 92 c8 bd
       0.11778213 -0.110712074 0.024328802 -0.09793628
000190 d3 31 ab 3d 1a 55 e3 bd 2d a4 08 be 65 12 82 3d
       0.083591126 -0.11100216 -0.13343878 0.06351165
0001a0 3c 59 81 be af d6 23 3e 80 fa 82 3c c5 eb d7 bd
       -0.25263393 0.15999864 0.015988588 -0.10543016
0001b0 de 3e 70 bd 59 fb 7e 3d b0 b7 9b bd 51 bd 27 bd
       -0.058653705 0.062251423 -0.07603395 -0.04095203
0001c0 a0 9b ed bb 0b d2 1b 3d ea ef ae 3d 75 1f 89 bd
       -0.007251218 0.03804211 0.08541854 -0.06695453
0001d0 3b b4 bc bd d8 85 83 bd 0f 98 86 3d 67 57 5d 3d
       -0.09214064 -0.06422013 0.065719716 0.05403843
0001e0 16 de 04 3e eb d3 d6 3c 27 f4 02 bd 3f 78 c0 bc
       0.12975344 0.026224097 -0.031971123 -0.023494838
0001f0 57 1f 8b 3d c9 da 91 bd 96 5e 4c be 71 ce 8d 3c
       0.06793087 -0.07121808 -0.19957957 0.017310353
000200 d5 e8 87 3c 30 e1 eb bd 08 7d 8f bd 5b 1f 5c 3d
       0.016590515 -0.115175605 -0.0700627 0.05374084
000210 42 66 16 be c3 30 a1 3d c1 19 bf 3d 48 c6 30 be
       -0.14687446 0.07870629 0.09331084 -0.17263138
000220 ba e7 af bd de 6d a1 3d 2b 13 37 bd bf 82 3f bc
       -0.0858912 0.07882284 -0.044696014 -0.011688887
000230 c4 2a 1e 3e 38 23 7d bc 30 88 2c 3e be 04 b3 3c
       0.15446001 -0.015450291 0.16848826 0.021852847
000240 90 1a 3a 3d 3a 4c 09 3e b6 06 47 3d 28 39 95 bd
       0.04543549 0.13407984 0.048590384 -0.07286292
000250 cd 3e 01 3e 70 b1 9f bd bd 2c 8d 3d 4b 4a 3d bd
       0.12621613 -0.077975154 0.06893299 -0.04621343
000260 28 1c cd 3c 91 b9 7f 3d 1d fe 0b 3e fe 75 e0 3d
       0.02503784 0.06243283 0.13671155 0.10960005
000270 10 31 82 3d ba c7 0e 3e 2c 5c 55 bd 67 48 37 bd
       0.06357014 0.13943377 -0.052089855 -0.044746783
000280 f8 22 1f bd 2e c7 b1 bd 33 1f ae 3d 2a 98 ba 3d
       -0.03885171 -0.08680569 0.085020445 0.09111054
000290 58 e1 93 3c de f9 b9 bd a6 33 23 be 31 18 04 be
       0.018051788 -0.090808615 -0.15937671 -0.12899853
0002a0 d7 71 37 bc d7 bb 13 3e 6a a3 0d 3e 11 15 da bd
       -0.011196575 0.14427124 0.13831869 -0.10648549
0002b0 94 74 1f 3e c9 c0 02 3c 44 9e e3 3d d8 f2 ca 3d
       0.15571815 0.007980534 0.11114171 0.099096
0002c0 6e 67 22 bd 69 21 93 bd 0e 7b f2 bd 85 e6 cd 3d
       -0.03964942 -0.07184107 -0.11839877 0.10053734
0002d0 53 f1 be 3d 6e 09 8f 3d bc 92 b9 bd f2 cd eb bd
       0.09323373 0.069842204 -0.090611905 -0.1151389
0002e0 e1 df da 3d af 5c d5 bc 22 80 89 bd 2a 7a b9 bd
       0.10687233 -0.026045172 -0.067138925 -0.09056504
0002f0 23 bd 3f be da 6c 06 be f8 a1 ab 3c 46 79 7a 3d
       -0.18724494 -0.13127461 0.020951256 0.06115081
000300 c6 1d 25 3d 08 63 cc bb f0 b8 f4 3a 6e b1 22 3b
       0.040311597 -0.0062373914 0.0018670838 0.0024824995
000310 2a be 01 be 2b be 52 bc 59 56 58 bd 21 5d 31 3d
       -0.12670198 -0.012862722 -0.052816723 0.043301705
000320 bc 64 7a 3c 2e a3 2b bd a6 32 d5 bd e9 c6 24 bd
       0.015282806 -0.041903667 -0.10410051 -0.040228758
000330 a3 d4 db bb 98 e0 f8 3d 6b 98 6d bc a0 ae d5 3d
       -0.006708698 0.12152213 -0.014501671 0.10433698
000340 8f a2 8c 3d ff 3b 88 bd 82 a8 ca 3d 5c ce 6c bd
       0.06866943 -0.06652068 0.098954216 -0.057813987
000350 f5 f3 bf bd 26 d9 dd 3c f8 d0 ac bd 86 b7 da 3a
       -0.09372703 0.027081084 -0.08438295 0.0016686774
000360 45 3d c3 3d 5f 1e 5b 3e b4 24 c7 3d 20 19 06 3e
       0.095331706 0.21398304 0.097237974 0.13095522
000370 5e c4 74 3e 94 e3 2c 3e a6 c0 04 bd 58 76 0b be
       0.23903033 0.16883689 -0.032410286 -0.13619363
000380 b4 2a 93 bd 34 40 98 bc 8b ff fe 3d c5 a9 26 b9
       -0.07185879 -0.018585302 0.12451085 -0.00015894238
000390 c6 29 4a bd cd bb 11 be 9f 90 16 be cd e8 93 bc
       -0.049356245 -0.14231797 -0.14703606 -0.018055344
0003a0 d0 2d 99 bd 02 61 94 3d 0c 55 f9 bd 1f 58 93 bc
       -0.07479441 0.07245065 -0.121744245 -0.017986355
0003b0 af df f8 3d ef 89 42 3d 02 ad cb 3d 6e 9b 6c 3d
       0.12152039 0.047494825 0.09945108 0.057765417
0003c0 50 0f 14 3d 0a 45 22 be a1 32 35 bc a3 a2 88 bd
       0.036147416 -0.15846649 -0.011059434 -0.066716455
0003d0 19 ef 9b 3d 86 75 62 3e 87 7f ca 3d a1 90 fe bd
       0.07613964 0.22115144 0.09887605 -0.124299295
0003e0 88 16 1f be ec 9b 96 bb 0b 02 7e bd d2 16 88 3c
       -0.15535939 -0.004596224 -0.062013667 0.016612444
0003f0 b0 ef a7 bd 20 a5 b8 bd 48 0f 63 bd 13 ad 24 be
       -0.08200014 -0.0901587 -0.055434495 -0.16081648

layer2.0.bias f4 [8]
000000 1f 46 9b bd 80 2e 10 3e c4 2b d3 3b da 79 11 3e
       -0.07581734 0.14080238 0.0064444263 0.14206639
000010 6c eb 24 be fc a7 ab bd 61 33 ae bd d6 04 b8 bc
       -0.16105431 -0.0838165 -0.085058935 -0.022463243

layer2.1.weight f4 [8]
000000 01 a6 71 3f 80 58 7e 3f 58 27 82 3f 9e 6e 85 3f
       0.94393927 0.9935379 1.0168257 1.0424383
000010 ed 23 6b 3f 18 2c 86 3f 75 73 83 3f cf 58 85 3f
       0.91851693 1.0482206 1.026961 1.0417727

layer2.1.bias f4 [8]
000000 a3 b4 ba bd 60 43 cd 3d 8d d0 87 3d 47 68 f9 3d
       -0.09116485 0.100226164 0.06631575 0.121780924
000010 a1 2a 71 bc de 45 36 bc 4f 11 31 bd 06 17 c0 3d
       -0.014719636 -0.011125056 -0.043229397 0.09379391

layer2.1.running_mean f4 [8]
000000 fd d1 13 3e 30 be fb be 05 bc d1 be 01 c6 06 3d
       0.14435573 -0.4916854 -0.4096376 0.032903675
000010 f4 58 64 3e 96 d0 b8 be ae dd 47 3e ed a1 3b bf
       0.22299558 -0.36096638 0.19518158 -0.73293954

layer2.1.running_var f4 [8]
000000 d4 31 2f 3e ec 1a aa 3e 8a 3e cc 3e d7 e5 4b 3e
       0.17108852 0.33223665 0.39891464 0.19911896
000010 04 9d 13 3e 41 2d 11 3e 29 60 d7 3e 25 79 e5 3f
       0.14415365 0.14177419 0.42065552 1.7927595

layer3.0.weight f4 [16, 8, 3, 3]
000000 56 06 4e 3c 1a e9 5c 3d c5 a9 05 bd 7c e6 63 3d
       0.012574753 0.05393324 -0.032632608 0.05563973
000010 15 98 37 3d e3 18 21 bd 24 cf ee bc af ad 28 bd
       0.04482277 -0.039330374 -0.029151507 -0.041181263
000020 30 4d 1d bd 9c 34 0e bd 1c 9f 8e 3c b3 b0 ec bd
       -0.03840369 -0.03471814 0.017409854 -0.1155714
000030 fa 09 1d bd 52 bd b3 3c d7 18 50 3c 44 e3 53 bd
       -0.038339593 0.02194086 0.012701235 -0.05173041
000040 17 f1 51 bd 4a ca a9 bd 46 f4 d7 3d f8 ae c9 bc
       -0.05125531 -0.08290537 0.10544638 -0.024619564
000050 8c 19 08 bd 58 75 a8 3d 90 be bf bd d5 7a d6 3c
       -0.03322749 0.082255065 -0.09362519 0.026181618
000060 80 be b9 3d 8d dd 83 bd 55 96 74 3d 66 98 6e 38
       0.09069538 -0.06438742 0.05971368 5.6885554e-05
000070 c5 85 ea bb 72 33 7a bd 5c 87 62 bd d6 72 ff 3d
       -0.00715706 -0.06108422 -0.05530487 0.12473075
000080 25 48 40 bd a9 1a 19 bd 22 44 5a bb 42 7c 16 3a
       -0.046943802 -0.03737894 -0.003330477 0.0005740562
000090 cc 09 b7 bd be ab ae bd 3b 8d 1e bd 74 30 23 3d
       -0.089374155 -0.08528851 -0.038708907 0.03984113
0000a0 ec fc 0a 3d 69 37 8f 3d 7f ad ac 3b 5b c4 9a 3b
       0.03393261 0.069929905 0.005269706 0.0047231144
0000b0 de c1 a7 3d 2c 99 36 3d 8d 81 00 bd 52 07 56 3d
       0.08191274 0.04457967 -0.03137355 0.052253075
0000c0 25 90 74 3d 03 34 e6 3a 2d 81 d5 3b 31 68 06 bc
       0.05970778 0.0017563108 0.006515643 -0.008203552
0000d0 eb e1 ec bc c4 db 0d 3e 3e 7c c7 3d 20 2b f5 bc
       -0.02891632 0.13853365 0.09740494 -0.02992779
0000e0 2c 06 23 bd e0 53 ca 3d b9 46 dd bb 6b 65 7a bd
       -0.039800808 0.09879279 -0.0067528156 -0.061131876
0000f0 44 99 ce 3b 94 39 82 bd a2 d5 28 be fd 44 75 3d
       0.006304892 -0.063586384 -0.16487744 0.059880245
000100 c9 31 df bb fd 94 82 bc f2 c4 91 bc 4f cd a8 bc
       -0.006811355 -0.015940184 -0.017794106 -0.020605711
000110 df 03 52 3d 7c 4e cd 3d 61 b2 65 bd a6 ca a9 3d
       0.051273223 0.10024735 -0.05607832 0.08290605
000120 99 db f8 bd 83 13 ce bd 21 14 98 3d f4 58 e8 bd
       -0.1215126 -0.10062315 0.07425714 -0.113450915
000130 03 49 b7 3b 7d f0 bd bd 40 71 8e bd 4c 83 a2 bd
       0.0055934205 -0.09274385 -0.069551945 -0.07935199
000140 75 64 32 3d b4 77 27 be 8f 5a c2 3d 09 ba 22 3d
       0.043552835 -0.16354257 0.09489929 0.0397282
000150 3b b7 af 3d 6d be 59 bb f2 1c d4 3d d4 ad da 3d
       0.0857987 -0.0033225075 0.103570834 0.10677686
000160 9c 7d 52 3c 90 33 4b 3d c5 17 2e bd 04 5b 7e bd
       0.01284733 0.04960972 -0.042503137 -0.062098518
000170 8c 70 df bd f2 6a 11 3d f0 2b c9 3c 9a 73 c9 3c
       -0.109101385 0.03550238 0.024557084 0.024591256
000180 ce f0 ff bc b8 ef b2 bd e8 8e 57 3c 6c 57 b9 3d
       -0.031242754 -0.08737129 0.01315663 0.090498775
000190 10 ca e5 bb d5 aa 2b bd 2b cd 03 3e 96 b9 bb 3d
       -0.007012613 -0.041910965 0.12871234 0.09166257
0001a0 81 fd 1c bb 11 80 c5 3d b1 24 e7 3d c2 c4 08 3d
       -0.002395481 0.09643567 0.11286295 0.033390768
0001b0 77 ae 85 bd ef e2 47 bc a6 73 1d 3c 35 40 5f 3d
       -0.06527417 -0.012200101 0.009610092 0.054504592
0001c0 86 89 93 bb ad c5 c9 bd b3 95 df bd 9d 50 7c bd
       -0.004502478 -0.09852157 -0.10917225 -0.061600316
0001d0 4c 63 bf bc f3 b7 91 bc ea 83 b4 3d 72 93 03 3d
       -0.023362778 -0.01778791 0.08814223 0.032123037
0001e0 82 fc f7 bc e0 f3 23 bc f1 4e 47 bd 46 cf c8 3d
       -0.030271772 -0.010006875 -0.04865927 0.09805159
0001f0 bd 89 3f ba c1 bb 3a bd ed d6 6f 3d 23 e5 d8 3c
       -0.00073065964 -0.045589212 0.05855458 0.026476448
000200 ce 7d 10 3c 89 07 c1 3d 00 bf fa 3d c3 46 df 3d
       0.008819057 0.09425265 0.122434616 0.109021686
000210 90 64 02 3e dd f7 e2 bc 7d 09 91 3d 1a b7 93 3d
       0.12733674 -0.027706081 0.07081888 0.07212658
000220 39 1c 38 3d 11 a3 2c 3d 67 89 f4 bb fe 97 10 bd
       0.04494879 0.0421477 -0.0074626687 -0.0353012
000230 5c 47 97 bd ae d5 bc bd c0 76 87 3d b1 da ab 3d
       -0.073866576 -0.09220444 0.06614447 0.083913215
000240 93 a5 30 3d 7a 02 9e 3c 88 fb 88 bd f8 a2 59 3a
       0.043126654 0.01928829 -0.06688601 0.00083021773
000250 47 6c 5a bd 56 22 af bc c5 da 08 3d 80 19 da bd
       -0.053325918 -0.021378677 0.03341176 -0.10649395
000260 76 ca e8 ba ce 67 cb 3d b6 af ab bd 1d 6f 88 3d
       -0.0017760533 0.099319085 -0.083831236 0.06661818
000270 ca 06 3d bd 95 76 b9 3d a9 71 22 be 33 71 bf 3d
       -0.046149053 0.09055821 -0.1586367 0.09347763
000280 27 d1 f8 bc 2b f6 5c 3d d5 32 f5 bc 89 54 07 3c
       -0.03037317 0.0539457 -0.029931465 0.008259901
000290 92 14 6b 3c fe 51 55 bc 87 16 a0 bd b8 e1 ad bc
       0.014348166 -0.013020037 -0.07816797 -0.021225795
0002a0 87 70 51 bc d0 21 e6 3d 38 60 7f 3c b0 56 84 3c
       -0.012783176 0.11236918 0.015586905 0.016154617
0002b0 2d 1b ac bd ad c7 35 3d aa 71 b7 3c f1 23 cd 3d
       -0.08403621 0.04437988 0.022393066 0.10016621
0002c0 bf c8 20 bd 3c 08 94 bb 0c e9 2b bc 5a db 01 be
       -0.039253946 -0.004517583 -0.010492574 -0.12681332
0002d0 ca a2 2e 3d 68 16 fa 3c dc ce 9b bd f8 03 09 be
       0.042635716 0.030528262 -0.07607815 -0.1338042
0002e0 13 3f 82 bd af 30 b1 3a cf 2e 0c bd d1 87 94 bb
       -0.06359687 0.0013518537 -0.034224328 -0.004532792
0002f0 48 42 6e 3d 53 94 84 bd d0 4c 92 3c 19 55 96 bd
       0.05816868 -0.06473603 0.017858893 -0.0734045
000300 8d d2 b8 3d be 09 53 3d 83 81 83 bd cc a4 4d bd
       0.090245344 0.051522963 -0.06421187 -0.05020599
000310 4a 56 a6 bd a0 73 83 bd 04 db 9d 3d c8 d7 14 ba
       -0.08121927 -0.06418538 0.077077895 -0.0005677906
000320 30 4f d8 bd 09 cd 3a 3d ad eb 07 3d d1 3c 8a 3d
       -0.10561979 0.045605693 0.033183742 0.06749881
000330 bc 89 0d be e7 4f 49 3d 25 d8 2c 3e d7 d9 35 bd
       -0.13822073 0.049148466 0.16879328 -0.0443972
000340 8f 48 88 bd 24 83 31 3d ac 9c f3 3d 87 98 84 3d
       -0.066544645 0.043337956 0.11895117 0.06474405
000350 a9 49 94 3d b9 76 83 bc 33 31 dc 3c e1 88 9c 3d
       0.07240612 -0.016047822 0.026878929 0.07643295
000360 ea f1 b1 bd c9 19 bf bd f9 c0 86 3c 24 37 61 3d
       -0.086887196 -0.0933109 0.016449438 0.054984227
000370 aa 42 07 bd 45 22 c2 bb 5e a1 42 bd 3f 3f 6a bd
       -0.03302256 -0.0059244954 -0.047517173 -0.057189222
000380 cb dd 2f bd 09 77 6d bd a9 2a 3d 3c be c4 ed 3d
       -0.042936128 -0.05797485 0.0115458155 0.11609791
000390 a5 25 fc bc e2 99 1c 3d 6e a1 b3 bd 8f b4 27 bc
       -0.030779669 0.03823269 -0.08771025 -0.01023592
0003a0 a7 54 c2 bc 11 dc cd 3d 20 0a 8d bd 43 3c 37 3d
       -0.023722006 0.1005174 -0.06886697 0.044735204
0003b0 3e 53 a1 3d f5 26 47 3c d1 44 ad bd dd 1d e3 bb
       0.07877205 0.012155284 -0.08460391 -0.00693105
0003c0 3b 25 49 bd ed 0d 93 3c d8 48 a7 bd cd 13 61 bd
       -0.04910777 0.017950976 -0.08168191 -0.054950524
0003d0 51 d3 5d bd b0 0e 6e 3d b2 f4 5c bd 4a 23 d4 3c
       -0.054156605 0.058119476 -0.053944297 0.025895733
0003e0 1b f5 a0 3d 3a 9c 02 3e 89 3c bf 3d 81 5b db bd
       0.0785925 0.12754908 0.09337718 -0.10710812
0003f0 6c 68 99 3d 31 49 d9 bb 58 1d d7 bd 9b 5f ab bc
       0.0749062 -0.0066310395 -0.10503644 -0.020919612

layer3.0.bias f4 [16]
000000 8c c2 1b bd 57 e3 47 3d 7a bb 58 3d 35 10 a9 3d
       -0.03802733 0.048800793 0.052913167 0.08255044
000010 8e f4 31 bd db 6d 9f 3d f4 84 50 bb 79 b1 7d bc
       -0.043446116 0.07784625 -0.0031817527 -0.015484207
000020 b2 b2 39 3d 4a 60 14 bb 04 f7 a0 3d b3 24 dd bd
       0.045336433 -0.00226404 0.078596145 -0.107980154
000030 fe 64 b7 3c fa 63 b2 bd b8 4f e7 3d a3 15 bd 3d
       0.022387024 -0.08710475 0.11294502 0.092326425

layer3.1.weight f4 [16]
000000 77 41 71 3f 86 fa 76 3f c6 1c 79 3f 1e eb 71 3f
       0.94240516 0.9647602 0.9730953 0.94499385
000010 0c 56 79 3f f0 81 77 3f fd 27 7f 3f 5c 87 7f 3f
       0.9739692 0.96682644 0.9967039 0.99815917
000020 eb 16 7d 3f 43 34 6e 3f e7 e5 85 3f 45 b4 80 3f
       0.98863095 0.93048495 1.0460786 1.0055014
000030 77 d3 76 3f 5b 53 7d 3f 08 07 72 3f d5 5f 71 3f
       0.9641642 0.98955315 0.9454198 0.94286853

layer3.1.bias f4 [16]
000000 79 36 5b be cf 4c 89 be fb fd ac be 18 9f 84 be
       -0.21407498 -0.26816413 -0.33787522 -0.2590263
000010 7c bb 3c be 04 f5 7f be a6 9e 28 be d3 7c 46 be
       -0.18430895 -0.2499581 -0.1646677 -0.19383554
000020 dc 1c a3 be 4a 42 01 be ce 24 80 be 4b 4a 0a be
       -0.31857955 -0.12622944 -0.2502808 -0.13504903
000030 91 5a 78 be 97 96 6d be ad 5f fe bd d3 b6 14 be
       -0.24253298 -0.23201977 -0.124205925 -0.14522867

layer3.1.running_mean f4 [16]
000000 20 19 87 bd a7 4f e0 3e 5d d2 b3 3c e1 90 94 3d
       -0.06596589 0.4381077 0.021950895 0.07254196
000010 4b 80 a3 be 66 b0 aa 3d 7e be 4a 3e 4c cd 87 be
       -0.31933817 0.083344266 0.1979923 -0.26523817
000020 10 2c 17 be 40 6e 20 3e d4 17 07 be 1d 8b cf bd
       -0.14762902 0.15667057 -0.13192683 -0.10133956
000030 fa 73 43 3e 7b 12 bc bd b5 60 0d 3f 9d 5f 12 bf
       0.1908721 -0.09183212 0.5522569 -0.57177144

layer3.1.running_var f4 [16]
000000 74 bd c0 3d 97 78 71 3d fd e9 94 3d cf c7 93 3d
       0.09411135 0.058952894 0.07271192 0.07215845
000010 90 19 5b 3d fe 39 e6 3d 96 1b a8 3d 64 0d de 3d
       0.053491175 0.1124153 0.082083866 0.10842398
000020 3e 87 00 3e 2b c3 ec 3d 29 b6 e3 3d b8 7b b6 3d
       0.12551591 0.11560663 0.11118729 0.08910316
000030 e4 cc 7e 3d 43 29 8a 3d bc 2d e3 3d e9 f7 d3 3d
       0.062207118 0.06746151 0.110927075 0.103500195

layer4.0.weight f4 [32, 16, 3, 3]
000000 d6 70 34 3d 96 0c b5 3c 42 41 00 bb 71 5a 15 bc
       0.04405292 0.022100728 -0.0019570147 -0.009115801
000010 92 7c 12 3d 95 be 65 3d 28 fc d3 b9 b3 57 5f bd
       0.03576333 0.056089956 -0.00040432927 -0.054526996
000020 bc c8 be ba e1 f5 d6 bc 5c ec 7a bd b7 b3 cd 3d
       -0.0014555673 -0.026240291 -0.061260566 0.100440435
000030 44 db 75 bd e0 0a 21 bd 7d e0 ed 3c d9 6c 3b 3c
       -0.06002356 -0.03931701 0.029037708 0.0114395255
000040 79 3a 4d bd 8a 7d e2 bc 40 6d 57 3d b7 6f 4f 3a
       -0.050104592 -0.027647752 0.052594423 0.000791307
000050 c9 36 69 3d bb a0 c0 3c bf 3e 33 3d ab 6a 97 3d
       0.056937013 0.023514142 0.04376101 0.07393392
000060 3b d1 3b bd b4 30 b9 3c e2 68 b2 3a d7 0a aa 3c
       -0.045853835 0.022606231 0.001361158 0.020757122
000070 53 13 bc 3d 4d ac 0c bd e2 69 31 bd 3f 9d 7a bc
       0.09183373 -0.034344006 -0.04331387 -0.015296279
000080 80 42 1c bd 42 cd 8a 3b ef ef ca bc 69 8c 0d 3d
       -0.038149357 0.0042358944 -0.024772612 0.034557734
000090 10 8e ab ba a6 a4 b9 3d 43 64 0a bd b6 e7 7c 3c
       -0.0013088603 0.09064607 -0.033787023 0.015436104
0000a0 90 f5 86 3c 7d 47 61 3b 4d 6e bd bd 0b 53 6a bd
       0.016474515 0.0034374886 -0.09249554 -0.057208102
0000b0 59 82 02 39 51 3f 8f 3d b7 55 04 3e 48 7a ed bc
       0.00012446324 0.069944985 0.12923323 -0.028988972
0000c0 31 6c b0 bd fd e6 5a ba 1f ad 9e bc 9c d2 83 bd
       -0.08614386 -0.000835046 -0.01936966 -0.06436655
0000d0 0f f9 47 bd 4b 8f 3b bd 9c bd 33 bc e6 6b 51 3d
       -0.048821505 -0.04579095 -0.010970499 0.05112829
0000e0 3e 46 8b 3d 53 1e c1 3d 68 02 5a 3d ca c9 98 3c
       0.06800507 0.09429612 0.05322495 0.018650908
0000f0 3c c3 21 bd ab 22 1f bc 54 e0 f0 39 69 73 1f 3d
       -0.03949283 -0.009712855 0.00045943505 0.038928423
000100 21 c3 ae bd e0 15 8f ba 53 5a 8e bd 84 cf af 3d
       -0.08533312 -0.0010916553 -0.06950822 0.08584502
000110 ff 91 77 3d e4 25 4d bd 68 df 5b 3c 23 e1 65 3d
       0.060441967 -0.050084963 0.013419963 0.05612291
000120 ae 2f 98 bb 86 49 bb bd 78 bc 8a 3c 3a 3d 40 bd
       -0.0046443557 -0.09144883 0.016935572 -0.04693339
000130 40 ee 48 bd 3a e4 98 3d a5 da 8a 3d 88 2d 44 3d
       -0.049055338 0.07465406 0.067799844 0.047894984
000140 b0 4c e5 bb 65 90 a8 3c c0 d2 01 3d 6c c3 88 bc
       -0.0069976673 0.020576665 0.031695127 -0.016694747
000150 71 7d b2 bc e0 af b8 3c 65 be ec bc a2 15 51 bc
       -0.02178833 0.022544801 -0.028899381 -0.012761505
000160 cb ba 25 3d 98 6d 14 bd 73 1d 73 bd ad c8 15 3d
       0.040461343 -0.03623733 -0.059354257 0.036568332
000170 13 0e cd 3b 78 d7 b2 bc b0 fa b4 3d 51 d1 b1 3d
       0.0062577813 -0.02183126 0.08836877 0.08682502
000180 53 6b 3d 3b 28 82 c5 3d 86 b8 91 bc ef 9f 03 3d
       0.0028903082 0.09643966 -0.017788183 0.032134946
000190 b8 65 11 bc 50 4f 6b 3d 6e a1 ef 3b a4 80 70 3d
       -0.008874349 0.057448685 0.007312945 0.05871643
0001a0 38 65 8b 3d 9b ee 82 3d 8a 22 41 3d 17 42 cc 3c
       0.06806415 0.06393167 0.04715208 0.024933858
0001b0 ab 08 0a bd db 46 a4 bc b2 77 60 3d 8f fd b5 3d
       -0.033699673 -0.020053318 0.05480165 0.08886253
0001c0 ce 86 dd bb 6b 10 b8 3c 21 53 42 3c 86 b3 37 bc
       -0.0067604547 0.022468766 0.01186064 -0.011212235
0001d0 e3 52 a5 3c 4a 4d 84 3d 7c 91 84 3d 6f d5 5f bd
       0.020181125 0.06460054 0.064730614 -0.054646906
0001e0 5f 19 96 3d a9 56 a7 3d 9c 53 41 bd 7d d4 98 3c
       0.07329058 0.08170826 -0.047198877 0.01865601
0001f0 98 4f ca 3d 3a c2 2a bd b7 b8 b3 3c e9 01 82 3c
       0.098784626 -0.041689135 0.021938665 0.015870051
000200 f3 a5 08 bb 65 b1 5d bc 5c 4c 0d 3b b6 67 86 3d
       -0.0020850867 -0.013531064 0.0021560406 0.0656275
000210 7f 8a 8b bd 41 ab 1c bc 33 25 84 bd 4f a0 4a bc
       -0.068135254 -0.0095623145 -0.06452408 -0.012367322
000220 88 b4 09 bd 9a d5 4a 3c 96 8e 69 bd 25 8a 76 3c
       -0.033619434 0.012380028 -0.057020746 0.015047585
000230 1f d6 2a bd e4 f4 01 bc 06 71 6b bc 21 bb 3a bd
       -0.041708108 -0.007931922 -0.014370209 -0.045588616
000240 30 79 4f 3d e4 62 63 bc dc e0 8e 3c ad 4a 5a bc
       0.050652683 -0.013878558 0.017441206 -0.013323468
000250 aa 94 57 3d 67 23 97 3d 95 1d 41 bc 2b fb b5 bb
       0.05263201 0.07379799 -0.011786838 -0.005553623
000260 87 9b 55 3d f8 da 64 39 06 cb 41 3d 8e 94 9f 3c
       0.052150276 0.00021825347 0.04731276 0.019480016
000270 a0 ab 96 3d 00 d5 9d 3d 72 8f 9a bc 76 d6 e2 bb
       0.073569536 0.07706642 -0.018867228 -0.0069225384
000280 14 ca d5 ba cd b8 1c bd b4 99 cc 3c 40 49 f6 bc
       -0.0016310834 -0.038262177 0.024975635 -0.030064225
000290 13 b1 ee 3c 1a c0 02 3d c9 22 13 3d b5 8b 43 3d
       0.02913717 0.031921484 0.035921846 0.047740657
0002a0 63 2e d9 bc 54 b2 1d bd 56 c4 17 3c 53 bc cc 3c
       -0.026511377 -0.038500145 0.009263119 0.024992144
0002b0 93 8e b3 3d 3c 9f 33 bd 01 e9 c0 bc 9d 92 c3 bb
       0.08767428 -0.04385303 -0.023548605 -0.0059684054
0002c0 e9 94 09 bd 85 9c a2 bb 78 79 99 bc f1 36 e8 bd
       -0.033589277 -0.0049625062 -0.018734679 -0.11338604
0002d0 96 04 f6 ba 6e a5 6b 3d 0b 0c 2f bd 2f be 85 bc
       -0.0018769677 0.057530813 -0.042736094 -0.016326038
0002e0 ec 54 6d bd e6 49 64 bd 17 02 c4 bd 07 45 15 bd
       -0.057942316 -0.055734538 -0.09570711 -0.036442783
0002f0 5f 06 91 bd 1b 3b 7e bd ba 2b 51 bd 64 30 43 bd
       -0.07081293 -0.062068086 -0.05106709 -0.04765357
000300 33 97 5e bc 05 9c 29 3d 5c 20 b1 bd a1 c1 87 bd
       -0.013585853 0.041408557 -0.0864875 -0.06628729
000310 d1 5c 5c bd bf b0 90 bd 42 cd d7 bc df b5 ca bc
       -0.053799454 -0.07064962 -0.026342992 -0.024744926
000320 43 4b 62 3d 9d c4 c8 3c 74 e8 01 3d 30 2b 01 3d
       0.055247556 0.024507815 0.031715825 0.031535327
000330 2c 00 10 3d 4f bc 1d 3c 58 0a d1 bc 05 b4 f6 3d
       0.035156414 0.009627416 -0.025517628 0.12046055
000340 48 3b af 3c 3b e6 27 3c 1b eb 22 bd d5 79 93 3d
       0.021390572 0.010247762 -0.039774995 0.07200972
000350 ef 6d 7b 3d 75 26 04 bc 80 f6 e2 bc 07 5a 77 bd
       0.061384138 -0.0080658095 -0.027705431 -0.06038859
000360 6b f5 0b 3e 94 b2 43 bd b6 9f a7 bc 54 3c 90 39
       0.13667838 -0.047777727 -0.020461898 0.00027510768
000370 8d b0 7a bb 1b fc b0 3d 6c 89 29 bd 22 c9 61 bd
       -0.0038252205 0.08641835 -0.04139082 -0.055123456
000380 64 4b 01 3d 41 85 0d 3d 1b d3 ba bc 12 4c c5 bc
       0.03156604 0.03455091 -0.022805741 -0.024084125
000390 c4 7a 45 3d 9b be 99 bc 37 82 9a 3b e5 33 e0 3c
       0.04821278 -0.018767646 0.00471523 0.027368495
0003a0 79 fe dd b6 22 03 80 3c a1 1c eb 3d 76 3c 33 3d
       -6.6159378e-06 0.015626494 0.1148007 0.043758832
0003b0 74 22 71 bc a6 b9 1c 3d b4 08 80 bd 0f 80 83 3d
       -0.014717687 0.038262986 -0.0625166 0.064209096
0003c0 61 88 c3 bc fd 71 3f bd ad 55 48 bc 22 da 47 3d
       -0.023868741 -0.046739567 -0.012227458 0.048792012
0003d0 1e 1a 81 3b 63 f8 81 3c 4d f9 8c 3c 31 8f 70 3d
       0.003939881 0.01586551 0.01720872 0.058730308
0003e0 0f 39 2a 3d ab 12 4f 3c 6e 2f b1 bc 7e c9 41 3d
       0.04155832 0.012638728 -0.021629062 0.0473113
0003f0 9c 46 9e bc b1 f3 38 3b 88 7e 96 3d 61 e0 25 bd
       -0.019320779 0.0028221423 0.07348353 -0.040497188

layer4.0.bias f4 [32]
000000 a5 5c 48 bd 90 58 30 bd b2 d5 0a 3d d6 e4 18 bd
       -0.048916478 -0.04305321 0.033895202 -0.03732761
000010 16 95 97 bd cf 2e 0e 3d 55 cb 2e bd 3d d0 6b bd
       -0.07401483 0.03471261 -0.04267438 -0.05757164
000020 48 04 85 bd b7 b8 52 bd 2b 57 90 bd 6b 20 ac bd
       -0.06494957 -0.05144569 -0.07047876 -0.08404621
000030 33 b5 13 bd c8 8a 25 3a f1 ce fe 3b be 5d e6 3b
       -0.036061477 0.00063149305 0.007776134 0.007030218
000040 2e 55 6e 3d bc 5a 3a bd cd 65 77 3c 03 47 93 bd
       0.058186702 -0.045496687 0.015099955 -0.07191279
000050 ac 47 bd bc 45 81 af bc f2 48 85 bd 91 af 5d 3c
       -0.023105465 -0.021423945 -0.06508054 0.013530628
000060 80 56 f0 bb b0 bd 7a bc da 2e 8d 3d 32 f6 3d 3c
       -0.0073345304 -0.015304014 0.06893702 0.011594342
000070 3a 91 02 3d ee 1f 26 bd 54 53 59 3d 84 f4 2c 3d
       0.03187678 -0.040557794 0.053057984 0.042225376

layer4.1.weight f4 [32]
000000 82 18 8c 3f 02 61 90 3f e6 9f 82 3f 92 4f 87 3f
       1.0944979 1.1279604 1.0205047 1.0571158
000010 38 12 87 3f cf a6 8a 3f 67 69 8d 3f d7 7b 8a 3f
       1.0552435 1.0832156 1.1047791 1.0819043
000020 43 46 8b 3f 0e b1 89 3f f6 2e 82 3f 3c 4f 8d 3f
       1.0880817 1.0757158 1.0170581 1.1039805
000030 f7 29 89 3f e7 97 87 3f 5d 9c 86 3f 6a 06 8a 3f
       1.0715932 1.0593232 1.0516468 1.0783207
000040 85 6e 84 3f ab 14 8f 3f 7b 3c 89 3f 5e 73 87 3f
       1.0346228 1.1178182 1.0721582 1.0582082
000050 05 a4 89 3f 28 94 8e 3f fc 58 8a 3f ab 1c 8e 3f
       1.075318 1.1138964 1.0808406 1.1102499
000060 f5 5b 89 3f d2 b4 8f 3f 6b 1b 8d 3f 09 84 8d 3f
       1.0731188 1.1227057 1.1023992 1.1055919
000070 30 55 87 3f 82 37 8d 3f e4 2f 8a 3f 8e c9 8b 3f
       1.0572872 1.1032565 1.0795865 1.0920885

layer4.1.bias f4 [32]
000000 3c f3 48 3d 67 28 0c 3d 4c 32 7c 3b b7 15 8e 3d
       0.04906009 0.03421822 0.0038482128 0.069377355
000010 6e f4 0d 3d fc 7a ce 3c 42 18 34 3d 9c bb d8 3c
       0.034656934 0.025205128 0.043968447 0.026456647
000020 cd 9e 4b 3d bd 0e 86 3d 04 88 a6 3b 40 64 79 3d
       0.04971199 0.0654578 0.0050821323 0.06088662
000030 77 41 a2 3c 4c 66 3a 3d 78 34 04 3d 3a 67 b1 3c
       0.019806607 0.045507714 0.0322766 0.021655668
000040 43 6f 48 3d 86 03 1d 3d 42 38 84 3d 66 bf 15 3c
       0.048934232 0.03833344 0.06456043 0.009139871
000050 bd 61 6e 3d 7c 28 6e 3d 73 f2 1a 3d a0 44 47 3d
       0.05819868 0.058144078 0.037828874 0.04864943
000060 0c a7 87 3c f5 de 31 3d 2c c7 97 3d b4 fa 7b 3d
       0.016559146 0.04342552 0.07411036 0.061518386
000070 63 7a fa 3c 7e 12 8d 3d b0 3d 7b 3d a1 d1 4a 3d
       0.030575937 0.06888293 0.061338127 0.049516324

layer4.1.running_mean f4 [32]
000000 28 30 ef 3e 27 78 70 3e b7 2f aa 3e a3 b8 9c bf
       0.46716428 0.23483334 0.3323953 -1.2243847
000010 73 34 0d be 79 ac 7a 3f eb 70 ea 3e 4e 2e fd 3e
       -0.13789539 0.9791942 0.45789275 0.4944939
000020 81 20 e0 3e 61 c4 23 bf 32 55 e3 3d e1 44 1e 3e
       0.437748 -0.63971525 0.11100234 0.15455963
000030 3b 5b 3c 3f da c5 3a be f6 5e 26 3f 22 5c 25 3f
       0.73576707 -0.18239537 0.6498865 0.6459371
000040 40 eb 79 bf 6a 9f 6b bf ed 12 8c bf fa b9 24 3f
       -0.9762459 -0.9204012 -1.0943276 0.6434628
000050 80 22 4c 3f 67 e1 b4 be e0 fc 0e 3f 57 0c 63 bf
       0.7974014 -0.35328218 0.55854607 -0.88690704
000060 ef f1 a3 be 4f e1 3e bf 80 13 2a bf 9c b1 87 bf
       -0.32020518 -0.74562544 -0.66436005 -1.0601077
000070 4f 43 c6 be 12 7f 35 3f 28 54 61 bf 0e da ac 3e
       -0.38723227 0.7089702 -0.8801904 0.33760113

layer4.1.running_var f4 [32]
000000 35 57 1d 3f 04 1d 44 3f 4c ff 01 3f 49 1e 82 3f
       0.6146119 0.76606774 0.5078018 1.0165492
000010 9b e8 28 3f 73 c1 38 3f b9 3b 1f 3f 08 68 67 3f
       0.6597993 0.7217018 0.62200505 0.90393114
000020 3f 34 29 3f 37 ed 50 3f 22 e7 0c 3f 3a e2 36 3f
       0.66095346 0.8161196 0.5504018 0.71438944
000030 af 1b 52 3f b6 de 38 3f 34 d2 36 3f ea 41 4f 3f
       0.8207349 0.7221483 0.71414495 0.8095995
000040 e4 aa 61 3f ff 09 a1 3f c4 c6 a4 3f 4d e9 2c 3f
       0.88151383 1.2581176 1.2873158 0.6754349
000050 b6 61 32 3f 62 68 6f 3f 62 39 1a 3f 9d 70 93 3f
       0.69680345 0.9351865 0.6024381 1.1518742
000060 48 50 50 3f 9c d6 89 3f f9 43 a6 3f a0 b3 ac 3f
       0.813725 1.0768619 1.2989494 1.3492317
000070 b5 a5 3c 3f 9c 43 4d 3f a9 6f 8d 3f 86 3f 28 3f
       0.7369035 0.8018129 1.1049701 0.6572193

fc.weight f4 [1, 1152]
000000 11 dc cb 3b b1 d9 41 3b c8 36 b8 bc 11 08 e6 bb
       0.0062213023 0.0029579217 -0.02248706 -0.0070200046
000010 86 de 31 bd 4a de d1 bc ca 7a de 3a 5b 3d 3c bc
       -0.043425106 -0.025618691 0.001697385 -0.011489238
000020 93 83 06 3c b5 ba b0 bc 10 c5 2e bd c3 c7 a1 bc
       0.008210081 -0.021573404 -0.042668402 -0.019748574
000030 21 ef 00 3d cd 4e 8c bc 1a ad 29 bc da dc 29 bc
       0.03147805 -0.017127419 -0.010356212 -0.0103675965
000040 b2 af e6 bb 01 6a f0 3c bb 1d 41 3d 10 7f 3e bb
       -0.0070399875 0.029347422 0.047147494 -0.0029067434
000050 b4 6e 6d 3d e5 9d fe 3d cc 2f 86 3d 14 0b 5c 3c
       0.057966903 0.1243246 0.06552085 0.013430376
000060 3f 59 ae 3c 74 95 16 3d ac 48 1c 3d 36 ff dd bb
       0.02128279 0.036763623 0.038155243 -0.0067748083
000070 ea 70 81 bc ca d6 2e 3c c4 69 25 3d 57 e9 96 3c
       -0.015800912 0.010671327 0.04038407 0.018421812
000080 f1 15 a5 bb 89 a3 cb bb 54 ae 0f 3b 28 d7 b3 bb
       -0.005038016 -0.0062145633 0.0021923976 -0.005488295
000090 d9 4f b3 3a 9e be 0f bd 45 cc 3f bd f0 3c bc bc
       0.0013680413 -0.035093896 -0.046825666 -0.022978276
0000a0 5b ba d4 ba d0 b3 43 3c 74 99 4f 3c 4f 53 0e bc
       -0.0016229855 0.011944726 0.012670863 -0.0086868545
0000b0 c8 d5 56 bd 07 9c 81 bc 97 5f f5 ba 2b d4 14 3d
       -0.05244997 -0.01582147 -0.0018720505 0.03633515
0000c0 ff fc 80 bc 0d e5 b7 bc 48 e8 8d bd 5b f6 12 bd
       -0.015745638 -0.022448087 -0.0692907 -0.035879474
0000d0 18 8e 06 bd 12 53 66 bc 5b 29 2a bc c0 6f 8a 3c
       -0.032850355 -0.014057891 -0.0103858365 0.01689899
0000e0 ba 7b da 3d e2 a3 dd 3d a4 0e e3 bc 5b 7c f4 bc
       0.1066813 0.10822274 -0.027716942 -0.029844454
0000f0 29 23 7c bc aa 9a 05 3d 2b a8 bf 3b f2 6c 61 3c
       -0.015389242 0.032618202 0.0058489046 0.013758885
000100 c8 bd 67 3d ec 95 f9 3c 6d 56 08 bc ba 0d 52 3c
       0.056577474 0.030466996 -0.008321387 0.0128206555
000110 a7 c6 f4 3b 51 13 93 bb 70 f4 0f 3d a7 c2 4e b9
       0.0074699703 -0.0044883867 0.035145223 -0.00019718205
000120 16 81 d5 3c 8d 04 b4 3c 1f 38 35 bc cd ba 35 3c
       0.02606253 0.021974826 -0.011060744 0.0110919
000130 60 88 8a 3c 12 41 97 3b c1 e1 6e 3b d8 07 0f 3d
       0.016910732 0.0046159113 0.0036450478 0.03491959
000140 d9 bf d3 bc ea 5a 62 3c 94 5a 30 3d 55 07 7d 3b
       -0.025848316 0.013815621 0.043055132 0.0038609107
000150 dd b1 ae 3c 9b ac 21 3d a0 b2 7e 3c d8 64 84 3c
       0.021325046 0.03947125 0.015545517 0.016161367
000160 db 40 23 3c 62 12 64 3c 9a 16 f1 3c 14 ab e5 3a
       0.009964193 0.013920398 0.029429723 0.0017522299
000170 40 ff 28 3d a9 d1 8e 3d f6 ff 65 3c e4 60 6a bc
       0.04125905 0.06973583 0.014038077 -0.014305327
000180 a1 41 c5 3b 6f 39 a3 bc 82 e8 4b bd 15 42 42 3c
       0.0060197865 -0.019924847 -0.049782284 0.0118565755
000190 93 4a 0f bc f6 84 1a 3c 0d 76 4e 3c c0 2f fe bb
       -0.008745807 0.009431114 0.012601388 -0.007757157
0001a0 89 3b 08 bd b3 fa cf 3b ce 2e 04 bd 41 46 4e bc
       -0.033259902 0.0063470243 -0.0322712 -0.012589992
0001b0 91 db d2 3b 8b 3a 67 bc ee be 00 bd ad 49 a7 bc
       0.0064348658 -0.014113079 -0.031432085 -0.020420874
0001c0 c3 af 32 bd 3b 86 27 3b 60 0b 28 3c 94 1d 1d bd
       -0.04362465 0.0025562185 0.010256618 -0.038358286
0001d0 82 02 70 bd 23 f8 a8 bc 56 2a 17 bd 87 21 01 bd
       -0.05859614 -0.020626133 -0.03690561 -0.031526115
0001e0 c3 95 b1 bc 7f 1d 68 bd f7 25 49 bd df 8c b7 bc
       -0.021677857 -0.056668755 -0.04910847 -0.02240604
0001f0 28 d6 f5 bc d8 7f 88 bc de e8 b0 bc fc a2 2a bd
       -0.030009344 -0.016662523 -0.021595415 -0.04165934
000200 f4 da ab bd 85 67 68 3a 2f 3d 28 bc 62 f6 1b bc
       -0.08391371 0.0008865523 -0.010268494 -0.009519191
000210 17 16 2f bc b7 90 65 bd bd 35 81 bd 08 6a d4 3c
       -0.010686419 -0.056046214 -0.06309078 0.025929466
000220 11 77 bb 3c 8f c2 1c 3a 84 47 a7 39 b4 a5 b6 bc
       0.022883924 0.0005979919 0.00031906005 -0.02229581
000230 e2 8a 5d bd ff 77 31 bb 90 91 66 3c 60 60 2f bc
       -0.054087527 -0.002707958 0.014072791 -0.01070413
000240 30 d0 3b bb 8c 99 44 3c 38 6b df 3c 63 a2 05 3c
       -0.0028658025 0.011999499 0.027272806 0.008156392
000250 7e 44 72 3b 51 d4 bb bb 76 f4 2c bd 16 cb 34 bd
       0.0036967094 -0.005732097 -0.042225324 -0.04413899
000260 38 07 80 bc d1 e2 f7 39 b9 0b e6 3b d7 68 55 bb
       -0.015628442 0.00047280503 0.0070204404 -0.003256371
000270 72 4f 0a bd a0 52 f8 3b 75 85 b1 bc b2 8c 00 bd
       -0.03376717 0.007578209 -0.021670083 -0.031384178
000280 5b 51 13 bd 1b eb 02 bd a4 3d e3 3b c9 7b f0 3a
       -0.03596626 -0.031962495 0.0069348384 0.0018347438
000290 0b 3f 63 bd 49 20 b1 3c c1 bd 7f 3d 75 c3 70 3b
       -0.055480044 0.02162184 0.062436823 0.0036737595
0002a0 da cd 3e bc 5b ba 35 bd c6 8e 53 bd 99 99 01 bd
       -0.0116457585 -0.044367176 -0.05164983 -0.031640623
0002b0 00 43 79 bd ca 58 2f bd 00 e1 5b 3c 45 f4 04 bb
       -0.06085491 -0.042809285 0.013420343 -0.0020287198
0002c0 5c 9e e6 3c 21 65 3c 3d 59 35 c5 3b e2 1e 8a bc
       0.028151684 0.04599488 0.0060183224 -0.01686043
0002d0 75 bb 0d 3c e7 98 11 bc f9 3b a0 3c ab 8e 8f 3c
       0.00865065 -0.008886552 0.019559847 0.017524084
0002e0 01 d4 57 3c a7 bf e4 bb af 31 c1 bb bb 8f 0b 3b
       0.013173104 -0.0069808546 -0.0058958153 0.0021295387
0002f0 aa 08 f3 3a 6b e8 84 3c 6d 95 31 3c 3f c9 06 bc
       0.0018542011 0.016224107 0.010838849 -0.008226692
000300 5b 53 99 bc 15 80 08 3c 21 e4 8e 3d 71 b8 e7 3d
       -0.018716505 0.008331318 0.06977106 0.11314476
000310 8f 2b d9 3c 49 80 8a bb d7 3a 05 ba 2e 85 96 3b
       0.026510028 -0.0042267186 -0.0005082315 0.004593513
000320 89 d3 87 3d bf 4e 11 3d 8b 2e 00 bc 9f bf cc 3c
       0.06632144 0.03547549 -0.007823597 0.024993716
000330 f7 3b df 3c a8 63 74 3d 25 68 62 3d 9f 90 fa 3c
       0.027250273 0.059665352 0.0552751 0.030586539
000340 05 6c 0e 3d fd 88 42 3d 93 e9 47 bc 75 04 06 bc
       0.034770984 0.047493923 -0.0122016845 -0.008179774
000350 5b dc 84 3c 14 d1 94 3c a1 60 ee 3c e7 12 9a 3c
       0.016218355 0.018166102 0.02909881 0.018807841
000360 17 d7 bd bc 02 c9 22 3c 47 d8 46 ba c4 4f 3d 3d
       -0.023173852 0.009935619 -0.00075853284 0.04621865
000370 b7 e0 9f 3c dd ca 46 3c cb 3b 6c 3c 55 c1 97 bc
       0.019516332 0.012133327 0.014418553 -0.018524805
000380 c7 f6 d2 bc c6 64 54 3d 54 3a fa 3c a3 a7 91 bb
       -0.025752438 0.051853918 0.030545391 -0.0044450327
000390 4b f2 2c bd 29 a1 05 3d 2b e7 86 3d f2 88 81 3d
       -0.042223256 0.032624397 0.065870605 0.06324948
0003a0 16 49 47 3d 02 e6 91 bb 5c ed 88 3b 41 d5 70 3d
       0.048653685 -0.004452468 0.004178686 0.058797125
0003b0 20 e0 c7 bc 1d 70 df bc 29 8b 49 3d 2f 1a ba bc
       -0.024398863 -0.02727514 0.04920498 -0.022717563
0003c0 23 5e 14 bc 3c cf 51 bc 59 b2 59 bd 82 f3 cd bc
       -0.009055647 -0.012805756 -0.0531486 -0.025140528
0003d0 f3 fb 98 3d 0d 85 e3 bc 3c 63 c2 3b 52 58 c2 3a
       0.074699305 -0.027773404 0.00593224 0.0014827347
0003e0 7e 64 a1 3b 86 4a 28 3c 01 33 91 3d b1 ad fc bb
       0.0049253097 0.010271674 0.07089806 -0.0077111353
0003f0 8d 1b 6a bc 8c a0 df 3b ee d8 57 39 91 2a 80 3c
       -0.014288795 0.0068245586 0.0002058481 0.015645297
