data/chkbox_models/chkbox_rnd9_1_bestVal.pt (torch_old, 236310 bytes, 31 tensors)

layer1.0.weight f4 [4, 1, 3, 3]
00000000: f8b8 97bd f1fb d83e d5e3 933d 65ba 45bd
00000010: a1fc 2c3e 0320 13bd 23d4 303d 7f85 81be
00000020: 0053 3f3e 7f22 df3d cf24 c33d 451f 6dbe
00000030: c69f 2d3e 7a21 413e f453 69bd d232 bcbc
00000040: 4a71 cf3c 1b5b 01bd f660 11be a127 ae3e
00000050: 7cf9 30be 9488 b13e c60b 87be 906d e8bd
00000060: 964c aa3d db78 953e 3a20 e03c 974a 553e
00000070: 6f0e 0bbe a70f 973e 3329 0bbe 56fe 483e
00000080: 8036 98be f408 9bbe 1454 a6be b362 94bd
-0.07408327 0.42379716 0.0722119 -0.048273463 0.16893245 -0.0359192 0.04317106 -0.25297162
0.18684006 0.108952515 0.09528505 -0.2315646 0.1695548 0.18860427 -0.05696483 -0.022973452
0.025322575 -0.031581026 -0.14197144 0.3401461 -0.1728267 0.34674513 -0.2637617 -0.113490224
0.08315389 0.29193768 0.027359117 0.20829235 -0.13579725 0.2950413 -0.13589935 0.19628271
-0.2972908 -0.30280268 -0.32486022 -0.07245388

layer1.0.bias f4 [4]
00000000: 2d73 2b3e fe45 913d f61e 90bd 3699 433e
0.16743155 0.07093428 -0.07037155 0.19101414

layer1.1.weight f4 [4]
00000000: 50bc 823f 2bf0 763f 64bf 7e3f 6895 803f
1.0213718 0.9646022 0.9951079 1.0045595

layer1.1.bias f4 [4]
00000000: 1bad e3bc 6210 31bc 9c06 4b3b 8cf8 043c
-0.027792504 -0.010807129 0.0030979281 0.008115899

layer1.1.running_mean f4 [4]
00000000: e0c8 2e3f d253 ad3e c12c b43e a1a4 d4be
0.6827526 0.33853012 0.35190395 -0.41531852

layer1.1.running_var f4 [4]
00000000: 4c88 c03e a505 143e c786 a33e b999 193f
0.37603986 0.14455278 0.31938764 0.6000019

layer2.0.weight f4 [8, 4, 3, 3]
00000000: 648c 4b3d 00d9 0abc 4293 f6bd d508 5ebb
00000010: d5ba 6abd a32f b3bd edca dabc 809c 83bd
00000020: 34ea 2c3d c934 d5bd 8a5a b8bd e7c3 6cbd
00000030: 36f0 2d3c d2fe 9fb9 b003 6c3b 7f7e e9bd
00000040: 1d7f 83bd 85db d3bd 1a11 a33d 3b04 08be
00000050: ec0c 70bd 6dc8 4b3d d404 2b3c a9c8 80bd
00000060: 46c3 ec3d 9116 0dbc 1604 10bd 6ac2 52bd
00000070: 46f0 4b3d 8c45 233e 2e0c d93c 4801 c13c
00000080: 4dde b93c e3fe a23d 57d9 143e 4f06 0b3c
00000090: c82f 8a3c a874 b5bd ff95 17bd 1501 2d3e
000000a0: c84a 39bd 0f5a 63bd abfd af3c 212b 993d
000000b0: 1a18 cdbd f284 153e 034b c2bc f931 1a3e
000000c0: 58a6 b03d 540b 323e b6ac 19bd b716 a6bd
000000d0: 34d6 263e f192 fd3d 95e0 2d3d 039b be3b
000000e0: fc99 3dbd bfba 3c3d be69 653d 6e25 cc3d
000000f0: 69ee 1cbc cde4 8dbc cc2b c33d 2eb5 34be
00000100: c84e a5bd 767b 0dbe afb4 913d b820 8a3d
00000110: b45d 71bd e96c cc3d f227 21be 387a 16be
00000120: d4f1 1cbc 3e57 19be 94a8 0fbe 5541 4e3d
00000130: aa1b ba3d 02c6 59be 82dd a6bd 217c 25be
00000140: 85c1 bebd e3f7 6cbd 2b67 08be 414c 27bd
00000150: d618 1ebe 47e9 553d 0d5f c4bd 8cfa 26be
00000160: d4e7 a43d fbc9 f03d 1590 2fbe ba1d 2cbd
00000170: 5458 493c a308 f1bd bc68 013e 89e2 c9bd
00000180: c512 d5bd bf6e ce3c 13d6 aabd 06ff 42bd
00000190: 4a5e 85bd 54b0 07be 02e9 07be a4a6 aa3b
000001a0: 34d2 2c3d 0877 c5bc e364 2c3e 9986 8a3c
000001b0: 568b 1bbe ee47 febc 317b 023e ff5d 8c3d
000001c0: b2e4 613d 3ce8 82bd 513a dbbd 1ef8 e3bc
000001d0: 9969 163e 1d12 06be 3a30 d53c 6451 79bd
000001e0: 7345 b8bc ea7a aabc 795c f23c 7a65 c6bd
000001f0: 307d dcbb b8ff 8f3d 7d05 06be cde2 19be
00000200: 38d3 8bbd c773 253d 86a6 f3bd 28c3 733d
00000210: 200e f0bd 9435 8abd 5b83 023e 8d05 24bd
00000220: d7d9 78bd c7b2 a83d 60d7 113e b02a 463e
00000230: e201 cb3c 9e41 babc b6e1 913d b336 b93c
00000240: a620 aabd fb67 d73c 5464 ac3d 708a 3bbe
00000250: db64 1dbd 7424 7abd 4a41 89bd 5758 4fbc
00000260: 4831 053d 2c72 70bc d664 04bd 614e 823d
00000270: 7e2e 6c3d c199 4fbe b3e4 38bd 7155 eebd
00000280: 99bd 22bd a320 053e 17ee 02be 1342 f5bc
00000290: efe3 c03d 4288 fabd 4717 58bd 2805 df3d
000002a0: f9ea 183d 5d1a afbd d5be 8c3d 932c 58bd
000002b0: f729 b03d 5b7b 0f3e b2ae acbd fdfd 993d
000002c0: 632c a1bd 5958 31be 48fc 15be 5fde f0bd
000002d0: f0a2 4fbe 6df4 c0bd fe4d 73bd ddc3 943d
000002e0: 74fe 0bbe 4a0b 423d aafd 30be dc2e 983d
000002f0: 0efd d23d 6e5d 05bd f808 393c 93ec 8dbd
00000300: 2fbd 223e 6abd 9c3d c5f8 13be bd14 0d3e
00000310: 470e fabd c2d0 40be f267 03bd e1b4 e9bd
00000320: 4f0b 1bbe 4df3 823d 6d78 f8bd 5616 1fbe
00000330: d655 783c 97c1 33be 9369 49be eecf e33b
00000340: 5162 65bc 2781 bd3c 1039 ddbd b65c 3f3c
00000350: 1d59 7cbd 177a d33d 561a 28bd 6418 ec3d
00000360: b930 1a3d f9bc 673d 2c83 d6bd 93b1 d03d
00000370: 6ab2 f73d aedf 5fbb 3f1e 813c 96e6 f73d
00000380: ebae 343c f00f 283d 5414 803d 445c fd3d
00000390: b2df cf3d 3ade 6e3d bd86 62bb f26e 17bc
000003a0: 17f4 da3d e6b1 f53d 9566 25bd b54f 0abd
000003b0: 93a1 6c3d 1611 8c3c cc67 6fbc ab6f ec3d
000003c0: dd4f 1a3d 2ae4 103e 5640 293e 09fc 003e
000003d0: 4f4d 153e 97ff d63d 0da6 7e3c 6319 f73d
000003e0: fa38 cbbd 9506 48bd e2d9 10be fdb7 44bd
000003f0: c3ae d8bd f13d d83d 39f9 2f3e f037 103e
0.049694434 -0.008474588 -0.12039806 -0.0033879776 -0.057307083 -0.0874932 -0.02670809 -0.064263344
0.04221554 -0.104104586 -0.09001644 -0.057804015 0.010616353 -0.000305167 0.003601294 -0.1140108
-0.06420729 -0.103446044 0.07962246 -0.13282864 -0.058606073 0.049751688 0.010438163 -0.06288273
0.11560683 -0.008611337 -0.035160147 -0.05145494 0.04978969 0.15944499 0.026495066 0.023560181
0.02268901 0.07958772 0.14536034 0.008485391 0.016868487 -0.08860141 -0.03700828 0.16894944
-0.045237333 -0.05550581 0.021483263 0.07478929 -0.10014363 0.14601496 -0.023717409 0.15058126
0.086254776 0.17387134 -0.037518226 -0.08109801 0.1629265 0.123815425 0.042450506 0.0058168187
-0.04628943 0.046076532 0.056009047 0.09968077 -0.009578326 -0.017321015 0.09529838 -0.1764724
-0.08071667 -0.13816628 0.07114541 0.06744522 -0.058927253 0.099817105 -0.15737894 -0.1469506
-0.009579141 -0.14974687 -0.14029151 0.050355274 0.09087308 -0.2126694 -0.08147718 -0.16160633
-0.09314255 -0.05785359 -0.13320605 -0.040844206 -0.15439162 0.052224424 -0.09588442 -0.16306514
0.0805203 0.11757275 -0.17144807 -0.042020537 0.0122891255 -0.117692254 0.12637609 -0.09857661
-0.10403971 0.025199292 -0.08341613 -0.04760649 -0.06512125 -0.13250858 -0.13272479 0.0052078534
0.042192653 -0.02410461 0.1683536 0.016909884 -0.15189871 -0.031040158 0.12742306 0.06853866
0.05514974 -0.063919514 -0.10704482 -0.027828272 0.1468872 -0.13092847 0.026023973 -0.060868636
-0.022494053 -0.020810563 0.02958511 -0.09687324 -0.0067287907 0.07031196 -0.13088031 -0.15027924
-0.06827396 0.040393617 -0.11896996 0.059512287 -0.11721444 -0.067485005 0.1274542 -0.040044356
-0.060754623 0.08237224 0.14242315 0.19352221 0.024781171 -0.022736367 0.07123129 0.02260909
-0.083070084 0.026294699 0.084175736 -0.18314528 -0.03842626 -0.06106992 -0.06701906 -0.012655339
0.0325177 -0.014675658 -0.032322727 0.06362606 0.057661526 -0.20273496 -0.04513998 -0.116373904
-0.039731596 0.13000731 -0.12786137 -0.029938733 0.09418475 -0.1223302 -0.052756574 0.10889655
0.037333462 -0.0854995 0.06872336 -0.052776884 0.08601754 0.140119 -0.08431758 0.075191475
-0.07869794 -0.17318858 -0.14647019 -0.11761164 -0.20277 -0.094216205 -0.05940055 0.072639205
-0.13671285 0.047374047 -0.17284265 0.07430813 0.103021726 -0.032559805 0.011293642 -0.069298886
0.1589248 0.07653315 -0.14450367 0.13777442 -0.122097544 -0.18829635 -0.03208155 -0.11411453
-0.15141033 0.06394062 -0.121323444 -0.15535864 0.015157184 -0.17554317 -0.1966918 0.0069522774
-0.014000491 0.023132874 -0.108018994 0.011679819 -0.061608423 0.10326021 -0.04104074 0.1152809
0.03764412 0.056576703 -0.10474238 0.101901196 0.12094577 -0.0034160423 0.015761493 0.12104528
0.011028032 0.041030824 0.06253877 0.12371114 0.10150088 0.0583174 -0.0034565174 -0.00924276
0.10691088 0.11996822 -0.040381033 -0.03376742 0.057771277 0.017097991 -0.014612149 0.115447365
0.03767382 0.14149538 0.16528448 0.12596144 0.14580272 0.10497969 0.015542519 0.12065389
-0.09922977 -0.048834402 -0.14145616 -0.048027027 -0.10580208 0.105586894 0.17184915 0.14083838

layer2.0.bias f4 [8]
00000000: 154e 633d 1119 d8bd f355 c83a 1bae 863d
00000010: 955c 273e 5aab 4f3d 8179 dc3c 7f75 12bd
0.055494387 -0.10551656 0.0015284404 0.06576177 0.16343911 0.050700523 0.026913406 -0.035756584

layer2.1.weight f4 [8]
00000000: aa97 823f d6ec 713f 32e7 803f fc9d 7f3f
00000010: 2d89 823f 72df 8a3f 09c4 7e3f 0f0d 7b3f
1.0202534 0.9450201 1.0070555 0.9985044 1.0198113 1.084944 0.99517876 0.980668

layer2.1.bias f4 [8]
00000000: 848c ac3c 4632 02bd 018a b73b 0532 64bb
00000010: 3ea6 cc3d 395c a23d 31a7 0a3c de9f 42bd
0.021063097 -0.031786226 0.005601168 -0.0034819853 0.09992646 0.07927746 0.008462713 -0.047515742

layer2.1.running_mean f4 [8]
00000000: c58f 97bd 9406 123d 6c2a 21bf 67a9 b2ba
00000010: 0be0 48be b38e efbe f79d 1a3f 4855 053f
-0.07400469 0.035650805 -0.62955356 -0.0013630808 -0.19616716 -0.46788558 0.60397285 0.52083254

layer2.1.running_var f4 [8]
00000000: 5b97 b83e 9d2d 0a3f 787a 413f 7398 9c3e
00000010: 5560 753e 4011 643f 106e 2b3f 98b4 0b3f
0.36052975 0.5397585 0.755775 0.3058506 0.23962529 0.8908882 0.6696482 0.5457244

layer3.0.weight f4 [16, 8, 3, 3]
00000000: 2a8b ecbd 36c0 473d 6322 95bd 69d0 97bd
00000010: b6dc d13c 72b0 9b3d 8d06 f6bc 7487 e7bd
00000020: 200d bc3c a256 143c a3f2 96bd ba97 0dbd
00000030: 99c0 b73d a5fb 34bd 6769 da3d 6431 c03d
00000040: 6cbc 8c3d 2bce 8bbd b69f 903c 7c75 c7bc
00000050: 508b 39bc 180f d1bd 32f8 0abd fef4 d53c
00000060: e6f1 653c ba89 6dbd 3499 a83d 4181 5bbd
00000070: 562d 8dbd ac7a b5bd e080 7bbd 418e 01be
00000080: 4724 c2bd e1e7 8ebd 6bc6 0bbe 065e 87bd
00000090: 3485 63bc 27ce 513b dcb4 71bd ef10 07be
000000a0: 00e2 aebd 2648 11bd 234a 02be 3111 883c
000000b0: 42e0 4d3c 7c63 d6bc a087 02be be1b 86bd
000000c0: 818e c8bd 777e 22be 9579 cbbc 77f6 94bd
000000d0: 38fa 95bd 5fe1 293d 7ba9 0dbe 105a 703d
000000e0: fb6c a2bd 6472 483c 60e4 ac3d b63a 49bd
000000f0: 6514 bbbb 00d9 ecbd fc99 57bd 4739 c63d
00000100: 37de 423d 7153 aa3d 9e41 d1bd 6ad4 b9bd
00000110: df08 ed3d 92a5 603c 9a9e 5cbd d2f1 cbbc
00000120: f6ba bb3d c088 e03d 77fc 92bd 1fe3 afbd
00000130: aae3 5e3b cd6e f43d b593 673d ae27 f73d
00000140: db32 87bd 727d 55bd 82a9 bd3d dd98 893d
00000150: a7b3 943d b8b4 6fbd 48f1 58bd a123 8a3d
00000160: 1151 c3bc ac94 88bd f417 063e 64cf bc3d
00000170: c32d a7bd 2670 c33d 0418 013e e150 8e3d
00000180: 5dd7 073e eba1 973d e744 50bc ee0e 94bb
00000190: 1ea4 e1bc 4f78 87bc 1291 da3c 9485 693d
000001a0: 49fc 11b9 3e9e a03b ce65 013e bcd7 dab9
000001b0: 9f8f 013e 63b8 6a3d 7150 20bd 94a8 e83d
000001c0: 974f 683d eb21 2f3d fe25 8e3d 766e 27bd
000001d0: 08d5 6f3d 0572 003e d673 4f3c f80f 733d
000001e0: ae5d 1cbc 7c3e a6bd 6647 df3d b947 0b3e
000001f0: 83eb 903d dedc f43d 0d67 a83d 7313 25bc
00000200: bad7 e33c 7506 b9bd 191d cc3d 06d5 cfbd
00000210: 80fb d13d 4e17 cc3c 3949 cc3d 6d39 493d
00000220: 4c72 c43a 8f46 9e3d 8454 acbd 6561 573d
00000230: b64f 683d 4d6d 20bd 31ee b73d e39c 043d
00000240: fc0f d6bd 2046 85bd f1eb be3d fb93 f1bc
00000250: 0a39 da3c a455 b73c bfad edbd 3b79 31bb
00000260: b57c a6bd 9b1f 743d b4cc d6bc 9127 b63b
00000270: bcac 5f3d 1c95 85bd 538c 3fbc 3888 09bd
00000280: ed05 bebd 6093 08bb 36fa 673d 9c7b 623d
00000290: 64c4 a6bd 6b81 b1bd faa2 bbbd ae64 8e3c
000002a0: 1592 c6bc f0f4 3e3d 6236 593d 6733 373d
000002b0: 5ea6 c5bd fe7f 02be ddf4 c2bd d52f 8fbd
000002c0: 5099 8f3d 1ccb e8bd 5905 dcbd 6437 b73c
000002d0: 8296 9d3d ca30 11bd c766 c3bd e4f6 08bd
000002e0: d25f 363d 443f be3c 0151 d53d 84f4 fcbc
000002f0: 9282 fa38 9c3f 75bd 2815 513d 14ac 8dbd
00000300: bf2c babd 70d5 01bd e654 cd3c 30fe f0bd
00000310: 1317 44bd a013 83bc 5a32 243d 1d71 a4bd
00000320: 4444 c6bd b6ec 7abd 576f 77bc 5578 42bc
00000330: 884c c23d 5b1b 893d 9e27 643d e939 343d
00000340: ed06 babc 5e51 bebd d01d 4fbc 3c07 c0bc
00000350: 61bc 70bc 1877 83bd b3aa e7bd 5d4a f4bd
00000360: 1746 c9bd bd8e a4bc d127 eebd b3ff 3d3b
00000370: f95f af3d b4d6 9bbd a06c babd 3c6f be3d
00000380: 9c12 1f3d 7a45 993d e79a 7e3d cd61 e4bc
00000390: c26d b53d f40d d93d a3e8 a23c e315 673d
000003a0: 5f49 1fbc 0066 6bbd 49d7 c5ba dc62 0abe
000003b0: 70ed 4cbd a593 913c 9674 9ebd 639d cb3c
000003c0: a454 1fbe 44fd 60bd d998 fbbd 570c d6bd
000003d0: c992 94bc dd02 a2bd 691e 2abd 3438 cfbc
000003e0: 06d0 0f3d 33c9 a63d 6e5f 66bc 9f1a cfbd
000003f0: b8ae 04bd 87ab b23d 8a61 03be f674 293b
-0.11549981 0.04876729 -0.07281949 -0.07412798 0.025617938 0.07602014 -0.03003242 -0.113051325
0.022955477 0.009053858 -0.07370498 -0.034568526 0.08972282 -0.0441853 0.10664635 0.093844205
0.06871876 -0.06826433 0.017654281 -0.024348013 -0.011324719 -0.10207957 -0.033928104 0.026117798
0.014034724 -0.057992674 0.08232346 -0.053590063 -0.06893413 -0.088612884 -0.0614022 -0.12651922
-0.094795756 -0.06977821 -0.13649909 -0.066097304 -0.013886739 0.0032013746 -0.05901037 -0.13190053
-0.085392 -0.035469197 -0.12723593 0.01660976 0.012565674 -0.026170485 -0.1274705 -0.0654826
-0.097928055 -0.15868555 -0.024838248 -0.07273572 -0.07323116 0.041474696 -0.13834183 0.05867964
-0.079309426 0.012234304 0.084419966 -0.049128257 -0.0057092183 -0.11564827 -0.052637085 0.096788935
0.0475752 0.083166964 -0.102175936 -0.09073718 0.11573958 0.01371135 -0.05386219 -0.024895582
0.09166519 0.10963583 -0.0717706 -0.08588242 0.003401021 0.11935196 0.05653735 0.12068115
-0.06601497 -0.052121587 0.09260847 0.067186095 0.072608285 -0.058521956 -0.05296448 0.06745077
-0.023842366 -0.06668982 0.13095075 0.09219244 -0.08163025 0.09542875 0.12606817 0.0694902
0.13265748 0.0740393 -0.01271174 -0.0045183813 -0.027544077 -0.01653686 0.026680503 0.057012156
-0.00013922261 0.0049016764 0.12636492 -0.00041740935 0.12652443 0.05730475 -0.039139215 0.11360279
0.056716528 0.042756956 0.0694084 -0.040876828 0.05855277 0.12543495 0.012661895 0.0593414
-0.009543819 -0.08117387 0.1090229 0.13601579 0.0707617 0.119561896 0.082227804 -0.010075438
0.027812827 -0.09034435 0.099664874 -0.10148053 0.10253048 0.024913456 0.099749036 0.04912703
0.0014987676 0.07728302 -0.084145576 0.052583117 0.056716643 -0.039166737 0.08980978 0.03237618
-0.104522675 -0.06507516 0.09322346 -0.029489508 0.026638526 0.022379704 -0.11605405 -0.0027080316
-0.08129255 0.059600454 -0.026220657 0.005558916 0.05460809 -0.06522581 -0.011691171 -0.033577174
-0.09278474 -0.0020839795 0.056635104 0.055293664 -0.08142927 -0.08667263 -0.09161945 0.017381992
-0.02423958 0.04662031 0.05303038 0.044726755 -0.09650873 -0.12744138 -0.0951936 -0.06991545
0.07011664 -0.11366865 -0.107432075 0.02236528 0.07694723 -0.03544692 -0.095410876 -0.03343858
0.044524975 0.023223527 0.10415841 -0.030878313 0.000119452496 -0.059875116 0.051045567 -0.06917587
-0.09090566 -0.03169769 0.025064897 -0.117672324 -0.047873568 -0.016000569 0.04008708 -0.08029387
-0.096809894 -0.0612609 -0.015102229 -0.01186951 0.094872534 0.06694671 0.055701844 0.04400054
-0.02270838 -0.09292863 -0.012641385 -0.02344095 -0.0146933505 -0.064192 -0.11311855 -0.11928246
-0.09827822 -0.020087594 -0.11628688 0.002899152 0.08563227 -0.07609311 -0.0910275 0.0929856
0.038836107 0.07483955 0.062159445 -0.027878666 0.08858825 0.105983645 0.01988632 0.056417357
-0.009722083 -0.05747032 -0.0015094067 -0.13514274 -0.050031126 0.017770598 -0.07737081 0.024855321
-0.15559632 -0.054929033 -0.12285013 -0.104515724 -0.018136399 -0.079107024 -0.041532908 -0.025295354
0.035110496 0.081438445 -0.014060838 -0.101124994 -0.032393187 0.087241225 -0.12830177 0.0025857068

layer3.0.bias f4 [16]
00000000: 2d53 f9bd 9f58 e1bc 75a4 dfbd d068 c0bd
00000010: 0aa6 d13b 1970 afbb ce3f 8bbc c563 2cbd
00000020: 59f6 fcbd 25bf 96bd a4da a63d 46d9 3dbd
00000030: 5f74 17ba 33fd f13c f642 503c 91c3 133c
-0.12174068 -0.027508078 -0.109200396 -0.093949914 0.006397967 -0.0053539393 -0.016998198 -0.042087335
-0.123516746 -0.07360677 0.08147171 -0.046349786 -0.00057775335 0.02953968 0.012711277 0.009018795

layer3.1.weight f4 [16]
00000000: 7e2f 803f 27fc 803f 24dc 853f 0a43 6f3f
00000010: cc8e 873f baa3 803f 7b2a 813f 4d3b 743f
00000020: 52f6 7e3f 7719 863f 8694 7d3f f981 753f
00000030: c055 693f 98c4 753f 9a13 823f 696c 823f
1.0014493 1.0076951 1.0457807 0.9346167 1.0590453 1.0049965 1.0091089 0.95402986
0.99594605 1.0476521 0.99054754 0.9590145 0.9114647 0.96003103 1.0162232 1.0189334

layer3.1.bias f4 [16]
00000000: d9b4 09bd 4100 b2bd 1a24 073d 79e4 6dbd
00000010: 56bd 8dbc 112b 9dbc 07b0 b4bd 976e d9bd
00000020: 40fe 173d 2f6c 573c 5485 09bd f49d 9ebd
00000030: 161d a9bd f4d1 bfbd dd87 3b3a 3aa9 273d
-0.033619735 -0.08691455 0.032993414 -0.058079217 -0.017302196 -0.019185575 -0.08822637 -0.106167965
0.037107706 0.013148352 -0.033574417 -0.07744971 -0.08257501 -0.09366217 0.0007153729 0.04093287

layer3.1.running_mean f4 [16]
00000000: 05fd 71bf 1191 6c3f 8d13 31bf 3f50 b1be
00000010: 6aa0 0fbf df9e 50bf c0d8 17bf c11c 14bf
00000020: 4ed6 ebbe 03d6 73be c2f4 bfbe ba76 4cbc
00000030: ee99 aabe 20a2 113f 8259 4abf d561 e6be
-0.945267 0.92408854 -0.6917046 -0.34631535 -0.5610415 -0.8149242 -0.5931511 -0.57856375
-0.4606194 -0.23812108 -0.37491423 -0.0124794785 -0.33320564 0.5688801 -0.7904283 -0.44996515

layer3.1.running_var f4 [16]
00000000: c8cd 6f3e c274 113e 2dff 0b3e f338 b03e
00000010: a39d 933d 590e 203e ea9e 003e 26ac 8a3e
00000020: 59ca 4d3d 9387 193e 3544 683d 8e95 a83d
00000030: b1fe c53e b875 6b3d 3830 eb3d 6f34 163e
0.23418343 0.14204696 0.1367156 0.3441845 0.07207801 0.15630473 0.12560621 0.27084464
0.050241802 0.14993124 0.056705672 0.0823165 0.38670877 0.057485312 0.11483806 0.1466844

layer4.0.weight f4 [64, 16, 3, 3]
00000000: ff40 403c f9ec 68bd 294b 71bd 47d0 a33b
00000010: f1f0 47bd 8b42 49bd 54e8 623d b939 02bd
00000020: bf61 4d3d 2cad 9fbd 24cc 36bc deee bc3b
00000030: 48f6 a4bd 2c06 013d 5e15 6d3d baed 84bd
00000040: 89d2 81bc 0ce3 2a3b 99b6 223d 9551 ce3c
00000050: 520c dcbc 6881 f8bc ba0c 4b3d d54f 07bd
00000060: f2e4 0ebd 218e 3a3d e887 113d 3619 953d
00000070: c9a3 97bd 918a 083d 1cf9 293d c93f 193c
00000080: a73a b8bd a023 493d 6dee 0cbd 8f82 103d
00000090: ccc5 acbc 351d e7bb 0fa8 df3c 99d4 95bd
000000a0: e592 d3ba d665 1d3d dd65 11bd 0e39 a4bd
000000b0: 4036 39bd ab01 933d 24ba 8a3d 69b7 22bd
000000c0: d482 a13d fe45 3a3d 3720 5cbd cdab 30bd
000000d0: d261 32bb ecad 7cbd dfca 8c3b deef 5b3d
000000e0: 0c86 8cbd ba0b ab3d 5985 273b 3069 dabc
000000f0: a77f 5e3d 4c6a 903d d7bd 15bc 482f d0bc
00000100: 9251 053d 1d8e eeb9 b897 433d 97dd 1b3c
00000110: 3756 27bd a276 913d 7004 a13c d78c 9fbd
00000120: 5a64 273d 6b7f 163d 65be 70bc 80bd 53ba
00000130: 1e61 4a3d ffca 4fbd 7c1d c23d 2ba8 7c3d
00000140: f278 1f3c 9c3e 15bd 9776 3e3d 4f80 203d
00000150: 3c5e 5bbd e4b1 513d cce5 a63c d4df 3f3d
00000160: f1ea 5e3d 916b 94bc d993 3abc ec5a 0bbd
00000170: dee5 3bbc 15ae 18bd 1e27 ddbb 7c82 5e3b
00000180: 508c e53c a1e6 4fbd 0545 dbbc 4642 98bd
00000190: 1573 0abd 4c69 83b9 5085 3b3d bf33 47bd
000001a0: 0905 723c e9dd 003d f65a 15bd 5d76 d7bb
000001b0: 3e49 133d 6f93 e83a 0efb 28bd b028 fd3c
000001c0: d2bd b3bd 0ad7 8dbd 7b20 9fbc c39f b8bc
000001d0: 191e 313d 4f67 13bd 7506 023d dc6a 2e3d
000001e0: eaa1 343d 890e d73c c171 753d dcd5 363d
000001f0: cee9 e93b de9a 8a3c 3db7 6f3d 324b da3b
00000200: be87 53bd 0543 6e3b b20f 97bc aa39 b1bd
00000210: 3299 533c 6b23 ce3c ca7e 7abd 849f 88bd
00000220: b821 a0bd dd90 94bd 759a 90bd 9d50 5dbd
00000230: 5ac1 22bb 7d43 afbd 642a d1bd 82f3 b63b
00000240: 40ca 23bb f69f 8b3b 92b1 76bd e0e5 35bc
00000250: 5fe2 65bc 0987 563d 51d2 b4bc a4a8 253d
00000260: db5f c4bd bbba 203d f2bd dc3c 5f7c f43c
00000270: 15d5 3fbd 2d97 87bd 4d60 803d 82a8 a23b
00000280: 387b 17bc 3db8 4cbd 416b ebbc fd89 6f3d
00000290: 8606 04bd e0a6 38bd 30c7 7dbd 449d f33c
000002a0: 4053 97bc f642 cfbd 64cd 17bc 5d9d c43c
000002b0: bf34 32bd 3302 383d e9e5 833d 9152 8abc
000002c0: 5383 98bd acf7 143d 293b 383d be04 70bd
000002d0: 0211 01bd f58d 483d ccb9 a03d 7d52 a93d
000002e0: 3509 e1bb 1579 15bd 2431 ca3d 1b67 bc3d
000002f0: 7afd ba3c c098 98bd 3271 85bb d7ea 7d3b
00000300: 6fbb 2a3d ea4f 8bbd 7f64 9cbd fa33 813d
00000310: b8fe 90bd 7bd2 36bd 5fc1 f2bc 7591 19bd
00000320: b2ac db3b 1331 d1bc 2a7c df3c 2451 8b3b
00000330: a5b9 fbbc 9713 e13c c047 81bb 4509 cc3c
00000340: 3e2d a0bd adf8 4fbd ea10 d0bc 8eba 8cbd
00000350: 7425 77bd c7a2 403d d5ec aa3c c2f5 8dbc
00000360: 7aac af3d bd3a 80bd 42f9 823d 58bd 2c3d
00000370: 6555 ac3c b0b0 79bd 481b 833c 62bd 4bbc
00000380: af2a 7a3d 2e27 7ebc b2d4 113d cc44 8abd
00000390: 420c 5d3d 2b85 dc3d e03d 9dbc 509f 6f3d
000003a0: 4bf7 7a3c bb27 b83d 2872 60bd c3a5 91bd
000003b0: de0e aebd 7c75 ef3c f07b 383d eaf6 26bd
000003c0: 1ba9 8a3c 4c84 1d3d 801f 7cbd 10fd b13d
000003d0: 4d57 823d d8b5 5bbd 99d4 1e3d 490b 8f3d
000003e0: 80c4 893c 85f4 8a3d e2c3 de3d 5b87 a03d
000003f0: e1b7 c33b e075 693d df80 4bbd 77a6 4e3d
0.011734246 -0.05686662 -0.05890957 0.004999194 -0.048813764 -0.049135726 0.055397347 -0.03179333
0.050142046 -0.07796702 -0.011157069 0.00576578 -0.08054787 0.031500027 0.057881705 -0.06490655
-0.015847461 0.0026075272 0.03972492 0.025185386 -0.026861344 -0.030335143 0.049572684 -0.033035118
-0.034886308 0.0455457 0.03553 0.07280199 -0.074042864 0.033335272 0.041497335 0.0093535865
-0.08995562 0.04910624 -0.034407068 0.03528076 -0.02109041 -0.0070530423 0.027301816 -0.073159404
-0.00161418 0.038427196 -0.035497535 -0.08018695 -0.045217752 0.071780525 0.06773785 -0.039725695
0.078862816 0.045476906 -0.05374166 -0.043132592 -0.002721895 -0.061689302 0.004296645 0.053695552
-0.06861505 0.08351846 0.002556166 -0.026661485 0.054320958 0.070515245 -0.0091395 -0.02541317
0.032548495 -0.0004550078 0.047752112 0.00951328 -0.040853705 0.071027055 0.019655436 -0.07790535
0.040867187 0.03674261 -0.014693831 -0.0008077249 0.049409024 -0.0507307 0.0947828 0.061683815
0.009733425 -0.036436662 0.046499815 0.039184865 -0.053556666 0.05119504 0.020373248 0.04684432
0.054423276 -0.018117698 -0.011387789 -0.034022257 -0.011468379 -0.037275393 -0.006749048 0.0033952286
0.028021008 -0.050757054 -0.02676631 -0.07434516 -0.033801157 -0.0002506472 0.045781434 -0.048633333
0.014771708 0.03146163 -0.0364637 -0.0065753893 0.03595852 0.0017744134 -0.04125505 0.03090319
-0.0877644 -0.06925781 -0.019424668 -0.022537118 0.043241594 -0.035987195 0.03174444 0.042582378
0.044099726 0.026252048 0.059922937 0.044637546 0.0071384674 0.01691955 0.05852436 0.006661796
-0.051643126 0.0036355865 -0.018440101 -0.08653577 0.012914943 0.025163373 -0.06115607 -0.0667105
-0.07818931 -0.07254193 -0.0706071 -0.054031957 -0.0024834485 -0.08557794 -0.102131635 0.0055832276
-0.0024992377 0.004261012 -0.060227938 -0.01110217 -0.014031022 0.052374873 -0.022072943 0.04044403
-0.095885955 0.03924058 0.026946042 0.029844461 -0.04683407 -0.06620631 0.06268368 0.0049639354
-0.009245686 -0.04998039 -0.028737666 0.058481205 -0.032232784 -0.04508102 -0.061957538 0.029738076
-0.018472314 -0.10120194 -0.009265278 0.024000818 -0.043507334 0.044923972 0.06440336 -0.016885074
-0.07446923 0.03636901 0.044978295 -0.058598273 -0.03151036 0.048963506 0.07847938 0.082676865
-0.0068675526 -0.036492426 0.09872654 0.09199353 0.022825945 -0.0745101 -0.004072332 0.0038744712
0.041682657 -0.06802352 -0.076363556 0.06308742 -0.07079834 -0.044634324 -0.029633222 -0.037492234
0.0067039365 -0.025536096 0.027280886 0.004251616 -0.03072817 0.027475161 -0.003945321 0.024906764
-0.07821129 -0.050774265 -0.02539869 -0.0687152 -0.060338452 0.047030237 0.020864883 -0.0173291
0.08577819 -0.062612034 0.063951984 0.04217276 0.021036813 -0.060959518 0.01600422 -0.012435289
0.061075862 -0.015512271 0.035603233 -0.06751403 0.053966768 0.10767587 -0.019194543 0.05850154
0.015317748 0.08991953 -0.054796368 -0.07111695 -0.084989294 0.029230826 0.04504007 -0.04076282
0.016926339 0.038456246 -0.06155348 0.08690846 0.063643076 -0.053640217 0.038776968 0.06984574
0.016817331 0.0678492 0.108772054 0.07838317 0.005972848 0.05699718 -0.049683448 0.050451722

layer4.0.bias f4 [64]
00000000: 1c04 6abd 3159 b43c 32f9 473c 2c39 8ebb
00000010: e459 88bc f197 d5bc bf2e 76bd 3cf3 943d
00000020: a0f7 153c 92a9 663d e2aa e1bc f4f3 55bd
00000030: 2491 e7bc c938 b43b 0a0c 633d 38d9 993d
00000040: 465c d73b b4a1 823d 9878 ba3a 7d83 e53b
00000050: da44 42bd 4994 7c3d 5385 a83c 151a 91bd
00000060: 8719 723c 4bb8 c13c 74c8 14bd 5bca 54bd
00000070: f715 a3bd ea6c 5ebd 6e3a 413c 1a8b 80bd
00000080: cf89 ebbc 7e1f 9dbd cc84 3bbd 33ed 68bc
00000090: a5fd 853d 09a0 20bc 9799 87bc c778 7f3d
000000a0: 8cac 503d 7774 7bbd 90fe b9bb ba1e 30bd
000000b0: e28a 5e3d 7542 063d 8584 8bbc e296 2bbd
000000c0: dfd3 4b3c 253f 273d a98b 903d b95b fcbc
000000d0: 36aa a7bd d84b 413b 0b32 9ebc 60d9 023d
000000e0: 5ff5 a5bd fc21 61bd 7fb6 473d 7180 943d
000000f0: 429b 26bd 4103 a23c 0b80 f83c 3d17 6b3d
-0.057132825 0.022015186 0.012205409 -0.0043403115 -0.016644426 -0.026073428 -0.060103174 0.07272956
0.009153277 0.05631406 -0.027547304 -0.052234605 -0.02826745 0.0054999334 0.055431403 0.07512134
0.006572279 0.06378499 0.0014226614 0.0070042 -0.047428943 0.061664853 0.020571386 -0.07085053
0.014776594 0.023647448 -0.03632398 -0.051950794 -0.07963174 -0.054303087 0.011793716 -0.062765315
-0.028752236 -0.07672022 -0.04578094 -0.014216709 0.065425195 -0.00980378 -0.01655273 0.06237104
0.050945804 -0.061390366 -0.005676098 -0.042998053 0.054331668 0.032778222 -0.017030964 -0.04189194
0.012440651 0.040831704 0.07057888 -0.030805456 -0.08186762 0.002949467 -0.019310972 0.031945586
-0.081034414 -0.05496405 0.048758026 0.07251061 -0.04067541 0.019776942 0.030334493 0.05739521

layer4.1.weight f4 [64]
00000000: eb1b 873f dd33 7d3f 0c4c 803f 9591 803f
00000010: 035c 843f 5b38 823f 3453 853f c8a6 863f
00000020: e66d 813f 7460 803f 70a2 823f 25ab 813f
00000030: 154e 823f 2fb6 7d3f 1057 7d3f 3f40 803f
00000040: 548b 813f be6b 823f 0740 813f 24d0 7c3f
00000050: 1391 803f a5c0 833f 287a 833f 2418 843f
00000060: 074e 823f b843 863f d525 813f 74e7 803f
00000070: 5105 813f a2b4 833f c537 803f 8d27 7f3f
00000080: 4d20 873f 6441 823f 4fc5 813f 42a2 843f
00000090: 602d 7d3f d49f 823f 79cc 793f b0c3 7d3f
000000a0: 51e5 813f b363 823f da56 833f fb49 813f
000000b0: 5357 843f ee7b 843f 5089 823f 9d26 813f
000000c0: d81f 7f3f ce45 813f fd57 803f 897d 833f
000000d0: bce3 823f 5597 803f 86e5 7f3f 083b 813f
000000e0: 6760 7d3f 70e9 8a3f 3cc8 813f ffff 833f
000000f0: b512 813f 6e4a 803f 776c 813f 7949 813f
1.0555395 0.9890726 1.0023208 1.0044428 1.034058 1.0173448 1.0416017 1.0519648
1.0111663 1.0029435 1.0205822 1.0130354 1.0180079 0.99106115 0.9896097 1.0019606
1.0120645 1.018913 1.0097665 0.987551 1.0044273 1.0293165 1.0271654 1.0319867
1.0180062 1.0489416 1.008967 1.0070634 1.0079747 1.02895 1.001702 0.99669725
1.0556732 1.0176206 1.0138339 1.0362017 0.9889736 1.0205026 0.97577626 0.9912672
1.0148107 1.0186676 1.026088 1.0100702 1.0339149 1.035032 1.0198154 1.0089909
0.99657965 1.0099428 1.0026852 1.0272685 1.0225749 1.0046183 0.999596 1.009614
0.98975223 1.085249 1.0139232 1.0312499 1.0083834 1.0022714 1.0111226 1.0100547

layer4.1.bias f4 [64]
00000000: 5186 a5bd 4c04 63bd 1436 ae3b 0a10 99ba
00000010: 9496 06bd 1862 7ebb 7f7c 80bb 0182 b1ba
00000020: 67ce cd3b 389e 8dbc eae0 13bc 174f 95bc
00000030: bf1a 4bbc f342 a1bc 0bae 92bc 0dcb 34bc
00000040: a1cb 203c 71a2 993b 1873 17bc ed6e d5bc
00000050: 0665 56bc cbf5 3bbc 7bf6 d4bb 5aec bbbb
00000060: 35d6 15bc 9982 71bd f3ba c7bb 4be8 02bb
00000070: fb52 9abc 9d84 7abb 8560 61bc a589 06bd
00000080: 1c4c cd3b 4c32 aaba 43ca 36bd fc1f 8dbd
00000090: 264b c1bc 7e58 0d3c f94d 44bd b785 6abc
000000a0: 163d 3bbc 1b20 63bc c26e 5bbc 1f63 c53b
000000b0: 3292 98bb 0bd5 61bb c1a7 56bb 04d3 7abc
000000c0: 26fe 9cbc 14e5 a0bc c873 09bd 2bd2 5cbc
000000d0: 6dd8 063c ae3a 75bc f534 d4bc 6c2f fd3b
000000e0: a58c 2abc d136 90bd 6757 92bb bf34 e6ba
000000f0: 7ab3 0e3b 0f0a 26bd 4f03 f9bb 0bbe b6bc
-0.080822594 -0.05542402 0.005316505 -0.0011677754 -0.032858446 -0.0038815793 -0.003921091 -0.0013542773
0.0062807086 -0.017287359 -0.009025792 -0.01822619 -0.0123965135 -0.019685244 -0.017905256 -0.011034739
0.009814174 0.004688554 -0.009243749 -0.02605387 -0.013085609 -0.011472176 -0.0064991093 -0.0057349624
-0.009145309 -0.05896244 -0.006095284 -0.0019974883 -0.018838396 -0.0038226016 -0.013755922 -0.03284611
0.0062651765 -0.001298496 -0.044626486 -0.06890866 -0.023595404 0.008627055 -0.047925923 -0.014314107
-0.011428138 -0.013862635 -0.013393106 0.006023779 -0.0046560997 -0.003445926 -0.0032753798 -0.015309099
-0.019164156 -0.019640483 -0.033557683 -0.013477842 0.008230311 -0.014967604 -0.025904158 0.0077266004
-0.010409509 -0.070417054 -0.0044659856 -0.0017563327 0.0021774457 -0.040536936 -0.0075992714 -0.022307416

layer4.1.running_mean f4 [64]
00000000: 400a a1be 9026 8a3e c513 85be c045 5dbe
00000010: 0b1e 2b3f c84e 46bf 7bcc 593f e6f8 45bf
00000020: c901 2fbe 3e39 c2bd 8c93 bebe 2fc8 1e3f
00000030: 14c3 fdbd 9592 9d3e 2a55 ef3e 1a1e 253e
00000040: 6856 d53d 6bc0 b23d 3ad2 82be 544d 36bc
00000050: 180c 8bbe ae47 52be d59a bebe b4fa 50bf
00000060: a133 0bbf 10c8 f2bc 9eee 3ebf f732 ecbe
00000070: 9a90 9dbe 2a32 a1bf c07f d9bd 4a3f 7ebc
00000080: 418e 28bf ee89 093f 5821 cb3d af2d 18bf
00000090: dd7e 8b3f 2bf3 dfbe 23cf e53e 1119 9cbd
000000a0: 6919 5c3f bc2e d7be ae81 f3be 31f2 e8be
000000b0: 02c7 8bbe afe3 f6be 5ae0 1cbf 6f0e 59be
000000c0: 2d25 b4be cd9a 593f 4417 893d 2fb0 383f
000000d0: bd4b 2dbf 88b3 d7bd 3e59 88be 0947 623e
000000e0: 11e3 22be a7bb 2f3f e3a2 a0be 6553 fcbe
000000f0: 2d64 6a3e ded3 a1be a13b b5be 9bf7 38be
-0.31453133 0.26982546 -0.25991645 -0.21608639 0.66842717 -0.7746396 0.8507764 -0.77332914
-0.17090525 -0.09483574 -0.37221944 0.62024206 -0.12390724 0.30775896 0.46744663 0.16124764
0.10416871 0.08728107 -0.25551015 -0.011126835 -0.27157664 -0.20535156 -0.37227502 -0.8163254
-0.54375654 -0.029636413 -0.7458285 -0.46132633 -0.30774385 -1.2593434 -0.106200695 -0.015518019
-0.6584206 0.5372609 0.09918469 -0.5944471 1.0898091 -0.4374021 0.44884595 -0.076219685
0.8597627 -0.42027843 -0.47559875 -0.45497277 -0.27300268 -0.48220584 -0.61279833 -0.21196912
-0.35184613 0.8500183 0.06693891 0.72143835 -0.6769369 -0.1053229 -0.26630586 0.2209741
-0.15906931 0.6864571 -0.31374273 -0.49282375 0.22889777 -0.31606954 -0.35397056 -0.18063204

layer4.1.running_var f4 [64]
00000000: 0eaa dc3e 095f 1c3f c5eb 4c3e 21e0 ad3e
00000010: 61ff b33e 3717 bb3e d08c a73e a974 043f
00000020: a54b ba3e c2c5 8e3e b395 c53e 9fdd 223f
00000030: 8e19 933e 2d6e 8e3e b95c 173f 0946 9b3e
00000040: 80a1 ef3e 8065 133f df6f 9e3e 646e dd3e
00000050: 2487 c63e 23fc 9b3e 286f 873e 7271 643f
00000060: 8c16 a43e cd17 bc3e 9545 eb3e 317d e63e
00000070: 6376 6f3e 6ac4 4c3f fc9b 2c3f bdaf 923e
00000080: 54b2 053f 4de7 b43e b522 b03e c26d c43e
00000090: a0fb 473f 8831 d03e c348 a23e c916 a63e
000000a0: a89d bc3e 3275 c43e 3f40 bb3e ccea 683e
000000b0: 7036 633e 6203 a53e 2c99 c73e 12b5 7a3e
000000c0: 93fc 7d3e d66b 873e ea33 2e3e f03d c83e
000000d0: f58f ae3e 1e67 143f 2f7f 513e d417 b83e
000000e0: cf35 ba3e 352c 473f 2328 043f fef6 f33e
000000f0: a886 8e3e 8150 b03e fdbd eb3e 661f f53e
0.4309849 0.6108251 0.20011814 0.3396006 0.35155776 0.3654115 0.3272462 0.5174051
0.36385837 0.27885252 0.38590774 0.63619417 0.28730434 0.27818432 0.5912586 0.3032687
0.46802902 0.5757675 0.30944726 0.43248284 0.3877498 0.30465803 0.26451993 0.89235604
0.32048452 0.3673691 0.45951524 0.45017388 0.23385005 0.79987204 0.67425513 0.28649703
0.5222523 0.35332718 0.3440148 0.3836499 0.78118324 0.4066279 0.31696138 0.3243926
0.36839032 0.38370663 0.36572453 0.22745818 0.22188735 0.32229143 0.38984048 0.24483135
0.2480338 0.2644946 0.17011991 0.39109755 0.34094205 0.57969844 0.20458673 0.3595568
0.36369178 0.7780183 0.51623744 0.47649378 0.2783711 0.3443642 0.46043387 0.47875518

layer5.0.weight f4 [64, 64, 3, 3]
00000000: 3c1c 3e3c f226 b73c b089 7d3c 899c 083d
00000010: 6880 26bd 4a18 eb3c e0fd 61bc 5c2c 26bc
00000020: 10cc 36bc c9f8 163d 649d 0e3c c00e 9b3c
00000030: 23d8 cabc becb 1dbd e6af 00bd 8074 f7bb
00000040: 08e3 c5bc b64e 8b3c d0c6 53bb a0c5 ae3b
00000050: 786e e2bb a8ed 07bd 6d59 123d f65a bdbc
00000060: 3c58 6d3c 0ce2 2f3c c02e 333b 0b4f 26bd
00000070: 5ec1 ee3c c7ea 173d 10ac 24bb a230 29bd
00000080: 42ae d03c 82fc a93c 2b6e dabc 003f ebbb
00000090: a0f9 fe3a 809b a63b 7f84 05bd 40f0 2c3c
000000a0: 37f8 22bd 30a0 053b 5a4f ed3c 9051 603c
000000b0: 6b03 083d be35 b63c 506c d2bc fae7 b83c
000000c0: 80d1 fe3a d5cc 0c3d b051 683c c202 17bd
000000d0: 5618 d2bc 2b4c 183d 0276 f63c 924e fa3c
000000e0: 46bf 4fbc c52f 123d 6ca2 12bd 2254 d83c
000000f0: 8808 e8bb 06f2 25bd e083 5abc 3a14 bf3c
00000100: 20ac 583c a20c dd3c 984f 8f3b 3b56 a3bc
00000110: 28a2 8abc b0fe 793b e6eb a2bc b8cb 98bc
00000120: 97d2 273d 01fd 1c3d 7d84 113d 404a 93bc
00000130: e1e6 1c3d 404f 28bd 1ebc b4bc cdef 243d
00000140: e6ee b03c cdb8 123d 43ed b6bc 2d03 143d
00000150: be45 c3bc f50a 0c3d a82a debc da44 8d3c
00000160: 9b26 003d 7594 193d 2006 18bd 0b59 28bd
00000170: 6f5d 24bd 3aa8 a13c 34b4 3a3c 2087 473c
00000180: 7cfa 7ebc 9b30 103d a06f 233c c032 bfbc
00000190: 9e47 80bc df91 043d a4b4 503c a36f 243d
000001a0: faab dc3c b2d8 d43c cdac 0c3d d88b 12bd
000001b0: dfad 163d add1 103d a03c d8ba 76f4 61bc
000001c0: c420 05bc 73d4 a3bc cef7 cbbc 624f 03bd
000001d0: d30a 88bc e5f1 043d c03d c63b 7c41 3b3c
000001e0: d677 debc 7cbd 50bc f01c 29bb 4947 253d
000001f0: b05f 483c 80d7 1b3b 28d0 98bc bcf1 113c
00000200: 54bf 4d3c 9382 163d 1638 6fbc 4864 cbbc
00000210: c228 8b3c 0e93 d33c fafe d33c 3097 01bd
00000220: 00de cb39 90b2 213c 744c 11bc 8031 0bbd
00000230: c0da 52bc b181 193d 6fd7 1c3d 6634 813c
00000240: 3c21 193c 1940 253d fe64 afbc 8df9 243d
00000250: d1a6 243d 0672 61bc 2c66 17bd e00b 82bc
00000260: ee80 fa3c d40d 29bc eea1 ee3c b085 02bd
00000270: d6bb 2cbc e8a5 8bbb 10ab 773b 046c 593c
00000280: dc48 3b3c f020 003b be18 b53c 038f a4bc
00000290: d62c a83c db41 afbc c488 523c 48a7 89bb
000002a0: 3272 e83c dc11 593c 7eda 973c d621 78bc
000002b0: 78b2 8a3c 511e 113d c6c3 edbc f084 283b
000002c0: 44ef 0a3c 60c6 a0bc d669 f2bc 2722 26bd
000002d0: 8325 fdbc 4adb ce3c 5cc8 7f3c d96d 293d
000002e0: 9b13 253d 4ae0 0bbd 1898 c03b 8488 563c
000002f0: f03d 593b e0c5 f0bb 68a3 b7bb 1072 63bb
00000300: fef2 c13c abe5 193d 2634 debc 481b 16bd
00000310: 68de 803c 88ab a73c f04a 46bb 4821 f5bb
00000320: 61c4 083d 9690 d8bc bf6b 08bd 9619 d53c
00000330: b038 2abc e0b8 11bd ad40 193d 8ea6 10bd
00000340: 94c3 503c c0c7 723c 60aa e93a b773 283d
00000350: b0ce d7bc ec1c 593c 82bf b13c 82a4 24bd
00000360: 3225 ae3c e2f6 c73c 9f9c 0abd 808a ddbb
00000370: 435a 123d ea8e fc3c 2d2b 0a3d c063 73bb
00000380: b937 043d cb62 b5bc 8e1d 9f3c 3e60 953c
00000390: 7894 d5bc bc2a 0dbd 8506 273d 033a 00bd
000003a0: 900d abbc 1ba5 c8bc 2acb 10bd be5b c5bc
000003b0: d0f9 6e3b 364c d93c c0e2 68ba b103 0a3d
000003c0: fe24 d83c 5efd 9abc 4852 ccbb e611 8ebc
000003d0: 188b b5bc 1256 e93c 42a1 f73c 76b0 813c
000003e0: b66d f23c 1061 5f3b ae26 b5bc e0fd 743c
000003f0: 8e38 e6bc 2635 1abd 00f1 17b9 5dee 023d
0.011603411 0.022357438 0.015474722 0.03335241 -0.0406498 0.028698105 -0.013793439 -0.010142412
-0.011157051 0.036858354 0.008704517 0.018927932 -0.024761265 -0.03852438 -0.03141775 -0.0075517297
-0.024156108 0.017005306 -0.0032314546 0.0053336173 -0.0069101416 -0.03318563 0.035729814 -0.023114663
0.014486369 0.010735046 0.0027341098 -0.040602725 0.029144939 0.037089135 -0.0025126971 -0.041306145
0.025473718 0.020750288 -0.02666386 -0.007179141 0.0019453056 0.005084455 -0.03259706 0.010555327
-0.039787497 0.0020389669 0.028968502 0.013691321 0.033206385 0.022242423 -0.025686413 0.022571553
0.0019441098 0.03437503 0.014179632 -0.036867864 -0.02564637 0.037182014 0.030085567 0.030555043
-0.0126798805 0.035690088 -0.03579943 0.026407305 -0.007081095 -0.040514015 -0.0133371055 0.023325074
0.013224632 0.026983563 0.004373502 -0.019938579 -0.016923025 0.003814619 -0.019887876 -0.018651828
0.04097232 0.03832722 0.03552674 -0.017979741 0.03830612 -0.041091204 -0.022062358 0.040267754
0.02159829 0.03582077 -0.022329932 0.03613584 -0.023836967 0.034190137 -0.02711995 0.017244745
0.031286817 0.037495095 -0.037115216 -0.041100543 -0.040128168 0.019733537 0.011395503 0.012178212
-0.01556265 0.035202604 0.009975344 -0.02333963 -0.01565915 0.032365676 0.012738381 0.040145528
0.026937474 0.025982235 0.034344483 -0.035777897 0.03678691 0.035356212 -0.001649756 -0.013791194
-0.008125488 -0.019998765 -0.024898436 -0.032058127 -0.016606724 0.03245725 0.0060498416 0.011429187
-0.027156752 -0.012740489 -0.0025804602 0.040351186 0.012229845 0.002377957 -0.018653944 0.008907732
0.012557823 0.03674562 -0.014600774 -0.024828091 0.016987208 0.025826957 0.025878418 -0.031638324
0.0003888458 0.009869233 -0.0088683255 -0.033982754 -0.012869537 0.0374772 0.03829139 0.015772056
0.009346303 0.04034433 -0.021410462 0.040277053 0.04019815 -0.013760095 -0.036962673 -0.015874803
0.030579057 -0.010318238 0.029129948 -0.031865776 -0.01054283 -0.004261721 0.003779117 0.013270382
0.011430945 0.0019550882 0.022106525 -0.020087725 0.020529192 -0.021393707 0.01284999 -0.0042008497
0.028374765 0.013248887 0.018536802 -0.015144786 0.016930804 0.035429303 -0.029024016 0.0025714003
0.008479897 -0.019625843 -0.029591482 -0.040559914 -0.030901676 0.02525105 0.015611734 0.041364525
0.0403019 -0.034149446 0.005877506 0.013094071 0.003314849 -0.0073478073 -0.0056041963 -0.0034705438
0.023675438 0.037572544 -0.027124476 -0.03664711 0.015731052 0.020467535 -0.0030257069 -0.007480774
0.033390407 -0.026436131 -0.03330588 0.026013177 -0.010389492 -0.0355767 0.037415195 -0.03531509
0.012741942 0.014818132 0.0017827265 0.04112598 -0.026343673 0.013251524 0.021697763 -0.04019595
0.02125797 0.024409715 -0.03384077 -0.0067608953 0.03573061 0.030829865 0.033732582 -0.0037138313
0.032279704 -0.022141835 0.019423272 0.018234368 -0.026071772 -0.034464583 0.040777702 -0.031305324
-0.02088049 -0.02449279 -0.035350002 -0.024091598 0.0036464818 0.026525598 -0.0008883886 0.033694927
0.026384827 -0.018919643 -0.0062353946 -0.017342519 -0.022161052 0.028483424 0.03022826 0.015831213
0.02959333 0.0034084953 -0.02211317 0.014953107 -0.02810314 -0.037648343 -0.00014490262 0.031965602

layer5.0.bias f4 [64]
00000000: 34f2 723c 3f62 29bd 58e8 18bd 4b31 00bd
00000010: 76e3 d8bc 50d2 2abb d030 78bc f8ef 903c
00000020: eeae f9bc 26ce a6bc 62d7 c33c 9871 943c
00000030: 7465 2d3c f02c 7c3b 7843 a83b 609b 5b3c
00000040: aabf af3c f0b5 71bc 8aef f23c 9688 e6bc
00000050: db2f 0f3d f744 043d 004e 0c3b 4ce7 743c
00000060: 4223 ad3c 6040 c13b 8de6 0e3d c591 0b3d
00000070: fd19 203d 17f9 08bd 47f5 023d 30b9 6fbb
00000080: 38d8 873c 4e10 e03c 9093 49bb 88fb b53b
00000090: 3a56 0abd 6cfb 17bc 0113 113d 400d 0d3b
000000a0: 7815 d8bc 1e35 ee3c bfec 0cbd cc03 5d3c
000000b0: 6a3a ad3c bd6c 0c3d de3c 8dbc c301 a9bc
000000c0: 8e6a 91bc 5086 e6bc 6773 023d ba5f 14bd
000000d0: 53f1 17bd 64d8 7b3c 3405 343c 664a 48bc
000000e0: c045 9e3c 1692 d1bc da8e d53c 0a29 bf3c
000000f0: 7c91 243c 1830 1dbd 0d82 073d fd9a 133d
0.014828254 -0.04135346 -0.037330955 -0.03129701 -0.02647565 -0.0026065297 -0.015148357 0.017692551
-0.03047892 -0.020361971 0.023906413 0.018120572 0.01058327 0.0038478933 0.005134996 0.0134037435
0.021453697 -0.01475285 0.029655237 -0.028141301 0.034957748 0.032292333 0.0021408796 0.014947724
0.021134976 0.0058975667 0.03488784 0.034074564 0.039087284 -0.033440676 0.031972196 -0.0036578886
0.016582593 0.027351525 -0.003075812 0.0055536665 -0.03377364 -0.009276252 0.035418514 0.002152279
-0.026377425 0.029078063 -0.034405466 0.013489675 0.021146018 0.03428339 -0.017240938 -0.020630723
-0.017751005 -0.028140217 0.031848338 -0.036224104 -0.03709538 0.015371416 0.010987569 -0.012224769
0.019320369 -0.025582355 0.026069093 0.023334999 0.010044452 -0.038375944 0.03308301 0.03603648

layer5.1.weight f4 [64]
00000000: 0000 803f 0000 803f 0000 803f 0000 803f
00000010: 0000 803f 0000 803f 0000 803f 0000 803f
00000020: 0000 803f 0000 803f 0000 803f 0000 803f
00000030: 0000 803f 0000 803f 0000 803f 0000 803f
00000040: 0000 803f 0000 803f 0000 803f 0000 803f
00000050: 0000 803f 0000 803f 0000 803f 0000 803f
00000060: 0000 803f 0000 803f 0000 803f 0000 803f
00000070: 0000 803f 0000 803f 0000 803f 0000 803f
00000080: 0000 803f 0000 803f 0000 803f 0000 803f
00000090: 0000 803f 0000 803f 0000 803f 0000 803f
000000a0: 0000 803f 0000 803f 0000 803f 0000 803f
000000b0: 0000 803f 0000 803f 0000 803f 0000 803f
000000c0: 0000 803f 0000 803f 0000 803f 0000 803f
000000d0: 0000 803f 0000 803f 0000 803f 0000 803f
000000e0: 0000 803f 0000 803f 0000 803f 0000 803f
000000f0: 0000 803f 0000 803f 0000 803f 0000 803f
1.0 1.0 1.0 1.0 1.0 1.0 1.0 1.0
1.0 1.0 1.0 1.0 1.0 1.0 1.0 1.0
1.0 1.0 1.0 1.0 1.0 1.0 1.0 1.0
1.0 1.0 1.0 1.0 1.0 1.0 1.0 1.0
1.0 1.0 1.0 1.0 1.0 1.0 1.0 1.0
1.0 1.0 1.0 1.0 1.0 1.0 1.0 1.0
1.0 1.0 1.0 1.0 1.0 1.0 1.0 1.0
1.0 1.0 1.0 1.0 1.0 1.0 1.0 1.0

layer5.1.bias f4 [64]
00000000: 0000 0000 0000 0000 0000 0000 0000 0000
00000010: 0000 0000 0000 0000 0000 0000 0000 0000
00000020: 0000 0000 0000 0000 0000 0000 0000 0000
00000030: 0000 0000 0000 0000 0000 0000 0000 0000
00000040: 0000 0000 0000 0000 0000 0000 0000 0000
00000050: 0000 0000 0000 0000 0000 0000 0000 0000
00000060: 0000 0000 0000 0000 0000 0000 0000 0000
00000070: 0000 0000 0000 0000 0000 0000 0000 0000
00000080: 0000 0000 0000 0000 0000 0000 0000 0000
00000090: 0000 0000 0000 0000 0000 0000 0000 0000
000000a0: 0000 0000 0000 0000 0000 0000 0000 0000
000000b0: 0000 0000 0000 0000 0000 0000 0000 0000
000000c0: 0000 0000 0000 0000 0000 0000 0000 0000
000000d0: 0000 0000 0000 0000 0000 0000 0000 0000
000000e0: 0000 0000 0000 0000 0000 0000 0000 0000
000000f0: 0000 0000 0000 0000 0000 0000 0000 0000
0.0 0.0 0.0 0.0 0.0 0.0 0.0 0.0
0.0 0.0 0.0 0.0 0.0 0.0 0.0 0.0
0.0 0.0 0.0 0.0 0.0 0.0 0.0 0.0
0.0 0.0 0.0 0.0 0.0 0.0 0.0 0.0
0.0 0.0 0.0 0.0 0.0 0.0 0.0 0.0
0.0 0.0 0.0 0.0 0.0 0.0 0.0 0.0
0.0 0.0 0.0 0.0 0.0 0.0 0.0 0.0
0.0 0.0 0.0 0.0 0.0 0.0 0.0 0.0

layer5.1.running_mean f4 [64]
00000000: 0000 0000 0000 0000 0000 0000 0000 0000
00000010: 0000 0000 0000 0000 0000 0000 0000 0000
00000020: 0000 0000 0000 0000 0000 0000 0000 0000
00000030: 0000 0000 0000 0000 0000 0000 0000 0000
00000040: 0000 0000 0000 0000 0000 0000 0000 0000
00000050: 0000 0000 0000 0000 0000 0000 0000 0000
00000060: 0000 0000 0000 0000 0000 0000 0000 0000
00000070: 0000 0000 0000 0000 0000 0000 0000 0000
00000080: 0000 0000 0000 0000 0000 0000 0000 0000
00000090: 0000 0000 0000 0000 0000 0000 0000 0000
000000a0: 0000 0000 0000 0000 0000 0000 0000 0000
000000b0: 0000 0000 0000 0000 0000 0000 0000 0000
000000c0: 0000 0000 0000 0000 0000 0000 0000 0000
000000d0: 0000 0000 0000 0000 0000 0000 0000 0000
000000e0: 0000 0000 0000 0000 0000 0000 0000 0000
000000f0: 0000 0000 0000 0000 0000 0000 0000 0000
0.0 0.0 0.0 0.0 0.0 0.0 0.0 0.0
0.0 0.0 0.0 0.0 0.0 0.0 0.0 0.0
0.0 0.0 0.0 0.0 0.0 0.0 0.0 0.0
0.0 0.0 0.0 0.0 0.0 0.0 0.0 0.0
0.0 0.0 0.0 0.0 0.0 0.0 0.0 0.0
0.0 0.0 0.0 0.0 0.0 0.0 0.0 0.0
0.0 0.0 0.0 0.0 0.0 0.0 0.0 0.0
0.0 0.0 0.0 0.0 0.0 0.0 0.0 0.0

layer5.1.running_var f4 [64]
00000000: 0000 803f 0000 803f 0000 803f 0000 803f
00000010: 0000 803f 0000 803f 0000 803f 0000 803f
00000020: 0000 803f 0000 803f 0000 803f 0000 803f
00000030: 0000 803f 0000 803f 0000 803f 0000 803f
00000040: 0000 803f 0000 803f 0000 803f 0000 803f
00000050: 0000 803f 0000 803f 0000 803f 0000 803f
00000060: 0000 803f 0000 803f 0000 803f 0000 803f
00000070: 0000 803f 0000 803f 0000 803f 0000 803f
00000080: 0000 803f 0000 803f 0000 803f 0000 803f
00000090: 0000 803f 0000 803f 0000 803f 0000 803f
000000a0: 0000 803f 0000 803f 0000 803f 0000 803f
000000b0: 0000 803f 0000 803f 0000 803f 0000 803f
000000c0: 0000 803f 0000 803f 0000 803f 0000 803f
000000d0: 0000 803f 0000 803f 0000 803f 0000 803f
000000e0: 0000 803f 0000 803f 0000 803f 0000 803f
000000f0: 0000 803f 0000 803f 0000 803f 0000 803f
1.0 1.0 1.0 1.0 1.0 1.0 1.0 1.0
1.0 1.0 1.0 1.0 1.0 1.0 1.0 1.0
1.0 1.0 1.0 1.0 1.0 1.0 1.0 1.0
1.0 1.0 1.0 1.0 1.0 1.0 1.0 1.0
1.0 1.0 1.0 1.0 1.0 1.0 1.0 1.0
1.0 1.0 1.0 1.0 1.0 1.0 1.0 1.0
1.0 1.0 1.0 1.0 1.0 1.0 1.0 1.0
1.0 1.0 1.0 1.0 1.0 1.0 1.0 1.0

fc.weight f4 [1, 9216]
00000000: fdfa 093d 949f 8d3c aadb d73c bed2 423c
00000010: 8835 0a3c ca69 8e3c 3014 1c3c 2f9b 543c
00000020: 6dd7 1a3c d12c 423c bdb7 f73b f117 b03c
00000030: f923 8d3c c6e0 8d3c 1ba3 2e3b 0421 3d3c
00000040: 8d92 a2ba 496c df3c b1ef 303c 6392 983c
00000050: aeb5 833c 782d e53a b9db 7abb 8f3e a839
00000060: 5cc2 cc3c bfe4 1e3b a92f 1cbc 3975 39bc
00000070: 8731 9d3b 3e05 ac3c 9146 133d 9bb0 bb3c
00000080: bc4b ea3c aa4c 01bc 3b9b 76bb 5268 11bb
00000090: df7c 7b3c edab 373b 2909 9bbc 670a 40bc
000000a0: 90fa 643c 3828 173c 3971 083d 82d8 923c
000000b0: e144 333b f759 72bc 56f0 78bc efe6 54bc
000000c0: df8b 0dbc 0e36 0bbc 23b7 32bc 86e0 a5bc
000000d0: 45f3 65bc 49e9 103c 1b99 ae3c 5853 d33a
000000e0: e226 da3c ad42 b9bc ccc1 6abc 4862 45bc
000000f0: 5efe 38bc 747a 79bc d770 39bc 30e3 a4bc
00000100: d826 b0bb af56 d13b e1a9 c93c 8949 41bb
00000110: e139 813c 61d7 c7bc c8bf c5bc 6789 16bc
00000120: e6ef bf3b 29fa f3bb 1e5f c9bc 8ac0 7bbc
00000130: 75ac dfbb 2d3b d03b b50e 143b 0bbb 0e3b
00000140: bf42 993c 5b96 cabc 8858 daba f035 bcbc
00000150: 3481 cebb a3d3 c9bc f030 67bc 85f6 cebc
00000160: 3a94 103b 8321 533b bc0c 523c 10a7 d33b
00000170: 9a22 bb3c 3833 dfbc f8d7 99bc 7e1f e1bc
00000180: 4a62 0a3c 3581 c2bb 73d3 c0bb 87eb 8dbc
00000190: 3c6c 93bc 7248 5e3a ebc5 c83c e9a3 243c
000001a0: dc23 833c 93be d7bc 6d78 c3bb 54cb 39bc
000001b0: 251d e33c 3201 853b a8b7 39bc 04a7 cebb
000001c0: d376 74bb 15cc 7d3b 19cf ab3c 7913 653c
000001d0: b0c1 8f39 8d33 efbb 0aaf 413b 0be2 1abc
000001e0: 3df1 e13c 607c ae3c 945d c03b 7eba 9aba
000001f0: b8bf 44b9 a9e5 0c3c 260b be3c d66a f73c
00000200: ca01 bc3c 3d0c 31bc 2b67 253b ea7e 6f3b
00000210: abd3 f23c bc6a 183c b588 9c3c 0298 083c
00000220: 4c8e 173b 2909 873c 31e2 fa3c 1ced 043c
00000230: 600a cf3c 09b9 c13b d6da 283c 04ab 043c
00000240: 3660 643c bc0a 6a3b 37eb db3b be4d 873c
00000250: 2b5b b73b 5201 e2bb 2966 353b 7320 1cbc
00000260: dbaa 4b3b a9b9 fe3a a9d7 063b bb4f 153b
00000270: 195b 353c f6aa a33a 4c14 f93a 4843 6e3b
00000280: 90f3 d63b 5ae5 213b 7eb0 6d3c 7df7 233c
00000290: 44b4 85bb 19d2 b43b 3033 8dbb 9d3c c63b
000002a0: 8167 2e3c f6b5 ac3b ea07 383c 55af 643c
000002b0: 6412 263c 09ff c53b 527b b23c b807 253c
000002c0: 7783 1d3c 3dc5 833b 3ba5 9a3b d340 013c
000002d0: ba3d 60b8 aa1d 173b 612b 093c 6a51 f53b
000002e0: a188 ef3a 1adf a43b 9802 563b a085 5b3b
000002f0: 1c4d e33a 7611 493c e6c5 07bc d25a 4d3b
00000300: a734 23bb 32ad b2b9 6c15 54bb f5a9 11bc
00000310: 0327 423b c9d2 57bc 6d61 293b 7e1e 2abc
00000320: 2ec4 3abb 9047 a0bb 5854 20bb a2d8 423c
00000330: 30f3 aabb 0861 5c3b 146e 7fbc 613a 92bc
00000340: d1bd 95bc ae07 cbbb 7f1c 2abc 8afc 52ba
00000350: 28f7 91bc af05 3639 707e 04bc 5419 58bb
00000360: 923e a43b fdee 2e3c 2adf 543a 6092 10bc
00000370: 1cc3 9fbc 9a81 23bc a620 1ebc c230 20bc
00000380: 192d b4bc 024a ebba 9701 35bc c0bb a23c
00000390: 266a 043c e99a f3bb 5c50 17bb bec0 81bb
000003a0: 21d4 0fbc d7ac 3abc 9d25 64bc 64ad 25bc
000003b0: dec7 debb 5cf8 8239 78f4 8dbc ea12 8dba
000003c0: 631e 653c 299f 193c e27b 0c3c d4f8 70ba
000003d0: 179f 613a db93 d1bb 8c34 143c c4e4 b53b
000003e0: d4c3 34b9 d21b e53b 032f c6bb c9dc 3e3c
000003f0: 5034 853c cc50 a23b 404d 203b ecac 513c
0.033686627 0.017288007 0.026349861 0.011891065 0.008435614 0.017384429 0.009526297 0.012976452
0.009450776 0.011851505 0.007559745 0.021495791 0.017229067 0.017319094 0.0026647511 0.011543516
-0.0012403295 0.027273314 0.010799334 0.01862449 0.016077843 0.0017484864 -0.0038277938 0.00032090067
0.024995022 0.002424523 -0.009532847 -0.011319452 0.004797164 0.020998593 0.03595597 0.02291136
0.028600566 -0.007891813 -0.0037629146 -0.0022187424 0.015349596 0.002802606 -0.018925266 -0.01172123
0.013975754 0.0092258975 0.033311103 0.017925505 0.0027354287 -0.014791957 -0.015194019 -0.012994512
-0.008639305 -0.008496774 -0.010907921 -0.020248663 -0.014035051 0.008844682 0.02131324 0.0016122861
0.026629869 -0.022614801 -0.014328431 -0.012047358 -0.011291115 -0.015226949 -0.011318407 -0.020127863
-0.0053757243 0.0063885073 0.024617137 -0.0029493293 0.01577467 -0.024394693 -0.0241393 -0.009188033
0.0058574555 -0.007445593 -0.024581488 -0.015365729 -0.0068259784 0.0063547106 0.0022591774 0.0021778967
0.018708585 -0.024729898 -0.0016658464 -0.022974938 -0.0063020233 -0.024637049 -0.014110789 -0.025264034
0.0022061006 0.003221602 0.012820419 0.0064591244 0.022843648 -0.027246103 -0.01877974 -0.027480837
0.0084462855 -0.005935813 -0.0058845817 -0.017324222 -0.017995946 0.0008479423 0.024508437 0.010048845
0.01600831 -0.02633599 -0.0059652836 -0.011339981 0.027723858 0.0040589804 -0.011335291 -0.006306531
-0.003730227 0.0038726379 0.020972775 0.013981693 0.00027419394 -0.0072998465 0.0029553794 -0.009453307
0.027580852 0.021299541 0.0058705304 -0.0011804847 -0.00018763437 0.008599677 0.023198675 0.03020231
0.022950072 -0.0108061405 0.0025238495 0.0036544153 0.029641947 0.009302791 0.019108156 0.008337023
0.0023125587 0.01648386 0.030625435 0.008113172 0.025273502 0.0059119505 0.010306081 0.008097414
0.013938954 0.0035711965 0.0067113894 0.016516563 0.005595585 -0.00689713 0.00276793 -0.009529221
0.003107718 0.0019433993 0.002057532 0.0022783119 0.011069083 0.0012486863 0.0019003241 0.003635602
0.0065597966 0.0024703355 0.014507411 0.010007736 -0.004080327 0.0055182097 -0.0043090805 0.006049706
0.010644794 0.005270715 0.011232356 0.013957818 0.010136221 0.0060423655 0.02178732 0.010072641
0.009613863 0.0040213154 0.004719404 0.00788899 -5.346325e-05 0.0023058453 0.008372159 0.007486512
0.0018274972 0.0050314786 0.0032655355 0.0033496395 0.0017341706 0.012272229 -0.008286929 0.003133465
-0.002490321 -0.00034079846 -0.0032361401 -0.008890619 0.0029625304 -0.013172814 0.0025845424 -0.0103832465
-0.002849828 -0.0048913434 -0.0024464335 0.01189247 -0.0052169785 0.003362717 -0.0155902095 -0.017850103
-0.018278988 -0.006195984 -0.010382771 -0.00080484955 -0.017818049 0.0001735899 -0.008086786 -0.003297408
0.005012342 0.010677096 0.0008120412 -0.008823961 -0.019502215 -0.00997963 -0.009651339 -0.00977725
-0.02199416 -0.0017951133 -0.011047742 0.019864917 0.008081948 -0.007434238 -0.002308867 -0.0039597442
-0.008778603 -0.011393747 -0.013924983 -0.01011214 -0.0067987284 0.00024980574 -0.017328486 -0.0010763083
0.013984296 0.009376326 0.008574458 -0.0009192352 0.0008606775 -0.0063957996 0.009045731 0.0055509526
-0.0001723909 0.006991842 -0.0060480847 0.011649319 0.016260296 0.0049534794 0.0024460107 0.012797575
