data/chkbox_models/chkbox_rnd11_0_bestVal.pt (torch_old, 35085 bytes, 25 tensors)

layer1.0.weight f4 [4, 1, 3, 3]
00000000: 0a1f 503c 6150 403d 1166 cb3d bea9 e1bd
00000010: edb2 9639 6940 493e a7be 20bd 56d0 47bb
00000020: 56f2 2e3e 88e0 40be 6db9 69be e285 9dbc
00000030: 324f 1dbe 0f22 54be bd26 763e 9872 823d
00000040: cee2 483e 3d7f 8d3e 5282 213e 1529 313d
00000050: 2c99 b13d dff8 be3e 341b 80be 5b03 89be
00000060: 8adb 933e 554f e93d 64a5 04be 2331 f7bc
00000070: e7e0 2b3e 5dc6 9fbd 4f99 883b 6aba 283e
00000080: c650 95be 13ad 603e 2686 9a3d b1cf b33e
0.012702713 0.046951655 0.09931577 -0.11018704 0.0002874354 0.19653477 -0.03924432 -0.0030489168
0.17084631 -0.18835652 -0.2282464 -0.01922888 -0.15362242 -0.20716117 0.24038215 0.06369513
0.19617769 0.27636138 0.1577237 0.04325207 0.08671793 0.3729925 -0.25020754 -0.26760373
0.28878433 0.113920845 -0.12953717 -0.030174797 0.16785012 -0.07801507 0.0041686664 0.16477361
-0.29163188 0.21941023 0.07545118 0.35119393

layer1.0.bias f4 [4]
00000000: fccf ff3d 8ab6 2f3e 3942 6dbe 818f 28be
0.12490842 0.17159477 -0.23169793 -0.16460992

layer1.1.weight f4 [4]
00000000: ce2e 8e3f 5e8f 723f ba78 723f 4081 7e3f
1.1108034 0.9475001 0.94715464 0.9941597

layer1.1.bias f4 [4]
00000000: adce 93bc e83d 23bd b237 873d a6cd 96bd
-0.018042887 -0.03985396 0.0660242 -0.07363443

layer1.1.running_mean f4 [4]
00000000: 863a cb3e e3d1 1e3e 86e2 8d3d be1a 853e
0.39693087 0.15509753 0.069279715 0.25996965

layer1.1.running_var f4 [4]
00000000: b269 df3d 4d22 bb3d 3106 3c3e d103 823e
0.10908832 0.09137402 0.18361737 0.25393537

layer2.0.weight f4 [8, 4, 3, 3]
00000000: 7e1b 4b3e b325 a43d 7d3c 893d 0ece a7bd
00000010: 4bcf d6bd 232f 503c bdbf ce3d c8f8 61bc
00000020: 03ae 86bd 1797 853c e5c7 21be 5283 e63d
00000030: 651d 83bd 997c 43be 2a11 953c 15dc da3d
00000040: df2e 9e3a 4c54 22be 7373 84bd 8e2c b03d
00000050: bad2 0fba 4952 d6b8 2a69 743d fb76 993d
00000060: a092 99bd 30c8 9cbc 1a40 a6bd 5374 313e
00000070: 4b83 ac3c c15f e63d 5ec1 d7bd 21ce c4bd
00000080: eb2a cebc 4685 9a3d c0f7 0ebe cde2 96bd
00000090: 38a0 233c 614d 23be 4fa6 06bd 31ef 0cbe
000000a0: dbb2 f8bd 00d4 0f3e 0529 ca3a 10ca a33c
000000b0: e6a2 953d 6011 333c 1ad9 c4bd 02c9 993d
000000c0: 769c abbc 50b4 9c3d 2a20 f53d b2ad bd3d
000000d0: 7769 02bd c795 4f3d 77c5 df3c 04c3 683d
000000e0: 170f 40be 792b 123e c9bd 98bd a56c 39be
000000f0: 099d e03d 38e6 febd 249c 943d f30d 2bbe
00000100: a769 20be c2df 0e3e c3c5 863d 4e86 dfbd
00000110: 7bda 77bd 89b0 dfbc bc92 113e 284d 603d
00000120: f7ec 84bc 41af 2f3d 98f1 953d cebe 4abc
00000130: 9d58 9e3d 9eec 273e 869e d43d 03ef e43d
00000140: cb01 06be 7adc d7bd 1d5a 183e 8d68 d7bd
00000150: 2a89 22be c6ee 26be 4e8f 513d e7dc 65bd
00000160: 2d86 a93d dcdc eebd 5332 a5bd 946c d33c
00000170: cd58 cfbd 3236 a93d f571 ee3a 6e60 b43c
00000180: 4a61 96bc a38d 183e a414 b4bc 999e ddbd
00000190: e1ee c7bd d6a0 e03d 50b4 d83d 9f86 393c
000001a0: b177 623d 6e2b 453e 73fb 3a3e acf7 85bd
000001b0: cdd7 e83d 80b3 1fbd e884 cdbd 29b7 d53d
000001c0: 96c3 1d3e e802 d1bd 71ec febd 3fa0 e8bd
000001d0: 5fa7 4d3e a2d3 67bd db17 8dbc dffc a3bd
000001e0: ae75 c6bd 5ae8 1fbe 278f 903d 0cae 923c
000001f0: 74ba 233b 704e c4bd 2bb7 d03d 19c1 cfbb
00000200: 00be 833d 45b3 15bc 6ad0 2bbd 006c bcbd
00000210: b897 dcbd 2473 2f3d e88d 1ebd 4569 07bd
00000220: c563 403d 3033 6f3d 457d 2f3d 158c 003d
00000230: 339a 8d3d 71be 993d b67c aabd bf03 0f3e
00000240: 55f5 19bc 795c a13d 0701 3e3e f51b 843d
00000250: 0286 523e 2fcc a13b 7202 903d 8021 133e
00000260: 32e3 a93d e2ee ce3d b033 d13d e98f ed3d
00000270: bcf5 27bb b0eb ffbd e69a f5bd c963 3dbd
00000280: 98e3 2ebe f763 1b3d e0ca e5bb 9f59 2c3c
00000290: 4fca 103e 024c 2fbe a27a fbbd f32d be3d
000002a0: f6a8 c8bd 10a5 e9bd 82ec b0bd ef76 96bd
000002b0: f5d4 ef3d 0943 983d 3cd6 e73d b97a 28bd
000002c0: 657f bfbd 5b6e 043d 350f eb3c 90b2 253d
000002d0: 5c73 853b 547e c538 e181 14be bb97 2ebe
000002e0: dc3f 3fbd 7025 6abd 36fc d6bd c887 20be
000002f0: 21d2 e43b 890d 27bd 781c f9bb f51a 7b3c
00000300: 65c5 febd 3f2d 043d 4935 4bbd b907 743d
00000310: 938f 943d 611d 99bd 9379 a23c 6b31 88bb
00000320: b0ef 2abd fdc3 d1bd 2a00 9e3d f057 70be
00000330: 5624 de3d 1b2e cfbd 76f9 98bd 1027 49be
00000340: b1f4 51be f5be 5dbe 5427 10bd 86e2 953c
00000350: 4e30 63be 619c eebb ba76 123d f6e5 9abd
00000360: 0fb0 653d dc21 58bd ec05 34be 4e37 043d
00000370: 3d9d db3d 2208 853d b8d2 0abc 7909 21be
00000380: 1108 edbd af6d e5bc 8b5f 3ebd 401a a63d
00000390: d5da 2f3d 25e3 703d 722d 0dbe d738 0abe
000003a0: 37aa 06be 97fa e9bd 9904 03be 96e2 c73d
000003b0: c500 e33d 1d83 c83d 4c48 babd e53f 153d
000003c0: e36c 883d 44f9 1c3e 4d50 0f3d f215 e33c
000003d0: 1c07 6b3c f1ed 533d 1bc5 c83d a3b4 073e
000003e0: 933a e9bd 3d02 62bd 8ba1 47bc f98e a1bc
000003f0: 1d06 1dbd f90f 2a3e 7ac9 0e3e d106 b63d
0.19834706 0.08015003 0.0670099 -0.08193599 -0.10488757 0.012706551 0.10095165 -0.013792224
-0.06576159 0.016307397 -0.1579891 0.11255516 -0.06402091 -0.19090499 0.018196661 0.106865086
0.0012068412 -0.15852469 -0.06467333 0.08602248 -0.0005486418 -0.00010219642 0.059670605 0.07493397
-0.074986696 -0.019138426 -0.08117695 0.1732953 0.0210587 0.11248732 -0.10534929 -0.096096285
-0.02516695 0.07544951 -0.13961697 -0.073674776 0.00998693 -0.15947486 -0.032873448 -0.1376312
-0.12143489 0.14045715 0.0015423602 0.019993812 0.07306461 0.0109294355 -0.09611721 0.07509042
-0.02094863 0.076515794 0.119690254 0.092616454 -0.03183886 0.05067995 0.027315838 0.056826606
-0.18755756 0.14274396 -0.07458074 -0.18107851 0.10967452 -0.124462545 0.07256344 -0.1670454
-0.15665303 0.13952544 0.06580689 -0.109142885 -0.060511094 -0.027305858 0.14216131 0.054761082
-0.016226275 0.042891745 0.07321471 -0.012374593 0.077317454 0.16398856 0.103817984 0.111784
-0.13086621 -0.105400994 0.14878125 -0.10517988 -0.15872636 -0.16302022 0.051162057 -0.056118872
0.08277545 -0.11663219 -0.08066239 0.02580861 -0.10124359 0.0826229 0.0018191921 0.022018638
-0.018356938 0.1489778 -0.021982498 -0.10821266 -0.097623594 0.10968177 0.10581267 0.0113236
0.055289928 0.19254848 0.18259983 -0.0654138 0.11369286 -0.038989544 -0.100351155 0.10435326
0.15406641 -0.102056324 -0.12447441 -0.113586895 0.20083378 -0.056598313 -0.01722329 -0.08007216
-0.09690414 -0.15615979 0.07058554 0.017905258 0.002498296 -0.09585273 0.101911865 -0.0063401577
0.06432724 -0.0091369795 -0.041946806 -0.09200287 -0.107711256 0.042834416 -0.03870955 -0.033059377
0.046970148 0.058398426 0.042844076 0.031383593 0.06914177 0.07507027 -0.08324568 0.13966273
-0.009396871 0.07878966 0.1855508 0.06450645 0.20558932 0.0049376707 0.070317164 0.14368248
0.08295287 0.10104157 0.10214937 0.11599714 -0.0025628647 -0.12496126 -0.11992435 -0.04623774
-0.17079008 0.03793713 -0.00701271 0.010519414 0.14139675 -0.17118838 -0.1227925 0.09286108
-0.09797852 -0.11408436 -0.0863886 -0.073469035 0.1171054 0.07434661 0.11320159 -0.041132662
-0.093504705 0.032331806 0.028693775 0.040453494 0.00407259 9.4172225e-05 -0.1450267 -0.17050068
-0.04669176 -0.05716461 -0.10497324 -0.15676796 0.006983057 -0.040784393 -0.0076022707 0.015326251
-0.12439994 0.032269713 -0.049611364 0.059577677 0.07253947 -0.07476307 0.019833362 -0.0041562817
-0.04173249 -0.1024246 0.07714875 -0.23471045 0.10846774 -0.10116216 -0.07469456 -0.19643807
-0.20503499 -0.21654876 -0.035193756 0.018296491 -0.22186396 -0.0072818254 0.035757758 -0.07563393
0.056076106 -0.052766666 -0.17580384 0.032279305 0.1072335 0.06495692 -0.008473091 -0.1572627
-0.11573804 -0.028006403 -0.046477836 0.081104755 0.042933304 0.058810372 -0.13786867 -0.13498245
-0.1315087 -0.11424749 -0.12794723 0.09760015 0.11084131 0.09790633 -0.09095821 0.036437888
0.066613935 0.15329462 0.03498869 0.027720425 0.014344957 0.05174059 0.0980322 0.13252501
-0.11388125 -0.055177916 -0.012184511 -0.019721495 -0.03833591 0.16607656 0.13944045 0.08888019

layer2.0.bias f4 [8]
00000000: 2b2f c73d 8fd5 813d ff4e 393d 8513 10be
00000010: dd7f 33bd 1ce8 07be dd98 b0bd 5a68 913d
0.097257935 0.06339561 0.045241352 -0.14069946 -0.04382311 -0.13272136 -0.08622906 0.070999816

layer2.1.weight f4 [8]
00000000: 3b97 813f f4c8 7f3f 558c 7b3f caeb 823f
00000010: fba5 7b3f 47d9 833f 5097 7a3f a099 7f3f
1.0124277 0.99916005 0.98261005 1.0228207 0.9830014 1.0300683 0.97887135 0.9984379

layer2.1.bias f4 [8]
00000000: a6eb 4b3d ba3d bebb e8ed 0bbd 801e 2fbd
00000010: ecc9 0c3d d896 973d 7704 803d fc29 d5bd
0.04978528 -0.005805698 -0.034162432 -0.042753696 0.034372255 0.07401818 0.062508516 -0.104083985

layer2.1.running_mean f4 [8]
00000000: aea1 b93c 7dff bcbd b980 a63e a8c0 12be
00000010: 7ea8 8e3e f5b6 9abf c116 f7bd 0952 233d
0.022660103 -0.09228418 0.32520083 -0.14331305 0.27862924 -1.2087084 -0.12064887 0.039873157

layer2.1.running_var f4 [8]
00000000: 8b2c 603e b88a cc3e 4d7d 863e 0a1e 9a3d
00000010: 0722 0c3f f526 ee3f b21b 773e b925 813d
0.21891992 0.39949584 0.26267472 0.07525261 0.5473942 1.8605639 0.24131659 0.06306023

layer3.0.weight f4 [16, 8, 3, 3]
00000000: 1816 29bd 7785 2d3d fc81 12bc aa5f 013c
00000010: 6fa1 90bd e0e7 d8bd 26db 5bbb af8f e8bd
00000020: fb32 113d e09c 11be 6877 86bc f783 ef3d
00000030: 2e9f 8fbd 9bce cfbd ab99 c6bd 698e 9f3d
00000040: 78a6 4fbd 7cf2 babd b43f 583d 174d 883d
00000050: c8b5 c03d b1d2 82bd 3a6b 773c 6391 543d
00000060: 71a1 b9bc e589 7c3d e888 0ebc 9992 053e
00000070: e07e 053d 6037 6a3c 6744 b33d 276c f43c
00000080: 94f5 8f3d 7751 77bd 7fb2 483d b368 1d3d
00000090: 6e67 93bd 481d c03c 7f09 ecbd a434 d03c
000000a0: 8f28 9f3d 0769 9cbd b99b 4e3d 2ed5 aabd
000000b0: eee9 ce3d 46d8 873d aa95 a73d e14f 193c
000000c0: 937b c8bc 57e8 943d 1286 f03c dca2 343d
000000d0: 2d38 51bc e2a9 213e 957e 083e 26c0 efbc
000000e0: 4ccf 91bd d6ba b3bd 12dc 87bd 9e65 f7bd
000000f0: a3ea 89bd 005b 1f3c 46a5 373d 8ad2 0e3c
00000100: d6b3 dabd 176b 9fba 4036 5fbd 7cf2 243c
00000110: 5d6c c53d 89a2 98bc f63c 913d f380 d33b
00000120: e3f7 d7bd c735 d4bd a8d8 943d 5c32 a4bd
00000130: bce5 b1bd 970a b1bd d268 06bd 3163 b5bd
00000140: a13e ccbd 66b2 73bc dada 303d 5f4b 51bd
00000150: d04e c4bc 4b42 61bd 5d63 30bd 803d 0bbd
00000160: 2593 04be 7341 9fbd 8dba 723d acc0 f739
00000170: a65f c83d 6c67 053e 5da4 113c 607a e2bd
00000180: 58e2 9cbb 7cd1 ca3d 368e a1ba 9eac 0f3a
00000190: cd77 af3d 562f e83d 1753 b0bc 86c5 dbbd
000001a0: 2798 5f3c 19ee f83d 9721 a4bc 26e1 4bbd
000001b0: e35f 06bd cb22 a8bd ced8 a63d d1ca 823d
000001c0: 19d4 c43d 6d80 0f3d 6fcb b63c bae2 4a3c
000001d0: 310c b4bd 2176 3dbc 372d e13d db3a 5d3c
000001e0: 0e49 a93d 8974 233e 0f04 29bd 7438 2ebc
000001f0: f9dd a73d af3d 323e 97c7 fd3b e9d5 54bd
00000200: f083 8e3c 60e7 7dbd 2006 84bd 4e0f 3ebd
00000210: c26e 4ebd a29e b93d 8082 57bc 658d 163d
00000220: 738f 06bd e861 f03c 6048 a33c 8b14 6b3d
00000230: cca8 e83d 851b 853d 7bcf 253d e49d 8f3c
00000240: 67e1 96bd 6b65 893d eebe c53d 09f1 3ebc
00000250: a21c 6bbd 98b8 d5bd 9a5a 14bd d8fd e9bc
00000260: 40f1 a0bd 274f b23d e10b ab3d 232b 23be
00000270: 661d 40bd c778 ccbd 5a44 ad3d 6235 44bd
00000280: f955 4d3b c95c d53d 2044 c93d a01c b93d
00000290: 6a00 a7ba 2b37 74bd f863 e8bc 6a72 8c3d
000002a0: 125c 87bd 6e58 42bd 1ddc d9bd 2415 173d
000002b0: 44c9 5fbd 2eb7 453d 20d5 20bd c5df 74bd
000002c0: 7ed6 4a3d 447d e83d e938 bf3d 6a20 383c
000002d0: b947 23be d93c 64bd a473 a73d ded3 b13d
000002e0: 4175 90bd 7031 213d d610 9e3d 4ae1 5d3d
000002f0: f41f dcbc 0f35 73bd 5b8e f93d be85 afbd
00000300: d1ff f5bc 61ac a33d ce2b 18bd f7d0 f1bb
00000310: e2e6 313d fb6d 643d 29a7 b7bc 3d64 07be
00000320: 8839 ddba 01ae 023c 9ab6 453d 7079 dbbc
00000330: 2774 82bd e153 d23d 0814 9e3d 0773 a2bd
00000340: 8da1 173e c8a2 ed3d aa29 a2bd 483d 753d
00000350: 3239 853b 9939 6e3c fa71 873c 8fa8 0dbe
00000360: b497 87bd f9c0 bdbc caa5 cbba 9558 993d
00000370: b843 5dbd 250e 7ebd 2ba7 8a3d 4cd8 903d
00000380: 8ffc 42bd d5e5 633d d94b b33c 65f3 ddbd
00000390: 6818 a63c 4ff6 293d 401a 373d 3124 26bd
000003a0: bf17 36bd 7867 373d 9dae 833c 9bba 163d
000003b0: 2e44 e23d 9612 a2bc 1c9a 863d f2d1 a03d
000003c0: d723 dfbc cb57 64bd 2bfa 243d 7264 363d
000003d0: ef22 fcbc ec28 ba3c b54f ea3d 672f 8e3d
000003e0: 9ded 2bbd 7100 f93c 05a8 d83d 1021 b73c
000003f0: d8a1 bbbd ecdb aabd 24c8 8d3d b70d 213d
-0.041280836 0.04236361 -0.0089421235 0.007896343 -0.07062041 -0.10591102 -0.003354737 -0.113555305
0.03544901 -0.1422 -0.01641436 0.11695092 -0.07012783 -0.10146829 -0.096972786 0.077908345
-0.050695866 -0.091282815 0.052795127 0.06655329 0.09409672 -0.063878424 0.015101248 0.051896464
-0.02265999 0.061654944 -0.008699633 0.13044204 0.0325917 0.014295429 0.08753281 0.029836727
0.07029262 -0.060380425 0.048998352 0.038429927 -0.07197462 0.023451462 -0.11525249 0.025415726
0.07771408 -0.0763722 0.050441477 -0.08341442 0.10103212 0.06633048 0.08182843 0.0093574235
-0.024472987 0.07270878 0.029360805 0.044100627 -0.012769741 0.15787461 0.13329537 -0.029266428
-0.07119617 -0.087758705 -0.06633772 -0.12079929 -0.067342065 0.009726286 0.04483535 0.008717189
-0.10678832 -0.0012162653 -0.054495096 0.010067578 0.09639809 -0.01863219 0.070917055 0.006454581
-0.105453275 -0.1036182 0.072678864 -0.08017418 -0.086863965 -0.08644598 -0.03281481 -0.0885681
-0.09972883 -0.0148740765 0.043177463 -0.05109727 -0.023963362 -0.054994863 -0.04306351 -0.033994198
-0.12946756 -0.07776155 0.05925994 0.00047255063 0.097838685 0.13027734 0.008889285 -0.110584974
-0.0047877245 0.09903237 -0.0012325707 0.0005480739 0.08567772 0.113371536 -0.021523995 -0.10731034
0.013647116 0.121547885 -0.020035548 -0.049775265 -0.03280629 -0.08209761 0.08146821 0.063863404
0.09610767 0.035034586 0.022313802 0.012383157 -0.08791388 -0.011563809 0.10994952 0.013502802
0.08265887 0.15962423 -0.041263636 -0.010633577 0.08196635 0.17406343 0.00774474 -0.051961813
0.017396897 -0.061988235 -0.06446481 -0.046401314 -0.050398596 0.0906346 -0.013153672 0.036755938
-0.032851648 0.02934356 0.019931972 0.05739264 0.113603204 0.064993896 0.040481072 0.017531343
-0.07367211 0.06708797 0.096555576 -0.011654147 -0.057400353 -0.10435599 -0.036219217 -0.028563425
-0.07858515 0.08706503 0.08351875 -0.15934424 -0.046903037 -0.09983974 0.08460303 -0.047902472
0.0031331761 0.10418088 0.09827447 0.09038663 -0.0012741212 -0.059622925 -0.028367981 0.0685776
-0.06609358 -0.047447614 -0.106376864 0.036885396 -0.0546353 0.048270397 -0.03926575 -0.059783716
0.049520962 0.113520175 0.093370266 0.011238197 -0.15945329 -0.05572209 0.081763536 0.086829886
-0.070536144 0.039353788 0.07718055 0.05416993 -0.026870705 -0.059376772 0.12185355 -0.08570431
-0.03002921 0.07991863 -0.03715115 -0.007379647 0.043433078 0.055768948 -0.022418575 -0.13221832
-0.0016878108 0.007976056 0.048269846 -0.026791304 -0.063698106 0.10269905 0.077186644 -0.07932096
0.1480772 0.11603314 -0.07918103 0.059872895 0.004065656 0.0145401 0.01653384 -0.13833831
-0.06620732 -0.023163306 -0.001553708 0.07487599 -0.05401966 -0.062025208 0.06770166 0.07072505
-0.04760414 0.055639107 0.021886753 -0.108374394 0.02027531 0.041494664 0.04470277 -0.04056186
-0.04445624 0.04477641 0.016074473 0.036799055 0.110481605 -0.019784253 0.06572363 0.07852544
-0.02723877 -0.05574779 0.04027764 0.044529386 -0.030778376 0.022724591 0.11440984 0.06942635
-0.041974653 0.030395718 0.10578922 0.022354633 -0.091617286 -0.08342728 0.069229394 0.03931972

layer3.0.bias f4 [16]
00000000: 0f07 783d 3c0f e73c 9240 d2bd ae36 e4bd
00000010: f3d7 ed3d 847c afbd 3a71 a53d b0e2 6b3d
00000020: 88b0 4fbd 73db b83d 6c98 d23d bd69 c7bd
00000030: f5a2 573d 2e83 a73b d907 92bc 37d6 bdbd
0.060553607 0.028205507 -0.10266222 -0.11143242 0.11613455 -0.08568671 0.08078237 0.057589233
-0.050705463 0.090262316 0.102829784 -0.09736965 0.052645642 0.0051120734 -0.017826008 -0.09269374

layer3.1.weight f4 [16]
00000000: 8603 813f 961a 873f 045d 763f 5d1e 833f
00000010: 796d 7b3f b3bd 773f 298f 803f dfae 823f
00000020: 275e 7a3f 7431 803f 2df6 803f 8087 803f
00000030: 199e 7c3f 748e 743f 07cd 6c3f 1b4c 7b3f
1.00792 1.0554988 0.9623568 1.0243641 0.98213917 0.96773833 1.0043689 1.0209616
0.97799915 1.0015092 1.0075127 1.0041351 0.9867874 0.95529866 0.92500347 0.98163

layer3.1.bias f4 [16]
00000000: 0f44 05be 1bac 36be 02c4 e2bd 2bf5 1bbe
00000010: a5a9 e7bd 22d6 03be 8b00 e8bd 9cd0 66bd
00000020: b235 fbbd 2ca8 f8bd be46 11be 4a27 35be
00000030: be45 23be 261c cbbd 9d2f adbd 5dd6 01be
-0.13014244 -0.1783909 -0.11072542 -0.15230243 -0.11311654 -0.12874654 -0.113282286 -0.05635129
-0.12266101 -0.12141451 -0.14187142 -0.17690769 -0.15944573 -0.09917478 -0.08456347 -0.1267943

layer3.1.running_mean f4 [16]
00000000: 79b8 8e3d 18d4 033e 4ef5 84bd 1235 f13d
00000010: 80a2 cb3e 823e 063e ac9c 2f3e 35ca 10bf
00000020: 9e0d b8bd e4ba ad3d a632 55bd dc83 88bd
00000030: 5836 553c cf5b 513e c896 813e 13d1 57ba
0.06968779 0.12873876 -0.06492101 0.117777005 0.39772415 0.13109782 0.1714961 -0.56558543
-0.08986972 0.08482912 -0.052050255 -0.06665775 0.013013445 0.20445178 0.2531035 -0.00082327536

layer3.1.running_var f4 [16]
00000000: 1da9 2d3e 1f22 033e 3164 383e c89a 1c3e
00000010: da78 313e dc1f 213e 6179 793e c052 833e
00000020: 5c86 4c3e f1a7 273e e05d 213e 88d5 f33d
00000030: 3c1d 1d3e d83a 353e b6fc 1c3e d12e 113e
0.16959043 0.12805985 0.1800697 0.1529342 0.17331257 0.1573481 0.24362709 0.2564907
0.19973129 0.16372658 0.15758467 0.11905962 0.15343183 0.17698228 0.15330777 0.14178015

layer4.0.weight f4 [32, 16, 3, 3]
00000000: e042 16bd c62b 56bd 1e20 d8bc 3c46 9cbb
00000010: a59c 163d 3a01 d2bc e751 f7bc 2f2e f23c
00000020: 0b3e 073d aacc 8dbc b53a c7bd 0d65 27bd
00000030: 14bf 11bd c4ff 323d e290 5d3d c1f5 013d
00000040: d0a8 54bd 8dc2 b73c 29fd ca3c 9548 433d
00000050: 3478 21bc 32c5 7abd 8260 87bc d268 cd3c
00000060: ce7b 063d ad0c 683c c3fe c73d ed68 b8bd
00000070: c7c1 143d bbe7 893d 7d2f 323d 8218 88bc
00000080: 02ac 3ebd 691d a63c ae58 b13d 6d9d 853c
00000090: 573b 07bd d5c0 6abd 34a8 0e3c 2ae5 59bc
000000a0: c347 edbb 1cb3 fbbc e92c a43d 6975 17bd
000000b0: 2c29 863d 06fb 3b3b 2662 babc 4468 f9bc
000000c0: 6b27 3a3c a404 9cbc d03a 8e3d e7ce 7d3c
000000d0: 7c6d a33c be34 94bc 0047 9d3d 7f92 123d
000000e0: f780 55bb 0c11 49bd b6ae 9ebc 7453 3a3d
000000f0: 1872 8f3d f47a 603d 6dde f53c 688b de3d
00000100: 13f5 8c3c 8304 4cbd aa69 4cbc 906f 3a3c
00000110: 7296 46bd ba5e d3bc 4193 463d e184 85ba
00000120: 6cda cdbc a42e 4f3d 52e0 823d 0893 11bd
00000130: 0593 82bd 1e04 043d 3872 2c3d bd66 1dbd
00000140: 497a 833d 724a 8fbc 2766 1b3c 5858 b2bb
00000150: 3a15 0d3d 8ea0 6c3d cc1f 913c f31b 933c
00000160: 523e 7bbc e542 d93c 110c cd3c b173 8d3c
00000170: 5c4d 133d b001 4bbd 2dba d13c 8c0a 17bd
00000180: cdfe 62bd dc38 7e3d 6e9f db3d 015d 65bd
00000190: 8719 b33c 5ede 893d bd12 b2bd 4f37 163d
000001a0: dd9d 033d e20c 90bc d806 013d 0097 8c3d
000001b0: 0cf7 40bd 5778 6fbb 282b a8bc 8418 ffbc
000001c0: 07d6 9a3c d706 7a3d 8000 2fbd 3d2a a0bd
000001d0: b3db 9b3d 0b0e a7bc 2428 c9bb 735d cfbc
000001e0: d4d4 94bd 2f88 0e3d 507b 4f3d 59a7 d6bc
000001f0: 0ef1 833d 13a9 263d 073b 06bd c024 3fbd
00000200: 95c4 4c3d 7ad4 4bbd 2f49 5e3d 983e 923d
00000210: 95ed 9d3c c9a6 2cbd e352 873c 2217 82bd
00000220: 949d 953c 9901 543d a356 72bc 5ee8 13bc
00000230: 0d6a 17bd 8fbc e63c b62c 473d ac9a ca3d
00000240: 1d68 e83b 8509 7bbc 776d d13d ed46 97bd
00000250: 934f 76bd 711b 113d a88e 3dbd 795f 86bd
00000260: b94b 64bd 3b2c 1abd 40cf 713d 7d8d 86bc
00000270: 55d8 96bd ff51 30bd 644a 963d de20 9bbc
00000280: 88ae 96bd 08f5 18bd c2ce 2abd fb6a ac3b
00000290: e0de a53d 7a93 2cbc e7a3 31ba 111a c03d
000002a0: a7bd 6cbd a365 5abd 4574 5bbd 3016 2bba
000002b0: 66f4 8d3d f6a2 45bd 195e 22bd 19fb 25bd
000002c0: e294 8fbd b054 95bd acba a4bd 9607 6fbd
000002d0: 3dd3 983d a14e 13bc bc81 1b3b 20a6 a3bd
000002e0: aac4 a3bc 7c9c 923d d9d4 11bd caa9 173d
000002f0: 1b52 ed3d 8067 68bd 5373 22bd 0520 783c
00000300: 9207 c9bc c2aa 9fbd 8c86 023d ffe6 6ebc
00000310: 7cd0 36bc ff9a 70bd 5f61 52bc f18c 0b3d
00000320: 8341 053e 748a 05bc d318 be3c 62db c83c
00000330: 56d7 133d 64bc 2e3d ec84 78bc 9085 4a3d
00000340: 1cab dc3c f0e8 e13b dc80 153d 69d0 2fbd
00000350: 5283 33bd 5ca1 a03d 51e6 8abd 73cc e43a
00000360: 0375 7a3a 9ae0 68bd 3952 2ebd e9b1 17bd
00000370: 92f4 4a3d 9e35 4ebd 06a8 bdbc ee15 c43a
00000380: eb29 c03c 0576 c83d f4a2 a83b c784 df3c
00000390: fdbe 00bc 27fa f0bc 70ef f0bc 4380 c83d
000003a0: 838f 84bd 3786 5e3d 62c2 8d3c 8f45 233c
000003b0: 23b1 a53d 0626 c7bb c005 62bd 8fb4 a0bc
000003c0: ae68 93bd 9637 b0bd 90c7 82bd 1870 21bd
000003d0: 3bda ae3c 88b0 ff3d 445d 80bd 86b5 e93c
000003e0: 459a 9d3c b11c c1bb 24af a03b 8385 443c
000003f0: 6e9b 7cbd 4edf 243d 3202 fdbc 7c9b e03c
-0.03668487 -0.05228784 -0.026382502 -0.004769115 0.03677048 -0.02563535 -0.030190421 0.029563038
0.033018153 -0.017309505 -0.09727994 -0.040867854 -0.035582617 0.04370095 0.05409325 0.03172851
-0.051918805 0.022431636 0.02477892 0.04767664 -0.009855319 -0.061223216 -0.01652551 0.025074396
0.032832913 0.014163178 0.09765389 -0.09004388 0.036317613 0.06733652 0.04350232 -0.016613249
-0.04655076 0.020277696 0.086594924 0.016310418 -0.033015575 -0.057312805 0.008707095 -0.013299266
-0.0072412207 -0.030725054 0.080163784 -0.036977205 0.06550822 0.0028683557 -0.022751879 -0.030445226
0.011361937 -0.019045182 0.06944811 0.015491224 0.019949667 -0.018091556 0.07679558 0.03578424
-0.003257809 -0.049088523 -0.019370418 0.045489743 0.070041835 0.054804757 0.030013287 0.108664334
0.017206704 -0.04980899 -0.012476364 0.011379138 -0.04848332 -0.025802005 0.048480276 -0.0010186696
-0.025128566 0.05058159 0.06390442 -0.03554061 -0.06375698 0.03223049 0.042101115 -0.038428057
0.064198084 -0.017491553 0.009484804 -0.0054426603 0.03444407 0.057770304 0.017715357 0.017957663
-0.015334683 0.026521156 0.025030168 0.01726708 0.035962448 -0.049562156 0.02560147 -0.036875293
-0.05541878 0.062065944 0.10723768 -0.0559969 0.021862758 0.06731866 -0.0869498 0.03667384
0.032132972 -0.017584268 0.031500667 0.068647385 -0.047110602 -0.0036540234 -0.020528391 -0.03113962
0.018900884 0.06104168 -0.042725086 -0.07820556 0.07610264 -0.020392438 -0.0061388183 -0.025313115
-0.07267156 0.034797844 0.05065471 -0.026202844 0.06442462 0.040688585 -0.032771137 -0.046665907
0.049992163 -0.04976318 0.054269012 0.07140845 0.019278327 -0.042151246 0.016519016 -0.063520685
0.018263616 0.051759336 -0.014791164 -0.009027569 -0.036966372 0.028166084 0.048626624 0.098927826
0.0070924894 -0.015322094 0.10225957 -0.07386575 -0.06013448 0.03542656 -0.046278626 -0.06561179
-0.055736277 -0.037639838 0.05903554 -0.016424889 -0.07365481 -0.043046948 0.07338408 -0.01893657
-0.07357508 -0.037343055 -0.041701086 0.0052617765 0.08099151 -0.010533208 -0.00067764375 0.09379972
-0.057798054 -0.053319585 -0.05357768 -0.00065264385 0.06931381 -0.048251115 -0.03964052 -0.04052267
-0.07010819 -0.072915435 -0.08043417 -0.058356844 0.074621655 -0.008990915 0.002372845 -0.0799067
-0.019991238 0.07158753 -0.035603378 0.037027158 0.11587926 -0.05673933 -0.039660763 0.015144353
-0.024539743 -0.07796241 0.031866595 -0.014581441 -0.011158105 -0.058741566 -0.012840598 0.03406996
0.13013272 -0.008150686 0.023205196 0.024518672 0.036094032 0.042660132 -0.01516841 0.04944378
0.02693706 0.0068942234 0.036499843 -0.042923365 -0.04382641 0.07843277 -0.067822106 0.001745595
0.0009554179 -0.05685482 -0.042558882 -0.037034903 0.049549647 -0.050344102 -0.023151409 0.0014960149
0.023457488 0.097881354 0.0051463787 0.027284993 -0.007858035 -0.029416157 -0.029411048 0.09790089
-0.06472685 0.054327216 0.017304603 0.0099653145 0.08090427 -0.006077531 -0.055181265 -0.019617347
-0.071977004 -0.08604352 -0.0638572 -0.03941354 0.021344295 0.124848425 -0.06267789 0.02852894
0.0192386 -0.005893313 0.004903691 0.011994722 -0.061671667 0.040252022 -0.030884836 0.02741789

layer4.0.bias f4 [32]
00000000: ae71 4f3d 46f0 74bc 5e7f cabb 9356 48bd
00000010: 0d70 54bd 46ca a3bc e0ce cbbc 1ce7 9b3d
00000020: 61b1 68bd 475e d23c b350 4fbd 1be6 583d
00000030: 2b54 97bd 9574 273c 30b7 a43d 7fff 9dbd
00000040: 4643 9e3b 79b8 5d3d b663 eb3c 0fb5 fabb
00000050: ce31 e13c 8a6f edbc 8648 3d3c c355 6cbd
00000060: d6cc ed3c 7a23 883d b027 873a 56dc 79bd
00000070: 37fe 833d 9bca 5cbc ae78 6bbd 11cc 0c3b
0.050645523 -0.014949864 -0.006179734 -0.04891069 -0.051864672 -0.019993912 -0.02487892 0.0761244
-0.056809787 0.02567972 -0.05061407 0.05295382 -0.07389101 0.010220666 0.08042753 -0.07714748
0.004829797 0.054131005 0.02873407 -0.0076509784 0.027489569 -0.02898385 0.0115529355 -0.057698976
0.029028337 0.066473916 0.001031151 -0.061001144 0.06444972 -0.013476039 -0.057488136 0.0021483938

layer4.1.weight f4 [32]
00000000: 40a0 883f e6c0 8a3f f59c 8d3f 60e8 8b3f
00000010: 9f70 893f 1f64 883f 1384 893f e888 863f
00000020: 2793 893f 0ca0 863f 2d36 853f 1a73 8d3f
00000030: a342 8e3f b5c6 873f 94c3 873f db1a 873f
00000040: d56c 893f 247b 883f ce09 873f 5611 873f
00000050: 2491 8b3f 59df 893f 642d 893f 524a 863f
00000060: 915b 873f da58 883f 3070 873f dc90 8b3f
00000070: b38b 8a3f cf3f 8a3f 4f36 8a3f 9f2b 8a3f
1.0673904 1.0840118 1.1063524 1.093029 1.0737494 1.0655555 1.0743431 1.051053
1.0748032 1.0517592 1.0407158 1.1050751 1.1114086 1.0607516 1.0606561 1.0555071
1.0736338 1.066258 1.0549867 1.0552166 1.0903668 1.0771285 1.0716977 1.0491431
1.0574819 1.0652115 1.0581112 1.0903583 1.0823883 1.0800723 1.0797824 1.0794562

layer4.1.bias f4 [32]
00000000: ead6 a93d 0c9e 833d cf9a a53d d4ea 8f3d
00000010: 84e0 f93c bafe 883d f7ce 0d3d f351 1b3d
00000020: 3be5 293d 1884 3f3d 8840 d43c d225 823d
00000030: 7e96 c23d 7e25 ef3c bdee fd3c 3b04 5d3d
00000040: da74 2e3d 800a 8d3d 5ece 4b3d 1018 6a3d
00000050: 7442 803d edbd a13d 482b 943d 29d8 963c
00000060: 3ba9 203d 0765 5b3d a0c2 0c3d e17d 833d
00000070: be5b 8c3d e78c a83d a576 3c3d 3797 a73d
0.08292945 0.064266294 0.08086168 0.07027212 0.030502565 0.0668921 0.034621205 0.03791995
0.041478377 0.046756834 0.025909677 0.0635487 0.0950136 0.029192682 0.030997628 0.053959113
0.042591907 0.06886768 0.049757354 0.057151854 0.06262675 0.078975536 0.07234818 0.01841362
0.03922389 0.053563144 0.034365296 0.06420494 0.06853436 0.0823 0.046011586 0.08183139

layer4.1.running_mean f4 [32]
00000000: 1229 083f 6aa5 edbe 61a7 0f3f e125 783f
00000010: 4a5e 413f 857a c0bf c618 103f dbe7 5c3f
00000020: e9a4 213f 7127 b7be 286e 943d 7413 fd3e
00000030: 17f2 293f 7176 403f 786e 283f 30ee 13bf
00000040: dafb 293f 438d 1cbf 0f33 79bf ecca 43bf
00000050: daec 573f d31c cdbf 7dcc adbf 8c85 253f
00000060: 9907 ad3d b73a dabe eb16 013e 6f15 0a3f
00000070: bffa 3abe 948c 8fbf c254 153f 479d c4bf
0.5318767 -0.46415263 0.56114775 0.969328 0.755345 -1.503739 0.562878 0.86291283
0.6314226 -0.3577228 0.07247573 0.49428904 0.66385025 0.7518073 0.6579356 -0.5778532
0.6639992 -0.6115305 -0.97343534 -0.7648151 0.8434578 -1.6024421 -1.357803 0.646569
0.08448715 -0.4262292 0.12606399 0.53938955 -0.18259715 -1.1214776 0.58332455 -1.5360497

layer4.1.running_var f4 [32]
00000000: 328f 9c3f 59d4 bd3f 36bb ae3f 3e6f 0940
00000010: 3b60 0f40 77c7 1540 9ef1 933f 2206 c83f
00000020: cdbc b03f 8880 c63f 5960 753f dfd3 973f
00000030: 7aaa c93f c6f7 0540 6276 963f a821 b83f
00000040: c3c4 b33f f30d f63f 4e1c f53f 03e5 de3f
00000050: bcef 0d40 ecfd 0d40 2ed2 2140 7146 bb3f
00000060: 6438 803f be45 f83f 2174 8a3f dc37 ac3f
00000070: 5d98 d23f ad4c f73f 1218 f43f d0b1 2740
1.22312 1.4830428 1.3650882 2.1474147 2.2402484 2.3402994 1.1558111 1.5626872
1.3807617 1.5507975 0.9585014 1.1861533 1.575515 2.093248 1.1754878 1.4385271
1.4044422 1.9223007 1.9149263 1.7413639 2.2177572 2.2186232 2.5284534 1.4630872
1.0017209 1.9396284 1.081669 1.3454547 1.6452748 1.9320275 1.9069846 2.6202278

fc.weight f4 [1, 1152]
00000000: 0541 48bc 1014 abbb e325 5abc 5954 51bb
00000010: 28bc bdbb 91a1 0bbd 5ad7 98bc 6b40 af3c
00000020: e4e6 1b3d b947 863c fcd3 19bc 6e4e 1bbc
00000030: 1ef6 313b bf63 8d3d 4a0b 8f3d d42c 8a3c
00000040: 8e61 f63c 11e7 413c 1475 80bc a361 5d3d
00000050: 964c 0e3d 92da 46bd 700e 50bd 27c1 853a
00000060: b1f6 e0bc 9220 833c d94c 273d f624 debb
00000070: bcd7 4fbc eb40 30bd 0dc3 a8bc 101f f63b
00000080: 3de1 263d 3aea a0bc c0e9 e73b 4738 a3bb
00000090: 8946 81bb af0c 65bc 9dc8 443c 2007 ccbc
000000a0: fcae 07bc 0d5c fe3c cb44 aebc 60c0 be3b
000000b0: c9bf d2bc be63 94bd 6f82 a3bc 8393 2a3c
000000c0: ed1a 13bd c655 fcbc e271 9fbc 1e42 bfbd
000000d0: 0aec 29bd d765 40bb 3945 173d 7502 3bbc
000000e0: 9c3a e9ba 14a2 38bd fdf9 04bd f86f 87bc
000000f0: 8b6c d33c 6c0d 533d df73 4e3d ce76 363b
00000100: df3e c0bc 56ab cebb 172a 00bd 6615 ff3c
00000110: a9ef 403c 5633 dabb 399e 2ebd 52b2 d8bc
00000120: fde3 01bc 9292 58bb d693 db3a 587c 1abb
00000130: f902 193c d836 84b9 8955 b03b b95c 473d
00000140: 3ec4 1a3d 1ebe 40bc 6121 b93c 849c 0f3c
00000150: 9db1 0a3c 3a44 9b3d 29ff 6a3d 32ac c03d
00000160: b91c a73d 137c 8d3d 5eb2 79bc 788d 7e3c
00000170: 3806 8bbc 13c5 2dbc 9e33 4b3d 4508 353d
00000180: 07a2 b1bb 239b 943c d9c6 2ebd b508 fbbc
00000190: 6f5b c2bc a1ba 2abd a4fb 46bc 8fe6 303d
000001a0: 9f36 a73c 60b6 e6bc 92ae 8cbc ae0d a53b
000001b0: bc1e 86bc 5c3d fdbc 8342 b53c 11eb db3b
000001c0: bd14 fb3b 7f61 143c d8ec 023d aa8d 1a3d
000001d0: 1ba1 013d ff5c ccbb f558 b639 b7de 913b
000001e0: 9f93 e53c 30fc 173a c48b 163d 2409 7a3d
000001f0: 89e7 2f3d fc50 e53c f54f b13c 1693 4c3d
00000200: 4f6f a03d b899 ba3d 2f7e 9b3d 21cb 613d
00000210: 53e3 123d 2279 533d 7076 113d bae8 f13c
00000220: 5892 c9bc 789d c43b b539 e3bc b90a c1bc
00000230: 4307 493c c00d 823c 8334 013c 93ef c0bc
00000240: e679 923c 2c7c e7bb 18cc 8d39 8c17 813c
00000250: 8831 013d d338 923b f29d 9a3c 5409 3e3d
00000260: 8fd0 da3b b9a6 f83c f512 303d a05a 2e3c
00000270: b3df cf3c cb72 893d a668 6e3d caba ad3d
00000280: a430 303d c23c 3a3d 3007 2d3d 306b 813d
00000290: fffc 433d 11ec 8e3d 1706 833d 94af 153d
000002a0: 8e3d 37bc aa38 233d 63f4 4b3c 4e79 083c
000002b0: 03b2 2e3c daee 323d 15d8 8c3b b1a7 1f3d
000002c0: 423d 313d ff41 243d c163 813c 8930 e7bc
000002d0: 422e a0bb 2673 0cbd 3940 b9bc b167 57ba
000002e0: 2733 07bd f092 a4bc a7f3 fabb 8521 4bbd
000002f0: b965 bcbc dd5d 0dbd 35c5 f6bc 2002 fdbc
00000300: fe0c 25bd c061 4ebd cec2 a5bd 8ed5 1ebd
00000310: 1333 1dbd d815 74bc f1f9 4dbd 3b7c 60bd
00000320: 49ca 7cbd d38f 81bd a5db dcbc 768f 37bd
00000330: a2cf 39bd 3ee3 93bd b6a7 92bd fc21 47bd
00000340: 2c55 21bd 5bb0 98bc 6b5d 6b3c 2fcb fcbb
00000350: 2044 35bd 12ef 52bd 2bb6 0ebd fb77 46bc
00000360: 0f59 443c 991a 07bc bf0c 7bbc 2c2a 10bd
00000370: ad46 5b3c f518 13bd bb3b b2bc 877d 803b
00000380: ed2e 5dbd 8f0a 82bd 4d88 ffbc e7c1 21bd
00000390: 4c62 203b 953a 8d3c de53 06bd 144d 2bbd
000003a0: 45e4 153c 1718 a2bb 79a5 ce3c 7510 633d
000003b0: 6609 353d c0df 6d3d 39b8 8e3d fb8d cebc
000003c0: a17d 5dbd 8358 74bc 0568 95bd 8b3e 33bd
000003d0: e022 acbc 56a4 05bd 972b bfbc 4581 04bc
000003e0: 55b9 d6bc 1572 13b7 ef22 cbbc 2171 09bc
000003f0: 39ea e8bc d36f 83bc dd19 b73c 57ba efbb
-0.012222533 -0.0052208975 -0.013314697 -0.0031941144 -0.0057902522 -0.03408963 -0.018657375 0.021393022
0.03806199 0.016391622 -0.00938892 -0.009479148 0.0027154754 0.06903791 0.06984575 0.016867079
0.030075815 0.011834876 -0.015680827 0.05404819 0.034741007 -0.04854829 -0.05079502 0.0010204659
-0.027461382 0.016006742 0.040844772 -0.0067793084 -0.012685712 -0.04303066 -0.02060082 0.007511027
0.040742148 -0.019642938 0.0070774257 -0.004981074 -0.003945176 -0.013980075 0.012010721 -0.024905741
-0.008281466 0.031049753 -0.021273037 0.0058212727 -0.025726216 -0.07245587 -0.019959657 0.010411146
-0.03591435 -0.030802619 -0.019463483 -0.09338783 -0.04148487 -0.0029357576 0.03693125 -0.01141416
-0.0017793956 -0.045076445 -0.03246497 -0.016532883 0.025808593 0.051526472 0.050403472 0.002784181
-0.02346748 -0.006307046 -0.03129014 0.031138133 0.011775889 -0.0066589518 -0.04263136 -0.026452217
-0.007927892 -0.0033046347 0.0016752433 -0.002357265 0.009339088 -0.00025217864 0.0053812903 0.04867241
0.037784807 -0.0117640775 0.022598924 0.008765344 0.008465198 0.075813726 0.057372246 0.09407844
0.08159775 0.06908431 -0.01524028 0.0155366585 -0.016970739 -0.010606068 0.049609773 0.04419734
-0.0054209265 0.018140381 -0.042670105 -0.0306438 -0.02372524 -0.04168189 -0.012144957 0.043188628
0.020411788 -0.028163135 -0.017173085 0.005037031 -0.016372077 -0.030913047 0.022126442 0.0067113717
0.0076623843 0.009056448 0.031964153 0.037732758 0.031647783 -0.006236672 0.00034780023 0.0044515985
0.028024493 0.0005797772 0.036754385 0.061043873 0.04294542 0.027992718 0.021644572 0.04994496
0.078337304 0.09111351 0.07592427 0.05512536 0.035861325 0.051629193 0.03551334 0.029529918
-0.024605915 0.006000217 -0.027737478 -0.023564683 0.012269798 0.015875697 0.007886055 -0.023551738
0.017880391 -0.007064363 0.00027045677 0.015758298 0.031541377 0.0044623404 0.018874142 0.046395615
0.006677694 0.030352937 0.04298683 0.010641724 0.025375223 0.06711348 0.05820527 0.08482893
0.043015137 0.0454681 0.042243183 0.063192725 0.047848698 0.0697862 0.06397646 0.036544397
-0.011184109 0.03984896 0.012448403 0.008329703 0.0106625585 0.043684818 0.00429822 0.038978282
0.04327131 0.040102 0.015794637 -0.028221386 -0.004888327 -0.0342895 -0.022613632 -0.00082170503
-0.033007767 -0.020089597 -0.00765844 -0.049592514 -0.022997724 -0.034513343 -0.030123333 -0.030884802
-0.040295593 -0.05038619 -0.08093797 -0.03877788 -0.038378786 -0.014897786 -0.05028719 -0.054805975
-0.06171635 -0.063262604 -0.026960203 -0.04481455 -0.04536403 -0.072210774 -0.071608946 -0.048616394
-0.039387867 -0.01863878 0.014365534 -0.007714651 -0.044254422 -0.051497526 -0.034841698 -0.0121135665
0.011984124 -0.0082460875 -0.015322863 -0.03519647 0.01338355 -0.035912473 -0.021756997 0.003921214
-0.05399983 -0.0634967 -0.031192923 -0.03949156 0.0024472652 0.017239848 -0.032794826 -0.041821554
0.009148662 -0.0049467194 0.025225388 0.055435617 0.044198416 0.058074713 0.069687314 -0.025214186
-0.054074887 -0.014913681 -0.07295231 -0.043760817 -0.021012723 -0.032627426 -0.023336215 -0.008087461
-0.02621142 -8.788445e-06 -0.024796931 -0.008388788 -0.028431999 -0.016044533 0.0223512 -0.0073159146
