data/chkbox_models/chkbox_rnd13_0_bestVal.pt (torch_old, 35085 bytes, 25 tensors)

layer1.0.weight f4 [4, 1, 3, 3]
0	0xbe442d4e	-0.19157907
1	0xbe9082ca	-0.28224784
2	0xbec5aa75	-0.3860661
3	0x3e34ea53	0.17667513
4	0xbe21765e	-0.1576781
5	0xbeaa2a6a	-0.33235484
6	0x3e5ae2db	0.21375601
7	0x3e92d6dc	0.2867955
8	0xbe5b3062	-0.21405175
9	0x3e99b401	0.30020145
10	0x3d810bc3	0.063010715
11	0x3ebacd6d	0.36484852
12	0x3e149baf	0.14512514
13	0xbe246c00	-0.16056824
14	0xbe5fe3c6	-0.21864232
15	0x3ebb0ad0	0.36531687
16	0xbd169f89	-0.03677324
17	0x3d8193db	0.06327029
18	0x3e9be5cb	0.30448756
19	0x3e24ff3d	0.1611299
20	0xbe8591f9	-0.2608793
21	0xbe31e75e	-0.17373416
22	0xbe44cbd9	-0.19218387
23	0xbc87b072	-0.016563628
24	0x3e496ead	0.19671126
25	0xbe78d100	-0.24298477
26	0xbe70c620	-0.23513079
27	0x3e8eb2d0	0.27870798
28	0x3d7978d3	0.060906243
29	0x3e8e34cd	0.2777466
30	0xbe6efc72	-0.23338488
31	0x3e9e25ae	0.30888122
32	0x3d552645	0.05203845
33	0xbe249d8f	-0.16075729
34	0x3e3ead72	0.18620852
35	0x3c196dfe	0.009364603

layer1.0.bias f4 [4]
0	0x3e713459	0.23555125
1	0x3e8933f8	0.26797462
2	0xbdce9393	-0.10086741
3	0xbd922494	-0.07135883

layer1.1.weight f4 [4]
0	0x3f795bf9	0.97405964
1	0x3f795971	0.974021
2	0x3f6c387e	0.922737
3	0x3f8a4dea	1.0805027

layer1.1.bias f4 [4]
0	0x3e0be7c5	0.13662632
1	0x3b98562c	0.0046489444
2	0x3d994bd3	0.074851654
3	0x3dfa2c71	0.12215508

layer1.1.running_mean f4 [4]
0	0xbf1ef39e	-0.6209048
1	0x3f8eeba8	1.1165667
2	0xbf0c389e	-0.5477389
3	0x3f2ef42f	0.68341345

layer1.1.running_var f4 [4]
0	0x3faffc35	1.3748842
1	0x3f8b52c1	1.088463
2	0x3ee338f3	0.44379386
3	0x3f6b05f6	0.9180597

layer2.0.weight f4 [8, 4, 3, 3]
0	0x3d6cde9a	0.057829477
1	0xbdf4a181	-0.11944867
2	0x3ce4f90c	0.027950786
3	0x3ca15608	0.019694343
4	0x3dd71e10	0.10503781
5	0x3d133ad0	0.03594476
6	0x3e0708ee	0.13187
7	0x3d97e35c	0.07416412
8	0xbda795ed	-0.08182893
9	0x3d51fb27	0.05126491
10	0x3cfda817	0.03096394
11	0xbd7c7a23	-0.061639916
12	0x3d612111	0.054963175
13	0xbd975443	-0.073891185
14	0x3e1d4e8b	0.15361993
15	0x3df20f29	0.11819298
16	0x3ddb48b8	0.107072294
17	0x3ddb4e30	0.107082725
18	0x3cc5a0c0	0.024124503
19	0x3c5bef96	0.013423821
20	0x3d37fa8e	0.044916682
21	0xbdff646a	-0.12470324
22	0x3cde0618	0.027102515
23	0xbe04315b	-0.12909453
24	0x3dda534c	0.10660419
25	0x3baac0fd	0.0052109943
26	0x3d07411f	0.03302109
27	0xbd6b01ac	-0.05737464
28	0xbe18ab93	-0.149092
29	0xbd44bd06	-0.04803183
30	0x3c399a65	0.011328314
31	0xbd6a1e69	-0.057157908
32	0xbdd7f8a2	-0.1054547
33	0x3d63735f	0.05552995
34	0xbdc79485	-0.09745125
35	0x3dea25ec	0.11433014
36	0x3c96c31e	0.018403586
37	0x3d2e91d4	0.04261954
38	0xbe098160	-0.13428259
39	0xbdc9aff8	-0.098480165
40	0x3d5800fb	0.05273531
41	0xbe3eec3e	-0.18644807
42	0xbdb2aab7	-0.087239675
43	0xbd87e423	-0.066353105
44	0x3bddad5f	0.006765052
45	0x3d88562b	0.0665706
46	0x3de404d0	0.111337304
47	0xbddb3e6a	-0.10705264
48	0x3d1a6b1b	0.0376998
49	0x3dbf969b	0.093548976
50	0x3c6820c8	0.014167972
51	0x3e008f52	0.12554672
52	0xbe3dc881	-0.18533517
53	0xbe56780a	-0.20944229
54	0x3dd05c0f	0.10173809
55	0x3cc66281	0.024216892
56	0xbe1f504f	-0.15557979
57	0x3daaa30b	0.08331879
58	0x3ce19984	0.027539022
59	0xbe2f112b	-0.17096393
60	0x3ddd4640	0.10804415
61	0x3db26440	0.087105274
62	0x3cc78538	0.024355516
63	0xbd0cb64a	-0.034353532
64	0x3d42a0a9	0.0475165
65	0xbdfd332c	-0.12363276
66	0xbdc9f4cb	-0.09861144
67	0xbe2c04cc	-0.16798705
68	0x3d6dcd59	0.058057163
69	0xbb98a497	-0.0046582925
70	0xbe359ee1	-0.17736389
71	0x3d12bf3f	0.035826918
72	0x3c14a93f	0.009073555
73	0xbe83c9ca	-0.2573989
74	0xbe2b2f08	-0.1671716
75	0xbdfcabcc	-0.12337455
76	0xbbbce4fa	-0.005764601
77	0xbe62aa61	-0.22135307
78	0x3e102c0d	0.14079304
79	0x3d47ecd1	0.04880983
80	0xbc8afe68	-0.016967013
81	0xbd984a87	-0.0743609
82	0xbe1539e9	-0.14572872
83	0x3db93b39	0.09044499
84	0x3dc9ebd4	0.09859434
85	0x3d7a7081	0.06114245
86	0xbe16c350	-0.14722943
87	0x3b770e43	0.003769771
88	0xbe2b602f	-0.1673591
89	0x3ad8597b	0.001650616
90	0x3c3c946e	0.011509998
91	0xbe5b5e25	-0.21422632
92	0x3d4c3f09	0.049864803
93	0xbd3e6777	-0.04648539
94	0xbdb37d64	-0.08764151
95	0xbaaf4d93	-0.0013374559
96	0xbdba94d3	-0.09110417
97	0x3dcdad5e	0.10042833
98	0x3d83ffcd	0.064452745
99	0x3cabb005	0.020957956
100	0x3dbb5bfe	0.091484055
101	0x3d64e8ae	0.055885963
102	0x3d2f45cf	0.042791184
103	0xbdf22a81	-0.11824513
104	0xbd40dc15	-0.047084887
105	0xbd6dded7	-0.058073845
106	0xbe506247	-0.2034999
107	0xbe28ef33	-0.16497497
108	0x3d83ba63	0.06432035
109	0xbda84fb9	-0.08218331
110	0x3dbbef26	0.09176473
111	0x3d9252e4	0.071447164
112	0xbd69d716	-0.057089888
113	0xbc1e5274	-0.009663213
114	0x3d8b65b6	0.06806509
115	0x3c8c6de1	0.017142238
116	0xbd89e057	-0.067322426
117	0xbd47e477	-0.048801865
118	0xbdcce38d	-0.10004339
119	0xbcd7ef9c	-0.026359372
120	0x3c2ae5c0	0.010430753
121	0x3d88a698	0.066724
122	0x3d6db0de	0.05803
123	0x3e05aa0c	0.13053149
124	0x3c6d9b44	0.01450235
125	0x3e2a8900	0.16653824
126	0xbd94f2eb	-0.072728954
127	0x3d4ece6c	0.050489828
128	0xbd1c6bf9	-0.03818891
129	0xbdc75f9d	-0.09735034
130	0xbe1d1dc2	-0.15343383
131	0xbbc77a67	-0.0060875895
132	0x3d1376a4	0.036001816
133	0xbd8f578a	-0.069991186
134	0xbdc14395	-0.094367184
135	0xbe1055ed	-0.14095278
136	0xbe16cb0e	-0.14725897
137	0xbdf75eac	-0.12078604
138	0x3c32512f	0.0108836135
139	0xbe46a300	-0.19398117
140	0x3d4d79c4	0.050164953
141	0x3d927b5a	0.07152434
142	0xbe11bcc4	-0.14232165
143	0xbc9618fe	-0.018322464
144	0x3e1060d5	0.14099438
145	0x3d15c0a0	0.036560655
146	0x3de9b457	0.1141135
147	0x3d0b12fc	0.03395365
148	0x3d36cfa5	0.04463162
149	0x3bdcb4b2	0.0067354077
150	0xbdbbfd02	-0.09179117
151	0x3da9fef4	0.083005816
152	0xbc416903	-0.011804822
153	0xbd9d664a	-0.07685526
154	0x3cca8fa3	0.024726694
155	0xb939d286	-0.00017721401
156	0xbe1b9e51	-0.15197112
157	0xbe04485a	-0.12918225
158	0xbe7b2d4e	-0.24529001
159	0x3ceb6ff3	0.028739905
160	0x3db7063d	0.08936737
161	0xbe4150bd	-0.18878455
162	0xbb078360	-0.002067767
163	0x3b8b55da	0.0042521777
164	0x3d24c7fc	0.040229782
165	0x3d8fb086	0.07016091
166	0xbd815586	-0.063151404
167	0xbbf14353	-0.007362762
168	0xbd4ff3f7	-0.050769772
169	0xbdde96bd	-0.10868595
170	0x3c3f1eae	0.011665029
171	0x3dda1623	0.106487535
172	0xbe093451	-0.13398863
173	0x3cfc332e	0.030786123
174	0xbdbac07d	-0.091187455
175	0xbe1390d9	-0.14410724
176	0xbdf961d6	-0.12176864
177	0x3e049d00	0.12950516
178	0xbe0d8572	-0.13820437
179	0x3d9ec1bb	0.07751795
180	0x3e19926d	0.14997263
181	0x3e0aff08	0.13573849
182	0xbe052c3e	-0.13005158
183	0x3d80e0f5	0.06292907
184	0x3e1d29e0	0.15348005
185	0xbe0a3a31	-0.13498761
186	0xbdb4f59e	-0.0883591
187	0x3df58301	0.11987878
188	0x3ca51ab1	0.020154329
189	0x3d990796	0.0747215
190	0x3b9c8ca1	0.0047775065
191	0x3c60409a	0.013687277
192	0xbbe140d4	-0.006874183
193	0x3dd2cc8e	0.10292922
194	0xbde029f4	-0.10945502
195	0xbc3bceea	-0.011462906
196	0x3cd1a74b	0.025592467
197	0x3e0d6b0f	0.13810371
198	0x3d973b92	0.07384409
199	0xbd15b12a	-0.03654591
200	0xbd9f936a	-0.07791789
201	0xbd26f54b	-0.040761273
202	0xbe0b4604	-0.13600928
203	0x3d84f17a	0.064913705
204	0xbe17d2a5	-0.14826448
205	0xbe363931	-0.17795254
206	0x3df3354b	0.11875399
207	0xbe2e3640	-0.17012882
208	0xbd8a5957	-0.067553215
209	0xbe1d4a64	-0.15360409
210	0xbd0d736a	-0.034533896
211	0xbe01dda4	-0.12682205
212	0x3dc71192	0.09720148
213	0x3e14b3d7	0.14521728
214	0x3dbb8c0c	0.09157571
215	0x3d41c328	0.047305256
216	0x3ceade34	0.028670408
217	0xbd375544	-0.04475905
218	0xbdef6531	-0.116892226
219	0xbddf57af	-0.10905396
220	0xbe45e6a1	-0.19326259
221	0x3c4e87d8	0.01260563
222	0x3daf775b	0.08567687
223	0xbe0f5140	-0.13995838
224	0xbe211979	-0.15732373
225	0xbe35d6db	-0.17757742
226	0xbdc71dde	-0.097224936
227	0xbd5b0e5c	-0.05348049
228	0x3d981f63	0.074278615
229	0x3e0692e4	0.13141972
230	0x3e2af2e7	0.16694222
231	0x3e0fee6e	0.14055797
232	0x3d314c8a	0.043285884
233	0x3de37374	0.11106005
234	0x3dec787a	0.115464166
235	0x3dccb395	0.0999519
236	0x3830bd42	4.213793e-05
237	0xbdcb3027	-0.09921294
238	0xbb3f3ac7	-0.002917932
239	0x3d9136bc	0.07090518
240	0xbdb39c70	-0.087700725
241	0xbd85b6ee	-0.06529032
242	0x3ae06365	0.0017119466
243	0xbc34b847	-0.011030263
244	0x3ddd5805	0.10807804
245	0x3e11f1ce	0.14252397
246	0x3e093ed4	0.13402873
247	0x3e32c258	0.17456949
248	0x3d569b5f	0.052394267
249	0x3d0859f0	0.033288896
250	0x3dc8f092	0.0981151
251	0x3e410a40	0.18851566
252	0xbd485264	-0.0489067
253	0xbca4d161	-0.02011937
254	0x3d56e347	0.052462842
255	0xbd6f6e87	-0.058455016

layer2.0.bias f4 [8]
0	0xbd2f0403	-0.042728435
1	0xbd85e21c	-0.065372676
2	0x3b0bd611	0.002133731
3	0xbd930654	-0.07178941
4	0x3d755528	0.059895664
5	0xbdffe0d3	-0.12494054
6	0xbc9ce086	-0.01915003
7	0xbe00dcb5	-0.12584193

layer2.1.weight f4 [8]
0	0x3f746026	0.9545921
1	0x3f7aa6ad	0.9791058
2	0x3f89f132	1.0776732
3	0x3f85ea91	1.0462209
4	0x3f7aa279	0.97904164
5	0x3f80a5a9	1.0050555
6	0x3f84f6e5	1.0387846
7	0x3f7c145a	0.98468554

layer2.1.bias f4 [8]
0	0xbd8b01ef	-0.06787478
1	0x3d2ff2e0	0.042956233
2	0x3df44347	0.11926895
3	0x3d6e27c1	0.05814338
4	0x3d8f2897	0.06990164
5	0xbcbc692b	-0.022999367
6	0x3e381b86	0.1797925
7	0x3c266038	0.010154776

layer2.1.running_mean f4 [8]
0	0x3e04e989	0.12979712
1	0xbf0ddd34	-0.55415654
2	0xbf500c0e	-0.81268394
3	0xbf006371	-0.50151736
4	0xbea327cc	-0.318663
5	0xbe090df2	-0.13384226
6	0x3ec8dac7	0.39229414
7	0x3e8669aa	0.2625249

layer2.1.running_var f4 [8]
0	0x3da9f877	0.08299344
1	0x3e7e1f07	0.24816523
2	0x3ea5085a	0.32232934
3	0x3e55efc3	0.20892243
4	0x3f1df9a5	0.6170905
5	0x3e12831a	0.14307824
6	0x3fa34c18	1.2757597
7	0x3f41c786	0.75695074

layer3.0.weight f4 [16, 8, 3, 3]
0	0x3d27d17b	0.04097126
1	0xbd434cf5	-0.047680814
2	0xbd8759cc	-0.06608924
3	0xbd409d5b	-0.047025066
4	0x3cb313d8	0.021860048
5	0xbd9cafb7	-0.076507024
6	0xbdcd9a5c	-0.10039207
7	0xbd8679fe	-0.06566237
8	0x3bf42e46	0.0074518053
9	0xbd5e6738	-0.054297656
10	0xbcce9a5d	-0.02522009
11	0xbd6a4725	-0.057196755
12	0x3d853c99	0.06505699
13	0xbd8eb182	-0.06967451
14	0x3d74808d	0.059692908
15	0x3dd4e518	0.10395259
16	0xbd0f35dc	-0.034963474
17	0xbdbdadb8	-0.0926165
18	0xbd34e514	-0.04416378
19	0x3c9c3dd2	0.019072447
20	0x3d43cdfc	0.047803864
21	0x3c741699	0.014897966
22	0x3d3e5e44	0.046476617
23	0x3d1242f8	0.035708398
24	0x3e2c3081	0.16815378
25	0xbdd68a13	-0.10475554
26	0xbe013b8b	-0.1262037
27	0xbd6b00dc	-0.057373866
28	0x3cbc837a	0.023011912
29	0x3d3790cf	0.044815835
30	0xbdf17eff	-0.11791801
31	0x3dbfaa74	0.09358683
32	0x3d518634	0.051153377
33	0xbd906934	-0.07051316
34	0xbda3c798	-0.07997054
35	0xbb0125b0	-0.0019706301
36	0xbdafcff1	-0.085845836
37	0x3e04219f	0.1290345
38	0x3c7dde94	0.015494961
39	0xbc803083	-0.015648132
40	0x3d53618e	0.051606707
41	0x3db34388	0.08753115
42	0xbca46c8e	-0.020071294
43	0x3da65aa0	0.08122754
44	0x3db4eb2b	0.08833917
45	0x3d2a2e7d	0.04154824
46	0x3bc5948f	0.0060296725
47	0xbd6a7fba	-0.057250716
48	0x3c0c0e7b	0.008548374
49	0xbccd5443	-0.025064593
50	0x3c1d460f	0.009599223
51	0xbdb9c35d	-0.09070466
52	0x3d54d428	0.05196014
53	0x3dffac1e	0.124840006
54	0x3b418311	0.0029527585
55	0x3c235e99	0.009971284
56	0xbd8160bb	-0.06317278
57	0xbc969bda	-0.018384863
58	0x3e10413a	0.14087382
59	0xbd8cbfa8	-0.06872493
60	0xbc5bc264	-0.013413046
61	0xbd579010	-0.052627623
62	0x3e2484b8	0.16066253
63	0x3c809d69	0.015700059
64	0xbd616a3f	-0.055032965
65	0x3c07b3e3	0.008282634
66	0x3d84fae1	0.06493164
67	0xbd1101ef	-0.035402235
68	0xbc827afe	-0.015927788
69	0x3d197f15	0.03747471
70	0x3c6b33f7	0.014355651
71	0xbd424d72	-0.04743714
72	0xbbb5f5cc	-0.005552983
73	0x3d832646	0.064037845
74	0xbd3498bb	-0.044090968
75	0x3dd23d4a	0.10265596
76	0x3d823b5b	0.063589774
77	0x3d8596d3	0.06522908
78	0xbb7afdb7	-0.0038298198
79	0xbc569e21	-0.013099224
80	0xbc663090	-0.014049664
81	0x3dca4d3f	0.09878015
82	0xbdbfbc94	-0.0936214
83	0x3c7f0727	0.01556567
84	0x3db06d9a	0.08614655
85	0x3dc37e21	0.095455416
86	0x3d6a107a	0.05714462
87	0x3d2b787a	0.041862942
88	0xbdf707ff	-0.12062072
89	0xbd3a06dc	-0.045416698
90	0xbd4502c1	-0.04809833
91	0xbdcf32f6	-0.10117142
92	0xbca258a2	-0.019817654
93	0xbda13b96	-0.07872693
94	0xbdd566c1	-0.104199894
95	0xbd7cface	-0.061762623
96	0x3da9cb76	0.0829076
97	0xbd818d7a	-0.06325813
98	0xbc4394fa	-0.011937374
99	0x3e17b438	0.14814842
100	0xbd06b07b	-0.03288315
101	0x3d70ef63	0.058822047
102	0x3d4e93df	0.05043399
103	0xbc5ca813	-0.013467806
104	0xbcb06cd7	-0.021536274
105	0x3db6eb07	0.08931547
106	0x3d8b07c4	0.067885906
107	0x3d2d7cd2	0.042355366
108	0x3daea420	0.08527398
109	0xbd84b52b	-0.064798675
110	0xb6635205	-3.3873378e-06
111	0x3ad4deba	0.0016240694
112	0xbd6a3ea7	-0.057188656
113	0xbd824882	-0.06361486
114	0xbc9f0295	-0.01941041
115	0xbc7ce795	-0.015436073
116	0x3c523973	0.01283108
117	0xbd58f4e8	-0.052967936
118	0xbdcff8e2	-0.101548925
119	0xbd9f4f24	-0.07778767
120	0xbdcc26b9	-0.09968323
121	0xbe2d8064	-0.16943508
122	0xbdc411b8	-0.09573692
123	0x3c68d171	0.014210091
124	0xbb87d51f	-0.004145279
125	0x3d2f979e	0.042869203
126	0xbd44ee0b	-0.048078578
127	0xbdc37310	-0.09543431
128	0xbdd01031	-0.10159338
129	0xbcfdb1e5	-0.030968616
130	0x3bc1cbe3	0.005914198
131	0xbd186e07	-0.037214305
132	0x3c8b55c3	0.017008668
133	0xbcb0ad1b	-0.021566918
134	0xbd84e82b	-0.06489595
135	0x3d97587a	0.073899224
136	0x3d460fc5	0.048354883
137	0x3c850c51	0.016241224
138	0xbda19108	-0.07888991
139	0x3ce79391	0.028268607
140	0xbd5398eb	-0.051659506
141	0x3d86e04a	0.065857485
142	0x3d9675dc	0.07346699
143	0x3c65d312	0.014027374
144	0xbbe8175a	-0.007082862
145	0xbd9b500d	-0.07583628
146	0x3d29a29c	0.041414842
147	0xbd2d459a	-0.042302705
148	0xbd2b928e	-0.041887812
149	0x3d3a5802	0.045494087
150	0xbd251892	-0.040306635
151	0x3be76e7a	0.0070627304
152	0xbd914dfa	-0.07094951
153	0xbbfe4c97	-0.007760595
154	0xbd6e274a	-0.058142938
155	0xbd629bd7	-0.0553244
156	0xbcd6ded9	-0.026229309
157	0x3d19d62a	0.03755776
158	0xbd68415d	-0.05670296
159	0x3dbc71f7	0.092014246
160	0x3bc48fdf	0.005998596
161	0xbd8efdea	-0.06982024
162	0x3d898028	0.06713897
163	0xbd1303a4	-0.035892144
164	0xbd71fce5	-0.05907907
165	0x3e017b39	0.12644662
166	0x3c90bf1e	0.017669257
167	0xbd7138ef	-0.058892187
168	0x3d47f304	0.048815742
169	0xbd5f99bc	-0.054589972
170	0x3d3bd411	0.04585654
171	0xbe45c7c3	-0.19314484
172	0xbd753b9b	-0.059871297
173	0x3e011287	0.12604724
174	0xbdd6099d	-0.10451052
175	0xbd287696	-0.041128717
176	0x3d83e10c	0.06439409
177	0xbdcb6719	-0.09931774
178	0x3ca7d4bd	0.020487184
179	0xbcbcccbb	-0.023046842
180	0xbcdfb373	-0.027307248
181	0x3d8dc1cd	0.0692173
182	0x3ddd9c11	0.10820783
183	0xbca4a79f	-0.02009946
184	0x3d885e8c	0.066586584
185	0x3d32a530	0.043614566
186	0x3ddb5a0e	0.10710536
187	0x3d798333	0.060916137
188	0xbe0fcad6	-0.1404222
189	0x3caa4c47	0.020788325
190	0xbb9d96b9	-0.0048092273
191	0x3cfd00ee	0.030884232
192	0xbd25e30d	-0.040499736
193	0x3cd510cc	0.026008986
194	0x3d8118a6	0.063035294
195	0x3d274cff	0.040844914
196	0x3cb1bc0c	0.021696113
197	0x3b4e7a0c	0.003150585
198	0x3dcbd360	0.09952426
199	0xbaef2e7d	-0.0018248108
200	0xbd6fa182	-0.058503635
201	0xbda48b8b	-0.08034428
202	0x3d96a3f6	0.07355492
203	0xbd5a837e	-0.053348057
204	0xbdbf0654	-0.09327379
205	0x3d911228	0.07083541
206	0x3d8c00c3	0.06836083
207	0x3dbd9346	0.09256606
208	0xbcdab812	-0.0266991
209	0xbe2dccd5	-0.16972668
210	0xbc164843	-0.009172502
211	0xbcc49ab6	-0.023999553
212	0xbd12760d	-0.035757113
213	0xbddd7a58	-0.10814351
214	0xbb1692e4	-0.0022975737
215	0x3de4a167	0.111635976
216	0x3cbb1069	0.022834973
217	0xba62e187	-0.0008654822
218	0x3bbfc61e	0.005852475
219	0xbd3421f1	-0.04397768
220	0xbc3029ca	-0.010752151
221	0xbd789c59	-0.06069598
222	0xbd20fdd1	-0.03930456
223	0x3993746c	0.00028124766
224	0xbd0ae9e7	-0.033914473
225	0xbdc5012b	-0.096193634
226	0xbd9bd000	-0.07608032
227	0x3c7c3879	0.0153943235
228	0x3c90b82c	0.017665945
229	0xbc619fce	-0.013771011
230	0xbd194662	-0.037420638
231	0x3d1d1f0b	0.038359683
232	0x3c93c867	0.018039895
233	0xbdf35aaa	-0.11882527
234	0x3db39a3f	0.087696545
235	0xbdb2bb17	-0.08727091
236	0x3da055aa	0.07828839
237	0x3e15bde8	0.14623225
238	0x3e09310f	0.1339762
239	0xbdfd2069	-0.12359697
240	0xbd8aeed0	-0.06783831
241	0x3e028c80	0.12748909
242	0x3c4c61c5	0.012474482
243	0xbdb5dae8	-0.08879644
244	0xbda9a40d	-0.08283243
245	0x3d8cd7f3	0.068771265
246	0xbd868f97	-0.06570356
247	0xbd9c7b3e	-0.07640694
248	0x3e18c091	0.14917208
249	0x3d545e23	0.05184759
250	0xbd7bac92	-0.061443873
251	0xbd90b5e0	-0.0706594
252	0xbd6e3709	-0.058157954
253	0x3b3782c6	0.002800153
254	0xb98441f1	-0.00025226132
255	0xbc5afdfc	-0.013366219

layer3.0.bias f4 [16]
0	0x3dad239a	0.08454056
1	0xb9cd675c	-0.00039177656
2	0x3db30ed7	0.08743065
3	0xbbaef650	-0.0053394213
4	0xbd3f170b	-0.046652835
5	0x3a72ba9c	0.00092593743
6	0x3daa612f	0.083193175
7	0xbd599dab	-0.05312888
8	0x3d707d64	0.05871333
9	0x3d8a7cfc	0.0676212
10	0x3dc0592a	0.09392007
11	0xbc96f1e7	-0.018425895
12	0xbddd92a7	-0.10818987
13	0x3b9cb877	0.004782732
14	0xbdc72088	-0.09723002
15	0xbde00f15	-0.10940377

layer3.1.weight f4 [16]
0	0x3f8102d1	1.0078984
1	0x3f7c9adc	0.98673797
2	0x3f81966c	1.012403
3	0x3f719a93	0.94376487
4	0x3f7211b3	0.94558257
5	0x3f7536dc	0.95786834
6	0x3f6c7db1	0.9237929
7	0x3f70d5d4	0.94076276
8	0x3f7e83fe	0.99420154
9	0x3f7b9ee4	0.9828932
10	0x3f86f4c1	1.0543443
11	0x3f7b9967	0.9828095
12	0x3f62a78d	0.8853691
13	0x3f75a29e	0.9595126
14	0x3f6390b4	0.88892674
15	0x3f6fdc8a	0.9369589

layer3.1.bias f4 [16]
0	0xbe9c4262	-0.30519396
1	0xbe6d46bb	-0.23171513
2	0xbe81172f	-0.25213
3	0xbe8b7ef9	-0.2724531
4	0xbe626848	-0.22110093
5	0xbe83f0be	-0.2576961
6	0xbe9a093f	-0.3008518
7	0xbe8ce2ed	-0.2751688
8	0xbe63af68	-0.22234881
9	0xbe747c2e	-0.23875496
10	0xbe398dad	-0.18120451
11	0xbe92fe92	-0.28709847
12	0xbe5a2194	-0.21301872
13	0xbe2e2b6b	-0.1700875
14	0xbe58075d	-0.21096559
15	0xbe3a26d2	-0.18178871

layer3.1.running_mean f4 [16]
0	0x3df8b9a5	0.12144784
1	0xbebc3a0e	-0.36763042
2	0xbd153b2f	-0.036433395
3	0x3d48a330	0.048983753
4	0xbe1e4a6a	-0.15458074
5	0x3e271002	0.163147
6	0xbdb3a75b	-0.08772155
7	0xbf06557f	-0.52474207
8	0xbdcbef97	-0.099578075
9	0xbe7e2b5d	-0.2482123
10	0xbee46197	-0.44605705
11	0x3dda7578	0.10666937
12	0x3f13c507	0.57722515
13	0xbe447f9b	-0.19189303
14	0xbde7b051	-0.113129266
15	0x3e432714	0.19057876

layer3.1.running_var f4 [16]
0	0x3de924d2	0.11383976
1	0x3e163d6f	0.14671873
2	0x3e452489	0.19252218
3	0x3e071483	0.13191418
4	0x3e09502c	0.1340949
5	0x3e21a1e0	0.15784407
6	0x3dee81f1	0.11645878
7	0x3e5c6ed5	0.21526654
8	0x3e12f915	0.1435283
9	0x3e07358d	0.13204022
10	0x3e319473	0.17341785
11	0x3e4c6646	0.19960889
12	0x3e39a768	0.18130267
13	0x3e124e25	0.14287622
14	0x3e0aa613	0.13539915
15	0x3e5dd6c7	0.21663962

layer4.0.weight f4 [32, 16, 3, 3]
0	0xbe0cecec	-0.13762254
1	0xbdef6eeb	-0.11691078
2	0xbdaed4e9	-0.08536703
3	0xbd36453b	-0.044499617
4	0xbd38d15b	-0.045121532
5	0xbc53f7d6	-0.012937507
6	0xbe08ebd3	-0.1337121
7	0xbdbfd9a7	-0.09367686
8	0xbd9686ab	-0.073499046
9	0xbd28b8de	-0.041191928
10	0xbc876679	-0.016528355
11	0x3c33ef0f	0.010982289
12	0x3d9b3dfa	0.075801805
13	0xbdb1ff00	-0.086912155
14	0x3cfcad2e	0.030844297
15	0xbd7de00f	-0.061981257
16	0xbcf458c6	-0.029827487
17	0xbcd119af	-0.025524942
18	0xbdca6860	-0.09883189
19	0xbc6d88e9	-0.014497974
20	0xbdfc1c78	-0.123101175
21	0xbdaa2de1	-0.08309532
22	0xbd80bc13	-0.06285872
23	0xbdff429e	-0.12463878
24	0xbd34f011	-0.044174258
25	0xbd546a71	-0.051859323
26	0xbd302af6	-0.04300972
27	0xbce54a64	-0.027989574
28	0xbafa3bbe	-0.0019091291
29	0xbd1ba0a2	-0.03799499
30	0xbd62dbb2	-0.0553853
31	0xbd53cd04	-0.05170919
32	0xbd5dd529	-0.054158363
33	0xba92c4da	-0.0011197582
34	0x3cce52b2	0.025185917
35	0x3bef38dd	0.00730048
36	0xbc0c1241	-0.008549274
37	0x3d187f6b	0.03723089
38	0x3cd5bfb0	0.02609238
39	0x3c6973dc	0.014248814
40	0xbcf304aa	-0.02966531
41	0xbc550fbf	-0.013004242
42	0x3d501849	0.05080441
43	0x3c24b50b	0.01005293
44	0x3c880b50	0.016606957
45	0xbd88c4d6	-0.066781685
46	0xbd6300df	-0.055420753
47	0xbc86cfda	-0.016456533
48	0xbdf982e2	-0.12183167
49	0xbdac9b0c	-0.0842801
50	0xbc998e87	-0.01874472
51	0xbd2756ca	-0.040854253
52	0xbba3da8c	-0.005000418
53	0xbc61ae29	-0.013774433
54	0x3c9de53c	0.019274347
55	0xbbfbd57c	-0.0076853614
56	0xbba8943b	-0.0051446236
57	0x3c0127b8	0.007883005
58	0x3b86be6a	0.0041120546
59	0x3c74e953	0.014948207
60	0x3d254cef	0.040356573
61	0xbac2943b	-0.0014845202
62	0x3d4c9991	0.04995114
63	0x3d225f6d	0.039641786
64	0xbcc4bfdd	-0.024017269
65	0x3cdd40f5	0.027008513
66	0x3d80f70b	0.0629712
67	0x3d47bcd8	0.04876408
68	0x3cb44c84	0.022009142
69	0x3dbfd12c	0.09366068
70	0xbd357f44	-0.044310823
71	0x3d74efbd	0.059798945
72	0xbb6408b4	-0.0034795227
73	0xbd3e7613	-0.046499323
74	0x3d67aac3	0.056559335
75	0xbccdd581	-0.02512622
76	0xbc5e6010	-0.013572708
77	0xbbc99a6a	-0.006152441
78	0x3cadd6ec	0.021220647
79	0x3a7dc4ae	0.00096804916
80	0x3d15d676	0.03658148
81	0x3d9ca25c	0.07648155
82	0xbd0b2726	-0.03397288
83	0x3d25a6bb	0.04044221
84	0x3d108eab	0.03529231
85	0xbd2666c3	-0.040625345
86	0x3d2aebc3	0.041728746
87	0x3cf7df1c	0.030257754
88	0x3c9488f1	0.018131705
89	0x3c164acd	0.009173107
90	0xbcdf017c	-0.027222387
91	0x3b2eae22	0.0026654084
92	0xbc95970a	-0.018260498
93	0x3d4d4b94	0.050120905
94	0xbc1e867c	-0.009675618
95	0xbd171e21	-0.036893968
96	0xbd10efee	-0.035385065
97	0xbd938892	-0.07203783
98	0x3b750f17	0.0037393027
99	0xbe21ab85	-0.15788086
100	0xbd80da18	-0.06291598
101	0xbdac4239	-0.084110685
102	0xbdc8d9ed	-0.09807191
103	0xbd32e056	-0.043670975
104	0xbd672a66	-0.05643692
105	0xbda4e221	-0.08050943
106	0xbc7d4c73	-0.015460121
107	0x3bad58a2	0.005290107
108	0xbd201cf8	-0.039090127
109	0xbd3af5f0	-0.0456447
110	0xbae6ae1a	-0.0017599494
111	0xbd426774	-0.04746194
112	0xbd303d39	-0.043027136
113	0xbb8b33a4	-0.0042480994
114	0x3d873cf7	0.06603425
115	0x3af8defa	0.0018987351
116	0x3d9af54f	0.0756632
117	0x3d8d5a78	0.06902021
118	0x3d35bef1	0.04437155
119	0x3d531f3b	0.051543456
120	0xbd64b4db	-0.05583654
121	0x3d2952c5	0.0413387
122	0x3d082ef4	0.033247903
123	0xbc632d0d	-0.013865721
124	0x3b8c90c3	0.004289718
125	0xbd5f1a77	-0.0544686
126	0xbd009c0d	-0.03139882
127	0xbd6953e3	-0.056964766
128	0xbd83b5af	-0.06431138
129	0xbd11a58e	-0.035558276
130	0x3c52e685	0.012872343
131	0xbce09929	-0.027416782
132	0xbd312fc0	-0.04325843
133	0x3a454487	0.0007525165
134	0x3cb392a6	0.021920513
135	0xbd1b5fd4	-0.037933186
136	0xbdb222c5	-0.08698038
137	0xbde6ef9d	-0.11276171
138	0xbd012120	-0.03152573
139	0xbcb94398	-0.022615239
140	0x39561048	0.00020414696
141	0xba17ad41	-0.000578601
142	0xbd27be38	-0.04095289
143	0xbca19c44	-0.019727834
144	0xbc86bde4	-0.016447969
145	0x3d4690c7	0.048477914
146	0x3d1df2ca	0.03856162
147	0x3dc0dcd5	0.0941712
148	0xbc730a14	-0.014833946
149	0xbcd2ff99	-0.025756644
150	0x3d1b75d1	0.037954155
151	0x3d6ec706	0.058295272
152	0x3d9b1d1d	0.07573912
153	0x3b92f472	0.0044847066
154	0xbd51553a	-0.05110667
155	0xbd28a881	-0.041176323
156	0xbda6e2fc	-0.081487626
157	0xbcb17886	-0.021663915
158	0xbc7ce53a	-0.015435511
159	0xbe12cecf	-0.14336704
160	0xbcdf746e	-0.027277198
161	0xbd803e6b	-0.06261905
162	0x3cf6e1b6	0.030136924
163	0xbd04750f	-0.0323382
164	0x3db300e9	0.08740408
165	0x3cd1028d	0.025513912
166	0x3cd49386	0.02594925
167	0x3c98a44f	0.018633036
168	0x3dc5ecc4	0.096643
169	0x3d779138	0.060441226
170	0x3d11d434	0.035602763
171	0x3d4c72ed	0.04991429
172	0x3cde6988	0.02714993
173	0x3da7cd57	0.08193462
174	0x3ccca58b	0.02498128
175	0x3d056786	0.03256943
176	0x3d3f3c6f	0.046688493
177	0xbc117782	-0.008878591
178	0xbcb18eed	-0.021674598
179	0x3c620158	0.013794266
180	0x3d6c4d32	0.057690807
181	0x3d0e123d	0.034685362
182	0x3d9c642c	0.07636294
183	0x3c28566f	0.010274514
184	0x3d699366	0.057025336
185	0x3d9a4f37	0.0753464
186	0x3d45dc91	0.04830605
187	0x3d18404b	0.03717069
188	0xbc6e259e	-0.014535336
189	0xbccae18c	-0.024765752
190	0xbb79103d	-0.0038004064
191	0x3ccdc480	0.025118113
192	0x3cd822c8	0.026383772
193	0x3c818645	0.015811095
194	0x3c9510fa	0.018196572
195	0x3ba44191	0.005012699
196	0x3c638c1f	0.013888388
197	0x3be6a112	0.007038244
198	0xbc8cd134	-0.0171896
199	0x3cd812ae	0.026376095
200	0x3be37ac8	0.006942127
201	0x3cc623c5	0.024186978
202	0x3c7b141f	0.015324621
203	0xbd0f1982	-0.034936436
204	0x3b84f84d	0.00405792
205	0x3affd14e	0.0019517334
206	0x3d8ff304	0.070287734
207	0x3c3eb2ce	0.01163931
208	0xbd1c5271	-0.03816456
209	0x3c393afa	0.011305565
210	0xbce63bde	-0.028104719
211	0xbd456285	-0.04818966
212	0xbce62ac7	-0.02809657
213	0xbe48f18b	-0.19623391
214	0xbd87b889	-0.06626994
215	0x3d8721cf	0.06598245
216	0xbdb4ec76	-0.08834164
217	0xbc42b39a	-0.011883641
218	0xbd25f698	-0.040518373
219	0xbe07b79c	-0.13253635
220	0xbdaae89f	-0.0834515
221	0xbd66c360	-0.056338668
222	0xbd29ebc8	-0.041484624
223	0xbd50ccd3	-0.050976586
224	0xbc13604f	-0.00899513
225	0xbd896169	-0.06708033
226	0xbd637274	-0.055529073
227	0xbd816345	-0.06317762
228	0xbdccfb0a	-0.100088194
229	0xbddace9a	-0.10683937
230	0xbd4ee5d1	-0.05051214
231	0xbe118643	-0.14211373
232	0xbcd12cfd	-0.025534147
233	0x3c473a13	0.012159842
234	0xbd046a47	-0.032327916
235	0xbc634948	-0.013872452
236	0xbdb6f748	-0.08933884
237	0xbe1c65a4	-0.15273148
238	0xbdacb0ea	-0.08432181
239	0x3d2efa2e	0.04271906
240	0xbdf13a83	-0.11778738
241	0xbdd1beb2	-0.1024145
242	0x3c4d71b7	0.012539319
243	0x3dbf7e53	0.09350266
244	0x3db4884c	0.08815059
245	0x3d4bb096	0.049728952
246	0x3c6a8e19	0.014316105
247	0x3dab81ac	0.08374342
248	0xbd39ecac	-0.045391724
249	0x3bc72f8e	0.006078667
250	0x3c89e678	0.016833529
251	0x3ca3f969	0.020016389
252	0x3cf7ffe5	0.030273387
253	0x3d0f17aa	0.034934677
254	0xbc599c5e	-0.01328191
255	0x3d02a4c8	0.03189543

layer4.0.bias f4 [32]
0	0x3d2a2fdd	0.041549552
1	0xbda54128	-0.08069068
2	0x3d94f735	0.072737135
3	0x3d04b7de	0.032401912
4	0xbc1bc0e9	-0.009506443
5	0xbd00c513	-0.031437945
6	0x3cf51041	0.029914977
7	0x3c86d96b	0.016461095
8	0xbd9f42bc	-0.077764004
9	0x3d9b0642	0.07569553
10	0xbcfec65a	-0.03110044
11	0x3d71ee20	0.059064984
12	0x3d8fcef3	0.07021894
13	0x3d42acec	0.047528192
14	0x3b1f792f	0.0024333706
15	0xbcd9900a	-0.026557941
16	0x3d38c9b4	0.045114234
17	0x3d872d9f	0.066004984
18	0xbb0805bf	-0.0020755378
19	0x3d4d48a1	0.050118092
20	0x3d9a136e	0.07523237
21	0xbd3fcc73	-0.046825837
22	0x3ce7e4ad	0.028307283
23	0x3d6d2ed5	0.05790599
24	0x3cbefca1	0.023313822
25	0x3d062e67	0.032759096
26	0x3d2f5207	0.042802837
27	0x3d78caee	0.060740404
28	0x3ba65b28	0.0050767846
29	0x3d74fff5	0.059814412
30	0x3cba0f1b	0.022712281
31	0x3d978bf7	0.07399743

layer4.1.weight f4 [32]
0	0x3f8def57	1.1088666
1	0x3f8fdcc7	1.1239251
2	0x3f8ea13a	1.1142952
3	0x3f8ba0e5	1.0908476
4	0x3f8acbb7	1.0843419
5	0x3f915257	1.1353253
6	0x3f8ffec5	1.1249624
7	0x3f94d3aa	1.1627095
8	0x3f923b14	1.1424279
9	0x3f8e4cf2	1.1117232
10	0x3f8f3332	1.1187499
11	0x3f920545	1.1407858
12	0x3f909e09	1.1298229
13	0x3f933cab	1.1502889
14	0x3f887f73	1.0663894
15	0x3f8eb985	1.1150366
16	0x3f8a4396	1.0801876
17	0x3f9457a1	1.1589242
18	0x3f9523e5	1.1651579
19	0x3f928174	1.1445756
20	0x3f91408f	1.1347827
21	0x3f87e4b4	1.061667
22	0x3f8f575f	1.1198539
23	0x3f92815e	1.144573
24	0x3f93448c	1.1505294
25	0x3f90d956	1.1316326
26	0x3f98c8c6	1.1936271
27	0x3f8e6f32	1.1127684
28	0x3f8bf5da	1.0934403
29	0x3f86ffa9	1.0546771
30	0x3f9083a9	1.129018
31	0x3f91e0e6	1.1396759

layer4.1.bias f4 [32]
0	0x3d68c27a	0.056826092
1	0x3d10600b	0.035247844
2	0x3d1007a9	0.035163555
3	0x3d4d7b11	0.050166193
4	0xb8f0e217	-0.00011486204
5	0x3ca27166	0.019829463
6	0xbd00dd26	-0.031460904
7	0x3ce00027	0.027343823
8	0x3cb52494	0.022112168
9	0x3cf5936c	0.029977523
10	0x3ce86964	0.028370567
11	0x3cc0036e	0.023439135
12	0xbcdc80eb	-0.026916942
13	0x3c8f86e1	0.01752037
14	0x3ce3d753	0.027812636
15	0x3b609ad9	0.0034271984
16	0xbc7a5bbc	-0.01528066
17	0x3d286e18	0.04112062
18	0x3cdccb51	0.026952418
19	0x3d1e81f2	0.038698144
20	0x3d075995	0.033044416
21	0x3cf64d26	0.030066084
22	0x3ce90a07	0.028447164
23	0x3cb4f798	0.022090718
24	0x3d71fa46	0.05907657
25	0x3d2ad729	0.0417091
26	0x3d94aec0	0.072598934
27	0x3cb4d3a0	0.022073567
28	0x3cab552b	0.020914635
29	0x3d005ced	0.03133862
30	0x3d1a5d07	0.037686374
31	0x3cfc06e9	0.030765014

layer4.1.running_mean f4 [32]
0	0xbf8cc1ea	-1.0996678
1	0xbd9ce831	-0.076614745
2	0xbeae5582	-0.34049612
3	0xbfa1ea4b	-1.2649626
4	0x3e4c7e98	0.19970167
5	0x3e0bc525	0.13649423
6	0x3e6641f0	0.2248609
7	0x3e514305	0.20435722
8	0x3eaf0002	0.34179693
9	0xbd401747	-0.0468972
10	0xbe9e0f39	-0.3087099
11	0x3deecbca	0.116599634
12	0x3f037ac5	0.51359206
13	0x3e92c205	0.2866365
14	0xbf471a88	-0.7777486
15	0x3eee7681	0.46574786
16	0x3d586f16	0.052840315
17	0x3f07e9b8	0.53091
18	0x3ed87fab	0.42284903
19	0x3f0d3eb5	0.5517381
20	0x3e2d23b8	0.16908157
21	0xbf7af7c5	-0.98034316
22	0x3d369cfa	0.0445833
23	0xbd997b57	-0.07494228
24	0x3ef95316	0.48696202
25	0xbb580fd9	-0.003296843
26	0xbde36555	-0.11103312
27	0xbe1eec08	-0.15519726
28	0xbf6b17e6	-0.9183334
29	0xbf999c04	-1.2000737
30	0xbe08208d	-0.13293667
31	0x3ea75dd1	0.32688764

layer4.1.running_var f4 [32]
0	0x3fc5beff	1.5448912
1	0x3f8c8b93	1.0980095
2	0x3f879584	1.0592504
3	0x3fdd853a	1.7306283
4	0x3f482f4c	0.7819717
5	0x3f4cc918	0.79994345
6	0x3f7e5a02	0.9935609
7	0x3f64bada	0.8934761
8	0x3f44df36	0.7690309
9	0x3f6bfd43	0.9218332
10	0x3f7414f8	0.95344496
11	0x3f39247b	0.7232129
12	0x3f6e0160	0.9297085
13	0x3f6f7b79	0.9354778
14	0x3fb47fa3	1.4101452
15	0x3f29cd4c	0.66328883
16	0x3f42b435	0.76056224
17	0x3f34b838	0.70593596
18	0x3f68d34c	0.90947413
19	0x3f20cc7f	0.62812036
20	0x3f2d2d90	0.6764765
21	0x3fa6728e	1.3003709
22	0x3f93c574	1.1544633
23	0x3f959056	1.1684673
24	0x3f13a7ce	0.57677925
25	0x3f40c31f	0.7529773
26	0x3f2d59e9	0.67715317
27	0x3f8ed3d5	1.1158396
28	0x3fc0fe9c	1.5077701
29	0x3fb61895	1.4226252
30	0x3f6ca913	0.92445487
31	0x3f1d40c5	0.61426955

fc.weight f4 [1, 1152]
0	0x3bfddcc0	0.0077472627
1	0x388c8f1b	6.702376e-05
2	0xbc153b69	-0.009108403
3	0xbc149f48	-0.009071179
4	0x3bc09da2	0.0058781663
5	0x3bc02475	0.005863721
6	0xbc39cc00	-0.011340141
7	0xbd2416d4	-0.040060833
8	0xbd6fab5c	-0.05851303
9	0xbd1e8db7	-0.03870937
10	0xbc446c86	-0.011988765
11	0xbacf6f31	-0.0015825984
12	0x3c26fe28	0.0101924315
13	0xbd3675cb	-0.04454593
14	0xbd9af7cb	-0.07566794
15	0xbde5e70e	-0.11225711
16	0xbd91ac8b	-0.07112988
17	0xbc8d2573	-0.017229771
18	0xbca8d7a8	-0.020610645
19	0xbd51bd87	-0.051206138
20	0xbdbc2ed4	-0.09188619
21	0xbdd67138	-0.104708135
22	0xbda4e628	-0.08051711
23	0xbcf1b6e6	-0.029506158
24	0x3c056b71	0.008143292
25	0xbd262d97	-0.04057082
26	0xbd845b50	-0.06462729
27	0xbdc0bf15	-0.09411446
28	0xbd897eb5	-0.067136206
29	0xbd0f80c0	-0.035034895
30	0x3bdf76f7	0.0068196016
31	0xbcd8c44d	-0.026460791
32	0xbd199759	-0.037497852
33	0xbd1af15f	-0.037827846
34	0xbc75f92b	-0.01501302
35	0xbb4fc67f	-0.0031704006
36	0x3b70c34d	0.0036737502
37	0x3cfe5ecb	0.03105106
38	0xbc6cad30	-0.014445588
39	0xbc8728c7	-0.016498936
40	0xbc2bb227	-0.010479487
41	0x3b889cdb	0.0041690893
42	0x3d3ec63f	0.04657578
43	0x3d200c72	0.03907437
44	0x3d9f1a19	0.077686496
45	0x3ddcda84	0.10783866
46	0x3d383d0f	0.044980105
47	0xbb6f5adf	-0.003652267
48	0x3c686a44	0.014185492
49	0x3c6fe1d2	0.014641242
50	0xbb95460e	-0.0045554703
51	0x3d855b11	0.0651151
52	0x3dde460d	0.10853205
53	0x3d57e95e	0.05271279
54	0x3cd59ed8	0.02607672
55	0x3d7c66c6	0.06162145
56	0x3d01e6eb	0.03171436
57	0x3d519b39	0.051173422
58	0x3dacad70	0.08431518
59	0x3d8d2d77	0.06893437
60	0x3cf22d35	0.029562572
61	0x3d87c5cc	0.06629524
62	0x3d8e7cba	0.069573835
63	0x3d2cddeb	0.042203825
64	0x3d8e28d1	0.06941379
65	0x3c4ba77a	0.012430066
66	0xbc877542	-0.016535405
67	0x3cb6793d	0.022274608
68	0x3c843500	0.016138554
69	0xbb8f1e0a	-0.0043675946
70	0x3c4aa0ca	0.012367437
71	0xbc0ca785	-0.008584862
72	0xbcc9e19e	-0.024643715
73	0x3d6a238b	0.057162803
74	0x3d5ec294	0.054384783
75	0xbce2de06	-0.02769376
76	0x3c56849f	0.013093143
77	0xbcbb7a53	-0.022885477
78	0xbbddd76b	-0.0067700646
79	0x3d8c282e	0.06843601
80	0x3d2bf1ec	0.04197876
81	0xbcc6e7ab	-0.02428039
82	0x3d0bea7f	0.03415918
83	0x3c30a58e	0.010781659
84	0x39f050f2	0.00045836676
85	0x3db861a9	0.09003002
86	0x3db1f933	0.08690109
87	0x3c319b96	0.010840317
88	0x3d631788	0.055442363
89	0x3d4936ea	0.049124636
90	0x3bb17614	0.0054156873
91	0x3d9e17b1	0.077193625
92	0x3da49e9c	0.08038065
93	0x3d724499	0.05914745
94	0x3d90005d	0.07031319
95	0x3c00616d	0.007835728
96	0x3c99bb7e	0.018766161
97	0x3d46cf63	0.048537623
98	0x3da5f770	0.081038356
99	0x3d0869d0	0.033304036
100	0x3cda85b4	0.026675083
101	0x3d8c2da7	0.06844645
102	0x3ca8e497	0.020616813
103	0x3cb454bc	0.02201306
104	0x3d45215c	0.048127517
105	0x3bd78328	0.0065769143
106	0x3d13d941	0.03609586
107	0xbbb11c56	-0.0054049892
108	0xbbf2bfc1	-0.0074081128
109	0xbc8161f1	-0.015793772
110	0xbcac75c5	-0.02105225
111	0xbce40c63	-0.027837938
112	0xbc026c20	-0.007960349
113	0xbc26452b	-0.010148327
114	0xbc5002b4	-0.012695957
115	0xbd052703	-0.032507908
116	0xbd6e6e36	-0.058210574
117	0xbd679fbc	-0.05654882
118	0xbd146272	-0.036226697
119	0x3b224256	0.0024758778
120	0xb9fb1798	-0.0004789203
121	0xbd735a8d	-0.059412528
122	0xbd7d82d1	-0.061892334
123	0xbd979a03	-0.07402422
124	0xbd42c8c0	-0.04755473
125	0xbc6dc7e7	-0.014512992
126	0xbc22ab6a	-0.009928564
127	0xbda261b0	-0.07928789
128	0xbdfda220	-0.123844385
129	0xbdaceafc	-0.08443257
130	0xbd461d0e	-0.048367552
131	0xbbc6f7b9	-0.0060720113
132	0xbcbd74c6	-0.023126971
133	0xbd91698d	-0.0710021
134	0xbdb1f680	-0.08689594
135	0xbd5bf023	-0.05369581
136	0xbcce05c2	-0.02514923
137	0xbc01e204	-0.0079274215
138	0xbba41bf5	-0.0050082156
139	0xbd263556	-0.04057821
140	0xbd4e0a98	-0.05030307
141	0xbd010954	-0.031503037
142	0xbc724c86	-0.014788752
143	0x3c4aa287	0.012367851
144	0xbd0db2b5	-0.034594256
145	0xbd452a68	-0.048136145
146	0xbd976f5c	-0.07394287
147	0xbd13c69c	-0.03607808
148	0xbb98ef0c	-0.0046671685
149	0xbc90cc10	-0.01767543
150	0xbc5334a9	-0.012890973
151	0xbcdceda1	-0.026968779
152	0xbd945e35	-0.07244531
153	0xbd28a00c	-0.041168258
154	0xbd005ad1	-0.03133661
155	0xbc73358c	-0.01484431
156	0xbc1fdb90	-0.009756938
157	0xbbb37d7b	-0.005477605
158	0x3ce51e77	0.027968628
159	0x3d9843be	0.07434796
160	0x3d695227	0.056963112
161	0xbca1c368	-0.019746497
162	0xbc24bef2	-0.010055291
163	0x3d8f28f3	0.06990232
164	0x3d2445c5	0.0401056
165	0xbd63baaf	-0.055597957
166	0x3cb9bc14	0.02267269
167	0x3d33ea9c	0.043924913
168	0xbc7ab806	-0.015302664
169	0x3cc82db3	0.024435854
170	0x3c46e5eb	0.012139778
171	0xbd396e52	-0.045271225
172	0x3c2f4f22	0.010700019
173	0x3a64f1c9	0.00087335386
174	0xbc3afe2a	-0.0114131365
175	0xbd382a31	-0.04496211
176	0xbc795b66	-0.015219545
177	0xbd1f3189	-0.0388656
178	0xbcce7ca5	-0.02520592
179	0xbca042f4	-0.019563176
180	0x3bcfb4f2	0.006338709
181	0x3bc96e07	0.0061471495
182	0xbcd9e842	-0.026600007
183	0xbc614e67	-0.013751603
184	0x3d06f93f	0.032952543
185	0x3d797c47	0.060909536
186	0x3c8f00ef	0.0174565
187	0x3d0b690f	0.03403574
188	0x3d2deb7c	0.042460904
189	0x3d2ef256	0.04271158
190	0x3cd8fb82	0.026487116
191	0x3c2f7f86	0.010711556
192	0x3d451b41	0.048121694
193	0x3e005d82	0.1253567
194	0x3dec648d	0.11542616
195	0x3dfab771	0.1224202
196	0x3db1502c	0.0865787
197	0xb805e3f6	-3.1921976e-05
198	0x3caf3a03	0.021389967
199	0x3caa32b6	0.020776134
200	0xbae870e1	-0.0017733836
201	0x3c0fc569	0.008775094
202	0x3de54535	0.11194841
203	0x3da6b114	0.08139244
204	0xbc70c220	-0.0146947205
205	0x3b90614b	0.0044061295
206	0xbb7f313c	-0.0038939258
207	0x3d86325a	0.065525725
208	0x3d75a251	0.05996925
209	0x3bcbc5c6	0.006218645
210	0xbd56074b	-0.05225305
211	0xbcc6b5ff	-0.024256704
212	0xbcd3844c	-0.02581992
213	0x3c983eef	0.018584697
214	0xbd21ecaa	-0.03953234
215	0xbb1ec102	-0.0024223928
216	0x3d10934a	0.035296716
217	0x3d224600	0.03961754
218	0xbba862cf	-0.005138732
219	0x3a34208d	0.00068713055
220	0xbcef1c4c	-0.029188298
221	0xbb9a9eb3	-0.0047186255
222	0x3d44ccc2	0.048046835
223	0x3d17ad54	0.037030533
224	0x3c97c1b3	0.01852498
225	0x3d744fd2	0.059646435
226	0x3d5f87cc	0.054572865
227	0x3c90b46e	0.01766416
228	0x3b6e9c9f	0.0036409271
229	0x3bb5a2f5	0.0055431076
230	0xbd90e930	-0.07075727
231	0xbda5dde6	-0.080989644
232	0x3d246324	0.04013361
233	0x3d13df49	0.036101613
234	0x3c9c0c07	0.019048704
235	0x3d29371a	0.041312315
236	0xbd712eb6	-0.058882438
237	0xbdcb83d1	-0.09937251
238	0x3cb9d617	0.022685094
239	0x3d3740c6	0.044739507
240	0x3c62ffc4	0.013854925
241	0xbd1ad7e7	-0.037803557
242	0xbcaa6be2	-0.020803396
243	0xbd0a6da5	-0.03379597
244	0x3c993555	0.018702189
245	0x3cae25c4	0.021258242
246	0x3a847960	0.0010106973
247	0xbd0333e7	-0.03203192
248	0x3d62ba12	0.05535323
249	0x3d66f725	0.05638804
250	0xbcb1faf8	-0.021726117
251	0x3caae472	0.020860884
252	0x3c94eaf6	0.018178444
253	0xbab94388	-0.0014134506
254	0x3c6bd2d2	0.014393525
255	0xbcd514a4	-0.026010819
