data/chkbox_models/chkbox_rnd11_1_bestVal.pt (torch_old, 35085 bytes, 25 tensors)

layer1.0.weight f4 [4, 1, 3, 3]
000000 56 ff 63 3d 8c a4 ab bc dc 3b a2 3c e8 06 57 3e
       0.05566343 -0.020952486 0.019803934 0.20998728
000010 88 3e 0f be b9 79 15 3e 9d c4 ed 3e c4 ce dc 3e
       -0.13988698 0.14597215 0.46439067 0.431265
000020 9d f4 25 be 35 b0 50 be c9 ec cd bc a7 1e 78 3e
       -0.16206594 -0.20379718 -0.025137322 0.24230443
000030 8f 54 37 3d 22 92 1f be d5 ee af 3e ce 9b 83 3e
       0.044758376 -0.15583089 0.34361902 0.25704807
000040 54 9e 56 3e fa 9f 74 3e 9c c3 14 3b 1d d7 89 bb
       0.20958835 0.23889151 0.00226996 -0.0042065517
000050 30 92 07 3f 2e d0 d5 bd b6 0f 90 3e 5d ed 2c 3e
       0.5295744 -0.10440098 0.28136986 0.16887422
000060 d6 22 9d bd 81 75 d0 bd 8a 61 2d 3d 71 d4 f8 3e
       -0.0767266 -0.10178662 0.04232935 0.4859958
000070 26 be 62 bd 2a d3 58 3e 63 60 01 3d 65 25 5a 3e
       -0.05535712 0.21174303 0.031586062 0.21303327
000080 7f b6 b5 3d 5d f3 88 3e 7d 2f 63 3d a4 63 5e 3d
       0.08872699 0.2674817 0.05546521 0.054294243

layer1.0.bias f4 [4]
000000 30 a5 4d bd ab d3 80 bd d3 05 1d 3e ea 6d 8a bc
       -0.050206363 -0.062903725 0.15334253 -0.016898114

layer1.1.weight f4 [4]
000000 0b 4a 7a 3f 38 2c 82 3f c3 9a 73 3f 2b 70 85 3f
       0.9776923 1.0169744 0.9515802 1.0424856

layer1.1.bias f4 [4]
000000 f8 70 7d 3d d6 68 49 bc 65 b6 3c be fa 59 b3 3d
       0.061875314 -0.012293061 -0.18428953 0.08757396

layer1.1.running_mean f4 [4]
000000 2e 61 80 3f eb f3 6e 3f 2d 77 6d 3f 00 3f b3 3f
       1.0029657 0.9334094 0.9275997 1.4003601

layer1.1.running_var f4 [4]
000000 27 3a b6 3f 09 1b a3 3f ee 67 60 3f 61 1a 15 40
       1.4236497 1.2742625 0.87658584 2.329735

layer2.0.weight f4 [8, 4, 3, 3]
000000 db e1 45 bd 83 16 1b be 9f 4e d4 3d 8c f3 85 bd
       -0.048311096 -0.15145306 0.10366558 -0.065405935
000010 60 b4 da 3d 30 d5 df 3c 3f 39 f3 bc 5c 89 11 bd
       0.10678935 0.027323335 -0.029690383 -0.035531387
000020 75 0a 68 3d 6b be 79 bc cf f4 2a 3d 70 b9 87 bd
       0.056650598 -0.015243153 0.041737374 -0.06627166
000030 44 c3 f3 bd ad f4 93 3c 29 fd 25 be 7d c0 99 bc
       -0.11902478 0.018061006 -0.16209854 -0.018768543
000040 db 51 0b 3e 13 2d c4 3b c4 f5 03 3e 9e 72 b3 b9
       0.13605444 0.0059868186 0.12886721 -0.00034226937
000050 ca 71 c5 3d 85 00 23 3e 11 73 d0 bb 3f ec b0 3d
       0.09640844 0.15918167 -0.0063613732 0.0863881
000060 5d 20 a5 bc 73 bc 65 bd 6c 6c 27 be 1e 8b 2e bd
       -0.020157034 -0.056087922 -0.16349953 -0.04261314
000070 8b 5b 23 3e de 44 51 bd b7 6d c5 bd d3 76 ff bd
       0.1595289 -0.051091067 -0.09640067 -0.12473836
000080 c1 a8 bb bd 10 d3 6f 3c 28 39 02 3e 33 67 7a 3d
       -0.09163047 0.014637724 0.12717116 0.061133575
000090 dd 02 04 be ae 64 15 3e fe 9f 1a bd 53 e4 ab 3d
       -0.12891717 0.14589188 -0.037750237 0.08393159
0000a0 3f ac 1a be b0 3b 1d be df 64 c7 bd 89 59 a2 bd
       -0.15104769 -0.153548 -0.097360365 -0.07927234
0000b0 f3 f0 00 3e 3a 2d 7a bd d5 7d 95 3d b8 b1 fd 3d
       0.12591915 -0.061078288 0.07299391 0.12387413
0000c0 94 9e d2 bc 99 48 e2 bc ce 36 9c bd 79 a2 e1 3c
       -0.025710382 -0.027622508 -0.07627641 0.027543293
0000d0 a7 03 da 3d 7c 93 d2 3c 5e fb 67 bd 14 ac 44 3d
       0.10645228 0.025705092 -0.056636207 0.04801567
0000e0 c1 72 26 bd 1d 15 92 bd e3 4a 1b 3e f5 b7 12 bc
       -0.04063678 -0.07132933 0.15165286 -0.008954992
0000f0 54 73 85 3d 0c e7 4d 3d 24 fb 1d 3e ae 9f 48 3d
       0.06516138 0.05026917 0.15427834 0.048980407
000100 d8 7c 25 be f5 ac dc bc 6e 6c 04 3e 65 26 03 3d
       -0.16160905 -0.026937941 0.12931988 0.032019038
000110 16 70 3f 3c e5 79 a4 3d 03 40 f3 bd b1 7c ac bd
       0.011684438 0.08031062 -0.11877444 -0.084222205
000120 d1 ae 2d be 0d eb 5b 3d 04 01 a9 bc a5 57 01 be
       -0.16961218 0.05369096 -0.020630367 -0.1263109
000130 ac e2 d6 bd d1 b4 b3 bd d9 6f b8 3d 3e 41 52 3d
       -0.10492453 -0.08774722 0.09005708 0.05133175
000140 31 67 ec bc 38 df 15 bd c8 37 d7 3d 39 3f 7b bc
       -0.0288578 -0.03658983 0.10508686 -0.015334898
000150 00 84 75 3d 31 e4 41 bd 04 eb e0 3d 37 8a 31 3d
       0.059940338 -0.04733676 0.10982326 0.043344703
000160 4e 72 7b bd 96 9f 5b be d6 c1 0e 3d 5d cc 93 bd
       -0.061388306 -0.21447596 0.034852825 -0.072167136
000170 5e e8 aa 3d 9b 54 26 be 61 74 8b 3d 19 77 d6 3d
       0.08345102 -0.16243212 0.06809307 0.10471935
000180 21 77 5a bd 66 5d 09 3d ad fd b3 3d a4 fb 02 be
       -0.053336266 0.033536337 0.08788619 -0.12791306
000190 47 0c a7 bc 4d 52 da 3d 4b 72 62 3d f7 eb 77 bd
       -0.020391596 0.10660229 0.05528478 -0.060527768
0001a0 30 a7 05 3e c7 e6 0f 3e 90 2b 79 bc 84 7f 10 3c
       0.13052058 0.14052878 -0.01520814 0.008819465
0001b0 04 92 52 bd 64 6c 33 be da 2b 6e bb fd 9f e3 3d
       -0.051408783 -0.17521816 -0.0036342056 0.111145
0001c0 ab 5a 12 3e 6c 6b cc 3d c6 ee e9 3d 11 42 15 3e
       0.142924 0.099814266 0.114224955 0.14575984
0001d0 14 93 8c 3c 80 a7 b1 3d b2 49 44 3d 50 a4 1b 3e
       0.017159976 0.08674526 0.047921844 0.15199399
0001e0 de 3b b6 3d 45 ea b0 bd 73 7c 8c 3d 19 a9 a7 3d
       0.088981375 -0.08638433 0.06859674 0.0818655
0001f0 bc ff ae 3d 82 af 0c be 12 f8 9c bd d7 63 7b bd
       0.08544871 -0.13738826 -0.07664503 -0.06137451
000200 93 e8 b5 3d dc 81 7e bc ea 39 73 3d 23 a1 33 3d
       0.08882251 -0.015533891 0.059381403 0.043854844
000210 05 b0 af bd e5 1d de bc f5 a7 ca bd ef b2 2b be
       -0.08578495 -0.027113864 -0.098953165 -0.16767476
000220 79 78 ca bd 58 c0 25 3e 52 74 10 be 03 19 d2 bd
       -0.098862596 0.16186655 -0.14106873 -0.10258677
000230 ef 03 08 be aa d3 9a 3d 6a af c1 bd c8 ce 08 be
       -0.1328275 0.07559903 -0.09457286 -0.13360131
000240 9a 43 bd bc 5d ca e7 3d fc b4 f9 bd 3b 41 b2 3c
       -0.023103524 0.113178946 -0.12192723 0.02175962
000250 12 03 41 bc 82 31 cd bd 20 2b e1 3c 69 51 99 bd
       -0.011780517 -0.100192085 0.027486384 -0.07486231
000260 c5 94 e7 3c 7d 40 a6 3d 3b 67 11 3e 56 74 8c 3d
       0.028269181 0.08117769 0.14199536 0.06858127
000270 83 68 70 3d ae 7a 23 be 28 bd 35 bd 8b 31 da bd
       0.05869342 -0.15964767 -0.044369847 -0.10653981
000280 13 73 e3 bd 51 cf 46 be d0 c4 1c 3d 0f a9 f2 3d
       -0.11105933 -0.19415022 0.038273633 0.118486516
000290 b1 bc cd 3c f7 ad 1b be 36 7e c8 3d d5 23 d6 bc
       0.02511439 -0.15203081 0.09789698 -0.026140133
0002a0 78 cc cb bd 9a 82 28 be e1 13 8c bd 7b 7d 0f 3e
       -0.09951109 -0.1645607 -0.06839729 0.14012711
0002b0 0d 8a c0 3b b8 df 47 3e af 9e 4a bc 91 bb af 3d
       0.005875832 0.19518936 -0.012366935 0.08580697
0002c0 b9 d7 cb 3b d8 4b b7 3c 27 ce 22 bc 01 28 b3 bb
       0.0062207845 0.022375032 -0.009936846 -0.0054674153
0002d0 8c 38 9e 3d a7 c8 6d 3d 42 df 73 3d 1a b6 f2 bc
       0.07725629 0.058052685 0.059539087 -0.029627848
0002e0 cc 50 4e 3d 9b d9 eb bc b5 2f eb 3a d2 e9 1a be
       0.050370023 -0.028790286 0.0017943295 -0.15128258
0002f0 52 8e 19 be 24 69 4e bc cc bb 33 3d 6f e7 ba 3d
       -0.14995697 -0.01259831 0.04388027 0.09126174
000300 9a e0 f7 bd 6b 87 a0 bd 34 dd 78 3c 44 00 4a bc
       -0.12103386 -0.07838329 0.015189458 -0.012329165
000310 a4 b3 33 bd 39 42 12 3d 2c 80 35 bc b8 ba d1 bd
       -0.04387249 0.035707686 -0.011077922 -0.10240692
000320 00 db d8 3d 21 ce be bd f7 13 be bd 59 93 a0 bd
       0.10588646 -0.0931666 -0.09281152 -0.07840604
000330 11 85 21 be 1a 04 19 3e e5 7a ca 3d ce d0 4d 3d
       -0.15773417 0.14942971 0.098867215 0.05024796
000340 42 f7 18 3c 4c 72 25 3d 1d 46 3c bd 23 e9 c4 bd
       0.009336295 0.040392205 -0.045965303 -0.0961478
000350 c7 e8 1e 3e 95 69 b1 3d 3e 75 06 3d 4b 66 d3 bd
       0.15518485 0.08662716 0.032826655 -0.10322245
000360 c6 23 f7 bc ad dd fc bc 1b 63 df bd db c5 4a bb
       -0.030168425 -0.030867422 -0.10907575 -0.0030940685
000370 18 54 b3 3d a8 07 15 3e 3e 8e b0 3c 84 88 55 3d
       0.08756274 0.14553702 0.021552201 0.052132145
000380 8e a9 d6 3d d7 f9 0b 3e 8e c5 af 3d e2 db cc bc
       0.10481559 0.13669525 0.085826024 -0.025007192
000390 6e 2f 8e 3d 82 60 a1 3d 56 ec 23 3e 78 f0 f0 bd
       0.0694264 0.078797355 0.16008124 -0.11764616
0003a0 c2 7b 75 3d c1 da 75 3d 06 55 ba 3d 2d a2 e4 bb
       0.059932478 0.060023073 0.09098248 -0.0069773407
0003b0 11 0a 3d 3e 0d e7 e7 3d 89 70 8f 3d 5e c3 25 3e
       0.18460871 0.11323366 0.07003886 0.16187808
0003c0 f8 fb ae 3d 90 51 a9 3d 53 cd 12 3e 33 78 00 be
       0.08544153 0.0826751 0.14336137 -0.12545852
0003d0 40 12 e4 bc a3 d0 88 bd 06 ca 0a be 94 2a e8 bd
       -0.027840734 -0.06680419 -0.13553628 -0.11336246
0003e0 5e 60 d6 3d c2 32 da 3c 43 15 d7 3d 8f 5c 11 3e
       0.10467599 0.026635531 0.10502102 0.14195465
0003f0 22 6a af bd 31 e9 10 3e 3c 67 14 bd 09 53 0d bc
       -0.08565165 0.14151455 -0.036231264 -0.008625754

layer2.0.bias f4 [8]
000000 50 48 ce bd ec 91 12 be f8 bb d0 bd 78 fc 11 be
       -0.10072386 -0.14313477 -0.10192102 -0.14256465
000010 fa 13 1e 3e 6c 03 00 be cd 41 33 bc 16 34 11 3d
       0.15437308 -0.12501305 -0.010940981 0.035450064

layer2.1.weight f4 [8]
000000 34 bc 80 3f 72 b3 7e 3f 00 6d 85 3f bd 0f 77 3f
       1.0057435 0.9949256 1.0423889 0.9650839
000010 a1 f5 84 3f 2a 55 80 3f dd 98 81 3f 3c 29 6f 3f
       1.038746 1.002599 1.0124775 0.93422294

layer2.1.bias f4 [8]
000000 b9 e9 81 bd b1 2e 01 be 4f 70 13 bc a6 45 92 3d
       -0.06343407 -0.12615468 -0.008998944 0.07142191
000010 e6 d6 91 3d 7c 92 a0 3c f9 5b 43 bd 44 55 f2 bc
       0.07121067 0.0196011 -0.047695134 -0.029581673

layer2.1.running_mean f4 [8]
000000 9b d9 14 be b8 3d 10 be 41 f1 0f be b2 29 22 be
       -0.14536135 -0.14086044 -0.14056875 -0.15836218
000010 ca 9b a7 3d e8 a0 72 be c5 98 38 3f 51 27 6d 3e
       0.08184011 -0.23694193 0.7210811 0.2315953

layer2.1.running_var f4 [8]
000000 4a 36 2a 3d 25 80 ac 3c 29 96 47 3d fa 6d 5c 3d
       0.04155568 0.021057198 0.04872719 0.05381582
000010 01 d4 6d 3e 96 e6 b2 3d b4 be 83 3f 08 c0 c6 3d
       0.23225404 0.08735387 1.0292573 0.09704596

layer3.0.weight f4 [16, 8, 3, 3]
000000 78 a1 c5 3d d8 95 a8 3d 1a 38 d7 3c 1f 71 9e 3d
       0.09649938 0.082317054 0.026271868 0.0773642
000010 4f 95 09 bd 2b 99 26 3d e3 e9 06 bd 0e 1a 58 bd
       -0.033589657 0.040673416 -0.032937896 -0.052759223
000020 25 a1 a6 3b 9b e0 9b bd 3e 35 dc bc e8 68 97 ba
       0.005085128 -0.076111995 -0.026880857 -0.001155165
000030 fe e0 ba bd 5b f1 07 bd 0b 0e 00 bd 90 a5 8d bd
       -0.09124945 -0.03318916 -0.031263392 -0.06916344
000040 03 c8 a2 bc 85 9f 91 3c 0c 5f 6d 3d 2c 35 f9 bc
       -0.019870764 0.01777626 0.057951972 -0.030420862
000050 da 4f e6 bd fc d6 ac 3d c9 75 8a 3d a1 75 e1 3c
       -0.11245699 0.084394425 0.06760747 0.02752191
000060 d7 25 2c bc 5c bc a8 3d 4e 55 b7 3d ac 67 59 3d
       -0.010507069 0.08239052 0.089518175 0.053077385
000070 ae a2 07 be 94 2e 38 bd e7 f0 a3 bd a8 2c 13 bd
       -0.13245651 -0.044966295 -0.08004933 -0.03593126
000080 32 c0 3d 3d 7a 32 62 bc 2e 74 51 3d ac ec 12 3a
       0.04632587 -0.01380598 0.05113619 0.0005604725
000090 6e c3 ad 3b 2c bf 6c bd 1b b0 6d bd 3d d7 e4 3d
       0.005302838 -0.057799503 -0.058029275 0.11173866
0000a0 fc 48 35 bd 65 62 2a bd 4e be 18 bd a4 06 43 3d
       -0.044259056 -0.041597743 -0.037290864 0.047613755
0000b0 fd 75 fd 3c 2a 47 27 3e d2 ee b9 bd db 4f 0c be
       0.03094005 0.1633574 -0.090787545 -0.13702337
0000c0 1b 2e c0 3d 47 92 bb bd 0b 38 7b 3d 4e 5f 09 bc
       0.09383794 -0.091587596 0.061332744 -0.008384539
0000d0 44 54 83 3d 06 d3 45 3c b4 ac 38 3d 75 09 08 bd
       0.06412557 0.012074238 0.045086578 -0.033212144
0000e0 e6 c5 8f 3d a1 f5 b2 bd 32 6e 93 3d 6c f4 5e 3d
       0.07020168 -0.08738256 0.071987525 0.054432318
0000f0 c1 9c b3 3c 39 09 20 3d 8e 8a a0 3d 55 9c b6 bd
       0.021925332 0.039071295 0.07838927 -0.08916537
000100 f9 cf 49 bd b3 04 ef 3d f1 07 9a bd ea ce 7d bb
       -0.049270604 0.11670818 -0.07521046 -0.0038728067
000110 ed 1d a7 3d a5 8e 7e bd 8c cb 72 3c a7 89 55 bd
       0.08160005 -0.062147755 0.014819037 -0.05213323
000120 e8 72 05 be c0 4e 33 be 31 0c 1e bd b7 f5 74 bd
       -0.13032115 -0.1751051 -0.038585845 -0.059804644
000130 81 d1 b8 bc 49 fa 06 bd 87 28 04 3d 07 e9 1e 3d
       -0.022560837 -0.032953534 0.032265212 0.03879645
000140 01 8f b5 bd f7 65 87 bd 3f 03 12 bd 29 d4 19 bd
       -0.088651665 -0.06611245 -0.035647627 -0.037555847
000150 cb 1d 05 bd 65 4e b5 3b 8c 57 77 bd c8 6a cd 3c
       -0.032499116 0.005533027 -0.060386226 0.025075331
000160 01 94 27 bd 59 cb e2 bc a1 33 90 bd 3f 12 83 3d
       -0.040912632 -0.027684854 -0.070410974 0.063999645
000170 3e 46 f3 3d d4 dd c9 bc 56 fd 87 3d ab 61 5e bd
       0.11878632 -0.024641909 0.06640117 -0.054292362
000180 be f1 ca 3b 7e 8a 08 3c 25 e3 cd bd a6 b2 85 3c
       0.0061933687 0.0083338 -0.1005309 0.016320538
000190 dc 46 c0 3d 99 0f 64 3d 8f 8f 8e 3c 02 7b ab bc
       0.09388515 0.055678938 0.017402438 -0.020932678
0001a0 75 be b7 3d f2 05 ba 3d 10 64 53 3c e1 b5 2d bd
       0.08971874 0.09083165 0.012902275 -0.04240978
0001b0 e9 3c f7 3c 04 f7 bc 3d a8 4c 91 3b ee 42 9c bd
       0.030180411 0.09226802 0.004434187 -0.07629953
0001c0 07 97 09 bd cc dc 3a 3e 4e 28 99 bd 1f 4d cb 3d
       -0.033591297 0.1824829 -0.07478391 0.09926819
0001d0 09 f5 9f bd ca 07 81 bb 19 aa 9c bd bd 02 df 3d
       -0.078104086 -0.003937696 -0.07649631 0.10889194
0001e0 80 e8 87 bd 07 3a ae bd f0 aa a3 3d b1 b3 c3 3d
       -0.06636143 -0.085071616 0.07991588 0.09555758
0001f0 42 5b df bd d6 f9 ac bb 0f fc 9d 3d 3f 38 f4 3d
       -0.10906078 -0.005278806 0.07714092 0.119247906
000200 fa b3 dc bc 89 4d 49 3d eb 7e 86 3d fe 6e 28 3d
       -0.026941288 0.04914621 0.065671764 0.041121475
000210 8e 8c 23 3d e9 83 0c 3e c6 44 b7 bd 3f d2 2f 3d
       0.039928965 0.13722195 -0.08948664 0.042925116
000220 80 17 8e bd 74 ea ac bd 39 1d b5 bc c6 65 72 3d
       -0.06938076 -0.08443156 -0.022108661 0.05917909
000230 11 cd 57 3c 92 cd 42 3d 05 be 06 bd 56 be b5 bd
       0.01317145 0.04755933 -0.03289606 -0.08874194
000240 df 14 b3 3d 80 12 9e 3d 00 a7 99 bd e4 69 22 3d
       0.08744215 0.07718372 -0.07502556 0.039651766
000250 8a d5 98 bd 2b 60 ac 3d 76 ba da bb 67 d4 fe 3d
       -0.07462604 0.0841678 -0.00667506 0.12442856
000260 36 3e 66 bd de c4 89 3d e2 c5 89 3d 59 e9 ac bd
       -0.056211673 0.067270026 0.06727196 -0.08442945
000270 cf b8 cf 3d 72 44 45 bd 25 6c 8d 3b 54 49 85 3c
       0.10142671 -0.048160978 0.0043158703 0.016270317
000280 91 36 29 bb e8 f9 d2 3d 0d f7 27 bd 98 ee 28 bc
       -0.0025819878 0.10301572 -0.04100709 -0.010310791
000290 26 89 22 3c 63 c2 53 3d e1 d6 ac 3d 29 aa 15 3e
       0.009920394 0.051699053 0.084394224 0.14615692
0002a0 bd cb 2c bd 59 7c f9 bd c5 44 13 bd 16 8d 16 be
       -0.042186487 -0.121819206 -0.035954256 -0.14702258
0002b0 f0 62 34 bd 80 08 89 3d 40 e6 12 be cb 6b e6 bd
       -0.044039667 0.06691074 -0.14345646 -0.112510286
0002c0 73 6e 1f 3d fd 77 53 bd 96 03 f2 bc 8b c1 4e 3b
       0.038923692 -0.0516281 -0.029542726 0.0031548466
0002d0 ba ef b9 bc c2 dd 01 3d 24 22 d6 3d 60 2e f4 3c
       -0.022697318 0.031705625 0.104557306 0.02980727
0002e0 15 79 c4 3d 4a c3 b7 bc 64 cd 89 3d a0 ab 0e 3d
       0.09593407 -0.022431988 0.06728628 0.034831643
0002f0 ec 0f 07 3d 4b 5a 5c 3c 22 5a c7 bd c9 79 31 3e
       0.03297417 0.013449262 -0.09733988 0.17331614
000300 03 4a 92 3d 8b d9 9f 3d 53 31 84 3d c9 7f 7b 3c
       0.07143023 0.07805165 0.0645472 0.015350291
000310 49 9c a1 3d ef 77 0f 3d 45 7b 0e be 1e 20 8f bd
       0.07891137 0.035026487 -0.13914211 -0.06988548
000320 f3 09 8c 3d fd ca bb bd 96 96 cc bc 5b e5 9e 3c
       0.06837835 -0.09169576 -0.024974149 0.019396475
000330 ea 0f b1 3c ad 1f fc bd 3c 73 32 bb 31 66 20 bd
       0.021614034 -0.12310729 -0.002722933 -0.039159957
000340 e2 2e 0b be c9 3e f8 3c 28 33 b2 bd 01 1b 9d 3d
       -0.13592103 0.030303376 -0.087011635 0.07671166
000350 ee f7 86 3d c8 c7 16 be e3 cb d8 3b c4 21 b6 bd
       0.065902576 -0.14724648 0.006616102 -0.08893159
000360 c4 89 69 bd 2a 14 ef bc d2 9e f9 bd 34 a1 c9 bd
       -0.05701615 -0.02918442 -0.12188496 -0.098452
000370 83 a3 3d bd b1 a9 47 bc 17 de 45 bc 04 a1 ce bd
       -0.046298515 -0.012186454 -0.012076876 -0.10089305
000380 72 2e 92 3c 71 86 d5 bd dc f5 84 bd 73 10 73 bd
       0.017844412 -0.10426033 -0.064922065 -0.05934186
000390 e1 65 39 3c 7d ac 33 bd 33 33 4b 3c c1 93 8d 3c
       0.011315794 -0.04386567 0.012402344 0.017282369
0003a0 ac 86 a7 bd e7 56 ab bd 54 cb f8 3c a7 64 bc 3d
       -0.081799835 -0.08366185 0.030370392 0.091988854
0003b0 73 a0 a4 3d 63 be c8 3b 00 be 0b 3e d1 28 a9 3d
       0.08038416 0.0061262115 0.13646698 0.08259738
0003c0 34 7c 62 3d a8 25 03 3c 52 a9 21 bd 38 ae c7 3d
       0.05529423 0.008004583 -0.039468117 0.097500265
0003d0 89 fc 8c bc d6 9a 16 bc df 7d 58 3d e7 61 a2 3d
       -0.017210262 -0.009192189 0.052854415 0.0792883
0003e0 a1 4f bd bb 78 55 2e 3d 74 36 e7 3c f0 02 01 3d
       -0.005777315 0.042561978 0.028224207 0.031496942
0003f0 49 ef ad 3d 2b ed b1 3c b0 49 50 bd 3e a5 ef 3b
       0.08492906 0.021719536 -0.050851524 0.0073133996

layer3.0.bias f4 [16]
000000 fc 68 f0 3c 28 b2 cd 3c ef 86 37 bd a8 2e 55 3d
       0.029346935 0.025109366 -0.044806417 0.052046448
000010 82 c8 9b 3c f5 cb 8d bc f8 b6 38 3c 8d 5f 29 bb
       0.019016508 -0.017309168 0.011274092 -0.0025844306
000020 27 0e d8 bb d1 53 00 bc b0 8f d5 3d 81 a8 79 3c
       -0.006593484 -0.007832483 0.10427797 0.015237928
000030 4b d8 2b bb ae ab 6d bd 57 72 8d bd 3f d1 90 3d
       -0.002622145 -0.058025055 -0.06906574 0.070711605

layer3.1.weight f4 [16]
000000 4c a5 7e 3f a6 9a 78 3f 1f 0c 70 3f 8d dc 82 3f
       0.99470973 0.97110975 0.93768495 1.0223557
000010 52 1a 76 3f 87 f3 7a 3f 5e a2 82 3f c8 e0 6f 3f
       0.9613391 0.98027843 1.02058 0.93702364
000020 6b f9 80 3f fd d2 86 3f 20 2d 80 3f aa 29 7d 3f
       1.0076116 1.0533139 1.0013771 0.988917
000030 c8 c3 7b 3f 71 4b 71 3f c3 4e 68 3f b6 21 7b 3f
       0.98345613 0.9425574 0.9074518 0.98098314

layer3.1.bias f4 [16]
000000 70 50 38 be 28 d7 45 be 71 33 31 be 1f 62 13 be
       -0.17999434 -0.19320357 -0.1730478 -0.14392899
000010 26 40 1f be 86 d8 1b be a8 62 00 be 37 68 46 be
       -0.15551814 -0.15219316 -0.12537634 -0.19375692
000020 24 89 3a be 81 74 fe bd 66 f3 24 be 5d 49 54 be
       -0.18216377 -0.12424565 -0.16108474 -0.20731111
000030 68 ad 4b be aa 1b 25 be e1 e6 1f be 96 a6 3e be
       -0.19890368 -0.16123834 -0.15615417 -0.18618235

layer3.1.running_mean f4 [16]
000000 98 b4 bf 3d 47 41 4f 3c 93 f7 4f bb e2 46 31 be
       0.093606174 0.012649841 -0.003173326 -0.17312196
000010 6b 7c 0b 3d 8f 2b 7f be 4b 5b b4 be 25 81 ba bd
       0.0340542 -0.2491896 -0.352259 -0.091066636
000020 f6 14 7b be e0 3f 5b be 3d a1 77 bd fd 0a 9c bd
       -0.24519715 -0.21411085 -0.060456503 -0.07619283
000030 91 0c 97 be 49 a5 13 be 99 90 46 3f 64 a0 93 3e
       -0.29501775 -0.1441852 0.7756439 0.28833306

layer3.1.running_var f4 [16]
000000 f5 ea 56 3e b3 88 57 3e cc f4 b9 3e 84 ff 59 3e
       0.20988066 0.2104824 0.36319578 0.21288878
000010 14 00 a4 3e 70 22 5e 3e d8 67 82 3e 55 e4 2d 3e
       0.3203131 0.21692824 0.25469851 0.16981633
000020 a6 af 93 3e b7 17 4f 3e b6 18 97 3e 8c 7a 35 3e
       0.28844947 0.2022389 0.2951104 0.17722529
000030 22 ec 42 3e 2a 86 20 3e f2 ea 05 3f 45 03 43 3e
       0.1903539 0.1567618 0.52311623 0.19044216

layer4.0.weight f4 [32, 16, 3, 3]
000000 99 60 76 3d 28 2d 43 bc 11 70 48 3d e6 d6 1f 3c
       0.060150716 -0.011912622 0.048935 0.009755826
000010 c4 76 ee 3b 31 ef df bc 7e 89 14 bc 4f f5 20 3c
       0.0072773416 -0.027335735 -0.009065984 0.009824111
000020 89 a9 14 bd 2c 9a 7e bd 67 10 3c bd 46 9e df 3c
       -0.036294494 -0.06215875 -0.04591408 0.02729715
000030 48 01 48 3d 14 90 5f 3d 03 5b 88 bd e9 14 69 bc
       0.048829347 0.054580763 -0.06657984 -0.014226177
000040 0e ac 56 bd 61 19 b7 3d 02 b9 1b 3d 1a c7 30 bd
       -0.052410178 0.089403875 0.038018234 -0.043158628
000050 60 fa 41 3d 09 72 99 bc a9 dd fb bc 82 a5 de bc
       0.047357917 -0.018731134 -0.030745344 -0.02717853
000060 32 c9 84 3d 90 7c 17 bc 7a ec a4 bc a5 1d 26 bc
       0.064836875 -0.009246007 -0.020132292 -0.010138904
000070 54 b6 30 bd 0f 0e 0e bd c6 84 75 bc f5 2c 80 3c
       -0.04314263 -0.034681376 -0.014985269 0.015646437
000080 cb fd 8c 3d 74 63 ed 3c a3 c0 d2 3a 0d d5 ae 3d
       0.06884345 0.028978087 0.0016079139 0.0853673
000090 fa 81 9e 3c 0e 1d 8f 3d 52 d7 58 3c 6a 3e 86 3c
       0.019349087 0.069879636 0.01323493 0.016387183
0000a0 03 27 0a bd 4c df e3 bc 98 70 53 bb 29 23 8a 3b
       -0.03372861 -0.027816437 -0.0032263156 0.004215617
0000b0 5a b2 42 3b 66 b8 0b 3d f0 c7 a7 ba 2d 38 58 bc
       0.0029708357 0.034111403 -0.0012800675 -0.013196987
0000c0 98 8e ca bc c9 ea 9d bc 71 4a 09 bd 6a 0c e9 3c
       -0.024726197 -0.019276993 -0.03351826 0.028448302
0000d0 a4 16 23 3b 9d ac 20 bd dc a4 b8 3d 9a b4 4b 3d
       0.002488532 -0.039227117 0.090158194 0.049732782
0000e0 ac 6a 73 3d 40 a4 22 3d 6c 50 ea 3c 93 7b ba bc
       0.059427902 0.039707422 0.028602801 -0.022764003
0000f0 aa 6d 51 3d ec cb 9d bd 50 a8 4e bd c8 15 83 bd
       0.051129974 -0.07704911 -0.050453484 -0.06400639
000100 b8 ef 9a bd 06 ca ce 3c 44 f8 21 bc ca 0b f2 bc
       -0.07565254 0.025242817 -0.009885851 -0.029546637
000110 8f a9 4f 3d f3 f6 a6 3c 5e ee 9e 3d d8 d4 cb 3c
       0.050698813 0.020381426 0.07760309 0.024881765
000120 ae 1f 58 bc f0 65 dc bd 8c 17 58 bc b5 75 2c bd
       -0.013191147 -0.107616305 -0.013189208 -0.04210444
000130 03 a4 24 3c a7 eb ee 3d b4 47 dd 3d e1 6c 31 3d
       0.010048869 0.11666041 0.10804692 0.043316726
000140 79 6c 64 3c a6 a3 2f bc a5 71 cd 3c 68 5f 2a 3d
       0.0139418775 -0.010720169 0.025078604 0.041594893
000150 b5 d1 20 bb 41 d7 be bc e0 54 d3 3d 41 1f 3e bd
       -0.0024539058 -0.023296 0.10318923 -0.046416525
000160 4e 65 c9 3c 04 b3 54 3d 15 e4 9b 3d 77 d8 bb 3c
       0.024584439 0.051928535 0.076118626 0.022930367
000170 43 3e 23 3d 9a 8d 83 3d d2 32 15 3b 49 3b 60 bd
       0.0398543 0.06423493 0.0022765887 -0.05474404
000180 8f 88 4c bc a8 2b 40 bd 8c 36 ec bc 2d d6 c7 bc
       -0.01248373 -0.046916634 -0.028834604 -0.02439412
000190 d9 6f 0a bd ff 2c 6b 3c e5 3c d7 bc 9a 2c b6 3b
       -0.033798072 0.01435399 -0.026274154 0.005559516
0001a0 a0 5e f8 3d c8 03 0b bd b3 cc 7f bd 01 57 82 3c
       0.12127423 -0.033939153 -0.062451076 0.015910627
0001b0 47 dc 66 bd df 89 dc bc 35 d9 83 bd 8b 4d 0a bc
       -0.056362417 -0.02692121 -0.06437913 -0.008441339
0001c0 d8 46 f6 3b 9a 98 be 3c 2f bf 03 bd de 5c 2c 3d
       0.0075157695 0.023266125 -0.03216475 0.042080753
0001d0 64 fa 4d 3d b1 52 2c 3d 79 e5 10 3d c1 f8 51 3c
       0.05028762 0.04207105 0.035375092 0.012815655
0001e0 1e ab a8 3d 10 51 86 3c 70 a1 96 3d 4a 74 04 bd
       0.08235763 0.016396075 0.073550105 -0.032337464
0001f0 9c 6a 15 3d 07 27 58 3d b1 d4 51 bc b6 c6 36 bc
       0.036478624 0.052771594 -0.012807057 -0.011155775
000200 79 7d 1a 3d d0 d9 72 bb 05 4b 3c 3d 78 32 04 3d
       0.037717316 -0.0037056096 0.04596998 0.032274693
000210 20 34 d4 bc 70 87 75 3c f9 1c 67 3d b9 ac 94 bd
       -0.025903761 0.014985904 0.056424115 -0.07259507
000220 10 6d d7 bc 08 19 ef 3c b2 ac 66 3b 46 49 34 bd
       -0.026297122 0.02918674 0.003519815 -0.04401519
000230 3f 40 85 3c d8 a8 61 b9 7a 66 cd 3c 24 d0 8d 3b
       0.016265986 -0.00021520571 0.025073279 0.004327791
000240 0b d7 46 bd 40 b8 9d bc e4 71 61 bd 55 cb a0 3d
       -0.048544925 -0.019252896 -0.055040255 0.078512825
000250 4c 0e 58 3d 44 37 68 3d 0c a5 9a 3d 00 c9 b9 bc
       0.05274801 0.05669333 0.075510114 -0.022678852
000260 86 e2 1d 3e 82 1e c8 bc a2 ca f9 3c df 59 83 3d
       0.15418443 -0.02442861 0.03049213 0.06413626
000270 2a 74 1c bd 22 00 2f bd fc 3e 0c bd ab e1 33 3c
       -0.03819672 -0.042724736 -0.034239754 0.010979096
000280 33 55 16 bd 5e 60 59 bd 2b 20 45 bc a1 de ef bc
       -0.036702346 -0.05307042 -0.012031595 -0.029280962
000290 6c 2e 64 bd 7b aa 86 bc 88 b9 26 bb dd 14 20 bd
       -0.055708334 -0.016438713 -0.0025440175 -0.039082397
0002a0 9f f0 ef 3c 74 45 c0 bc a5 a7 0c 3b aa 8a ab 3d
       0.029289542 -0.023470618 0.0021462229 0.083760574
0002b0 fa bf 37 3c 82 e7 e6 3d 78 e6 d3 bc 83 29 9d 3d
       0.011215204 0.11274625 -0.025866732 0.07673933
0002c0 99 68 91 bc ab 2b 58 b8 45 1c c8 3c 17 6a 30 3d
       -0.017750071 -5.1539082e-05 0.024427542 0.043069925
0002d0 29 eb 9e bd 29 b8 23 3d 33 93 aa 3c be dd a1 bd
       -0.07759697 0.03997055 0.020822143 -0.07903622
0002e0 d8 f9 25 3d b2 81 5b bd 5f 29 7a bc 9e ea ac 3c
       0.040521473 -0.053590484 -0.015268653 0.021107968
0002f0 0d a0 44 3c 34 9e 88 bd af ac b8 bd b5 78 46 bc
       0.01200105 -0.066708 -0.09017312 -0.01211374
000300 da 1f 84 bd 1e 99 22 bd 5a ec fa bc 2e 03 a2 bb
       -0.06451388 -0.039696805 -0.03063028 -0.0049442267
000310 a3 87 7f bc 21 00 1a bd e3 e7 6a bd 0f 6c a1 bd
       -0.015596303 -0.03759778 -0.05735005 -0.07881939
000320 9f 08 a4 bc dd 21 b2 bd 37 4c 34 bd ef dd 43 3d
       -0.020023642 -0.08697865 -0.044017997 0.047819074
000330 41 7d 3a bb 3a c5 c7 bd f3 8f 6b bc 58 9f 71 3d
       -0.0028456005 -0.09754415 -0.014377582 0.058989853
000340 db 06 0e 3d e7 f1 b6 bc e7 d8 8b 3d 36 40 bc 3c
       0.034674507 -0.022332145 0.0682848 0.022979837
000350 21 43 56 3d a1 b0 3b bd cd c9 18 3b ef 06 de 3c
       0.052310113 -0.045822743 0.0023313642 0.027102916
000360 88 c9 82 3d 7a e9 ac 3d 21 9c 9f 3d 82 0f 7b bc
       0.06386095 0.084429696 0.07793451 -0.015323522
000370 d9 a1 87 bc 82 ee e3 bc 2b 20 3d 3d 54 03 b6 3d
       -0.016556667 -0.02782369 0.046173256 0.088873535
000380 a0 9e b8 3b 9d 06 8b 3d 0b bb 81 bc 13 53 93 bb
       0.005634144 0.06788371 -0.01583626 -0.004495987
000390 db da da 3d 0e 83 84 3d 90 f4 ef 3d fd 95 c6 3d
       0.106862746 0.06470309 0.117165685 0.09696577
0003a0 58 40 e1 3d a6 89 55 bc e8 3f 3b bc e1 b2 b8 3c
       0.10998601 -0.013033306 -0.011428811 0.022546234
0003b0 ac b7 51 3c 5b 7c 7c bd 32 b4 02 3c 4e f8 b4 3b
       0.012800138 -0.061642032 0.007977532 0.0055227643
0003c0 76 49 d0 bc 04 c0 05 bd 85 09 11 3b 30 ad 21 3d
       -0.025425654 -0.032653823 0.0022130918 0.039471805
0003d0 ff cd bd 3d 8f b0 c4 3d 70 eb 10 3d b8 e2 e3 bc
       0.09267806 0.096039884 0.03538078 -0.027818069
0003e0 45 d6 1b 3d 7e 7b d9 bc 93 36 00 bd d7 a2 b9 3d
       0.03804614 -0.026548143 -0.031302046 0.09064262
0003f0 1e c6 8f 3d e3 6e 27 3d 67 02 72 bd c9 26 88 3d
       0.0702021 0.040877234 -0.059084322 0.06648023

layer4.0.bias f4 [32]
000000 f3 8e a2 3d fd f4 c5 bc 6b 39 83 3d 8b 6c 3e 3d
       0.07937422 -0.024164671 0.06407436 0.046490233
000010 20 e3 1c bb a4 6c 97 bd bc 0c 93 3d d4 bf 08 3d
       -0.0023939088 -0.073937684 0.07180163 0.033386067
000020 0e b7 97 3d eb af 15 3d 7b ed 66 bd 8c 82 e6 3a
       0.07407962 0.03654472 -0.056378823 0.0017586513
000030 37 7b 79 3d 89 be 98 3c fb d6 90 3d 8b fc dd bc
       0.060908522 0.018645542 0.07072254 -0.027097961
000040 4e eb 44 bd 16 70 98 3d a3 ca a4 bd 69 93 67 3d
       -0.048075967 0.07443254 -0.080464624 0.056537066
000050 d5 98 31 3d 26 6b e7 3b 66 d5 3a bd 14 a2 3d 3d
       0.043358643 0.0070623336 -0.04561367 0.046297148
000060 95 3b 8e 3d d2 2a ac 3b 46 9b 73 bd 7a 42 52 3d
       0.06944958 0.005254128 -0.059474252 0.05133293
000070 ce 82 9d bd f0 76 90 bd 01 fe 05 3c a0 13 72 3d
       -0.07690965 -0.070539355 0.008178235 0.059100747

layer4.1.weight f4 [32]
000000 a4 28 8a 3f 4a b8 87 3f a8 65 8a 3f 6e 8a 8b 3f
       1.0793653 1.0603116 1.0812273 1.090162
000010 75 cf 8b 3f 24 dc 8a 3f 6d c3 89 3f 9f cc 87 3f
       1.0922686 1.0848432 1.0762764 1.060932
000020 b0 6f 8d 3f 5e 39 8a 3f fc 62 85 3f f4 80 88 3f
       1.1049709 1.0798757 1.0420833 1.0664353
000030 4d 04 8a 3f 9e 4b 8c 3f d1 21 87 3f 68 3c 88 3f
       1.0782562 1.0960577 1.0557195 1.0643435
000040 a8 80 84 3f 92 7b 8c 3f 05 60 88 3f 86 8a 8a 3f
       1.0351763 1.0975211 1.0654303 1.0823524
000050 28 08 89 3f 25 e8 84 3f 55 d6 8e 3f 30 2c 88 3f
       1.0705614 1.0383345 1.1159159 1.0638485
000060 6e 51 88 3f d7 57 8a 3f 5c 99 8b 3f 64 d5 87 3f
       1.064985 1.0808057 1.0906177 1.0611997
000070 46 86 8a 3f 6d 0a 8a 3f 43 53 8c 3f 51 9d 8d 3f
       1.0822227 1.0784432 1.096291 1.1063634

layer4.1.bias f4 [32]
000000 1d 4e 64 3d 4b 23 38 3c a2 93 35 3d 1a c4 08 3d
       0.055738557 0.011238883 0.044330247 0.033390142
000010 a6 e7 67 3d ef 0f 5c 3d 22 d6 7f 3d e3 a3 08 3d
       0.0566174 0.053726133 0.062460072 0.03335942
000020 6f c9 8a 3d a7 b3 92 3c b3 08 83 3c 98 86 44 3c
       0.06776702 0.01790793 0.015995359 0.01199498
000030 c6 85 aa 3c 9c 45 06 3d cf 7a 45 3d ff c7 5a 3d
       0.020815741 0.03278123 0.048212823 0.053413387
000040 10 92 97 bb 66 c3 69 3d e1 d7 f2 3c 95 eb 59 3d
       -0.0046255663 0.057071112 0.029643955 0.053203184
000050 42 d9 09 3d d1 88 01 3c 8d c9 42 3d 09 00 31 3d
       0.03365446 0.007906155 0.047555495 0.043212924
000060 7d b3 ed 3c 8a c0 68 3d 06 e6 30 3d d2 ef 06 3d
       0.02901625 0.056824245 0.043188117 0.032943554
000070 35 96 d5 3c 3b 0b 6c 3d 96 1a 33 3d 62 1f 63 3d
       0.0260726 0.057627898 0.043726526 0.05544985

layer4.1.running_mean f4 [32]
000000 cb 1a f6 3e 3d 3d 9f 3e 67 45 1f 3e dd ca 0b 3f
       0.48067316 0.3110141 0.15553819 0.5460642
000010 b5 4a 4f 3e 43 b0 2f bf 15 2e a2 bf d0 6f e3 3d
       0.20243342 -0.6862833 -1.2670313 0.11105311
000020 15 e8 5d 3e 72 94 74 3e c8 6f e0 3e 78 58 a2 3e
       0.21670564 0.23884752 0.43835282 0.3170812
000030 d6 04 b6 3e 68 04 53 be a8 c9 8e bf 1f 33 ae 3e
       0.35550565 -0.2060715 -1.1155291 0.34023377
000040 f8 1b ee 3e 26 fd c6 3d b4 5b 0a 3f 33 29 a4 be
       0.46505713 0.09716253 0.5404618 -0.32062683
000050 97 13 b9 3e 06 86 a3 3e 27 cc b0 3d 91 a3 c7 bf
       0.36147758 0.3193819 0.08632689 -1.5596792
000060 94 ed 1d 3f 34 92 4b bf 35 d7 a9 3e c4 83 c1 3e
       0.6169064 -0.79519963 0.33172002 0.37795842
000070 3a d9 12 be 8f aa b0 3d fe 43 8c be e1 70 00 be
       -0.14340678 0.086262815 -0.27395624 -0.1254306

layer4.1.running_var f4 [32]
000000 6b 5c 18 3f 84 6c 71 3f 96 20 80 3f ac d9 55 3f
       0.5951602 0.94306207 1.0009944 0.83535266
000010 f6 c5 65 3f 75 97 8f 3f 5c ed c6 3f cb dd 53 3f
       0.8975519 1.1218096 1.5541186 0.82760304
000020 ab 21 4e 3f cd f9 74 3f d6 02 38 3f 8b 39 70 3f
       0.80520123 0.95693666 0.7187933 0.93837804
000030 90 1c 70 3f 79 67 8f 3f 9c ce b3 3f 7a 80 52 3f
       0.9379358 1.1203452 1.4047427 0.8222729
000040 bc 40 18 3f 36 da 4b 3f f9 7e 72 3f 6f 64 9c 3f
       0.59473777 0.7962984 0.94724995 1.221815
000050 50 76 22 3f fb 6d 32 3f f0 f2 64 3f ab 3e e8 3f
       0.6346178 0.69699067 0.89433193 1.8144125
000060 9e e2 4d 3f 3b 43 a9 3f f7 f7 5a 3f 95 8d 59 3f
       0.80423915 1.3223642 0.85534614 0.8498166
000070 df db 8b 3f 33 5d 8a 3f d7 4a 87 3f de d3 91 3f
       1.0926474 1.0809692 1.0569714 1.1392782

fc.weight f4 [1, 1152]
000000 8f fa 21 3c c4 87 8a 3c 38 66 1d 3d b8 00 3b 3c
       0.009886398 0.016910441 0.03842756 0.011413746
000010 1f 37 96 bb b1 d3 46 3c a3 e9 81 3c 0c e2 1c bb
       -0.0045842077 0.012135432 0.015858477 -0.0023938445
000020 84 f1 90 3d a2 66 7c bc 5b ed 64 bb c0 a2 0b 3c
       0.070773154 -0.015405329 -0.0034931514 0.008522689
000030 e5 36 7c bb 55 87 5a 3c 3a 3d d4 3d 87 76 83 3d
       -0.0038484868 0.01333793 0.103632405 0.06419092
000040 11 bd d8 3c bf 4a 05 bc 1a dc e6 ba be 8c fd 38
       0.026457341 -0.008135497 -0.0017613203 0.000120901954
000050 c7 44 ae 3c e7 54 83 bc 52 8b 60 bc 26 ea 19 bd
       0.02127303 -0.016031696 -0.013705092 -0.037576817
000060 9e d5 e0 bc 16 1d ef 3c 8d 04 9c bb ec 29 bc bc
       -0.02744561 0.029188674 -0.0047612847 -0.022969209
000070 de 59 9d bc 8d d8 4b bd 60 17 ca bc 62 ad 56 3c
       -0.019207891 -0.049767066 -0.02466935 0.013102861
000080 b1 39 c3 3b 26 91 98 bb ee 74 e9 bc 32 71 09 3c
       0.005957805 -0.004655975 -0.02849814 0.008388804
000090 d7 35 af bc 21 2e 01 3d 09 af 08 3c 63 1b 9a 3c
       -0.021387978 0.031538133 0.008342513 0.018811887
0000a0 6e f0 bd 3c f6 d1 e1 bc 98 e5 dc 3c 4e dd 8d 3c
       0.023185935 -0.027565937 0.026964948 0.01731744
0000b0 cf e4 80 3c d9 5c 28 3c b1 d6 40 3d b3 78 00 bc
       0.015734104 0.010276043 0.047079746 -0.007841277
0000c0 5b 20 0e 3d dc 43 a7 3d 3e 12 83 3d f4 5a 5f 3d
       0.034698825 0.0816724 0.06399964 0.0545301
0000d0 c5 04 e6 3c ab a1 be 3c 51 bd c0 bc 97 51 42 3c
       0.028078446 0.023270449 -0.023527773 0.011860273
0000e0 2e 75 87 3d e5 b6 00 3d 51 48 65 3d 2e 1f 04 3d
       0.06614147 0.03142442 0.05597717 0.032256298
0000f0 e8 66 aa 3c 34 2b c8 3c bc e8 33 3d 08 fa 3d 3d
       0.020801023 0.024434663 0.043923125 0.046381027
000100 51 7f 8d 3d 30 79 1d 3d 8e ed 4b bd d0 8d c6 3c
       0.06909049 0.03844565 -0.049787097 0.024237543
000110 fb c6 91 3b d2 b5 64 3c ec 16 bc 3c 6e 64 16 3d
       0.004448769 0.013959365 0.022960149 0.03671687
000120 a8 a7 02 bd a1 d9 ae bb e8 c6 0f 3d af df 54 3d
       -0.03189817 -0.005336002 0.0351018 0.051971134
000130 73 38 23 bc 0e d3 a7 bb ec 49 b9 3c 44 df 30 3d
       -0.009962189 -0.005121595 0.022618257 0.043181673
000140 16 8e 04 3d ca 9d 1c 3d e3 12 8e 3b d6 15 dc 3c
       0.032362066 0.038236417 0.0043357476 0.026865881
000150 e1 18 88 3c e5 11 5b 3d f6 60 93 3d 14 ed a2 3d
       0.016613426 0.053483862 0.07196228 0.07955375
000160 28 3f d1 3c d1 30 26 3d e7 58 cd 3c 5e 49 ae 3c
       0.02554281 0.0405739 0.025066806 0.021275219
000170 95 86 a0 3d 92 c0 81 3d 5c 6f 2a 3c a7 5e aa 3c
       0.078381695 0.06335558 0.010402527 0.020797087
000180 d7 1a 8b 3c 97 bd 32 3d 5f 96 02 3d 09 02 ea 3c
       0.016980572 0.04363784 0.031881686 0.028565424
000190 7e f5 f3 3c 87 1f c3 3b b8 ba f3 bc 2e 48 f7 3c
       0.029780146 0.005954686 -0.02975212 0.030185785
0001a0 35 97 24 3a 16 60 a4 3a 5e 91 ab 3c e8 41 ac bb
       0.0006278635 0.0012540843 0.02094334 -0.00525688
0001b0 fd 9a 98 37 bf 03 c8 3b af 63 8f bc f7 20 ce bb
       1.8191984e-05 0.006103962 -0.017503588 -0.006290551
0001c0 45 25 d7 ba 3f b8 21 bc 95 f2 98 bc 3b db b0 3c
       -0.0016414305 -0.009870588 -0.01867036 0.021588912
0001d0 b2 32 aa 3c d1 17 ff 3c 00 39 82 3c 40 d3 ee 3b
       0.020776127 0.031139286 0.01589632 0.0072883666
0001e0 2e c6 9b bc 30 9b 6b 3d f9 57 d1 3d de ca b2 3d
       -0.019015398 0.057521045 0.102218576 0.087301
0001f0 00 03 ac bc 6d 91 43 bc 67 01 6d bc 1e 03 01 3c
       -0.020997524 -0.011936528 -0.014465666 0.007874278
000200 15 1b 23 bd 80 aa 83 3b 52 7c e2 bc 08 55 63 bc
       -0.03982075 0.004018128 -0.027647171 -0.0138752535
000210 5e 47 44 bb 65 d3 b8 3c 80 9d ca 3c 34 32 1f 3d
       -0.0029949765 0.022561738 0.024733305 0.038866237
000220 e8 6d fd 3c 33 87 a6 3c a5 7f 91 3a db 04 35 bc
       0.030936196 0.02032814 0.0011100663 -0.011048521
000230 da 7a 8a 3b 80 02 5a bc f3 4d b4 bc c3 18 89 bc
       0.004226071 -0.01330626 -0.022009825 -0.01673544
000240 30 92 36 bc c4 27 86 ba e6 6f 7f 3c c7 b2 7b 3d
       -0.011143252 -0.001023524 0.0155906435 0.061449792
000250 1b c5 6f bb 37 f6 08 bc 15 5d 70 3c 2f 74 1c 3c
       -0.003658599 -0.008359483 0.01467063 0.009549185
000260 69 39 db 3c c5 5e f7 3c 94 42 b3 3c f2 4c 67 bc
       0.026760774 0.030196557 0.021882333 -0.014117466
000270 b8 22 03 3d 34 2e d8 3c 00 d5 82 3d a1 3f c7 3d
       0.032015532 0.026389219 0.06388283 0.09728933
000280 a3 d5 4d 3d fc eb 08 3d a1 c4 04 3d 21 a4 bc 3c
       0.050252568 0.033428177 0.032414082 0.023027482
000290 65 96 4e 3d 62 2a 94 3d c2 8d 01 3d 30 4d ff 3c
       0.050436396 0.072346464 0.03162933 0.031164736
0002a0 0e d1 4c bc 24 43 90 3c 04 4d 2d 3c 06 8c 67 3d
       -0.012501014 0.01761014 0.010577444 0.05653002
0002b0 72 ba 93 3c 02 ef 90 ba aa 04 fd bc 2b d9 39 3b
       0.01803324 -0.0011057558 -0.030886013 0.0028358202
0002c0 4b 4d f0 3c 16 71 e9 3c 27 26 c7 b7 8a e6 c4 ba
       0.029333731 0.028496306 -2.3740415e-05 -0.0015022319
0002d0 0e 48 33 3a f6 57 27 3b 1f 24 8b bc e0 cf 0f bc
       0.0006839045 0.0025534607 -0.016984997 -0.008777589
0002e0 eb 0b 1f bc 53 f6 87 3c e1 09 84 3c 57 36 ea 3b
       -0.009707431 0.016596949 0.016117992 0.007147591
0002f0 fb 8d c5 bc 67 5b ba bc 0b cc 50 bc 75 78 70 3c
       -0.024115553 -0.022748662 -0.01274396 0.014677157
000300 dd e7 07 bd ea 51 77 bc 9b 8f b2 bd f7 ef 4e bd
       -0.033180106 -0.015095213 -0.08718797 -0.050521817
000310 ae 31 16 bd 35 95 5e bc 7b c6 a6 bc f6 89 61 bd
       -0.036668472 -0.013585378 -0.020358315 -0.05506321
000320 a3 0a f4 bd cb dc 7e bd 4c 03 59 bd 0b de 52 bc
       -0.11916091 -0.062222283 -0.05298166 -0.012870322
000330 c9 71 50 bc dd b3 f6 bc b3 7a 8f bd cc 18 73 bd
       -0.012722441 -0.030115062 -0.07005825 -0.05934982
000340 c2 f8 ba bc 03 1e c1 ba 8e 2d 1f 3c 0b 1f 5d 3c
       -0.022823695 -0.0014733676 0.009715451 0.013496171
000350 ea 4c 9a 3a 29 f5 d1 ba 2e bc 90 ba b7 d5 a1 3c
       0.001177219 -0.0016018498 -0.001104241 0.019755227
000360 93 26 41 bb 60 18 57 3a 3c 6f a8 bc fd b4 78 bc
       -0.0029472455 0.0008205231 -0.020560853 -0.01517987
000370 23 21 20 bd 3e 0c 1f 3c 70 9d 7a 3c 13 8e 1b bd
       -0.0390941 0.009707509 0.015296325 -0.03797729
000380 57 a1 29 bd c9 f1 1b bd f9 ff 7e bc 24 a9 eb bc
       -0.04141363 -0.03807238 -0.015563958 -0.028767176
000390 15 70 20 bd 95 0d 64 bc ff 8d b2 bd d2 0f a0 bd
       -0.03916939 -0.013919254 -0.0871849 -0.078155175
0003a0 dc 12 1c bd c6 e8 ea bc 25 c5 db bc b9 09 2d bd
       -0.038103923 -0.028675448 -0.026827404 -0.0422456
0003b0 22 cb 3a bd 66 ac aa bd 0d 63 70 bd f8 97 13 bd
       -0.04560388 -0.08333664 -0.058688212 -0.0360336
0003c0 62 18 ba bb f0 b4 c5 bc c5 52 09 bd a1 0b 87 bd
       -0.005679176 -0.02413413 -0.0335262 -0.06594015
0003d0 d8 85 ff bc 3d e3 c4 bc 4c 6f 03 bc 04 f6 9f bc
       -0.031191751 -0.024034137 -0.008022141 -0.01952649
0003e0 cc d7 da bc d6 2b 0b bd 81 60 41 bc 82 22 f0 bc
       -0.026714228 -0.033977352 -0.0118027935 -0.02931333
0003f0 3d 6e 9f bc b5 6e 08 3d e7 53 5c 3c 14 1b 6b 3c
       -0.019461745 0.033308703 0.013447738 0.014349718
